[0;1;34m
-----------------------------------------
DbPass STARTED
-----------------------------------------
[0mmodule attributes {dlti.dl_spec = #dlti.dl_spec<#dlti.dl_entry<i128, dense<128> : vector<2xi32>>, #dlti.dl_entry<f128, dense<128> : vector<2xi32>>, #dlti.dl_entry<i64, dense<64> : vector<2xi32>>, #dlti.dl_entry<i32, dense<32> : vector<2xi32>>, #dlti.dl_entry<i16, dense<16> : vector<2xi32>>, #dlti.dl_entry<f16, dense<16> : vector<2xi32>>, #dlti.dl_entry<f64, dense<64> : vector<2xi32>>, #dlti.dl_entry<!llvm.ptr, dense<64> : vector<4xi32>>, #dlti.dl_entry<i8, dense<8> : vector<2xi32>>, #dlti.dl_entry<i1, dense<8> : vector<2xi32>>, #dlti.dl_entry<"dlti.stack_alignment", 128 : i32>, #dlti.dl_entry<"dlti.endianness", "little">>, llvm.data_layout = "e-m:o-i64:64-i128:128-n32:64-S128", llvm.target_triple = "arm64-apple-macosx16.0.0", "polygeist.target-cpu" = "apple-m1", "polygeist.target-features" = "+aes,+crc,+dotprod,+fp-armv8,+fp16fml,+fullfp16,+lse,+neon,+ras,+rcpc,+rdm,+sha2,+sha3,+v8.1a,+v8.2a,+v8.3a,+v8.4a,+v8.5a,+v8a,+zcm,+zcz"} {
  llvm.mlir.global internal constant @str9("false\00") {addr_space = 0 : i32}
  llvm.mlir.global internal constant @str8("true\00") {addr_space = 0 : i32}
  llvm.mlir.global internal constant @str7("Success: %s\0A\00") {addr_space = 0 : i32}
  llvm.mlir.global internal constant @str6("c[%d] = %d, a[%d] = %d, b[%d] = %d\0A\00") {addr_space = 0 : i32}
  llvm.mlir.global internal constant @str5("Results:\0A\00") {addr_space = 0 : i32}
  llvm.mlir.global internal constant @str4("Parallel region completed\0A\00") {addr_space = 0 : i32}
  llvm.mlir.global internal constant @str3("Parallel region:\0A\00") {addr_space = 0 : i32}
  llvm.mlir.global internal constant @str2("a[%d] = %d, b[%d] = %d\0A\00") {addr_space = 0 : i32}
  llvm.mlir.global internal constant @str1("Initial values:\0A\00") {addr_space = 0 : i32}
  llvm.mlir.global internal constant @str0("Usage: %s <size>\0A\00") {addr_space = 0 : i32}
  llvm.func @printf(!llvm.ptr, ...) -> i32
  func.func @main(%arg0: i32, %arg1: memref<?xmemref<?xi8>>) -> i32 attributes {llvm.linkage = #llvm.linkage<external>} {
    %false = arith.constant false
    %true = arith.constant true
    %c4 = arith.constant 4 : index
    %c4_i64 = arith.constant 4 : i64
    %c1_i8 = arith.constant 1 : i8
    %c0_i8 = arith.constant 0 : i8
    %c0_i32 = arith.constant 0 : i32
    %c1_i32 = arith.constant 1 : i32
    %c2_i32 = arith.constant 2 : i32
    %c1 = arith.constant 1 : index
    %c0 = arith.constant 0 : index
    %0 = llvm.mlir.undef : i32
    %1 = arith.cmpi slt, %arg0, %c2_i32 : i32
    %2 = arith.cmpi sge, %arg0, %c2_i32 : i32
    %3 = arith.select %1, %c1_i32, %0 : i32
    scf.if %1 {
      %5 = llvm.mlir.addressof @str0 : !llvm.ptr
      %6 = llvm.getelementptr %5[0, 0] : (!llvm.ptr) -> !llvm.ptr, !llvm.array<18 x i8>
      %7 = memref.load %arg1[%c0] : memref<?xmemref<?xi8>>
      %8 = polygeist.memref2pointer %7 : memref<?xi8> to !llvm.ptr
      %9 = llvm.call @printf(%6, %8) vararg(!llvm.func<i32 (ptr, ...)>) : (!llvm.ptr, !llvm.ptr) -> i32
    }
    %4 = arith.select %2, %c0_i32, %3 : i32
    scf.if %2 {
      %5 = memref.load %arg1[%c1] : memref<?xmemref<?xi8>>
      %6 = func.call @atoi(%5) : (memref<?xi8>) -> i32
      %7 = arith.extsi %6 : i32 to i64
      %8 = arith.muli %7, %c4_i64 : i64
      %9 = arith.index_cast %8 : i64 to index
      %10 = arith.divui %9, %c4 : index
      %guid, %ptr = arts.db_alloc[<inout>, <heap>, <write>] route(%c0_i32 : i32) sizes[%c1] elementType(i32) elementSizes[%10] {arts.id = 8 : i64, arts.memref = #arts.memref_metadata<rank = 1 : i64, allocationId = "parallel_for.c:13:12", totalAccesses = 3 : i64, readCount = 2 : i64, writeCount = 1 : i64, readWriteRatio = 0.66666666666666663 : f64, allAccessesAffine = true, hasNonAffineAccesses = false, firstUseId = 8 : i64, hasUniformAccess = true, dominantAccessPattern = "sequential", accessedInParallelLoop = true, hasLoopCarriedDeps = true, reuseDistance = 1 : i64, hasGoodSpatialLocality = true>} : (memref<?xi64>, memref<?xmemref<memref<?xi32>>>)
      %11 = arith.index_cast %6 : i32 to index
      %12 = llvm.mlir.addressof @str1 : !llvm.ptr
      %13 = llvm.getelementptr %12[0, 0] : (!llvm.ptr) -> !llvm.ptr, !llvm.array<17 x i8>
      %14 = llvm.call @printf(%13) vararg(!llvm.func<i32 (ptr, ...)>) : (!llvm.ptr) -> i32
      %15 = llvm.mlir.addressof @str2 : !llvm.ptr
      %16 = llvm.getelementptr %15[0, 0] : (!llvm.ptr) -> !llvm.ptr, !llvm.array<24 x i8>
      scf.for %arg2 = %c0 to %11 step %c1 {
        %36 = arith.index_cast %arg2 : index to i32
        %37 = arith.muli %36, %c2_i32 : i32
        %38 = llvm.call @printf(%16, %36, %36, %36, %37) vararg(!llvm.func<i32 (ptr, ...)>) : (!llvm.ptr, i32, i32, i32, i32) -> i32
      } {arts.id = 2 : i64, arts.loop = #arts.loop_metadata<potentiallyParallel = true, hasReductions = false, readCount = 2 : i64, writeCount = 0 : i64, tripCount = 0 : i64, nestingLevel = 0 : i64, hasUniformStride = true, hasGatherScatter = false, dataMovementPattern = 0 : i64, suggestedPartitioning = 0 : i64, suggestedChunkSize = 0 : i64, memoryFootprintPerIter = 8 : i64, hasInterIterationDeps = false, dependenceDistance = 0 : i64, locationKey = "-">}
      %17 = llvm.mlir.addressof @str3 : !llvm.ptr
      %18 = llvm.getelementptr %17[0, 0] : (!llvm.ptr) -> !llvm.ptr, !llvm.array<18 x i8>
      %19 = llvm.call @printf(%18) vararg(!llvm.func<i32 (ptr, ...)>) : (!llvm.ptr) -> i32
      %guid_0, %ptr_1 = arts.db_acquire[<inout>] (%guid : memref<?xi64>, %ptr : memref<?xmemref<memref<?xi32>>>) offsets[%c0] sizes[%c1] -> (memref<?xi64>, memref<?xmemref<memref<?xi32>>>)
      arts.edt <parallel> <internode> route(%c0_i32) (%ptr_1) : memref<?xmemref<memref<?xi32>>> {
      ^bb0(%arg2: memref<?xmemref<memref<?xi32>>>):
        arts.for(%c0) to(%11) step(%c1) schedule(<static>) {{
        ^bb0(%arg3: index):
          %36 = arith.index_cast %arg3 : index to i32
          %37 = arith.muli %36, %c2_i32 : i32
          %38 = arith.addi %36, %37 : i32
          %39 = arts.db_ref %arg2[%c0] : memref<?xmemref<memref<?xi32>>> -> memref<?xi32>
          memref.store %38, %39[%arg3] : memref<?xi32>
        }}
        arts.db_release(%arg2) : memref<?xmemref<memref<?xi32>>>
      }
      %20 = llvm.mlir.addressof @str4 : !llvm.ptr
      %21 = llvm.getelementptr %20[0, 0] : (!llvm.ptr) -> !llvm.ptr, !llvm.array<27 x i8>
      %22 = llvm.call @printf(%21) vararg(!llvm.func<i32 (ptr, ...)>) : (!llvm.ptr) -> i32
      %23 = arith.cmpi sgt, %6, %c0_i32 : i32
      %24 = scf.if %23 -> (i8) {
        %36:2 = scf.for %arg2 = %c0 to %11 step %c1 iter_args(%arg3 = %c1_i8, %arg4 = %true) -> (i8, i1) {
          %37:2 = scf.if %arg4 -> (i8, i1) {
            %38 = arts.db_ref %ptr[%c0] : memref<?xmemref<memref<?xi32>>> -> memref<?xi32>
            %39 = memref.load %38[%arg2] : memref<?xi32>
            %40 = arith.index_cast %arg2 : index to i32
            %41 = arith.muli %40, %c2_i32 : i32
            %42 = arith.addi %40, %41 : i32
            %43 = arith.cmpi ne, %39, %42 : i32
            %44 = arith.select %43, %c0_i8, %arg3 : i8
            %45 = arith.cmpi eq, %39, %42 : i32
            scf.yield %44, %45 : i8, i1
          } else {
            scf.yield %arg3, %false : i8, i1
          }
          scf.yield %37#0, %37#1 : i8, i1
        } {arts.id = 4 : i64, arts.loop = #arts.loop_metadata<potentiallyParallel = false, hasReductions = false, readCount = 3 : i64, writeCount = 0 : i64, tripCount = 0 : i64, nestingLevel = 0 : i64, hasUniformStride = true, hasGatherScatter = false, dataMovementPattern = 0 : i64, suggestedPartitioning = 0 : i64, suggestedChunkSize = 0 : i64, memoryFootprintPerIter = 12 : i64, hasInterIterationDeps = true, dependenceDistance = 0 : i64, locationKey = "-">}
        scf.yield %36#0 : i8
      } else {
        scf.yield %c1_i8 : i8
      }
      %25 = llvm.mlir.addressof @str5 : !llvm.ptr
      %26 = llvm.getelementptr %25[0, 0] : (!llvm.ptr) -> !llvm.ptr, !llvm.array<10 x i8>
      %27 = llvm.call @printf(%26) vararg(!llvm.func<i32 (ptr, ...)>) : (!llvm.ptr) -> i32
      %28 = llvm.mlir.addressof @str6 : !llvm.ptr
      %29 = llvm.getelementptr %28[0, 0] : (!llvm.ptr) -> !llvm.ptr, !llvm.array<36 x i8>
      scf.for %arg2 = %c0 to %11 step %c1 {
        %36 = arith.index_cast %arg2 : index to i32
        %37 = arts.db_ref %ptr[%c0] : memref<?xmemref<memref<?xi32>>> -> memref<?xi32>
        %38 = memref.load %37[%arg2] : memref<?xi32>
        %39 = arith.muli %36, %c2_i32 : i32
        %40 = llvm.call @printf(%29, %36, %38, %36, %36, %36, %39) vararg(!llvm.func<i32 (ptr, ...)>) : (!llvm.ptr, i32, i32, i32, i32, i32, i32) -> i32
      } {arts.id = 5 : i64, arts.loop = #arts.loop_metadata<potentiallyParallel = true, hasReductions = false, readCount = 3 : i64, writeCount = 0 : i64, tripCount = 0 : i64, nestingLevel = 0 : i64, hasUniformStride = true, hasGatherScatter = false, dataMovementPattern = 0 : i64, suggestedPartitioning = 0 : i64, suggestedChunkSize = 0 : i64, memoryFootprintPerIter = 12 : i64, hasInterIterationDeps = false, dependenceDistance = 0 : i64, locationKey = "-">}
      %30 = llvm.mlir.addressof @str7 : !llvm.ptr
      %31 = llvm.getelementptr %30[0, 0] : (!llvm.ptr) -> !llvm.ptr, !llvm.array<13 x i8>
      %32 = arith.extui %24 : i8 to i32
      %33 = arith.cmpi ne, %32, %c0_i32 : i32
      %34 = scf.if %33 -> (!llvm.ptr) {
        %36 = llvm.mlir.addressof @str8 : !llvm.ptr
        %37 = llvm.getelementptr %36[0, 0] : (!llvm.ptr) -> !llvm.ptr, !llvm.array<5 x i8>
        scf.yield %37 : !llvm.ptr
      } else {
        %36 = llvm.mlir.addressof @str9 : !llvm.ptr
        %37 = llvm.getelementptr %36[0, 0] : (!llvm.ptr) -> !llvm.ptr, !llvm.array<6 x i8>
        scf.yield %37 : !llvm.ptr
      }
      %35 = llvm.call @printf(%31, %34) vararg(!llvm.func<i32 (ptr, ...)>) : (!llvm.ptr, !llvm.ptr) -> i32
      arts.db_free(%guid) : memref<?xi64>
      arts.db_free(%ptr) : memref<?xmemref<memref<?xi32>>>
    }
    return %4 : i32
  }
  func.func private @atoi(memref<?xi8>) -> i32 attributes {llvm.linkage = #llvm.linkage<external>}
}

DbGraph Analysis: main
======================================
Summary: 1 allocs, 1 acquires
Peak: 1 live DBs, 0 bytes

DB [A]
  Op: %guid, %ptr = arts.db_alloc[<inout>, <heap>, <write>] route(%c0_i32 : i32) sizes[%c1] elementType(i32) elementSizes[%10] {arts.id = 8 : i64, arts.memref = #arts.memref_metadata<rank = 1 : i64, allocationId = "parallel_for.c:13:12", totalAccesses = 3 : i64, readCount = 2 : i64, writeCount = 1 : i64, readWriteRatio = 0.66666666666666663 : f64, allAccessesAffine = true, hasNonAffineAccesses = false, firstUseId = 8 : i64, hasUniformAccess = true, dominantAccessPattern = "sequential", accessedInParallelLoop = true, hasLoopCarriedDeps = true, reuseDistance = 1 : i64, hasGoodSpatialLocality = true>} : (memref<?xi64>, memref<?xmemref<memref<?xi32>>>)
  Lifetime: Op 29 -> 52 (span=9, path=9)
  Rank: 1
  Size: 0 bytes (dynamic)
  Usage: 1 acquires, 1 releases, depth=0
  Acquires (1):
    [A.1] Op 44->52, mode=#arts.mode<inout>, size=[1]
      Offsets: [0]
      EDT Uses - Reads: 0, Writes: 1
  Releases: 1 (tracked in acquires)


[0;1;35m[DEBUG] [db][0m Function main has 1 DbAcquire nodes
[0;1;35m[DEBUG] [db][0m Skipping acquire %guid_0, %ptr_1 = arts.db_acquire[<inout>] (%guid : memref<?xi64>, %ptr : memref<?xmemref<memref<?xi32>>>) offsets[%c0] sizes[%c1] -> (memref<?xi64>, memref<?xmemref<memref<?xi32>>>): not a task EDT
[0;1;35m[DEBUG] [db][0m Function atoi has 0 DbAcquire nodes
[0;1;34m[INFO] [db][0m  - Running Phase 2 optimizations (parallel EDT refinement)
[0;1;34m
-----------------------------------------
DbPass FINISHED
-----------------------------------------

[0mmodule attributes {dlti.dl_spec = #dlti.dl_spec<#dlti.dl_entry<i128, dense<128> : vector<2xi32>>, #dlti.dl_entry<f128, dense<128> : vector<2xi32>>, #dlti.dl_entry<i64, dense<64> : vector<2xi32>>, #dlti.dl_entry<i32, dense<32> : vector<2xi32>>, #dlti.dl_entry<i16, dense<16> : vector<2xi32>>, #dlti.dl_entry<f16, dense<16> : vector<2xi32>>, #dlti.dl_entry<f64, dense<64> : vector<2xi32>>, #dlti.dl_entry<!llvm.ptr, dense<64> : vector<4xi32>>, #dlti.dl_entry<i8, dense<8> : vector<2xi32>>, #dlti.dl_entry<i1, dense<8> : vector<2xi32>>, #dlti.dl_entry<"dlti.stack_alignment", 128 : i32>, #dlti.dl_entry<"dlti.endianness", "little">>, llvm.data_layout = "e-m:o-i64:64-i128:128-n32:64-S128", llvm.target_triple = "arm64-apple-macosx16.0.0", "polygeist.target-cpu" = "apple-m1", "polygeist.target-features" = "+aes,+crc,+dotprod,+fp-armv8,+fp16fml,+fullfp16,+lse,+neon,+ras,+rcpc,+rdm,+sha2,+sha3,+v8.1a,+v8.2a,+v8.3a,+v8.4a,+v8.5a,+v8a,+zcm,+zcz"} {
  llvm.mlir.global internal constant @str9("false\00") {addr_space = 0 : i32}
  llvm.mlir.global internal constant @str8("true\00") {addr_space = 0 : i32}
  llvm.mlir.global internal constant @str7("Success: %s\0A\00") {addr_space = 0 : i32}
  llvm.mlir.global internal constant @str6("c[%d] = %d, a[%d] = %d, b[%d] = %d\0A\00") {addr_space = 0 : i32}
  llvm.mlir.global internal constant @str5("Results:\0A\00") {addr_space = 0 : i32}
  llvm.mlir.global internal constant @str4("Parallel region completed\0A\00") {addr_space = 0 : i32}
  llvm.mlir.global internal constant @str3("Parallel region:\0A\00") {addr_space = 0 : i32}
  llvm.mlir.global internal constant @str2("a[%d] = %d, b[%d] = %d\0A\00") {addr_space = 0 : i32}
  llvm.mlir.global internal constant @str1("Initial values:\0A\00") {addr_space = 0 : i32}
  llvm.mlir.global internal constant @str0("Usage: %s <size>\0A\00") {addr_space = 0 : i32}
  llvm.func @printf(!llvm.ptr, ...) -> i32
  func.func @main(%arg0: i32, %arg1: memref<?xmemref<?xi8>>) -> i32 attributes {llvm.linkage = #llvm.linkage<external>} {
    %false = arith.constant false
    %true = arith.constant true
    %c4 = arith.constant 4 : index
    %c4_i64 = arith.constant 4 : i64
    %c1_i8 = arith.constant 1 : i8
    %c0_i8 = arith.constant 0 : i8
    %c0_i32 = arith.constant 0 : i32
    %c1_i32 = arith.constant 1 : i32
    %c2_i32 = arith.constant 2 : i32
    %c1 = arith.constant 1 : index
    %c0 = arith.constant 0 : index
    %0 = llvm.mlir.undef : i32
    %1 = arith.cmpi slt, %arg0, %c2_i32 : i32
    %2 = arith.cmpi sge, %arg0, %c2_i32 : i32
    %3 = arith.select %1, %c1_i32, %0 : i32
    scf.if %1 {
      %5 = llvm.mlir.addressof @str0 : !llvm.ptr
      %6 = llvm.getelementptr %5[0, 0] : (!llvm.ptr) -> !llvm.ptr, !llvm.array<18 x i8>
      %7 = memref.load %arg1[%c0] : memref<?xmemref<?xi8>>
      %8 = polygeist.memref2pointer %7 : memref<?xi8> to !llvm.ptr
      %9 = llvm.call @printf(%6, %8) vararg(!llvm.func<i32 (ptr, ...)>) : (!llvm.ptr, !llvm.ptr) -> i32
    }
    %4 = arith.select %2, %c0_i32, %3 : i32
    scf.if %2 {
      %5 = memref.load %arg1[%c1] : memref<?xmemref<?xi8>>
      %6 = func.call @atoi(%5) : (memref<?xi8>) -> i32
      %7 = arith.extsi %6 : i32 to i64
      %8 = arith.muli %7, %c4_i64 : i64
      %9 = arith.index_cast %8 : i64 to index
      %10 = arith.divui %9, %c4 : index
      %guid, %ptr = arts.db_alloc[<inout>, <heap>, <write>] route(%c0_i32 : i32) sizes[%c1] elementType(i32) elementSizes[%10] {arts.id = 8 : i64, arts.memref = #arts.memref_metadata<rank = 1 : i64, allocationId = "parallel_for.c:13:12", totalAccesses = 3 : i64, readCount = 2 : i64, writeCount = 1 : i64, readWriteRatio = 0.66666666666666663 : f64, allAccessesAffine = true, hasNonAffineAccesses = false, firstUseId = 8 : i64, hasUniformAccess = true, dominantAccessPattern = "sequential", accessedInParallelLoop = true, hasLoopCarriedDeps = true, reuseDistance = 1 : i64, hasGoodSpatialLocality = true>} : (memref<?xi64>, memref<?xmemref<memref<?xi32>>>)
      %11 = arith.index_cast %6 : i32 to index
      %12 = llvm.mlir.addressof @str1 : !llvm.ptr
      %13 = llvm.getelementptr %12[0, 0] : (!llvm.ptr) -> !llvm.ptr, !llvm.array<17 x i8>
      %14 = llvm.call @printf(%13) vararg(!llvm.func<i32 (ptr, ...)>) : (!llvm.ptr) -> i32
      %15 = llvm.mlir.addressof @str2 : !llvm.ptr
      %16 = llvm.getelementptr %15[0, 0] : (!llvm.ptr) -> !llvm.ptr, !llvm.array<24 x i8>
      scf.for %arg2 = %c0 to %11 step %c1 {
        %36 = arith.index_cast %arg2 : index to i32
        %37 = arith.muli %36, %c2_i32 : i32
        %38 = llvm.call @printf(%16, %36, %36, %36, %37) vararg(!llvm.func<i32 (ptr, ...)>) : (!llvm.ptr, i32, i32, i32, i32) -> i32
      } {arts.id = 2 : i64, arts.loop = #arts.loop_metadata<potentiallyParallel = true, hasReductions = false, readCount = 2 : i64, writeCount = 0 : i64, tripCount = 0 : i64, nestingLevel = 0 : i64, hasUniformStride = true, hasGatherScatter = false, dataMovementPattern = 0 : i64, suggestedPartitioning = 0 : i64, suggestedChunkSize = 0 : i64, memoryFootprintPerIter = 8 : i64, hasInterIterationDeps = false, dependenceDistance = 0 : i64, locationKey = "-">}
      %17 = llvm.mlir.addressof @str3 : !llvm.ptr
      %18 = llvm.getelementptr %17[0, 0] : (!llvm.ptr) -> !llvm.ptr, !llvm.array<18 x i8>
      %19 = llvm.call @printf(%18) vararg(!llvm.func<i32 (ptr, ...)>) : (!llvm.ptr) -> i32
      %guid_0, %ptr_1 = arts.db_acquire[<inout>] (%guid : memref<?xi64>, %ptr : memref<?xmemref<memref<?xi32>>>) offsets[%c0] sizes[%c1] -> (memref<?xi64>, memref<?xmemref<memref<?xi32>>>)
      arts.edt <parallel> <internode> route(%c0_i32) (%ptr_1) : memref<?xmemref<memref<?xi32>>> {
      ^bb0(%arg2: memref<?xmemref<memref<?xi32>>>):
        arts.for(%c0) to(%11) step(%c1) schedule(<static>) {{
        ^bb0(%arg3: index):
          %36 = arith.index_cast %arg3 : index to i32
          %37 = arith.muli %36, %c2_i32 : i32
          %38 = arith.addi %36, %37 : i32
          %39 = arts.db_ref %arg2[%c0] : memref<?xmemref<memref<?xi32>>> -> memref<?xi32>
          memref.store %38, %39[%arg3] : memref<?xi32>
        }}
        arts.db_release(%arg2) : memref<?xmemref<memref<?xi32>>>
      }
      %20 = llvm.mlir.addressof @str4 : !llvm.ptr
      %21 = llvm.getelementptr %20[0, 0] : (!llvm.ptr) -> !llvm.ptr, !llvm.array<27 x i8>
      %22 = llvm.call @printf(%21) vararg(!llvm.func<i32 (ptr, ...)>) : (!llvm.ptr) -> i32
      %23 = arith.cmpi sgt, %6, %c0_i32 : i32
      %24 = scf.if %23 -> (i8) {
        %36:2 = scf.for %arg2 = %c0 to %11 step %c1 iter_args(%arg3 = %c1_i8, %arg4 = %true) -> (i8, i1) {
          %37:2 = scf.if %arg4 -> (i8, i1) {
            %38 = arts.db_ref %ptr[%c0] : memref<?xmemref<memref<?xi32>>> -> memref<?xi32>
            %39 = memref.load %38[%arg2] : memref<?xi32>
            %40 = arith.index_cast %arg2 : index to i32
            %41 = arith.muli %40, %c2_i32 : i32
            %42 = arith.addi %40, %41 : i32
            %43 = arith.cmpi ne, %39, %42 : i32
            %44 = arith.select %43, %c0_i8, %arg3 : i8
            %45 = arith.cmpi eq, %39, %42 : i32
            scf.yield %44, %45 : i8, i1
          } else {
            scf.yield %arg3, %false : i8, i1
          }
          scf.yield %37#0, %37#1 : i8, i1
        } {arts.id = 4 : i64, arts.loop = #arts.loop_metadata<potentiallyParallel = false, hasReductions = false, readCount = 3 : i64, writeCount = 0 : i64, tripCount = 0 : i64, nestingLevel = 0 : i64, hasUniformStride = true, hasGatherScatter = false, dataMovementPattern = 0 : i64, suggestedPartitioning = 0 : i64, suggestedChunkSize = 0 : i64, memoryFootprintPerIter = 12 : i64, hasInterIterationDeps = true, dependenceDistance = 0 : i64, locationKey = "-">}
        scf.yield %36#0 : i8
      } else {
        scf.yield %c1_i8 : i8
      }
      %25 = llvm.mlir.addressof @str5 : !llvm.ptr
      %26 = llvm.getelementptr %25[0, 0] : (!llvm.ptr) -> !llvm.ptr, !llvm.array<10 x i8>
      %27 = llvm.call @printf(%26) vararg(!llvm.func<i32 (ptr, ...)>) : (!llvm.ptr) -> i32
      %28 = llvm.mlir.addressof @str6 : !llvm.ptr
      %29 = llvm.getelementptr %28[0, 0] : (!llvm.ptr) -> !llvm.ptr, !llvm.array<36 x i8>
      scf.for %arg2 = %c0 to %11 step %c1 {
        %36 = arith.index_cast %arg2 : index to i32
        %37 = arts.db_ref %ptr[%c0] : memref<?xmemref<memref<?xi32>>> -> memref<?xi32>
        %38 = memref.load %37[%arg2] : memref<?xi32>
        %39 = arith.muli %36, %c2_i32 : i32
        %40 = llvm.call @printf(%29, %36, %38, %36, %36, %36, %39) vararg(!llvm.func<i32 (ptr, ...)>) : (!llvm.ptr, i32, i32, i32, i32, i32, i32) -> i32
      } {arts.id = 5 : i64, arts.loop = #arts.loop_metadata<potentiallyParallel = true, hasReductions = false, readCount = 3 : i64, writeCount = 0 : i64, tripCount = 0 : i64, nestingLevel = 0 : i64, hasUniformStride = true, hasGatherScatter = false, dataMovementPattern = 0 : i64, suggestedPartitioning = 0 : i64, suggestedChunkSize = 0 : i64, memoryFootprintPerIter = 12 : i64, hasInterIterationDeps = false, dependenceDistance = 0 : i64, locationKey = "-">}
      %30 = llvm.mlir.addressof @str7 : !llvm.ptr
      %31 = llvm.getelementptr %30[0, 0] : (!llvm.ptr) -> !llvm.ptr, !llvm.array<13 x i8>
      %32 = arith.extui %24 : i8 to i32
      %33 = arith.cmpi ne, %32, %c0_i32 : i32
      %34 = scf.if %33 -> (!llvm.ptr) {
        %36 = llvm.mlir.addressof @str8 : !llvm.ptr
        %37 = llvm.getelementptr %36[0, 0] : (!llvm.ptr) -> !llvm.ptr, !llvm.array<5 x i8>
        scf.yield %37 : !llvm.ptr
      } else {
        %36 = llvm.mlir.addressof @str9 : !llvm.ptr
        %37 = llvm.getelementptr %36[0, 0] : (!llvm.ptr) -> !llvm.ptr, !llvm.array<6 x i8>
        scf.yield %37 : !llvm.ptr
      }
      %35 = llvm.call @printf(%31, %34) vararg(!llvm.func<i32 (ptr, ...)>) : (!llvm.ptr, !llvm.ptr) -> i32
      arts.db_free(%guid) : memref<?xi64>
      arts.db_free(%ptr) : memref<?xmemref<memref<?xi32>>>
    }
    return %4 : i32
  }
  func.func private @atoi(memref<?xi8>) -> i32 attributes {llvm.linkage = #llvm.linkage<external>}
}
[0;1;34m
-----------------------------------------
DbPass STARTED
-----------------------------------------
[0mmodule attributes {dlti.dl_spec = #dlti.dl_spec<#dlti.dl_entry<i128, dense<128> : vector<2xi32>>, #dlti.dl_entry<f128, dense<128> : vector<2xi32>>, #dlti.dl_entry<i64, dense<64> : vector<2xi32>>, #dlti.dl_entry<i32, dense<32> : vector<2xi32>>, #dlti.dl_entry<i16, dense<16> : vector<2xi32>>, #dlti.dl_entry<f16, dense<16> : vector<2xi32>>, #dlti.dl_entry<f64, dense<64> : vector<2xi32>>, #dlti.dl_entry<!llvm.ptr, dense<64> : vector<4xi32>>, #dlti.dl_entry<i8, dense<8> : vector<2xi32>>, #dlti.dl_entry<i1, dense<8> : vector<2xi32>>, #dlti.dl_entry<"dlti.stack_alignment", 128 : i32>, #dlti.dl_entry<"dlti.endianness", "little">>, llvm.data_layout = "e-m:o-i64:64-i128:128-n32:64-S128", llvm.target_triple = "arm64-apple-macosx16.0.0", "polygeist.target-cpu" = "apple-m1", "polygeist.target-features" = "+aes,+crc,+dotprod,+fp-armv8,+fp16fml,+fullfp16,+lse,+neon,+ras,+rcpc,+rdm,+sha2,+sha3,+v8.1a,+v8.2a,+v8.3a,+v8.4a,+v8.5a,+v8a,+zcm,+zcz"} {
  llvm.mlir.global internal constant @str9("false\00") {addr_space = 0 : i32}
  llvm.mlir.global internal constant @str8("true\00") {addr_space = 0 : i32}
  llvm.mlir.global internal constant @str7("Success: %s\0A\00") {addr_space = 0 : i32}
  llvm.mlir.global internal constant @str6("c[%d] = %d, a[%d] = %d, b[%d] = %d\0A\00") {addr_space = 0 : i32}
  llvm.mlir.global internal constant @str5("Results:\0A\00") {addr_space = 0 : i32}
  llvm.mlir.global internal constant @str4("Parallel region completed\0A\00") {addr_space = 0 : i32}
  llvm.mlir.global internal constant @str3("Parallel region:\0A\00") {addr_space = 0 : i32}
  llvm.mlir.global internal constant @str2("a[%d] = %d, b[%d] = %d\0A\00") {addr_space = 0 : i32}
  llvm.mlir.global internal constant @str1("Initial values:\0A\00") {addr_space = 0 : i32}
  llvm.mlir.global internal constant @str0("Usage: %s <size>\0A\00") {addr_space = 0 : i32}
  llvm.func @printf(!llvm.ptr, ...) -> i32
  func.func @main(%arg0: i32, %arg1: memref<?xmemref<?xi8>>) -> i32 attributes {llvm.linkage = #llvm.linkage<external>} {
    %c8 = arith.constant 8 : index
    %false = arith.constant false
    %true = arith.constant true
    %c4 = arith.constant 4 : index
    %c4_i64 = arith.constant 4 : i64
    %c1_i8 = arith.constant 1 : i8
    %c0_i8 = arith.constant 0 : i8
    %c0_i32 = arith.constant 0 : i32
    %c1_i32 = arith.constant 1 : i32
    %c2_i32 = arith.constant 2 : i32
    %c1 = arith.constant 1 : index
    %c0 = arith.constant 0 : index
    %0 = llvm.mlir.undef : i32
    %1 = arith.cmpi slt, %arg0, %c2_i32 : i32
    %2 = arith.cmpi sge, %arg0, %c2_i32 : i32
    %3 = arith.select %1, %c1_i32, %0 : i32
    scf.if %1 {
      %5 = llvm.mlir.addressof @str0 : !llvm.ptr
      %6 = llvm.getelementptr %5[0, 0] : (!llvm.ptr) -> !llvm.ptr, !llvm.array<18 x i8>
      %7 = memref.load %arg1[%c0] : memref<?xmemref<?xi8>>
      %8 = polygeist.memref2pointer %7 : memref<?xi8> to !llvm.ptr
      %9 = llvm.call @printf(%6, %8) vararg(!llvm.func<i32 (ptr, ...)>) : (!llvm.ptr, !llvm.ptr) -> i32
    }
    %4 = arith.select %2, %c0_i32, %3 : i32
    scf.if %2 {
      %5 = memref.load %arg1[%c1] : memref<?xmemref<?xi8>>
      %6 = func.call @atoi(%5) : (memref<?xi8>) -> i32
      %7 = arith.extsi %6 : i32 to i64
      %8 = arith.muli %7, %c4_i64 : i64
      %9 = arith.index_cast %8 : i64 to index
      %10 = arith.divui %9, %c4 : index
      %guid, %ptr = arts.db_alloc[<inout>, <heap>, <pinned>] route(%c0_i32 : i32) sizes[%c1] elementType(i32) elementSizes[%10] {arts.id = 8 : i64, arts.memref = #arts.memref_metadata<rank = 1 : i64, allocationId = "parallel_for.c:13:12", totalAccesses = 3 : i64, readCount = 2 : i64, writeCount = 1 : i64, readWriteRatio = 0.66666666666666663 : f64, allAccessesAffine = true, hasNonAffineAccesses = false, firstUseId = 8 : i64, hasUniformAccess = true, dominantAccessPattern = "sequential", accessedInParallelLoop = true, hasLoopCarriedDeps = true, reuseDistance = 1 : i64, hasGoodSpatialLocality = true>} : (memref<?xi64>, memref<?xmemref<memref<?xi32>>>)
      %11 = arith.index_cast %6 : i32 to index
      %12 = llvm.mlir.addressof @str1 : !llvm.ptr
      %13 = llvm.getelementptr %12[0, 0] : (!llvm.ptr) -> !llvm.ptr, !llvm.array<17 x i8>
      %14 = llvm.call @printf(%13) vararg(!llvm.func<i32 (ptr, ...)>) : (!llvm.ptr) -> i32
      %15 = llvm.mlir.addressof @str2 : !llvm.ptr
      %16 = llvm.getelementptr %15[0, 0] : (!llvm.ptr) -> !llvm.ptr, !llvm.array<24 x i8>
      scf.for %arg2 = %c0 to %11 step %c1 {
        %36 = arith.index_cast %arg2 : index to i32
        %37 = arith.muli %36, %c2_i32 : i32
        %38 = llvm.call @printf(%16, %36, %36, %36, %37) vararg(!llvm.func<i32 (ptr, ...)>) : (!llvm.ptr, i32, i32, i32, i32) -> i32
      } {arts.id = 2 : i64, arts.loop = #arts.loop_metadata<potentiallyParallel = true, hasReductions = false, readCount = 2 : i64, writeCount = 0 : i64, tripCount = 0 : i64, nestingLevel = 0 : i64, hasUniformStride = true, hasGatherScatter = false, dataMovementPattern = 0 : i64, suggestedPartitioning = 0 : i64, suggestedChunkSize = 0 : i64, memoryFootprintPerIter = 8 : i64, hasInterIterationDeps = false, dependenceDistance = 0 : i64, locationKey = "-">}
      %17 = llvm.mlir.addressof @str3 : !llvm.ptr
      %18 = llvm.getelementptr %17[0, 0] : (!llvm.ptr) -> !llvm.ptr, !llvm.array<18 x i8>
      %19 = llvm.call @printf(%18) vararg(!llvm.func<i32 (ptr, ...)>) : (!llvm.ptr) -> i32
      %guid_0, %ptr_1 = arts.db_acquire[<inout>] (%guid : memref<?xi64>, %ptr : memref<?xmemref<memref<?xi32>>>) offsets[%c0] sizes[%c1] -> (memref<?xi64>, memref<?xmemref<memref<?xi32>>>)
      arts.edt <parallel> <intranode> route(%c0_i32) (%ptr_1) : memref<?xmemref<memref<?xi32>>> attributes {workers = #arts.workers<8>} {
      ^bb0(%arg2: memref<?xmemref<memref<?xi32>>>):
        %36 = arts.epoch {
          %37 = arts.get_parallel_worker_id
          %38 = arith.divui %11, %c8 : index
          %39 = arith.remui %11, %c8 : index
          %40 = arith.cmpi ult, %37, %39 : index
          %41 = arith.index_cast %40 : i1 to index
          %42 = arith.addi %38, %41 : index
          %43 = arith.muli %37, %38 : index
          %44 = arith.minui %37, %39 : index
          %45 = arith.addi %43, %44 : index
          %46 = arith.cmpi ult, %11, %45 : index
          %47 = arith.subi %11, %45 : index
          %48 = arith.select %46, %c0, %47 : index
          %49 = arith.minui %42, %48 : index
          %50 = arith.cmpi ugt, %49, %c0 : index
          scf.if %50 {
            %guid_2, %ptr_3 = arts.db_acquire[<inout>] ( %arg2 : memref<?xmemref<memref<?xi32>>>) offsets[%c0] sizes[%c1] -> (memref<?xi64>, memref<?xmemref<memref<?xi32>>>)
            %51 = arith.index_cast %37 : index to i32
            arts.edt <task> <intranode> route(%51) (%ptr_3) : memref<?xmemref<memref<?xi32>>> {
            ^bb0(%arg3: memref<?xmemref<memref<?xi32>>>):
              scf.for %arg4 = %c0 to %49 step %c1 {
                %52 = arith.addi %45, %arg4 : index
                %53 = arith.index_cast %52 : index to i32
                %54 = arith.muli %53, %c2_i32 : i32
                %55 = arith.addi %53, %54 : i32
                %56 = arts.db_ref %arg3[%c0] : memref<?xmemref<memref<?xi32>>> -> memref<?xi32>
                memref.store %55, %56[%52] : memref<?xi32>
              } {arts.loop = #arts.loop_metadata<potentiallyParallel = true, hasReductions = false, readCount = 0 : i64, writeCount = 0 : i64, tripCount = 0 : i64, nestingLevel = 0 : i64, hasUniformStride = false, hasGatherScatter = false, dataMovementPattern = 6 : i64, suggestedPartitioning = 4 : i64, suggestedChunkSize = 0 : i64, memoryFootprintPerIter = 0 : i64, hasInterIterationDeps = false, dependenceDistance = 0 : i64, locationKey = "parallel_for.c:27:1">}
              arts.db_release(%arg3) : memref<?xmemref<memref<?xi32>>>
            }
          }
        } : i64
        arts.db_release(%arg2) : memref<?xmemref<memref<?xi32>>>
      }
      %20 = llvm.mlir.addressof @str4 : !llvm.ptr
      %21 = llvm.getelementptr %20[0, 0] : (!llvm.ptr) -> !llvm.ptr, !llvm.array<27 x i8>
      %22 = llvm.call @printf(%21) vararg(!llvm.func<i32 (ptr, ...)>) : (!llvm.ptr) -> i32
      %23 = arith.cmpi sgt, %6, %c0_i32 : i32
      %24 = scf.if %23 -> (i8) {
        %36:2 = scf.for %arg2 = %c0 to %11 step %c1 iter_args(%arg3 = %c1_i8, %arg4 = %true) -> (i8, i1) {
          %37:2 = scf.if %arg4 -> (i8, i1) {
            %38 = arts.db_ref %ptr[%c0] : memref<?xmemref<memref<?xi32>>> -> memref<?xi32>
            %39 = memref.load %38[%arg2] : memref<?xi32>
            %40 = arith.index_cast %arg2 : index to i32
            %41 = arith.muli %40, %c2_i32 : i32
            %42 = arith.addi %40, %41 : i32
            %43 = arith.cmpi ne, %39, %42 : i32
            %44 = arith.select %43, %c0_i8, %arg3 : i8
            %45 = arith.cmpi eq, %39, %42 : i32
            scf.yield %44, %45 : i8, i1
          } else {
            scf.yield %arg3, %false : i8, i1
          }
          scf.yield %37#0, %37#1 : i8, i1
        } {arts.id = 4 : i64, arts.loop = #arts.loop_metadata<potentiallyParallel = false, hasReductions = false, readCount = 3 : i64, writeCount = 0 : i64, tripCount = 0 : i64, nestingLevel = 0 : i64, hasUniformStride = true, hasGatherScatter = false, dataMovementPattern = 0 : i64, suggestedPartitioning = 0 : i64, suggestedChunkSize = 0 : i64, memoryFootprintPerIter = 12 : i64, hasInterIterationDeps = true, dependenceDistance = 0 : i64, locationKey = "-">}
        scf.yield %36#0 : i8
      } else {
        scf.yield %c1_i8 : i8
      }
      %25 = llvm.mlir.addressof @str5 : !llvm.ptr
      %26 = llvm.getelementptr %25[0, 0] : (!llvm.ptr) -> !llvm.ptr, !llvm.array<10 x i8>
      %27 = llvm.call @printf(%26) vararg(!llvm.func<i32 (ptr, ...)>) : (!llvm.ptr) -> i32
      %28 = llvm.mlir.addressof @str6 : !llvm.ptr
      %29 = llvm.getelementptr %28[0, 0] : (!llvm.ptr) -> !llvm.ptr, !llvm.array<36 x i8>
      scf.for %arg2 = %c0 to %11 step %c1 {
        %36 = arith.index_cast %arg2 : index to i32
        %37 = arts.db_ref %ptr[%c0] : memref<?xmemref<memref<?xi32>>> -> memref<?xi32>
        %38 = memref.load %37[%arg2] : memref<?xi32>
        %39 = arith.muli %36, %c2_i32 : i32
        %40 = llvm.call @printf(%29, %36, %38, %36, %36, %36, %39) vararg(!llvm.func<i32 (ptr, ...)>) : (!llvm.ptr, i32, i32, i32, i32, i32, i32) -> i32
      } {arts.id = 5 : i64, arts.loop = #arts.loop_metadata<potentiallyParallel = true, hasReductions = false, readCount = 3 : i64, writeCount = 0 : i64, tripCount = 0 : i64, nestingLevel = 0 : i64, hasUniformStride = true, hasGatherScatter = false, dataMovementPattern = 0 : i64, suggestedPartitioning = 0 : i64, suggestedChunkSize = 0 : i64, memoryFootprintPerIter = 12 : i64, hasInterIterationDeps = false, dependenceDistance = 0 : i64, locationKey = "-">}
      %30 = llvm.mlir.addressof @str7 : !llvm.ptr
      %31 = llvm.getelementptr %30[0, 0] : (!llvm.ptr) -> !llvm.ptr, !llvm.array<13 x i8>
      %32 = arith.extui %24 : i8 to i32
      %33 = arith.cmpi ne, %32, %c0_i32 : i32
      %34 = scf.if %33 -> (!llvm.ptr) {
        %36 = llvm.mlir.addressof @str8 : !llvm.ptr
        %37 = llvm.getelementptr %36[0, 0] : (!llvm.ptr) -> !llvm.ptr, !llvm.array<5 x i8>
        scf.yield %37 : !llvm.ptr
      } else {
        %36 = llvm.mlir.addressof @str9 : !llvm.ptr
        %37 = llvm.getelementptr %36[0, 0] : (!llvm.ptr) -> !llvm.ptr, !llvm.array<6 x i8>
        scf.yield %37 : !llvm.ptr
      }
      %35 = llvm.call @printf(%31, %34) vararg(!llvm.func<i32 (ptr, ...)>) : (!llvm.ptr, !llvm.ptr) -> i32
      arts.db_free(%guid) : memref<?xi64>
      arts.db_free(%ptr) : memref<?xmemref<memref<?xi32>>>
    }
    return %4 : i32
  }
  func.func private @atoi(memref<?xi8>) -> i32 attributes {llvm.linkage = #llvm.linkage<external>}
}

DbGraph Analysis: main
======================================
Summary: 1 allocs, 2 acquires
Peak: 2 live DBs, 0 bytes

DB [A]
  Op: %guid, %ptr = arts.db_alloc[<inout>, <heap>, <pinned>] route(%c0_i32 : i32) sizes[%c1] elementType(i32) elementSizes[%10] {arts.id = 8 : i64, arts.memref = #arts.memref_metadata<rank = 1 : i64, allocationId = "parallel_for.c:13:12", totalAccesses = 3 : i64, readCount = 2 : i64, writeCount = 1 : i64, readWriteRatio = 0.66666666666666663 : f64, allAccessesAffine = true, hasNonAffineAccesses = false, firstUseId = 8 : i64, hasUniformAccess = true, dominantAccessPattern = "sequential", accessedInParallelLoop = true, hasLoopCarriedDeps = true, reuseDistance = 1 : i64, hasGoodSpatialLocality = true>} : (memref<?xi64>, memref<?xmemref<memref<?xi32>>>)
  Lifetime: Op 30 -> 77 (span=33, path=33)
  Rank: 1
  Size: 0 bytes (dynamic)
  Usage: 2 acquires, 2 releases, depth=0
  Acquires (2):
    [A.1] Op 45->77, mode=#arts.mode<inout>, size=[1]
      Offsets: [0]
      EDT Uses - Reads: 0, Writes: 0
      Outgoing edges:
        -> A.1.1 [Child]
    [A.1.1] Op 60->70, mode=#arts.mode<inout>, size=[1]
      Offsets: [0]
      EDT Uses - Reads: 0, Writes: 1
  Releases: 1 (tracked in acquires)
  Total edges: 1

[0;1;35m[DEBUG] [db][0m Function main has 2 DbAcquire nodes
[0;1;35m[DEBUG] [db][0m Applying slice hint to %70:2 = "arts.db_acquire"(%arg2, %11, %10) <{mode = #arts.mode<inout>, operandSegmentSizes = array<i32: 0, 1, 0, 1, 1>}> : (memref<?xmemref<memref<?xi32>>>, index, index) -> (memref<?xi64>, memref<?xmemref<memref<?xi32>>>)
[0;1;35m[DEBUG] [db][0m Skipping acquire %33:2 = "arts.db_acquire"(%23#0, %23#1, %11, %10) <{mode = #arts.mode<inout>, operandSegmentSizes = array<i32: 1, 1, 0, 1, 1>}> : (memref<?xi64>, memref<?xmemref<memref<?xi32>>>, index, index) -> (memref<?xi64>, memref<?xmemref<memref<?xi32>>>): not a task EDT
[0;1;35m[DEBUG] [db][0m Function atoi has 0 DbAcquire nodes
[0;1;34m[INFO] [db][0m  - Running Phase 2 optimizations (parallel EDT refinement)
[0;1;34m[INFO] [db][0m  Module has changed, invalidating analyses
[0;1;34m
-----------------------------------------
DbPass FINISHED
-----------------------------------------

[0m"builtin.module"() ({
  "llvm.mlir.global"() <{addr_space = 0 : i32, constant, global_type = !llvm.array<6 x i8>, linkage = #llvm.linkage<internal>, sym_name = "str9", unnamed_addr = 0 : i64, value = "false\00", visibility_ = 0 : i64}> ({
  }) : () -> ()
  "llvm.mlir.global"() <{addr_space = 0 : i32, constant, global_type = !llvm.array<5 x i8>, linkage = #llvm.linkage<internal>, sym_name = "str8", unnamed_addr = 0 : i64, value = "true\00", visibility_ = 0 : i64}> ({
  }) : () -> ()
  "llvm.mlir.global"() <{addr_space = 0 : i32, constant, global_type = !llvm.array<13 x i8>, linkage = #llvm.linkage<internal>, sym_name = "str7", unnamed_addr = 0 : i64, value = "Success: %s\0A\00", visibility_ = 0 : i64}> ({
  }) : () -> ()
  "llvm.mlir.global"() <{addr_space = 0 : i32, constant, global_type = !llvm.array<36 x i8>, linkage = #llvm.linkage<internal>, sym_name = "str6", unnamed_addr = 0 : i64, value = "c[%d] = %d, a[%d] = %d, b[%d] = %d\0A\00", visibility_ = 0 : i64}> ({
  }) : () -> ()
  "llvm.mlir.global"() <{addr_space = 0 : i32, constant, global_type = !llvm.array<10 x i8>, linkage = #llvm.linkage<internal>, sym_name = "str5", unnamed_addr = 0 : i64, value = "Results:\0A\00", visibility_ = 0 : i64}> ({
  }) : () -> ()
  "llvm.mlir.global"() <{addr_space = 0 : i32, constant, global_type = !llvm.array<27 x i8>, linkage = #llvm.linkage<internal>, sym_name = "str4", unnamed_addr = 0 : i64, value = "Parallel region completed\0A\00", visibility_ = 0 : i64}> ({
  }) : () -> ()
  "llvm.mlir.global"() <{addr_space = 0 : i32, constant, global_type = !llvm.array<18 x i8>, linkage = #llvm.linkage<internal>, sym_name = "str3", unnamed_addr = 0 : i64, value = "Parallel region:\0A\00", visibility_ = 0 : i64}> ({
  }) : () -> ()
  "llvm.mlir.global"() <{addr_space = 0 : i32, constant, global_type = !llvm.array<24 x i8>, linkage = #llvm.linkage<internal>, sym_name = "str2", unnamed_addr = 0 : i64, value = "a[%d] = %d, b[%d] = %d\0A\00", visibility_ = 0 : i64}> ({
  }) : () -> ()
  "llvm.mlir.global"() <{addr_space = 0 : i32, constant, global_type = !llvm.array<17 x i8>, linkage = #llvm.linkage<internal>, sym_name = "str1", unnamed_addr = 0 : i64, value = "Initial values:\0A\00", visibility_ = 0 : i64}> ({
  }) : () -> ()
  "llvm.mlir.global"() <{addr_space = 0 : i32, constant, global_type = !llvm.array<18 x i8>, linkage = #llvm.linkage<internal>, sym_name = "str0", unnamed_addr = 0 : i64, value = "Usage: %s <size>\0A\00", visibility_ = 0 : i64}> ({
  }) : () -> ()
  "llvm.func"() <{CConv = #llvm.cconv<ccc>, function_type = !llvm.func<i32 (ptr, ...)>, linkage = #llvm.linkage<external>, sym_name = "printf", unnamed_addr = 0 : i64, visibility_ = 0 : i64}> ({
  }) : () -> ()
  "func.func"() <{function_type = (i32, memref<?xmemref<?xi8>>) -> i32, sym_name = "main"}> ({
  ^bb0(%arg0: i32, %arg1: memref<?xmemref<?xi8>>):
    %0 = "arith.constant"() <{value = 8 : index}> : () -> index
    %1 = "arith.constant"() <{value = false}> : () -> i1
    %2 = "arith.constant"() <{value = true}> : () -> i1
    %3 = "arith.constant"() <{value = 4 : index}> : () -> index
    %4 = "arith.constant"() <{value = 4 : i64}> : () -> i64
    %5 = "arith.constant"() <{value = 1 : i8}> : () -> i8
    %6 = "arith.constant"() <{value = 0 : i8}> : () -> i8
    %7 = "arith.constant"() <{value = 0 : i32}> : () -> i32
    %8 = "arith.constant"() <{value = 1 : i32}> : () -> i32
    %9 = "arith.constant"() <{value = 2 : i32}> : () -> i32
    %10 = "arith.constant"() <{value = 1 : index}> : () -> index
    %11 = "arith.constant"() <{value = 0 : index}> : () -> index
    %12 = "llvm.mlir.undef"() : () -> i32
    %13 = "arith.cmpi"(%arg0, %9) <{predicate = 2 : i64}> : (i32, i32) -> i1
    %14 = "arith.cmpi"(%arg0, %9) <{predicate = 5 : i64}> : (i32, i32) -> i1
    %15 = "arith.select"(%13, %8, %12) : (i1, i32, i32) -> i32
    "scf.if"(%13) ({
      %17 = "llvm.mlir.addressof"() <{global_name = @str0}> : () -> !llvm.ptr
      %18 = "llvm.getelementptr"(%17) <{elem_type = !llvm.array<18 x i8>, rawConstantIndices = array<i32: 0, 0>}> : (!llvm.ptr) -> !llvm.ptr
      %19 = "memref.load"(%arg1, %11) <{nontemporal = false}> : (memref<?xmemref<?xi8>>, index) -> memref<?xi8>
      %20 = "polygeist.memref2pointer"(%19) : (memref<?xi8>) -> !llvm.ptr
      %21 = "llvm.call"(%18, %20) <{callee = @printf, callee_type = !llvm.func<i32 (ptr, ...)>, fastmathFlags = #llvm.fastmath<none>}> : (!llvm.ptr, !llvm.ptr) -> i32
      "scf.yield"() : () -> ()
    }, {
    }) : (i1) -> ()
    %16 = "arith.select"(%14, %7, %15) : (i1, i32, i32) -> i32
    "scf.if"(%14) ({
      %17 = "memref.load"(%arg1, %10) <{nontemporal = false}> : (memref<?xmemref<?xi8>>, index) -> memref<?xi8>
      %18 = "func.call"(%17) <{callee = @atoi}> : (memref<?xi8>) -> i32
      %19 = "arith.extsi"(%18) : (i32) -> i64
      %20 = "arith.muli"(%19, %4) : (i64, i64) -> i64
      %21 = "arith.index_cast"(%20) : (i64) -> index
      %22 = "arith.divui"(%21, %3) : (index, index) -> index
      %23:2 = "arts.db_alloc"(%7, %10, %22) <{allocType = #arts.alloc_type<heap>, dbMode = #arts.db_mode<pinned>, elementType = i32, mode = #arts.mode<inout>, operandSegmentSizes = array<i32: 1, 0, 1, 1>}> {arts.id = 8 : i64, arts.memref = #arts.memref_metadata<rank = 1 : i64, allocationId = "parallel_for.c:13:12", totalAccesses = 3 : i64, readCount = 2 : i64, writeCount = 1 : i64, readWriteRatio = 0.66666666666666663 : f64, allAccessesAffine = true, hasNonAffineAccesses = false, firstUseId = 8 : i64, hasUniformAccess = true, dominantAccessPattern = "sequential", accessedInParallelLoop = true, hasLoopCarriedDeps = true, reuseDistance = 1 : i64, hasGoodSpatialLocality = true>} : (i32, index, index) -> (memref<?xi64>, memref<?xmemref<memref<?xi32>>>)
      %24 = "arith.index_cast"(%18) : (i32) -> index
      %25 = "llvm.mlir.addressof"() <{global_name = @str1}> : () -> !llvm.ptr
      %26 = "llvm.getelementptr"(%25) <{elem_type = !llvm.array<17 x i8>, rawConstantIndices = array<i32: 0, 0>}> : (!llvm.ptr) -> !llvm.ptr
      %27 = "llvm.call"(%26) <{callee = @printf, callee_type = !llvm.func<i32 (ptr, ...)>, fastmathFlags = #llvm.fastmath<none>}> : (!llvm.ptr) -> i32
      %28 = "llvm.mlir.addressof"() <{global_name = @str2}> : () -> !llvm.ptr
      %29 = "llvm.getelementptr"(%28) <{elem_type = !llvm.array<24 x i8>, rawConstantIndices = array<i32: 0, 0>}> : (!llvm.ptr) -> !llvm.ptr
      "scf.for"(%11, %24, %10) ({
      ^bb0(%arg2: index):
        %50 = "arith.index_cast"(%arg2) : (index) -> i32
        %51 = "arith.muli"(%50, %9) : (i32, i32) -> i32
        %52 = "llvm.call"(%29, %50, %50, %50, %51) <{callee = @printf, callee_type = !llvm.func<i32 (ptr, ...)>, fastmathFlags = #llvm.fastmath<none>}> : (!llvm.ptr, i32, i32, i32, i32) -> i32
        "scf.yield"() : () -> ()
      }) {arts.id = 2 : i64, arts.loop = #arts.loop_metadata<potentiallyParallel = true, hasReductions = false, readCount = 2 : i64, writeCount = 0 : i64, tripCount = 0 : i64, nestingLevel = 0 : i64, hasUniformStride = true, hasGatherScatter = false, dataMovementPattern = 0 : i64, suggestedPartitioning = 0 : i64, suggestedChunkSize = 0 : i64, memoryFootprintPerIter = 8 : i64, hasInterIterationDeps = false, dependenceDistance = 0 : i64, locationKey = "-">} : (index, index, index) -> ()
      %30 = "llvm.mlir.addressof"() <{global_name = @str3}> : () -> !llvm.ptr
      %31 = "llvm.getelementptr"(%30) <{elem_type = !llvm.array<18 x i8>, rawConstantIndices = array<i32: 0, 0>}> : (!llvm.ptr) -> !llvm.ptr
      %32 = "llvm.call"(%31) <{callee = @printf, callee_type = !llvm.func<i32 (ptr, ...)>, fastmathFlags = #llvm.fastmath<none>}> : (!llvm.ptr) -> i32
      %33:2 = "arts.db_acquire"(%23#0, %23#1, %11, %10) <{mode = #arts.mode<inout>, operandSegmentSizes = array<i32: 1, 1, 0, 1, 1>}> : (memref<?xi64>, memref<?xmemref<memref<?xi32>>>, index, index) -> (memref<?xi64>, memref<?xmemref<memref<?xi32>>>)
      "arts.edt"(%7, %33#1) <{concurrency = #arts.concurrency<intranode>, type = #arts.edt_type<parallel>, workers = #arts.workers<8>}> ({
      ^bb0(%arg2: memref<?xmemref<memref<?xi32>>>):
        %50 = "arts.epoch"() ({
          %51 = "arts.get_parallel_worker_id"() : () -> index
          %52 = "arith.divui"(%24, %0) : (index, index) -> index
          %53 = "arith.remui"(%24, %0) : (index, index) -> index
          %54 = "arith.cmpi"(%51, %53) <{predicate = 6 : i64}> : (index, index) -> i1
          %55 = "arith.index_cast"(%54) : (i1) -> index
          %56 = "arith.addi"(%52, %55) : (index, index) -> index
          %57 = "arith.muli"(%51, %52) : (index, index) -> index
          %58 = "arith.minui"(%51, %53) : (index, index) -> index
          %59 = "arith.addi"(%57, %58) : (index, index) -> index
          %60 = "arith.cmpi"(%24, %59) <{predicate = 6 : i64}> : (index, index) -> i1
          %61 = "arith.subi"(%24, %59) : (index, index) -> index
          %62 = "arith.select"(%60, %11, %61) : (i1, index, index) -> index
          %63 = "arith.minui"(%56, %62) : (index, index) -> index
          %64 = "arith.cmpi"(%63, %11) <{predicate = 8 : i64}> : (index, index) -> i1
          "scf.if"(%64) ({
            %65 = "arith.constant"() <{value = 1 : index}> : () -> index
            %66 = "arith.addi"(%59, %72) : (index, index) -> index
            %67 = "arith.addi"(%59, %72) : (index, index) -> index
            %68 = "arith.subi"(%67, %66) : (index, index) -> index
            %69 = "arith.addi"(%68, %65) : (index, index) -> index
            %70:2 = "arts.db_acquire"(%arg2, %66, %69) <{mode = #arts.mode<inout>, operandSegmentSizes = array<i32: 0, 1, 0, 1, 1>}> : (memref<?xmemref<memref<?xi32>>>, index, index) -> (memref<?xi64>, memref<?xmemref<memref<?xi32>>>)
            %71 = "arith.index_cast"(%51) : (index) -> i32
            "arts.edt"(%71, %70#1) <{concurrency = #arts.concurrency<intranode>, type = #arts.edt_type<task>}> ({
            ^bb0(%arg3: memref<?xmemref<memref<?xi32>>>):
              "scf.for"(%11, %63, %10) ({
              ^bb0(%arg4: index):
                %72 = "arith.addi"(%59, %arg4) : (index, index) -> index
                %73 = "arith.index_cast"(%72) : (index) -> i32
                %74 = "arith.muli"(%73, %9) : (i32, i32) -> i32
                %75 = "arith.addi"(%73, %74) : (i32, i32) -> i32
                %76 = "arith.constant"() <{value = 0 : index}> : () -> index
                %77 = "arts.db_ref"(%arg3, %76) : (memref<?xmemref<memref<?xi32>>>, index) -> memref<?xi32>
                %78 = "arith.subi"(%72, %66) : (index, index) -> index
                "memref.store"(%75, %77, %78) <{nontemporal = false}> : (i32, memref<?xi32>, index) -> ()
                "scf.yield"() : () -> ()
              }) {arts.loop = #arts.loop_metadata<potentiallyParallel = true, hasReductions = false, readCount = 0 : i64, writeCount = 0 : i64, tripCount = 0 : i64, nestingLevel = 0 : i64, hasUniformStride = false, hasGatherScatter = false, dataMovementPattern = 6 : i64, suggestedPartitioning = 4 : i64, suggestedChunkSize = 0 : i64, memoryFootprintPerIter = 0 : i64, hasInterIterationDeps = false, dependenceDistance = 0 : i64, locationKey = "parallel_for.c:27:1">} : (index, index, index) -> ()
              "arts.db_release"(%arg3) : (memref<?xmemref<memref<?xi32>>>) -> ()
              "arts.yield"() : () -> ()
            }) : (i32, memref<?xmemref<memref<?xi32>>>) -> ()
            "scf.yield"() : () -> ()
          }, {
          }) : (i1) -> ()
          "arts.yield"() : () -> ()
        }) : () -> i64
        "arts.db_release"(%arg2) : (memref<?xmemref<memref<?xi32>>>) -> ()
        "arts.yield"() : () -> ()
      }) : (i32, memref<?xmemref<memref<?xi32>>>) -> ()
      %34 = "llvm.mlir.addressof"() <{global_name = @str4}> : () -> !llvm.ptr
      %35 = "llvm.getelementptr"(%34) <{elem_type = !llvm.array<27 x i8>, rawConstantIndices = array<i32: 0, 0>}> : (!llvm.ptr) -> !llvm.ptr
      %36 = "llvm.call"(%35) <{callee = @printf, callee_type = !llvm.func<i32 (ptr, ...)>, fastmathFlags = #llvm.fastmath<none>}> : (!llvm.ptr) -> i32
      %37 = "arith.cmpi"(%18, %7) <{predicate = 4 : i64}> : (i32, i32) -> i1
      %38 = "scf.if"(%37) ({
        %50:2 = "scf.for"(%11, %24, %10, %5, %2) ({
        ^bb0(%arg2: index, %arg3: i8, %arg4: i1):
          %51:2 = "scf.if"(%arg4) ({
            %52 = "arts.db_ref"(%23#1, %11) : (memref<?xmemref<memref<?xi32>>>, index) -> memref<?xi32>
            %53 = "memref.load"(%52, %arg2) <{nontemporal = false}> : (memref<?xi32>, index) -> i32
            %54 = "arith.index_cast"(%arg2) : (index) -> i32
            %55 = "arith.muli"(%54, %9) : (i32, i32) -> i32
            %56 = "arith.addi"(%54, %55) : (i32, i32) -> i32
            %57 = "arith.cmpi"(%53, %56) <{predicate = 1 : i64}> : (i32, i32) -> i1
            %58 = "arith.select"(%57, %6, %arg3) : (i1, i8, i8) -> i8
            %59 = "arith.cmpi"(%53, %56) <{predicate = 0 : i64}> : (i32, i32) -> i1
            "scf.yield"(%58, %59) : (i8, i1) -> ()
          }, {
            "scf.yield"(%arg3, %1) : (i8, i1) -> ()
          }) : (i1) -> (i8, i1)
          "scf.yield"(%51#0, %51#1) : (i8, i1) -> ()
        }) {arts.id = 4 : i64, arts.loop = #arts.loop_metadata<potentiallyParallel = false, hasReductions = false, readCount = 3 : i64, writeCount = 0 : i64, tripCount = 0 : i64, nestingLevel = 0 : i64, hasUniformStride = true, hasGatherScatter = false, dataMovementPattern = 0 : i64, suggestedPartitioning = 0 : i64, suggestedChunkSize = 0 : i64, memoryFootprintPerIter = 12 : i64, hasInterIterationDeps = true, dependenceDistance = 0 : i64, locationKey = "-">} : (index, index, index, i8, i1) -> (i8, i1)
        "scf.yield"(%50#0) : (i8) -> ()
      }, {
        "scf.yield"(%5) : (i8) -> ()
      }) : (i1) -> i8
      %39 = "llvm.mlir.addressof"() <{global_name = @str5}> : () -> !llvm.ptr
      %40 = "llvm.getelementptr"(%39) <{elem_type = !llvm.array<10 x i8>, rawConstantIndices = array<i32: 0, 0>}> : (!llvm.ptr) -> !llvm.ptr
      %41 = "llvm.call"(%40) <{callee = @printf, callee_type = !llvm.func<i32 (ptr, ...)>, fastmathFlags = #llvm.fastmath<none>}> : (!llvm.ptr) -> i32
      %42 = "llvm.mlir.addressof"() <{global_name = @str6}> : () -> !llvm.ptr
      %43 = "llvm.getelementptr"(%42) <{elem_type = !llvm.array<36 x i8>, rawConstantIndices = array<i32: 0, 0>}> : (!llvm.ptr) -> !llvm.ptr
      "scf.for"(%11, %24, %10) ({
      ^bb0(%arg2: index):
        %50 = "arith.index_cast"(%arg2) : (index) -> i32
        %51 = "arts.db_ref"(%23#1, %11) : (memref<?xmemref<memref<?xi32>>>, index) -> memref<?xi32>
        %52 = "memref.load"(%51, %arg2) <{nontemporal = false}> : (memref<?xi32>, index) -> i32
        %53 = "arith.muli"(%50, %9) : (i32, i32) -> i32
        %54 = "llvm.call"(%43, %50, %52, %50, %50, %50, %53) <{callee = @printf, callee_type = !llvm.func<i32 (ptr, ...)>, fastmathFlags = #llvm.fastmath<none>}> : (!llvm.ptr, i32, i32, i32, i32, i32, i32) -> i32
        "scf.yield"() : () -> ()
      }) {arts.id = 5 : i64, arts.loop = #arts.loop_metadata<potentiallyParallel = true, hasReductions = false, readCount = 3 : i64, writeCount = 0 : i64, tripCount = 0 : i64, nestingLevel = 0 : i64, hasUniformStride = true, hasGatherScatter = false, dataMovementPattern = 0 : i64, suggestedPartitioning = 0 : i64, suggestedChunkSize = 0 : i64, memoryFootprintPerIter = 12 : i64, hasInterIterationDeps = false, dependenceDistance = 0 : i64, locationKey = "-">} : (index, index, index) -> ()
      %44 = "llvm.mlir.addressof"() <{global_name = @str7}> : () -> !llvm.ptr
      %45 = "llvm.getelementptr"(%44) <{elem_type = !llvm.array<13 x i8>, rawConstantIndices = array<i32: 0, 0>}> : (!llvm.ptr) -> !llvm.ptr
      %46 = "arith.extui"(%38) : (i8) -> i32
      %47 = "arith.cmpi"(%46, %7) <{predicate = 1 : i64}> : (i32, i32) -> i1
      %48 = "scf.if"(%47) ({
        %50 = "llvm.mlir.addressof"() <{global_name = @str8}> : () -> !llvm.ptr
        %51 = "llvm.getelementptr"(%50) <{elem_type = !llvm.array<5 x i8>, rawConstantIndices = array<i32: 0, 0>}> : (!llvm.ptr) -> !llvm.ptr
        "scf.yield"(%51) : (!llvm.ptr) -> ()
      }, {
        %50 = "llvm.mlir.addressof"() <{global_name = @str9}> : () -> !llvm.ptr
        %51 = "llvm.getelementptr"(%50) <{elem_type = !llvm.array<6 x i8>, rawConstantIndices = array<i32: 0, 0>}> : (!llvm.ptr) -> !llvm.ptr
        "scf.yield"(%51) : (!llvm.ptr) -> ()
      }) : (i1) -> !llvm.ptr
      %49 = "llvm.call"(%45, %48) <{callee = @printf, callee_type = !llvm.func<i32 (ptr, ...)>, fastmathFlags = #llvm.fastmath<none>}> : (!llvm.ptr, !llvm.ptr) -> i32
      "arts.db_free"(%23#0) : (memref<?xi64>) -> ()
      "arts.db_free"(%23#1) : (memref<?xmemref<memref<?xi32>>>) -> ()
      "scf.yield"() : () -> ()
    }, {
    }) : (i1) -> ()
    "func.return"(%16) : (i32) -> ()
  }) {llvm.linkage = #llvm.linkage<external>} : () -> ()
  "func.func"() <{function_type = (memref<?xi8>) -> i32, sym_name = "atoi", sym_visibility = "private"}> ({
  }) {llvm.linkage = #llvm.linkage<external>} : () -> ()
}) {dlti.dl_spec = #dlti.dl_spec<#dlti.dl_entry<i128, dense<128> : vector<2xi32>>, #dlti.dl_entry<f128, dense<128> : vector<2xi32>>, #dlti.dl_entry<i64, dense<64> : vector<2xi32>>, #dlti.dl_entry<i32, dense<32> : vector<2xi32>>, #dlti.dl_entry<i16, dense<16> : vector<2xi32>>, #dlti.dl_entry<f16, dense<16> : vector<2xi32>>, #dlti.dl_entry<f64, dense<64> : vector<2xi32>>, #dlti.dl_entry<!llvm.ptr, dense<64> : vector<4xi32>>, #dlti.dl_entry<i8, dense<8> : vector<2xi32>>, #dlti.dl_entry<i1, dense<8> : vector<2xi32>>, #dlti.dl_entry<"dlti.stack_alignment", 128 : i32>, #dlti.dl_entry<"dlti.endianness", "little">>, llvm.data_layout = "e-m:o-i64:64-i128:128-n32:64-S128", llvm.target_triple = "arm64-apple-macosx16.0.0", "polygeist.target-cpu" = "apple-m1", "polygeist.target-features" = "+aes,+crc,+dotprod,+fp-armv8,+fp16fml,+fullfp16,+lse,+neon,+ras,+rcpc,+rdm,+sha2,+sha3,+v8.1a,+v8.2a,+v8.3a,+v8.4a,+v8.5a,+v8a,+zcm,+zcz"} : () -> ()
loc("/Users/randreshg/Documents/carts/tests/examples/parallel_for/block/parallel_for.c":27:1): error: operand #1 does not dominate this use
[0;1;31m[ERROR] [carts_run][0m Error when optimizing concurrency
"builtin.module"() ({
  "llvm.mlir.global"() <{addr_space = 0 : i32, constant, global_type = !llvm.array<6 x i8>, linkage = #llvm.linkage<internal>, sym_name = "str9", unnamed_addr = 0 : i64, value = "false\00", visibility_ = 0 : i64}> ({
  }) : () -> ()
  "llvm.mlir.global"() <{addr_space = 0 : i32, constant, global_type = !llvm.array<5 x i8>, linkage = #llvm.linkage<internal>, sym_name = "str8", unnamed_addr = 0 : i64, value = "true\00", visibility_ = 0 : i64}> ({
  }) : () -> ()
  "llvm.mlir.global"() <{addr_space = 0 : i32, constant, global_type = !llvm.array<13 x i8>, linkage = #llvm.linkage<internal>, sym_name = "str7", unnamed_addr = 0 : i64, value = "Success: %s\0A\00", visibility_ = 0 : i64}> ({
  }) : () -> ()
  "llvm.mlir.global"() <{addr_space = 0 : i32, constant, global_type = !llvm.array<36 x i8>, linkage = #llvm.linkage<internal>, sym_name = "str6", unnamed_addr = 0 : i64, value = "c[%d] = %d, a[%d] = %d, b[%d] = %d\0A\00", visibility_ = 0 : i64}> ({
  }) : () -> ()
  "llvm.mlir.global"() <{addr_space = 0 : i32, constant, global_type = !llvm.array<10 x i8>, linkage = #llvm.linkage<internal>, sym_name = "str5", unnamed_addr = 0 : i64, value = "Results:\0A\00", visibility_ = 0 : i64}> ({
  }) : () -> ()
  "llvm.mlir.global"() <{addr_space = 0 : i32, constant, global_type = !llvm.array<27 x i8>, linkage = #llvm.linkage<internal>, sym_name = "str4", unnamed_addr = 0 : i64, value = "Parallel region completed\0A\00", visibility_ = 0 : i64}> ({
  }) : () -> ()
  "llvm.mlir.global"() <{addr_space = 0 : i32, constant, global_type = !llvm.array<18 x i8>, linkage = #llvm.linkage<internal>, sym_name = "str3", unnamed_addr = 0 : i64, value = "Parallel region:\0A\00", visibility_ = 0 : i64}> ({
  }) : () -> ()
  "llvm.mlir.global"() <{addr_space = 0 : i32, constant, global_type = !llvm.array<24 x i8>, linkage = #llvm.linkage<internal>, sym_name = "str2", unnamed_addr = 0 : i64, value = "a[%d] = %d, b[%d] = %d\0A\00", visibility_ = 0 : i64}> ({
  }) : () -> ()
  "llvm.mlir.global"() <{addr_space = 0 : i32, constant, global_type = !llvm.array<17 x i8>, linkage = #llvm.linkage<internal>, sym_name = "str1", unnamed_addr = 0 : i64, value = "Initial values:\0A\00", visibility_ = 0 : i64}> ({
  }) : () -> ()
  "llvm.mlir.global"() <{addr_space = 0 : i32, constant, global_type = !llvm.array<18 x i8>, linkage = #llvm.linkage<internal>, sym_name = "str0", unnamed_addr = 0 : i64, value = "Usage: %s <size>\0A\00", visibility_ = 0 : i64}> ({
  }) : () -> ()
  "llvm.func"() <{CConv = #llvm.cconv<ccc>, function_type = !llvm.func<i32 (ptr, ...)>, linkage = #llvm.linkage<external>, sym_name = "printf", unnamed_addr = 0 : i64, visibility_ = 0 : i64}> ({
  }) : () -> ()
  "func.func"() <{function_type = (i32, memref<?xmemref<?xi8>>) -> i32, sym_name = "main"}> ({
  ^bb0(%arg0: i32, %arg1: memref<?xmemref<?xi8>>):
    %0 = "arith.constant"() <{value = 8 : index}> : () -> index
    %1 = "arith.constant"() <{value = false}> : () -> i1
    %2 = "arith.constant"() <{value = true}> : () -> i1
    %3 = "arith.constant"() <{value = 4 : index}> : () -> index
    %4 = "arith.constant"() <{value = 4 : i64}> : () -> i64
    %5 = "arith.constant"() <{value = 1 : i8}> : () -> i8
    %6 = "arith.constant"() <{value = 0 : i8}> : () -> i8
    %7 = "arith.constant"() <{value = 0 : i32}> : () -> i32
    %8 = "arith.constant"() <{value = 1 : i32}> : () -> i32
    %9 = "arith.constant"() <{value = 2 : i32}> : () -> i32
    %10 = "arith.constant"() <{value = 1 : index}> : () -> index
    %11 = "arith.constant"() <{value = 0 : index}> : () -> index
    %12 = "llvm.mlir.undef"() : () -> i32
    %13 = "arith.cmpi"(%arg0, %9) <{predicate = 2 : i64}> : (i32, i32) -> i1
    %14 = "arith.cmpi"(%arg0, %9) <{predicate = 5 : i64}> : (i32, i32) -> i1
    %15 = "arith.select"(%13, %8, %12) : (i1, i32, i32) -> i32
    "scf.if"(%13) ({
      %17 = "llvm.mlir.addressof"() <{global_name = @str0}> : () -> !llvm.ptr
      %18 = "llvm.getelementptr"(%17) <{elem_type = !llvm.array<18 x i8>, rawConstantIndices = array<i32: 0, 0>}> : (!llvm.ptr) -> !llvm.ptr
      %19 = "memref.load"(%arg1, %11) <{nontemporal = false}> : (memref<?xmemref<?xi8>>, index) -> memref<?xi8>
      %20 = "polygeist.memref2pointer"(%19) : (memref<?xi8>) -> !llvm.ptr
      %21 = "llvm.call"(%18, %20) <{callee = @printf, callee_type = !llvm.func<i32 (ptr, ...)>, fastmathFlags = #llvm.fastmath<none>}> : (!llvm.ptr, !llvm.ptr) -> i32
      "scf.yield"() : () -> ()
    }, {
    }) : (i1) -> ()
    %16 = "arith.select"(%14, %7, %15) : (i1, i32, i32) -> i32
    "scf.if"(%14) ({
      %17 = "memref.load"(%arg1, %10) <{nontemporal = false}> : (memref<?xmemref<?xi8>>, index) -> memref<?xi8>
      %18 = "func.call"(%17) <{callee = @atoi}> : (memref<?xi8>) -> i32
      %19 = "arith.extsi"(%18) : (i32) -> i64
      %20 = "arith.muli"(%19, %4) : (i64, i64) -> i64
      %21 = "arith.index_cast"(%20) : (i64) -> index
      %22 = "arith.divui"(%21, %3) : (index, index) -> index
      %23:2 = "arts.db_alloc"(%7, %10, %22) <{allocType = #arts.alloc_type<heap>, dbMode = #arts.db_mode<pinned>, elementType = i32, mode = #arts.mode<inout>, operandSegmentSizes = array<i32: 1, 0, 1, 1>}> {arts.id = 8 : i64, arts.memref = #arts.memref_metadata<rank = 1 : i64, allocationId = "parallel_for.c:13:12", totalAccesses = 3 : i64, readCount = 2 : i64, writeCount = 1 : i64, readWriteRatio = 0.66666666666666663 : f64, allAccessesAffine = true, hasNonAffineAccesses = false, firstUseId = 8 : i64, hasUniformAccess = true, dominantAccessPattern = "sequential", accessedInParallelLoop = true, hasLoopCarriedDeps = true, reuseDistance = 1 : i64, hasGoodSpatialLocality = true>} : (i32, index, index) -> (memref<?xi64>, memref<?xmemref<memref<?xi32>>>)
      %24 = "arith.index_cast"(%18) : (i32) -> index
      %25 = "llvm.mlir.addressof"() <{global_name = @str1}> : () -> !llvm.ptr
      %26 = "llvm.getelementptr"(%25) <{elem_type = !llvm.array<17 x i8>, rawConstantIndices = array<i32: 0, 0>}> : (!llvm.ptr) -> !llvm.ptr
      %27 = "llvm.call"(%26) <{callee = @printf, callee_type = !llvm.func<i32 (ptr, ...)>, fastmathFlags = #llvm.fastmath<none>}> : (!llvm.ptr) -> i32
      %28 = "llvm.mlir.addressof"() <{global_name = @str2}> : () -> !llvm.ptr
      %29 = "llvm.getelementptr"(%28) <{elem_type = !llvm.array<24 x i8>, rawConstantIndices = array<i32: 0, 0>}> : (!llvm.ptr) -> !llvm.ptr
      "scf.for"(%11, %24, %10) ({
      ^bb0(%arg2: index):
        %50 = "arith.index_cast"(%arg2) : (index) -> i32
        %51 = "arith.muli"(%50, %9) : (i32, i32) -> i32
        %52 = "llvm.call"(%29, %50, %50, %50, %51) <{callee = @printf, callee_type = !llvm.func<i32 (ptr, ...)>, fastmathFlags = #llvm.fastmath<none>}> : (!llvm.ptr, i32, i32, i32, i32) -> i32
        "scf.yield"() : () -> ()
      }) {arts.id = 2 : i64, arts.loop = #arts.loop_metadata<potentiallyParallel = true, hasReductions = false, readCount = 2 : i64, writeCount = 0 : i64, tripCount = 0 : i64, nestingLevel = 0 : i64, hasUniformStride = true, hasGatherScatter = false, dataMovementPattern = 0 : i64, suggestedPartitioning = 0 : i64, suggestedChunkSize = 0 : i64, memoryFootprintPerIter = 8 : i64, hasInterIterationDeps = false, dependenceDistance = 0 : i64, locationKey = "-">} : (index, index, index) -> ()
      %30 = "llvm.mlir.addressof"() <{global_name = @str3}> : () -> !llvm.ptr
      %31 = "llvm.getelementptr"(%30) <{elem_type = !llvm.array<18 x i8>, rawConstantIndices = array<i32: 0, 0>}> : (!llvm.ptr) -> !llvm.ptr
      %32 = "llvm.call"(%31) <{callee = @printf, callee_type = !llvm.func<i32 (ptr, ...)>, fastmathFlags = #llvm.fastmath<none>}> : (!llvm.ptr) -> i32
      %33:2 = "arts.db_acquire"(%23#0, %23#1, %11, %10) <{mode = #arts.mode<inout>, operandSegmentSizes = array<i32: 1, 1, 0, 1, 1>}> : (memref<?xi64>, memref<?xmemref<memref<?xi32>>>, index, index) -> (memref<?xi64>, memref<?xmemref<memref<?xi32>>>)
      "arts.edt"(%7, %33#1) <{concurrency = #arts.concurrency<intranode>, type = #arts.edt_type<parallel>, workers = #arts.workers<8>}> ({
      ^bb0(%arg2: memref<?xmemref<memref<?xi32>>>):
        %50 = "arts.epoch"() ({
          %51 = "arts.get_parallel_worker_id"() : () -> index
          %52 = "arith.divui"(%24, %0) : (index, index) -> index
          %53 = "arith.remui"(%24, %0) : (index, index) -> index
          %54 = "arith.cmpi"(%51, %53) <{predicate = 6 : i64}> : (index, index) -> i1
          %55 = "arith.index_cast"(%54) : (i1) -> index
          %56 = "arith.addi"(%52, %55) : (index, index) -> index
          %57 = "arith.muli"(%51, %52) : (index, index) -> index
          %58 = "arith.minui"(%51, %53) : (index, index) -> index
          %59 = "arith.addi"(%57, %58) : (index, index) -> index
          %60 = "arith.cmpi"(%24, %59) <{predicate = 6 : i64}> : (index, index) -> i1
          %61 = "arith.subi"(%24, %59) : (index, index) -> index
          %62 = "arith.select"(%60, %11, %61) : (i1, index, index) -> index
          %63 = "arith.minui"(%56, %62) : (index, index) -> index
          %64 = "arith.cmpi"(%63, %11) <{predicate = 8 : i64}> : (index, index) -> i1
          "scf.if"(%64) ({
            %65 = "arith.constant"() <{value = 1 : index}> : () -> index
            %66 = "arith.addi"(%59, %72) : (index, index) -> index
            %67 = "arith.addi"(%59, %72) : (index, index) -> index
            %68 = "arith.subi"(%67, %66) : (index, index) -> index
            %69 = "arith.addi"(%68, %65) : (index, index) -> index
            %70:2 = "arts.db_acquire"(%arg2, %66, %69) <{mode = #arts.mode<inout>, operandSegmentSizes = array<i32: 0, 1, 0, 1, 1>}> : (memref<?xmemref<memref<?xi32>>>, index, index) -> (memref<?xi64>, memref<?xmemref<memref<?xi32>>>)
            %71 = "arith.index_cast"(%51) : (index) -> i32
            "arts.edt"(%71, %70#1) <{concurrency = #arts.concurrency<intranode>, type = #arts.edt_type<task>}> ({
            ^bb0(%arg3: memref<?xmemref<memref<?xi32>>>):
              "scf.for"(%11, %63, %10) ({
              ^bb0(%arg4: index):
                %72 = "arith.addi"(%59, %arg4) : (index, index) -> index
                %73 = "arith.index_cast"(%72) : (index) -> i32
                %74 = "arith.muli"(%73, %9) : (i32, i32) -> i32
                %75 = "arith.addi"(%73, %74) : (i32, i32) -> i32
                %76 = "arith.constant"() <{value = 0 : index}> : () -> index
                %77 = "arts.db_ref"(%arg3, %76) : (memref<?xmemref<memref<?xi32>>>, index) -> memref<?xi32>
                %78 = "arith.subi"(%72, %66) : (index, index) -> index
                "memref.store"(%75, %77, %78) <{nontemporal = false}> : (i32, memref<?xi32>, index) -> ()
                "scf.yield"() : () -> ()
              }) {arts.loop = #arts.loop_metadata<potentiallyParallel = true, hasReductions = false, readCount = 0 : i64, writeCount = 0 : i64, tripCount = 0 : i64, nestingLevel = 0 : i64, hasUniformStride = false, hasGatherScatter = false, dataMovementPattern = 6 : i64, suggestedPartitioning = 4 : i64, suggestedChunkSize = 0 : i64, memoryFootprintPerIter = 0 : i64, hasInterIterationDeps = false, dependenceDistance = 0 : i64, locationKey = "parallel_for.c:27:1">} : (index, index, index) -> ()
              "arts.db_release"(%arg3) : (memref<?xmemref<memref<?xi32>>>) -> ()
              "arts.yield"() : () -> ()
            }) : (i32, memref<?xmemref<memref<?xi32>>>) -> ()
            "scf.yield"() : () -> ()
          }, {
          }) : (i1) -> ()
          "arts.yield"() : () -> ()
        }) : () -> i64
        "arts.db_release"(%arg2) : (memref<?xmemref<memref<?xi32>>>) -> ()
        "arts.yield"() : () -> ()
      }) : (i32, memref<?xmemref<memref<?xi32>>>) -> ()
      %34 = "llvm.mlir.addressof"() <{global_name = @str4}> : () -> !llvm.ptr
      %35 = "llvm.getelementptr"(%34) <{elem_type = !llvm.array<27 x i8>, rawConstantIndices = array<i32: 0, 0>}> : (!llvm.ptr) -> !llvm.ptr
      %36 = "llvm.call"(%35) <{callee = @printf, callee_type = !llvm.func<i32 (ptr, ...)>, fastmathFlags = #llvm.fastmath<none>}> : (!llvm.ptr) -> i32
      %37 = "arith.cmpi"(%18, %7) <{predicate = 4 : i64}> : (i32, i32) -> i1
      %38 = "scf.if"(%37) ({
        %50:2 = "scf.for"(%11, %24, %10, %5, %2) ({
        ^bb0(%arg2: index, %arg3: i8, %arg4: i1):
          %51:2 = "scf.if"(%arg4) ({
            %52 = "arts.db_ref"(%23#1, %11) : (memref<?xmemref<memref<?xi32>>>, index) -> memref<?xi32>
            %53 = "memref.load"(%52, %arg2) <{nontemporal = false}> : (memref<?xi32>, index) -> i32
            %54 = "arith.index_cast"(%arg2) : (index) -> i32
            %55 = "arith.muli"(%54, %9) : (i32, i32) -> i32
            %56 = "arith.addi"(%54, %55) : (i32, i32) -> i32
            %57 = "arith.cmpi"(%53, %56) <{predicate = 1 : i64}> : (i32, i32) -> i1
            %58 = "arith.select"(%57, %6, %arg3) : (i1, i8, i8) -> i8
            %59 = "arith.cmpi"(%53, %56) <{predicate = 0 : i64}> : (i32, i32) -> i1
            "scf.yield"(%58, %59) : (i8, i1) -> ()
          }, {
            "scf.yield"(%arg3, %1) : (i8, i1) -> ()
          }) : (i1) -> (i8, i1)
          "scf.yield"(%51#0, %51#1) : (i8, i1) -> ()
        }) {arts.id = 4 : i64, arts.loop = #arts.loop_metadata<potentiallyParallel = false, hasReductions = false, readCount = 3 : i64, writeCount = 0 : i64, tripCount = 0 : i64, nestingLevel = 0 : i64, hasUniformStride = true, hasGatherScatter = false, dataMovementPattern = 0 : i64, suggestedPartitioning = 0 : i64, suggestedChunkSize = 0 : i64, memoryFootprintPerIter = 12 : i64, hasInterIterationDeps = true, dependenceDistance = 0 : i64, locationKey = "-">} : (index, index, index, i8, i1) -> (i8, i1)
        "scf.yield"(%50#0) : (i8) -> ()
      }, {
        "scf.yield"(%5) : (i8) -> ()
      }) : (i1) -> i8
      %39 = "llvm.mlir.addressof"() <{global_name = @str5}> : () -> !llvm.ptr
      %40 = "llvm.getelementptr"(%39) <{elem_type = !llvm.array<10 x i8>, rawConstantIndices = array<i32: 0, 0>}> : (!llvm.ptr) -> !llvm.ptr
      %41 = "llvm.call"(%40) <{callee = @printf, callee_type = !llvm.func<i32 (ptr, ...)>, fastmathFlags = #llvm.fastmath<none>}> : (!llvm.ptr) -> i32
      %42 = "llvm.mlir.addressof"() <{global_name = @str6}> : () -> !llvm.ptr
      %43 = "llvm.getelementptr"(%42) <{elem_type = !llvm.array<36 x i8>, rawConstantIndices = array<i32: 0, 0>}> : (!llvm.ptr) -> !llvm.ptr
      "scf.for"(%11, %24, %10) ({
      ^bb0(%arg2: index):
        %50 = "arith.index_cast"(%arg2) : (index) -> i32
        %51 = "arts.db_ref"(%23#1, %11) : (memref<?xmemref<memref<?xi32>>>, index) -> memref<?xi32>
        %52 = "memref.load"(%51, %arg2) <{nontemporal = false}> : (memref<?xi32>, index) -> i32
        %53 = "arith.muli"(%50, %9) : (i32, i32) -> i32
        %54 = "llvm.call"(%43, %50, %52, %50, %50, %50, %53) <{callee = @printf, callee_type = !llvm.func<i32 (ptr, ...)>, fastmathFlags = #llvm.fastmath<none>}> : (!llvm.ptr, i32, i32, i32, i32, i32, i32) -> i32
        "scf.yield"() : () -> ()
      }) {arts.id = 5 : i64, arts.loop = #arts.loop_metadata<potentiallyParallel = true, hasReductions = false, readCount = 3 : i64, writeCount = 0 : i64, tripCount = 0 : i64, nestingLevel = 0 : i64, hasUniformStride = true, hasGatherScatter = false, dataMovementPattern = 0 : i64, suggestedPartitioning = 0 : i64, suggestedChunkSize = 0 : i64, memoryFootprintPerIter = 12 : i64, hasInterIterationDeps = false, dependenceDistance = 0 : i64, locationKey = "-">} : (index, index, index) -> ()
      %44 = "llvm.mlir.addressof"() <{global_name = @str7}> : () -> !llvm.ptr
      %45 = "llvm.getelementptr"(%44) <{elem_type = !llvm.array<13 x i8>, rawConstantIndices = array<i32: 0, 0>}> : (!llvm.ptr) -> !llvm.ptr
      %46 = "arith.extui"(%38) : (i8) -> i32
      %47 = "arith.cmpi"(%46, %7) <{predicate = 1 : i64}> : (i32, i32) -> i1
      %48 = "scf.if"(%47) ({
        %50 = "llvm.mlir.addressof"() <{global_name = @str8}> : () -> !llvm.ptr
        %51 = "llvm.getelementptr"(%50) <{elem_type = !llvm.array<5 x i8>, rawConstantIndices = array<i32: 0, 0>}> : (!llvm.ptr) -> !llvm.ptr
        "scf.yield"(%51) : (!llvm.ptr) -> ()
      }, {
        %50 = "llvm.mlir.addressof"() <{global_name = @str9}> : () -> !llvm.ptr
        %51 = "llvm.getelementptr"(%50) <{elem_type = !llvm.array<6 x i8>, rawConstantIndices = array<i32: 0, 0>}> : (!llvm.ptr) -> !llvm.ptr
        "scf.yield"(%51) : (!llvm.ptr) -> ()
      }) : (i1) -> !llvm.ptr
      %49 = "llvm.call"(%45, %48) <{callee = @printf, callee_type = !llvm.func<i32 (ptr, ...)>, fastmathFlags = #llvm.fastmath<none>}> : (!llvm.ptr, !llvm.ptr) -> i32
      "arts.db_free"(%23#0) : (memref<?xi64>) -> ()
      "arts.db_free"(%23#1) : (memref<?xmemref<memref<?xi32>>>) -> ()
      "scf.yield"() : () -> ()
    }, {
    }) : (i1) -> ()
    "func.return"(%16) : (i32) -> ()
  }) {llvm.linkage = #llvm.linkage<external>} : () -> ()
  "func.func"() <{function_type = (memref<?xi8>) -> i32, sym_name = "atoi", sym_visibility = "private"}> ({
  }) {llvm.linkage = #llvm.linkage<external>} : () -> ()
}) {dlti.dl_spec = #dlti.dl_spec<#dlti.dl_entry<i128, dense<128> : vector<2xi32>>, #dlti.dl_entry<f128, dense<128> : vector<2xi32>>, #dlti.dl_entry<i64, dense<64> : vector<2xi32>>, #dlti.dl_entry<i32, dense<32> : vector<2xi32>>, #dlti.dl_entry<i16, dense<16> : vector<2xi32>>, #dlti.dl_entry<f16, dense<16> : vector<2xi32>>, #dlti.dl_entry<f64, dense<64> : vector<2xi32>>, #dlti.dl_entry<!llvm.ptr, dense<64> : vector<4xi32>>, #dlti.dl_entry<i8, dense<8> : vector<2xi32>>, #dlti.dl_entry<i1, dense<8> : vector<2xi32>>, #dlti.dl_entry<"dlti.stack_alignment", 128 : i32>, #dlti.dl_entry<"dlti.endianness", "little">>, llvm.data_layout = "e-m:o-i64:64-i128:128-n32:64-S128", llvm.target_triple = "arm64-apple-macosx16.0.0", "polygeist.target-cpu" = "apple-m1", "polygeist.target-features" = "+aes,+crc,+dotprod,+fp-armv8,+fp16fml,+fullfp16,+lse,+neon,+ras,+rcpc,+rdm,+sha2,+sha3,+v8.1a,+v8.2a,+v8.3a,+v8.4a,+v8.5a,+v8a,+zcm,+zcz"} : () -> ()
"builtin.module"() ({
  "llvm.mlir.global"() <{addr_space = 0 : i32, constant, global_type = !llvm.array<6 x i8>, linkage = #llvm.linkage<internal>, sym_name = "str9", unnamed_addr = 0 : i64, value = "false\00", visibility_ = 0 : i64}> ({
  }) : () -> ()
  "llvm.mlir.global"() <{addr_space = 0 : i32, constant, global_type = !llvm.array<5 x i8>, linkage = #llvm.linkage<internal>, sym_name = "str8", unnamed_addr = 0 : i64, value = "true\00", visibility_ = 0 : i64}> ({
  }) : () -> ()
  "llvm.mlir.global"() <{addr_space = 0 : i32, constant, global_type = !llvm.array<13 x i8>, linkage = #llvm.linkage<internal>, sym_name = "str7", unnamed_addr = 0 : i64, value = "Success: %s\0A\00", visibility_ = 0 : i64}> ({
  }) : () -> ()
  "llvm.mlir.global"() <{addr_space = 0 : i32, constant, global_type = !llvm.array<36 x i8>, linkage = #llvm.linkage<internal>, sym_name = "str6", unnamed_addr = 0 : i64, value = "c[%d] = %d, a[%d] = %d, b[%d] = %d\0A\00", visibility_ = 0 : i64}> ({
  }) : () -> ()
  "llvm.mlir.global"() <{addr_space = 0 : i32, constant, global_type = !llvm.array<10 x i8>, linkage = #llvm.linkage<internal>, sym_name = "str5", unnamed_addr = 0 : i64, value = "Results:\0A\00", visibility_ = 0 : i64}> ({
  }) : () -> ()
  "llvm.mlir.global"() <{addr_space = 0 : i32, constant, global_type = !llvm.array<27 x i8>, linkage = #llvm.linkage<internal>, sym_name = "str4", unnamed_addr = 0 : i64, value = "Parallel region completed\0A\00", visibility_ = 0 : i64}> ({
  }) : () -> ()
  "llvm.mlir.global"() <{addr_space = 0 : i32, constant, global_type = !llvm.array<18 x i8>, linkage = #llvm.linkage<internal>, sym_name = "str3", unnamed_addr = 0 : i64, value = "Parallel region:\0A\00", visibility_ = 0 : i64}> ({
  }) : () -> ()
  "llvm.mlir.global"() <{addr_space = 0 : i32, constant, global_type = !llvm.array<24 x i8>, linkage = #llvm.linkage<internal>, sym_name = "str2", unnamed_addr = 0 : i64, value = "a[%d] = %d, b[%d] = %d\0A\00", visibility_ = 0 : i64}> ({
  }) : () -> ()
  "llvm.mlir.global"() <{addr_space = 0 : i32, constant, global_type = !llvm.array<17 x i8>, linkage = #llvm.linkage<internal>, sym_name = "str1", unnamed_addr = 0 : i64, value = "Initial values:\0A\00", visibility_ = 0 : i64}> ({
  }) : () -> ()
  "llvm.mlir.global"() <{addr_space = 0 : i32, constant, global_type = !llvm.array<18 x i8>, linkage = #llvm.linkage<internal>, sym_name = "str0", unnamed_addr = 0 : i64, value = "Usage: %s <size>\0A\00", visibility_ = 0 : i64}> ({
  }) : () -> ()
  "llvm.func"() <{CConv = #llvm.cconv<ccc>, function_type = !llvm.func<i32 (ptr, ...)>, linkage = #llvm.linkage<external>, sym_name = "printf", unnamed_addr = 0 : i64, visibility_ = 0 : i64}> ({
  }) : () -> ()
  "func.func"() <{function_type = (i32, memref<?xmemref<?xi8>>) -> i32, sym_name = "main"}> ({
  ^bb0(%arg0: i32, %arg1: memref<?xmemref<?xi8>>):
    %0 = "arith.constant"() <{value = 8 : index}> : () -> index
    %1 = "arith.constant"() <{value = false}> : () -> i1
    %2 = "arith.constant"() <{value = true}> : () -> i1
    %3 = "arith.constant"() <{value = 4 : index}> : () -> index
    %4 = "arith.constant"() <{value = 4 : i64}> : () -> i64
    %5 = "arith.constant"() <{value = 1 : i8}> : () -> i8
    %6 = "arith.constant"() <{value = 0 : i8}> : () -> i8
    %7 = "arith.constant"() <{value = 0 : i32}> : () -> i32
    %8 = "arith.constant"() <{value = 1 : i32}> : () -> i32
    %9 = "arith.constant"() <{value = 2 : i32}> : () -> i32
    %10 = "arith.constant"() <{value = 1 : index}> : () -> index
    %11 = "arith.constant"() <{value = 0 : index}> : () -> index
    %12 = "llvm.mlir.undef"() : () -> i32
    %13 = "arith.cmpi"(%arg0, %9) <{predicate = 2 : i64}> : (i32, i32) -> i1
    %14 = "arith.cmpi"(%arg0, %9) <{predicate = 5 : i64}> : (i32, i32) -> i1
    %15 = "arith.select"(%13, %8, %12) : (i1, i32, i32) -> i32
    "scf.if"(%13) ({
      %17 = "llvm.mlir.addressof"() <{global_name = @str0}> : () -> !llvm.ptr
      %18 = "llvm.getelementptr"(%17) <{elem_type = !llvm.array<18 x i8>, rawConstantIndices = array<i32: 0, 0>}> : (!llvm.ptr) -> !llvm.ptr
      %19 = "memref.load"(%arg1, %11) <{nontemporal = false}> : (memref<?xmemref<?xi8>>, index) -> memref<?xi8>
      %20 = "polygeist.memref2pointer"(%19) : (memref<?xi8>) -> !llvm.ptr
      %21 = "llvm.call"(%18, %20) <{callee = @printf, callee_type = !llvm.func<i32 (ptr, ...)>, fastmathFlags = #llvm.fastmath<none>}> : (!llvm.ptr, !llvm.ptr) -> i32
      "scf.yield"() : () -> ()
    }, {
    }) : (i1) -> ()
    %16 = "arith.select"(%14, %7, %15) : (i1, i32, i32) -> i32
    "scf.if"(%14) ({
      %17 = "memref.load"(%arg1, %10) <{nontemporal = false}> : (memref<?xmemref<?xi8>>, index) -> memref<?xi8>
      %18 = "func.call"(%17) <{callee = @atoi}> : (memref<?xi8>) -> i32
      %19 = "arith.extsi"(%18) : (i32) -> i64
      %20 = "arith.muli"(%19, %4) : (i64, i64) -> i64
      %21 = "arith.index_cast"(%20) : (i64) -> index
      %22 = "arith.divui"(%21, %3) : (index, index) -> index
      %23:2 = "arts.db_alloc"(%7, %10, %22) <{allocType = #arts.alloc_type<heap>, dbMode = #arts.db_mode<pinned>, elementType = i32, mode = #arts.mode<inout>, operandSegmentSizes = array<i32: 1, 0, 1, 1>}> {arts.id = 8 : i64, arts.memref = #arts.memref_metadata<rank = 1 : i64, allocationId = "parallel_for.c:13:12", totalAccesses = 3 : i64, readCount = 2 : i64, writeCount = 1 : i64, readWriteRatio = 0.66666666666666663 : f64, allAccessesAffine = true, hasNonAffineAccesses = false, firstUseId = 8 : i64, hasUniformAccess = true, dominantAccessPattern = "sequential", accessedInParallelLoop = true, hasLoopCarriedDeps = true, reuseDistance = 1 : i64, hasGoodSpatialLocality = true>} : (i32, index, index) -> (memref<?xi64>, memref<?xmemref<memref<?xi32>>>)
      %24 = "arith.index_cast"(%18) : (i32) -> index
      %25 = "llvm.mlir.addressof"() <{global_name = @str1}> : () -> !llvm.ptr
      %26 = "llvm.getelementptr"(%25) <{elem_type = !llvm.array<17 x i8>, rawConstantIndices = array<i32: 0, 0>}> : (!llvm.ptr) -> !llvm.ptr
      %27 = "llvm.call"(%26) <{callee = @printf, callee_type = !llvm.func<i32 (ptr, ...)>, fastmathFlags = #llvm.fastmath<none>}> : (!llvm.ptr) -> i32
      %28 = "llvm.mlir.addressof"() <{global_name = @str2}> : () -> !llvm.ptr
      %29 = "llvm.getelementptr"(%28) <{elem_type = !llvm.array<24 x i8>, rawConstantIndices = array<i32: 0, 0>}> : (!llvm.ptr) -> !llvm.ptr
      "scf.for"(%11, %24, %10) ({
      ^bb0(%arg2: index):
        %50 = "arith.index_cast"(%arg2) : (index) -> i32
        %51 = "arith.muli"(%50, %9) : (i32, i32) -> i32
        %52 = "llvm.call"(%29, %50, %50, %50, %51) <{callee = @printf, callee_type = !llvm.func<i32 (ptr, ...)>, fastmathFlags = #llvm.fastmath<none>}> : (!llvm.ptr, i32, i32, i32, i32) -> i32
        "scf.yield"() : () -> ()
      }) {arts.id = 2 : i64, arts.loop = #arts.loop_metadata<potentiallyParallel = true, hasReductions = false, readCount = 2 : i64, writeCount = 0 : i64, tripCount = 0 : i64, nestingLevel = 0 : i64, hasUniformStride = true, hasGatherScatter = false, dataMovementPattern = 0 : i64, suggestedPartitioning = 0 : i64, suggestedChunkSize = 0 : i64, memoryFootprintPerIter = 8 : i64, hasInterIterationDeps = false, dependenceDistance = 0 : i64, locationKey = "-">} : (index, index, index) -> ()
      %30 = "llvm.mlir.addressof"() <{global_name = @str3}> : () -> !llvm.ptr
      %31 = "llvm.getelementptr"(%30) <{elem_type = !llvm.array<18 x i8>, rawConstantIndices = array<i32: 0, 0>}> : (!llvm.ptr) -> !llvm.ptr
      %32 = "llvm.call"(%31) <{callee = @printf, callee_type = !llvm.func<i32 (ptr, ...)>, fastmathFlags = #llvm.fastmath<none>}> : (!llvm.ptr) -> i32
      %33:2 = "arts.db_acquire"(%23#0, %23#1, %11, %10) <{mode = #arts.mode<inout>, operandSegmentSizes = array<i32: 1, 1, 0, 1, 1>}> : (memref<?xi64>, memref<?xmemref<memref<?xi32>>>, index, index) -> (memref<?xi64>, memref<?xmemref<memref<?xi32>>>)
      "arts.edt"(%7, %33#1) <{concurrency = #arts.concurrency<intranode>, type = #arts.edt_type<parallel>, workers = #arts.workers<8>}> ({
      ^bb0(%arg2: memref<?xmemref<memref<?xi32>>>):
        %50 = "arts.epoch"() ({
          %51 = "arts.get_parallel_worker_id"() : () -> index
          %52 = "arith.divui"(%24, %0) : (index, index) -> index
          %53 = "arith.remui"(%24, %0) : (index, index) -> index
          %54 = "arith.cmpi"(%51, %53) <{predicate = 6 : i64}> : (index, index) -> i1
          %55 = "arith.index_cast"(%54) : (i1) -> index
          %56 = "arith.addi"(%52, %55) : (index, index) -> index
          %57 = "arith.muli"(%51, %52) : (index, index) -> index
          %58 = "arith.minui"(%51, %53) : (index, index) -> index
          %59 = "arith.addi"(%57, %58) : (index, index) -> index
          %60 = "arith.cmpi"(%24, %59) <{predicate = 6 : i64}> : (index, index) -> i1
          %61 = "arith.subi"(%24, %59) : (index, index) -> index
          %62 = "arith.select"(%60, %11, %61) : (i1, index, index) -> index
          %63 = "arith.minui"(%56, %62) : (index, index) -> index
          %64 = "arith.cmpi"(%63, %11) <{predicate = 8 : i64}> : (index, index) -> i1
          "scf.if"(%64) ({
            %65 = "arith.constant"() <{value = 1 : index}> : () -> index
            %66 = "arith.addi"(%59, %72) : (index, index) -> index
            %67 = "arith.addi"(%59, %72) : (index, index) -> index
            %68 = "arith.subi"(%67, %66) : (index, index) -> index
            %69 = "arith.addi"(%68, %65) : (index, index) -> index
            %70:2 = "arts.db_acquire"(%arg2, %66, %69) <{mode = #arts.mode<inout>, operandSegmentSizes = array<i32: 0, 1, 0, 1, 1>}> : (memref<?xmemref<memref<?xi32>>>, index, index) -> (memref<?xi64>, memref<?xmemref<memref<?xi32>>>)
            %71 = "arith.index_cast"(%51) : (index) -> i32
            "arts.edt"(%71, %70#1) <{concurrency = #arts.concurrency<intranode>, type = #arts.edt_type<task>}> ({
            ^bb0(%arg3: memref<?xmemref<memref<?xi32>>>):
              "scf.for"(%11, %63, %10) ({
              ^bb0(%arg4: index):
                %72 = "arith.addi"(%59, %arg4) : (index, index) -> index
                %73 = "arith.index_cast"(%72) : (index) -> i32
                %74 = "arith.muli"(%73, %9) : (i32, i32) -> i32
                %75 = "arith.addi"(%73, %74) : (i32, i32) -> i32
                %76 = "arith.constant"() <{value = 0 : index}> : () -> index
                %77 = "arts.db_ref"(%arg3, %76) : (memref<?xmemref<memref<?xi32>>>, index) -> memref<?xi32>
                %78 = "arith.subi"(%72, %66) : (index, index) -> index
                "memref.store"(%75, %77, %78) <{nontemporal = false}> : (i32, memref<?xi32>, index) -> ()
                "scf.yield"() : () -> ()
              }) {arts.loop = #arts.loop_metadata<potentiallyParallel = true, hasReductions = false, readCount = 0 : i64, writeCount = 0 : i64, tripCount = 0 : i64, nestingLevel = 0 : i64, hasUniformStride = false, hasGatherScatter = false, dataMovementPattern = 6 : i64, suggestedPartitioning = 4 : i64, suggestedChunkSize = 0 : i64, memoryFootprintPerIter = 0 : i64, hasInterIterationDeps = false, dependenceDistance = 0 : i64, locationKey = "parallel_for.c:27:1">} : (index, index, index) -> ()
              "arts.db_release"(%arg3) : (memref<?xmemref<memref<?xi32>>>) -> ()
              "arts.yield"() : () -> ()
            }) : (i32, memref<?xmemref<memref<?xi32>>>) -> ()
            "scf.yield"() : () -> ()
          }, {
          }) : (i1) -> ()
          "arts.yield"() : () -> ()
        }) : () -> i64
        "arts.db_release"(%arg2) : (memref<?xmemref<memref<?xi32>>>) -> ()
        "arts.yield"() : () -> ()
      }) : (i32, memref<?xmemref<memref<?xi32>>>) -> ()
      %34 = "llvm.mlir.addressof"() <{global_name = @str4}> : () -> !llvm.ptr
      %35 = "llvm.getelementptr"(%34) <{elem_type = !llvm.array<27 x i8>, rawConstantIndices = array<i32: 0, 0>}> : (!llvm.ptr) -> !llvm.ptr
      %36 = "llvm.call"(%35) <{callee = @printf, callee_type = !llvm.func<i32 (ptr, ...)>, fastmathFlags = #llvm.fastmath<none>}> : (!llvm.ptr) -> i32
      %37 = "arith.cmpi"(%18, %7) <{predicate = 4 : i64}> : (i32, i32) -> i1
      %38 = "scf.if"(%37) ({
        %50:2 = "scf.for"(%11, %24, %10, %5, %2) ({
        ^bb0(%arg2: index, %arg3: i8, %arg4: i1):
          %51:2 = "scf.if"(%arg4) ({
            %52 = "arts.db_ref"(%23#1, %11) : (memref<?xmemref<memref<?xi32>>>, index) -> memref<?xi32>
            %53 = "memref.load"(%52, %arg2) <{nontemporal = false}> : (memref<?xi32>, index) -> i32
            %54 = "arith.index_cast"(%arg2) : (index) -> i32
            %55 = "arith.muli"(%54, %9) : (i32, i32) -> i32
            %56 = "arith.addi"(%54, %55) : (i32, i32) -> i32
            %57 = "arith.cmpi"(%53, %56) <{predicate = 1 : i64}> : (i32, i32) -> i1
            %58 = "arith.select"(%57, %6, %arg3) : (i1, i8, i8) -> i8
            %59 = "arith.cmpi"(%53, %56) <{predicate = 0 : i64}> : (i32, i32) -> i1
            "scf.yield"(%58, %59) : (i8, i1) -> ()
          }, {
            "scf.yield"(%arg3, %1) : (i8, i1) -> ()
          }) : (i1) -> (i8, i1)
          "scf.yield"(%51#0, %51#1) : (i8, i1) -> ()
        }) {arts.id = 4 : i64, arts.loop = #arts.loop_metadata<potentiallyParallel = false, hasReductions = false, readCount = 3 : i64, writeCount = 0 : i64, tripCount = 0 : i64, nestingLevel = 0 : i64, hasUniformStride = true, hasGatherScatter = false, dataMovementPattern = 0 : i64, suggestedPartitioning = 0 : i64, suggestedChunkSize = 0 : i64, memoryFootprintPerIter = 12 : i64, hasInterIterationDeps = true, dependenceDistance = 0 : i64, locationKey = "-">} : (index, index, index, i8, i1) -> (i8, i1)
        "scf.yield"(%50#0) : (i8) -> ()
      }, {
        "scf.yield"(%5) : (i8) -> ()
      }) : (i1) -> i8
      %39 = "llvm.mlir.addressof"() <{global_name = @str5}> : () -> !llvm.ptr
      %40 = "llvm.getelementptr"(%39) <{elem_type = !llvm.array<10 x i8>, rawConstantIndices = array<i32: 0, 0>}> : (!llvm.ptr) -> !llvm.ptr
      %41 = "llvm.call"(%40) <{callee = @printf, callee_type = !llvm.func<i32 (ptr, ...)>, fastmathFlags = #llvm.fastmath<none>}> : (!llvm.ptr) -> i32
      %42 = "llvm.mlir.addressof"() <{global_name = @str6}> : () -> !llvm.ptr
      %43 = "llvm.getelementptr"(%42) <{elem_type = !llvm.array<36 x i8>, rawConstantIndices = array<i32: 0, 0>}> : (!llvm.ptr) -> !llvm.ptr
      "scf.for"(%11, %24, %10) ({
      ^bb0(%arg2: index):
        %50 = "arith.index_cast"(%arg2) : (index) -> i32
        %51 = "arts.db_ref"(%23#1, %11) : (memref<?xmemref<memref<?xi32>>>, index) -> memref<?xi32>
        %52 = "memref.load"(%51, %arg2) <{nontemporal = false}> : (memref<?xi32>, index) -> i32
        %53 = "arith.muli"(%50, %9) : (i32, i32) -> i32
        %54 = "llvm.call"(%43, %50, %52, %50, %50, %50, %53) <{callee = @printf, callee_type = !llvm.func<i32 (ptr, ...)>, fastmathFlags = #llvm.fastmath<none>}> : (!llvm.ptr, i32, i32, i32, i32, i32, i32) -> i32
        "scf.yield"() : () -> ()
      }) {arts.id = 5 : i64, arts.loop = #arts.loop_metadata<potentiallyParallel = true, hasReductions = false, readCount = 3 : i64, writeCount = 0 : i64, tripCount = 0 : i64, nestingLevel = 0 : i64, hasUniformStride = true, hasGatherScatter = false, dataMovementPattern = 0 : i64, suggestedPartitioning = 0 : i64, suggestedChunkSize = 0 : i64, memoryFootprintPerIter = 12 : i64, hasInterIterationDeps = false, dependenceDistance = 0 : i64, locationKey = "-">} : (index, index, index) -> ()
      %44 = "llvm.mlir.addressof"() <{global_name = @str7}> : () -> !llvm.ptr
      %45 = "llvm.getelementptr"(%44) <{elem_type = !llvm.array<13 x i8>, rawConstantIndices = array<i32: 0, 0>}> : (!llvm.ptr) -> !llvm.ptr
      %46 = "arith.extui"(%38) : (i8) -> i32
      %47 = "arith.cmpi"(%46, %7) <{predicate = 1 : i64}> : (i32, i32) -> i1
      %48 = "scf.if"(%47) ({
        %50 = "llvm.mlir.addressof"() <{global_name = @str8}> : () -> !llvm.ptr
        %51 = "llvm.getelementptr"(%50) <{elem_type = !llvm.array<5 x i8>, rawConstantIndices = array<i32: 0, 0>}> : (!llvm.ptr) -> !llvm.ptr
        "scf.yield"(%51) : (!llvm.ptr) -> ()
      }, {
        %50 = "llvm.mlir.addressof"() <{global_name = @str9}> : () -> !llvm.ptr
        %51 = "llvm.getelementptr"(%50) <{elem_type = !llvm.array<6 x i8>, rawConstantIndices = array<i32: 0, 0>}> : (!llvm.ptr) -> !llvm.ptr
        "scf.yield"(%51) : (!llvm.ptr) -> ()
      }) : (i1) -> !llvm.ptr
      %49 = "llvm.call"(%45, %48) <{callee = @printf, callee_type = !llvm.func<i32 (ptr, ...)>, fastmathFlags = #llvm.fastmath<none>}> : (!llvm.ptr, !llvm.ptr) -> i32
      "arts.db_free"(%23#0) : (memref<?xi64>) -> ()
      "arts.db_free"(%23#1) : (memref<?xmemref<memref<?xi32>>>) -> ()
      "scf.yield"() : () -> ()
    }, {
    }) : (i1) -> ()
    "func.return"(%16) : (i32) -> ()
  }) {llvm.linkage = #llvm.linkage<external>} : () -> ()
  "func.func"() <{function_type = (memref<?xi8>) -> i32, sym_name = "atoi", sym_visibility = "private"}> ({
  }) {llvm.linkage = #llvm.linkage<external>} : () -> ()
}) {dlti.dl_spec = #dlti.dl_spec<#dlti.dl_entry<i128, dense<128> : vector<2xi32>>, #dlti.dl_entry<f128, dense<128> : vector<2xi32>>, #dlti.dl_entry<i64, dense<64> : vector<2xi32>>, #dlti.dl_entry<i32, dense<32> : vector<2xi32>>, #dlti.dl_entry<i16, dense<16> : vector<2xi32>>, #dlti.dl_entry<f16, dense<16> : vector<2xi32>>, #dlti.dl_entry<f64, dense<64> : vector<2xi32>>, #dlti.dl_entry<!llvm.ptr, dense<64> : vector<4xi32>>, #dlti.dl_entry<i8, dense<8> : vector<2xi32>>, #dlti.dl_entry<i1, dense<8> : vector<2xi32>>, #dlti.dl_entry<"dlti.stack_alignment", 128 : i32>, #dlti.dl_entry<"dlti.endianness", "little">>, llvm.data_layout = "e-m:o-i64:64-i128:128-n32:64-S128", llvm.target_triple = "arm64-apple-macosx16.0.0", "polygeist.target-cpu" = "apple-m1", "polygeist.target-features" = "+aes,+crc,+dotprod,+fp-armv8,+fp16fml,+fullfp16,+lse,+neon,+ras,+rcpc,+rdm,+sha2,+sha3,+v8.1a,+v8.2a,+v8.3a,+v8.4a,+v8.5a,+v8a,+zcm,+zcz"} : () -> ()
