#loc48 = loc("/home/raherrer/projects/carts/external/carts-benchmarks/sw4lite/rhs4sg-base/rhs4sg_base.c":122:3)
#loc55 = loc("/home/raherrer/projects/carts/external/carts-benchmarks/sw4lite/rhs4sg-base/rhs4sg_base.c":125:5)
#loc58 = loc("/home/raherrer/projects/carts/external/carts-benchmarks/sw4lite/rhs4sg-base/rhs4sg_base.c":128:7)
#loc75 = loc("/home/raherrer/projects/carts/external/carts-benchmarks/sw4lite/rhs4sg-base/rhs4sg_base.c":135:3)
#loc80 = loc("/home/raherrer/projects/carts/external/carts-benchmarks/sw4lite/rhs4sg-base/rhs4sg_base.c":138:5)
#loc91 = loc("/home/raherrer/projects/carts/external/carts-benchmarks/sw4lite/rhs4sg-base/rhs4sg_base.c":149:3)
#loc104 = loc("/home/raherrer/projects/carts/external/carts-benchmarks/sw4lite/rhs4sg-base/rhs4sg_base.c":162:3)
#loc115 = loc("/home/raherrer/projects/carts/external/carts-benchmarks/sw4lite/rhs4sg-base/rhs4sg_base.c":174:3)
#loc118 = loc("/home/raherrer/projects/carts/external/carts-benchmarks/sw4lite/rhs4sg-base/rhs4sg_base.c":175:5)
#loc132 = loc("/home/raherrer/projects/carts/external/carts-benchmarks/sw4lite/rhs4sg-base/rhs4sg_base.c":189:3)
#loc133 = loc("/home/raherrer/projects/carts/external/carts-benchmarks/sw4lite/rhs4sg-base/rhs4sg_base.c":190:5)
#loc148 = loc("/home/raherrer/projects/carts/external/carts-benchmarks/sw4lite/rhs4sg-base/rhs4sg_base.c":24:13)
#loc152 = loc("/home/raherrer/projects/carts/external/carts-benchmarks/sw4lite/rhs4sg-base/rhs4sg_base.c":26:3)
#loc159 = loc("/home/raherrer/projects/carts/external/carts-benchmarks/sw4lite/rhs4sg-base/rhs4sg_base.c":28:5)
#loc172 = loc("/home/raherrer/projects/carts/external/carts-benchmarks/sw4lite/rhs4sg-base/rhs4sg_base.c":39:3)
#loc175 = loc("/home/raherrer/projects/carts/external/carts-benchmarks/sw4lite/rhs4sg-base/rhs4sg_base.c":40:5)
#loc193 = loc("/home/raherrer/projects/carts/external/carts-benchmarks/sw4lite/rhs4sg-base/rhs4sg_base.c":50:13)
module attributes {dlti.dl_spec = #dlti.dl_spec<!llvm.ptr<270> = dense<32> : vector<4xi64>, !llvm.ptr<271> = dense<32> : vector<4xi64>, !llvm.ptr<272> = dense<64> : vector<4xi64>, i64 = dense<64> : vector<2xi64>, i128 = dense<128> : vector<2xi64>, f80 = dense<128> : vector<2xi64>, !llvm.ptr = dense<64> : vector<4xi64>, i1 = dense<8> : vector<2xi64>, i8 = dense<8> : vector<2xi64>, i16 = dense<16> : vector<2xi64>, i32 = dense<32> : vector<2xi64>, f16 = dense<16> : vector<2xi64>, f64 = dense<64> : vector<2xi64>, f128 = dense<128> : vector<2xi64>, "dlti.endianness" = "little", "dlti.mangling_mode" = "e", "dlti.legal_int_widths" = array<i32: 8, 16, 32, 64>, "dlti.stack_alignment" = 128 : i64>, llvm.data_layout = "e-m:e-p270:32:32-p271:32:32-p272:64:64-i64:64-i128:128-f80:128-n8:16:32:64-S128", llvm.target_triple = "x86_64-unknown-linux-gnu", "polygeist.target-cpu" = "x86-64", "polygeist.target-features" = "+cmov,+cx8,+fxsr,+mmx,+sse,+sse2,+x87", "polygeist.tune-cpu" = "generic"} {
  llvm.mlir.global internal constant @str3("cleanup\00") {addr_space = 0 : i32} loc(#loc1)
  llvm.mlir.global internal constant @str2("verification\00") {addr_space = 0 : i32} loc(#loc2)
  llvm.mlir.global internal constant @str1("startup\00") {addr_space = 0 : i32} loc(#loc3)
  llvm.mlir.global internal constant @str0("sw4lite_rhs4sg_base\00") {addr_space = 0 : i32} loc(#loc4)
  func.func @main() -> i32 attributes {llvm.linkage = #llvm.linkage<external>} {
    %c48 = arith.constant 48 : index loc(#loc)
    %c1 = arith.constant 1 : index loc(#loc)
    %c0 = arith.constant 0 : index loc(#loc)
    %c3 = arith.constant 3 : index loc(#loc)
    %0 = llvm.mlir.addressof @str3 : !llvm.ptr loc(#loc)
    %cst = arith.constant 0.000000e+00 : f64 loc(#loc)
    %1 = llvm.mlir.addressof @str2 : !llvm.ptr loc(#loc)
    %cst_0 = arith.constant 1.000000e+00 : f32 loc(#loc)
    %c48_i32 = arith.constant 48 : i32 loc(#loc)
    %c48_i64 = arith.constant 48 : i64 loc(#loc)
    %c3_i64 = arith.constant 3 : i64 loc(#loc)
    %2 = llvm.mlir.addressof @str1 : !llvm.ptr loc(#loc)
    %c0_i32 = arith.constant 0 : i32 loc(#loc)
    %3 = llvm.mlir.addressof @str0 : !llvm.ptr loc(#loc)
    %true = arith.constant true loc(#loc6)
    %4 = "polygeist.undef"() : () -> i32 loc(#loc7)
    %alloca = memref.alloca() : memref<1xf64> loc(#loc8)
    %5 = "polygeist.undef"() : () -> f64 loc(#loc8)
    affine.store %5, %alloca[0] : memref<1xf64> loc(#loc8)
    %alloca_1 = memref.alloca() : memref<1xmemref<?xmemref<?xmemref<?xf32>>>> loc(#loc9)
    %alloca_2 = memref.alloca() : memref<1xmemref<?xmemref<?xmemref<?xf32>>>> loc(#loc10)
    %alloca_3 = memref.alloca() : memref<1xmemref<?xmemref<?xmemref<?xmemref<?xf32>>>>> loc(#loc11)
    %alloca_4 = memref.alloca() : memref<1xmemref<?xmemref<?xmemref<?xmemref<?xf32>>>>> loc(#loc12)
    scf.if %true {
      scf.execute_region {
        func.call @carts_benchmarks_start() : () -> () loc(#loc13)
        scf.yield loc(#loc)
      } loc(#loc)
    } loc(#loc)
    scf.if %true {
      scf.execute_region {
        %11 = polygeist.pointer2memref %3 : !llvm.ptr to memref<?xi8> loc(#loc14)
        func.call @carts_e2e_timer_start(%11) : (memref<?xi8>) -> () loc(#loc14)
        scf.yield loc(#loc)
      } loc(#loc)
    } loc(#loc)
    scf.if %true {
      scf.execute_region {
        %11 = polygeist.pointer2memref %2 : !llvm.ptr to memref<?xi8> loc(#loc15)
        %12 = polygeist.pointer2memref %3 : !llvm.ptr to memref<?xi8> loc(#loc15)
        func.call @carts_phase_timer_start(%11, %12) : (memref<?xi8>, memref<?xi8>) -> () loc(#loc15)
        scf.yield loc(#loc)
      } loc(#loc)
    } loc(#loc)
    scf.if %true {
      scf.execute_region {
        scf.if %true {
          %11 = scf.execute_region -> memref<?xmemref<?xmemref<?xmemref<?xf32>>>> {
            %12 = polygeist.typeSize memref<?xmemref<?xmemref<?xf32>>> : index loc(#loc16)
            %13 = arith.index_cast %12 : index to i64 loc(#loc17)
            %14 = arith.muli %13, %c3_i64 : i64 loc(#loc18)
            %15 = arith.index_cast %14 : i64 to index loc(#loc16)
            %16 = arith.divui %15, %12 : index loc(#loc16)
            %alloc = memref.alloc(%16) : memref<?xmemref<?xmemref<?xmemref<?xf32>>>> loc(#loc16)
            affine.store %alloc, %alloca_4[0] : memref<1xmemref<?xmemref<?xmemref<?xmemref<?xf32>>>>> loc(#loc12)
            scf.yield %alloc : memref<?xmemref<?xmemref<?xmemref<?xf32>>>> loc(#loc)
          } loc(#loc)
        } loc(#loc)
        scf.yield loc(#loc)
      } loc(#loc)
    } loc(#loc)
    scf.if %true {
      scf.execute_region {
        scf.if %true {
          %11 = scf.execute_region -> memref<?xmemref<?xmemref<?xmemref<?xf32>>>> {
            %12 = polygeist.typeSize memref<?xmemref<?xmemref<?xf32>>> : index loc(#loc19)
            %13 = arith.index_cast %12 : index to i64 loc(#loc20)
            %14 = arith.muli %13, %c3_i64 : i64 loc(#loc21)
            %15 = arith.index_cast %14 : i64 to index loc(#loc19)
            %16 = arith.divui %15, %12 : index loc(#loc19)
            %alloc = memref.alloc(%16) : memref<?xmemref<?xmemref<?xmemref<?xf32>>>> loc(#loc19)
            affine.store %alloc, %alloca_3[0] : memref<1xmemref<?xmemref<?xmemref<?xmemref<?xf32>>>>> loc(#loc11)
            scf.yield %alloc : memref<?xmemref<?xmemref<?xmemref<?xf32>>>> loc(#loc)
          } loc(#loc)
        } loc(#loc)
        scf.yield loc(#loc)
      } loc(#loc)
    } loc(#loc)
    scf.if %true {
      scf.execute_region {
        scf.if %true {
          %11 = scf.execute_region -> memref<?xmemref<?xmemref<?xf32>>> {
            %12 = polygeist.typeSize memref<?xmemref<?xf32>> : index loc(#loc22)
            %13 = arith.index_cast %12 : index to i64 loc(#loc23)
            %14 = arith.muli %13, %c48_i64 : i64 loc(#loc24)
            %15 = arith.index_cast %14 : i64 to index loc(#loc22)
            %16 = arith.divui %15, %12 : index loc(#loc22)
            %alloc = memref.alloc(%16) : memref<?xmemref<?xmemref<?xf32>>> loc(#loc22)
            affine.store %alloc, %alloca_2[0] : memref<1xmemref<?xmemref<?xmemref<?xf32>>>> loc(#loc10)
            scf.yield %alloc : memref<?xmemref<?xmemref<?xf32>>> loc(#loc)
          } loc(#loc)
        } loc(#loc)
        scf.yield loc(#loc)
      } loc(#loc)
    } loc(#loc)
    scf.if %true {
      scf.execute_region {
        scf.if %true {
          %11 = scf.execute_region -> memref<?xmemref<?xmemref<?xf32>>> {
            %12 = polygeist.typeSize memref<?xmemref<?xf32>> : index loc(#loc25)
            %13 = arith.index_cast %12 : index to i64 loc(#loc26)
            %14 = arith.muli %13, %c48_i64 : i64 loc(#loc27)
            %15 = arith.index_cast %14 : i64 to index loc(#loc25)
            %16 = arith.divui %15, %12 : index loc(#loc25)
            %alloc = memref.alloc(%16) : memref<?xmemref<?xmemref<?xf32>>> loc(#loc25)
            affine.store %alloc, %alloca_1[0] : memref<1xmemref<?xmemref<?xmemref<?xf32>>>> loc(#loc9)
            scf.yield %alloc : memref<?xmemref<?xmemref<?xf32>>> loc(#loc)
          } loc(#loc)
        } loc(#loc)
        scf.yield loc(#loc)
      } loc(#loc)
    } loc(#loc)
    scf.if %true {
      scf.execute_region {
        scf.if %true {
          scf.execute_region {
            %11 = affine.load %alloca_4[0] : memref<1xmemref<?xmemref<?xmemref<?xmemref<?xf32>>>>> loc(#loc28)
            %12 = polygeist.typeSize memref<?xmemref<?xf32>> : index loc(#loc29)
            %13 = arith.index_cast %12 : index to i64 loc(#loc30)
            %14 = arith.muli %13, %c48_i64 : i64 loc(#loc31)
            %15 = arith.index_cast %14 : i64 to index loc(#loc29)
            %16 = arith.divui %15, %12 : index loc(#loc29)
            %17 = affine.load %alloca_3[0] : memref<1xmemref<?xmemref<?xmemref<?xmemref<?xf32>>>>> loc(#loc32)
            %18 = polygeist.typeSize memref<?xmemref<?xf32>> : index loc(#loc33)
            %19 = arith.index_cast %18 : index to i64 loc(#loc34)
            %20 = arith.muli %19, %c48_i64 : i64 loc(#loc35)
            %21 = arith.index_cast %20 : i64 to index loc(#loc33)
            %22 = arith.divui %21, %18 : index loc(#loc33)
            %23 = polygeist.typeSize memref<?xf32> : index loc(#loc36)
            %24 = arith.index_cast %23 : index to i64 loc(#loc37)
            %25 = arith.muli %24, %c48_i64 : i64 loc(#loc38)
            %26 = arith.index_cast %25 : i64 to index loc(#loc36)
            %27 = arith.divui %26, %23 : index loc(#loc36)
            %28 = polygeist.typeSize memref<?xf32> : index loc(#loc39)
            %29 = arith.index_cast %28 : index to i64 loc(#loc40)
            %30 = arith.muli %29, %c48_i64 : i64 loc(#loc41)
            %31 = arith.index_cast %30 : i64 to index loc(#loc39)
            %32 = arith.divui %31, %28 : index loc(#loc39)
            %33 = polygeist.typeSize f32 : index loc(#loc42)
            %34 = arith.index_cast %33 : index to i64 loc(#loc43)
            %35 = arith.muli %34, %c48_i64 : i64 loc(#loc44)
            %36 = arith.index_cast %35 : i64 to index loc(#loc42)
            %37 = arith.divui %36, %33 : index loc(#loc42)
            %38 = polygeist.typeSize f32 : index loc(#loc45)
            %39 = arith.index_cast %38 : index to i64 loc(#loc46)
            %40 = arith.muli %39, %c48_i64 : i64 loc(#loc47)
            %41 = arith.index_cast %40 : i64 to index loc(#loc45)
            %42 = arith.divui %41, %38 : index loc(#loc45)
            affine.for %arg0 loc("/home/raherrer/projects/carts/external/carts-benchmarks/sw4lite/rhs4sg-base/rhs4sg_base.c":122:3) = 0 to 3 {
              scf.if %true {
                scf.execute_region {
                  %43 = polygeist.subindex %11[%arg0] () : memref<?xmemref<?xmemref<?xmemref<?xf32>>>> -> memref<?xmemref<?xmemref<?xmemref<?xf32>>>> loc(#loc28)
                  %alloc = memref.alloc(%16) : memref<?xmemref<?xmemref<?xf32>>> loc(#loc29)
                  affine.store %alloc, %43[0] : memref<?xmemref<?xmemref<?xmemref<?xf32>>>> loc(#loc49)
                  scf.yield loc(#loc)
                } loc(#loc)
              } loc(#loc)
              scf.if %true {
                scf.execute_region {
                  %43 = polygeist.subindex %17[%arg0] () : memref<?xmemref<?xmemref<?xmemref<?xf32>>>> -> memref<?xmemref<?xmemref<?xmemref<?xf32>>>> loc(#loc32)
                  %alloc = memref.alloc(%22) : memref<?xmemref<?xmemref<?xf32>>> loc(#loc33)
                  affine.store %alloc, %43[0] : memref<?xmemref<?xmemref<?xmemref<?xf32>>>> loc(#loc50)
                  scf.yield loc(#loc)
                } loc(#loc)
              } loc(#loc)
              scf.if %true {
                scf.execute_region {
                  scf.if %true {
                    scf.execute_region {
                      %43 = polygeist.subindex %11[%arg0] () : memref<?xmemref<?xmemref<?xmemref<?xf32>>>> -> memref<?xmemref<?xmemref<?xmemref<?xf32>>>> loc(#loc51)
                      %44 = polygeist.subindex %17[%arg0] () : memref<?xmemref<?xmemref<?xmemref<?xf32>>>> -> memref<?xmemref<?xmemref<?xmemref<?xf32>>>> loc(#loc52)
                      %45 = polygeist.subindex %11[%arg0] () : memref<?xmemref<?xmemref<?xmemref<?xf32>>>> -> memref<?xmemref<?xmemref<?xmemref<?xf32>>>> loc(#loc53)
                      %46 = polygeist.subindex %17[%arg0] () : memref<?xmemref<?xmemref<?xmemref<?xf32>>>> -> memref<?xmemref<?xmemref<?xmemref<?xf32>>>> loc(#loc54)
                      affine.for %arg1 loc("/home/raherrer/projects/carts/external/carts-benchmarks/sw4lite/rhs4sg-base/rhs4sg_base.c":125:5) = 0 to 48 {
                        scf.if %true {
                          scf.execute_region {
                            %47 = affine.load %43[0] : memref<?xmemref<?xmemref<?xmemref<?xf32>>>> loc(#loc51)
                            %48 = polygeist.subindex %47[%arg1] () : memref<?xmemref<?xmemref<?xf32>>> -> memref<?xmemref<?xmemref<?xf32>>> loc(#loc51)
                            %alloc = memref.alloc(%27) : memref<?xmemref<?xf32>> loc(#loc36)
                            affine.store %alloc, %48[0] : memref<?xmemref<?xmemref<?xf32>>> loc(#loc56)
                            scf.yield loc(#loc)
                          } loc(#loc)
                        } loc(#loc)
                        scf.if %true {
                          scf.execute_region {
                            %47 = affine.load %44[0] : memref<?xmemref<?xmemref<?xmemref<?xf32>>>> loc(#loc52)
                            %48 = polygeist.subindex %47[%arg1] () : memref<?xmemref<?xmemref<?xf32>>> -> memref<?xmemref<?xmemref<?xf32>>> loc(#loc52)
                            %alloc = memref.alloc(%32) : memref<?xmemref<?xf32>> loc(#loc39)
                            affine.store %alloc, %48[0] : memref<?xmemref<?xmemref<?xf32>>> loc(#loc57)
                            scf.yield loc(#loc)
                          } loc(#loc)
                        } loc(#loc)
                        scf.if %true {
                          scf.execute_region {
                            scf.if %true {
                              scf.execute_region {
                                affine.for %arg2 loc("/home/raherrer/projects/carts/external/carts-benchmarks/sw4lite/rhs4sg-base/rhs4sg_base.c":128:7) = 0 to 48 {
                                  scf.if %true {
                                    scf.execute_region {
                                      %47 = affine.load %45[0] : memref<?xmemref<?xmemref<?xmemref<?xf32>>>> loc(#loc53)
                                      %48 = polygeist.subindex %47[%arg1] () : memref<?xmemref<?xmemref<?xf32>>> -> memref<?xmemref<?xmemref<?xf32>>> loc(#loc53)
                                      %49 = affine.load %48[0] : memref<?xmemref<?xmemref<?xf32>>> loc(#loc53)
                                      %50 = polygeist.subindex %49[%arg2] () : memref<?xmemref<?xf32>> -> memref<?xmemref<?xf32>> loc(#loc53)
                                      %alloc = memref.alloc(%37) : memref<?xf32> loc(#loc42)
                                      affine.store %alloc, %50[0] : memref<?xmemref<?xf32>> loc(#loc59)
                                      scf.yield loc(#loc)
                                    } loc(#loc)
                                  } loc(#loc)
                                  scf.if %true {
                                    scf.execute_region {
                                      %47 = affine.load %46[0] : memref<?xmemref<?xmemref<?xmemref<?xf32>>>> loc(#loc54)
                                      %48 = polygeist.subindex %47[%arg1] () : memref<?xmemref<?xmemref<?xf32>>> -> memref<?xmemref<?xmemref<?xf32>>> loc(#loc54)
                                      %49 = affine.load %48[0] : memref<?xmemref<?xmemref<?xf32>>> loc(#loc54)
                                      %50 = polygeist.subindex %49[%arg2] () : memref<?xmemref<?xf32>> -> memref<?xmemref<?xf32>> loc(#loc54)
                                      %alloc = memref.alloc(%42) : memref<?xf32> loc(#loc45)
                                      affine.store %alloc, %50[0] : memref<?xmemref<?xf32>> loc(#loc60)
                                      scf.yield loc(#loc)
                                    } loc(#loc)
                                  } loc(#loc)
                                } loc(#loc58)
                                scf.yield loc(#loc)
                              } loc(#loc)
                            } loc(#loc)
                            scf.yield loc(#loc)
                          } loc(#loc)
                        } loc(#loc)
                      } loc(#loc55)
                      scf.yield loc(#loc)
                    } loc(#loc)
                  } loc(#loc)
                  scf.yield loc(#loc)
                } loc(#loc)
              } loc(#loc)
            } loc(#loc48)
            scf.yield loc(#loc)
          } loc(#loc)
        } loc(#loc)
        scf.yield loc(#loc)
      } loc(#loc)
    } loc(#loc)
    scf.if %true {
      scf.execute_region {
        scf.if %true {
          scf.execute_region {
            %11 = affine.load %alloca_2[0] : memref<1xmemref<?xmemref<?xmemref<?xf32>>>> loc(#loc61)
            %12 = polygeist.typeSize memref<?xf32> : index loc(#loc62)
            %13 = arith.index_cast %12 : index to i64 loc(#loc63)
            %14 = arith.muli %13, %c48_i64 : i64 loc(#loc64)
            %15 = arith.index_cast %14 : i64 to index loc(#loc62)
            %16 = arith.divui %15, %12 : index loc(#loc62)
            %17 = affine.load %alloca_1[0] : memref<1xmemref<?xmemref<?xmemref<?xf32>>>> loc(#loc65)
            %18 = polygeist.typeSize memref<?xf32> : index loc(#loc66)
            %19 = arith.index_cast %18 : index to i64 loc(#loc67)
            %20 = arith.muli %19, %c48_i64 : i64 loc(#loc68)
            %21 = arith.index_cast %20 : i64 to index loc(#loc66)
            %22 = arith.divui %21, %18 : index loc(#loc66)
            %23 = polygeist.typeSize f32 : index loc(#loc69)
            %24 = arith.index_cast %23 : index to i64 loc(#loc70)
            %25 = arith.muli %24, %c48_i64 : i64 loc(#loc71)
            %26 = arith.index_cast %25 : i64 to index loc(#loc69)
            %27 = arith.divui %26, %23 : index loc(#loc69)
            %28 = polygeist.typeSize f32 : index loc(#loc72)
            %29 = arith.index_cast %28 : index to i64 loc(#loc73)
            %30 = arith.muli %29, %c48_i64 : i64 loc(#loc74)
            %31 = arith.index_cast %30 : i64 to index loc(#loc72)
            %32 = arith.divui %31, %28 : index loc(#loc72)
            affine.for %arg0 loc("/home/raherrer/projects/carts/external/carts-benchmarks/sw4lite/rhs4sg-base/rhs4sg_base.c":135:3) = 0 to 48 {
              scf.if %true {
                scf.execute_region {
                  %33 = polygeist.subindex %11[%arg0] () : memref<?xmemref<?xmemref<?xf32>>> -> memref<?xmemref<?xmemref<?xf32>>> loc(#loc61)
                  %alloc = memref.alloc(%16) : memref<?xmemref<?xf32>> loc(#loc62)
                  affine.store %alloc, %33[0] : memref<?xmemref<?xmemref<?xf32>>> loc(#loc76)
                  scf.yield loc(#loc)
                } loc(#loc)
              } loc(#loc)
              scf.if %true {
                scf.execute_region {
                  %33 = polygeist.subindex %17[%arg0] () : memref<?xmemref<?xmemref<?xf32>>> -> memref<?xmemref<?xmemref<?xf32>>> loc(#loc65)
                  %alloc = memref.alloc(%22) : memref<?xmemref<?xf32>> loc(#loc66)
                  affine.store %alloc, %33[0] : memref<?xmemref<?xmemref<?xf32>>> loc(#loc77)
                  scf.yield loc(#loc)
                } loc(#loc)
              } loc(#loc)
              scf.if %true {
                scf.execute_region {
                  scf.if %true {
                    scf.execute_region {
                      %33 = polygeist.subindex %11[%arg0] () : memref<?xmemref<?xmemref<?xf32>>> -> memref<?xmemref<?xmemref<?xf32>>> loc(#loc78)
                      %34 = polygeist.subindex %17[%arg0] () : memref<?xmemref<?xmemref<?xf32>>> -> memref<?xmemref<?xmemref<?xf32>>> loc(#loc79)
                      affine.for %arg1 loc("/home/raherrer/projects/carts/external/carts-benchmarks/sw4lite/rhs4sg-base/rhs4sg_base.c":138:5) = 0 to 48 {
                        scf.if %true {
                          scf.execute_region {
                            %35 = affine.load %33[0] : memref<?xmemref<?xmemref<?xf32>>> loc(#loc78)
                            %36 = polygeist.subindex %35[%arg1] () : memref<?xmemref<?xf32>> -> memref<?xmemref<?xf32>> loc(#loc78)
                            %alloc = memref.alloc(%27) : memref<?xf32> loc(#loc69)
                            affine.store %alloc, %36[0] : memref<?xmemref<?xf32>> loc(#loc81)
                            scf.yield loc(#loc)
                          } loc(#loc)
                        } loc(#loc)
                        scf.if %true {
                          scf.execute_region {
                            %35 = affine.load %34[0] : memref<?xmemref<?xmemref<?xf32>>> loc(#loc79)
                            %36 = polygeist.subindex %35[%arg1] () : memref<?xmemref<?xf32>> -> memref<?xmemref<?xf32>> loc(#loc79)
                            %alloc = memref.alloc(%32) : memref<?xf32> loc(#loc72)
                            affine.store %alloc, %36[0] : memref<?xmemref<?xf32>> loc(#loc82)
                            scf.yield loc(#loc)
                          } loc(#loc)
                        } loc(#loc)
                      } loc(#loc80)
                      scf.yield loc(#loc)
                    } loc(#loc)
                  } loc(#loc)
                  scf.yield loc(#loc)
                } loc(#loc)
              } loc(#loc)
            } loc(#loc75)
            scf.yield loc(#loc)
          } loc(#loc)
        } loc(#loc)
        scf.yield loc(#loc)
      } loc(#loc)
    } loc(#loc)
    scf.if %true {
      scf.execute_region {
        %11 = affine.load %alloca_4[0] : memref<1xmemref<?xmemref<?xmemref<?xmemref<?xf32>>>>> loc(#loc83)
        %12 = affine.load %alloca_2[0] : memref<1xmemref<?xmemref<?xmemref<?xf32>>>> loc(#loc84)
        %13 = affine.load %alloca_1[0] : memref<1xmemref<?xmemref<?xmemref<?xf32>>>> loc(#loc85)
        %14 = affine.load %alloca_3[0] : memref<1xmemref<?xmemref<?xmemref<?xmemref<?xf32>>>>> loc(#loc86)
        func.call @init_array(%11, %12, %13, %14) : (memref<?xmemref<?xmemref<?xmemref<?xf32>>>>, memref<?xmemref<?xmemref<?xf32>>>, memref<?xmemref<?xmemref<?xf32>>>, memref<?xmemref<?xmemref<?xmemref<?xf32>>>>) -> () loc(#loc87)
        scf.yield loc(#loc)
      } loc(#loc)
    } loc(#loc)
    scf.if %true {
      scf.execute_region {
        %11 = polygeist.pointer2memref %2 : !llvm.ptr to memref<?xi8> loc(#loc88)
        func.call @carts_phase_timer_stop(%11) : (memref<?xi8>) -> () loc(#loc88)
        scf.yield loc(#loc)
      } loc(#loc)
    } loc(#loc)
    scf.if %true {
      scf.execute_region {
        %11 = polygeist.pointer2memref %3 : !llvm.ptr to memref<?xi8> loc(#loc89)
        func.call @carts_kernel_timer_start(%11) : (memref<?xi8>) -> () loc(#loc89)
        scf.yield loc(#loc)
      } loc(#loc)
    } loc(#loc)
    scf.if %true {
      scf.execute_region {
        scf.if %true {
          scf.execute_region {
            %11 = polygeist.pointer2memref %3 : !llvm.ptr to memref<?xi8> loc(#loc90)
            affine.for %arg0 loc("/home/raherrer/projects/carts/external/carts-benchmarks/sw4lite/rhs4sg-base/rhs4sg_base.c":149:3) = 0 to 1 {
              scf.if %true {
                scf.execute_region {
                  %12 = affine.load %alloca_3[0] : memref<1xmemref<?xmemref<?xmemref<?xmemref<?xf32>>>>> loc(#loc92)
                  %13 = affine.load %alloca_4[0] : memref<1xmemref<?xmemref<?xmemref<?xmemref<?xf32>>>>> loc(#loc93)
                  %14 = affine.load %alloca_2[0] : memref<1xmemref<?xmemref<?xmemref<?xf32>>>> loc(#loc94)
                  %15 = affine.load %alloca_1[0] : memref<1xmemref<?xmemref<?xmemref<?xf32>>>> loc(#loc95)
                  func.call @sw4lite_rhs4sg_base(%12, %13, %14, %15, %cst_0) : (memref<?xmemref<?xmemref<?xmemref<?xf32>>>>, memref<?xmemref<?xmemref<?xmemref<?xf32>>>>, memref<?xmemref<?xmemref<?xf32>>>, memref<?xmemref<?xmemref<?xf32>>>, f32) -> () loc(#loc96)
                  scf.yield loc(#loc)
                } loc(#loc)
              } loc(#loc)
              scf.if %true {
                scf.execute_region {
                  func.call @carts_kernel_timer_accum(%11) : (memref<?xi8>) -> () loc(#loc90)
                  scf.yield loc(#loc)
                } loc(#loc)
              } loc(#loc)
            } loc(#loc91)
            scf.yield loc(#loc)
          } loc(#loc)
        } loc(#loc)
        scf.yield loc(#loc)
      } loc(#loc)
    } loc(#loc)
    scf.if %true {
      scf.execute_region {
        %11 = polygeist.pointer2memref %3 : !llvm.ptr to memref<?xi8> loc(#loc97)
        func.call @carts_kernel_timer_print(%11) : (memref<?xi8>) -> () loc(#loc97)
        scf.yield loc(#loc)
      } loc(#loc)
    } loc(#loc)
    scf.if %true {
      scf.execute_region {
        %11 = polygeist.pointer2memref %1 : !llvm.ptr to memref<?xi8> loc(#loc98)
        %12 = polygeist.pointer2memref %3 : !llvm.ptr to memref<?xi8> loc(#loc98)
        func.call @carts_phase_timer_start(%11, %12) : (memref<?xi8>, memref<?xi8>) -> () loc(#loc98)
        scf.yield loc(#loc)
      } loc(#loc)
    } loc(#loc)
    scf.if %true {
      scf.execute_region {
        scf.if %true {
          scf.execute_region {
            affine.store %cst, %alloca[0] : memref<1xf64> loc(#loc8)
            scf.yield loc(#loc)
          } loc(#loc)
        } loc(#loc)
        scf.yield loc(#loc)
      } loc(#loc)
    } loc(#loc)
    %6 = scf.if %true -> (i32) {
      %11 = scf.execute_region -> i32 {
        %12 = scf.if %true -> (i32) {
          %13 = scf.execute_region -> i32 {
            scf.yield %c48_i32 : i32 loc(#loc)
          } loc(#loc)
          scf.yield %13 : i32 loc(#loc)
        } else {
          scf.yield %4 : i32 loc(#loc)
        } loc(#loc)
        scf.yield %12 : i32 loc(#loc)
      } loc(#loc)
      scf.yield %11 : i32 loc(#loc)
    } else {
      scf.yield %4 : i32 loc(#loc)
    } loc(#loc)
    %7 = scf.if %true -> (i32) {
      %11 = scf.execute_region -> i32 {
        %12 = scf.if %true -> (i32) {
          %13 = scf.execute_region -> i32 {
            %14 = arith.cmpi sgt, %6, %c48_i32 : i32 loc(#loc99)
            %15 = scf.if %14 -> (i32) {
              scf.yield %c48_i32 : i32 loc(#loc100)
            } else {
              scf.yield %6 : i32 loc(#loc100)
            } loc(#loc100)
            scf.yield %15 : i32 loc(#loc)
          } loc(#loc)
          scf.yield %13 : i32 loc(#loc)
        } else {
          scf.yield %6 : i32 loc(#loc)
        } loc(#loc)
        scf.yield %12 : i32 loc(#loc)
      } loc(#loc)
      scf.yield %11 : i32 loc(#loc)
    } else {
      scf.yield %6 : i32 loc(#loc)
    } loc(#loc)
    %8 = scf.if %true -> (i32) {
      %11 = scf.execute_region -> i32 {
        %12 = scf.if %true -> (i32) {
          %13 = scf.execute_region -> i32 {
            %14 = arith.cmpi sgt, %7, %c48_i32 : i32 loc(#loc101)
            %15 = scf.if %14 -> (i32) {
              scf.yield %c48_i32 : i32 loc(#loc102)
            } else {
              scf.yield %7 : i32 loc(#loc102)
            } loc(#loc102)
            scf.yield %15 : i32 loc(#loc)
          } loc(#loc)
          scf.yield %13 : i32 loc(#loc)
        } else {
          scf.yield %7 : i32 loc(#loc)
        } loc(#loc)
        scf.yield %12 : i32 loc(#loc)
      } loc(#loc)
      scf.yield %11 : i32 loc(#loc)
    } else {
      scf.yield %7 : i32 loc(#loc)
    } loc(#loc)
    %9 = arith.index_cast %8 : i32 to index loc(#loc)
    scf.if %true {
      scf.execute_region {
        scf.if %true {
          scf.execute_region {
            %11 = affine.load %alloca_3[0] : memref<1xmemref<?xmemref<?xmemref<?xmemref<?xf32>>>>> loc(#loc103)
            affine.for %arg0 loc("/home/raherrer/projects/carts/external/carts-benchmarks/sw4lite/rhs4sg-base/rhs4sg_base.c":162:3) = 0 to %9 {
              scf.if %true {
                scf.execute_region {
                  scf.if %true {
                    scf.execute_region {
                      scf.for %arg1 = %c0 to %c3 step %c1 {
                        scf.if %true {
                          scf.execute_region {
                            %12 = polygeist.subindex %11[%arg1] () : memref<?xmemref<?xmemref<?xmemref<?xf32>>>> -> memref<?xmemref<?xmemref<?xmemref<?xf32>>>> loc(#loc103)
                            %13 = affine.load %12[0] : memref<?xmemref<?xmemref<?xmemref<?xf32>>>> loc(#loc103)
                            %14 = polygeist.subindex %13[%arg0] () : memref<?xmemref<?xmemref<?xf32>>> -> memref<?xmemref<?xmemref<?xf32>>> loc(#loc103)
                            %15 = affine.load %14[0] : memref<?xmemref<?xmemref<?xf32>>> loc(#loc103)
                            %16 = polygeist.subindex %15[%arg0] () : memref<?xmemref<?xf32>> -> memref<?xmemref<?xf32>> loc(#loc103)
                            %17 = affine.load %16[0] : memref<?xmemref<?xf32>> loc(#loc103)
                            %18 = polygeist.subindex %17[%arg0] () : memref<?xf32> -> memref<?xf32> loc(#loc103)
                            %19 = affine.load %18[0] : memref<?xf32> loc(#loc103)
                            %20 = arith.extf %19 : f32 to f64 loc(#loc106)
                            %21 = math.absf %20 : f64 loc(#loc107)
                            %22 = affine.load %alloca[0] : memref<1xf64> loc(#loc108)
                            %23 = arith.addf %22, %21 : f64 loc(#loc108)
                            affine.store %23, %alloca[0] : memref<1xf64> loc(#loc108)
                            scf.yield loc(#loc)
                          } loc(#loc)
                        } loc(#loc)
                      } loc(#loc105)
                      scf.yield loc(#loc)
                    } loc(#loc)
                  } loc(#loc)
                  scf.yield loc(#loc)
                } loc(#loc)
              } loc(#loc)
            } loc(#loc104)
            scf.yield loc(#loc)
          } loc(#loc)
        } loc(#loc)
        scf.yield loc(#loc)
      } loc(#loc)
    } loc(#loc)
    scf.if %true {
      scf.execute_region {
        %11 = affine.load %alloca[0] : memref<1xf64> loc(#loc109)
        func.call @carts_bench_checksum_d(%11) : (f64) -> () loc(#loc110)
        scf.yield loc(#loc)
      } loc(#loc)
    } loc(#loc)
    scf.if %true {
      scf.execute_region {
        %11 = polygeist.pointer2memref %1 : !llvm.ptr to memref<?xi8> loc(#loc111)
        func.call @carts_phase_timer_stop(%11) : (memref<?xi8>) -> () loc(#loc111)
        scf.yield loc(#loc)
      } loc(#loc)
    } loc(#loc)
    scf.if %true {
      scf.execute_region {
        %11 = polygeist.pointer2memref %0 : !llvm.ptr to memref<?xi8> loc(#loc112)
        %12 = polygeist.pointer2memref %3 : !llvm.ptr to memref<?xi8> loc(#loc112)
        func.call @carts_phase_timer_start(%11, %12) : (memref<?xi8>, memref<?xi8>) -> () loc(#loc112)
        scf.yield loc(#loc)
      } loc(#loc)
    } loc(#loc)
    scf.if %true {
      scf.execute_region {
        scf.if %true {
          scf.execute_region {
            %11 = affine.load %alloca_4[0] : memref<1xmemref<?xmemref<?xmemref<?xmemref<?xf32>>>>> loc(#loc113)
            %12 = affine.load %alloca_3[0] : memref<1xmemref<?xmemref<?xmemref<?xmemref<?xf32>>>>> loc(#loc114)
            affine.for %arg0 loc("/home/raherrer/projects/carts/external/carts-benchmarks/sw4lite/rhs4sg-base/rhs4sg_base.c":174:3) = 0 to 3 {
              scf.if %true {
                scf.execute_region {
                  scf.if %true {
                    scf.execute_region {
                      %13 = polygeist.subindex %11[%arg0] () : memref<?xmemref<?xmemref<?xmemref<?xf32>>>> -> memref<?xmemref<?xmemref<?xmemref<?xf32>>>> loc(#loc113)
                      %14 = polygeist.subindex %12[%arg0] () : memref<?xmemref<?xmemref<?xmemref<?xf32>>>> -> memref<?xmemref<?xmemref<?xmemref<?xf32>>>> loc(#loc114)
                      %15 = polygeist.subindex %11[%arg0] () : memref<?xmemref<?xmemref<?xmemref<?xf32>>>> -> memref<?xmemref<?xmemref<?xmemref<?xf32>>>> loc(#loc116)
                      %16 = polygeist.subindex %12[%arg0] () : memref<?xmemref<?xmemref<?xmemref<?xf32>>>> -> memref<?xmemref<?xmemref<?xmemref<?xf32>>>> loc(#loc117)
                      affine.for %arg1 loc("/home/raherrer/projects/carts/external/carts-benchmarks/sw4lite/rhs4sg-base/rhs4sg_base.c":175:5) = 0 to 48 {
                        scf.if %true {
                          scf.execute_region {
                            scf.if %true {
                              scf.execute_region {
                                scf.for %arg2 = %c0 to %c48 step %c1 {
                                  scf.if %true {
                                    scf.execute_region {
                                      %17 = affine.load %13[0] : memref<?xmemref<?xmemref<?xmemref<?xf32>>>> loc(#loc113)
                                      %18 = polygeist.subindex %17[%arg1] () : memref<?xmemref<?xmemref<?xf32>>> -> memref<?xmemref<?xmemref<?xf32>>> loc(#loc113)
                                      %19 = affine.load %18[0] : memref<?xmemref<?xmemref<?xf32>>> loc(#loc113)
                                      %20 = polygeist.subindex %19[%arg2] () : memref<?xmemref<?xf32>> -> memref<?xmemref<?xf32>> loc(#loc113)
                                      %21 = affine.load %20[0] : memref<?xmemref<?xf32>> loc(#loc120)
                                      memref.dealloc %21 : memref<?xf32> loc(#loc120)
                                      scf.yield loc(#loc)
                                    } loc(#loc)
                                  } loc(#loc)
                                  scf.if %true {
                                    scf.execute_region {
                                      %17 = affine.load %14[0] : memref<?xmemref<?xmemref<?xmemref<?xf32>>>> loc(#loc114)
                                      %18 = polygeist.subindex %17[%arg1] () : memref<?xmemref<?xmemref<?xf32>>> -> memref<?xmemref<?xmemref<?xf32>>> loc(#loc114)
                                      %19 = affine.load %18[0] : memref<?xmemref<?xmemref<?xf32>>> loc(#loc114)
                                      %20 = polygeist.subindex %19[%arg2] () : memref<?xmemref<?xf32>> -> memref<?xmemref<?xf32>> loc(#loc114)
                                      %21 = affine.load %20[0] : memref<?xmemref<?xf32>> loc(#loc121)
                                      memref.dealloc %21 : memref<?xf32> loc(#loc121)
                                      scf.yield loc(#loc)
                                    } loc(#loc)
                                  } loc(#loc)
                                } loc(#loc119)
                                scf.yield loc(#loc)
                              } loc(#loc)
                            } loc(#loc)
                            scf.yield loc(#loc)
                          } loc(#loc)
                        } loc(#loc)
                        scf.if %true {
                          scf.execute_region {
                            %17 = affine.load %15[0] : memref<?xmemref<?xmemref<?xmemref<?xf32>>>> loc(#loc116)
                            %18 = polygeist.subindex %17[%arg1] () : memref<?xmemref<?xmemref<?xf32>>> -> memref<?xmemref<?xmemref<?xf32>>> loc(#loc116)
                            %19 = affine.load %18[0] : memref<?xmemref<?xmemref<?xf32>>> loc(#loc122)
                            memref.dealloc %19 : memref<?xmemref<?xf32>> loc(#loc122)
                            scf.yield loc(#loc)
                          } loc(#loc)
                        } loc(#loc)
                        scf.if %true {
                          scf.execute_region {
                            %17 = affine.load %16[0] : memref<?xmemref<?xmemref<?xmemref<?xf32>>>> loc(#loc117)
                            %18 = polygeist.subindex %17[%arg1] () : memref<?xmemref<?xmemref<?xf32>>> -> memref<?xmemref<?xmemref<?xf32>>> loc(#loc117)
                            %19 = affine.load %18[0] : memref<?xmemref<?xmemref<?xf32>>> loc(#loc123)
                            memref.dealloc %19 : memref<?xmemref<?xf32>> loc(#loc123)
                            scf.yield loc(#loc)
                          } loc(#loc)
                        } loc(#loc)
                      } loc(#loc118)
                      scf.yield loc(#loc)
                    } loc(#loc)
                  } loc(#loc)
                  scf.yield loc(#loc)
                } loc(#loc)
              } loc(#loc)
              scf.if %true {
                scf.execute_region {
                  %13 = polygeist.subindex %11[%arg0] () : memref<?xmemref<?xmemref<?xmemref<?xf32>>>> -> memref<?xmemref<?xmemref<?xmemref<?xf32>>>> loc(#loc124)
                  %14 = affine.load %13[0] : memref<?xmemref<?xmemref<?xmemref<?xf32>>>> loc(#loc125)
                  memref.dealloc %14 : memref<?xmemref<?xmemref<?xf32>>> loc(#loc125)
                  scf.yield loc(#loc)
                } loc(#loc)
              } loc(#loc)
              scf.if %true {
                scf.execute_region {
                  %13 = polygeist.subindex %12[%arg0] () : memref<?xmemref<?xmemref<?xmemref<?xf32>>>> -> memref<?xmemref<?xmemref<?xmemref<?xf32>>>> loc(#loc126)
                  %14 = affine.load %13[0] : memref<?xmemref<?xmemref<?xmemref<?xf32>>>> loc(#loc127)
                  memref.dealloc %14 : memref<?xmemref<?xmemref<?xf32>>> loc(#loc127)
                  scf.yield loc(#loc)
                } loc(#loc)
              } loc(#loc)
            } loc(#loc115)
            scf.yield loc(#loc)
          } loc(#loc)
        } loc(#loc)
        scf.yield loc(#loc)
      } loc(#loc)
    } loc(#loc)
    scf.if %true {
      scf.execute_region {
        %11 = affine.load %alloca_4[0] : memref<1xmemref<?xmemref<?xmemref<?xmemref<?xf32>>>>> loc(#loc128)
        memref.dealloc %11 : memref<?xmemref<?xmemref<?xmemref<?xf32>>>> loc(#loc128)
        scf.yield loc(#loc)
      } loc(#loc)
    } loc(#loc)
    scf.if %true {
      scf.execute_region {
        %11 = affine.load %alloca_3[0] : memref<1xmemref<?xmemref<?xmemref<?xmemref<?xf32>>>>> loc(#loc129)
        memref.dealloc %11 : memref<?xmemref<?xmemref<?xmemref<?xf32>>>> loc(#loc129)
        scf.yield loc(#loc)
      } loc(#loc)
    } loc(#loc)
    scf.if %true {
      scf.execute_region {
        scf.if %true {
          scf.execute_region {
            %11 = affine.load %alloca_2[0] : memref<1xmemref<?xmemref<?xmemref<?xf32>>>> loc(#loc130)
            %12 = affine.load %alloca_1[0] : memref<1xmemref<?xmemref<?xmemref<?xf32>>>> loc(#loc131)
            affine.for %arg0 loc("/home/raherrer/projects/carts/external/carts-benchmarks/sw4lite/rhs4sg-base/rhs4sg_base.c":189:3) = 0 to 48 {
              scf.if %true {
                scf.execute_region {
                  scf.if %true {
                    scf.execute_region {
                      %13 = polygeist.subindex %11[%arg0] () : memref<?xmemref<?xmemref<?xf32>>> -> memref<?xmemref<?xmemref<?xf32>>> loc(#loc130)
                      %14 = polygeist.subindex %12[%arg0] () : memref<?xmemref<?xmemref<?xf32>>> -> memref<?xmemref<?xmemref<?xf32>>> loc(#loc131)
                      affine.for %arg1 loc("/home/raherrer/projects/carts/external/carts-benchmarks/sw4lite/rhs4sg-base/rhs4sg_base.c":190:5) = 0 to 48 {
                        scf.if %true {
                          scf.execute_region {
                            %15 = affine.load %13[0] : memref<?xmemref<?xmemref<?xf32>>> loc(#loc130)
                            %16 = polygeist.subindex %15[%arg1] () : memref<?xmemref<?xf32>> -> memref<?xmemref<?xf32>> loc(#loc130)
                            %17 = affine.load %16[0] : memref<?xmemref<?xf32>> loc(#loc134)
                            memref.dealloc %17 : memref<?xf32> loc(#loc134)
                            scf.yield loc(#loc)
                          } loc(#loc)
                        } loc(#loc)
                        scf.if %true {
                          scf.execute_region {
                            %15 = affine.load %14[0] : memref<?xmemref<?xmemref<?xf32>>> loc(#loc131)
                            %16 = polygeist.subindex %15[%arg1] () : memref<?xmemref<?xf32>> -> memref<?xmemref<?xf32>> loc(#loc131)
                            %17 = affine.load %16[0] : memref<?xmemref<?xf32>> loc(#loc135)
                            memref.dealloc %17 : memref<?xf32> loc(#loc135)
                            scf.yield loc(#loc)
                          } loc(#loc)
                        } loc(#loc)
                      } loc(#loc133)
                      scf.yield loc(#loc)
                    } loc(#loc)
                  } loc(#loc)
                  scf.yield loc(#loc)
                } loc(#loc)
              } loc(#loc)
              scf.if %true {
                scf.execute_region {
                  %13 = polygeist.subindex %11[%arg0] () : memref<?xmemref<?xmemref<?xf32>>> -> memref<?xmemref<?xmemref<?xf32>>> loc(#loc136)
                  %14 = affine.load %13[0] : memref<?xmemref<?xmemref<?xf32>>> loc(#loc137)
                  memref.dealloc %14 : memref<?xmemref<?xf32>> loc(#loc137)
                  scf.yield loc(#loc)
                } loc(#loc)
              } loc(#loc)
              scf.if %true {
                scf.execute_region {
                  %13 = polygeist.subindex %12[%arg0] () : memref<?xmemref<?xmemref<?xf32>>> -> memref<?xmemref<?xmemref<?xf32>>> loc(#loc138)
                  %14 = affine.load %13[0] : memref<?xmemref<?xmemref<?xf32>>> loc(#loc139)
                  memref.dealloc %14 : memref<?xmemref<?xf32>> loc(#loc139)
                  scf.yield loc(#loc)
                } loc(#loc)
              } loc(#loc)
            } loc(#loc132)
            scf.yield loc(#loc)
          } loc(#loc)
        } loc(#loc)
        scf.yield loc(#loc)
      } loc(#loc)
    } loc(#loc)
    scf.if %true {
      scf.execute_region {
        %11 = affine.load %alloca_2[0] : memref<1xmemref<?xmemref<?xmemref<?xf32>>>> loc(#loc140)
        memref.dealloc %11 : memref<?xmemref<?xmemref<?xf32>>> loc(#loc140)
        scf.yield loc(#loc)
      } loc(#loc)
    } loc(#loc)
    scf.if %true {
      scf.execute_region {
        %11 = affine.load %alloca_1[0] : memref<1xmemref<?xmemref<?xmemref<?xf32>>>> loc(#loc141)
        memref.dealloc %11 : memref<?xmemref<?xmemref<?xf32>>> loc(#loc141)
        scf.yield loc(#loc)
      } loc(#loc)
    } loc(#loc)
    scf.if %true {
      scf.execute_region {
        %11 = polygeist.pointer2memref %0 : !llvm.ptr to memref<?xi8> loc(#loc142)
        func.call @carts_phase_timer_stop(%11) : (memref<?xi8>) -> () loc(#loc142)
        scf.yield loc(#loc)
      } loc(#loc)
    } loc(#loc)
    scf.if %true {
      scf.execute_region {
        func.call @carts_e2e_timer_stop() : () -> () loc(#loc143)
        scf.yield loc(#loc)
      } loc(#loc)
    } loc(#loc)
    %10 = scf.if %true -> (i32) {
      %11 = scf.execute_region -> i32 {
        %12 = scf.if %true -> (i32) {
          %13 = scf.execute_region -> i32 {
            scf.yield %c0_i32 : i32 loc(#loc)
          } loc(#loc)
          scf.yield %13 : i32 loc(#loc)
        } else {
          scf.yield %4 : i32 loc(#loc)
        } loc(#loc)
        scf.yield %12 : i32 loc(#loc)
      } loc(#loc)
      scf.yield %11 : i32 loc(#loc)
    } else {
      scf.yield %4 : i32 loc(#loc)
    } loc(#loc)
    return %10 : i32 loc(#loc144)
  } loc(#loc5)
  func.func private @carts_benchmarks_start() attributes {llvm.linkage = #llvm.linkage<external>} loc(#loc145)
  func.func private @carts_e2e_timer_start(memref<?xi8>) attributes {llvm.linkage = #llvm.linkage<external>} loc(#loc146)
  func.func private @carts_phase_timer_start(memref<?xi8>, memref<?xi8>) attributes {llvm.linkage = #llvm.linkage<external>} loc(#loc147)
  func.func private @init_array(%arg0: memref<?xmemref<?xmemref<?xmemref<?xf32>>>> loc("/home/raherrer/projects/carts/external/carts-benchmarks/sw4lite/rhs4sg-base/rhs4sg_base.c":24:13), %arg1: memref<?xmemref<?xmemref<?xf32>>> loc("/home/raherrer/projects/carts/external/carts-benchmarks/sw4lite/rhs4sg-base/rhs4sg_base.c":24:13), %arg2: memref<?xmemref<?xmemref<?xf32>>> loc("/home/raherrer/projects/carts/external/carts-benchmarks/sw4lite/rhs4sg-base/rhs4sg_base.c":24:13), %arg3: memref<?xmemref<?xmemref<?xmemref<?xf32>>>> loc("/home/raherrer/projects/carts/external/carts-benchmarks/sw4lite/rhs4sg-base/rhs4sg_base.c":24:13)) attributes {llvm.linkage = #llvm.linkage<internal>} {
    %c48 = arith.constant 48 : index loc(#loc)
    %c1 = arith.constant 1 : index loc(#loc)
    %c0 = arith.constant 0 : index loc(#loc)
    %c7_i32 = arith.constant 7 : i32 loc(#loc)
    %cst = arith.constant 1.500000e-03 : f32 loc(#loc)
    %cst_0 = arith.constant 2.000000e+00 : f32 loc(#loc)
    %c11_i32 = arith.constant 11 : i32 loc(#loc)
    %cst_1 = arith.constant 1.000000e-03 : f32 loc(#loc)
    %cst_2 = arith.constant 3.000000e+00 : f32 loc(#loc)
    %c1_i32 = arith.constant 1 : i32 loc(#loc)
    %cst_3 = arith.constant 0.000000e+00 : f32 loc(#loc)
    %cst_4 = arith.constant 1.000000e-01 : f32 loc(#loc)
    %c23_i32 = arith.constant 23 : i32 loc(#loc)
    %c17_i32 = arith.constant 17 : i32 loc(#loc)
    %cst_5 = arith.constant 5.000000e-02 : f32 loc(#loc)
    %c0_i32 = arith.constant 0 : i32 loc(#loc)
    %true = arith.constant true loc(#loc149)
    %0 = "polygeist.undef"() : () -> i32 loc(#loc150)
    %alloca = memref.alloca() : memref<1xi32> loc(#loc151)
    affine.store %0, %alloca[0] : memref<1xi32> loc(#loc151)
    scf.if %true {
      scf.execute_region {
        scf.if %true {
          scf.execute_region {
            affine.store %c0_i32, %alloca[0] : memref<1xi32> loc(#loc151)
            scf.yield loc(#loc)
          } loc(#loc)
        } loc(#loc)
        scf.yield loc(#loc)
      } loc(#loc)
    } loc(#loc)
    scf.if %true {
      scf.execute_region {
        scf.if %true {
          scf.execute_region {
            affine.for %arg4 loc("/home/raherrer/projects/carts/external/carts-benchmarks/sw4lite/rhs4sg-base/rhs4sg_base.c":26:3) = 0 to 3 {
              %1 = arith.index_cast %arg4 : index to i32 loc(#loc152)
              scf.if %true {
                scf.execute_region {
                  affine.store %c0_i32, %alloca[0] : memref<1xi32> loc(#loc153)
                  scf.yield loc(#loc)
                } loc(#loc)
              } loc(#loc)
              scf.if %true {
                scf.execute_region {
                  scf.if %true {
                    scf.execute_region {
                      %2 = polygeist.subindex %arg0[%arg4] () : memref<?xmemref<?xmemref<?xmemref<?xf32>>>> -> memref<?xmemref<?xmemref<?xmemref<?xf32>>>> loc(#loc154)
                      %3 = arith.muli %1, %c17_i32 : i32 loc(#loc155)
                      %4 = arith.sitofp %1 : i32 to f32 loc(#loc156)
                      %5 = arith.mulf %4, %cst_4 : f32 loc(#loc157)
                      %6 = polygeist.subindex %arg3[%arg4] () : memref<?xmemref<?xmemref<?xmemref<?xf32>>>> -> memref<?xmemref<?xmemref<?xmemref<?xf32>>>> loc(#loc158)
                      affine.for %arg5 loc("/home/raherrer/projects/carts/external/carts-benchmarks/sw4lite/rhs4sg-base/rhs4sg_base.c":28:5) = 0 to 48 {
                        scf.if %true {
                          scf.execute_region {
                            scf.if %true {
                              scf.execute_region {
                                scf.for %arg6 = %c0 to %c48 step %c1 {
                                  scf.if %true {
                                    scf.execute_region {
                                      scf.if %true {
                                        scf.execute_region {
                                          scf.for %arg7 = %c0 to %c48 step %c1 {
                                            scf.if %true {
                                              scf.execute_region {
                                                %7 = affine.load %2[0] : memref<?xmemref<?xmemref<?xmemref<?xf32>>>> loc(#loc154)
                                                %8 = polygeist.subindex %7[%arg5] () : memref<?xmemref<?xmemref<?xf32>>> -> memref<?xmemref<?xmemref<?xf32>>> loc(#loc154)
                                                %9 = affine.load %8[0] : memref<?xmemref<?xmemref<?xf32>>> loc(#loc154)
                                                %10 = polygeist.subindex %9[%arg6] () : memref<?xmemref<?xf32>> -> memref<?xmemref<?xf32>> loc(#loc154)
                                                %11 = affine.load %10[0] : memref<?xmemref<?xf32>> loc(#loc154)
                                                %12 = polygeist.subindex %11[%arg7] () : memref<?xf32> -> memref<?xf32> loc(#loc154)
                                                %13 = affine.load %alloca[0] : memref<1xi32> loc(#loc162)
                                                %14 = arith.addi %13, %3 : i32 loc(#loc163)
                                                %15 = arith.remsi %14, %c23_i32 : i32 loc(#loc164)
                                                %16 = arith.sitofp %15 : i32 to f32 loc(#loc165)
                                                %17 = arith.mulf %16, %cst_5 : f32 loc(#loc166)
                                                %18 = arith.subf %17, %5 : f32 loc(#loc167)
                                                affine.store %18, %12[0] : memref<?xf32> loc(#loc168)
                                                scf.yield loc(#loc)
                                              } loc(#loc)
                                            } loc(#loc)
                                            scf.if %true {
                                              scf.execute_region {
                                                %7 = affine.load %6[0] : memref<?xmemref<?xmemref<?xmemref<?xf32>>>> loc(#loc158)
                                                %8 = polygeist.subindex %7[%arg5] () : memref<?xmemref<?xmemref<?xf32>>> -> memref<?xmemref<?xmemref<?xf32>>> loc(#loc158)
                                                %9 = affine.load %8[0] : memref<?xmemref<?xmemref<?xf32>>> loc(#loc158)
                                                %10 = polygeist.subindex %9[%arg6] () : memref<?xmemref<?xf32>> -> memref<?xmemref<?xf32>> loc(#loc158)
                                                %11 = affine.load %10[0] : memref<?xmemref<?xf32>> loc(#loc158)
                                                %12 = polygeist.subindex %11[%arg7] () : memref<?xf32> -> memref<?xf32> loc(#loc158)
                                                affine.store %cst_3, %12[0] : memref<?xf32> loc(#loc169)
                                                scf.yield loc(#loc)
                                              } loc(#loc)
                                            } loc(#loc)
                                            scf.if %true {
                                              scf.execute_region {
                                                %7 = affine.load %alloca[0] : memref<1xi32> loc(#loc170)
                                                %8 = arith.addi %7, %c1_i32 : i32 loc(#loc170)
                                                affine.store %8, %alloca[0] : memref<1xi32> loc(#loc170)
                                                scf.yield loc(#loc)
                                              } loc(#loc)
                                            } loc(#loc)
                                          } loc(#loc161)
                                          scf.yield loc(#loc)
                                        } loc(#loc)
                                      } loc(#loc)
                                      scf.yield loc(#loc)
                                    } loc(#loc)
                                  } loc(#loc)
                                } loc(#loc160)
                                scf.yield loc(#loc)
                              } loc(#loc)
                            } loc(#loc)
                            scf.yield loc(#loc)
                          } loc(#loc)
                        } loc(#loc)
                      } loc(#loc159)
                      scf.yield loc(#loc)
                    } loc(#loc)
                  } loc(#loc)
                  scf.yield loc(#loc)
                } loc(#loc)
              } loc(#loc)
            } loc(#loc152)
            scf.yield loc(#loc)
          } loc(#loc)
        } loc(#loc)
        scf.yield loc(#loc)
      } loc(#loc)
    } loc(#loc)
    scf.if %true {
      scf.execute_region {
        affine.store %c0_i32, %alloca[0] : memref<1xi32> loc(#loc171)
        scf.yield loc(#loc)
      } loc(#loc)
    } loc(#loc)
    scf.if %true {
      scf.execute_region {
        scf.if %true {
          scf.execute_region {
            affine.for %arg4 loc("/home/raherrer/projects/carts/external/carts-benchmarks/sw4lite/rhs4sg-base/rhs4sg_base.c":39:3) = 0 to 48 {
              scf.if %true {
                scf.execute_region {
                  scf.if %true {
                    scf.execute_region {
                      %1 = polygeist.subindex %arg1[%arg4] () : memref<?xmemref<?xmemref<?xf32>>> -> memref<?xmemref<?xmemref<?xf32>>> loc(#loc173)
                      %2 = polygeist.subindex %arg2[%arg4] () : memref<?xmemref<?xmemref<?xf32>>> -> memref<?xmemref<?xmemref<?xf32>>> loc(#loc174)
                      affine.for %arg5 loc("/home/raherrer/projects/carts/external/carts-benchmarks/sw4lite/rhs4sg-base/rhs4sg_base.c":40:5) = 0 to 48 {
                        scf.if %true {
                          scf.execute_region {
                            scf.if %true {
                              scf.execute_region {
                                scf.for %arg6 = %c0 to %c48 step %c1 {
                                  scf.if %true {
                                    scf.execute_region {
                                      %3 = affine.load %1[0] : memref<?xmemref<?xmemref<?xf32>>> loc(#loc173)
                                      %4 = polygeist.subindex %3[%arg5] () : memref<?xmemref<?xf32>> -> memref<?xmemref<?xf32>> loc(#loc173)
                                      %5 = affine.load %4[0] : memref<?xmemref<?xf32>> loc(#loc173)
                                      %6 = polygeist.subindex %5[%arg6] () : memref<?xf32> -> memref<?xf32> loc(#loc173)
                                      %7 = affine.load %alloca[0] : memref<1xi32> loc(#loc177)
                                      %8 = arith.remsi %7, %c11_i32 : i32 loc(#loc178)
                                      %9 = arith.sitofp %8 : i32 to f32 loc(#loc179)
                                      %10 = arith.mulf %9, %cst_1 : f32 loc(#loc180)
                                      %11 = arith.addf %10, %cst_2 : f32 loc(#loc181)
                                      affine.store %11, %6[0] : memref<?xf32> loc(#loc182)
                                      scf.yield loc(#loc)
                                    } loc(#loc)
                                  } loc(#loc)
                                  scf.if %true {
                                    scf.execute_region {
                                      %3 = affine.load %2[0] : memref<?xmemref<?xmemref<?xf32>>> loc(#loc174)
                                      %4 = polygeist.subindex %3[%arg5] () : memref<?xmemref<?xf32>> -> memref<?xmemref<?xf32>> loc(#loc174)
                                      %5 = affine.load %4[0] : memref<?xmemref<?xf32>> loc(#loc174)
                                      %6 = polygeist.subindex %5[%arg6] () : memref<?xf32> -> memref<?xf32> loc(#loc174)
                                      %7 = affine.load %alloca[0] : memref<1xi32> loc(#loc183)
                                      %8 = arith.remsi %7, %c7_i32 : i32 loc(#loc184)
                                      %9 = arith.sitofp %8 : i32 to f32 loc(#loc185)
                                      %10 = arith.mulf %9, %cst : f32 loc(#loc186)
                                      %11 = arith.addf %10, %cst_0 : f32 loc(#loc187)
                                      affine.store %11, %6[0] : memref<?xf32> loc(#loc188)
                                      scf.yield loc(#loc)
                                    } loc(#loc)
                                  } loc(#loc)
                                  scf.if %true {
                                    scf.execute_region {
                                      %3 = affine.load %alloca[0] : memref<1xi32> loc(#loc189)
                                      %4 = arith.addi %3, %c1_i32 : i32 loc(#loc189)
                                      affine.store %4, %alloca[0] : memref<1xi32> loc(#loc189)
                                      scf.yield loc(#loc)
                                    } loc(#loc)
                                  } loc(#loc)
                                } loc(#loc176)
                                scf.yield loc(#loc)
                              } loc(#loc)
                            } loc(#loc)
                            scf.yield loc(#loc)
                          } loc(#loc)
                        } loc(#loc)
                      } loc(#loc175)
                      scf.yield loc(#loc)
                    } loc(#loc)
                  } loc(#loc)
                  scf.yield loc(#loc)
                } loc(#loc)
              } loc(#loc)
            } loc(#loc172)
            scf.yield loc(#loc)
          } loc(#loc)
        } loc(#loc)
        scf.yield loc(#loc)
      } loc(#loc)
    } loc(#loc)
    return loc(#loc190)
  } loc(#loc148)
  func.func private @carts_phase_timer_stop(memref<?xi8>) attributes {llvm.linkage = #llvm.linkage<external>} loc(#loc191)
  func.func private @carts_kernel_timer_start(memref<?xi8>) attributes {llvm.linkage = #llvm.linkage<external>} loc(#loc192)
  func.func private @sw4lite_rhs4sg_base(%arg0: memref<?xmemref<?xmemref<?xmemref<?xf32>>>> loc("/home/raherrer/projects/carts/external/carts-benchmarks/sw4lite/rhs4sg-base/rhs4sg_base.c":50:13), %arg1: memref<?xmemref<?xmemref<?xmemref<?xf32>>>> loc("/home/raherrer/projects/carts/external/carts-benchmarks/sw4lite/rhs4sg-base/rhs4sg_base.c":50:13), %arg2: memref<?xmemref<?xmemref<?xf32>>> loc("/home/raherrer/projects/carts/external/carts-benchmarks/sw4lite/rhs4sg-base/rhs4sg_base.c":50:13), %arg3: memref<?xmemref<?xmemref<?xf32>>> loc("/home/raherrer/projects/carts/external/carts-benchmarks/sw4lite/rhs4sg-base/rhs4sg_base.c":50:13), %arg4: f32 loc("/home/raherrer/projects/carts/external/carts-benchmarks/sw4lite/rhs4sg-base/rhs4sg_base.c":50:13)) attributes {llvm.linkage = #llvm.linkage<internal>} {
    %c-1_i32 = arith.constant -1 : i32 loc(#loc)
    %c-2 = arith.constant -2 : index loc(#loc)
    %c44 = arith.constant 44 : index loc(#loc)
    %cst = arith.constant 0.0833333358 : f32 loc(#loc)
    %cst_0 = arith.constant -0.666666686 : f32 loc(#loc)
    %cst_1 = arith.constant 0.666666686 : f32 loc(#loc)
    %cst_2 = arith.constant -0.0833333358 : f32 loc(#loc)
    %cst_3 = arith.constant 5.000000e-01 : f32 loc(#loc)
    %c2_i32 = arith.constant 2 : i32 loc(#loc)
    %c1_i32 = arith.constant 1 : i32 loc(#loc)
    %cst_4 = arith.constant 1.000000e+00 : f32 loc(#loc)
    %cst_5 = arith.constant 0.000000e+00 : f32 loc(#loc)
    %true = arith.constant true loc(#loc194)
    %c1 = arith.constant 1 : index loc(#loc)
    %c2 = arith.constant 2 : index loc(#loc)
    %c3 = arith.constant 3 : index loc(#loc)
    %c4 = arith.constant 4 : index loc(#loc)
    %c0 = arith.constant 0 : index loc(#loc195)
    %0 = "polygeist.undef"() : () -> f32 loc(#loc195)
    %alloca = memref.alloca() : memref<5xf32> loc(#loc196)
    scf.if %true {
      scf.execute_region {
        scf.if %true {
          scf.execute_region {
            %2 = polygeist.subindex %alloca[%c0] () : memref<5xf32> -> memref<?xf32> loc(#loc196)
            affine.store %cst_2, %2[0] : memref<?xf32> loc(#loc196)
            %3 = polygeist.subindex %alloca[%c1] () : memref<5xf32> -> memref<?xf32> loc(#loc196)
            affine.store %cst_1, %3[0] : memref<?xf32> loc(#loc196)
            %4 = polygeist.subindex %alloca[%c2] () : memref<5xf32> -> memref<?xf32> loc(#loc196)
            affine.store %cst_5, %4[0] : memref<?xf32> loc(#loc196)
            %5 = polygeist.subindex %alloca[%c3] () : memref<5xf32> -> memref<?xf32> loc(#loc196)
            affine.store %cst_0, %5[0] : memref<?xf32> loc(#loc196)
            %6 = polygeist.subindex %alloca[%c4] () : memref<5xf32> -> memref<?xf32> loc(#loc196)
            affine.store %cst, %6[0] : memref<?xf32> loc(#loc196)
            scf.yield loc(#loc)
          } loc(#loc)
        } loc(#loc)
        scf.yield loc(#loc)
      } loc(#loc)
    } loc(#loc)
    %1 = scf.if %true -> (f32) {
      %2 = scf.execute_region -> f32 {
        %3 = scf.if %true -> (f32) {
          %4 = scf.execute_region -> f32 {
            %5 = arith.mulf %arg4, %arg4 : f32 loc(#loc197)
            %6 = arith.divf %cst_4, %5 : f32 loc(#loc198)
            scf.yield %6 : f32 loc(#loc)
          } loc(#loc)
          scf.yield %4 : f32 loc(#loc)
        } else {
          scf.yield %0 : f32 loc(#loc)
        } loc(#loc)
        scf.yield %3 : f32 loc(#loc)
      } loc(#loc)
      scf.yield %2 : f32 loc(#loc)
    } else {
      scf.yield %0 : f32 loc(#loc)
    } loc(#loc)
    scf.if %true {
      scf.execute_region {
        scf.if %true {
          scf.execute_region {
            omp.parallel {
              scf.execute_region {
                omp.wsloop schedule(static) {
                  omp.loop_nest (%arg5) : index = (%c4) to (%c44) step (%c1) {
                    scf.execute_region {
                      %alloca_6 = memref.alloca() : memref<1xf32> loc(#loc200)
                      affine.store %0, %alloca_6[0] : memref<1xf32> loc(#loc200)
                      %alloca_7 = memref.alloca() : memref<1xf32> loc(#loc201)
                      affine.store %0, %alloca_7[0] : memref<1xf32> loc(#loc201)
                      %alloca_8 = memref.alloca() : memref<1xf32> loc(#loc202)
                      affine.store %0, %alloca_8[0] : memref<1xf32> loc(#loc202)
                      %alloca_9 = memref.alloca() : memref<1xf32> loc(#loc203)
                      affine.store %0, %alloca_9[0] : memref<1xf32> loc(#loc203)
                      %alloca_10 = memref.alloca() : memref<1xf32> loc(#loc204)
                      affine.store %0, %alloca_10[0] : memref<1xf32> loc(#loc204)
                      %alloca_11 = memref.alloca() : memref<1xf32> loc(#loc205)
                      affine.store %0, %alloca_11[0] : memref<1xf32> loc(#loc205)
                      %alloca_12 = memref.alloca() : memref<1xf32> loc(#loc206)
                      affine.store %0, %alloca_12[0] : memref<1xf32> loc(#loc206)
                      %alloca_13 = memref.alloca() : memref<1xf32> loc(#loc207)
                      affine.store %0, %alloca_13[0] : memref<1xf32> loc(#loc207)
                      %2 = arith.index_cast %arg5 : index to i32 loc(#loc199)
                      scf.if %true {
                        scf.execute_region {
                          scf.if %true {
                            scf.execute_region {
                              %3 = arith.divf %cst_3, %arg4 : f32 loc(#loc208)
                              %4 = polygeist.subindex %arg1[%c1] () : memref<?xmemref<?xmemref<?xmemref<?xf32>>>> -> memref<?xmemref<?xmemref<?xmemref<?xf32>>>> loc(#loc209)
                              %5 = polygeist.subindex %arg1[%c1] () : memref<?xmemref<?xmemref<?xmemref<?xf32>>>> -> memref<?xmemref<?xmemref<?xmemref<?xf32>>>> loc(#loc210)
                              %6 = polygeist.subindex %arg0[%c1] () : memref<?xmemref<?xmemref<?xmemref<?xf32>>>> -> memref<?xmemref<?xmemref<?xmemref<?xf32>>>> loc(#loc211)
                              %7 = arith.divf %cst_3, %arg4 : f32 loc(#loc212)
                              %8 = polygeist.subindex %arg1[%c2] () : memref<?xmemref<?xmemref<?xmemref<?xf32>>>> -> memref<?xmemref<?xmemref<?xmemref<?xf32>>>> loc(#loc213)
                              %9 = polygeist.subindex %arg1[%c2] () : memref<?xmemref<?xmemref<?xmemref<?xf32>>>> -> memref<?xmemref<?xmemref<?xmemref<?xf32>>>> loc(#loc214)
                              %10 = arith.addi %2, %c1_i32 : i32 loc(#loc215)
                              %11 = arith.index_cast %10 : i32 to index loc(#loc216)
                              %12 = arith.addi %2, %c-1_i32 : i32 loc(#loc217)
                              %13 = arith.index_cast %12 : i32 to index loc(#loc218)
                              %14 = polygeist.subindex %arg0[%c2] () : memref<?xmemref<?xmemref<?xmemref<?xf32>>>> -> memref<?xmemref<?xmemref<?xmemref<?xf32>>>> loc(#loc219)
                              %15 = arith.divf %cst_3, %arg4 : f32 loc(#loc220)
                              scf.for %arg6 = %c4 to %c44 step %c1 {
                                %16 = arith.index_cast %arg6 : index to i32 loc(#loc221)
                                scf.if %true {
                                  scf.execute_region {
                                    scf.if %true {
                                      scf.execute_region {
                                        %17 = arith.addi %16, %c1_i32 : i32 loc(#loc222)
                                        %18 = arith.index_cast %17 : i32 to index loc(#loc223)
                                        %19 = arith.addi %16, %c-1_i32 : i32 loc(#loc224)
                                        %20 = arith.index_cast %19 : i32 to index loc(#loc225)
                                        scf.for %arg7 = %c4 to %c44 step %c1 {
                                          %21 = arith.index_cast %arg7 : index to i32 loc(#loc226)
                                          scf.if %true {
                                            scf.execute_region {
                                              scf.if %true {
                                                %22 = scf.execute_region -> f32 {
                                                  %23 = polygeist.subindex %arg2[%arg7] () : memref<?xmemref<?xmemref<?xf32>>> -> memref<?xmemref<?xmemref<?xf32>>> loc(#loc227)
                                                  %24 = affine.load %23[0] : memref<?xmemref<?xmemref<?xf32>>> loc(#loc227)
                                                  %25 = polygeist.subindex %24[%arg6] () : memref<?xmemref<?xf32>> -> memref<?xmemref<?xf32>> loc(#loc227)
                                                  %26 = affine.load %25[0] : memref<?xmemref<?xf32>> loc(#loc227)
                                                  %27 = polygeist.subindex %26[%arg5] () : memref<?xf32> -> memref<?xf32> loc(#loc227)
                                                  %28 = affine.load %27[0] : memref<?xf32> loc(#loc227)
                                                  affine.store %28, %alloca_13[0] : memref<1xf32> loc(#loc207)
                                                  scf.yield %28 : f32 loc(#loc)
                                                } loc(#loc)
                                              } loc(#loc)
                                              scf.yield loc(#loc)
                                            } loc(#loc)
                                          } loc(#loc)
                                          scf.if %true {
                                            scf.execute_region {
                                              scf.if %true {
                                                %22 = scf.execute_region -> f32 {
                                                  %23 = polygeist.subindex %arg3[%arg7] () : memref<?xmemref<?xmemref<?xf32>>> -> memref<?xmemref<?xmemref<?xf32>>> loc(#loc228)
                                                  %24 = affine.load %23[0] : memref<?xmemref<?xmemref<?xf32>>> loc(#loc228)
                                                  %25 = polygeist.subindex %24[%arg6] () : memref<?xmemref<?xf32>> -> memref<?xmemref<?xf32>> loc(#loc228)
                                                  %26 = affine.load %25[0] : memref<?xmemref<?xf32>> loc(#loc228)
                                                  %27 = polygeist.subindex %26[%arg5] () : memref<?xf32> -> memref<?xf32> loc(#loc228)
                                                  %28 = affine.load %27[0] : memref<?xf32> loc(#loc228)
                                                  affine.store %28, %alloca_12[0] : memref<1xf32> loc(#loc206)
                                                  scf.yield %28 : f32 loc(#loc)
                                                } loc(#loc)
                                              } loc(#loc)
                                              scf.yield loc(#loc)
                                            } loc(#loc)
                                          } loc(#loc)
                                          scf.if %true {
                                            scf.execute_region {
                                              scf.if %true {
                                                scf.execute_region {
                                                  scf.if %true {
                                                    scf.execute_region {
                                                      affine.store %cst_5, %alloca_11[0] : memref<1xf32> loc(#loc205)
                                                      scf.yield loc(#loc)
                                                    } loc(#loc)
                                                  } loc(#loc)
                                                  scf.yield loc(#loc)
                                                } loc(#loc)
                                              } loc(#loc)
                                              scf.if %true {
                                                scf.execute_region {
                                                  scf.if %true {
                                                    scf.execute_region {
                                                      scf.for %arg8 = %c-2 to %c3 step %c1 {
                                                        %22 = arith.index_cast %arg8 : index to i32 loc(#loc229)
                                                        scf.if %true {
                                                          scf.execute_region {
                                                            %23 = arith.addi %22, %c2_i32 : i32 loc(#loc230)
                                                            %24 = arith.index_cast %23 : i32 to index loc(#loc231)
                                                            %25 = polygeist.subindex %alloca[%24] () : memref<5xf32> -> memref<?xf32> loc(#loc232)
                                                            %26 = affine.load %25[0] : memref<?xf32> loc(#loc232)
                                                            %27 = affine.load %arg1[0] : memref<?xmemref<?xmemref<?xmemref<?xf32>>>> loc(#loc233)
                                                            %28 = arith.addi %21, %22 : i32 loc(#loc234)
                                                            %29 = arith.index_cast %28 : i32 to index loc(#loc235)
                                                            %30 = polygeist.subindex %27[%29] () : memref<?xmemref<?xmemref<?xf32>>> -> memref<?xmemref<?xmemref<?xf32>>> loc(#loc233)
                                                            %31 = affine.load %30[0] : memref<?xmemref<?xmemref<?xf32>>> loc(#loc233)
                                                            %32 = polygeist.subindex %31[%arg6] () : memref<?xmemref<?xf32>> -> memref<?xmemref<?xf32>> loc(#loc233)
                                                            %33 = affine.load %32[0] : memref<?xmemref<?xf32>> loc(#loc233)
                                                            %34 = polygeist.subindex %33[%arg5] () : memref<?xf32> -> memref<?xf32> loc(#loc233)
                                                            %35 = affine.load %34[0] : memref<?xf32> loc(#loc233)
                                                            %36 = polygeist.subindex %27[%arg7] () : memref<?xmemref<?xmemref<?xf32>>> -> memref<?xmemref<?xmemref<?xf32>>> loc(#loc236)
                                                            %37 = affine.load %36[0] : memref<?xmemref<?xmemref<?xf32>>> loc(#loc236)
                                                            %38 = arith.addi %16, %22 : i32 loc(#loc237)
                                                            %39 = arith.index_cast %38 : i32 to index loc(#loc238)
                                                            %40 = polygeist.subindex %37[%39] () : memref<?xmemref<?xf32>> -> memref<?xmemref<?xf32>> loc(#loc236)
                                                            %41 = affine.load %40[0] : memref<?xmemref<?xf32>> loc(#loc236)
                                                            %42 = polygeist.subindex %41[%arg5] () : memref<?xf32> -> memref<?xf32> loc(#loc236)
                                                            %43 = affine.load %42[0] : memref<?xf32> loc(#loc236)
                                                            %44 = arith.addf %35, %43 : f32 loc(#loc239)
                                                            %45 = polygeist.subindex %37[%arg6] () : memref<?xmemref<?xf32>> -> memref<?xmemref<?xf32>> loc(#loc240)
                                                            %46 = affine.load %45[0] : memref<?xmemref<?xf32>> loc(#loc240)
                                                            %47 = arith.addi %2, %22 : i32 loc(#loc241)
                                                            %48 = arith.index_cast %47 : i32 to index loc(#loc242)
                                                            %49 = polygeist.subindex %46[%48] () : memref<?xf32> -> memref<?xf32> loc(#loc240)
                                                            %50 = affine.load %49[0] : memref<?xf32> loc(#loc240)
                                                            %51 = arith.addf %44, %50 : f32 loc(#loc243)
                                                            %52 = arith.mulf %26, %51 : f32 loc(#loc244)
                                                            %53 = affine.load %alloca_11[0] : memref<1xf32> loc(#loc245)
                                                            %54 = arith.addf %53, %52 : f32 loc(#loc245)
                                                            affine.store %54, %alloca_11[0] : memref<1xf32> loc(#loc245)
                                                            scf.yield loc(#loc)
                                                          } loc(#loc)
                                                        } loc(#loc)
                                                      } loc(#loc229)
                                                      scf.yield loc(#loc)
                                                    } loc(#loc)
                                                  } loc(#loc)
                                                  scf.yield loc(#loc)
                                                } loc(#loc)
                                              } loc(#loc)
                                              scf.if %true {
                                                scf.execute_region {
                                                  scf.if %true {
                                                    %22 = scf.execute_region -> f32 {
                                                      %23 = affine.load %arg1[0] : memref<?xmemref<?xmemref<?xmemref<?xf32>>>> loc(#loc246)
                                                      %24 = arith.addi %21, %c1_i32 : i32 loc(#loc247)
                                                      %25 = arith.index_cast %24 : i32 to index loc(#loc248)
                                                      %26 = polygeist.subindex %23[%25] () : memref<?xmemref<?xmemref<?xf32>>> -> memref<?xmemref<?xmemref<?xf32>>> loc(#loc246)
                                                      %27 = affine.load %26[0] : memref<?xmemref<?xmemref<?xf32>>> loc(#loc246)
                                                      %28 = polygeist.subindex %27[%arg6] () : memref<?xmemref<?xf32>> -> memref<?xmemref<?xf32>> loc(#loc246)
                                                      %29 = affine.load %28[0] : memref<?xmemref<?xf32>> loc(#loc246)
                                                      %30 = polygeist.subindex %29[%arg5] () : memref<?xf32> -> memref<?xf32> loc(#loc246)
                                                      %31 = affine.load %30[0] : memref<?xf32> loc(#loc246)
                                                      %32 = arith.addi %21, %c-1_i32 : i32 loc(#loc249)
                                                      %33 = arith.index_cast %32 : i32 to index loc(#loc250)
                                                      %34 = polygeist.subindex %23[%33] () : memref<?xmemref<?xmemref<?xf32>>> -> memref<?xmemref<?xmemref<?xf32>>> loc(#loc251)
                                                      %35 = affine.load %34[0] : memref<?xmemref<?xmemref<?xf32>>> loc(#loc251)
                                                      %36 = polygeist.subindex %35[%arg6] () : memref<?xmemref<?xf32>> -> memref<?xmemref<?xf32>> loc(#loc251)
                                                      %37 = affine.load %36[0] : memref<?xmemref<?xf32>> loc(#loc251)
                                                      %38 = polygeist.subindex %37[%arg5] () : memref<?xf32> -> memref<?xf32> loc(#loc251)
                                                      %39 = affine.load %38[0] : memref<?xf32> loc(#loc251)
                                                      %40 = arith.subf %31, %39 : f32 loc(#loc252)
                                                      affine.store %40, %alloca_10[0] : memref<1xf32> loc(#loc204)
                                                      scf.yield %40 : f32 loc(#loc)
                                                    } loc(#loc)
                                                  } loc(#loc)
                                                  scf.yield loc(#loc)
                                                } loc(#loc)
                                              } loc(#loc)
                                              scf.if %true {
                                                scf.execute_region {
                                                  %22 = affine.load %arg0[0] : memref<?xmemref<?xmemref<?xmemref<?xf32>>>> loc(#loc253)
                                                  %23 = polygeist.subindex %22[%arg7] () : memref<?xmemref<?xmemref<?xf32>>> -> memref<?xmemref<?xmemref<?xf32>>> loc(#loc253)
                                                  %24 = affine.load %23[0] : memref<?xmemref<?xmemref<?xf32>>> loc(#loc253)
                                                  %25 = polygeist.subindex %24[%arg6] () : memref<?xmemref<?xf32>> -> memref<?xmemref<?xf32>> loc(#loc253)
                                                  %26 = affine.load %25[0] : memref<?xmemref<?xf32>> loc(#loc253)
                                                  %27 = polygeist.subindex %26[%arg5] () : memref<?xf32> -> memref<?xf32> loc(#loc253)
                                                  %28 = affine.load %alloca_13[0] : memref<1xf32> loc(#loc254)
                                                  %29 = affine.load %alloca_11[0] : memref<1xf32> loc(#loc255)
                                                  %30 = arith.mulf %28, %29 : f32 loc(#loc256)
                                                  %31 = arith.mulf %30, %1 : f32 loc(#loc257)
                                                  %32 = affine.load %alloca_12[0] : memref<1xf32> loc(#loc258)
                                                  %33 = arith.addf %32, %28 : f32 loc(#loc259)
                                                  %34 = affine.load %alloca_10[0] : memref<1xf32> loc(#loc260)
                                                  %35 = arith.mulf %33, %34 : f32 loc(#loc261)
                                                  %36 = arith.mulf %35, %3 : f32 loc(#loc262)
                                                  %37 = arith.addf %31, %36 : f32 loc(#loc263)
                                                  affine.store %37, %27[0] : memref<?xf32> loc(#loc264)
                                                  scf.yield loc(#loc)
                                                } loc(#loc)
                                              } loc(#loc)
                                              scf.yield loc(#loc)
                                            } loc(#loc)
                                          } loc(#loc)
                                          scf.if %true {
                                            scf.execute_region {
                                              scf.if %true {
                                                scf.execute_region {
                                                  scf.if %true {
                                                    scf.execute_region {
                                                      affine.store %cst_5, %alloca_9[0] : memref<1xf32> loc(#loc203)
                                                      scf.yield loc(#loc)
                                                    } loc(#loc)
                                                  } loc(#loc)
                                                  scf.yield loc(#loc)
                                                } loc(#loc)
                                              } loc(#loc)
                                              scf.if %true {
                                                scf.execute_region {
                                                  scf.if %true {
                                                    scf.execute_region {
                                                      scf.for %arg8 = %c-2 to %c3 step %c1 {
                                                        %22 = arith.index_cast %arg8 : index to i32 loc(#loc265)
                                                        scf.if %true {
                                                          scf.execute_region {
                                                            %23 = arith.addi %22, %c2_i32 : i32 loc(#loc266)
                                                            %24 = arith.index_cast %23 : i32 to index loc(#loc267)
                                                            %25 = polygeist.subindex %alloca[%24] () : memref<5xf32> -> memref<?xf32> loc(#loc268)
                                                            %26 = affine.load %25[0] : memref<?xf32> loc(#loc268)
                                                            %27 = affine.load %4[0] : memref<?xmemref<?xmemref<?xmemref<?xf32>>>> loc(#loc209)
                                                            %28 = arith.addi %21, %22 : i32 loc(#loc269)
                                                            %29 = arith.index_cast %28 : i32 to index loc(#loc270)
                                                            %30 = polygeist.subindex %27[%29] () : memref<?xmemref<?xmemref<?xf32>>> -> memref<?xmemref<?xmemref<?xf32>>> loc(#loc209)
                                                            %31 = affine.load %30[0] : memref<?xmemref<?xmemref<?xf32>>> loc(#loc209)
                                                            %32 = polygeist.subindex %31[%arg6] () : memref<?xmemref<?xf32>> -> memref<?xmemref<?xf32>> loc(#loc209)
                                                            %33 = affine.load %32[0] : memref<?xmemref<?xf32>> loc(#loc209)
                                                            %34 = polygeist.subindex %33[%arg5] () : memref<?xf32> -> memref<?xf32> loc(#loc209)
                                                            %35 = affine.load %34[0] : memref<?xf32> loc(#loc209)
                                                            %36 = polygeist.subindex %27[%arg7] () : memref<?xmemref<?xmemref<?xf32>>> -> memref<?xmemref<?xmemref<?xf32>>> loc(#loc271)
                                                            %37 = affine.load %36[0] : memref<?xmemref<?xmemref<?xf32>>> loc(#loc271)
                                                            %38 = arith.addi %16, %22 : i32 loc(#loc272)
                                                            %39 = arith.index_cast %38 : i32 to index loc(#loc273)
                                                            %40 = polygeist.subindex %37[%39] () : memref<?xmemref<?xf32>> -> memref<?xmemref<?xf32>> loc(#loc271)
                                                            %41 = affine.load %40[0] : memref<?xmemref<?xf32>> loc(#loc271)
                                                            %42 = polygeist.subindex %41[%arg5] () : memref<?xf32> -> memref<?xf32> loc(#loc271)
                                                            %43 = affine.load %42[0] : memref<?xf32> loc(#loc271)
                                                            %44 = arith.addf %35, %43 : f32 loc(#loc274)
                                                            %45 = polygeist.subindex %37[%arg6] () : memref<?xmemref<?xf32>> -> memref<?xmemref<?xf32>> loc(#loc275)
                                                            %46 = affine.load %45[0] : memref<?xmemref<?xf32>> loc(#loc275)
                                                            %47 = arith.addi %2, %22 : i32 loc(#loc276)
                                                            %48 = arith.index_cast %47 : i32 to index loc(#loc277)
                                                            %49 = polygeist.subindex %46[%48] () : memref<?xf32> -> memref<?xf32> loc(#loc275)
                                                            %50 = affine.load %49[0] : memref<?xf32> loc(#loc275)
                                                            %51 = arith.addf %44, %50 : f32 loc(#loc278)
                                                            %52 = arith.mulf %26, %51 : f32 loc(#loc279)
                                                            %53 = affine.load %alloca_9[0] : memref<1xf32> loc(#loc280)
                                                            %54 = arith.addf %53, %52 : f32 loc(#loc280)
                                                            affine.store %54, %alloca_9[0] : memref<1xf32> loc(#loc280)
                                                            scf.yield loc(#loc)
                                                          } loc(#loc)
                                                        } loc(#loc)
                                                      } loc(#loc265)
                                                      scf.yield loc(#loc)
                                                    } loc(#loc)
                                                  } loc(#loc)
                                                  scf.yield loc(#loc)
                                                } loc(#loc)
                                              } loc(#loc)
                                              scf.if %true {
                                                scf.execute_region {
                                                  scf.if %true {
                                                    %22 = scf.execute_region -> f32 {
                                                      %23 = affine.load %5[0] : memref<?xmemref<?xmemref<?xmemref<?xf32>>>> loc(#loc210)
                                                      %24 = polygeist.subindex %23[%arg7] () : memref<?xmemref<?xmemref<?xf32>>> -> memref<?xmemref<?xmemref<?xf32>>> loc(#loc210)
                                                      %25 = affine.load %24[0] : memref<?xmemref<?xmemref<?xf32>>> loc(#loc210)
                                                      %26 = polygeist.subindex %25[%18] () : memref<?xmemref<?xf32>> -> memref<?xmemref<?xf32>> loc(#loc210)
                                                      %27 = affine.load %26[0] : memref<?xmemref<?xf32>> loc(#loc210)
                                                      %28 = polygeist.subindex %27[%arg5] () : memref<?xf32> -> memref<?xf32> loc(#loc210)
                                                      %29 = affine.load %28[0] : memref<?xf32> loc(#loc210)
                                                      %30 = polygeist.subindex %25[%20] () : memref<?xmemref<?xf32>> -> memref<?xmemref<?xf32>> loc(#loc281)
                                                      %31 = affine.load %30[0] : memref<?xmemref<?xf32>> loc(#loc281)
                                                      %32 = polygeist.subindex %31[%arg5] () : memref<?xf32> -> memref<?xf32> loc(#loc281)
                                                      %33 = affine.load %32[0] : memref<?xf32> loc(#loc281)
                                                      %34 = arith.subf %29, %33 : f32 loc(#loc282)
                                                      affine.store %34, %alloca_8[0] : memref<1xf32> loc(#loc202)
                                                      scf.yield %34 : f32 loc(#loc)
                                                    } loc(#loc)
                                                  } loc(#loc)
                                                  scf.yield loc(#loc)
                                                } loc(#loc)
                                              } loc(#loc)
                                              scf.if %true {
                                                scf.execute_region {
                                                  %22 = affine.load %6[0] : memref<?xmemref<?xmemref<?xmemref<?xf32>>>> loc(#loc211)
                                                  %23 = polygeist.subindex %22[%arg7] () : memref<?xmemref<?xmemref<?xf32>>> -> memref<?xmemref<?xmemref<?xf32>>> loc(#loc211)
                                                  %24 = affine.load %23[0] : memref<?xmemref<?xmemref<?xf32>>> loc(#loc211)
                                                  %25 = polygeist.subindex %24[%arg6] () : memref<?xmemref<?xf32>> -> memref<?xmemref<?xf32>> loc(#loc211)
                                                  %26 = affine.load %25[0] : memref<?xmemref<?xf32>> loc(#loc211)
                                                  %27 = polygeist.subindex %26[%arg5] () : memref<?xf32> -> memref<?xf32> loc(#loc211)
                                                  %28 = affine.load %alloca_13[0] : memref<1xf32> loc(#loc283)
                                                  %29 = affine.load %alloca_9[0] : memref<1xf32> loc(#loc284)
                                                  %30 = arith.mulf %28, %29 : f32 loc(#loc285)
                                                  %31 = arith.mulf %30, %1 : f32 loc(#loc286)
                                                  %32 = affine.load %alloca_12[0] : memref<1xf32> loc(#loc287)
                                                  %33 = arith.addf %32, %28 : f32 loc(#loc288)
                                                  %34 = affine.load %alloca_8[0] : memref<1xf32> loc(#loc289)
                                                  %35 = arith.mulf %33, %34 : f32 loc(#loc290)
                                                  %36 = arith.mulf %35, %7 : f32 loc(#loc291)
                                                  %37 = arith.addf %31, %36 : f32 loc(#loc292)
                                                  affine.store %37, %27[0] : memref<?xf32> loc(#loc293)
                                                  scf.yield loc(#loc)
                                                } loc(#loc)
                                              } loc(#loc)
                                              scf.yield loc(#loc)
                                            } loc(#loc)
                                          } loc(#loc)
                                          scf.if %true {
                                            scf.execute_region {
                                              scf.if %true {
                                                scf.execute_region {
                                                  scf.if %true {
                                                    scf.execute_region {
                                                      affine.store %cst_5, %alloca_7[0] : memref<1xf32> loc(#loc201)
                                                      scf.yield loc(#loc)
                                                    } loc(#loc)
                                                  } loc(#loc)
                                                  scf.yield loc(#loc)
                                                } loc(#loc)
                                              } loc(#loc)
                                              scf.if %true {
                                                scf.execute_region {
                                                  scf.if %true {
                                                    scf.execute_region {
                                                      scf.for %arg8 = %c-2 to %c3 step %c1 {
                                                        %22 = arith.index_cast %arg8 : index to i32 loc(#loc294)
                                                        scf.if %true {
                                                          scf.execute_region {
                                                            %23 = arith.addi %22, %c2_i32 : i32 loc(#loc295)
                                                            %24 = arith.index_cast %23 : i32 to index loc(#loc296)
                                                            %25 = polygeist.subindex %alloca[%24] () : memref<5xf32> -> memref<?xf32> loc(#loc297)
                                                            %26 = affine.load %25[0] : memref<?xf32> loc(#loc297)
                                                            %27 = affine.load %8[0] : memref<?xmemref<?xmemref<?xmemref<?xf32>>>> loc(#loc213)
                                                            %28 = arith.addi %21, %22 : i32 loc(#loc298)
                                                            %29 = arith.index_cast %28 : i32 to index loc(#loc299)
                                                            %30 = polygeist.subindex %27[%29] () : memref<?xmemref<?xmemref<?xf32>>> -> memref<?xmemref<?xmemref<?xf32>>> loc(#loc213)
                                                            %31 = affine.load %30[0] : memref<?xmemref<?xmemref<?xf32>>> loc(#loc213)
                                                            %32 = polygeist.subindex %31[%arg6] () : memref<?xmemref<?xf32>> -> memref<?xmemref<?xf32>> loc(#loc213)
                                                            %33 = affine.load %32[0] : memref<?xmemref<?xf32>> loc(#loc213)
                                                            %34 = polygeist.subindex %33[%arg5] () : memref<?xf32> -> memref<?xf32> loc(#loc213)
                                                            %35 = affine.load %34[0] : memref<?xf32> loc(#loc213)
                                                            %36 = polygeist.subindex %27[%arg7] () : memref<?xmemref<?xmemref<?xf32>>> -> memref<?xmemref<?xmemref<?xf32>>> loc(#loc300)
                                                            %37 = affine.load %36[0] : memref<?xmemref<?xmemref<?xf32>>> loc(#loc300)
                                                            %38 = arith.addi %16, %22 : i32 loc(#loc301)
                                                            %39 = arith.index_cast %38 : i32 to index loc(#loc302)
                                                            %40 = polygeist.subindex %37[%39] () : memref<?xmemref<?xf32>> -> memref<?xmemref<?xf32>> loc(#loc300)
                                                            %41 = affine.load %40[0] : memref<?xmemref<?xf32>> loc(#loc300)
                                                            %42 = polygeist.subindex %41[%arg5] () : memref<?xf32> -> memref<?xf32> loc(#loc300)
                                                            %43 = affine.load %42[0] : memref<?xf32> loc(#loc300)
                                                            %44 = arith.addf %35, %43 : f32 loc(#loc303)
                                                            %45 = polygeist.subindex %37[%arg6] () : memref<?xmemref<?xf32>> -> memref<?xmemref<?xf32>> loc(#loc304)
                                                            %46 = affine.load %45[0] : memref<?xmemref<?xf32>> loc(#loc304)
                                                            %47 = arith.addi %2, %22 : i32 loc(#loc305)
                                                            %48 = arith.index_cast %47 : i32 to index loc(#loc306)
                                                            %49 = polygeist.subindex %46[%48] () : memref<?xf32> -> memref<?xf32> loc(#loc304)
                                                            %50 = affine.load %49[0] : memref<?xf32> loc(#loc304)
                                                            %51 = arith.addf %44, %50 : f32 loc(#loc307)
                                                            %52 = arith.mulf %26, %51 : f32 loc(#loc308)
                                                            %53 = affine.load %alloca_7[0] : memref<1xf32> loc(#loc309)
                                                            %54 = arith.addf %53, %52 : f32 loc(#loc309)
                                                            affine.store %54, %alloca_7[0] : memref<1xf32> loc(#loc309)
                                                            scf.yield loc(#loc)
                                                          } loc(#loc)
                                                        } loc(#loc)
                                                      } loc(#loc294)
                                                      scf.yield loc(#loc)
                                                    } loc(#loc)
                                                  } loc(#loc)
                                                  scf.yield loc(#loc)
                                                } loc(#loc)
                                              } loc(#loc)
                                              scf.if %true {
                                                scf.execute_region {
                                                  scf.if %true {
                                                    %22 = scf.execute_region -> f32 {
                                                      %23 = affine.load %9[0] : memref<?xmemref<?xmemref<?xmemref<?xf32>>>> loc(#loc214)
                                                      %24 = polygeist.subindex %23[%arg7] () : memref<?xmemref<?xmemref<?xf32>>> -> memref<?xmemref<?xmemref<?xf32>>> loc(#loc214)
                                                      %25 = affine.load %24[0] : memref<?xmemref<?xmemref<?xf32>>> loc(#loc214)
                                                      %26 = polygeist.subindex %25[%arg6] () : memref<?xmemref<?xf32>> -> memref<?xmemref<?xf32>> loc(#loc214)
                                                      %27 = affine.load %26[0] : memref<?xmemref<?xf32>> loc(#loc214)
                                                      %28 = polygeist.subindex %27[%11] () : memref<?xf32> -> memref<?xf32> loc(#loc214)
                                                      %29 = affine.load %28[0] : memref<?xf32> loc(#loc214)
                                                      %30 = polygeist.subindex %27[%13] () : memref<?xf32> -> memref<?xf32> loc(#loc310)
                                                      %31 = affine.load %30[0] : memref<?xf32> loc(#loc310)
                                                      %32 = arith.subf %29, %31 : f32 loc(#loc311)
                                                      affine.store %32, %alloca_6[0] : memref<1xf32> loc(#loc200)
                                                      scf.yield %32 : f32 loc(#loc)
                                                    } loc(#loc)
                                                  } loc(#loc)
                                                  scf.yield loc(#loc)
                                                } loc(#loc)
                                              } loc(#loc)
                                              scf.if %true {
                                                scf.execute_region {
                                                  %22 = affine.load %14[0] : memref<?xmemref<?xmemref<?xmemref<?xf32>>>> loc(#loc219)
                                                  %23 = polygeist.subindex %22[%arg7] () : memref<?xmemref<?xmemref<?xf32>>> -> memref<?xmemref<?xmemref<?xf32>>> loc(#loc219)
                                                  %24 = affine.load %23[0] : memref<?xmemref<?xmemref<?xf32>>> loc(#loc219)
                                                  %25 = polygeist.subindex %24[%arg6] () : memref<?xmemref<?xf32>> -> memref<?xmemref<?xf32>> loc(#loc219)
                                                  %26 = affine.load %25[0] : memref<?xmemref<?xf32>> loc(#loc219)
                                                  %27 = polygeist.subindex %26[%arg5] () : memref<?xf32> -> memref<?xf32> loc(#loc219)
                                                  %28 = affine.load %alloca_13[0] : memref<1xf32> loc(#loc312)
                                                  %29 = affine.load %alloca_7[0] : memref<1xf32> loc(#loc313)
                                                  %30 = arith.mulf %28, %29 : f32 loc(#loc314)
                                                  %31 = arith.mulf %30, %1 : f32 loc(#loc315)
                                                  %32 = affine.load %alloca_12[0] : memref<1xf32> loc(#loc316)
                                                  %33 = arith.addf %32, %28 : f32 loc(#loc317)
                                                  %34 = affine.load %alloca_6[0] : memref<1xf32> loc(#loc318)
                                                  %35 = arith.mulf %33, %34 : f32 loc(#loc319)
                                                  %36 = arith.mulf %35, %15 : f32 loc(#loc320)
                                                  %37 = arith.addf %31, %36 : f32 loc(#loc321)
                                                  affine.store %37, %27[0] : memref<?xf32> loc(#loc322)
                                                  scf.yield loc(#loc)
                                                } loc(#loc)
                                              } loc(#loc)
                                              scf.yield loc(#loc)
                                            } loc(#loc)
                                          } loc(#loc)
                                        } loc(#loc226)
                                        scf.yield loc(#loc)
                                      } loc(#loc)
                                    } loc(#loc)
                                    scf.yield loc(#loc)
                                  } loc(#loc)
                                } loc(#loc)
                              } loc(#loc221)
                              scf.yield loc(#loc)
                            } loc(#loc)
                          } loc(#loc)
                          scf.yield loc(#loc)
                        } loc(#loc)
                      } loc(#loc)
                      scf.yield loc(#loc199)
                    } loc(#loc199)
                    omp.yield loc(#loc199)
                  } loc(#loc199)
                } loc(#loc199)
                scf.yield loc(#loc199)
              } loc(#loc199)
              omp.terminator loc(#loc199)
            } loc(#loc199)
            scf.yield loc(#loc)
          } loc(#loc)
        } loc(#loc)
        scf.yield loc(#loc)
      } loc(#loc)
    } loc(#loc)
    return loc(#loc323)
  } loc(#loc193)
  func.func private @carts_kernel_timer_accum(memref<?xi8>) attributes {llvm.linkage = #llvm.linkage<external>} loc(#loc324)
  func.func private @carts_kernel_timer_print(memref<?xi8>) attributes {llvm.linkage = #llvm.linkage<external>} loc(#loc325)
  func.func private @carts_bench_checksum_d(f64) attributes {llvm.linkage = #llvm.linkage<external>} loc(#loc326)
  func.func private @carts_e2e_timer_stop() attributes {llvm.linkage = #llvm.linkage<external>} loc(#loc327)
} loc(#loc)
#loc = loc(unknown)
#loc1 = loc("/home/raherrer/projects/carts/.install/carts/include/arts/utils/benchmarks/CartsBenchmarks.h":100:65)
#loc2 = loc("/home/raherrer/projects/carts/.install/carts/include/arts/utils/benchmarks/CartsBenchmarks.h":98:27)
#loc3 = loc("/home/raherrer/projects/carts/.install/carts/include/arts/utils/benchmarks/CartsBenchmarks.h":95:65)
#loc4 = loc("/home/raherrer/projects/carts/external/carts-benchmarks/sw4lite/rhs4sg-base/rhs4sg_base.c":111:25)
#loc5 = loc("/home/raherrer/projects/carts/external/carts-benchmarks/sw4lite/rhs4sg-base/rhs4sg_base.c":108:5)
#loc6 = loc("/home/raherrer/projects/carts/external/carts-benchmarks/sw4lite/rhs4sg-base/rhs4sg_base.c":108:1)
#loc7 = loc("/home/raherrer/projects/carts/external/carts-benchmarks/sw4lite/rhs4sg-base/rhs4sg_base.c":190:10)
#loc8 = loc("/home/raherrer/projects/carts/external/carts-benchmarks/sw4lite/rhs4sg-base/rhs4sg_base.c":158:3)
#loc9 = loc("/home/raherrer/projects/carts/external/carts-benchmarks/sw4lite/rhs4sg-base/rhs4sg_base.c":120:3)
#loc10 = loc("/home/raherrer/projects/carts/external/carts-benchmarks/sw4lite/rhs4sg-base/rhs4sg_base.c":119:3)
#loc11 = loc("/home/raherrer/projects/carts/external/carts-benchmarks/sw4lite/rhs4sg-base/rhs4sg_base.c":117:3)
#loc12 = loc("/home/raherrer/projects/carts/external/carts-benchmarks/sw4lite/rhs4sg-base/rhs4sg_base.c":116:3)
#loc13 = loc("/home/raherrer/projects/carts/.install/carts/include/arts/utils/benchmarks/CartsBenchmarks.h":54:34)
#loc14 = loc("/home/raherrer/projects/carts/.install/carts/include/arts/utils/benchmarks/CartsBenchmarks.h":79:37)
#loc15 = loc("/home/raherrer/projects/carts/.install/carts/include/arts/utils/benchmarks/CartsBenchmarks.h":95:41)
#loc16 = loc("/home/raherrer/projects/carts/external/carts-benchmarks/sw4lite/rhs4sg-base/rhs4sg_base.c":116:17)
#loc17 = loc("/home/raherrer/projects/carts/external/carts-benchmarks/sw4lite/rhs4sg-base/rhs4sg_base.c":116:43)
#loc18 = loc("/home/raherrer/projects/carts/external/carts-benchmarks/sw4lite/rhs4sg-base/rhs4sg_base.c":116:41)
#loc19 = loc("/home/raherrer/projects/carts/external/carts-benchmarks/sw4lite/rhs4sg-base/rhs4sg_base.c":117:19)
#loc20 = loc("/home/raherrer/projects/carts/external/carts-benchmarks/sw4lite/rhs4sg-base/rhs4sg_base.c":117:45)
#loc21 = loc("/home/raherrer/projects/carts/external/carts-benchmarks/sw4lite/rhs4sg-base/rhs4sg_base.c":117:43)
#loc22 = loc("/home/raherrer/projects/carts/external/carts-benchmarks/sw4lite/rhs4sg-base/rhs4sg_base.c":119:17)
#loc23 = loc("/home/raherrer/projects/carts/external/carts-benchmarks/sw4lite/rhs4sg-base/rhs4sg_base.c":119:40)
#loc24 = loc("/home/raherrer/projects/carts/external/carts-benchmarks/sw4lite/rhs4sg-base/rhs4sg_base.c":119:38)
#loc25 = loc("/home/raherrer/projects/carts/external/carts-benchmarks/sw4lite/rhs4sg-base/rhs4sg_base.c":120:21)
#loc26 = loc("/home/raherrer/projects/carts/external/carts-benchmarks/sw4lite/rhs4sg-base/rhs4sg_base.c":120:44)
#loc27 = loc("/home/raherrer/projects/carts/external/carts-benchmarks/sw4lite/rhs4sg-base/rhs4sg_base.c":120:42)
#loc28 = loc("/home/raherrer/projects/carts/external/carts-benchmarks/sw4lite/rhs4sg-base/rhs4sg_base.c":123:5)
#loc29 = loc("/home/raherrer/projects/carts/external/carts-benchmarks/sw4lite/rhs4sg-base/rhs4sg_base.c":123:12)
#loc30 = loc("/home/raherrer/projects/carts/external/carts-benchmarks/sw4lite/rhs4sg-base/rhs4sg_base.c":123:35)
#loc31 = loc("/home/raherrer/projects/carts/external/carts-benchmarks/sw4lite/rhs4sg-base/rhs4sg_base.c":123:33)
#loc32 = loc("/home/raherrer/projects/carts/external/carts-benchmarks/sw4lite/rhs4sg-base/rhs4sg_base.c":124:5)
#loc33 = loc("/home/raherrer/projects/carts/external/carts-benchmarks/sw4lite/rhs4sg-base/rhs4sg_base.c":124:14)
#loc34 = loc("/home/raherrer/projects/carts/external/carts-benchmarks/sw4lite/rhs4sg-base/rhs4sg_base.c":124:37)
#loc35 = loc("/home/raherrer/projects/carts/external/carts-benchmarks/sw4lite/rhs4sg-base/rhs4sg_base.c":124:35)
#loc36 = loc("/home/raherrer/projects/carts/external/carts-benchmarks/sw4lite/rhs4sg-base/rhs4sg_base.c":126:17)
#loc37 = loc("/home/raherrer/projects/carts/external/carts-benchmarks/sw4lite/rhs4sg-base/rhs4sg_base.c":126:39)
#loc38 = loc("/home/raherrer/projects/carts/external/carts-benchmarks/sw4lite/rhs4sg-base/rhs4sg_base.c":126:37)
#loc39 = loc("/home/raherrer/projects/carts/external/carts-benchmarks/sw4lite/rhs4sg-base/rhs4sg_base.c":127:19)
#loc40 = loc("/home/raherrer/projects/carts/external/carts-benchmarks/sw4lite/rhs4sg-base/rhs4sg_base.c":127:41)
#loc41 = loc("/home/raherrer/projects/carts/external/carts-benchmarks/sw4lite/rhs4sg-base/rhs4sg_base.c":127:39)
#loc42 = loc("/home/raherrer/projects/carts/external/carts-benchmarks/sw4lite/rhs4sg-base/rhs4sg_base.c":129:22)
#loc43 = loc("/home/raherrer/projects/carts/external/carts-benchmarks/sw4lite/rhs4sg-base/rhs4sg_base.c":129:43)
#loc44 = loc("/home/raherrer/projects/carts/external/carts-benchmarks/sw4lite/rhs4sg-base/rhs4sg_base.c":129:41)
#loc45 = loc("/home/raherrer/projects/carts/external/carts-benchmarks/sw4lite/rhs4sg-base/rhs4sg_base.c":130:24)
#loc46 = loc("/home/raherrer/projects/carts/external/carts-benchmarks/sw4lite/rhs4sg-base/rhs4sg_base.c":130:45)
#loc47 = loc("/home/raherrer/projects/carts/external/carts-benchmarks/sw4lite/rhs4sg-base/rhs4sg_base.c":130:43)
#loc49 = loc("/home/raherrer/projects/carts/external/carts-benchmarks/sw4lite/rhs4sg-base/rhs4sg_base.c":123:10)
#loc50 = loc("/home/raherrer/projects/carts/external/carts-benchmarks/sw4lite/rhs4sg-base/rhs4sg_base.c":124:12)
#loc51 = loc("/home/raherrer/projects/carts/external/carts-benchmarks/sw4lite/rhs4sg-base/rhs4sg_base.c":126:7)
#loc52 = loc("/home/raherrer/projects/carts/external/carts-benchmarks/sw4lite/rhs4sg-base/rhs4sg_base.c":127:7)
#loc53 = loc("/home/raherrer/projects/carts/external/carts-benchmarks/sw4lite/rhs4sg-base/rhs4sg_base.c":129:9)
#loc54 = loc("/home/raherrer/projects/carts/external/carts-benchmarks/sw4lite/rhs4sg-base/rhs4sg_base.c":130:9)
#loc56 = loc("/home/raherrer/projects/carts/external/carts-benchmarks/sw4lite/rhs4sg-base/rhs4sg_base.c":126:15)
#loc57 = loc("/home/raherrer/projects/carts/external/carts-benchmarks/sw4lite/rhs4sg-base/rhs4sg_base.c":127:17)
#loc59 = loc("/home/raherrer/projects/carts/external/carts-benchmarks/sw4lite/rhs4sg-base/rhs4sg_base.c":129:20)
#loc60 = loc("/home/raherrer/projects/carts/external/carts-benchmarks/sw4lite/rhs4sg-base/rhs4sg_base.c":130:22)
#loc61 = loc("/home/raherrer/projects/carts/external/carts-benchmarks/sw4lite/rhs4sg-base/rhs4sg_base.c":136:5)
#loc62 = loc("/home/raherrer/projects/carts/external/carts-benchmarks/sw4lite/rhs4sg-base/rhs4sg_base.c":136:13)
#loc63 = loc("/home/raherrer/projects/carts/external/carts-benchmarks/sw4lite/rhs4sg-base/rhs4sg_base.c":136:35)
#loc64 = loc("/home/raherrer/projects/carts/external/carts-benchmarks/sw4lite/rhs4sg-base/rhs4sg_base.c":136:33)
#loc65 = loc("/home/raherrer/projects/carts/external/carts-benchmarks/sw4lite/rhs4sg-base/rhs4sg_base.c":137:5)
#loc66 = loc("/home/raherrer/projects/carts/external/carts-benchmarks/sw4lite/rhs4sg-base/rhs4sg_base.c":137:17)
#loc67 = loc("/home/raherrer/projects/carts/external/carts-benchmarks/sw4lite/rhs4sg-base/rhs4sg_base.c":137:39)
#loc68 = loc("/home/raherrer/projects/carts/external/carts-benchmarks/sw4lite/rhs4sg-base/rhs4sg_base.c":137:37)
#loc69 = loc("/home/raherrer/projects/carts/external/carts-benchmarks/sw4lite/rhs4sg-base/rhs4sg_base.c":139:18)
#loc70 = loc("/home/raherrer/projects/carts/external/carts-benchmarks/sw4lite/rhs4sg-base/rhs4sg_base.c":139:39)
#loc71 = loc("/home/raherrer/projects/carts/external/carts-benchmarks/sw4lite/rhs4sg-base/rhs4sg_base.c":139:37)
#loc72 = loc("/home/raherrer/projects/carts/external/carts-benchmarks/sw4lite/rhs4sg-base/rhs4sg_base.c":140:22)
#loc73 = loc("/home/raherrer/projects/carts/external/carts-benchmarks/sw4lite/rhs4sg-base/rhs4sg_base.c":140:43)
#loc74 = loc("/home/raherrer/projects/carts/external/carts-benchmarks/sw4lite/rhs4sg-base/rhs4sg_base.c":140:41)
#loc76 = loc("/home/raherrer/projects/carts/external/carts-benchmarks/sw4lite/rhs4sg-base/rhs4sg_base.c":136:11)
#loc77 = loc("/home/raherrer/projects/carts/external/carts-benchmarks/sw4lite/rhs4sg-base/rhs4sg_base.c":137:15)
#loc78 = loc("/home/raherrer/projects/carts/external/carts-benchmarks/sw4lite/rhs4sg-base/rhs4sg_base.c":139:7)
#loc79 = loc("/home/raherrer/projects/carts/external/carts-benchmarks/sw4lite/rhs4sg-base/rhs4sg_base.c":140:7)
#loc81 = loc("/home/raherrer/projects/carts/external/carts-benchmarks/sw4lite/rhs4sg-base/rhs4sg_base.c":139:16)
#loc82 = loc("/home/raherrer/projects/carts/external/carts-benchmarks/sw4lite/rhs4sg-base/rhs4sg_base.c":140:20)
#loc83 = loc("/home/raherrer/projects/carts/external/carts-benchmarks/sw4lite/rhs4sg-base/rhs4sg_base.c":144:14)
#loc84 = loc("/home/raherrer/projects/carts/external/carts-benchmarks/sw4lite/rhs4sg-base/rhs4sg_base.c":144:17)
#loc85 = loc("/home/raherrer/projects/carts/external/carts-benchmarks/sw4lite/rhs4sg-base/rhs4sg_base.c":144:21)
#loc86 = loc("/home/raherrer/projects/carts/external/carts-benchmarks/sw4lite/rhs4sg-base/rhs4sg_base.c":144:29)
#loc87 = loc("/home/raherrer/projects/carts/external/carts-benchmarks/sw4lite/rhs4sg-base/rhs4sg_base.c":144:3)
#loc88 = loc("/home/raherrer/projects/carts/.install/carts/include/arts/utils/benchmarks/CartsBenchmarks.h":96:36)
#loc89 = loc("/home/raherrer/projects/carts/.install/carts/include/arts/utils/benchmarks/CartsBenchmarks.h":139:40)
#loc90 = loc("/home/raherrer/projects/carts/.install/carts/include/arts/utils/benchmarks/CartsBenchmarks.h":141:40)
#loc92 = loc("/home/raherrer/projects/carts/external/carts-benchmarks/sw4lite/rhs4sg-base/rhs4sg_base.c":150:25)
#loc93 = loc("/home/raherrer/projects/carts/external/carts-benchmarks/sw4lite/rhs4sg-base/rhs4sg_base.c":150:30)
#loc94 = loc("/home/raherrer/projects/carts/external/carts-benchmarks/sw4lite/rhs4sg-base/rhs4sg_base.c":150:33)
#loc95 = loc("/home/raherrer/projects/carts/external/carts-benchmarks/sw4lite/rhs4sg-base/rhs4sg_base.c":150:37)
#loc96 = loc("/home/raherrer/projects/carts/external/carts-benchmarks/sw4lite/rhs4sg-base/rhs4sg_base.c":150:5)
#loc97 = loc("/home/raherrer/projects/carts/.install/carts/include/arts/utils/benchmarks/CartsBenchmarks.h":142:40)
#loc98 = loc("/home/raherrer/projects/carts/.install/carts/include/arts/utils/benchmarks/CartsBenchmarks.h":98:3)
#loc99 = loc("/home/raherrer/projects/carts/external/carts-benchmarks/sw4lite/rhs4sg-base/rhs4sg_base.c":160:10)
#loc100 = loc("/home/raherrer/projects/carts/external/carts-benchmarks/sw4lite/rhs4sg-base/rhs4sg_base.c":160:3)
#loc101 = loc("/home/raherrer/projects/carts/external/carts-benchmarks/sw4lite/rhs4sg-base/rhs4sg_base.c":161:10)
#loc102 = loc("/home/raherrer/projects/carts/external/carts-benchmarks/sw4lite/rhs4sg-base/rhs4sg_base.c":161:3)
#loc103 = loc("/home/raherrer/projects/carts/external/carts-benchmarks/sw4lite/rhs4sg-base/rhs4sg_base.c":164:32)
#loc105 = loc("/home/raherrer/projects/carts/external/carts-benchmarks/sw4lite/rhs4sg-base/rhs4sg_base.c":163:5)
#loc106 = loc("/home/raherrer/projects/carts/external/carts-benchmarks/sw4lite/rhs4sg-base/rhs4sg_base.c":164:24)
#loc107 = loc("/home/raherrer/projects/carts/external/carts-benchmarks/sw4lite/rhs4sg-base/rhs4sg_base.c":164:19)
#loc108 = loc("/home/raherrer/projects/carts/external/carts-benchmarks/sw4lite/rhs4sg-base/rhs4sg_base.c":164:16)
#loc109 = loc("/home/raherrer/projects/carts/external/carts-benchmarks/sw4lite/rhs4sg-base/rhs4sg_base.c":167:24)
#loc110 = loc("/home/raherrer/projects/carts/.install/carts/include/arts/utils/benchmarks/CartsBenchmarks.h":251:3)
#loc111 = loc("/home/raherrer/projects/carts/.install/carts/include/arts/utils/benchmarks/CartsBenchmarks.h":99:41)
#loc112 = loc("/home/raherrer/projects/carts/.install/carts/include/arts/utils/benchmarks/CartsBenchmarks.h":100:41)
#loc113 = loc("/home/raherrer/projects/carts/external/carts-benchmarks/sw4lite/rhs4sg-base/rhs4sg_base.c":177:14)
#loc114 = loc("/home/raherrer/projects/carts/external/carts-benchmarks/sw4lite/rhs4sg-base/rhs4sg_base.c":178:14)
#loc116 = loc("/home/raherrer/projects/carts/external/carts-benchmarks/sw4lite/rhs4sg-base/rhs4sg_base.c":180:12)
#loc117 = loc("/home/raherrer/projects/carts/external/carts-benchmarks/sw4lite/rhs4sg-base/rhs4sg_base.c":181:12)
#loc119 = loc("/home/raherrer/projects/carts/external/carts-benchmarks/sw4lite/rhs4sg-base/rhs4sg_base.c":176:7)
#loc120 = loc("/home/raherrer/projects/carts/external/carts-benchmarks/sw4lite/rhs4sg-base/rhs4sg_base.c":177:9)
#loc121 = loc("/home/raherrer/projects/carts/external/carts-benchmarks/sw4lite/rhs4sg-base/rhs4sg_base.c":178:9)
#loc122 = loc("/home/raherrer/projects/carts/external/carts-benchmarks/sw4lite/rhs4sg-base/rhs4sg_base.c":180:7)
#loc123 = loc("/home/raherrer/projects/carts/external/carts-benchmarks/sw4lite/rhs4sg-base/rhs4sg_base.c":181:7)
#loc124 = loc("/home/raherrer/projects/carts/external/carts-benchmarks/sw4lite/rhs4sg-base/rhs4sg_base.c":183:10)
#loc125 = loc("/home/raherrer/projects/carts/external/carts-benchmarks/sw4lite/rhs4sg-base/rhs4sg_base.c":183:5)
#loc126 = loc("/home/raherrer/projects/carts/external/carts-benchmarks/sw4lite/rhs4sg-base/rhs4sg_base.c":184:10)
#loc127 = loc("/home/raherrer/projects/carts/external/carts-benchmarks/sw4lite/rhs4sg-base/rhs4sg_base.c":184:5)
#loc128 = loc("/home/raherrer/projects/carts/external/carts-benchmarks/sw4lite/rhs4sg-base/rhs4sg_base.c":186:3)
#loc129 = loc("/home/raherrer/projects/carts/external/carts-benchmarks/sw4lite/rhs4sg-base/rhs4sg_base.c":187:3)
#loc130 = loc("/home/raherrer/projects/carts/external/carts-benchmarks/sw4lite/rhs4sg-base/rhs4sg_base.c":191:12)
#loc131 = loc("/home/raherrer/projects/carts/external/carts-benchmarks/sw4lite/rhs4sg-base/rhs4sg_base.c":192:12)
#loc134 = loc("/home/raherrer/projects/carts/external/carts-benchmarks/sw4lite/rhs4sg-base/rhs4sg_base.c":191:7)
#loc135 = loc("/home/raherrer/projects/carts/external/carts-benchmarks/sw4lite/rhs4sg-base/rhs4sg_base.c":192:7)
#loc136 = loc("/home/raherrer/projects/carts/external/carts-benchmarks/sw4lite/rhs4sg-base/rhs4sg_base.c":194:10)
#loc137 = loc("/home/raherrer/projects/carts/external/carts-benchmarks/sw4lite/rhs4sg-base/rhs4sg_base.c":194:5)
#loc138 = loc("/home/raherrer/projects/carts/external/carts-benchmarks/sw4lite/rhs4sg-base/rhs4sg_base.c":195:10)
#loc139 = loc("/home/raherrer/projects/carts/external/carts-benchmarks/sw4lite/rhs4sg-base/rhs4sg_base.c":195:5)
#loc140 = loc("/home/raherrer/projects/carts/external/carts-benchmarks/sw4lite/rhs4sg-base/rhs4sg_base.c":197:3)
#loc141 = loc("/home/raherrer/projects/carts/external/carts-benchmarks/sw4lite/rhs4sg-base/rhs4sg_base.c":198:3)
#loc142 = loc("/home/raherrer/projects/carts/.install/carts/include/arts/utils/benchmarks/CartsBenchmarks.h":101:36)
#loc143 = loc("/home/raherrer/projects/carts/.install/carts/include/arts/utils/benchmarks/CartsBenchmarks.h":80:32)
#loc144 = loc("/home/raherrer/projects/carts/external/carts-benchmarks/sw4lite/rhs4sg-base/rhs4sg_base.c":205:1)
#loc145 = loc("/home/raherrer/projects/carts/.install/carts/include/arts/utils/benchmarks/CartsBenchmarks.h":50:6)
#loc146 = loc("/home/raherrer/projects/carts/.install/carts/include/arts/utils/benchmarks/CartsBenchmarks.h":74:6)
#loc147 = loc("/home/raherrer/projects/carts/.install/carts/include/arts/utils/benchmarks/CartsBenchmarks.h":90:6)
#loc149 = loc("/home/raherrer/projects/carts/external/carts-benchmarks/sw4lite/rhs4sg-base/rhs4sg_base.c":24:1)
#loc150 = loc("/home/raherrer/projects/carts/external/carts-benchmarks/sw4lite/rhs4sg-base/rhs4sg_base.c":41:12)
#loc151 = loc("/home/raherrer/projects/carts/external/carts-benchmarks/sw4lite/rhs4sg-base/rhs4sg_base.c":25:3)
#loc153 = loc("/home/raherrer/projects/carts/external/carts-benchmarks/sw4lite/rhs4sg-base/rhs4sg_base.c":27:9)
#loc154 = loc("/home/raherrer/projects/carts/external/carts-benchmarks/sw4lite/rhs4sg-base/rhs4sg_base.c":31:11)
#loc155 = loc("/home/raherrer/projects/carts/external/carts-benchmarks/sw4lite/rhs4sg-base/rhs4sg_base.c":31:53)
#loc156 = loc("/home/raherrer/projects/carts/external/carts-benchmarks/sw4lite/rhs4sg-base/rhs4sg_base.c":31:73)
#loc157 = loc("/home/raherrer/projects/carts/external/carts-benchmarks/sw4lite/rhs4sg-base/rhs4sg_base.c":31:71)
#loc158 = loc("/home/raherrer/projects/carts/external/carts-benchmarks/sw4lite/rhs4sg-base/rhs4sg_base.c":32:11)
#loc160 = loc("/home/raherrer/projects/carts/external/carts-benchmarks/sw4lite/rhs4sg-base/rhs4sg_base.c":29:7)
#loc161 = loc("/home/raherrer/projects/carts/external/carts-benchmarks/sw4lite/rhs4sg-base/rhs4sg_base.c":30:9)
#loc162 = loc("/home/raherrer/projects/carts/external/carts-benchmarks/sw4lite/rhs4sg-base/rhs4sg_base.c":31:44)
#loc163 = loc("/home/raherrer/projects/carts/external/carts-benchmarks/sw4lite/rhs4sg-base/rhs4sg_base.c":31:48)
#loc164 = loc("/home/raherrer/projects/carts/external/carts-benchmarks/sw4lite/rhs4sg-base/rhs4sg_base.c":31:58)
#loc165 = loc("/home/raherrer/projects/carts/external/carts-benchmarks/sw4lite/rhs4sg-base/rhs4sg_base.c":31:35)
#loc166 = loc("/home/raherrer/projects/carts/external/carts-benchmarks/sw4lite/rhs4sg-base/rhs4sg_base.c":31:33)
#loc167 = loc("/home/raherrer/projects/carts/external/carts-benchmarks/sw4lite/rhs4sg-base/rhs4sg_base.c":31:64)
#loc168 = loc("/home/raherrer/projects/carts/external/carts-benchmarks/sw4lite/rhs4sg-base/rhs4sg_base.c":31:25)
#loc169 = loc("/home/raherrer/projects/carts/external/carts-benchmarks/sw4lite/rhs4sg-base/rhs4sg_base.c":32:27)
#loc170 = loc("/home/raherrer/projects/carts/external/carts-benchmarks/sw4lite/rhs4sg-base/rhs4sg_base.c":33:14)
#loc171 = loc("/home/raherrer/projects/carts/external/carts-benchmarks/sw4lite/rhs4sg-base/rhs4sg_base.c":38:7)
#loc173 = loc("/home/raherrer/projects/carts/external/carts-benchmarks/sw4lite/rhs4sg-base/rhs4sg_base.c":42:9)
#loc174 = loc("/home/raherrer/projects/carts/external/carts-benchmarks/sw4lite/rhs4sg-base/rhs4sg_base.c":43:9)
#loc176 = loc("/home/raherrer/projects/carts/external/carts-benchmarks/sw4lite/rhs4sg-base/rhs4sg_base.c":41:7)
#loc177 = loc("/home/raherrer/projects/carts/external/carts-benchmarks/sw4lite/rhs4sg-base/rhs4sg_base.c":42:47)
#loc178 = loc("/home/raherrer/projects/carts/external/carts-benchmarks/sw4lite/rhs4sg-base/rhs4sg_base.c":42:51)
#loc179 = loc("/home/raherrer/projects/carts/external/carts-benchmarks/sw4lite/rhs4sg-base/rhs4sg_base.c":42:39)
#loc180 = loc("/home/raherrer/projects/carts/external/carts-benchmarks/sw4lite/rhs4sg-base/rhs4sg_base.c":42:37)
#loc181 = loc("/home/raherrer/projects/carts/external/carts-benchmarks/sw4lite/rhs4sg-base/rhs4sg_base.c":42:28)
#loc182 = loc("/home/raherrer/projects/carts/external/carts-benchmarks/sw4lite/rhs4sg-base/rhs4sg_base.c":42:21)
#loc183 = loc("/home/raherrer/projects/carts/external/carts-benchmarks/sw4lite/rhs4sg-base/rhs4sg_base.c":43:52)
#loc184 = loc("/home/raherrer/projects/carts/external/carts-benchmarks/sw4lite/rhs4sg-base/rhs4sg_base.c":43:56)
#loc185 = loc("/home/raherrer/projects/carts/external/carts-benchmarks/sw4lite/rhs4sg-base/rhs4sg_base.c":43:44)
#loc186 = loc("/home/raherrer/projects/carts/external/carts-benchmarks/sw4lite/rhs4sg-base/rhs4sg_base.c":43:42)
#loc187 = loc("/home/raherrer/projects/carts/external/carts-benchmarks/sw4lite/rhs4sg-base/rhs4sg_base.c":43:32)
#loc188 = loc("/home/raherrer/projects/carts/external/carts-benchmarks/sw4lite/rhs4sg-base/rhs4sg_base.c":43:25)
#loc189 = loc("/home/raherrer/projects/carts/external/carts-benchmarks/sw4lite/rhs4sg-base/rhs4sg_base.c":44:12)
#loc190 = loc("/home/raherrer/projects/carts/external/carts-benchmarks/sw4lite/rhs4sg-base/rhs4sg_base.c":48:1)
#loc191 = loc("/home/raherrer/projects/carts/.install/carts/include/arts/utils/benchmarks/CartsBenchmarks.h":93:6)
#loc192 = loc("/home/raherrer/projects/carts/.install/carts/include/arts/utils/benchmarks/CartsBenchmarks.h":128:6)
#loc194 = loc("/home/raherrer/projects/carts/external/carts-benchmarks/sw4lite/rhs4sg-base/rhs4sg_base.c":50:1)
#loc195 = loc("/home/raherrer/projects/carts/external/carts-benchmarks/sw4lite/rhs4sg-base/rhs4sg_base.c":56:3)
#loc196 = loc("/home/raherrer/projects/carts/external/carts-benchmarks/sw4lite/rhs4sg-base/rhs4sg_base.c":54:3)
#loc197 = loc("/home/raherrer/projects/carts/external/carts-benchmarks/sw4lite/rhs4sg-base/rhs4sg_base.c":56:34)
#loc198 = loc("/home/raherrer/projects/carts/external/carts-benchmarks/sw4lite/rhs4sg-base/rhs4sg_base.c":56:29)
#loc199 = loc("/home/raherrer/projects/carts/external/carts-benchmarks/sw4lite/rhs4sg-base/rhs4sg_base.c":58:1)
#loc200 = loc("/home/raherrer/projects/carts/external/carts-benchmarks/sw4lite/rhs4sg-base/rhs4sg_base.c":99:11)
#loc201 = loc("/home/raherrer/projects/carts/external/carts-benchmarks/sw4lite/rhs4sg-base/rhs4sg_base.c":93:11)
#loc202 = loc("/home/raherrer/projects/carts/external/carts-benchmarks/sw4lite/rhs4sg-base/rhs4sg_base.c":86:11)
#loc203 = loc("/home/raherrer/projects/carts/external/carts-benchmarks/sw4lite/rhs4sg-base/rhs4sg_base.c":80:11)
#loc204 = loc("/home/raherrer/projects/carts/external/carts-benchmarks/sw4lite/rhs4sg-base/rhs4sg_base.c":73:11)
#loc205 = loc("/home/raherrer/projects/carts/external/carts-benchmarks/sw4lite/rhs4sg-base/rhs4sg_base.c":67:11)
#loc206 = loc("/home/raherrer/projects/carts/external/carts-benchmarks/sw4lite/rhs4sg-base/rhs4sg_base.c":63:9)
#loc207 = loc("/home/raherrer/projects/carts/external/carts-benchmarks/sw4lite/rhs4sg-base/rhs4sg_base.c":62:9)
#loc208 = loc("/home/raherrer/projects/carts/external/carts-benchmarks/sw4lite/rhs4sg-base/rhs4sg_base.c":75:72)
#loc209 = loc("/home/raherrer/projects/carts/external/carts-benchmarks/sw4lite/rhs4sg-base/rhs4sg_base.c":82:38)
#loc210 = loc("/home/raherrer/projects/carts/external/carts-benchmarks/sw4lite/rhs4sg-base/rhs4sg_base.c":86:29)
#loc211 = loc("/home/raherrer/projects/carts/external/carts-benchmarks/sw4lite/rhs4sg-base/rhs4sg_base.c":87:11)
#loc212 = loc("/home/raherrer/projects/carts/external/carts-benchmarks/sw4lite/rhs4sg-base/rhs4sg_base.c":88:72)
#loc213 = loc("/home/raherrer/projects/carts/external/carts-benchmarks/sw4lite/rhs4sg-base/rhs4sg_base.c":95:38)
#loc214 = loc("/home/raherrer/projects/carts/external/carts-benchmarks/sw4lite/rhs4sg-base/rhs4sg_base.c":99:29)
#loc215 = loc("/home/raherrer/projects/carts/external/carts-benchmarks/sw4lite/rhs4sg-base/rhs4sg_base.c":99:42)
#loc216 = loc("/home/raherrer/projects/carts/external/carts-benchmarks/sw4lite/rhs4sg-base/rhs4sg_base.c":99:45)
#loc217 = loc("/home/raherrer/projects/carts/external/carts-benchmarks/sw4lite/rhs4sg-base/rhs4sg_base.c":99:62)
#loc218 = loc("/home/raherrer/projects/carts/external/carts-benchmarks/sw4lite/rhs4sg-base/rhs4sg_base.c":99:65)
#loc219 = loc("/home/raherrer/projects/carts/external/carts-benchmarks/sw4lite/rhs4sg-base/rhs4sg_base.c":100:11)
#loc220 = loc("/home/raherrer/projects/carts/external/carts-benchmarks/sw4lite/rhs4sg-base/rhs4sg_base.c":101:72)
#loc221 = loc("/home/raherrer/projects/carts/external/carts-benchmarks/sw4lite/rhs4sg-base/rhs4sg_base.c":60:5)
#loc222 = loc("/home/raherrer/projects/carts/external/carts-benchmarks/sw4lite/rhs4sg-base/rhs4sg_base.c":86:39)
#loc223 = loc("/home/raherrer/projects/carts/external/carts-benchmarks/sw4lite/rhs4sg-base/rhs4sg_base.c":86:42)
#loc224 = loc("/home/raherrer/projects/carts/external/carts-benchmarks/sw4lite/rhs4sg-base/rhs4sg_base.c":86:59)
#loc225 = loc("/home/raherrer/projects/carts/external/carts-benchmarks/sw4lite/rhs4sg-base/rhs4sg_base.c":86:62)
#loc226 = loc("/home/raherrer/projects/carts/external/carts-benchmarks/sw4lite/rhs4sg-base/rhs4sg_base.c":61:7)
#loc227 = loc("/home/raherrer/projects/carts/external/carts-benchmarks/sw4lite/rhs4sg-base/rhs4sg_base.c":62:28)
#loc228 = loc("/home/raherrer/projects/carts/external/carts-benchmarks/sw4lite/rhs4sg-base/rhs4sg_base.c":63:28)
#loc229 = loc("/home/raherrer/projects/carts/external/carts-benchmarks/sw4lite/rhs4sg-base/rhs4sg_base.c":68:11)
#loc230 = loc("/home/raherrer/projects/carts/external/carts-benchmarks/sw4lite/rhs4sg-base/rhs4sg_base.c":69:30)
#loc231 = loc("/home/raherrer/projects/carts/external/carts-benchmarks/sw4lite/rhs4sg-base/rhs4sg_base.c":69:33)
#loc232 = loc("/home/raherrer/projects/carts/external/carts-benchmarks/sw4lite/rhs4sg-base/rhs4sg_base.c":69:21)
#loc233 = loc("/home/raherrer/projects/carts/external/carts-benchmarks/sw4lite/rhs4sg-base/rhs4sg_base.c":69:38)
#loc234 = loc("/home/raherrer/projects/carts/external/carts-benchmarks/sw4lite/rhs4sg-base/rhs4sg_base.c":69:45)
#loc235 = loc("/home/raherrer/projects/carts/external/carts-benchmarks/sw4lite/rhs4sg-base/rhs4sg_base.c":69:53)
#loc236 = loc("/home/raherrer/projects/carts/external/carts-benchmarks/sw4lite/rhs4sg-base/rhs4sg_base.c":70:38)
#loc237 = loc("/home/raherrer/projects/carts/external/carts-benchmarks/sw4lite/rhs4sg-base/rhs4sg_base.c":70:48)
#loc238 = loc("/home/raherrer/projects/carts/external/carts-benchmarks/sw4lite/rhs4sg-base/rhs4sg_base.c":70:56)
#loc239 = loc("/home/raherrer/projects/carts/external/carts-benchmarks/sw4lite/rhs4sg-base/rhs4sg_base.c":69:61)
#loc240 = loc("/home/raherrer/projects/carts/external/carts-benchmarks/sw4lite/rhs4sg-base/rhs4sg_base.c":71:38)
#loc241 = loc("/home/raherrer/projects/carts/external/carts-benchmarks/sw4lite/rhs4sg-base/rhs4sg_base.c":71:51)
#loc242 = loc("/home/raherrer/projects/carts/external/carts-benchmarks/sw4lite/rhs4sg-base/rhs4sg_base.c":71:59)
#loc243 = loc("/home/raherrer/projects/carts/external/carts-benchmarks/sw4lite/rhs4sg-base/rhs4sg_base.c":70:61)
#loc244 = loc("/home/raherrer/projects/carts/external/carts-benchmarks/sw4lite/rhs4sg-base/rhs4sg_base.c":69:35)
#loc245 = loc("/home/raherrer/projects/carts/external/carts-benchmarks/sw4lite/rhs4sg-base/rhs4sg_base.c":69:18)
#loc246 = loc("/home/raherrer/projects/carts/external/carts-benchmarks/sw4lite/rhs4sg-base/rhs4sg_base.c":73:29)
#loc247 = loc("/home/raherrer/projects/carts/external/carts-benchmarks/sw4lite/rhs4sg-base/rhs4sg_base.c":73:36)
#loc248 = loc("/home/raherrer/projects/carts/external/carts-benchmarks/sw4lite/rhs4sg-base/rhs4sg_base.c":73:39)
#loc249 = loc("/home/raherrer/projects/carts/external/carts-benchmarks/sw4lite/rhs4sg-base/rhs4sg_base.c":73:56)
#loc250 = loc("/home/raherrer/projects/carts/external/carts-benchmarks/sw4lite/rhs4sg-base/rhs4sg_base.c":73:59)
#loc251 = loc("/home/raherrer/projects/carts/external/carts-benchmarks/sw4lite/rhs4sg-base/rhs4sg_base.c":73:49)
#loc252 = loc("/home/raherrer/projects/carts/external/carts-benchmarks/sw4lite/rhs4sg-base/rhs4sg_base.c":73:47)
#loc253 = loc("/home/raherrer/projects/carts/external/carts-benchmarks/sw4lite/rhs4sg-base/rhs4sg_base.c":74:11)
#loc254 = loc("/home/raherrer/projects/carts/external/carts-benchmarks/sw4lite/rhs4sg-base/rhs4sg_base.c":75:15)
#loc255 = loc("/home/raherrer/projects/carts/external/carts-benchmarks/sw4lite/rhs4sg-base/rhs4sg_base.c":75:22)
#loc256 = loc("/home/raherrer/projects/carts/external/carts-benchmarks/sw4lite/rhs4sg-base/rhs4sg_base.c":75:20)
#loc257 = loc("/home/raherrer/projects/carts/external/carts-benchmarks/sw4lite/rhs4sg-base/rhs4sg_base.c":75:27)
#loc258 = loc("/home/raherrer/projects/carts/external/carts-benchmarks/sw4lite/rhs4sg-base/rhs4sg_base.c":75:39)
#loc259 = loc("/home/raherrer/projects/carts/external/carts-benchmarks/sw4lite/rhs4sg-base/rhs4sg_base.c":75:44)
#loc260 = loc("/home/raherrer/projects/carts/external/carts-benchmarks/sw4lite/rhs4sg-base/rhs4sg_base.c":75:54)
#loc261 = loc("/home/raherrer/projects/carts/external/carts-benchmarks/sw4lite/rhs4sg-base/rhs4sg_base.c":75:52)
#loc262 = loc("/home/raherrer/projects/carts/external/carts-benchmarks/sw4lite/rhs4sg-base/rhs4sg_base.c":75:64)
#loc263 = loc("/home/raherrer/projects/carts/external/carts-benchmarks/sw4lite/rhs4sg-base/rhs4sg_base.c":75:36)
#loc264 = loc("/home/raherrer/projects/carts/external/carts-benchmarks/sw4lite/rhs4sg-base/rhs4sg_base.c":74:27)
#loc265 = loc("/home/raherrer/projects/carts/external/carts-benchmarks/sw4lite/rhs4sg-base/rhs4sg_base.c":81:11)
#loc266 = loc("/home/raherrer/projects/carts/external/carts-benchmarks/sw4lite/rhs4sg-base/rhs4sg_base.c":82:30)
#loc267 = loc("/home/raherrer/projects/carts/external/carts-benchmarks/sw4lite/rhs4sg-base/rhs4sg_base.c":82:33)
#loc268 = loc("/home/raherrer/projects/carts/external/carts-benchmarks/sw4lite/rhs4sg-base/rhs4sg_base.c":82:21)
#loc269 = loc("/home/raherrer/projects/carts/external/carts-benchmarks/sw4lite/rhs4sg-base/rhs4sg_base.c":82:45)
#loc270 = loc("/home/raherrer/projects/carts/external/carts-benchmarks/sw4lite/rhs4sg-base/rhs4sg_base.c":82:53)
#loc271 = loc("/home/raherrer/projects/carts/external/carts-benchmarks/sw4lite/rhs4sg-base/rhs4sg_base.c":83:38)
#loc272 = loc("/home/raherrer/projects/carts/external/carts-benchmarks/sw4lite/rhs4sg-base/rhs4sg_base.c":83:48)
#loc273 = loc("/home/raherrer/projects/carts/external/carts-benchmarks/sw4lite/rhs4sg-base/rhs4sg_base.c":83:56)
#loc274 = loc("/home/raherrer/projects/carts/external/carts-benchmarks/sw4lite/rhs4sg-base/rhs4sg_base.c":82:61)
#loc275 = loc("/home/raherrer/projects/carts/external/carts-benchmarks/sw4lite/rhs4sg-base/rhs4sg_base.c":84:38)
#loc276 = loc("/home/raherrer/projects/carts/external/carts-benchmarks/sw4lite/rhs4sg-base/rhs4sg_base.c":84:51)
#loc277 = loc("/home/raherrer/projects/carts/external/carts-benchmarks/sw4lite/rhs4sg-base/rhs4sg_base.c":84:59)
#loc278 = loc("/home/raherrer/projects/carts/external/carts-benchmarks/sw4lite/rhs4sg-base/rhs4sg_base.c":83:61)
#loc279 = loc("/home/raherrer/projects/carts/external/carts-benchmarks/sw4lite/rhs4sg-base/rhs4sg_base.c":82:35)
#loc280 = loc("/home/raherrer/projects/carts/external/carts-benchmarks/sw4lite/rhs4sg-base/rhs4sg_base.c":82:18)
#loc281 = loc("/home/raherrer/projects/carts/external/carts-benchmarks/sw4lite/rhs4sg-base/rhs4sg_base.c":86:49)
#loc282 = loc("/home/raherrer/projects/carts/external/carts-benchmarks/sw4lite/rhs4sg-base/rhs4sg_base.c":86:47)
#loc283 = loc("/home/raherrer/projects/carts/external/carts-benchmarks/sw4lite/rhs4sg-base/rhs4sg_base.c":88:15)
#loc284 = loc("/home/raherrer/projects/carts/external/carts-benchmarks/sw4lite/rhs4sg-base/rhs4sg_base.c":88:22)
#loc285 = loc("/home/raherrer/projects/carts/external/carts-benchmarks/sw4lite/rhs4sg-base/rhs4sg_base.c":88:20)
#loc286 = loc("/home/raherrer/projects/carts/external/carts-benchmarks/sw4lite/rhs4sg-base/rhs4sg_base.c":88:27)
#loc287 = loc("/home/raherrer/projects/carts/external/carts-benchmarks/sw4lite/rhs4sg-base/rhs4sg_base.c":88:39)
#loc288 = loc("/home/raherrer/projects/carts/external/carts-benchmarks/sw4lite/rhs4sg-base/rhs4sg_base.c":88:44)
#loc289 = loc("/home/raherrer/projects/carts/external/carts-benchmarks/sw4lite/rhs4sg-base/rhs4sg_base.c":88:54)
#loc290 = loc("/home/raherrer/projects/carts/external/carts-benchmarks/sw4lite/rhs4sg-base/rhs4sg_base.c":88:52)
#loc291 = loc("/home/raherrer/projects/carts/external/carts-benchmarks/sw4lite/rhs4sg-base/rhs4sg_base.c":88:64)
#loc292 = loc("/home/raherrer/projects/carts/external/carts-benchmarks/sw4lite/rhs4sg-base/rhs4sg_base.c":88:36)
#loc293 = loc("/home/raherrer/projects/carts/external/carts-benchmarks/sw4lite/rhs4sg-base/rhs4sg_base.c":87:27)
#loc294 = loc("/home/raherrer/projects/carts/external/carts-benchmarks/sw4lite/rhs4sg-base/rhs4sg_base.c":94:11)
#loc295 = loc("/home/raherrer/projects/carts/external/carts-benchmarks/sw4lite/rhs4sg-base/rhs4sg_base.c":95:30)
#loc296 = loc("/home/raherrer/projects/carts/external/carts-benchmarks/sw4lite/rhs4sg-base/rhs4sg_base.c":95:33)
#loc297 = loc("/home/raherrer/projects/carts/external/carts-benchmarks/sw4lite/rhs4sg-base/rhs4sg_base.c":95:21)
#loc298 = loc("/home/raherrer/projects/carts/external/carts-benchmarks/sw4lite/rhs4sg-base/rhs4sg_base.c":95:45)
#loc299 = loc("/home/raherrer/projects/carts/external/carts-benchmarks/sw4lite/rhs4sg-base/rhs4sg_base.c":95:53)
#loc300 = loc("/home/raherrer/projects/carts/external/carts-benchmarks/sw4lite/rhs4sg-base/rhs4sg_base.c":96:38)
#loc301 = loc("/home/raherrer/projects/carts/external/carts-benchmarks/sw4lite/rhs4sg-base/rhs4sg_base.c":96:48)
#loc302 = loc("/home/raherrer/projects/carts/external/carts-benchmarks/sw4lite/rhs4sg-base/rhs4sg_base.c":96:56)
#loc303 = loc("/home/raherrer/projects/carts/external/carts-benchmarks/sw4lite/rhs4sg-base/rhs4sg_base.c":95:61)
#loc304 = loc("/home/raherrer/projects/carts/external/carts-benchmarks/sw4lite/rhs4sg-base/rhs4sg_base.c":97:38)
#loc305 = loc("/home/raherrer/projects/carts/external/carts-benchmarks/sw4lite/rhs4sg-base/rhs4sg_base.c":97:51)
#loc306 = loc("/home/raherrer/projects/carts/external/carts-benchmarks/sw4lite/rhs4sg-base/rhs4sg_base.c":97:59)
#loc307 = loc("/home/raherrer/projects/carts/external/carts-benchmarks/sw4lite/rhs4sg-base/rhs4sg_base.c":96:61)
#loc308 = loc("/home/raherrer/projects/carts/external/carts-benchmarks/sw4lite/rhs4sg-base/rhs4sg_base.c":95:35)
#loc309 = loc("/home/raherrer/projects/carts/external/carts-benchmarks/sw4lite/rhs4sg-base/rhs4sg_base.c":95:18)
#loc310 = loc("/home/raherrer/projects/carts/external/carts-benchmarks/sw4lite/rhs4sg-base/rhs4sg_base.c":99:49)
#loc311 = loc("/home/raherrer/projects/carts/external/carts-benchmarks/sw4lite/rhs4sg-base/rhs4sg_base.c":99:47)
#loc312 = loc("/home/raherrer/projects/carts/external/carts-benchmarks/sw4lite/rhs4sg-base/rhs4sg_base.c":101:15)
#loc313 = loc("/home/raherrer/projects/carts/external/carts-benchmarks/sw4lite/rhs4sg-base/rhs4sg_base.c":101:22)
#loc314 = loc("/home/raherrer/projects/carts/external/carts-benchmarks/sw4lite/rhs4sg-base/rhs4sg_base.c":101:20)
#loc315 = loc("/home/raherrer/projects/carts/external/carts-benchmarks/sw4lite/rhs4sg-base/rhs4sg_base.c":101:27)
#loc316 = loc("/home/raherrer/projects/carts/external/carts-benchmarks/sw4lite/rhs4sg-base/rhs4sg_base.c":101:39)
#loc317 = loc("/home/raherrer/projects/carts/external/carts-benchmarks/sw4lite/rhs4sg-base/rhs4sg_base.c":101:44)
#loc318 = loc("/home/raherrer/projects/carts/external/carts-benchmarks/sw4lite/rhs4sg-base/rhs4sg_base.c":101:54)
#loc319 = loc("/home/raherrer/projects/carts/external/carts-benchmarks/sw4lite/rhs4sg-base/rhs4sg_base.c":101:52)
#loc320 = loc("/home/raherrer/projects/carts/external/carts-benchmarks/sw4lite/rhs4sg-base/rhs4sg_base.c":101:64)
#loc321 = loc("/home/raherrer/projects/carts/external/carts-benchmarks/sw4lite/rhs4sg-base/rhs4sg_base.c":101:36)
#loc322 = loc("/home/raherrer/projects/carts/external/carts-benchmarks/sw4lite/rhs4sg-base/rhs4sg_base.c":100:27)
#loc323 = loc("/home/raherrer/projects/carts/external/carts-benchmarks/sw4lite/rhs4sg-base/rhs4sg_base.c":106:1)
#loc324 = loc("/home/raherrer/projects/carts/.install/carts/include/arts/utils/benchmarks/CartsBenchmarks.h":134:6)
#loc325 = loc("/home/raherrer/projects/carts/.install/carts/include/arts/utils/benchmarks/CartsBenchmarks.h":137:6)
#loc326 = loc("/home/raherrer/projects/carts/.install/carts/include/arts/utils/benchmarks/CartsBenchmarks.h":207:6)
#loc327 = loc("/home/raherrer/projects/carts/.install/carts/include/arts/utils/benchmarks/CartsBenchmarks.h":77:6)
