#map = affine_map<()[s0] -> (s0 + 1)>
#set = affine_set<(d0) : (d0 == 0)>
module attributes {dlti.dl_spec = #dlti.dl_spec<#dlti.dl_entry<i128, dense<128> : vector<2xi32>>, #dlti.dl_entry<f128, dense<128> : vector<2xi32>>, #dlti.dl_entry<i64, dense<64> : vector<2xi32>>, #dlti.dl_entry<i32, dense<32> : vector<2xi32>>, #dlti.dl_entry<i16, dense<16> : vector<2xi32>>, #dlti.dl_entry<f16, dense<16> : vector<2xi32>>, #dlti.dl_entry<f64, dense<64> : vector<2xi32>>, #dlti.dl_entry<!llvm.ptr, dense<64> : vector<4xi32>>, #dlti.dl_entry<i8, dense<8> : vector<2xi32>>, #dlti.dl_entry<i1, dense<8> : vector<2xi32>>, #dlti.dl_entry<"dlti.stack_alignment", 128 : i32>, #dlti.dl_entry<"dlti.endianness", "little">>, llvm.data_layout = "e-m:o-i64:64-i128:128-n32:64-S128", llvm.target_triple = "arm64-apple-macosx16.0.0", "polygeist.target-cpu" = "apple-m1", "polygeist.target-features" = "+aes,+crc,+dotprod,+fp-armv8,+fp16fml,+fullfp16,+lse,+neon,+ras,+rcpc,+rdm,+sha2,+sha3,+v8.1a,+v8.2a,+v8.3a,+v8.4a,+v8.5a,+v8a,+zcm,+zcz"} {
  llvm.mlir.global internal constant @str6("jacobi verification failed\00") {addr_space = 0 : i32}
  llvm.mlir.global internal constant @str5("jacobi.c\00") {addr_space = 0 : i32}
  llvm.mlir.global internal constant @str4("Running sequential version for verification...\0A\00") {addr_space = 0 : i32}
  llvm.mlir.global internal constant @str3("Running parallel version with task dependencies...\0A\00") {addr_space = 0 : i32}
  llvm.mlir.global internal constant @str2("Iterations: %d\0A\00") {addr_space = 0 : i32}
  llvm.mlir.global internal constant @str1("Grid size: %d x %d\0A\00") {addr_space = 0 : i32}
  llvm.mlir.global internal constant @str0("Jacobi Task-Dep \0A\00") {addr_space = 0 : i32}
  llvm.func @printf(!llvm.ptr, ...) -> i32
  memref.global "private" @_carts_timer_start : memref<1xf64> = dense<0.000000e+00>
  func.func @main() -> i32 attributes {llvm.linkage = #llvm.linkage<external>} {
    %true = arith.constant true
    %cst = arith.constant 0.010101010101010102 : f64
    %cst_0 = arith.constant 1.000000e+04 : f64
    %c100_i64 = arith.constant 100 : i64
    %cst_1 = arith.constant 9.9999999999999995E-7 : f64
    %cst_2 = arith.constant 0.000000e+00 : f64
    %c10_i32 = arith.constant 10 : i32
    %c0_i32 = arith.constant 0 : i32
    %c100_i32 = arith.constant 100 : i32
    %alloca = memref.alloca() : memref<memref<?xmemref<?xf64>>>
    %alloca_3 = memref.alloca() : memref<memref<?xmemref<?xf64>>>
    %alloca_4 = memref.alloca() : memref<memref<?xmemref<?xf64>>>
    %alloca_5 = memref.alloca() : memref<memref<?xmemref<?xf64>>>
    %0 = memref.get_global @_carts_timer_start : memref<1xf64>
    %1 = call @carts_get_time() : () -> f64
    affine.store %1, %0[0] : memref<1xf64>
    %2 = llvm.mlir.addressof @str0 : !llvm.ptr
    %3 = llvm.getelementptr %2[0, 0] : (!llvm.ptr) -> !llvm.ptr, !llvm.array<18 x i8>
    %4 = llvm.call @printf(%3) vararg(!llvm.func<i32 (ptr, ...)>) : (!llvm.ptr) -> i32
    %5 = llvm.mlir.addressof @str1 : !llvm.ptr
    %6 = llvm.getelementptr %5[0, 0] : (!llvm.ptr) -> !llvm.ptr, !llvm.array<20 x i8>
    %7 = llvm.call @printf(%6, %c100_i32, %c100_i32) vararg(!llvm.func<i32 (ptr, ...)>) : (!llvm.ptr, i32, i32) -> i32
    %8 = llvm.mlir.addressof @str2 : !llvm.ptr
    %9 = llvm.getelementptr %8[0, 0] : (!llvm.ptr) -> !llvm.ptr, !llvm.array<16 x i8>
    %10 = llvm.call @printf(%9, %c10_i32) vararg(!llvm.func<i32 (ptr, ...)>) : (!llvm.ptr, i32) -> i32
    %11 = polygeist.typeSize memref<?xf64> : index
    %12 = arith.index_cast %11 : index to i64
    %13 = arith.muli %12, %c100_i64 : i64
    %14 = arith.index_cast %13 : i64 to index
    %15 = arith.divui %14, %11 : index
    %alloc = memref.alloc(%15) : memref<?xmemref<?xf64>>
    affine.store %alloc, %alloca_5[] : memref<memref<?xmemref<?xf64>>>
    %16 = polygeist.typeSize memref<?xf64> : index
    %17 = arith.index_cast %16 : index to i64
    %18 = arith.muli %17, %c100_i64 : i64
    %19 = arith.index_cast %18 : i64 to index
    %20 = arith.divui %19, %16 : index
    %alloc_6 = memref.alloc(%20) : memref<?xmemref<?xf64>>
    affine.store %alloc_6, %alloca_4[] : memref<memref<?xmemref<?xf64>>>
    %21 = polygeist.typeSize memref<?xf64> : index
    %22 = arith.index_cast %21 : index to i64
    %23 = arith.muli %22, %c100_i64 : i64
    %24 = arith.index_cast %23 : i64 to index
    %25 = arith.divui %24, %21 : index
    %alloc_7 = memref.alloc(%25) : memref<?xmemref<?xf64>>
    affine.store %alloc_7, %alloca_3[] : memref<memref<?xmemref<?xf64>>>
    %26 = polygeist.typeSize memref<?xf64> : index
    %27 = arith.index_cast %26 : index to i64
    %28 = arith.muli %27, %c100_i64 : i64
    %29 = arith.index_cast %28 : i64 to index
    %30 = arith.divui %29, %26 : index
    %alloc_8 = memref.alloc(%30) : memref<?xmemref<?xf64>>
    affine.store %alloc_8, %alloca[] : memref<memref<?xmemref<?xf64>>>
    affine.for %arg0 = 0 to 100 {
      %alloc_9 = memref.alloc() : memref<100xf64>
      %cast = memref.cast %alloc_9 : memref<100xf64> to memref<?xf64>
      affine.store %cast, %alloc[%arg0] : memref<?xmemref<?xf64>>
      %alloc_10 = memref.alloc() : memref<100xf64>
      %cast_11 = memref.cast %alloc_10 : memref<100xf64> to memref<?xf64>
      affine.store %cast_11, %alloc_6[%arg0] : memref<?xmemref<?xf64>>
      %alloc_12 = memref.alloc() : memref<100xf64>
      %cast_13 = memref.cast %alloc_12 : memref<100xf64> to memref<?xf64>
      affine.store %cast_13, %alloc_7[%arg0] : memref<?xmemref<?xf64>>
      %alloc_14 = memref.alloc() : memref<100xf64>
      %cast_15 = memref.cast %alloc_14 : memref<100xf64> to memref<?xf64>
      affine.store %cast_15, %alloc_8[%arg0] : memref<?xmemref<?xf64>>
    }
    affine.for %arg0 = 0 to 100 {
      affine.for %arg1 = 0 to 100 {
        %56 = affine.load %alloc[%arg0] : memref<?xmemref<?xf64>>
        affine.store %cst_2, %56[%arg1] : memref<?xf64>
        %57 = affine.load %alloc_6[%arg0] : memref<?xmemref<?xf64>>
        affine.store %cst_2, %57[%arg1] : memref<?xf64>
        %58 = affine.load %alloc_7[%arg0] : memref<?xmemref<?xf64>>
        affine.store %cst_2, %58[%arg1] : memref<?xf64>
        %59 = affine.load %alloc_8[%arg0] : memref<?xmemref<?xf64>>
        affine.store %cst_2, %59[%arg1] : memref<?xf64>
      }
    }
    %31 = llvm.mlir.addressof @str3 : !llvm.ptr
    %32 = llvm.getelementptr %31[0, 0] : (!llvm.ptr) -> !llvm.ptr, !llvm.array<52 x i8>
    %33 = llvm.call @printf(%32) vararg(!llvm.func<i32 (ptr, ...)>) : (!llvm.ptr) -> i32
    %34 = affine.load %alloca_5[] : memref<memref<?xmemref<?xf64>>>
    %35 = affine.load %alloca_4[] : memref<memref<?xmemref<?xf64>>>
    %36 = affine.load %alloca_3[] : memref<memref<?xmemref<?xf64>>>
    call @sweep(%c100_i32, %c100_i32, %cst, %cst, %34, %c0_i32, %c10_i32, %35, %36, %c10_i32) : (i32, i32, f64, f64, memref<?xmemref<?xf64>>, i32, i32, memref<?xmemref<?xf64>>, memref<?xmemref<?xf64>>, i32) -> ()
    %37 = affine.load %alloca[] : memref<memref<?xmemref<?xf64>>>
    %38 = affine.load %alloca_3[] : memref<memref<?xmemref<?xf64>>>
    affine.for %arg0 = 0 to 100 {
      affine.for %arg1 = 0 to 100 {
        %56 = affine.load %37[%arg0] : memref<?xmemref<?xf64>>
        %57 = affine.load %38[%arg0] : memref<?xmemref<?xf64>>
        %58 = affine.load %57[%arg1] : memref<?xf64>
        affine.store %58, %56[%arg1] : memref<?xf64>
      }
    }
    %39 = affine.load %alloca_4[] : memref<memref<?xmemref<?xf64>>>
    %40 = affine.load %alloca_3[] : memref<memref<?xmemref<?xf64>>>
    affine.for %arg0 = 0 to 100 {
      affine.for %arg1 = 0 to 100 {
        %56 = affine.load %39[%arg0] : memref<?xmemref<?xf64>>
        affine.store %cst_2, %56[%arg1] : memref<?xf64>
        %57 = affine.load %40[%arg0] : memref<?xmemref<?xf64>>
        affine.store %cst_2, %57[%arg1] : memref<?xf64>
      }
    }
    %41 = llvm.mlir.addressof @str4 : !llvm.ptr
    %42 = llvm.getelementptr %41[0, 0] : (!llvm.ptr) -> !llvm.ptr, !llvm.array<48 x i8>
    %43 = llvm.call @printf(%42) vararg(!llvm.func<i32 (ptr, ...)>) : (!llvm.ptr) -> i32
    %44 = affine.load %alloca_5[] : memref<memref<?xmemref<?xf64>>>
    %45 = affine.load %alloca_4[] : memref<memref<?xmemref<?xf64>>>
    %46 = affine.load %alloca_3[] : memref<memref<?xmemref<?xf64>>>
    call @sweep_seq(%c100_i32, %c100_i32, %cst, %cst, %44, %c0_i32, %c10_i32, %45, %46) : (i32, i32, f64, f64, memref<?xmemref<?xf64>>, i32, i32, memref<?xmemref<?xf64>>, memref<?xmemref<?xf64>>) -> ()
    %47 = affine.load %alloca[] : memref<memref<?xmemref<?xf64>>>
    %48 = affine.load %alloca_3[] : memref<memref<?xmemref<?xf64>>>
    %49 = affine.for %arg0 = 0 to 100 iter_args(%arg1 = %cst_2) -> (f64) {
      %56 = scf.if %true -> (f64) {
        %57 = affine.load %47[%arg0] : memref<?xmemref<?xf64>>
        %58 = affine.load %48[%arg0] : memref<?xmemref<?xf64>>
        %59 = affine.for %arg2 = 0 to 100 iter_args(%arg3 = %arg1) -> (f64) {
          %60 = affine.load %57[%arg2] : memref<?xf64>
          %61 = affine.load %58[%arg2] : memref<?xf64>
          %62 = arith.subf %60, %61 : f64
          %63 = arith.mulf %62, %62 : f64
          %64 = arith.addf %arg3, %63 : f64
          affine.yield %64 : f64
        }
        scf.yield %59 : f64
      } else {
        scf.yield %arg1 : f64
      }
      affine.yield %56 : f64
    }
    %50 = arith.divf %49, %cst_0 : f64
    %51 = math.sqrt %50 : f64
    %52 = affine.load %alloca_5[] : memref<memref<?xmemref<?xf64>>>
    %53 = affine.load %alloca_4[] : memref<memref<?xmemref<?xf64>>>
    affine.for %arg0 = 0 to 100 {
      %56 = affine.load %52[%arg0] : memref<?xmemref<?xf64>>
      memref.dealloc %56 : memref<?xf64>
      %57 = affine.load %53[%arg0] : memref<?xmemref<?xf64>>
      memref.dealloc %57 : memref<?xf64>
      %58 = affine.load %48[%arg0] : memref<?xmemref<?xf64>>
      memref.dealloc %58 : memref<?xf64>
      %59 = affine.load %47[%arg0] : memref<?xmemref<?xf64>>
      memref.dealloc %59 : memref<?xf64>
    }
    memref.dealloc %52 : memref<?xmemref<?xf64>>
    memref.dealloc %53 : memref<?xmemref<?xf64>>
    memref.dealloc %48 : memref<?xmemref<?xf64>>
    memref.dealloc %47 : memref<?xmemref<?xf64>>
    %54 = arith.cmpf olt, %51, %cst_1 : f64
    %55 = scf.if %54 -> (i32) {
      %56 = llvm.mlir.addressof @str5 : !llvm.ptr
      %57 = func.call @carts_get_time() : () -> f64
      %58 = memref.get_global @_carts_timer_start : memref<1xf64>
      %59 = affine.load %58[0] : memref<1xf64>
      %60 = arith.subf %57, %59 : f64
      %61 = polygeist.pointer2memref %56 : !llvm.ptr to memref<?xi8>
      %62 = func.call @carts_test_pass_impl(%61, %60) : (memref<?xi8>, f64) -> i32
      scf.yield %62 : i32
    } else {
      %56 = llvm.mlir.addressof @str5 : !llvm.ptr
      %57 = llvm.mlir.addressof @str6 : !llvm.ptr
      %58 = polygeist.pointer2memref %56 : !llvm.ptr to memref<?xi8>
      %59 = polygeist.pointer2memref %57 : !llvm.ptr to memref<?xi8>
      %60 = func.call @carts_test_fail_impl(%58, %59) : (memref<?xi8>, memref<?xi8>) -> i32
      scf.yield %60 : i32
    }
    return %55 : i32
  }
  func.func private @carts_get_time() -> f64 attributes {llvm.linkage = #llvm.linkage<internal>} {
    %0 = call @omp_get_wtime() : () -> f64
    return %0 : f64
  }
  func.func private @sweep(%arg0: i32, %arg1: i32, %arg2: f64, %arg3: f64, %arg4: memref<?xmemref<?xf64>>, %arg5: i32, %arg6: i32, %arg7: memref<?xmemref<?xf64>>, %arg8: memref<?xmemref<?xf64>>, %arg9: i32) attributes {llvm.linkage = #llvm.linkage<internal>} {
    %c0_i32 = arith.constant 0 : i32
    %cst = arith.constant 2.500000e-01 : f64
    %true = arith.constant true
    %c-1_i32 = arith.constant -1 : i32
    %0 = arith.index_cast %arg6 : i32 to index
    %1 = arith.index_cast %arg5 : i32 to index
    %2 = arith.index_cast %arg0 : i32 to index
    %3 = arith.index_cast %arg1 : i32 to index
    omp.parallel   {
      omp.barrier
      omp.master {
        %4 = arith.addi %arg0, %c-1_i32 : i32
        %5 = arith.addi %arg1, %c-1_i32 : i32
        affine.for %arg10 = #map()[%1] to #map()[%0] {
          affine.for %arg11 = 0 to %2 {
            %6 = affine.load %arg8[%arg11] : memref<?xmemref<?xf64>>
            %7 = affine.load %arg7[%arg11] : memref<?xmemref<?xf64>>
            omp.task   depend(taskdependin -> %6 : memref<?xf64>, taskdependout -> %7 : memref<?xf64>) {
              affine.for %arg12 = 0 to %3 {
                %8 = affine.load %arg7[%arg11] : memref<?xmemref<?xf64>>
                %9 = affine.load %arg8[%arg11] : memref<?xmemref<?xf64>>
                %10 = affine.load %9[%arg12] : memref<?xf64>
                affine.store %10, %8[%arg12] : memref<?xf64>
              }
              omp.terminator
            }
          }
          affine.for %arg11 = 0 to %2 {
            %6 = arith.index_cast %arg11 : index to i32
            %7 = affine.load %arg4[%arg11] : memref<?xmemref<?xf64>>
            %8 = affine.load %arg7[%arg11 - 1] : memref<?xmemref<?xf64>>
            %9 = affine.load %arg7[%arg11] : memref<?xmemref<?xf64>>
            %10 = affine.load %arg7[%arg11 + 1] : memref<?xmemref<?xf64>>
            %11 = affine.load %arg8[%arg11] : memref<?xmemref<?xf64>>
            omp.task   depend(taskdependin -> %7 : memref<?xf64>, taskdependin -> %8 : memref<?xf64>, taskdependin -> %9 : memref<?xf64>, taskdependin -> %10 : memref<?xf64>, taskdependout -> %11 : memref<?xf64>) {
              %12 = arith.cmpi eq, %6, %4 : i32
              affine.for %arg12 = 0 to %3 {
                %13 = arith.index_cast %arg12 : index to i32
                %14 = affine.if #set(%arg11) -> i1 {
                  affine.yield %true : i1
                } else {
                  %17 = arith.cmpi eq, %13, %c0_i32 : i32
                  affine.yield %17 : i1
                }
                %15 = scf.if %14 -> (i1) {
                  scf.yield %true : i1
                } else {
                  scf.yield %12 : i1
                }
                %16 = scf.if %15 -> (i1) {
                  scf.yield %true : i1
                } else {
                  %17 = arith.cmpi eq, %13, %5 : i32
                  scf.yield %17 : i1
                }
                scf.if %16 {
                  %17 = affine.load %arg8[%arg11] : memref<?xmemref<?xf64>>
                  %18 = affine.load %arg4[%arg11] : memref<?xmemref<?xf64>>
                  %19 = affine.load %18[%arg12] : memref<?xf64>
                  affine.store %19, %17[%arg12] : memref<?xf64>
                } else {
                  %17 = affine.load %arg8[%arg11] : memref<?xmemref<?xf64>>
                  %18 = affine.load %arg7[%arg11 - 1] : memref<?xmemref<?xf64>>
                  %19 = affine.load %18[%arg12] : memref<?xf64>
                  %20 = affine.load %arg7[%arg11] : memref<?xmemref<?xf64>>
                  %21 = affine.load %20[%arg12 + 1] : memref<?xf64>
                  %22 = arith.addf %19, %21 : f64
                  %23 = affine.load %20[%arg12 - 1] : memref<?xf64>
                  %24 = arith.addf %22, %23 : f64
                  %25 = affine.load %arg7[%arg11 + 1] : memref<?xmemref<?xf64>>
                  %26 = affine.load %25[%arg12] : memref<?xf64>
                  %27 = arith.addf %24, %26 : f64
                  %28 = affine.load %arg4[%arg11] : memref<?xmemref<?xf64>>
                  %29 = affine.load %28[%arg12] : memref<?xf64>
                  %30 = arith.mulf %29, %arg2 : f64
                  %31 = arith.mulf %30, %arg3 : f64
                  %32 = arith.addf %27, %31 : f64
                  %33 = arith.mulf %32, %cst : f64
                  affine.store %33, %17[%arg12] : memref<?xf64>
                }
              }
              omp.terminator
            }
          }
        }
        omp.terminator
      }
      omp.barrier
      omp.terminator
    }
    return
  }
  func.func private @sweep_seq(%arg0: i32, %arg1: i32, %arg2: f64, %arg3: f64, %arg4: memref<?xmemref<?xf64>>, %arg5: i32, %arg6: i32, %arg7: memref<?xmemref<?xf64>>, %arg8: memref<?xmemref<?xf64>>) attributes {llvm.linkage = #llvm.linkage<internal>} {
    %c0_i32 = arith.constant 0 : i32
    %cst = arith.constant 2.500000e-01 : f64
    %true = arith.constant true
    %c-1_i32 = arith.constant -1 : i32
    %0 = arith.index_cast %arg6 : i32 to index
    %1 = arith.index_cast %arg5 : i32 to index
    %2 = arith.index_cast %arg0 : i32 to index
    %3 = arith.index_cast %arg1 : i32 to index
    %4 = arith.index_cast %arg0 : i32 to index
    %5 = arith.index_cast %arg1 : i32 to index
    %6 = arith.addi %arg0, %c-1_i32 : i32
    %7 = arith.addi %arg1, %c-1_i32 : i32
    affine.for %arg9 = #map()[%1] to #map()[%0] {
      affine.for %arg10 = 0 to %2 {
        affine.for %arg11 = 0 to %3 {
          %8 = affine.load %arg7[%arg10] : memref<?xmemref<?xf64>>
          %9 = affine.load %arg8[%arg10] : memref<?xmemref<?xf64>>
          %10 = affine.load %9[%arg11] : memref<?xf64>
          affine.store %10, %8[%arg11] : memref<?xf64>
        }
      }
      affine.for %arg10 = 0 to %4 {
        %8 = arith.index_cast %arg10 : index to i32
        %9 = arith.cmpi eq, %8, %6 : i32
        affine.for %arg11 = 0 to %5 {
          %10 = arith.index_cast %arg11 : index to i32
          %11 = affine.if #set(%arg10) -> i1 {
            affine.yield %true : i1
          } else {
            %14 = arith.cmpi eq, %10, %c0_i32 : i32
            affine.yield %14 : i1
          }
          %12 = scf.if %11 -> (i1) {
            scf.yield %true : i1
          } else {
            scf.yield %9 : i1
          }
          %13 = scf.if %12 -> (i1) {
            scf.yield %true : i1
          } else {
            %14 = arith.cmpi eq, %10, %7 : i32
            scf.yield %14 : i1
          }
          scf.if %13 {
            %14 = affine.load %arg8[%arg10] : memref<?xmemref<?xf64>>
            %15 = affine.load %arg4[%arg10] : memref<?xmemref<?xf64>>
            %16 = affine.load %15[%arg11] : memref<?xf64>
            affine.store %16, %14[%arg11] : memref<?xf64>
          } else {
            %14 = affine.load %arg8[%arg10] : memref<?xmemref<?xf64>>
            %15 = affine.load %arg7[%arg10 - 1] : memref<?xmemref<?xf64>>
            %16 = affine.load %15[%arg11] : memref<?xf64>
            %17 = affine.load %arg7[%arg10] : memref<?xmemref<?xf64>>
            %18 = affine.load %17[%arg11 + 1] : memref<?xf64>
            %19 = arith.addf %16, %18 : f64
            %20 = affine.load %17[%arg11 - 1] : memref<?xf64>
            %21 = arith.addf %19, %20 : f64
            %22 = affine.load %arg7[%arg10 + 1] : memref<?xmemref<?xf64>>
            %23 = affine.load %22[%arg11] : memref<?xf64>
            %24 = arith.addf %21, %23 : f64
            %25 = affine.load %arg4[%arg10] : memref<?xmemref<?xf64>>
            %26 = affine.load %25[%arg11] : memref<?xf64>
            %27 = arith.mulf %26, %arg2 : f64
            %28 = arith.mulf %27, %arg3 : f64
            %29 = arith.addf %24, %28 : f64
            %30 = arith.mulf %29, %cst : f64
            affine.store %30, %14[%arg11] : memref<?xf64>
          }
        }
      }
    }
    return
  }
  func.func private @carts_test_pass_impl(memref<?xi8>, f64) -> i32 attributes {llvm.linkage = #llvm.linkage<external>}
  func.func private @carts_test_fail_impl(memref<?xi8>, memref<?xi8>) -> i32 attributes {llvm.linkage = #llvm.linkage<external>}
  func.func private @omp_get_wtime() -> f64 attributes {llvm.linkage = #llvm.linkage<external>}
}
