module attributes {arts.runtime_config_data = "[ARTS]\0A# Contract config for high-thread single-node lowering checks.\0Aworker_threads=64\0A\0A# Network configuration\0Asender_threads=0\0Areceiver_threads=0\0Aport_count=1\0A\0A# Launcher configuration\0Alauncher=local\0Amaster_node=localhost\0Anode_count=1\0Anodes=localhost\0Adefault_ports=34739\0A\0A# Scheduling\0Aworker_init_deque_size=2048\0Aroute_table_size=16\0A\0A# Debug\0Acore_dump=1\0Acounter_folder=./counters\0A", arts.runtime_static_workers = false, arts.runtime_total_nodes = 1 : i64, arts.runtime_total_workers = 64 : i64, dlti.dl_spec = #dlti.dl_spec<!llvm.ptr<270> = dense<32> : vector<4xi64>, !llvm.ptr<271> = dense<32> : vector<4xi64>, !llvm.ptr<272> = dense<64> : vector<4xi64>, i64 = dense<64> : vector<2xi64>, i128 = dense<128> : vector<2xi64>, f80 = dense<128> : vector<2xi64>, !llvm.ptr = dense<64> : vector<4xi64>, i1 = dense<8> : vector<2xi64>, i8 = dense<8> : vector<2xi64>, i16 = dense<16> : vector<2xi64>, i32 = dense<32> : vector<2xi64>, f16 = dense<16> : vector<2xi64>, f64 = dense<64> : vector<2xi64>, f128 = dense<128> : vector<2xi64>, "dlti.endianness" = "little", "dlti.mangling_mode" = "e", "dlti.legal_int_widths" = array<i32: 8, 16, 32, 64>, "dlti.stack_alignment" = 128 : i64>, llvm.data_layout = "e-m:e-p270:32:32-p271:32:32-p272:64:64-i64:64-i128:128-f80:128-n8:16:32:64-S128", llvm.target_triple = "x86_64-unknown-linux-gnu", "polygeist.target-cpu" = "x86-64", "polygeist.target-features" = "+cmov,+cx8,+fxsr,+mmx,+sse,+sse2,+x87", "polygeist.tune-cpu" = "generic"} {
  llvm.mlir.global internal constant @str3("cleanup\00") {addr_space = 0 : i32}
  llvm.mlir.global internal constant @str2("verification\00") {addr_space = 0 : i32}
  llvm.mlir.global internal constant @str1("startup\00") {addr_space = 0 : i32}
  llvm.mlir.global internal constant @str0("3mm\00") {addr_space = 0 : i32}
  func.func @main(%arg0: i32, %arg1: memref<?xmemref<?xi8>>) -> i32 attributes {llvm.linkage = #llvm.linkage<external>} {
    %c3 = arith.constant 3 : index
    %c64 = arith.constant 64 : index
    %c4 = arith.constant 4 : index
    %c-1_i32 = arith.constant -1 : i32
    %cst = arith.constant 2.560000e+02 : f64
    %c1_i32 = arith.constant 1 : i32
    %c3_i32 = arith.constant 3 : i32
    %c2_i32 = arith.constant 2 : i32
    %c1 = arith.constant 1 : index
    %c256 = arith.constant 256 : index
    %c0 = arith.constant 0 : index
    %0 = llvm.mlir.addressof @str3 : !llvm.ptr
    %cst_0 = arith.constant 0.000000e+00 : f64
    %1 = llvm.mlir.addressof @str2 : !llvm.ptr
    %2 = llvm.mlir.addressof @str1 : !llvm.ptr
    %c0_i32 = arith.constant 0 : i32
    %3 = llvm.mlir.addressof @str0 : !llvm.ptr
    call @carts_benchmarks_start() : () -> ()
    %4 = polygeist.pointer2memref %3 : !llvm.ptr to memref<?xi8>
    call @carts_e2e_timer_start(%4) : (memref<?xi8>) -> ()
    %5 = polygeist.pointer2memref %2 : !llvm.ptr to memref<?xi8>
    call @carts_phase_timer_start(%5, %4) : (memref<?xi8>, memref<?xi8>) -> ()
    %c1_1 = arith.constant 1 : index
    %c1_2 = arith.constant 1 : index
    %c1_3 = arith.constant 1 : index
    %c15 = arith.constant 15 : index
    %c1_4 = arith.constant 1 : index
    %6 = arith.maxui %c15, %c1_4 : index
    %c1_i64 = arith.constant 1 : i64
    %7 = arith.index_cast %c256 : index to i64
    %8 = arith.index_cast %6 : index to i64
    %9 = arith.addi %7, %8 : i64
    %10 = arith.subi %9, %c1_i64 : i64
    %11 = arith.divui %10, %8 : i64
    %12 = arith.index_cast %11 : i64 to index
    %c0_5 = arith.constant 0 : index
    %c1_6 = arith.constant 1 : index
    %c0_7 = arith.constant 0 : index
    %c1_8 = arith.constant 1 : index
    %c0_9 = arith.constant 0 : index
    %c1_10 = arith.constant 1 : index
    %guid, %ptr = arts.db_alloc[<inout>, <heap>, <write>, <block>, <indexed>] route(%c-1_i32 : i32) sizes[%12] elementType(f64) elementSizes[%6, %c256] {arts.id = 30 : i64, arts.memref = #arts.memref_metadata<rank = 2 : i64, allocationId = "3mm.c:107:19", totalAccesses = 4 : i64, readCount = 2 : i64, writeCount = 2 : i64, allAccessesAffine = false, hasAffineAccesses = false, hasNonAffineAccesses = true, memoryFootprint = 524288 : i64, isFlattenedArray = false, shouldCanonicalize = false, isCanonicalized = false, firstUseId = 30 : i64, lastUseId = 31 : i64, hasUniformAccess = true, hasStrideOneAccess = false, dominantAccessPattern = 0 : i64, accessedInParallelLoop = true, hasLoopCarriedDeps = false, reuseDistance = 2 : i64, hasGoodSpatialLocality = true, dimAccessPatterns = [4, 2], estimatedAccessBytes = 32 : i64>, arts.metadata_origin_id = 30 : i64, arts.metadata_provenance = "transferred", arts.read_only_after_init} : (memref<?xi64>, memref<?xmemref<?x?xf64>>)
    arts.lowering_contract(%ptr : memref<?xmemref<?x?xf64>>) block_shape[%6] contract(<ownerDims = [0], postDbRefined = true>)
    %c1_11 = arith.constant 1 : index
    %c1_12 = arith.constant 1 : index
    %c1_13 = arith.constant 1 : index
    %c15_14 = arith.constant 15 : index
    %c1_15 = arith.constant 1 : index
    %13 = arith.maxui %c15_14, %c1_15 : index
    %c1_i64_16 = arith.constant 1 : i64
    %14 = arith.index_cast %c256 : index to i64
    %15 = arith.index_cast %13 : index to i64
    %16 = arith.addi %14, %15 : i64
    %17 = arith.subi %16, %c1_i64_16 : i64
    %18 = arith.divui %17, %15 : i64
    %19 = arith.index_cast %18 : i64 to index
    %c0_17 = arith.constant 0 : index
    %c1_18 = arith.constant 1 : index
    %c0_19 = arith.constant 0 : index
    %c1_20 = arith.constant 1 : index
    %c0_21 = arith.constant 0 : index
    %c1_22 = arith.constant 1 : index
    %guid_23, %ptr_24 = arts.db_alloc[<in>, <heap>, <read>, <block>, <indexed>] route(%c-1_i32 : i32) sizes[%19] elementType(f64) elementSizes[%13, %c256] {arts.id = 32 : i64, arts.memref = #arts.memref_metadata<rank = 2 : i64, allocationId = "3mm.c:108:19", totalAccesses = 2 : i64, readCount = 1 : i64, writeCount = 1 : i64, allAccessesAffine = false, hasAffineAccesses = false, hasNonAffineAccesses = true, memoryFootprint = 524288 : i64, isFlattenedArray = false, shouldCanonicalize = false, isCanonicalized = false, firstUseId = 32 : i64, lastUseId = 33 : i64, hasUniformAccess = true, hasStrideOneAccess = false, dominantAccessPattern = 0 : i64, accessedInParallelLoop = true, hasLoopCarriedDeps = false, reuseDistance = 4 : i64, hasGoodSpatialLocality = true, dimAccessPatterns = [4, 3], estimatedAccessBytes = 16 : i64>, arts.metadata_origin_id = 32 : i64, arts.metadata_provenance = "transferred"} : (memref<?xi64>, memref<?xmemref<?x?xf64>>)
    arts.lowering_contract(%ptr_24 : memref<?xmemref<?x?xf64>>) block_shape[%13] contract(<ownerDims = [0], postDbRefined = true>)
    %c0_25 = arith.constant 0 : index
    %c1_26 = arith.constant 1 : index
    %c1_27 = arith.constant 1 : index
    %c1_28 = arith.constant 1 : index
    %c0_29 = arith.constant 0 : index
    %guid_30, %ptr_31 = arts.db_alloc[<in>, <heap>, <read>, <coarse>, <uniform>] route(%c-1_i32 : i32) sizes[%c1] elementType(f64) elementSizes[%c256, %c256] {arts.id = 34 : i64, arts.memref = #arts.memref_metadata<rank = 2 : i64, allocationId = "3mm.c:109:19", totalAccesses = 2 : i64, readCount = 1 : i64, writeCount = 1 : i64, allAccessesAffine = true, hasAffineAccesses = false, hasNonAffineAccesses = false, memoryFootprint = 524288 : i64, isFlattenedArray = false, shouldCanonicalize = false, isCanonicalized = false, firstUseId = 34 : i64, lastUseId = 35 : i64, hasUniformAccess = true, hasStrideOneAccess = false, dominantAccessPattern = 0 : i64, accessedInParallelLoop = true, hasLoopCarriedDeps = false, reuseDistance = 4 : i64, hasGoodSpatialLocality = true, dimAccessPatterns = [3, 3], estimatedAccessBytes = 16 : i64>, arts.metadata_origin_id = 34 : i64, arts.metadata_provenance = "transferred"} : (memref<?xi64>, memref<?xmemref<?x?xf64>>)
    %c1_32 = arith.constant 1 : index
    %c1_33 = arith.constant 1 : index
    %c1_34 = arith.constant 1 : index
    %c15_35 = arith.constant 15 : index
    %c1_36 = arith.constant 1 : index
    %20 = arith.maxui %c15_35, %c1_36 : index
    %c1_i64_37 = arith.constant 1 : i64
    %21 = arith.index_cast %c256 : index to i64
    %22 = arith.index_cast %20 : index to i64
    %23 = arith.addi %21, %22 : i64
    %24 = arith.subi %23, %c1_i64_37 : i64
    %25 = arith.divui %24, %22 : i64
    %26 = arith.index_cast %25 : i64 to index
    %c0_38 = arith.constant 0 : index
    %c1_39 = arith.constant 1 : index
    %c0_40 = arith.constant 0 : index
    %c1_41 = arith.constant 1 : index
    %c0_42 = arith.constant 0 : index
    %c1_43 = arith.constant 1 : index
    %guid_44, %ptr_45 = arts.db_alloc[<inout>, <heap>, <write>, <block>, <indexed>] route(%c-1_i32 : i32) sizes[%26] elementType(f64) elementSizes[%20, %c256] {arts.id = 36 : i64, arts.memref = #arts.memref_metadata<rank = 2 : i64, allocationId = "3mm.c:110:19", totalAccesses = 4 : i64, readCount = 2 : i64, writeCount = 2 : i64, allAccessesAffine = false, hasAffineAccesses = false, hasNonAffineAccesses = true, memoryFootprint = 524288 : i64, isFlattenedArray = false, shouldCanonicalize = false, isCanonicalized = false, firstUseId = 36 : i64, lastUseId = 37 : i64, hasUniformAccess = true, hasStrideOneAccess = false, dominantAccessPattern = 0 : i64, accessedInParallelLoop = true, hasLoopCarriedDeps = false, reuseDistance = 1 : i64, hasGoodSpatialLocality = true, dimAccessPatterns = [4, 3], estimatedAccessBytes = 32 : i64>, arts.metadata_origin_id = 36 : i64, arts.metadata_provenance = "transferred", arts.read_only_after_init} : (memref<?xi64>, memref<?xmemref<?x?xf64>>)
    arts.lowering_contract(%ptr_45 : memref<?xmemref<?x?xf64>>) block_shape[%20] contract(<ownerDims = [0], postDbRefined = true>)
    %c1_46 = arith.constant 1 : index
    %c1_47 = arith.constant 1 : index
    %c1_48 = arith.constant 1 : index
    %c15_49 = arith.constant 15 : index
    %c1_50 = arith.constant 1 : index
    %27 = arith.maxui %c15_49, %c1_50 : index
    %c1_i64_51 = arith.constant 1 : i64
    %28 = arith.index_cast %c256 : index to i64
    %29 = arith.index_cast %27 : index to i64
    %30 = arith.addi %28, %29 : i64
    %31 = arith.subi %30, %c1_i64_51 : i64
    %32 = arith.divui %31, %29 : i64
    %33 = arith.index_cast %32 : i64 to index
    %c0_52 = arith.constant 0 : index
    %c1_53 = arith.constant 1 : index
    %c0_54 = arith.constant 0 : index
    %c1_55 = arith.constant 1 : index
    %c0_56 = arith.constant 0 : index
    %c1_57 = arith.constant 1 : index
    %guid_58, %ptr_59 = arts.db_alloc[<in>, <heap>, <read>, <block>, <indexed>] route(%c-1_i32 : i32) sizes[%33] elementType(f64) elementSizes[%27, %c256] {arts.id = 38 : i64, arts.memref = #arts.memref_metadata<rank = 2 : i64, allocationId = "3mm.c:111:19", totalAccesses = 2 : i64, readCount = 1 : i64, writeCount = 1 : i64, allAccessesAffine = false, hasAffineAccesses = false, hasNonAffineAccesses = true, memoryFootprint = 524288 : i64, isFlattenedArray = false, shouldCanonicalize = false, isCanonicalized = false, firstUseId = 38 : i64, lastUseId = 39 : i64, hasUniformAccess = true, hasStrideOneAccess = false, dominantAccessPattern = 0 : i64, accessedInParallelLoop = true, hasLoopCarriedDeps = false, reuseDistance = 5 : i64, hasGoodSpatialLocality = true, dimAccessPatterns = [4, 3], estimatedAccessBytes = 16 : i64>, arts.metadata_origin_id = 38 : i64, arts.metadata_provenance = "transferred"} : (memref<?xi64>, memref<?xmemref<?x?xf64>>)
    arts.lowering_contract(%ptr_59 : memref<?xmemref<?x?xf64>>) block_shape[%27] contract(<ownerDims = [0], postDbRefined = true>)
    %c0_60 = arith.constant 0 : index
    %c1_61 = arith.constant 1 : index
    %c1_62 = arith.constant 1 : index
    %c1_63 = arith.constant 1 : index
    %c0_64 = arith.constant 0 : index
    %guid_65, %ptr_66 = arts.db_alloc[<in>, <heap>, <read>, <coarse>, <uniform>] route(%c-1_i32 : i32) sizes[%c1] elementType(f64) elementSizes[%c256, %c256] {arts.id = 40 : i64, arts.memref = #arts.memref_metadata<rank = 2 : i64, allocationId = "3mm.c:112:19", totalAccesses = 2 : i64, readCount = 1 : i64, writeCount = 1 : i64, allAccessesAffine = true, hasAffineAccesses = false, hasNonAffineAccesses = false, memoryFootprint = 524288 : i64, isFlattenedArray = false, shouldCanonicalize = false, isCanonicalized = false, firstUseId = 40 : i64, lastUseId = 41 : i64, hasUniformAccess = true, hasStrideOneAccess = false, dominantAccessPattern = 0 : i64, accessedInParallelLoop = true, hasLoopCarriedDeps = false, reuseDistance = 5 : i64, hasGoodSpatialLocality = true, dimAccessPatterns = [3, 3], estimatedAccessBytes = 16 : i64>, arts.metadata_origin_id = 40 : i64, arts.metadata_provenance = "transferred"} : (memref<?xi64>, memref<?xmemref<?x?xf64>>)
    %c1_67 = arith.constant 1 : index
    %c1_68 = arith.constant 1 : index
    %c1_69 = arith.constant 1 : index
    %c15_70 = arith.constant 15 : index
    %c1_71 = arith.constant 1 : index
    %34 = arith.maxui %c15_70, %c1_71 : index
    %c1_i64_72 = arith.constant 1 : i64
    %35 = arith.index_cast %c256 : index to i64
    %36 = arith.index_cast %34 : index to i64
    %37 = arith.addi %35, %36 : i64
    %38 = arith.subi %37, %c1_i64_72 : i64
    %39 = arith.divui %38, %36 : i64
    %40 = arith.index_cast %39 : i64 to index
    %c0_73 = arith.constant 0 : index
    %c1_74 = arith.constant 1 : index
    %c0_75 = arith.constant 0 : index
    %c1_76 = arith.constant 1 : index
    %c0_77 = arith.constant 0 : index
    %c1_78 = arith.constant 1 : index
    %guid_79, %ptr_80 = arts.db_alloc[<inout>, <heap>, <write>, <block>, <indexed>] route(%c-1_i32 : i32) sizes[%40] elementType(f64) elementSizes[%34, %c256] {arts.id = 42 : i64, arts.memref = #arts.memref_metadata<rank = 2 : i64, allocationId = "3mm.c:113:19", totalAccesses = 4 : i64, readCount = 2 : i64, writeCount = 2 : i64, allAccessesAffine = false, hasAffineAccesses = false, hasNonAffineAccesses = true, memoryFootprint = 524288 : i64, isFlattenedArray = false, shouldCanonicalize = false, isCanonicalized = false, firstUseId = 42 : i64, lastUseId = 43 : i64, hasUniformAccess = true, hasStrideOneAccess = false, dominantAccessPattern = 0 : i64, accessedInParallelLoop = true, hasLoopCarriedDeps = false, reuseDistance = 0 : i64, hasGoodSpatialLocality = true, dimAccessPatterns = [4, 3], estimatedAccessBytes = 32 : i64>, arts.metadata_origin_id = 42 : i64, arts.metadata_provenance = "transferred", arts.read_only_after_init} : (memref<?xi64>, memref<?xmemref<?x?xf64>>)
    arts.lowering_contract(%ptr_80 : memref<?xmemref<?x?xf64>>) block_shape[%34] contract(<ownerDims = [0], postDbRefined = true>)
    %c0_81 = arith.constant 0 : index
    scf.for %arg2 = %c0 to %c256 step %c1 {
      %46 = arith.index_cast %arg2 : index to i32
      %47 = arith.sitofp %46 : i32 to f64
      scf.for %arg3 = %c0 to %c256 step %c1 {
        %48 = arith.index_cast %arg3 : index to i32
        %49 = arith.sitofp %48 : i32 to f64
        %50 = arith.mulf %47, %49 : f64
        %51 = arith.divf %50, %cst : f64
        %c1_82 = arith.constant 1 : index
        %52 = arith.maxui %13, %c1_82 : index
        %53 = arith.divui %arg2, %52 : index
        %54 = arith.subi %53, %c0_25 : index
        %55 = arith.remui %arg2, %52 : index
        %56 = arts.db_ref %ptr_24[%54] : memref<?xmemref<?x?xf64>> -> memref<?x?xf64>
        memref.store %51, %56[%55, %arg3] : memref<?x?xf64>
      }
    }
    scf.for %arg2 = %c0 to %c256 step %c1 {
      %46 = arith.index_cast %arg2 : index to i32
      %47 = arith.sitofp %46 : i32 to f64
      scf.for %arg3 = %c0 to %c256 step %c1 {
        %48 = arith.index_cast %arg3 : index to i32
        %49 = arith.addi %48, %c1_i32 : i32
        %50 = arith.sitofp %49 : i32 to f64
        %51 = arith.mulf %47, %50 : f64
        %52 = arith.divf %51, %cst : f64
        %53 = arts.db_ref %ptr_31[%c0] : memref<?xmemref<?x?xf64>> -> memref<?x?xf64>
        memref.store %52, %53[%arg2, %arg3] : memref<?x?xf64>
      }
    }
    scf.for %arg2 = %c0 to %c256 step %c1 {
      %46 = arith.index_cast %arg2 : index to i32
      %47 = arith.sitofp %46 : i32 to f64
      scf.for %arg3 = %c0 to %c256 step %c1 {
        %48 = arith.index_cast %arg3 : index to i32
        %49 = arith.addi %48, %c3_i32 : i32
        %50 = arith.sitofp %49 : i32 to f64
        %51 = arith.mulf %47, %50 : f64
        %52 = arith.divf %51, %cst : f64
        %c1_82 = arith.constant 1 : index
        %53 = arith.maxui %27, %c1_82 : index
        %54 = arith.divui %arg2, %53 : index
        %55 = arith.subi %54, %c0_60 : index
        %56 = arith.remui %arg2, %53 : index
        %57 = arts.db_ref %ptr_59[%55] : memref<?xmemref<?x?xf64>> -> memref<?x?xf64>
        memref.store %52, %57[%56, %arg3] : memref<?x?xf64>
      }
    }
    scf.for %arg2 = %c0 to %c256 step %c1 {
      %46 = arith.index_cast %arg2 : index to i32
      %47 = arith.sitofp %46 : i32 to f64
      scf.for %arg3 = %c0 to %c256 step %c1 {
        %48 = arith.index_cast %arg3 : index to i32
        %49 = arith.addi %48, %c2_i32 : i32
        %50 = arith.sitofp %49 : i32 to f64
        %51 = arith.mulf %47, %50 : f64
        %52 = arith.divf %51, %cst : f64
        %53 = arts.db_ref %ptr_66[%c0] : memref<?xmemref<?x?xf64>> -> memref<?x?xf64>
        memref.store %52, %53[%arg2, %arg3] : memref<?x?xf64>
      }
    }
    call @carts_phase_timer_stop(%5) : (memref<?xi8>) -> ()
    call @carts_kernel_timer_start(%4) : (memref<?xi8>) -> ()
    %41 = arts.epoch attributes {arts.pattern_revision = 2 : i64, arts.plan.async_strategy = "blocking", arts.plan.cost.expected_local_work = 0 : i64, arts.plan.cost.relaunch_amortization = 0 : i64, arts.plan.cost.scheduler_overhead = 300 : i64, arts.plan.cost.slice_widening_pressure = 0 : i64, arts.plan.iteration_topology = "owner_strip", arts.plan.kernel_family = "uniform", arts.plan.repetition_structure = "none", depPattern = #arts.dep_pattern<uniform>, distribution_kind = #arts.distribution_kind<block>, distribution_pattern = #arts.distribution_pattern<uniform>, distribution_version = 1 : i32} {
      scf.for %arg2 = %c0 to %c64 step %c1 {
        %46 = arith.muli %arg2, %c4 : index
        %47 = arith.cmpi uge, %46, %c256 : index
        %48 = arith.subi %c256, %46 : index
        %49 = arith.select %47, %c0, %48 : index
        %50 = arith.minui %49, %c4 : index
        %51 = arith.cmpi ugt, %50, %c0 : index
        scf.if %51 {
          %52 = arith.divui %46, %c256 : index
          %53 = arith.addi %46, %c3 : index
          %54 = arith.divui %53, %c256 : index
          %55 = arith.cmpi ugt, %52, %c0 : index
          %56 = arith.select %55, %54, %c0 : index
          %57 = arith.subi %56, %52 : index
          %58 = arith.addi %57, %c1 : index
          %59 = arith.select %55, %c0, %52 : index
          %60 = arith.select %55, %c0, %58 : index
          %c1_82 = arith.constant 1 : index
          %c0_83 = arith.constant 0 : index
          %61 = arith.maxui %6, %c1_82 : index
          %62 = arith.muli %12, %61 : index
          %63 = arith.divui %46, %61 : index
          %64 = arith.addi %46, %c4 : index
          %65 = arith.subi %64, %c1_82 : index
          %66 = arith.divui %65, %61 : index
          %67 = arith.subi %12, %c1_82 : index
          %68 = arith.cmpi ugt, %63, %67 : index
          %69 = arith.minui %66, %67 : index
          %70 = arith.select %68, %66, %69 : index
          %71 = arith.subi %70, %63 : index
          %72 = arith.addi %71, %c1_82 : index
          %73 = arith.select %68, %c0_83, %63 : index
          %74 = arith.select %68, %c0_83, %72 : index
          %guid_84, %ptr_85 = arts.db_acquire[<inout>] (%guid : memref<?xi64>, %ptr : memref<?xmemref<?x?xf64>>) partitioning(<block>, offsets[%46], sizes[%c4]), offsets[%73], sizes[%c1_82] {arts.partition_hint = {blockSize = 15 : i64, mode = 1 : i8}, arts.pattern_revision = 2 : i64, depPattern = #arts.dep_pattern<uniform>, distribution_kind = #arts.distribution_kind<block>, distribution_pattern = #arts.distribution_pattern<uniform>, distribution_version = 1 : i32, stencil_block_shape = [4, 256], stencil_owner_dims = [0]} -> (memref<?xi64>, memref<?xmemref<?x?xf64>>)
          arts.lowering_contract(%ptr_85 : memref<?xmemref<?x?xf64>>) pattern(<depPattern = <uniform>, distributionKind = <block>, distributionPattern = <uniform>, distributionVersion = 1 : i64, revision = 2 : i64>) block_shape[%c4] contract(<ownerDims = [0]>)
          %75 = arith.addi %46, %50 : index
          %76 = arith.cmpi uge, %46, %c1 : index
          %77 = arith.subi %46, %c1 : index
          %78 = arith.select %76, %77, %c0 : index
          %79 = arith.addi %75, %c1 : index
          %80 = arith.minui %79, %c256 : index
          %81 = arith.cmpi uge, %80, %78 : index
          %82 = arith.subi %80, %78 : index
          %83 = arith.select %81, %82, %c0 : index
          %84 = arith.maxui %83, %c1 : index
          %85 = arith.divui %78, %c256 : index
          %86 = arith.addi %78, %84 : index
          %87 = arith.subi %86, %c1 : index
          %88 = arith.divui %87, %c256 : index
          %89 = arith.cmpi ugt, %85, %c0 : index
          %90 = arith.select %89, %88, %c0 : index
          %91 = arith.subi %90, %85 : index
          %92 = arith.addi %91, %c1 : index
          %93 = arith.select %89, %c0, %85 : index
          %94 = arith.select %89, %c0, %92 : index
          %c1_86 = arith.constant 1 : index
          %c0_87 = arith.constant 0 : index
          %95 = arith.maxui %13, %c1_86 : index
          %96 = arith.muli %19, %95 : index
          %97 = arith.divui %78, %95 : index
          %98 = arith.addi %78, %83 : index
          %99 = arith.subi %98, %c1_86 : index
          %100 = arith.divui %99, %95 : index
          %101 = arith.subi %19, %c1_86 : index
          %102 = arith.cmpi ugt, %97, %101 : index
          %103 = arith.minui %100, %101 : index
          %104 = arith.select %102, %100, %103 : index
          %105 = arith.subi %104, %97 : index
          %106 = arith.addi %105, %c1_86 : index
          %107 = arith.select %102, %c0_87, %97 : index
          %108 = arith.select %102, %c0_87, %106 : index
          %guid_88, %ptr_89 = arts.db_acquire[<in>] (%guid_23 : memref<?xi64>, %ptr_24 : memref<?xmemref<?x?xf64>>) partitioning(<block>, offsets[%78], sizes[%83]), offsets[%107], sizes[%108] element_offsets[%78] element_sizes[%83] {arts.partition_hint = {blockSize = 15 : i64, mode = 1 : i8}, arts.pattern_revision = 2 : i64, depPattern = #arts.dep_pattern<uniform>, distribution_kind = #arts.distribution_kind<block>, distribution_pattern = #arts.distribution_pattern<uniform>, distribution_version = 1 : i32, stencil_block_shape = [4, 256], stencil_owner_dims = [0]} -> (memref<?xi64>, memref<?xmemref<?x?xf64>>)
          arts.lowering_contract(%ptr_89 : memref<?xmemref<?x?xf64>>) pattern(<depPattern = <uniform>, distributionKind = <block>, distributionPattern = <uniform>, distributionVersion = 1 : i64, revision = 2 : i64>) block_shape[%c4] contract(<ownerDims = [0]>)
          %c0_90 = arith.constant 0 : index
          %guid_91, %ptr_92 = arts.db_acquire[<in>] (%guid_30 : memref<?xi64>, %ptr_31 : memref<?xmemref<?x?xf64>>) partitioning(<coarse>), offsets[%c0_29], sizes[%c1] {arts.id = 163 : i64, arts.partition_hint = {blockSize = 15 : i64, mode = 1 : i8}, arts.pattern_revision = 2 : i64, depPattern = #arts.dep_pattern<uniform>, distribution_kind = #arts.distribution_kind<block>, distribution_pattern = #arts.distribution_pattern<uniform>, distribution_version = 1 : i32, stencil_block_shape = []} -> (memref<?xi64>, memref<?xmemref<?x?xf64>>)
          arts.lowering_contract(%ptr_92 : memref<?xmemref<?x?xf64>>) pattern(<depPattern = <uniform>, distributionKind = <block>, distributionPattern = <uniform>, distributionVersion = 1 : i64, revision = 2 : i64>) contract(<postDbRefined = true>)
          %c1_93 = arith.constant 1 : index
          %c0_94 = arith.constant 0 : index
          %guid_95, %ptr_96 = arts.db_acquire[<inout>] (%guid_44 : memref<?xi64>, %ptr_45 : memref<?xmemref<?x?xf64>>) partitioning(<block>, offsets[%46], sizes[%c4]), offsets[%c0_94], sizes[%26] {arts.partition_hint = {blockSize = 15 : i64, mode = 1 : i8}, arts.pattern_revision = 2 : i64, depPattern = #arts.dep_pattern<uniform>, distribution_kind = #arts.distribution_kind<block>, distribution_pattern = #arts.distribution_pattern<uniform>, distribution_version = 1 : i32, stencil_block_shape = []} -> (memref<?xi64>, memref<?xmemref<?x?xf64>>)
          arts.lowering_contract(%ptr_96 : memref<?xmemref<?x?xf64>>) pattern(<depPattern = <uniform>, distributionKind = <block>, distributionPattern = <uniform>, distributionVersion = 1 : i64, revision = 2 : i64>)
          %c1_97 = arith.constant 1 : index
          %c0_98 = arith.constant 0 : index
          %guid_99, %ptr_100 = arts.db_acquire[<in>] (%guid_58 : memref<?xi64>, %ptr_59 : memref<?xmemref<?x?xf64>>) partitioning(<block>, offsets[%78], sizes[%83]), offsets[%c0_98], sizes[%33] {arts.id = 166 : i64, arts.partition_hint = {blockSize = 15 : i64, mode = 1 : i8}, arts.pattern_revision = 2 : i64, depPattern = #arts.dep_pattern<uniform>, distribution_kind = #arts.distribution_kind<block>, distribution_pattern = #arts.distribution_pattern<uniform>, distribution_version = 1 : i32, stencil_block_shape = []} -> (memref<?xi64>, memref<?xmemref<?x?xf64>>)
          arts.lowering_contract(%ptr_100 : memref<?xmemref<?x?xf64>>) pattern(<depPattern = <uniform>, distributionKind = <block>, distributionPattern = <uniform>, distributionVersion = 1 : i64, revision = 2 : i64>)
          %guid_101, %ptr_102 = arts.db_acquire[<in>] (%guid_65 : memref<?xi64>, %ptr_66 : memref<?xmemref<?x?xf64>>) partitioning(<coarse>), offsets[%c0_64], sizes[%c1] {arts.id = 157 : i64, arts.partition_hint = {blockSize = 15 : i64, mode = 1 : i8}, arts.pattern_revision = 2 : i64, depPattern = #arts.dep_pattern<uniform>, distribution_kind = #arts.distribution_kind<block>, distribution_pattern = #arts.distribution_pattern<uniform>, distribution_version = 1 : i32, stencil_block_shape = []} -> (memref<?xi64>, memref<?xmemref<?x?xf64>>)
          arts.lowering_contract(%ptr_102 : memref<?xmemref<?x?xf64>>) pattern(<depPattern = <uniform>, distributionKind = <block>, distributionPattern = <uniform>, distributionVersion = 1 : i64, revision = 2 : i64>) contract(<postDbRefined = true>)
          %c1_103 = arith.constant 1 : index
          %c0_104 = arith.constant 0 : index
          %guid_105, %ptr_106 = arts.db_acquire[<inout>] (%guid_79 : memref<?xi64>, %ptr_80 : memref<?xmemref<?x?xf64>>) partitioning(<block>, offsets[%46], sizes[%c4]), offsets[%c0_104], sizes[%40] {arts.partition_hint = {blockSize = 15 : i64, mode = 1 : i8}, arts.pattern_revision = 2 : i64, depPattern = #arts.dep_pattern<uniform>, distribution_kind = #arts.distribution_kind<block>, distribution_pattern = #arts.distribution_pattern<uniform>, distribution_version = 1 : i32, stencil_block_shape = []} -> (memref<?xi64>, memref<?xmemref<?x?xf64>>)
          arts.lowering_contract(%ptr_106 : memref<?xmemref<?x?xf64>>) pattern(<depPattern = <uniform>, distributionKind = <block>, distributionPattern = <uniform>, distributionVersion = 1 : i64, revision = 2 : i64>)
          arts.edt <task> <intranode> route(%c-1_i32) (%ptr_85, %ptr_89, %ptr_92, %ptr_96, %ptr_100, %ptr_102, %ptr_106) : memref<?xmemref<?x?xf64>>, memref<?xmemref<?x?xf64>>, memref<?xmemref<?x?xf64>>, memref<?xmemref<?x?xf64>>, memref<?xmemref<?x?xf64>>, memref<?xmemref<?x?xf64>>, memref<?xmemref<?x?xf64>> attributes {arts.id = 154 : i64, arts.pattern_revision = 2 : i64, arts.plan.async_strategy = "blocking", arts.plan.cost.expected_local_work = 0 : i64, arts.plan.cost.relaunch_amortization = 0 : i64, arts.plan.cost.scheduler_overhead = 300 : i64, arts.plan.cost.slice_widening_pressure = 0 : i64, arts.plan.iteration_topology = "owner_strip", arts.plan.kernel_family = "uniform", arts.plan.repetition_structure = "none", depPattern = #arts.dep_pattern<uniform>, distribution_kind = #arts.distribution_kind<block>, distribution_pattern = #arts.distribution_pattern<uniform>, distribution_version = 1 : i32, stencil_block_shape = [4, 256]} {
          ^bb0(%arg3: memref<?xmemref<?x?xf64>>, %arg4: memref<?xmemref<?x?xf64>>, %arg5: memref<?xmemref<?x?xf64>>, %arg6: memref<?xmemref<?x?xf64>>, %arg7: memref<?xmemref<?x?xf64>>, %arg8: memref<?xmemref<?x?xf64>>, %arg9: memref<?xmemref<?x?xf64>>):
            %c1_107 = arith.constant 1 : index
            %c0_108 = arith.constant 0 : index
            %109 = arith.maxui %27, %c1_107 : index
            %c0_109 = arith.constant 0 : index
            %c1_110 = arith.constant 1 : index
            %c0_111 = arith.constant 0 : index
            %110 = arith.maxui %34, %c1_110 : index
            %c0_112 = arith.constant 0 : index
            %c1_113 = arith.constant 1 : index
            %c0_114 = arith.constant 0 : index
            %111 = arith.maxui %20, %c1_113 : index
            %c0_115 = arith.constant 0 : index
            %c1_116 = arith.constant 1 : index
            %c0_117 = arith.constant 0 : index
            %112 = arith.maxui %13, %c1_116 : index
            %c0_118 = arith.constant 0 : index
            %c4_119 = arith.constant 4 : index
            %113 = arith.muli %arg2, %c4_119 : index
            %c1_120 = arith.constant 1 : index
            %114 = arith.subi %113, %c1_120 : index
            %c0_121 = arith.constant 0 : index
            %115 = arith.select %76, %114, %c0_121 : index
            %c15_122 = arith.constant 15 : index
            %c1_123 = arith.constant 1 : index
            %116 = arith.maxui %c15_122, %c1_123 : index
            %c1_124 = arith.constant 1 : index
            %117 = arith.maxui %116, %c1_124 : index
            %118 = arith.divui %115, %117 : index
            %119 = arith.select %102, %c0_118, %118 : index
            %c1_125 = arith.constant 1 : index
            %c0_126 = arith.constant 0 : index
            %120 = arith.maxui %6, %c1_125 : index
            %c0_127 = arith.constant 0 : index
            %c4_128 = arith.constant 4 : index
            %121 = arith.muli %arg2, %c4_128 : index
            %c15_129 = arith.constant 15 : index
            %c1_130 = arith.constant 1 : index
            %122 = arith.maxui %c15_129, %c1_130 : index
            %c1_131 = arith.constant 1 : index
            %123 = arith.maxui %122, %c1_131 : index
            %124 = arith.divui %121, %123 : index
            %125 = arith.select %68, %c0_127, %124 : index
            %126 = arith.subi %c0, %46 : index
            %127 = arith.cmpi slt, %126, %c0 : index
            %128 = arith.select %127, %c0, %126 : index
            %129 = arith.cmpi slt, %48, %c0 : index
            %130 = arith.select %129, %c0, %48 : index
            %131 = arith.minui %130, %50 : index
            scf.for %arg10 = %128 to %131 step %c1 {
              %132 = arith.addi %46, %arg10 : index
              scf.for %arg11 = %c0 to %c256 step %c1 {
                %c1_132 = arith.constant 1 : index
                %133 = arith.maxui %120, %c1_132 : index
                %c0_133 = arith.constant 0 : index
                %c1_134 = arith.constant 1 : index
                %c-1 = arith.constant -1 : index
                %134 = arith.addi %46, %128 : index
                %135 = arith.divui %134, %133 : index
                %136 = arith.remui %134, %133 : index
                %137 = arith.subi %arg10, %128 : index
                %138 = arith.addi %136, %137 : index
                %139 = arith.subi %135, %125 : index
                %140 = arith.cmpi slt, %138, %c0_133 : index
                %141 = arith.cmpi sge, %138, %133 : index
                %142 = arith.select %140, %c-1, %c0_133 : index
                %143 = arith.select %141, %c1_134, %142 : index
                %144 = arith.addi %139, %143 : index
                %145 = arith.subi %138, %133 : index
                %146 = arith.addi %138, %133 : index
                %147 = arith.select %140, %146, %138 : index
                %148 = arith.select %141, %145, %147 : index
                %149 = arts.db_ref %arg3[%c0_126] : memref<?xmemref<?x?xf64>> -> memref<?x?xf64>
                memref.store %cst_0, %149[%148, %arg11] : memref<?x?xf64>
              } {arts.id = 143 : i64, arts.loop = #arts.loop_metadata<potentiallyParallel = false, hasReductions = false, tripCount = 256 : i64, nestingLevel = 1 : i64, hasInterIterationDeps = false, memrefsWithLoopCarriedDeps = 0 : i64, parallelClassification = 0 : i64, locationKey = "3mm.c:137:3">, arts.metadata_provenance = "exact"}
              scf.for %arg11 = %c0 to %c256 step %c1 {
                scf.for %arg12 = %c0 to %c256 step %c1 {
                  %c1_132 = arith.constant 1 : index
                  %133 = arith.maxui %112, %c1_132 : index
                  %c0_133 = arith.constant 0 : index
                  %c1_134 = arith.constant 1 : index
                  %c-1 = arith.constant -1 : index
                  %134 = arith.addi %46, %128 : index
                  %135 = arith.divui %134, %133 : index
                  %136 = arith.remui %134, %133 : index
                  %137 = arith.subi %arg10, %128 : index
                  %138 = arith.addi %136, %137 : index
                  %139 = arith.subi %135, %119 : index
                  %140 = arith.cmpi slt, %138, %c0_133 : index
                  %141 = arith.cmpi sge, %138, %133 : index
                  %142 = arith.select %140, %c-1, %c0_133 : index
                  %143 = arith.select %141, %c1_134, %142 : index
                  %144 = arith.addi %139, %143 : index
                  %145 = arith.subi %138, %133 : index
                  %146 = arith.addi %138, %133 : index
                  %147 = arith.select %140, %146, %138 : index
                  %148 = arith.select %141, %145, %147 : index
                  %149 = arts.db_ref %arg4[%144] : memref<?xmemref<?x?xf64>> -> memref<?x?xf64>
                  %150 = memref.load %149[%148, %arg11] : memref<?x?xf64>
                  %151 = arts.db_ref %arg5[%c0] : memref<?xmemref<?x?xf64>> -> memref<?x?xf64>
                  %152 = memref.load %151[%arg11, %arg12] : memref<?x?xf64>
                  %153 = arith.mulf %150, %152 : f64
                  %c1_135 = arith.constant 1 : index
                  %154 = arith.maxui %120, %c1_135 : index
                  %c0_136 = arith.constant 0 : index
                  %c1_137 = arith.constant 1 : index
                  %c-1_138 = arith.constant -1 : index
                  %155 = arith.addi %46, %128 : index
                  %156 = arith.divui %155, %154 : index
                  %157 = arith.remui %155, %154 : index
                  %158 = arith.subi %arg10, %128 : index
                  %159 = arith.addi %157, %158 : index
                  %160 = arith.subi %156, %125 : index
                  %161 = arith.cmpi slt, %159, %c0_136 : index
                  %162 = arith.cmpi sge, %159, %154 : index
                  %163 = arith.select %161, %c-1_138, %c0_136 : index
                  %164 = arith.select %162, %c1_137, %163 : index
                  %165 = arith.addi %160, %164 : index
                  %166 = arith.subi %159, %154 : index
                  %167 = arith.addi %159, %154 : index
                  %168 = arith.select %161, %167, %159 : index
                  %169 = arith.select %162, %166, %168 : index
                  %170 = arts.db_ref %arg3[%c0_126] : memref<?xmemref<?x?xf64>> -> memref<?x?xf64>
                  %171 = memref.load %170[%169, %arg12] : memref<?x?xf64>
                  %172 = arith.addf %171, %153 : f64
                  %c1_139 = arith.constant 1 : index
                  %173 = arith.maxui %120, %c1_139 : index
                  %c0_140 = arith.constant 0 : index
                  %c1_141 = arith.constant 1 : index
                  %c-1_142 = arith.constant -1 : index
                  %174 = arith.addi %46, %128 : index
                  %175 = arith.divui %174, %173 : index
                  %176 = arith.remui %174, %173 : index
                  %177 = arith.subi %arg10, %128 : index
                  %178 = arith.addi %176, %177 : index
                  %179 = arith.subi %175, %125 : index
                  %180 = arith.cmpi slt, %178, %c0_140 : index
                  %181 = arith.cmpi sge, %178, %173 : index
                  %182 = arith.select %180, %c-1_142, %c0_140 : index
                  %183 = arith.select %181, %c1_141, %182 : index
                  %184 = arith.addi %179, %183 : index
                  %185 = arith.subi %178, %173 : index
                  %186 = arith.addi %178, %173 : index
                  %187 = arith.select %180, %186, %178 : index
                  %188 = arith.select %181, %185, %187 : index
                  %189 = arts.db_ref %arg3[%c0_126] : memref<?xmemref<?x?xf64>> -> memref<?x?xf64>
                  memref.store %172, %189[%188, %arg12] : memref<?x?xf64>
                } {arts.id = 145 : i64, arts.loop = #arts.loop_metadata<potentiallyParallel = false, hasReductions = false, tripCount = 256 : i64, nestingLevel = 2 : i64, hasInterIterationDeps = false, memrefsWithLoopCarriedDeps = 0 : i64, parallelClassification = 0 : i64, locationKey = "3mm.c:137:3">, arts.metadata_origin_id = 145 : i64, arts.metadata_provenance = "transferred"}
              } {arts.id = 144 : i64, arts.loop = #arts.loop_metadata<potentiallyParallel = false, hasReductions = false, tripCount = 256 : i64, nestingLevel = 1 : i64, hasInterIterationDeps = false, memrefsWithLoopCarriedDeps = 0 : i64, parallelClassification = 0 : i64, locationKey = "3mm.c:137:3">, arts.metadata_origin_id = 144 : i64, arts.metadata_provenance = "transferred"}
            } {arts.id = 151 : i64, arts.loop = #arts.loop_metadata<potentiallyParallel = true, hasReductions = false, tripCount = 0 : i64, nestingLevel = 1 : i64, hasInterIterationDeps = false, memrefsWithLoopCarriedDeps = 0 : i64, parallelClassification = 2 : i64, locationKey = "3mm.c:137:3">, arts.metadata_provenance = "exact"}
            arts.db_release(%arg3) : memref<?xmemref<?x?xf64>>
            arts.db_release(%arg4) : memref<?xmemref<?x?xf64>>
            arts.db_release(%arg5) : memref<?xmemref<?x?xf64>>
            arts.db_release(%arg6) : memref<?xmemref<?x?xf64>>
            arts.db_release(%arg7) : memref<?xmemref<?x?xf64>>
            arts.db_release(%arg8) : memref<?xmemref<?x?xf64>>
            arts.db_release(%arg9) : memref<?xmemref<?x?xf64>>
          }
        }
      }
      scf.for %arg2 = %c0 to %c64 step %c1 {
        %46 = arith.muli %arg2, %c4 : index
        %47 = arith.cmpi uge, %46, %c256 : index
        %48 = arith.subi %c256, %46 : index
        %49 = arith.select %47, %c0, %48 : index
        %50 = arith.minui %49, %c4 : index
        %51 = arith.cmpi ugt, %50, %c0 : index
        scf.if %51 {
          %52 = arith.divui %46, %c256 : index
          %53 = arith.addi %46, %c3 : index
          %54 = arith.divui %53, %c256 : index
          %55 = arith.cmpi ugt, %52, %c0 : index
          %56 = arith.select %55, %54, %c0 : index
          %57 = arith.subi %56, %52 : index
          %58 = arith.addi %57, %c1 : index
          %59 = arith.select %55, %c0, %52 : index
          %60 = arith.select %55, %c0, %58 : index
          %c1_82 = arith.constant 1 : index
          %c0_83 = arith.constant 0 : index
          %guid_84, %ptr_85 = arts.db_acquire[<inout>] (%guid : memref<?xi64>, %ptr : memref<?xmemref<?x?xf64>>) partitioning(<block>, offsets[%46], sizes[%c4]), offsets[%c0_83], sizes[%12] {arts.partition_hint = {blockSize = 15 : i64, mode = 1 : i8}, arts.pattern_revision = 2 : i64, depPattern = #arts.dep_pattern<uniform>, distribution_kind = #arts.distribution_kind<block>, distribution_pattern = #arts.distribution_pattern<uniform>, distribution_version = 1 : i32, stencil_block_shape = []} -> (memref<?xi64>, memref<?xmemref<?x?xf64>>)
          arts.lowering_contract(%ptr_85 : memref<?xmemref<?x?xf64>>) pattern(<depPattern = <uniform>, distributionKind = <block>, distributionPattern = <uniform>, distributionVersion = 1 : i64, revision = 2 : i64>)
          %61 = arith.addi %46, %50 : index
          %62 = arith.cmpi uge, %46, %c1 : index
          %63 = arith.subi %46, %c1 : index
          %64 = arith.select %62, %63, %c0 : index
          %65 = arith.addi %61, %c1 : index
          %66 = arith.minui %65, %c256 : index
          %67 = arith.cmpi uge, %66, %64 : index
          %68 = arith.subi %66, %64 : index
          %69 = arith.select %67, %68, %c0 : index
          %70 = arith.maxui %69, %c1 : index
          %71 = arith.divui %64, %c256 : index
          %72 = arith.addi %64, %70 : index
          %73 = arith.subi %72, %c1 : index
          %74 = arith.divui %73, %c256 : index
          %75 = arith.cmpi ugt, %71, %c0 : index
          %76 = arith.select %75, %74, %c0 : index
          %77 = arith.subi %76, %71 : index
          %78 = arith.addi %77, %c1 : index
          %79 = arith.select %75, %c0, %71 : index
          %80 = arith.select %75, %c0, %78 : index
          %c1_86 = arith.constant 1 : index
          %c0_87 = arith.constant 0 : index
          %guid_88, %ptr_89 = arts.db_acquire[<in>] (%guid_23 : memref<?xi64>, %ptr_24 : memref<?xmemref<?x?xf64>>) partitioning(<block>, offsets[%64], sizes[%69]), offsets[%c0_87], sizes[%19] {arts.id = 160 : i64, arts.partition_hint = {blockSize = 15 : i64, mode = 1 : i8}, arts.pattern_revision = 2 : i64, depPattern = #arts.dep_pattern<uniform>, distribution_kind = #arts.distribution_kind<block>, distribution_pattern = #arts.distribution_pattern<uniform>, distribution_version = 1 : i32, stencil_block_shape = []} -> (memref<?xi64>, memref<?xmemref<?x?xf64>>)
          arts.lowering_contract(%ptr_89 : memref<?xmemref<?x?xf64>>) pattern(<depPattern = <uniform>, distributionKind = <block>, distributionPattern = <uniform>, distributionVersion = 1 : i64, revision = 2 : i64>)
          %guid_90, %ptr_91 = arts.db_acquire[<in>] (%guid_30 : memref<?xi64>, %ptr_31 : memref<?xmemref<?x?xf64>>) partitioning(<coarse>), offsets[%c0_29], sizes[%c1] {arts.id = 164 : i64, arts.partition_hint = {blockSize = 15 : i64, mode = 1 : i8}, arts.pattern_revision = 2 : i64, depPattern = #arts.dep_pattern<uniform>, distribution_kind = #arts.distribution_kind<block>, distribution_pattern = #arts.distribution_pattern<uniform>, distribution_version = 1 : i32, stencil_block_shape = []} -> (memref<?xi64>, memref<?xmemref<?x?xf64>>)
          arts.lowering_contract(%ptr_91 : memref<?xmemref<?x?xf64>>) pattern(<depPattern = <uniform>, distributionKind = <block>, distributionPattern = <uniform>, distributionVersion = 1 : i64, revision = 2 : i64>) contract(<postDbRefined = true>)
          %c1_92 = arith.constant 1 : index
          %c0_93 = arith.constant 0 : index
          %81 = arith.maxui %20, %c1_92 : index
          %82 = arith.muli %26, %81 : index
          %83 = arith.divui %46, %81 : index
          %84 = arith.addi %46, %c4 : index
          %85 = arith.subi %84, %c1_92 : index
          %86 = arith.divui %85, %81 : index
          %87 = arith.subi %26, %c1_92 : index
          %88 = arith.cmpi ugt, %83, %87 : index
          %89 = arith.minui %86, %87 : index
          %90 = arith.select %88, %86, %89 : index
          %91 = arith.subi %90, %83 : index
          %92 = arith.addi %91, %c1_92 : index
          %93 = arith.select %88, %c0_93, %83 : index
          %94 = arith.select %88, %c0_93, %92 : index
          %guid_94, %ptr_95 = arts.db_acquire[<inout>] (%guid_44 : memref<?xi64>, %ptr_45 : memref<?xmemref<?x?xf64>>) partitioning(<block>, offsets[%46], sizes[%c4]), offsets[%93], sizes[%c1_92] {arts.partition_hint = {blockSize = 15 : i64, mode = 1 : i8}, arts.pattern_revision = 2 : i64, depPattern = #arts.dep_pattern<uniform>, distribution_kind = #arts.distribution_kind<block>, distribution_pattern = #arts.distribution_pattern<uniform>, distribution_version = 1 : i32, stencil_block_shape = [4, 256], stencil_owner_dims = [0]} -> (memref<?xi64>, memref<?xmemref<?x?xf64>>)
          arts.lowering_contract(%ptr_95 : memref<?xmemref<?x?xf64>>) pattern(<depPattern = <uniform>, distributionKind = <block>, distributionPattern = <uniform>, distributionVersion = 1 : i64, revision = 2 : i64>) block_shape[%c4] contract(<ownerDims = [0]>)
          %c1_96 = arith.constant 1 : index
          %c0_97 = arith.constant 0 : index
          %95 = arith.maxui %27, %c1_96 : index
          %96 = arith.muli %33, %95 : index
          %97 = arith.divui %64, %95 : index
          %98 = arith.addi %64, %69 : index
          %99 = arith.subi %98, %c1_96 : index
          %100 = arith.divui %99, %95 : index
          %101 = arith.subi %33, %c1_96 : index
          %102 = arith.cmpi ugt, %97, %101 : index
          %103 = arith.minui %100, %101 : index
          %104 = arith.select %102, %100, %103 : index
          %105 = arith.subi %104, %97 : index
          %106 = arith.addi %105, %c1_96 : index
          %107 = arith.select %102, %c0_97, %97 : index
          %108 = arith.select %102, %c0_97, %106 : index
          %guid_98, %ptr_99 = arts.db_acquire[<in>] (%guid_58 : memref<?xi64>, %ptr_59 : memref<?xmemref<?x?xf64>>) partitioning(<block>, offsets[%64], sizes[%69]), offsets[%107], sizes[%108] element_offsets[%64] element_sizes[%69] {arts.partition_hint = {blockSize = 15 : i64, mode = 1 : i8}, arts.pattern_revision = 2 : i64, depPattern = #arts.dep_pattern<uniform>, distribution_kind = #arts.distribution_kind<block>, distribution_pattern = #arts.distribution_pattern<uniform>, distribution_version = 1 : i32, stencil_block_shape = [4, 256], stencil_owner_dims = [0]} -> (memref<?xi64>, memref<?xmemref<?x?xf64>>)
          arts.lowering_contract(%ptr_99 : memref<?xmemref<?x?xf64>>) pattern(<depPattern = <uniform>, distributionKind = <block>, distributionPattern = <uniform>, distributionVersion = 1 : i64, revision = 2 : i64>) block_shape[%c4] contract(<ownerDims = [0]>)
          %c0_100 = arith.constant 0 : index
          %guid_101, %ptr_102 = arts.db_acquire[<in>] (%guid_65 : memref<?xi64>, %ptr_66 : memref<?xmemref<?x?xf64>>) partitioning(<coarse>), offsets[%c0_64], sizes[%c1] {arts.id = 158 : i64, arts.partition_hint = {blockSize = 15 : i64, mode = 1 : i8}, arts.pattern_revision = 2 : i64, depPattern = #arts.dep_pattern<uniform>, distribution_kind = #arts.distribution_kind<block>, distribution_pattern = #arts.distribution_pattern<uniform>, distribution_version = 1 : i32, stencil_block_shape = []} -> (memref<?xi64>, memref<?xmemref<?x?xf64>>)
          arts.lowering_contract(%ptr_102 : memref<?xmemref<?x?xf64>>) pattern(<depPattern = <uniform>, distributionKind = <block>, distributionPattern = <uniform>, distributionVersion = 1 : i64, revision = 2 : i64>) contract(<postDbRefined = true>)
          %c1_103 = arith.constant 1 : index
          %c0_104 = arith.constant 0 : index
          %guid_105, %ptr_106 = arts.db_acquire[<inout>] (%guid_79 : memref<?xi64>, %ptr_80 : memref<?xmemref<?x?xf64>>) partitioning(<block>, offsets[%46], sizes[%c4]), offsets[%c0_104], sizes[%40] {arts.partition_hint = {blockSize = 15 : i64, mode = 1 : i8}, arts.pattern_revision = 2 : i64, depPattern = #arts.dep_pattern<uniform>, distribution_kind = #arts.distribution_kind<block>, distribution_pattern = #arts.distribution_pattern<uniform>, distribution_version = 1 : i32, stencil_block_shape = []} -> (memref<?xi64>, memref<?xmemref<?x?xf64>>)
          arts.lowering_contract(%ptr_106 : memref<?xmemref<?x?xf64>>) pattern(<depPattern = <uniform>, distributionKind = <block>, distributionPattern = <uniform>, distributionVersion = 1 : i64, revision = 2 : i64>)
          arts.edt <task> <intranode> route(%c-1_i32) (%ptr_85, %ptr_89, %ptr_91, %ptr_95, %ptr_99, %ptr_102, %ptr_106) : memref<?xmemref<?x?xf64>>, memref<?xmemref<?x?xf64>>, memref<?xmemref<?x?xf64>>, memref<?xmemref<?x?xf64>>, memref<?xmemref<?x?xf64>>, memref<?xmemref<?x?xf64>>, memref<?xmemref<?x?xf64>> attributes {arts.id = 155 : i64, arts.pattern_revision = 2 : i64, arts.plan.async_strategy = "blocking", arts.plan.cost.expected_local_work = 0 : i64, arts.plan.cost.relaunch_amortization = 0 : i64, arts.plan.cost.scheduler_overhead = 300 : i64, arts.plan.cost.slice_widening_pressure = 0 : i64, arts.plan.iteration_topology = "owner_strip", arts.plan.kernel_family = "uniform", arts.plan.repetition_structure = "none", depPattern = #arts.dep_pattern<uniform>, distribution_kind = #arts.distribution_kind<block>, distribution_pattern = #arts.distribution_pattern<uniform>, distribution_version = 1 : i32, stencil_block_shape = [4, 256]} {
          ^bb0(%arg3: memref<?xmemref<?x?xf64>>, %arg4: memref<?xmemref<?x?xf64>>, %arg5: memref<?xmemref<?x?xf64>>, %arg6: memref<?xmemref<?x?xf64>>, %arg7: memref<?xmemref<?x?xf64>>, %arg8: memref<?xmemref<?x?xf64>>, %arg9: memref<?xmemref<?x?xf64>>):
            %c1_107 = arith.constant 1 : index
            %c0_108 = arith.constant 0 : index
            %109 = arith.maxui %27, %c1_107 : index
            %c0_109 = arith.constant 0 : index
            %c4_110 = arith.constant 4 : index
            %110 = arith.muli %arg2, %c4_110 : index
            %c1_111 = arith.constant 1 : index
            %111 = arith.subi %110, %c1_111 : index
            %c0_112 = arith.constant 0 : index
            %112 = arith.select %62, %111, %c0_112 : index
            %c15_113 = arith.constant 15 : index
            %c1_114 = arith.constant 1 : index
            %113 = arith.maxui %c15_113, %c1_114 : index
            %c1_115 = arith.constant 1 : index
            %114 = arith.maxui %113, %c1_115 : index
            %115 = arith.divui %112, %114 : index
            %116 = arith.select %102, %c0_109, %115 : index
            %c1_116 = arith.constant 1 : index
            %c0_117 = arith.constant 0 : index
            %117 = arith.maxui %34, %c1_116 : index
            %c0_118 = arith.constant 0 : index
            %c1_119 = arith.constant 1 : index
            %c0_120 = arith.constant 0 : index
            %118 = arith.maxui %20, %c1_119 : index
            %c0_121 = arith.constant 0 : index
            %c4_122 = arith.constant 4 : index
            %119 = arith.muli %arg2, %c4_122 : index
            %c15_123 = arith.constant 15 : index
            %c1_124 = arith.constant 1 : index
            %120 = arith.maxui %c15_123, %c1_124 : index
            %c1_125 = arith.constant 1 : index
            %121 = arith.maxui %120, %c1_125 : index
            %122 = arith.divui %119, %121 : index
            %123 = arith.select %88, %c0_121, %122 : index
            %c1_126 = arith.constant 1 : index
            %c0_127 = arith.constant 0 : index
            %124 = arith.maxui %13, %c1_126 : index
            %c0_128 = arith.constant 0 : index
            %c1_129 = arith.constant 1 : index
            %c0_130 = arith.constant 0 : index
            %125 = arith.maxui %6, %c1_129 : index
            %c0_131 = arith.constant 0 : index
            %126 = arith.subi %c0, %46 : index
            %127 = arith.cmpi slt, %126, %c0 : index
            %128 = arith.select %127, %c0, %126 : index
            %129 = arith.cmpi slt, %48, %c0 : index
            %130 = arith.select %129, %c0, %48 : index
            %131 = arith.minui %130, %50 : index
            scf.for %arg10 = %128 to %131 step %c1 {
              %132 = arith.addi %46, %arg10 : index
              scf.for %arg11 = %c0 to %c256 step %c1 {
                %c1_132 = arith.constant 1 : index
                %133 = arith.maxui %118, %c1_132 : index
                %c0_133 = arith.constant 0 : index
                %c1_134 = arith.constant 1 : index
                %c-1 = arith.constant -1 : index
                %134 = arith.addi %46, %128 : index
                %135 = arith.divui %134, %133 : index
                %136 = arith.remui %134, %133 : index
                %137 = arith.subi %arg10, %128 : index
                %138 = arith.addi %136, %137 : index
                %139 = arith.subi %135, %123 : index
                %140 = arith.cmpi slt, %138, %c0_133 : index
                %141 = arith.cmpi sge, %138, %133 : index
                %142 = arith.select %140, %c-1, %c0_133 : index
                %143 = arith.select %141, %c1_134, %142 : index
                %144 = arith.addi %139, %143 : index
                %145 = arith.subi %138, %133 : index
                %146 = arith.addi %138, %133 : index
                %147 = arith.select %140, %146, %138 : index
                %148 = arith.select %141, %145, %147 : index
                %149 = arts.db_ref %arg6[%c0_120] : memref<?xmemref<?x?xf64>> -> memref<?x?xf64>
                memref.store %cst_0, %149[%148, %arg11] : memref<?x?xf64>
              } {arts.id = 145 : i64, arts.loop = #arts.loop_metadata<potentiallyParallel = false, hasReductions = false, tripCount = 256 : i64, nestingLevel = 1 : i64, hasInterIterationDeps = false, memrefsWithLoopCarriedDeps = 0 : i64, parallelClassification = 0 : i64, locationKey = "3mm.c:137:3">, arts.metadata_provenance = "exact"}
              scf.for %arg11 = %c0 to %c256 step %c1 {
                scf.for %arg12 = %c0 to %c256 step %c1 {
                  %c1_132 = arith.constant 1 : index
                  %133 = arith.maxui %109, %c1_132 : index
                  %c0_133 = arith.constant 0 : index
                  %c1_134 = arith.constant 1 : index
                  %c-1 = arith.constant -1 : index
                  %134 = arith.addi %46, %128 : index
                  %135 = arith.divui %134, %133 : index
                  %136 = arith.remui %134, %133 : index
                  %137 = arith.subi %arg10, %128 : index
                  %138 = arith.addi %136, %137 : index
                  %139 = arith.subi %135, %116 : index
                  %140 = arith.cmpi slt, %138, %c0_133 : index
                  %141 = arith.cmpi sge, %138, %133 : index
                  %142 = arith.select %140, %c-1, %c0_133 : index
                  %143 = arith.select %141, %c1_134, %142 : index
                  %144 = arith.addi %139, %143 : index
                  %145 = arith.subi %138, %133 : index
                  %146 = arith.addi %138, %133 : index
                  %147 = arith.select %140, %146, %138 : index
                  %148 = arith.select %141, %145, %147 : index
                  %149 = arts.db_ref %arg7[%144] : memref<?xmemref<?x?xf64>> -> memref<?x?xf64>
                  %150 = memref.load %149[%148, %arg11] : memref<?x?xf64>
                  %151 = arts.db_ref %arg8[%c0] : memref<?xmemref<?x?xf64>> -> memref<?x?xf64>
                  %152 = memref.load %151[%arg11, %arg12] : memref<?x?xf64>
                  %153 = arith.mulf %150, %152 : f64
                  %c1_135 = arith.constant 1 : index
                  %154 = arith.maxui %118, %c1_135 : index
                  %c0_136 = arith.constant 0 : index
                  %c1_137 = arith.constant 1 : index
                  %c-1_138 = arith.constant -1 : index
                  %155 = arith.addi %46, %128 : index
                  %156 = arith.divui %155, %154 : index
                  %157 = arith.remui %155, %154 : index
                  %158 = arith.subi %arg10, %128 : index
                  %159 = arith.addi %157, %158 : index
                  %160 = arith.subi %156, %123 : index
                  %161 = arith.cmpi slt, %159, %c0_136 : index
                  %162 = arith.cmpi sge, %159, %154 : index
                  %163 = arith.select %161, %c-1_138, %c0_136 : index
                  %164 = arith.select %162, %c1_137, %163 : index
                  %165 = arith.addi %160, %164 : index
                  %166 = arith.subi %159, %154 : index
                  %167 = arith.addi %159, %154 : index
                  %168 = arith.select %161, %167, %159 : index
                  %169 = arith.select %162, %166, %168 : index
                  %170 = arts.db_ref %arg6[%c0_120] : memref<?xmemref<?x?xf64>> -> memref<?x?xf64>
                  %171 = memref.load %170[%169, %arg12] : memref<?x?xf64>
                  %172 = arith.addf %171, %153 : f64
                  %c1_139 = arith.constant 1 : index
                  %173 = arith.maxui %118, %c1_139 : index
                  %c0_140 = arith.constant 0 : index
                  %c1_141 = arith.constant 1 : index
                  %c-1_142 = arith.constant -1 : index
                  %174 = arith.addi %46, %128 : index
                  %175 = arith.divui %174, %173 : index
                  %176 = arith.remui %174, %173 : index
                  %177 = arith.subi %arg10, %128 : index
                  %178 = arith.addi %176, %177 : index
                  %179 = arith.subi %175, %123 : index
                  %180 = arith.cmpi slt, %178, %c0_140 : index
                  %181 = arith.cmpi sge, %178, %173 : index
                  %182 = arith.select %180, %c-1_142, %c0_140 : index
                  %183 = arith.select %181, %c1_141, %182 : index
                  %184 = arith.addi %179, %183 : index
                  %185 = arith.subi %178, %173 : index
                  %186 = arith.addi %178, %173 : index
                  %187 = arith.select %180, %186, %178 : index
                  %188 = arith.select %181, %185, %187 : index
                  %189 = arts.db_ref %arg6[%c0_120] : memref<?xmemref<?x?xf64>> -> memref<?x?xf64>
                  memref.store %172, %189[%188, %arg12] : memref<?x?xf64>
                } {arts.id = 147 : i64, arts.loop = #arts.loop_metadata<potentiallyParallel = false, hasReductions = false, tripCount = 256 : i64, nestingLevel = 2 : i64, hasInterIterationDeps = false, memrefsWithLoopCarriedDeps = 0 : i64, parallelClassification = 0 : i64, locationKey = "3mm.c:137:3">, arts.metadata_origin_id = 147 : i64, arts.metadata_provenance = "transferred"}
              } {arts.id = 146 : i64, arts.loop = #arts.loop_metadata<potentiallyParallel = false, hasReductions = false, tripCount = 256 : i64, nestingLevel = 1 : i64, hasInterIterationDeps = false, memrefsWithLoopCarriedDeps = 0 : i64, parallelClassification = 0 : i64, locationKey = "3mm.c:137:3">, arts.metadata_origin_id = 146 : i64, arts.metadata_provenance = "transferred"}
            } {arts.id = 152 : i64, arts.loop = #arts.loop_metadata<potentiallyParallel = true, hasReductions = false, tripCount = 0 : i64, nestingLevel = 1 : i64, hasInterIterationDeps = false, memrefsWithLoopCarriedDeps = 0 : i64, parallelClassification = 2 : i64, locationKey = "3mm.c:137:3">, arts.metadata_provenance = "exact"}
            arts.db_release(%arg3) : memref<?xmemref<?x?xf64>>
            arts.db_release(%arg4) : memref<?xmemref<?x?xf64>>
            arts.db_release(%arg5) : memref<?xmemref<?x?xf64>>
            arts.db_release(%arg6) : memref<?xmemref<?x?xf64>>
            arts.db_release(%arg7) : memref<?xmemref<?x?xf64>>
            arts.db_release(%arg8) : memref<?xmemref<?x?xf64>>
            arts.db_release(%arg9) : memref<?xmemref<?x?xf64>>
          }
        }
      }
    } : i64
    %42 = arts.epoch attributes {arts.pattern_revision = 2 : i64, arts.plan.async_strategy = "blocking", arts.plan.cost.expected_local_work = 0 : i64, arts.plan.cost.relaunch_amortization = 0 : i64, arts.plan.cost.scheduler_overhead = 300 : i64, arts.plan.cost.slice_widening_pressure = 0 : i64, arts.plan.iteration_topology = "owner_strip", arts.plan.kernel_family = "uniform", arts.plan.repetition_structure = "none", depPattern = #arts.dep_pattern<uniform>, distribution_kind = #arts.distribution_kind<block>, distribution_pattern = #arts.distribution_pattern<uniform>, distribution_version = 1 : i32} {
      scf.for %arg2 = %c0 to %c64 step %c1 {
        %46 = arith.muli %arg2, %c4 : index
        %47 = arith.cmpi uge, %46, %c256 : index
        %48 = arith.subi %c256, %46 : index
        %49 = arith.select %47, %c0, %48 : index
        %50 = arith.minui %49, %c4 : index
        %51 = arith.cmpi ugt, %50, %c0 : index
        scf.if %51 {
          %52 = arith.divui %46, %c256 : index
          %53 = arith.addi %46, %c3 : index
          %54 = arith.divui %53, %c256 : index
          %55 = arith.cmpi ugt, %52, %c0 : index
          %56 = arith.select %55, %54, %c0 : index
          %57 = arith.subi %56, %52 : index
          %58 = arith.addi %57, %c1 : index
          %59 = arith.select %55, %c0, %52 : index
          %60 = arith.select %55, %c0, %58 : index
          %c1_82 = arith.constant 1 : index
          %c0_83 = arith.constant 0 : index
          %61 = arith.maxui %6, %c1_82 : index
          %62 = arith.muli %12, %61 : index
          %63 = arith.divui %46, %61 : index
          %64 = arith.addi %46, %c4 : index
          %65 = arith.subi %64, %c1_82 : index
          %66 = arith.divui %65, %61 : index
          %67 = arith.subi %12, %c1_82 : index
          %68 = arith.cmpi ugt, %63, %67 : index
          %69 = arith.minui %66, %67 : index
          %70 = arith.select %68, %66, %69 : index
          %71 = arith.subi %70, %63 : index
          %72 = arith.addi %71, %c1_82 : index
          %73 = arith.select %68, %c0_83, %63 : index
          %74 = arith.select %68, %c0_83, %72 : index
          %guid_84, %ptr_85 = arts.db_acquire[<inout>] (%guid : memref<?xi64>, %ptr : memref<?xmemref<?x?xf64>>) partitioning(<block>, offsets[%46], sizes[%c4]), offsets[%73], sizes[%c1_82] {arts.partition_hint = {blockSize = 15 : i64, mode = 1 : i8}, arts.pattern_revision = 2 : i64, depPattern = #arts.dep_pattern<uniform>, distribution_kind = #arts.distribution_kind<block>, distribution_pattern = #arts.distribution_pattern<uniform>, distribution_version = 1 : i32, stencil_block_shape = [4, 256], stencil_owner_dims = [0]} -> (memref<?xi64>, memref<?xmemref<?x?xf64>>)
          arts.lowering_contract(%ptr_85 : memref<?xmemref<?x?xf64>>) pattern(<depPattern = <uniform>, distributionKind = <block>, distributionPattern = <uniform>, distributionVersion = 1 : i64, revision = 2 : i64>) block_shape[%c4] contract(<ownerDims = [0]>)
          %75 = arith.addi %46, %50 : index
          %76 = arith.cmpi uge, %46, %c1 : index
          %77 = arith.subi %46, %c1 : index
          %78 = arith.select %76, %77, %c0 : index
          %79 = arith.addi %75, %c1 : index
          %80 = arith.minui %79, %c256 : index
          %81 = arith.cmpi uge, %80, %78 : index
          %82 = arith.subi %80, %78 : index
          %83 = arith.select %81, %82, %c0 : index
          %84 = arith.maxui %83, %c1 : index
          %85 = arith.divui %78, %c256 : index
          %86 = arith.addi %78, %84 : index
          %87 = arith.subi %86, %c1 : index
          %88 = arith.divui %87, %c256 : index
          %89 = arith.cmpi ugt, %85, %c0 : index
          %90 = arith.select %89, %88, %c0 : index
          %91 = arith.subi %90, %85 : index
          %92 = arith.addi %91, %c1 : index
          %93 = arith.select %89, %c0, %85 : index
          %94 = arith.select %89, %c0, %92 : index
          %c1_86 = arith.constant 1 : index
          %c0_87 = arith.constant 0 : index
          %guid_88, %ptr_89 = arts.db_acquire[<in>] (%guid_23 : memref<?xi64>, %ptr_24 : memref<?xmemref<?x?xf64>>) partitioning(<block>, offsets[%78], sizes[%83]), offsets[%c0_87], sizes[%19] {arts.id = 161 : i64, arts.partition_hint = {blockSize = 15 : i64, mode = 1 : i8}, arts.pattern_revision = 2 : i64, depPattern = #arts.dep_pattern<uniform>, distribution_kind = #arts.distribution_kind<block>, distribution_pattern = #arts.distribution_pattern<uniform>, distribution_version = 1 : i32, stencil_block_shape = []} -> (memref<?xi64>, memref<?xmemref<?x?xf64>>)
          arts.lowering_contract(%ptr_89 : memref<?xmemref<?x?xf64>>) pattern(<depPattern = <uniform>, distributionKind = <block>, distributionPattern = <uniform>, distributionVersion = 1 : i64, revision = 2 : i64>)
          %guid_90, %ptr_91 = arts.db_acquire[<in>] (%guid_30 : memref<?xi64>, %ptr_31 : memref<?xmemref<?x?xf64>>) partitioning(<coarse>), offsets[%c0_29], sizes[%c1] {arts.id = 165 : i64, arts.partition_hint = {blockSize = 15 : i64, mode = 1 : i8}, arts.pattern_revision = 2 : i64, depPattern = #arts.dep_pattern<uniform>, distribution_kind = #arts.distribution_kind<block>, distribution_pattern = #arts.distribution_pattern<uniform>, distribution_version = 1 : i32, stencil_block_shape = []} -> (memref<?xi64>, memref<?xmemref<?x?xf64>>)
          arts.lowering_contract(%ptr_91 : memref<?xmemref<?x?xf64>>) pattern(<depPattern = <uniform>, distributionKind = <block>, distributionPattern = <uniform>, distributionVersion = 1 : i64, revision = 2 : i64>) contract(<postDbRefined = true>)
          %c0_92 = arith.constant 0 : index
          %c1_93 = arith.constant 1 : index
          %c0_94 = arith.constant 0 : index
          %guid_95, %ptr_96 = arts.db_acquire[<inout>] (%guid_44 : memref<?xi64>, %ptr_45 : memref<?xmemref<?x?xf64>>) partitioning(<block>, offsets[%46], sizes[%c4]), offsets[%c0_94], sizes[%26] {arts.id = 162 : i64, arts.partition_hint = {blockSize = 15 : i64, mode = 1 : i8}, arts.pattern_revision = 2 : i64, depPattern = #arts.dep_pattern<uniform>, distribution_kind = #arts.distribution_kind<block>, distribution_pattern = #arts.distribution_pattern<uniform>, distribution_version = 1 : i32, stencil_block_shape = []} -> (memref<?xi64>, memref<?xmemref<?x?xf64>>)
          arts.lowering_contract(%ptr_96 : memref<?xmemref<?x?xf64>>) pattern(<depPattern = <uniform>, distributionKind = <block>, distributionPattern = <uniform>, distributionVersion = 1 : i64, revision = 2 : i64>)
          %c1_97 = arith.constant 1 : index
          %c0_98 = arith.constant 0 : index
          %guid_99, %ptr_100 = arts.db_acquire[<in>] (%guid_58 : memref<?xi64>, %ptr_59 : memref<?xmemref<?x?xf64>>) partitioning(<block>, offsets[%78], sizes[%83]), offsets[%c0_98], sizes[%33] {arts.id = 167 : i64, arts.partition_hint = {blockSize = 15 : i64, mode = 1 : i8}, arts.pattern_revision = 2 : i64, depPattern = #arts.dep_pattern<uniform>, distribution_kind = #arts.distribution_kind<block>, distribution_pattern = #arts.distribution_pattern<uniform>, distribution_version = 1 : i32, stencil_block_shape = []} -> (memref<?xi64>, memref<?xmemref<?x?xf64>>)
          arts.lowering_contract(%ptr_100 : memref<?xmemref<?x?xf64>>) pattern(<depPattern = <uniform>, distributionKind = <block>, distributionPattern = <uniform>, distributionVersion = 1 : i64, revision = 2 : i64>)
          %guid_101, %ptr_102 = arts.db_acquire[<in>] (%guid_65 : memref<?xi64>, %ptr_66 : memref<?xmemref<?x?xf64>>) partitioning(<coarse>), offsets[%c0_64], sizes[%c1] {arts.id = 159 : i64, arts.partition_hint = {blockSize = 15 : i64, mode = 1 : i8}, arts.pattern_revision = 2 : i64, depPattern = #arts.dep_pattern<uniform>, distribution_kind = #arts.distribution_kind<block>, distribution_pattern = #arts.distribution_pattern<uniform>, distribution_version = 1 : i32, stencil_block_shape = []} -> (memref<?xi64>, memref<?xmemref<?x?xf64>>)
          arts.lowering_contract(%ptr_102 : memref<?xmemref<?x?xf64>>) pattern(<depPattern = <uniform>, distributionKind = <block>, distributionPattern = <uniform>, distributionVersion = 1 : i64, revision = 2 : i64>) contract(<postDbRefined = true>)
          %c1_103 = arith.constant 1 : index
          %c0_104 = arith.constant 0 : index
          %95 = arith.maxui %34, %c1_103 : index
          %96 = arith.muli %40, %95 : index
          %97 = arith.divui %46, %95 : index
          %98 = arith.addi %46, %c4 : index
          %99 = arith.subi %98, %c1_103 : index
          %100 = arith.divui %99, %95 : index
          %101 = arith.subi %40, %c1_103 : index
          %102 = arith.cmpi ugt, %97, %101 : index
          %103 = arith.minui %100, %101 : index
          %104 = arith.select %102, %100, %103 : index
          %105 = arith.subi %104, %97 : index
          %106 = arith.addi %105, %c1_103 : index
          %107 = arith.select %102, %c0_104, %97 : index
          %108 = arith.select %102, %c0_104, %106 : index
          %guid_105, %ptr_106 = arts.db_acquire[<inout>] (%guid_79 : memref<?xi64>, %ptr_80 : memref<?xmemref<?x?xf64>>) partitioning(<block>, offsets[%46], sizes[%c4]), offsets[%107], sizes[%c1_103] {arts.partition_hint = {blockSize = 15 : i64, mode = 1 : i8}, arts.pattern_revision = 2 : i64, depPattern = #arts.dep_pattern<uniform>, distribution_kind = #arts.distribution_kind<block>, distribution_pattern = #arts.distribution_pattern<uniform>, distribution_version = 1 : i32, stencil_block_shape = [4, 256], stencil_owner_dims = [0]} -> (memref<?xi64>, memref<?xmemref<?x?xf64>>)
          arts.lowering_contract(%ptr_106 : memref<?xmemref<?x?xf64>>) pattern(<depPattern = <uniform>, distributionKind = <block>, distributionPattern = <uniform>, distributionVersion = 1 : i64, revision = 2 : i64>) block_shape[%c4] contract(<ownerDims = [0]>)
          arts.edt <task> <intranode> route(%c-1_i32) (%ptr_85, %ptr_89, %ptr_91, %ptr_96, %ptr_100, %ptr_102, %ptr_106) : memref<?xmemref<?x?xf64>>, memref<?xmemref<?x?xf64>>, memref<?xmemref<?x?xf64>>, memref<?xmemref<?x?xf64>>, memref<?xmemref<?x?xf64>>, memref<?xmemref<?x?xf64>>, memref<?xmemref<?x?xf64>> attributes {arts.id = 156 : i64, arts.pattern_revision = 2 : i64, arts.plan.async_strategy = "blocking", arts.plan.cost.expected_local_work = 0 : i64, arts.plan.cost.relaunch_amortization = 0 : i64, arts.plan.cost.scheduler_overhead = 300 : i64, arts.plan.cost.slice_widening_pressure = 0 : i64, arts.plan.iteration_topology = "owner_strip", arts.plan.kernel_family = "uniform", arts.plan.repetition_structure = "none", depPattern = #arts.dep_pattern<uniform>, distribution_kind = #arts.distribution_kind<block>, distribution_pattern = #arts.distribution_pattern<uniform>, distribution_version = 1 : i32, stencil_block_shape = [4, 256]} {
          ^bb0(%arg3: memref<?xmemref<?x?xf64>>, %arg4: memref<?xmemref<?x?xf64>>, %arg5: memref<?xmemref<?x?xf64>>, %arg6: memref<?xmemref<?x?xf64>>, %arg7: memref<?xmemref<?x?xf64>>, %arg8: memref<?xmemref<?x?xf64>>, %arg9: memref<?xmemref<?x?xf64>>):
            %c1_107 = arith.constant 1 : index
            %c0_108 = arith.constant 0 : index
            %109 = arith.maxui %27, %c1_107 : index
            %c0_109 = arith.constant 0 : index
            %c1_110 = arith.constant 1 : index
            %c0_111 = arith.constant 0 : index
            %110 = arith.maxui %34, %c1_110 : index
            %c0_112 = arith.constant 0 : index
            %c4_113 = arith.constant 4 : index
            %111 = arith.muli %arg2, %c4_113 : index
            %c15_114 = arith.constant 15 : index
            %c1_115 = arith.constant 1 : index
            %112 = arith.maxui %c15_114, %c1_115 : index
            %c1_116 = arith.constant 1 : index
            %113 = arith.maxui %112, %c1_116 : index
            %114 = arith.divui %111, %113 : index
            %115 = arith.select %102, %c0_112, %114 : index
            %c1_117 = arith.constant 1 : index
            %c0_118 = arith.constant 0 : index
            %116 = arith.maxui %20, %c1_117 : index
            %c0_119 = arith.constant 0 : index
            %c1_120 = arith.constant 1 : index
            %c0_121 = arith.constant 0 : index
            %117 = arith.maxui %13, %c1_120 : index
            %c0_122 = arith.constant 0 : index
            %c1_123 = arith.constant 1 : index
            %c0_124 = arith.constant 0 : index
            %118 = arith.maxui %6, %c1_123 : index
            %c0_125 = arith.constant 0 : index
            %c4_126 = arith.constant 4 : index
            %119 = arith.muli %arg2, %c4_126 : index
            %c15_127 = arith.constant 15 : index
            %c1_128 = arith.constant 1 : index
            %120 = arith.maxui %c15_127, %c1_128 : index
            %c1_129 = arith.constant 1 : index
            %121 = arith.maxui %120, %c1_129 : index
            %122 = arith.divui %119, %121 : index
            %123 = arith.select %68, %c0_125, %122 : index
            %124 = arith.subi %c0, %46 : index
            %125 = arith.cmpi slt, %124, %c0 : index
            %126 = arith.select %125, %c0, %124 : index
            %127 = arith.cmpi slt, %48, %c0 : index
            %128 = arith.select %127, %c0, %48 : index
            %129 = arith.minui %128, %50 : index
            scf.for %arg10 = %126 to %129 step %c1 {
              %130 = arith.addi %46, %arg10 : index
              scf.for %arg11 = %c0 to %c256 step %c1 {
                %c1_130 = arith.constant 1 : index
                %131 = arith.maxui %110, %c1_130 : index
                %c0_131 = arith.constant 0 : index
                %c1_132 = arith.constant 1 : index
                %c-1 = arith.constant -1 : index
                %132 = arith.addi %46, %126 : index
                %133 = arith.divui %132, %131 : index
                %134 = arith.remui %132, %131 : index
                %135 = arith.subi %arg10, %126 : index
                %136 = arith.addi %134, %135 : index
                %137 = arith.subi %133, %115 : index
                %138 = arith.cmpi slt, %136, %c0_131 : index
                %139 = arith.cmpi sge, %136, %131 : index
                %140 = arith.select %138, %c-1, %c0_131 : index
                %141 = arith.select %139, %c1_132, %140 : index
                %142 = arith.addi %137, %141 : index
                %143 = arith.subi %136, %131 : index
                %144 = arith.addi %136, %131 : index
                %145 = arith.select %138, %144, %136 : index
                %146 = arith.select %139, %143, %145 : index
                %147 = arts.db_ref %arg9[%c0_111] : memref<?xmemref<?x?xf64>> -> memref<?x?xf64>
                memref.store %cst_0, %147[%146, %arg11] : memref<?x?xf64>
              } {arts.id = 147 : i64, arts.loop = #arts.loop_metadata<potentiallyParallel = false, hasReductions = false, tripCount = 256 : i64, nestingLevel = 1 : i64, hasInterIterationDeps = false, memrefsWithLoopCarriedDeps = 0 : i64, parallelClassification = 0 : i64, locationKey = "3mm.c:137:3">, arts.metadata_provenance = "exact"}
              scf.for %arg11 = %c0 to %c256 step %c1 {
                scf.for %arg12 = %c0 to %c256 step %c1 {
                  %c1_130 = arith.constant 1 : index
                  %131 = arith.maxui %118, %c1_130 : index
                  %c0_131 = arith.constant 0 : index
                  %c1_132 = arith.constant 1 : index
                  %c-1 = arith.constant -1 : index
                  %132 = arith.addi %46, %126 : index
                  %133 = arith.divui %132, %131 : index
                  %134 = arith.remui %132, %131 : index
                  %135 = arith.subi %arg10, %126 : index
                  %136 = arith.addi %134, %135 : index
                  %137 = arith.subi %133, %123 : index
                  %138 = arith.cmpi slt, %136, %c0_131 : index
                  %139 = arith.cmpi sge, %136, %131 : index
                  %140 = arith.select %138, %c-1, %c0_131 : index
                  %141 = arith.select %139, %c1_132, %140 : index
                  %142 = arith.addi %137, %141 : index
                  %143 = arith.subi %136, %131 : index
                  %144 = arith.addi %136, %131 : index
                  %145 = arith.select %138, %144, %136 : index
                  %146 = arith.select %139, %143, %145 : index
                  %147 = arts.db_ref %arg3[%c0_124] : memref<?xmemref<?x?xf64>> -> memref<?x?xf64>
                  %148 = memref.load %147[%146, %arg11] : memref<?x?xf64>
                  %c1_133 = arith.constant 1 : index
                  %149 = arith.maxui %116, %c1_133 : index
                  %150 = arith.divui %arg11, %149 : index
                  %151 = arith.subi %150, %c0_119 : index
                  %152 = arith.remui %arg11, %149 : index
                  %153 = arts.db_ref %arg6[%151] : memref<?xmemref<?x?xf64>> -> memref<?x?xf64>
                  %154 = memref.load %153[%152, %arg12] : memref<?x?xf64>
                  %155 = arith.mulf %148, %154 : f64
                  %c1_134 = arith.constant 1 : index
                  %156 = arith.maxui %110, %c1_134 : index
                  %c0_135 = arith.constant 0 : index
                  %c1_136 = arith.constant 1 : index
                  %c-1_137 = arith.constant -1 : index
                  %157 = arith.addi %46, %126 : index
                  %158 = arith.divui %157, %156 : index
                  %159 = arith.remui %157, %156 : index
                  %160 = arith.subi %arg10, %126 : index
                  %161 = arith.addi %159, %160 : index
                  %162 = arith.subi %158, %115 : index
                  %163 = arith.cmpi slt, %161, %c0_135 : index
                  %164 = arith.cmpi sge, %161, %156 : index
                  %165 = arith.select %163, %c-1_137, %c0_135 : index
                  %166 = arith.select %164, %c1_136, %165 : index
                  %167 = arith.addi %162, %166 : index
                  %168 = arith.subi %161, %156 : index
                  %169 = arith.addi %161, %156 : index
                  %170 = arith.select %163, %169, %161 : index
                  %171 = arith.select %164, %168, %170 : index
                  %172 = arts.db_ref %arg9[%c0_111] : memref<?xmemref<?x?xf64>> -> memref<?x?xf64>
                  %173 = memref.load %172[%171, %arg12] : memref<?x?xf64>
                  %174 = arith.addf %173, %155 : f64
                  %c1_138 = arith.constant 1 : index
                  %175 = arith.maxui %110, %c1_138 : index
                  %c0_139 = arith.constant 0 : index
                  %c1_140 = arith.constant 1 : index
                  %c-1_141 = arith.constant -1 : index
                  %176 = arith.addi %46, %126 : index
                  %177 = arith.divui %176, %175 : index
                  %178 = arith.remui %176, %175 : index
                  %179 = arith.subi %arg10, %126 : index
                  %180 = arith.addi %178, %179 : index
                  %181 = arith.subi %177, %115 : index
                  %182 = arith.cmpi slt, %180, %c0_139 : index
                  %183 = arith.cmpi sge, %180, %175 : index
                  %184 = arith.select %182, %c-1_141, %c0_139 : index
                  %185 = arith.select %183, %c1_140, %184 : index
                  %186 = arith.addi %181, %185 : index
                  %187 = arith.subi %180, %175 : index
                  %188 = arith.addi %180, %175 : index
                  %189 = arith.select %182, %188, %180 : index
                  %190 = arith.select %183, %187, %189 : index
                  %191 = arts.db_ref %arg9[%c0_111] : memref<?xmemref<?x?xf64>> -> memref<?x?xf64>
                  memref.store %174, %191[%190, %arg12] : memref<?x?xf64>
                } {arts.id = 149 : i64, arts.loop = #arts.loop_metadata<potentiallyParallel = false, hasReductions = false, tripCount = 256 : i64, nestingLevel = 2 : i64, hasInterIterationDeps = false, memrefsWithLoopCarriedDeps = 0 : i64, parallelClassification = 0 : i64, locationKey = "3mm.c:137:3">, arts.metadata_origin_id = 149 : i64, arts.metadata_provenance = "transferred"}
              } {arts.id = 148 : i64, arts.loop = #arts.loop_metadata<potentiallyParallel = false, hasReductions = false, tripCount = 256 : i64, nestingLevel = 1 : i64, hasInterIterationDeps = false, memrefsWithLoopCarriedDeps = 0 : i64, parallelClassification = 0 : i64, locationKey = "3mm.c:137:3">, arts.metadata_origin_id = 148 : i64, arts.metadata_provenance = "transferred"}
            } {arts.id = 153 : i64, arts.loop = #arts.loop_metadata<potentiallyParallel = true, hasReductions = false, tripCount = 0 : i64, nestingLevel = 1 : i64, hasInterIterationDeps = false, memrefsWithLoopCarriedDeps = 0 : i64, parallelClassification = 2 : i64, locationKey = "3mm.c:137:3">, arts.metadata_provenance = "exact"}
            arts.db_release(%arg3) : memref<?xmemref<?x?xf64>>
            arts.db_release(%arg4) : memref<?xmemref<?x?xf64>>
            arts.db_release(%arg5) : memref<?xmemref<?x?xf64>>
            arts.db_release(%arg6) : memref<?xmemref<?x?xf64>>
            arts.db_release(%arg7) : memref<?xmemref<?x?xf64>>
            arts.db_release(%arg8) : memref<?xmemref<?x?xf64>>
            arts.db_release(%arg9) : memref<?xmemref<?x?xf64>>
          }
        }
      }
    } : i64
    call @carts_kernel_timer_stop(%4) : (memref<?xi8>) -> ()
    %43 = polygeist.pointer2memref %1 : !llvm.ptr to memref<?xi8>
    call @carts_phase_timer_start(%43, %4) : (memref<?xi8>, memref<?xi8>) -> ()
    %44 = scf.for %arg2 = %c0 to %c256 step %c1 iter_args(%arg3 = %cst_0) -> (f64) {
      %c1_82 = arith.constant 1 : index
      %46 = arith.maxui %34, %c1_82 : index
      %47 = arith.divui %arg2, %46 : index
      %48 = arith.subi %47, %c0_81 : index
      %49 = arith.remui %arg2, %46 : index
      %50 = arts.db_ref %ptr_80[%48] : memref<?xmemref<?x?xf64>> -> memref<?x?xf64>
      %51 = memref.load %50[%49, %arg2] : memref<?x?xf64>
      %52 = arith.addf %arg3, %51 : f64
      scf.yield %52 : f64
    }
    call @carts_bench_checksum_d(%44) : (f64) -> ()
    call @carts_phase_timer_stop(%43) : (memref<?xi8>) -> ()
    %45 = polygeist.pointer2memref %0 : !llvm.ptr to memref<?xi8>
    call @carts_phase_timer_start(%45, %4) : (memref<?xi8>, memref<?xi8>) -> ()
    call @carts_phase_timer_stop(%45) : (memref<?xi8>) -> ()
    call @carts_e2e_timer_stop() : () -> ()
    arts.db_free(%guid_30) : memref<?xi64>
    arts.db_free(%ptr_31) : memref<?xmemref<?x?xf64>>
    arts.db_free(%guid_44) : memref<?xi64>
    arts.db_free(%ptr_45) : memref<?xmemref<?x?xf64>>
    arts.db_free(%guid_79) : memref<?xi64>
    arts.db_free(%ptr_80) : memref<?xmemref<?x?xf64>>
    arts.db_free(%guid) : memref<?xi64>
    arts.db_free(%ptr) : memref<?xmemref<?x?xf64>>
    arts.db_free(%guid_58) : memref<?xi64>
    arts.db_free(%ptr_59) : memref<?xmemref<?x?xf64>>
    arts.db_free(%guid_23) : memref<?xi64>
    arts.db_free(%ptr_24) : memref<?xmemref<?x?xf64>>
    arts.db_free(%guid_65) : memref<?xi64>
    arts.db_free(%ptr_66) : memref<?xmemref<?x?xf64>>
    return %c0_i32 : i32
  }
  func.func private @carts_benchmarks_start() attributes {llvm.linkage = #llvm.linkage<external>}
  func.func private @carts_e2e_timer_start(memref<?xi8>) attributes {llvm.linkage = #llvm.linkage<external>}
  func.func private @carts_phase_timer_start(memref<?xi8>, memref<?xi8>) attributes {llvm.linkage = #llvm.linkage<external>}
  func.func private @carts_phase_timer_stop(memref<?xi8>) attributes {llvm.linkage = #llvm.linkage<external>}
  func.func private @carts_kernel_timer_start(memref<?xi8>) attributes {llvm.linkage = #llvm.linkage<external>}
  func.func private @carts_kernel_timer_stop(memref<?xi8>) attributes {llvm.linkage = #llvm.linkage<external>}
  func.func private @carts_bench_checksum_d(f64) attributes {llvm.linkage = #llvm.linkage<external>}
  func.func private @carts_e2e_timer_stop() attributes {llvm.linkage = #llvm.linkage<external>}
}
