module attributes {arts.runtime_config_data = "[ARTS]\0A# Contract config for high-thread single-node lowering checks.\0Aworker_threads=64\0A\0A# Network configuration\0Asender_threads=0\0Areceiver_threads=0\0Aport_count=1\0A\0A# Launcher configuration\0Alauncher=local\0Amaster_node=localhost\0Anode_count=1\0Anodes=localhost\0Adefault_ports=34739\0A\0A# Scheduling\0Aworker_init_deque_size=2048\0Aroute_table_size=16\0A\0A# Debug\0Acore_dump=1\0Acounter_folder=./counters\0A", arts.runtime_static_workers = false, arts.runtime_total_nodes = 1 : i64, arts.runtime_total_workers = 64 : i64, dlti.dl_spec = #dlti.dl_spec<!llvm.ptr<270> = dense<32> : vector<4xi64>, !llvm.ptr<271> = dense<32> : vector<4xi64>, !llvm.ptr<272> = dense<64> : vector<4xi64>, i64 = dense<64> : vector<2xi64>, i128 = dense<128> : vector<2xi64>, f80 = dense<128> : vector<2xi64>, !llvm.ptr = dense<64> : vector<4xi64>, i1 = dense<8> : vector<2xi64>, i8 = dense<8> : vector<2xi64>, i16 = dense<16> : vector<2xi64>, i32 = dense<32> : vector<2xi64>, f16 = dense<16> : vector<2xi64>, f64 = dense<64> : vector<2xi64>, f128 = dense<128> : vector<2xi64>, "dlti.endianness" = "little", "dlti.mangling_mode" = "e", "dlti.legal_int_widths" = array<i32: 8, 16, 32, 64>, "dlti.stack_alignment" = 128 : i64>, llvm.data_layout = "e-m:e-p270:32:32-p271:32:32-p272:64:64-i64:64-i128:128-f80:128-n8:16:32:64-S128", llvm.target_triple = "x86_64-unknown-linux-gnu", "polygeist.target-cpu" = "x86-64", "polygeist.target-features" = "+cmov,+cx8,+fxsr,+mmx,+sse,+sse2,+x87", "polygeist.tune-cpu" = "generic"} {
  llvm.mlir.global internal constant @str3("cleanup\00") {addr_space = 0 : i32}
  llvm.mlir.global internal constant @str2("verification\00") {addr_space = 0 : i32}
  llvm.mlir.global internal constant @str1("startup\00") {addr_space = 0 : i32}
  llvm.mlir.global internal constant @str0("2mm\00") {addr_space = 0 : i32}
  func.func @main(%arg0: i32, %arg1: memref<?xmemref<?xi8>>) -> i32 attributes {llvm.linkage = #llvm.linkage<external>} {
    %c3 = arith.constant 3 : index
    %c64 = arith.constant 64 : index
    %cst = arith.constant 2.123000e+03 : f64
    %cst_0 = arith.constant 3.241200e+04 : f64
    %c4 = arith.constant 4 : index
    %c-1_i32 = arith.constant -1 : i32
    %cst_1 = arith.constant 2.560000e+02 : f64
    %c1_i32 = arith.constant 1 : i32
    %c3_i32 = arith.constant 3 : i32
    %c2_i32 = arith.constant 2 : i32
    %c1 = arith.constant 1 : index
    %c256 = arith.constant 256 : index
    %c0 = arith.constant 0 : index
    %0 = llvm.mlir.addressof @str3 : !llvm.ptr
    %cst_2 = arith.constant 0.000000e+00 : f64
    %1 = llvm.mlir.addressof @str2 : !llvm.ptr
    %2 = llvm.mlir.addressof @str1 : !llvm.ptr
    %c0_i32 = arith.constant 0 : i32
    %3 = llvm.mlir.addressof @str0 : !llvm.ptr
    call @carts_benchmarks_start() : () -> ()
    %4 = polygeist.pointer2memref %3 : !llvm.ptr to memref<?xi8>
    call @carts_e2e_timer_start(%4) : (memref<?xi8>) -> ()
    %5 = polygeist.pointer2memref %2 : !llvm.ptr to memref<?xi8>
    call @carts_phase_timer_start(%5, %4) : (memref<?xi8>, memref<?xi8>) -> ()
    %c1_3 = arith.constant 1 : index
    %c1_4 = arith.constant 1 : index
    %c11 = arith.constant 11 : index
    %c1_5 = arith.constant 1 : index
    %6 = arith.maxui %c11, %c1_5 : index
    %c1_i64 = arith.constant 1 : i64
    %7 = arith.index_cast %c256 : index to i64
    %8 = arith.index_cast %6 : index to i64
    %9 = arith.addi %7, %8 : i64
    %10 = arith.subi %9, %c1_i64 : i64
    %11 = arith.divui %10, %8 : i64
    %12 = arith.index_cast %11 : i64 to index
    %c0_6 = arith.constant 0 : index
    %c1_7 = arith.constant 1 : index
    %c0_8 = arith.constant 0 : index
    %c1_9 = arith.constant 1 : index
    %guid, %ptr = arts.db_alloc[<inout>, <heap>, <write>, <block>, <uniform>] route(%c-1_i32 : i32) sizes[%12] elementType(f64) elementSizes[%6, %c256] {arts.id = 267 : i64, arts.local_only, arts.read_only_after_init} : (memref<?xi64>, memref<?xmemref<?x?xf64>>)
    arts.lowering_contract(%ptr : memref<?xmemref<?x?xf64>>) block_shape[%6] contract(<ownerDims = [0], postDbRefined = true>)
    %c1_10 = arith.constant 1 : index
    %c1_11 = arith.constant 1 : index
    %c0_12 = arith.constant 0 : index
    %guid_13, %ptr_14 = arts.db_alloc[<in>, <heap>, <read>, <coarse>, <uniform>] route(%c-1_i32 : i32) sizes[%c1] elementType(f64) elementSizes[%c256, %c256] {arts.id = 268 : i64, arts.local_only} : (memref<?xi64>, memref<?xmemref<?x?xf64>>)
    %c1_15 = arith.constant 1 : index
    %c1_16 = arith.constant 1 : index
    %c0_17 = arith.constant 0 : index
    %guid_18, %ptr_19 = arts.db_alloc[<in>, <heap>, <read>, <coarse>, <uniform>] route(%c-1_i32 : i32) sizes[%c1] elementType(f64) elementSizes[%c256, %c256] {arts.id = 269 : i64, arts.local_only} : (memref<?xi64>, memref<?xmemref<?x?xf64>>)
    %c1_20 = arith.constant 1 : index
    %c1_21 = arith.constant 1 : index
    %c0_22 = arith.constant 0 : index
    %guid_23, %ptr_24 = arts.db_alloc[<in>, <heap>, <read>, <coarse>, <uniform>] route(%c-1_i32 : i32) sizes[%c1] elementType(f64) elementSizes[%c256, %c256] {arts.id = 270 : i64, arts.local_only} : (memref<?xi64>, memref<?xmemref<?x?xf64>>)
    %c1_25 = arith.constant 1 : index
    %c1_26 = arith.constant 1 : index
    %c11_27 = arith.constant 11 : index
    %c1_28 = arith.constant 1 : index
    %13 = arith.maxui %c11_27, %c1_28 : index
    %c1_i64_29 = arith.constant 1 : i64
    %14 = arith.index_cast %c256 : index to i64
    %15 = arith.index_cast %13 : index to i64
    %16 = arith.addi %14, %15 : i64
    %17 = arith.subi %16, %c1_i64_29 : i64
    %18 = arith.divui %17, %15 : i64
    %19 = arith.index_cast %18 : i64 to index
    %c0_30 = arith.constant 0 : index
    %c1_31 = arith.constant 1 : index
    %c0_32 = arith.constant 0 : index
    %c1_33 = arith.constant 1 : index
    %guid_34, %ptr_35 = arts.db_alloc[<inout>, <heap>, <write>, <block>, <uniform>] route(%c-1_i32 : i32) sizes[%19] elementType(f64) elementSizes[%13, %c256] {arts.id = 271 : i64, arts.local_only, arts.read_only_after_init} : (memref<?xi64>, memref<?xmemref<?x?xf64>>)
    arts.lowering_contract(%ptr_35 : memref<?xmemref<?x?xf64>>) block_shape[%13] contract(<ownerDims = [0], postDbRefined = true>)
    %c0_36 = arith.constant 0 : index
    %c0_37 = arith.constant 0 : index
    scf.for %arg2 = %c0 to %c256 step %c1 {
      %25 = arith.index_cast %arg2 : index to i32
      %26 = arith.sitofp %25 : i32 to f64
      scf.for %arg3 = %c0 to %c256 step %c1 {
        %27 = arith.index_cast %arg3 : index to i32
        %28 = arith.sitofp %27 : i32 to f64
        %29 = arith.mulf %26, %28 : f64
        %30 = arith.divf %29, %cst_1 : f64
        %31 = arts.db_ref %ptr_14[%c0] : memref<?xmemref<?x?xf64>> -> memref<?x?xf64>
        memref.store %30, %31[%arg2, %arg3] : memref<?x?xf64>
      }
    }
    scf.for %arg2 = %c0 to %c256 step %c1 {
      %25 = arith.index_cast %arg2 : index to i32
      %26 = arith.sitofp %25 : i32 to f64
      scf.for %arg3 = %c0 to %c256 step %c1 {
        %27 = arith.index_cast %arg3 : index to i32
        %28 = arith.addi %27, %c1_i32 : i32
        %29 = arith.sitofp %28 : i32 to f64
        %30 = arith.mulf %26, %29 : f64
        %31 = arith.divf %30, %cst_1 : f64
        %32 = arts.db_ref %ptr_19[%c0] : memref<?xmemref<?x?xf64>> -> memref<?x?xf64>
        memref.store %31, %32[%arg2, %arg3] : memref<?x?xf64>
      }
    }
    scf.for %arg2 = %c0 to %c256 step %c1 {
      %25 = arith.index_cast %arg2 : index to i32
      %26 = arith.sitofp %25 : i32 to f64
      scf.for %arg3 = %c0 to %c256 step %c1 {
        %27 = arith.index_cast %arg3 : index to i32
        %28 = arith.addi %27, %c3_i32 : i32
        %29 = arith.sitofp %28 : i32 to f64
        %30 = arith.mulf %26, %29 : f64
        %31 = arith.divf %30, %cst_1 : f64
        %32 = arts.db_ref %ptr_24[%c0] : memref<?xmemref<?x?xf64>> -> memref<?x?xf64>
        memref.store %31, %32[%arg2, %arg3] : memref<?x?xf64>
      }
    }
    scf.for %arg2 = %c0 to %c256 step %c1 {
      %25 = arith.index_cast %arg2 : index to i32
      %26 = arith.sitofp %25 : i32 to f64
      scf.for %arg3 = %c0 to %c256 step %c1 {
        %27 = arith.index_cast %arg3 : index to i32
        %28 = arith.addi %27, %c2_i32 : i32
        %29 = arith.sitofp %28 : i32 to f64
        %30 = arith.mulf %26, %29 : f64
        %31 = arith.divf %30, %cst_1 : f64
        %c1_38 = arith.constant 1 : index
        %32 = arith.maxui %13, %c1_38 : index
        %33 = arith.divui %arg2, %32 : index
        %34 = arith.subi %33, %c0_36 : index
        %35 = arith.remui %arg2, %32 : index
        %36 = arts.db_ref %ptr_35[%34] : memref<?xmemref<?x?xf64>> -> memref<?x?xf64>
        memref.store %31, %36[%35, %arg3] : memref<?x?xf64>
      }
    }
    call @carts_phase_timer_stop(%5) : (memref<?xi8>) -> ()
    call @carts_kernel_timer_start(%4) : (memref<?xi8>) -> ()
    %20 = arts.epoch attributes {distribution_kind = #arts.distribution_kind<block>, distribution_pattern = #arts.distribution_pattern<matmul>, distribution_version = 1 : i32} {
      scf.for %arg2 = %c0 to %c64 step %c1 {
        %25 = arith.muli %arg2, %c4 : index
        %26 = arith.cmpi uge, %25, %c256 : index
        %27 = arith.subi %c256, %25 : index
        %28 = arith.select %26, %c0, %27 : index
        %29 = arith.minui %28, %c4 : index
        %30 = arith.cmpi ugt, %29, %c0 : index
        scf.if %30 {
          %31 = arith.divui %25, %c256 : index
          %32 = arith.addi %25, %c3 : index
          %33 = arith.divui %32, %c256 : index
          %34 = arith.cmpi ugt, %31, %c0 : index
          %35 = arith.select %34, %33, %c0 : index
          %36 = arith.subi %35, %31 : index
          %37 = arith.addi %36, %c1 : index
          %38 = arith.select %34, %c0, %31 : index
          %39 = arith.select %34, %c0, %37 : index
          %c1_38 = arith.constant 1 : index
          %c0_39 = arith.constant 0 : index
          %40 = arith.maxui %6, %c1_38 : index
          %41 = arith.muli %12, %40 : index
          %42 = arith.divui %25, %40 : index
          %43 = arith.addi %25, %c4 : index
          %44 = arith.subi %43, %c1_38 : index
          %45 = arith.divui %44, %40 : index
          %46 = arith.subi %12, %c1_38 : index
          %47 = arith.cmpi ugt, %42, %46 : index
          %48 = arith.minui %45, %46 : index
          %49 = arith.select %47, %45, %48 : index
          %50 = arith.subi %49, %42 : index
          %51 = arith.addi %50, %c1_38 : index
          %52 = arith.select %47, %c0_39, %42 : index
          %53 = arith.select %47, %c0_39, %51 : index
          %guid_40, %ptr_41 = arts.db_acquire[<inout>] (%guid : memref<?xi64>, %ptr : memref<?xmemref<?x?xf64>>) partitioning(<block>, offsets[%25], sizes[%c4]), offsets[%52], sizes[%c1_38] {arts.partition_hint = {blockSize = 11 : i64, mode = 1 : i8}, distribution_kind = #arts.distribution_kind<block>, distribution_pattern = #arts.distribution_pattern<matmul>, distribution_version = 1 : i32, stencil_block_shape = [4, 256], stencil_owner_dims = [0]} -> (memref<?xi64>, memref<?xmemref<?x?xf64>>)
          arts.lowering_contract(%ptr_41 : memref<?xmemref<?x?xf64>>) pattern(<distributionKind = <block>, distributionPattern = <matmul>, distributionVersion = 1 : i64>) block_shape[%c4] contract(<ownerDims = [0]>)
          %54 = arith.addi %25, %29 : index
          %55 = arith.cmpi uge, %25, %c1 : index
          %56 = arith.subi %25, %c1 : index
          %57 = arith.select %55, %56, %c0 : index
          %58 = arith.addi %54, %c1 : index
          %59 = arith.minui %58, %c256 : index
          %60 = arith.cmpi uge, %59, %57 : index
          %61 = arith.subi %59, %57 : index
          %62 = arith.select %60, %61, %c0 : index
          %63 = arith.maxui %62, %c1 : index
          %64 = arith.divui %57, %c256 : index
          %65 = arith.addi %57, %63 : index
          %66 = arith.subi %65, %c1 : index
          %67 = arith.divui %66, %c256 : index
          %68 = arith.cmpi ugt, %64, %c0 : index
          %69 = arith.select %68, %67, %c0 : index
          %70 = arith.subi %69, %64 : index
          %71 = arith.addi %70, %c1 : index
          %72 = arith.select %68, %c0, %64 : index
          %73 = arith.select %68, %c0, %71 : index
          %guid_42, %ptr_43 = arts.db_acquire[<in>] (%guid_13 : memref<?xi64>, %ptr_14 : memref<?xmemref<?x?xf64>>) partitioning(<coarse>), offsets[%c0_12], sizes[%c1] {arts.partition_hint = {blockSize = 11 : i64, mode = 1 : i8}, distribution_kind = #arts.distribution_kind<block>, distribution_pattern = #arts.distribution_pattern<matmul>, distribution_version = 1 : i32, stencil_block_shape = [4, 256], stencil_owner_dims = [0]} -> (memref<?xi64>, memref<?xmemref<?x?xf64>>)
          arts.lowering_contract(%ptr_43 : memref<?xmemref<?x?xf64>>) pattern(<distributionKind = <block>, distributionPattern = <matmul>, distributionVersion = 1 : i64>) block_shape[%c4] contract(<ownerDims = [0], postDbRefined = true>)
          %c0_44 = arith.constant 0 : index
          %guid_45, %ptr_46 = arts.db_acquire[<in>] (%guid_18 : memref<?xi64>, %ptr_19 : memref<?xmemref<?x?xf64>>) partitioning(<coarse>), offsets[%c0_17], sizes[%c1] {arts.id = 278 : i64, arts.partition_hint = {blockSize = 11 : i64, mode = 1 : i8}, distribution_kind = #arts.distribution_kind<block>, distribution_pattern = #arts.distribution_pattern<matmul>, distribution_version = 1 : i32, stencil_block_shape = []} -> (memref<?xi64>, memref<?xmemref<?x?xf64>>)
          arts.lowering_contract(%ptr_46 : memref<?xmemref<?x?xf64>>) pattern(<distributionKind = <block>, distributionPattern = <matmul>, distributionVersion = 1 : i64>) contract(<postDbRefined = true>)
          %c1_47 = arith.constant 1 : index
          %c0_48 = arith.constant 0 : index
          %guid_49, %ptr_50 = arts.db_acquire[<inout>] (%guid_34 : memref<?xi64>, %ptr_35 : memref<?xmemref<?x?xf64>>) partitioning(<block>, offsets[%25], sizes[%c4]), offsets[%c0_48], sizes[%19] {arts.partition_hint = {blockSize = 11 : i64, mode = 1 : i8}, distribution_kind = #arts.distribution_kind<block>, distribution_pattern = #arts.distribution_pattern<matmul>, distribution_version = 1 : i32, stencil_block_shape = []} -> (memref<?xi64>, memref<?xmemref<?x?xf64>>)
          arts.lowering_contract(%ptr_50 : memref<?xmemref<?x?xf64>>) pattern(<distributionKind = <block>, distributionPattern = <matmul>, distributionVersion = 1 : i64>)
          %guid_51, %ptr_52 = arts.db_acquire[<in>] (%guid_23 : memref<?xi64>, %ptr_24 : memref<?xmemref<?x?xf64>>) partitioning(<coarse>), offsets[%c0_22], sizes[%c1] {arts.id = 275 : i64, arts.partition_hint = {blockSize = 11 : i64, mode = 1 : i8}, distribution_kind = #arts.distribution_kind<block>, distribution_pattern = #arts.distribution_pattern<matmul>, distribution_version = 1 : i32, stencil_block_shape = []} -> (memref<?xi64>, memref<?xmemref<?x?xf64>>)
          arts.lowering_contract(%ptr_52 : memref<?xmemref<?x?xf64>>) pattern(<distributionKind = <block>, distributionPattern = <matmul>, distributionVersion = 1 : i64>) contract(<postDbRefined = true>)
          arts.edt <task> <intranode> route(%c-1_i32) (%ptr_41, %ptr_43, %ptr_46, %ptr_50, %ptr_52) : memref<?xmemref<?x?xf64>>, memref<?xmemref<?x?xf64>>, memref<?xmemref<?x?xf64>>, memref<?xmemref<?x?xf64>>, memref<?xmemref<?x?xf64>> attributes {arts.id = 69 : i64, distribution_kind = #arts.distribution_kind<block>, distribution_pattern = #arts.distribution_pattern<matmul>, distribution_version = 1 : i32, stencil_block_shape = [4, 256]} {
          ^bb0(%arg3: memref<?xmemref<?x?xf64>>, %arg4: memref<?xmemref<?x?xf64>>, %arg5: memref<?xmemref<?x?xf64>>, %arg6: memref<?xmemref<?x?xf64>>, %arg7: memref<?xmemref<?x?xf64>>):
            %c1_53 = arith.constant 1 : index
            %c0_54 = arith.constant 0 : index
            %74 = arith.maxui %13, %c1_53 : index
            %c0_55 = arith.constant 0 : index
            %c1_56 = arith.constant 1 : index
            %c0_57 = arith.constant 0 : index
            %75 = arith.maxui %6, %c1_56 : index
            %c0_58 = arith.constant 0 : index
            %c4_59 = arith.constant 4 : index
            %76 = arith.muli %arg2, %c4_59 : index
            %c11_60 = arith.constant 11 : index
            %c1_61 = arith.constant 1 : index
            %77 = arith.maxui %c11_60, %c1_61 : index
            %c1_62 = arith.constant 1 : index
            %78 = arith.maxui %77, %c1_62 : index
            %79 = arith.divui %76, %78 : index
            %80 = arith.select %47, %c0_58, %79 : index
            %81 = arith.subi %c0, %25 : index
            %82 = arith.cmpi slt, %81, %c0 : index
            %83 = arith.select %82, %c0, %81 : index
            %84 = arith.cmpi slt, %27, %c0 : index
            %85 = arith.select %84, %c0, %27 : index
            %86 = arith.minui %85, %29 : index
            scf.for %arg8 = %83 to %86 step %c1 {
              %87 = arith.addi %25, %arg8 : index
              scf.for %arg9 = %c0 to %c256 step %c1 {
                %c1_63 = arith.constant 1 : index
                %88 = arith.maxui %75, %c1_63 : index
                %c0_64 = arith.constant 0 : index
                %c1_65 = arith.constant 1 : index
                %c-1 = arith.constant -1 : index
                %89 = arith.addi %25, %83 : index
                %90 = arith.divui %89, %88 : index
                %91 = arith.remui %89, %88 : index
                %92 = arith.subi %arg8, %83 : index
                %93 = arith.addi %91, %92 : index
                %94 = arith.subi %90, %80 : index
                %95 = arith.cmpi slt, %93, %c0_64 : index
                %96 = arith.cmpi sge, %93, %88 : index
                %97 = arith.select %95, %c-1, %c0_64 : index
                %98 = arith.select %96, %c1_65, %97 : index
                %99 = arith.addi %94, %98 : index
                %100 = arith.subi %93, %88 : index
                %101 = arith.addi %93, %88 : index
                %102 = arith.select %95, %101, %93 : index
                %103 = arith.select %96, %100, %102 : index
                %104 = arts.db_ref %arg3[%c0_57] : memref<?xmemref<?x?xf64>> -> memref<?x?xf64>
                memref.store %cst_2, %104[%103, %arg9] : memref<?x?xf64>
              } {arts.id = 261 : i64, arts.loop = #arts.loop_metadata<potentiallyParallel = false, hasReductions = false, tripCount = 256 : i64, nestingLevel = 1 : i64, hasInterIterationDeps = false, memrefsWithLoopCarriedDeps = 0 : i64, parallelClassification = 0 : i64, locationKey = "2mm.c:137:3">, arts.metadata_provenance = "exact"}
              scf.for %arg9 = %c0 to %c256 step %c1 {
                scf.for %arg10 = %c0 to %c256 step %c1 {
                  %88 = arts.db_ref %arg4[%c0] : memref<?xmemref<?x?xf64>> -> memref<?x?xf64>
                  %89 = memref.load %88[%87, %arg9] : memref<?x?xf64>
                  %90 = arith.mulf %89, %cst_0 : f64
                  %91 = arts.db_ref %arg5[%c0] : memref<?xmemref<?x?xf64>> -> memref<?x?xf64>
                  %92 = memref.load %91[%arg9, %arg10] : memref<?x?xf64>
                  %93 = arith.mulf %90, %92 : f64
                  %c1_63 = arith.constant 1 : index
                  %94 = arith.maxui %75, %c1_63 : index
                  %c0_64 = arith.constant 0 : index
                  %c1_65 = arith.constant 1 : index
                  %c-1 = arith.constant -1 : index
                  %95 = arith.addi %25, %83 : index
                  %96 = arith.divui %95, %94 : index
                  %97 = arith.remui %95, %94 : index
                  %98 = arith.subi %arg8, %83 : index
                  %99 = arith.addi %97, %98 : index
                  %100 = arith.subi %96, %80 : index
                  %101 = arith.cmpi slt, %99, %c0_64 : index
                  %102 = arith.cmpi sge, %99, %94 : index
                  %103 = arith.select %101, %c-1, %c0_64 : index
                  %104 = arith.select %102, %c1_65, %103 : index
                  %105 = arith.addi %100, %104 : index
                  %106 = arith.subi %99, %94 : index
                  %107 = arith.addi %99, %94 : index
                  %108 = arith.select %101, %107, %99 : index
                  %109 = arith.select %102, %106, %108 : index
                  %110 = arts.db_ref %arg3[%c0_57] : memref<?xmemref<?x?xf64>> -> memref<?x?xf64>
                  %111 = memref.load %110[%109, %arg10] : memref<?x?xf64>
                  %112 = arith.addf %111, %93 : f64
                  %c1_66 = arith.constant 1 : index
                  %113 = arith.maxui %75, %c1_66 : index
                  %c0_67 = arith.constant 0 : index
                  %c1_68 = arith.constant 1 : index
                  %c-1_69 = arith.constant -1 : index
                  %114 = arith.addi %25, %83 : index
                  %115 = arith.divui %114, %113 : index
                  %116 = arith.remui %114, %113 : index
                  %117 = arith.subi %arg8, %83 : index
                  %118 = arith.addi %116, %117 : index
                  %119 = arith.subi %115, %80 : index
                  %120 = arith.cmpi slt, %118, %c0_67 : index
                  %121 = arith.cmpi sge, %118, %113 : index
                  %122 = arith.select %120, %c-1_69, %c0_67 : index
                  %123 = arith.select %121, %c1_68, %122 : index
                  %124 = arith.addi %119, %123 : index
                  %125 = arith.subi %118, %113 : index
                  %126 = arith.addi %118, %113 : index
                  %127 = arith.select %120, %126, %118 : index
                  %128 = arith.select %121, %125, %127 : index
                  %129 = arts.db_ref %arg3[%c0_57] : memref<?xmemref<?x?xf64>> -> memref<?x?xf64>
                  memref.store %112, %129[%128, %arg10] : memref<?x?xf64>
                } {arts.id = 263 : i64, arts.loop = #arts.loop_metadata<potentiallyParallel = false, hasReductions = false, tripCount = 256 : i64, nestingLevel = 2 : i64, hasInterIterationDeps = false, memrefsWithLoopCarriedDeps = 0 : i64, parallelClassification = 0 : i64, locationKey = "2mm.c:137:3">, arts.metadata_origin_id = 263 : i64, arts.metadata_provenance = "transferred"}
              } {arts.id = 262 : i64, arts.loop = #arts.loop_metadata<potentiallyParallel = false, hasReductions = false, tripCount = 256 : i64, nestingLevel = 1 : i64, hasInterIterationDeps = false, memrefsWithLoopCarriedDeps = 0 : i64, parallelClassification = 0 : i64, locationKey = "2mm.c:137:3">, arts.metadata_origin_id = 262 : i64, arts.metadata_provenance = "transferred"}
            } {arts.id = 272 : i64, arts.loop = #arts.loop_metadata<potentiallyParallel = true, hasReductions = false, tripCount = 0 : i64, nestingLevel = 1 : i64, hasInterIterationDeps = false, memrefsWithLoopCarriedDeps = 0 : i64, parallelClassification = 2 : i64, locationKey = "2mm.c:137:3">, arts.metadata_provenance = "exact"}
            arts.db_release(%arg3) : memref<?xmemref<?x?xf64>>
            arts.db_release(%arg4) : memref<?xmemref<?x?xf64>>
            arts.db_release(%arg5) : memref<?xmemref<?x?xf64>>
            arts.db_release(%arg6) : memref<?xmemref<?x?xf64>>
            arts.db_release(%arg7) : memref<?xmemref<?x?xf64>>
          }
        }
      }
    } : i64
    %21 = arts.epoch attributes {distribution_kind = #arts.distribution_kind<block>, distribution_pattern = #arts.distribution_pattern<matmul>, distribution_version = 1 : i32} {
      scf.for %arg2 = %c0 to %c64 step %c1 {
        %25 = arith.muli %arg2, %c4 : index
        %26 = arith.cmpi uge, %25, %c256 : index
        %27 = arith.subi %c256, %25 : index
        %28 = arith.select %26, %c0, %27 : index
        %29 = arith.minui %28, %c4 : index
        %30 = arith.cmpi ugt, %29, %c0 : index
        scf.if %30 {
          %31 = arith.divui %25, %c256 : index
          %32 = arith.addi %25, %c3 : index
          %33 = arith.divui %32, %c256 : index
          %34 = arith.cmpi ugt, %31, %c0 : index
          %35 = arith.select %34, %33, %c0 : index
          %36 = arith.subi %35, %31 : index
          %37 = arith.addi %36, %c1 : index
          %38 = arith.select %34, %c0, %31 : index
          %39 = arith.select %34, %c0, %37 : index
          %c1_38 = arith.constant 1 : index
          %c0_39 = arith.constant 0 : index
          %40 = arith.maxui %6, %c1_38 : index
          %41 = arith.muli %12, %40 : index
          %42 = arith.divui %25, %40 : index
          %43 = arith.addi %25, %c4 : index
          %44 = arith.subi %43, %c1_38 : index
          %45 = arith.divui %44, %40 : index
          %46 = arith.subi %12, %c1_38 : index
          %47 = arith.cmpi ugt, %42, %46 : index
          %48 = arith.minui %45, %46 : index
          %49 = arith.select %47, %45, %48 : index
          %50 = arith.subi %49, %42 : index
          %51 = arith.addi %50, %c1_38 : index
          %52 = arith.select %47, %c0_39, %42 : index
          %53 = arith.select %47, %c0_39, %51 : index
          %guid_40, %ptr_41 = arts.db_acquire[<inout>] (%guid : memref<?xi64>, %ptr : memref<?xmemref<?x?xf64>>) partitioning(<block>, offsets[%25], sizes[%c4]), offsets[%52], sizes[%c1_38] {arts.partition_hint = {blockSize = 11 : i64, mode = 1 : i8}, distribution_kind = #arts.distribution_kind<block>, distribution_pattern = #arts.distribution_pattern<matmul>, distribution_version = 1 : i32, stencil_block_shape = [4, 256], stencil_owner_dims = [0]} -> (memref<?xi64>, memref<?xmemref<?x?xf64>>)
          arts.lowering_contract(%ptr_41 : memref<?xmemref<?x?xf64>>) pattern(<distributionKind = <block>, distributionPattern = <matmul>, distributionVersion = 1 : i64>) block_shape[%c4] contract(<ownerDims = [0]>)
          %54 = arith.addi %25, %29 : index
          %55 = arith.cmpi uge, %25, %c1 : index
          %56 = arith.subi %25, %c1 : index
          %57 = arith.select %55, %56, %c0 : index
          %58 = arith.addi %54, %c1 : index
          %59 = arith.minui %58, %c256 : index
          %60 = arith.cmpi uge, %59, %57 : index
          %61 = arith.subi %59, %57 : index
          %62 = arith.select %60, %61, %c0 : index
          %63 = arith.maxui %62, %c1 : index
          %64 = arith.divui %57, %c256 : index
          %65 = arith.addi %57, %63 : index
          %66 = arith.subi %65, %c1 : index
          %67 = arith.divui %66, %c256 : index
          %68 = arith.cmpi ugt, %64, %c0 : index
          %69 = arith.select %68, %67, %c0 : index
          %70 = arith.subi %69, %64 : index
          %71 = arith.addi %70, %c1 : index
          %72 = arith.select %68, %c0, %64 : index
          %73 = arith.select %68, %c0, %71 : index
          %guid_42, %ptr_43 = arts.db_acquire[<in>] (%guid_13 : memref<?xi64>, %ptr_14 : memref<?xmemref<?x?xf64>>) partitioning(<coarse>), offsets[%c0_12], sizes[%c1] {arts.id = 277 : i64, arts.partition_hint = {blockSize = 11 : i64, mode = 1 : i8}, distribution_kind = #arts.distribution_kind<block>, distribution_pattern = #arts.distribution_pattern<matmul>, distribution_version = 1 : i32, stencil_block_shape = []} -> (memref<?xi64>, memref<?xmemref<?x?xf64>>)
          arts.lowering_contract(%ptr_43 : memref<?xmemref<?x?xf64>>) pattern(<distributionKind = <block>, distributionPattern = <matmul>, distributionVersion = 1 : i64>) contract(<postDbRefined = true>)
          %guid_44, %ptr_45 = arts.db_acquire[<in>] (%guid_18 : memref<?xi64>, %ptr_19 : memref<?xmemref<?x?xf64>>) partitioning(<coarse>), offsets[%c0_17], sizes[%c1] {arts.id = 279 : i64, arts.partition_hint = {blockSize = 11 : i64, mode = 1 : i8}, distribution_kind = #arts.distribution_kind<block>, distribution_pattern = #arts.distribution_pattern<matmul>, distribution_version = 1 : i32, stencil_block_shape = []} -> (memref<?xi64>, memref<?xmemref<?x?xf64>>)
          arts.lowering_contract(%ptr_45 : memref<?xmemref<?x?xf64>>) pattern(<distributionKind = <block>, distributionPattern = <matmul>, distributionVersion = 1 : i64>) contract(<postDbRefined = true>)
          %c1_46 = arith.constant 1 : index
          %c0_47 = arith.constant 0 : index
          %74 = arith.maxui %13, %c1_46 : index
          %75 = arith.muli %19, %74 : index
          %76 = arith.divui %25, %74 : index
          %77 = arith.addi %25, %c4 : index
          %78 = arith.subi %77, %c1_46 : index
          %79 = arith.divui %78, %74 : index
          %80 = arith.subi %19, %c1_46 : index
          %81 = arith.cmpi ugt, %76, %80 : index
          %82 = arith.minui %79, %80 : index
          %83 = arith.select %81, %79, %82 : index
          %84 = arith.subi %83, %76 : index
          %85 = arith.addi %84, %c1_46 : index
          %86 = arith.select %81, %c0_47, %76 : index
          %87 = arith.select %81, %c0_47, %85 : index
          %guid_48, %ptr_49 = arts.db_acquire[<inout>] (%guid_34 : memref<?xi64>, %ptr_35 : memref<?xmemref<?x?xf64>>) partitioning(<block>, offsets[%25], sizes[%c4]), offsets[%86], sizes[%c1_46] {arts.partition_hint = {blockSize = 11 : i64, mode = 1 : i8}, distribution_kind = #arts.distribution_kind<block>, distribution_pattern = #arts.distribution_pattern<matmul>, distribution_version = 1 : i32, stencil_block_shape = [4, 256], stencil_owner_dims = [0]} -> (memref<?xi64>, memref<?xmemref<?x?xf64>>)
          arts.lowering_contract(%ptr_49 : memref<?xmemref<?x?xf64>>) pattern(<distributionKind = <block>, distributionPattern = <matmul>, distributionVersion = 1 : i64>) block_shape[%c4] contract(<ownerDims = [0]>)
          %c0_50 = arith.constant 0 : index
          %guid_51, %ptr_52 = arts.db_acquire[<in>] (%guid_23 : memref<?xi64>, %ptr_24 : memref<?xmemref<?x?xf64>>) partitioning(<coarse>), offsets[%c0_22], sizes[%c1] {arts.id = 276 : i64, arts.partition_hint = {blockSize = 11 : i64, mode = 1 : i8}, distribution_kind = #arts.distribution_kind<block>, distribution_pattern = #arts.distribution_pattern<matmul>, distribution_version = 1 : i32, stencil_block_shape = []} -> (memref<?xi64>, memref<?xmemref<?x?xf64>>)
          arts.lowering_contract(%ptr_52 : memref<?xmemref<?x?xf64>>) pattern(<distributionKind = <block>, distributionPattern = <matmul>, distributionVersion = 1 : i64>) contract(<postDbRefined = true>)
          arts.edt <task> <intranode> route(%c-1_i32) (%ptr_41, %ptr_43, %ptr_45, %ptr_49, %ptr_52) : memref<?xmemref<?x?xf64>>, memref<?xmemref<?x?xf64>>, memref<?xmemref<?x?xf64>>, memref<?xmemref<?x?xf64>>, memref<?xmemref<?x?xf64>> attributes {arts.id = 274 : i64, distribution_kind = #arts.distribution_kind<block>, distribution_pattern = #arts.distribution_pattern<matmul>, distribution_version = 1 : i32, stencil_block_shape = [4, 256]} {
          ^bb0(%arg3: memref<?xmemref<?x?xf64>>, %arg4: memref<?xmemref<?x?xf64>>, %arg5: memref<?xmemref<?x?xf64>>, %arg6: memref<?xmemref<?x?xf64>>, %arg7: memref<?xmemref<?x?xf64>>):
            %c1_53 = arith.constant 1 : index
            %c0_54 = arith.constant 0 : index
            %88 = arith.maxui %13, %c1_53 : index
            %c0_55 = arith.constant 0 : index
            %c4_56 = arith.constant 4 : index
            %89 = arith.muli %arg2, %c4_56 : index
            %c11_57 = arith.constant 11 : index
            %c1_58 = arith.constant 1 : index
            %90 = arith.maxui %c11_57, %c1_58 : index
            %c1_59 = arith.constant 1 : index
            %91 = arith.maxui %90, %c1_59 : index
            %92 = arith.divui %89, %91 : index
            %93 = arith.select %81, %c0_55, %92 : index
            %c1_60 = arith.constant 1 : index
            %c0_61 = arith.constant 0 : index
            %94 = arith.maxui %6, %c1_60 : index
            %c0_62 = arith.constant 0 : index
            %c4_63 = arith.constant 4 : index
            %95 = arith.muli %arg2, %c4_63 : index
            %c11_64 = arith.constant 11 : index
            %c1_65 = arith.constant 1 : index
            %96 = arith.maxui %c11_64, %c1_65 : index
            %c1_66 = arith.constant 1 : index
            %97 = arith.maxui %96, %c1_66 : index
            %98 = arith.divui %95, %97 : index
            %99 = arith.select %47, %c0_62, %98 : index
            %100 = arith.subi %c0, %25 : index
            %101 = arith.cmpi slt, %100, %c0 : index
            %102 = arith.select %101, %c0, %100 : index
            %103 = arith.cmpi slt, %27, %c0 : index
            %104 = arith.select %103, %c0, %27 : index
            %105 = arith.minui %104, %29 : index
            scf.for %arg8 = %102 to %105 step %c1 {
              %106 = arith.addi %25, %arg8 : index
              scf.for %arg9 = %c0 to %c256 step %c1 {
                %c1_67 = arith.constant 1 : index
                %107 = arith.maxui %88, %c1_67 : index
                %c0_68 = arith.constant 0 : index
                %c1_69 = arith.constant 1 : index
                %c-1 = arith.constant -1 : index
                %108 = arith.addi %25, %102 : index
                %109 = arith.divui %108, %107 : index
                %110 = arith.remui %108, %107 : index
                %111 = arith.subi %arg8, %102 : index
                %112 = arith.addi %110, %111 : index
                %113 = arith.subi %109, %93 : index
                %114 = arith.cmpi slt, %112, %c0_68 : index
                %115 = arith.cmpi sge, %112, %107 : index
                %116 = arith.select %114, %c-1, %c0_68 : index
                %117 = arith.select %115, %c1_69, %116 : index
                %118 = arith.addi %113, %117 : index
                %119 = arith.subi %112, %107 : index
                %120 = arith.addi %112, %107 : index
                %121 = arith.select %114, %120, %112 : index
                %122 = arith.select %115, %119, %121 : index
                %123 = arts.db_ref %arg6[%c0_54] : memref<?xmemref<?x?xf64>> -> memref<?x?xf64>
                %124 = memref.load %123[%122, %arg9] : memref<?x?xf64>
                %125 = arith.mulf %124, %cst : f64
                %c1_70 = arith.constant 1 : index
                %126 = arith.maxui %88, %c1_70 : index
                %c0_71 = arith.constant 0 : index
                %c1_72 = arith.constant 1 : index
                %c-1_73 = arith.constant -1 : index
                %127 = arith.addi %25, %102 : index
                %128 = arith.divui %127, %126 : index
                %129 = arith.remui %127, %126 : index
                %130 = arith.subi %arg8, %102 : index
                %131 = arith.addi %129, %130 : index
                %132 = arith.subi %128, %93 : index
                %133 = arith.cmpi slt, %131, %c0_71 : index
                %134 = arith.cmpi sge, %131, %126 : index
                %135 = arith.select %133, %c-1_73, %c0_71 : index
                %136 = arith.select %134, %c1_72, %135 : index
                %137 = arith.addi %132, %136 : index
                %138 = arith.subi %131, %126 : index
                %139 = arith.addi %131, %126 : index
                %140 = arith.select %133, %139, %131 : index
                %141 = arith.select %134, %138, %140 : index
                %142 = arts.db_ref %arg6[%c0_54] : memref<?xmemref<?x?xf64>> -> memref<?x?xf64>
                memref.store %125, %142[%141, %arg9] : memref<?x?xf64>
              } {arts.id = 264 : i64, arts.loop = #arts.loop_metadata<potentiallyParallel = false, hasReductions = false, tripCount = 256 : i64, nestingLevel = 1 : i64, hasInterIterationDeps = false, memrefsWithLoopCarriedDeps = 0 : i64, parallelClassification = 0 : i64, locationKey = "2mm.c:137:3">, arts.metadata_provenance = "exact"}
              scf.for %arg9 = %c0 to %c256 step %c1 {
                scf.for %arg10 = %c0 to %c256 step %c1 {
                  %c1_67 = arith.constant 1 : index
                  %107 = arith.maxui %94, %c1_67 : index
                  %c0_68 = arith.constant 0 : index
                  %c1_69 = arith.constant 1 : index
                  %c-1 = arith.constant -1 : index
                  %108 = arith.addi %25, %102 : index
                  %109 = arith.divui %108, %107 : index
                  %110 = arith.remui %108, %107 : index
                  %111 = arith.subi %arg8, %102 : index
                  %112 = arith.addi %110, %111 : index
                  %113 = arith.subi %109, %99 : index
                  %114 = arith.cmpi slt, %112, %c0_68 : index
                  %115 = arith.cmpi sge, %112, %107 : index
                  %116 = arith.select %114, %c-1, %c0_68 : index
                  %117 = arith.select %115, %c1_69, %116 : index
                  %118 = arith.addi %113, %117 : index
                  %119 = arith.subi %112, %107 : index
                  %120 = arith.addi %112, %107 : index
                  %121 = arith.select %114, %120, %112 : index
                  %122 = arith.select %115, %119, %121 : index
                  %123 = arts.db_ref %arg3[%c0_61] : memref<?xmemref<?x?xf64>> -> memref<?x?xf64>
                  %124 = memref.load %123[%122, %arg9] : memref<?x?xf64>
                  %125 = arts.db_ref %arg7[%c0] : memref<?xmemref<?x?xf64>> -> memref<?x?xf64>
                  %126 = memref.load %125[%arg9, %arg10] : memref<?x?xf64>
                  %127 = arith.mulf %124, %126 : f64
                  %c1_70 = arith.constant 1 : index
                  %128 = arith.maxui %88, %c1_70 : index
                  %c0_71 = arith.constant 0 : index
                  %c1_72 = arith.constant 1 : index
                  %c-1_73 = arith.constant -1 : index
                  %129 = arith.addi %25, %102 : index
                  %130 = arith.divui %129, %128 : index
                  %131 = arith.remui %129, %128 : index
                  %132 = arith.subi %arg8, %102 : index
                  %133 = arith.addi %131, %132 : index
                  %134 = arith.subi %130, %93 : index
                  %135 = arith.cmpi slt, %133, %c0_71 : index
                  %136 = arith.cmpi sge, %133, %128 : index
                  %137 = arith.select %135, %c-1_73, %c0_71 : index
                  %138 = arith.select %136, %c1_72, %137 : index
                  %139 = arith.addi %134, %138 : index
                  %140 = arith.subi %133, %128 : index
                  %141 = arith.addi %133, %128 : index
                  %142 = arith.select %135, %141, %133 : index
                  %143 = arith.select %136, %140, %142 : index
                  %144 = arts.db_ref %arg6[%c0_54] : memref<?xmemref<?x?xf64>> -> memref<?x?xf64>
                  %145 = memref.load %144[%143, %arg10] : memref<?x?xf64>
                  %146 = arith.addf %145, %127 : f64
                  %c1_74 = arith.constant 1 : index
                  %147 = arith.maxui %88, %c1_74 : index
                  %c0_75 = arith.constant 0 : index
                  %c1_76 = arith.constant 1 : index
                  %c-1_77 = arith.constant -1 : index
                  %148 = arith.addi %25, %102 : index
                  %149 = arith.divui %148, %147 : index
                  %150 = arith.remui %148, %147 : index
                  %151 = arith.subi %arg8, %102 : index
                  %152 = arith.addi %150, %151 : index
                  %153 = arith.subi %149, %93 : index
                  %154 = arith.cmpi slt, %152, %c0_75 : index
                  %155 = arith.cmpi sge, %152, %147 : index
                  %156 = arith.select %154, %c-1_77, %c0_75 : index
                  %157 = arith.select %155, %c1_76, %156 : index
                  %158 = arith.addi %153, %157 : index
                  %159 = arith.subi %152, %147 : index
                  %160 = arith.addi %152, %147 : index
                  %161 = arith.select %154, %160, %152 : index
                  %162 = arith.select %155, %159, %161 : index
                  %163 = arts.db_ref %arg6[%c0_54] : memref<?xmemref<?x?xf64>> -> memref<?x?xf64>
                  memref.store %146, %163[%162, %arg10] : memref<?x?xf64>
                } {arts.id = 266 : i64, arts.loop = #arts.loop_metadata<potentiallyParallel = false, hasReductions = false, tripCount = 256 : i64, nestingLevel = 2 : i64, hasInterIterationDeps = false, memrefsWithLoopCarriedDeps = 0 : i64, parallelClassification = 0 : i64, locationKey = "2mm.c:137:3">, arts.metadata_origin_id = 266 : i64, arts.metadata_provenance = "transferred"}
              } {arts.id = 265 : i64, arts.loop = #arts.loop_metadata<potentiallyParallel = false, hasReductions = false, tripCount = 256 : i64, nestingLevel = 1 : i64, hasInterIterationDeps = false, memrefsWithLoopCarriedDeps = 0 : i64, parallelClassification = 0 : i64, locationKey = "2mm.c:137:3">, arts.metadata_origin_id = 265 : i64, arts.metadata_provenance = "transferred"}
            } {arts.id = 273 : i64, arts.loop = #arts.loop_metadata<potentiallyParallel = true, hasReductions = false, tripCount = 0 : i64, nestingLevel = 1 : i64, hasInterIterationDeps = false, memrefsWithLoopCarriedDeps = 0 : i64, parallelClassification = 2 : i64, locationKey = "2mm.c:137:3">, arts.metadata_provenance = "exact"}
            arts.db_release(%arg3) : memref<?xmemref<?x?xf64>>
            arts.db_release(%arg4) : memref<?xmemref<?x?xf64>>
            arts.db_release(%arg5) : memref<?xmemref<?x?xf64>>
            arts.db_release(%arg6) : memref<?xmemref<?x?xf64>>
            arts.db_release(%arg7) : memref<?xmemref<?x?xf64>>
          }
        }
      }
    } : i64
    call @carts_kernel_timer_stop(%4) : (memref<?xi8>) -> ()
    %22 = polygeist.pointer2memref %1 : !llvm.ptr to memref<?xi8>
    call @carts_phase_timer_start(%22, %4) : (memref<?xi8>, memref<?xi8>) -> ()
    %23 = scf.for %arg2 = %c0 to %c256 step %c1 iter_args(%arg3 = %cst_2) -> (f64) {
      %c1_38 = arith.constant 1 : index
      %25 = arith.maxui %13, %c1_38 : index
      %26 = arith.divui %arg2, %25 : index
      %27 = arith.subi %26, %c0_37 : index
      %28 = arith.remui %arg2, %25 : index
      %29 = arts.db_ref %ptr_35[%27] : memref<?xmemref<?x?xf64>> -> memref<?x?xf64>
      %30 = memref.load %29[%28, %arg2] : memref<?x?xf64>
      %31 = arith.addf %arg3, %30 : f64
      scf.yield %31 : f64
    }
    call @carts_bench_checksum_d(%23) : (f64) -> ()
    call @carts_phase_timer_stop(%22) : (memref<?xi8>) -> ()
    %24 = polygeist.pointer2memref %0 : !llvm.ptr to memref<?xi8>
    call @carts_phase_timer_start(%24, %4) : (memref<?xi8>, memref<?xi8>) -> ()
    call @carts_phase_timer_stop(%24) : (memref<?xi8>) -> ()
    call @carts_e2e_timer_stop() : () -> ()
    arts.db_free(%guid_23) : memref<?xi64>
    arts.db_free(%ptr_24) : memref<?xmemref<?x?xf64>>
    arts.db_free(%guid_34) : memref<?xi64>
    arts.db_free(%ptr_35) : memref<?xmemref<?x?xf64>>
    arts.db_free(%guid_18) : memref<?xi64>
    arts.db_free(%ptr_19) : memref<?xmemref<?x?xf64>>
    arts.db_free(%guid) : memref<?xi64>
    arts.db_free(%ptr) : memref<?xmemref<?x?xf64>>
    arts.db_free(%guid_13) : memref<?xi64>
    arts.db_free(%ptr_14) : memref<?xmemref<?x?xf64>>
    return %c0_i32 : i32
  }
  func.func private @carts_benchmarks_start() attributes {llvm.linkage = #llvm.linkage<external>}
  func.func private @carts_e2e_timer_start(memref<?xi8>) attributes {llvm.linkage = #llvm.linkage<external>}
  func.func private @carts_phase_timer_start(memref<?xi8>, memref<?xi8>) attributes {llvm.linkage = #llvm.linkage<external>}
  func.func private @carts_phase_timer_stop(memref<?xi8>) attributes {llvm.linkage = #llvm.linkage<external>}
  func.func private @carts_kernel_timer_start(memref<?xi8>) attributes {llvm.linkage = #llvm.linkage<external>}
  func.func private @carts_kernel_timer_stop(memref<?xi8>) attributes {llvm.linkage = #llvm.linkage<external>}
  func.func private @carts_bench_checksum_d(f64) attributes {llvm.linkage = #llvm.linkage<external>}
  func.func private @carts_e2e_timer_stop() attributes {llvm.linkage = #llvm.linkage<external>}
}
