module attributes {arts.runtime_config_data = "[ARTS]\0A# Contract config for high-thread single-node lowering checks.\0Aworker_threads=64\0A\0A# Network configuration\0Asender_threads=0\0Areceiver_threads=0\0Aport_count=1\0A\0A# Launcher configuration\0Alauncher=local\0Amaster_node=localhost\0Anode_count=1\0Anodes=localhost\0Adefault_ports=34739\0A\0A# Scheduling\0Aworker_init_deque_size=2048\0Aroute_table_size=16\0A\0A# Debug\0Acore_dump=1\0Acounter_folder=./counters\0A", arts.runtime_static_workers = false, arts.runtime_total_nodes = 1 : i64, arts.runtime_total_workers = 64 : i64, dlti.dl_spec = #dlti.dl_spec<!llvm.ptr<270> = dense<32> : vector<4xi64>, !llvm.ptr<271> = dense<32> : vector<4xi64>, !llvm.ptr<272> = dense<64> : vector<4xi64>, i64 = dense<64> : vector<2xi64>, i128 = dense<128> : vector<2xi64>, f80 = dense<128> : vector<2xi64>, !llvm.ptr = dense<64> : vector<4xi64>, i1 = dense<8> : vector<2xi64>, i8 = dense<8> : vector<2xi64>, i16 = dense<16> : vector<2xi64>, i32 = dense<32> : vector<2xi64>, f16 = dense<16> : vector<2xi64>, f64 = dense<64> : vector<2xi64>, f128 = dense<128> : vector<2xi64>, "dlti.endianness" = "little", "dlti.mangling_mode" = "e", "dlti.legal_int_widths" = array<i32: 8, 16, 32, 64>, "dlti.stack_alignment" = 128 : i64>, llvm.data_layout = "e-m:e-p270:32:32-p271:32:32-p272:64:64-i64:64-i128:128-f80:128-n8:16:32:64-S128", llvm.target_triple = "x86_64-unknown-linux-gnu", "polygeist.target-cpu" = "x86-64", "polygeist.target-features" = "+cmov,+cx8,+fxsr,+mmx,+sse,+sse2,+x87", "polygeist.tune-cpu" = "generic"} {
  llvm.mlir.global internal constant @str3("cleanup\00") {addr_space = 0 : i32}
  llvm.mlir.global internal constant @str2("verification\00") {addr_space = 0 : i32}
  llvm.mlir.global internal constant @str1("startup\00") {addr_space = 0 : i32}
  llvm.mlir.global internal constant @str0("2mm\00") {addr_space = 0 : i32}
  func.func @main(%arg0: i32, %arg1: memref<?xmemref<?xi8>>) -> i32 attributes {llvm.linkage = #llvm.linkage<external>} {
    %c3 = arith.constant 3 : index
    %c64 = arith.constant 64 : index
    %cst = arith.constant 2.123000e+03 : f64
    %cst_0 = arith.constant 3.241200e+04 : f64
    %c4 = arith.constant 4 : index
    %c-1_i32 = arith.constant -1 : i32
    %cst_1 = arith.constant 2.560000e+02 : f64
    %c1_i32 = arith.constant 1 : i32
    %c3_i32 = arith.constant 3 : i32
    %c2_i32 = arith.constant 2 : i32
    %c1 = arith.constant 1 : index
    %c256 = arith.constant 256 : index
    %c0 = arith.constant 0 : index
    %0 = llvm.mlir.addressof @str3 : !llvm.ptr
    %cst_2 = arith.constant 0.000000e+00 : f64
    %1 = llvm.mlir.addressof @str2 : !llvm.ptr
    %2 = llvm.mlir.addressof @str1 : !llvm.ptr
    %c0_i32 = arith.constant 0 : i32
    %3 = llvm.mlir.addressof @str0 : !llvm.ptr
    call @carts_benchmarks_start() : () -> ()
    %4 = polygeist.pointer2memref %3 : !llvm.ptr to memref<?xi8>
    call @carts_e2e_timer_start(%4) : (memref<?xi8>) -> ()
    %5 = polygeist.pointer2memref %2 : !llvm.ptr to memref<?xi8>
    call @carts_phase_timer_start(%5, %4) : (memref<?xi8>, memref<?xi8>) -> ()
    %c1_3 = arith.constant 1 : index
    %c1_4 = arith.constant 1 : index
    %6 = arith.minui %c4, %c4 : index
    %c1_5 = arith.constant 1 : index
    %7 = arith.maxui %6, %c1_5 : index
    %c1_i64 = arith.constant 1 : i64
    %8 = arith.index_cast %c256 : index to i64
    %9 = arith.index_cast %7 : index to i64
    %10 = arith.addi %8, %9 : i64
    %11 = arith.subi %10, %c1_i64 : i64
    %12 = arith.divui %11, %9 : i64
    %13 = arith.index_cast %12 : i64 to index
    %c0_6 = arith.constant 0 : index
    %c1_7 = arith.constant 1 : index
    %c0_8 = arith.constant 0 : index
    %c1_9 = arith.constant 1 : index
    %guid, %ptr = arts.db_alloc[<inout>, <heap>, <write>, <block>, <indexed>] route(%c-1_i32 : i32) sizes[%13] elementType(f64) elementSizes[%7, %c256] {arts.id = 30 : i64, arts.memref = #arts.memref_metadata<rank = 2 : i64, allocationId = "2mm.c:113:21", totalAccesses = 4 : i64, readCount = 2 : i64, writeCount = 2 : i64, allAccessesAffine = false, hasAffineAccesses = false, hasNonAffineAccesses = true, memoryFootprint = 524288 : i64, isFlattenedArray = false, shouldCanonicalize = false, isCanonicalized = false, firstUseId = 30 : i64, lastUseId = 31 : i64, hasUniformAccess = true, hasStrideOneAccess = false, dominantAccessPattern = 0 : i64, accessedInParallelLoop = true, hasLoopCarriedDeps = true, reuseDistance = 1 : i64, hasGoodSpatialLocality = true, dimAccessPatterns = [4, 2], estimatedAccessBytes = 32 : i64>, arts.metadata_origin_id = 30 : i64, arts.metadata_provenance = "transferred", arts.read_only_after_init} : (memref<?xi64>, memref<?xmemref<?x?xf64>>)
    arts.lowering_contract(%ptr : memref<?xmemref<?x?xf64>>) block_shape[%7] contract(<ownerDims = [0], postDbRefined = true>)
    %c1_10 = arith.constant 1 : index
    %c1_11 = arith.constant 1 : index
    %c1_12 = arith.constant 1 : index
    %14 = arts.runtime_query <total_workers> -> i32
    %15 = arith.index_castui %14 : i32 to index
    %16 = arith.maxui %15, %c1_12 : index
    %17 = arith.subi %16, %c1_12 : index
    %18 = arith.addi %c256, %17 : index
    %19 = arith.divui %18, %16 : index
    %20 = arith.maxui %19, %c1_12 : index
    %c1_13 = arith.constant 1 : index
    %21 = arith.maxui %20, %c1_13 : index
    %c1_i64_14 = arith.constant 1 : i64
    %22 = arith.index_cast %c256 : index to i64
    %23 = arith.index_cast %21 : index to i64
    %24 = arith.addi %22, %23 : i64
    %25 = arith.subi %24, %c1_i64_14 : i64
    %26 = arith.divui %25, %23 : i64
    %27 = arith.index_cast %26 : i64 to index
    %c0_15 = arith.constant 0 : index
    %c1_16 = arith.constant 1 : index
    %c0_17 = arith.constant 0 : index
    %c1_18 = arith.constant 1 : index
    %guid_19, %ptr_20 = arts.db_alloc[<in>, <heap>, <read>, <block>, <indexed>] route(%c-1_i32 : i32) sizes[%27] elementType(f64) elementSizes[%21, %c256] {arts.id = 32 : i64, arts.memref = #arts.memref_metadata<rank = 2 : i64, allocationId = "2mm.c:114:19", totalAccesses = 2 : i64, readCount = 1 : i64, writeCount = 1 : i64, allAccessesAffine = false, hasAffineAccesses = false, hasNonAffineAccesses = true, memoryFootprint = 524288 : i64, isFlattenedArray = false, shouldCanonicalize = false, isCanonicalized = false, firstUseId = 32 : i64, lastUseId = 33 : i64, hasUniformAccess = true, hasStrideOneAccess = false, dominantAccessPattern = 0 : i64, accessedInParallelLoop = true, hasLoopCarriedDeps = false, reuseDistance = 4 : i64, hasGoodSpatialLocality = true, dimAccessPatterns = [4, 3], estimatedAccessBytes = 16 : i64>, arts.metadata_origin_id = 32 : i64, arts.metadata_provenance = "transferred"} : (memref<?xi64>, memref<?xmemref<?x?xf64>>)
    arts.lowering_contract(%ptr_20 : memref<?xmemref<?x?xf64>>) block_shape[%21] contract(<ownerDims = [0], postDbRefined = true>)
    %c0_21 = arith.constant 0 : index
    %c1_22 = arith.constant 1 : index
    %c1_23 = arith.constant 1 : index
    %c0_24 = arith.constant 0 : index
    %guid_25, %ptr_26 = arts.db_alloc[<in>, <heap>, <read>, <coarse>, <uniform>] route(%c-1_i32 : i32) sizes[%c1] elementType(f64) elementSizes[%c256, %c256] {arts.id = 34 : i64, arts.memref = #arts.memref_metadata<rank = 2 : i64, allocationId = "2mm.c:115:19", totalAccesses = 2 : i64, readCount = 1 : i64, writeCount = 1 : i64, allAccessesAffine = true, hasAffineAccesses = false, hasNonAffineAccesses = false, memoryFootprint = 524288 : i64, isFlattenedArray = false, shouldCanonicalize = false, isCanonicalized = false, firstUseId = 34 : i64, lastUseId = 35 : i64, hasUniformAccess = true, hasStrideOneAccess = false, dominantAccessPattern = 0 : i64, accessedInParallelLoop = true, hasLoopCarriedDeps = false, reuseDistance = 4 : i64, hasGoodSpatialLocality = true, dimAccessPatterns = [3, 3], estimatedAccessBytes = 16 : i64>, arts.metadata_origin_id = 34 : i64, arts.metadata_provenance = "transferred"} : (memref<?xi64>, memref<?xmemref<?x?xf64>>)
    %c1_27 = arith.constant 1 : index
    %c1_28 = arith.constant 1 : index
    %c0_29 = arith.constant 0 : index
    %guid_30, %ptr_31 = arts.db_alloc[<in>, <heap>, <read>, <coarse>, <uniform>] route(%c-1_i32 : i32) sizes[%c1] elementType(f64) elementSizes[%c256, %c256] {arts.id = 36 : i64, arts.memref = #arts.memref_metadata<rank = 2 : i64, allocationId = "2mm.c:116:19", totalAccesses = 2 : i64, readCount = 1 : i64, writeCount = 1 : i64, allAccessesAffine = true, hasAffineAccesses = false, hasNonAffineAccesses = false, memoryFootprint = 524288 : i64, isFlattenedArray = false, shouldCanonicalize = false, isCanonicalized = false, firstUseId = 36 : i64, lastUseId = 37 : i64, hasUniformAccess = true, hasStrideOneAccess = false, dominantAccessPattern = 0 : i64, accessedInParallelLoop = true, hasLoopCarriedDeps = false, reuseDistance = 4 : i64, hasGoodSpatialLocality = true, dimAccessPatterns = [3, 3], estimatedAccessBytes = 16 : i64>, arts.metadata_origin_id = 36 : i64, arts.metadata_provenance = "transferred"} : (memref<?xi64>, memref<?xmemref<?x?xf64>>)
    %c1_32 = arith.constant 1 : index
    %c1_33 = arith.constant 1 : index
    %28 = arith.minui %c4, %c4 : index
    %c1_34 = arith.constant 1 : index
    %29 = arith.maxui %28, %c1_34 : index
    %c1_i64_35 = arith.constant 1 : i64
    %30 = arith.index_cast %c256 : index to i64
    %31 = arith.index_cast %29 : index to i64
    %32 = arith.addi %30, %31 : i64
    %33 = arith.subi %32, %c1_i64_35 : i64
    %34 = arith.divui %33, %31 : i64
    %35 = arith.index_cast %34 : i64 to index
    %c0_36 = arith.constant 0 : index
    %c1_37 = arith.constant 1 : index
    %c0_38 = arith.constant 0 : index
    %c1_39 = arith.constant 1 : index
    %guid_40, %ptr_41 = arts.db_alloc[<inout>, <heap>, <write>, <block>, <indexed>] route(%c-1_i32 : i32) sizes[%35] elementType(f64) elementSizes[%29, %c256] {arts.id = 38 : i64, arts.memref = #arts.memref_metadata<rank = 2 : i64, allocationId = "2mm.c:117:19", totalAccesses = 6 : i64, readCount = 3 : i64, writeCount = 3 : i64, allAccessesAffine = false, hasAffineAccesses = false, hasNonAffineAccesses = true, memoryFootprint = 524288 : i64, isFlattenedArray = false, shouldCanonicalize = false, isCanonicalized = false, firstUseId = 38 : i64, lastUseId = 39 : i64, hasUniformAccess = false, hasStrideOneAccess = false, dominantAccessPattern = 0 : i64, accessedInParallelLoop = true, hasLoopCarriedDeps = true, reuseDistance = 1 : i64, hasGoodSpatialLocality = true, dimAccessPatterns = [4, 3], estimatedAccessBytes = 48 : i64>, arts.metadata_origin_id = 38 : i64, arts.metadata_provenance = "transferred", arts.read_only_after_init} : (memref<?xi64>, memref<?xmemref<?x?xf64>>)
    arts.lowering_contract(%ptr_41 : memref<?xmemref<?x?xf64>>) block_shape[%29] contract(<ownerDims = [0], postDbRefined = true>)
    %c0_42 = arith.constant 0 : index
    %c0_43 = arith.constant 0 : index
    scf.for %arg2 = %c0 to %c256 step %c1 {
      %41 = arith.index_cast %arg2 : index to i32
      %42 = arith.sitofp %41 : i32 to f64
      scf.for %arg3 = %c0 to %c256 step %c1 {
        %43 = arith.index_cast %arg3 : index to i32
        %44 = arith.sitofp %43 : i32 to f64
        %45 = arith.mulf %42, %44 : f64
        %46 = arith.divf %45, %cst_1 : f64
        %c1_44 = arith.constant 1 : index
        %47 = arith.maxui %21, %c1_44 : index
        %48 = arith.divui %arg2, %47 : index
        %49 = arith.subi %48, %c0_21 : index
        %50 = arith.remui %arg2, %47 : index
        %51 = arts.db_ref %ptr_20[%49] : memref<?xmemref<?x?xf64>> -> memref<?x?xf64>
        memref.store %46, %51[%50, %arg3] : memref<?x?xf64>
      }
    }
    scf.for %arg2 = %c0 to %c256 step %c1 {
      %41 = arith.index_cast %arg2 : index to i32
      %42 = arith.sitofp %41 : i32 to f64
      scf.for %arg3 = %c0 to %c256 step %c1 {
        %43 = arith.index_cast %arg3 : index to i32
        %44 = arith.addi %43, %c1_i32 : i32
        %45 = arith.sitofp %44 : i32 to f64
        %46 = arith.mulf %42, %45 : f64
        %47 = arith.divf %46, %cst_1 : f64
        %48 = arts.db_ref %ptr_26[%c0] : memref<?xmemref<?x?xf64>> -> memref<?x?xf64>
        memref.store %47, %48[%arg2, %arg3] : memref<?x?xf64>
      }
    }
    scf.for %arg2 = %c0 to %c256 step %c1 {
      %41 = arith.index_cast %arg2 : index to i32
      %42 = arith.sitofp %41 : i32 to f64
      scf.for %arg3 = %c0 to %c256 step %c1 {
        %43 = arith.index_cast %arg3 : index to i32
        %44 = arith.addi %43, %c3_i32 : i32
        %45 = arith.sitofp %44 : i32 to f64
        %46 = arith.mulf %42, %45 : f64
        %47 = arith.divf %46, %cst_1 : f64
        %48 = arts.db_ref %ptr_31[%c0] : memref<?xmemref<?x?xf64>> -> memref<?x?xf64>
        memref.store %47, %48[%arg2, %arg3] : memref<?x?xf64>
      }
    }
    scf.for %arg2 = %c0 to %c256 step %c1 {
      %41 = arith.index_cast %arg2 : index to i32
      %42 = arith.sitofp %41 : i32 to f64
      scf.for %arg3 = %c0 to %c256 step %c1 {
        %43 = arith.index_cast %arg3 : index to i32
        %44 = arith.addi %43, %c2_i32 : i32
        %45 = arith.sitofp %44 : i32 to f64
        %46 = arith.mulf %42, %45 : f64
        %47 = arith.divf %46, %cst_1 : f64
        %c1_44 = arith.constant 1 : index
        %48 = arith.maxui %29, %c1_44 : index
        %49 = arith.divui %arg2, %48 : index
        %50 = arith.subi %49, %c0_42 : index
        %51 = arith.remui %arg2, %48 : index
        %52 = arts.db_ref %ptr_41[%50] : memref<?xmemref<?x?xf64>> -> memref<?x?xf64>
        memref.store %47, %52[%51, %arg3] : memref<?x?xf64>
      }
    }
    call @carts_phase_timer_stop(%5) : (memref<?xi8>) -> ()
    call @carts_kernel_timer_start(%4) : (memref<?xi8>) -> ()
    %36 = arts.epoch attributes {arts.pattern_revision = 2 : i64, arts.plan.async_strategy = "blocking", arts.plan.cost.expected_local_work = 0 : i64, arts.plan.cost.relaunch_amortization = 0 : i64, arts.plan.cost.scheduler_overhead = 300 : i64, arts.plan.cost.slice_widening_pressure = 0 : i64, arts.plan.iteration_topology = "owner_strip", arts.plan.kernel_family = "uniform", arts.plan.repetition_structure = "none", depPattern = #arts.dep_pattern<uniform>, distribution_kind = #arts.distribution_kind<block>, distribution_pattern = #arts.distribution_pattern<uniform>, distribution_version = 1 : i32} {
      scf.for %arg2 = %c0 to %c64 step %c1 {
        %41 = arith.muli %arg2, %c4 : index
        %42 = arith.cmpi uge, %41, %c256 : index
        %43 = arith.subi %c256, %41 : index
        %44 = arith.select %42, %c0, %43 : index
        %45 = arith.minui %44, %c4 : index
        %46 = arith.cmpi ugt, %45, %c0 : index
        scf.if %46 {
          %47 = arith.divui %41, %c256 : index
          %48 = arith.addi %41, %c3 : index
          %49 = arith.divui %48, %c256 : index
          %50 = arith.cmpi ugt, %47, %c0 : index
          %51 = arith.select %50, %49, %c0 : index
          %52 = arith.subi %51, %47 : index
          %53 = arith.addi %52, %c1 : index
          %54 = arith.select %50, %c0, %47 : index
          %55 = arith.select %50, %c0, %53 : index
          %c1_44 = arith.constant 1 : index
          %c0_45 = arith.constant 0 : index
          %56 = arith.maxui %7, %c1_44 : index
          %57 = arith.muli %13, %56 : index
          %58 = arith.divui %41, %56 : index
          %59 = arith.addi %41, %c4 : index
          %60 = arith.subi %59, %c1_44 : index
          %61 = arith.divui %60, %56 : index
          %62 = arith.subi %13, %c1_44 : index
          %63 = arith.cmpi ugt, %58, %62 : index
          %64 = arith.minui %61, %62 : index
          %65 = arith.select %63, %61, %64 : index
          %66 = arith.subi %65, %58 : index
          %67 = arith.addi %66, %c1_44 : index
          %68 = arith.select %63, %c0_45, %58 : index
          %69 = arith.select %63, %c0_45, %67 : index
          %guid_46, %ptr_47 = arts.db_acquire[<inout>] (%guid : memref<?xi64>, %ptr : memref<?xmemref<?x?xf64>>) partitioning(<block>, offsets[%41], sizes[%c4]), offsets[%68], sizes[%c1_44] element_offsets[%41] element_sizes[%c4] {arts.pattern_revision = 2 : i64, depPattern = #arts.dep_pattern<uniform>, distribution_kind = #arts.distribution_kind<block>, distribution_pattern = #arts.distribution_pattern<uniform>, distribution_version = 1 : i32, preserve_dep_edge = #arts.preserve_dep_edge, stencil_block_shape = [4, 256], stencil_owner_dims = [0]} -> (memref<?xi64>, memref<?xmemref<?x?xf64>>)
          arts.lowering_contract(%ptr_47 : memref<?xmemref<?x?xf64>>) pattern(<depPattern = <uniform>, distributionKind = <block>, distributionPattern = <uniform>, distributionVersion = 1 : i64, revision = 2 : i64>) block_shape[%c4] contract(<ownerDims = [0]>)
          %70 = arith.addi %41, %45 : index
          %71 = arith.cmpi uge, %41, %c1 : index
          %72 = arith.subi %41, %c1 : index
          %73 = arith.select %71, %72, %c0 : index
          %74 = arith.addi %70, %c1 : index
          %75 = arith.minui %74, %c256 : index
          %76 = arith.cmpi uge, %75, %73 : index
          %77 = arith.subi %75, %73 : index
          %78 = arith.select %76, %77, %c0 : index
          %79 = arith.maxui %78, %c1 : index
          %80 = arith.divui %73, %c256 : index
          %81 = arith.addi %73, %79 : index
          %82 = arith.subi %81, %c1 : index
          %83 = arith.divui %82, %c256 : index
          %84 = arith.cmpi ugt, %80, %c0 : index
          %85 = arith.select %84, %83, %c0 : index
          %86 = arith.subi %85, %80 : index
          %87 = arith.addi %86, %c1 : index
          %88 = arith.select %84, %c0, %80 : index
          %89 = arith.select %84, %c0, %87 : index
          %c1_48 = arith.constant 1 : index
          %c0_49 = arith.constant 0 : index
          %90 = arith.maxui %21, %c1_48 : index
          %91 = arith.muli %27, %90 : index
          %92 = arith.divui %73, %90 : index
          %93 = arith.addi %73, %78 : index
          %94 = arith.subi %93, %c1_48 : index
          %95 = arith.divui %94, %90 : index
          %96 = arith.subi %27, %c1_48 : index
          %97 = arith.cmpi ugt, %92, %96 : index
          %98 = arith.minui %95, %96 : index
          %99 = arith.select %97, %95, %98 : index
          %100 = arith.subi %99, %92 : index
          %101 = arith.addi %100, %c1_48 : index
          %102 = arith.select %97, %c0_49, %92 : index
          %103 = arith.select %97, %c0_49, %101 : index
          %guid_50, %ptr_51 = arts.db_acquire[<in>] (%guid_19 : memref<?xi64>, %ptr_20 : memref<?xmemref<?x?xf64>>) partitioning(<block>, offsets[%73], sizes[%78]), offsets[%102], sizes[%103] element_offsets[%73] element_sizes[%78] {arts.pattern_revision = 2 : i64, depPattern = #arts.dep_pattern<uniform>, distribution_kind = #arts.distribution_kind<block>, distribution_pattern = #arts.distribution_pattern<uniform>, distribution_version = 1 : i32, preserve_dep_edge = #arts.preserve_dep_edge, stencil_block_shape = [4, 256], stencil_owner_dims = [0]} -> (memref<?xi64>, memref<?xmemref<?x?xf64>>)
          arts.lowering_contract(%ptr_51 : memref<?xmemref<?x?xf64>>) pattern(<depPattern = <uniform>, distributionKind = <block>, distributionPattern = <uniform>, distributionVersion = 1 : i64, revision = 2 : i64>) block_shape[%c4] contract(<ownerDims = [0]>)
          %c0_52 = arith.constant 0 : index
          %guid_53, %ptr_54 = arts.db_acquire[<in>] (%guid_25 : memref<?xi64>, %ptr_26 : memref<?xmemref<?x?xf64>>) partitioning(<block>, offsets[%73], sizes[%78]), offsets[%88], sizes[%89] {arts.id = 152 : i64, arts.pattern_revision = 2 : i64, depPattern = #arts.dep_pattern<uniform>, distribution_kind = #arts.distribution_kind<block>, distribution_pattern = #arts.distribution_pattern<uniform>, distribution_version = 1 : i32, preserve_dep_edge = #arts.preserve_dep_edge, stencil_block_shape = []} -> (memref<?xi64>, memref<?xmemref<?x?xf64>>)
          arts.lowering_contract(%ptr_54 : memref<?xmemref<?x?xf64>>) pattern(<depPattern = <uniform>, distributionKind = <block>, distributionPattern = <uniform>, distributionVersion = 1 : i64, revision = 2 : i64>) contract(<postDbRefined = true>)
          %c1_55 = arith.constant 1 : index
          %c0_56 = arith.constant 0 : index
          %guid_57, %ptr_58 = arts.db_acquire[<inout>] (%guid_40 : memref<?xi64>, %ptr_41 : memref<?xmemref<?x?xf64>>) partitioning(<block>, offsets[%41], sizes[%c4]), offsets[%c0_56], sizes[%35] {arts.pattern_revision = 2 : i64, depPattern = #arts.dep_pattern<uniform>, distribution_kind = #arts.distribution_kind<block>, distribution_pattern = #arts.distribution_pattern<uniform>, distribution_version = 1 : i32, preserve_dep_edge = #arts.preserve_dep_edge, stencil_block_shape = []} -> (memref<?xi64>, memref<?xmemref<?x?xf64>>)
          arts.lowering_contract(%ptr_58 : memref<?xmemref<?x?xf64>>) pattern(<depPattern = <uniform>, distributionKind = <block>, distributionPattern = <uniform>, distributionVersion = 1 : i64, revision = 2 : i64>)
          %guid_59, %ptr_60 = arts.db_acquire[<in>] (%guid_30 : memref<?xi64>, %ptr_31 : memref<?xmemref<?x?xf64>>) partitioning(<block>, offsets[%73], sizes[%78]), offsets[%88], sizes[%89] {arts.id = 154 : i64, arts.pattern_revision = 2 : i64, depPattern = #arts.dep_pattern<uniform>, distribution_kind = #arts.distribution_kind<block>, distribution_pattern = #arts.distribution_pattern<uniform>, distribution_version = 1 : i32, preserve_dep_edge = #arts.preserve_dep_edge, stencil_block_shape = []} -> (memref<?xi64>, memref<?xmemref<?x?xf64>>)
          arts.lowering_contract(%ptr_60 : memref<?xmemref<?x?xf64>>) pattern(<depPattern = <uniform>, distributionKind = <block>, distributionPattern = <uniform>, distributionVersion = 1 : i64, revision = 2 : i64>) contract(<postDbRefined = true>)
          arts.edt <task> <intranode> route(%c-1_i32) (%ptr_47, %ptr_51, %ptr_54, %ptr_58, %ptr_60) : memref<?xmemref<?x?xf64>>, memref<?xmemref<?x?xf64>>, memref<?xmemref<?x?xf64>>, memref<?xmemref<?x?xf64>>, memref<?xmemref<?x?xf64>> attributes {arts.id = 150 : i64, arts.pattern_revision = 2 : i64, arts.plan.async_strategy = "blocking", arts.plan.cost.expected_local_work = 0 : i64, arts.plan.cost.relaunch_amortization = 0 : i64, arts.plan.cost.scheduler_overhead = 300 : i64, arts.plan.cost.slice_widening_pressure = 0 : i64, arts.plan.iteration_topology = "owner_strip", arts.plan.kernel_family = "uniform", arts.plan.repetition_structure = "none", depPattern = #arts.dep_pattern<uniform>, distribution_kind = #arts.distribution_kind<block>, distribution_pattern = #arts.distribution_pattern<uniform>, distribution_version = 1 : i32, stencil_block_shape = [4, 256]} {
          ^bb0(%arg3: memref<?xmemref<?x?xf64>>, %arg4: memref<?xmemref<?x?xf64>>, %arg5: memref<?xmemref<?x?xf64>>, %arg6: memref<?xmemref<?x?xf64>>, %arg7: memref<?xmemref<?x?xf64>>):
            %c1_61 = arith.constant 1 : index
            %c0_62 = arith.constant 0 : index
            %104 = arith.maxui %21, %c1_61 : index
            %c0_63 = arith.constant 0 : index
            %c4_64 = arith.constant 4 : index
            %105 = arith.muli %arg2, %c4_64 : index
            %c1_65 = arith.constant 1 : index
            %106 = arith.subi %105, %c1_65 : index
            %c0_66 = arith.constant 0 : index
            %107 = arith.select %71, %106, %c0_66 : index
            %c256_67 = arith.constant 256 : index
            %c1_68 = arith.constant 1 : index
            %108 = arith.maxui %15, %c1_68 : index
            %109 = arith.subi %108, %c1_68 : index
            %110 = arith.addi %c256_67, %109 : index
            %111 = arith.divui %110, %108 : index
            %112 = arith.maxui %111, %c1_68 : index
            %c1_69 = arith.constant 1 : index
            %113 = arith.maxui %112, %c1_69 : index
            %c1_70 = arith.constant 1 : index
            %114 = arith.maxui %113, %c1_70 : index
            %115 = arith.divui %107, %114 : index
            %116 = arith.select %97, %c0_63, %115 : index
            %c1_71 = arith.constant 1 : index
            %c0_72 = arith.constant 0 : index
            %117 = arith.maxui %29, %c1_71 : index
            %c0_73 = arith.constant 0 : index
            %c1_74 = arith.constant 1 : index
            %c0_75 = arith.constant 0 : index
            %118 = arith.maxui %7, %c1_74 : index
            %c0_76 = arith.constant 0 : index
            %c4_77 = arith.constant 4 : index
            %119 = arith.muli %arg2, %c4_77 : index
            %120 = arith.minui %c4_77, %c4_77 : index
            %c1_78 = arith.constant 1 : index
            %121 = arith.maxui %120, %c1_78 : index
            %c1_79 = arith.constant 1 : index
            %122 = arith.maxui %121, %c1_79 : index
            %123 = arith.divui %119, %122 : index
            %124 = arith.select %63, %c0_76, %123 : index
            %125 = arith.subi %c0, %41 : index
            %126 = arith.cmpi slt, %125, %c0 : index
            %127 = arith.select %126, %c0, %125 : index
            %128 = arith.cmpi slt, %43, %c0 : index
            %129 = arith.select %128, %c0, %43 : index
            %130 = arith.minui %129, %45 : index
            scf.for %arg8 = %127 to %130 step %c1 {
              %131 = arith.addi %41, %arg8 : index
              scf.for %arg9 = %c0 to %c256 step %c1 {
                %c1_80 = arith.constant 1 : index
                %132 = arith.maxui %118, %c1_80 : index
                %c0_81 = arith.constant 0 : index
                %c1_82 = arith.constant 1 : index
                %c-1 = arith.constant -1 : index
                %133 = arith.addi %41, %127 : index
                %134 = arith.divui %133, %132 : index
                %135 = arith.subi %arg8, %127 : index
                %136 = arith.addi %127, %135 : index
                %137 = arith.subi %134, %124 : index
                %138 = arts.db_ref %arg3[%c0_75] : memref<?xmemref<?x?xf64>> -> memref<?x?xf64>
                memref.store %cst_2, %138[%arg8, %arg9] : memref<?x?xf64>
              } {arts.id = 145 : i64, arts.loop = #arts.loop_metadata<potentiallyParallel = false, hasReductions = false, tripCount = 256 : i64, nestingLevel = 1 : i64, hasInterIterationDeps = false, memrefsWithLoopCarriedDeps = 0 : i64, parallelClassification = 0 : i64, locationKey = "2mm.c:137:3">, arts.metadata_provenance = "exact"}
              scf.for %arg9 = %c0 to %c256 step %c1 {
                scf.for %arg10 = %c0 to %c256 step %c1 {
                  %c1_80 = arith.constant 1 : index
                  %132 = arith.maxui %104, %c1_80 : index
                  %133 = arith.divui %131, %132 : index
                  %134 = arith.subi %133, %116 : index
                  %135 = arith.remui %131, %132 : index
                  %136 = arts.db_ref %arg4[%134] : memref<?xmemref<?x?xf64>> -> memref<?x?xf64>
                  %137 = memref.load %136[%135, %arg9] : memref<?x?xf64>
                  %138 = arith.mulf %137, %cst_0 : f64
                  %139 = arts.db_ref %arg5[%c0] : memref<?xmemref<?x?xf64>> -> memref<?x?xf64>
                  %140 = memref.load %139[%arg9, %arg10] : memref<?x?xf64>
                  %141 = arith.mulf %138, %140 : f64
                  %c1_81 = arith.constant 1 : index
                  %142 = arith.maxui %118, %c1_81 : index
                  %c0_82 = arith.constant 0 : index
                  %c1_83 = arith.constant 1 : index
                  %c-1 = arith.constant -1 : index
                  %143 = arith.addi %41, %127 : index
                  %144 = arith.divui %143, %142 : index
                  %145 = arith.subi %arg8, %127 : index
                  %146 = arith.addi %127, %145 : index
                  %147 = arith.subi %144, %124 : index
                  %148 = arts.db_ref %arg3[%c0_75] : memref<?xmemref<?x?xf64>> -> memref<?x?xf64>
                  %149 = memref.load %148[%arg8, %arg10] : memref<?x?xf64>
                  %150 = arith.addf %149, %141 : f64
                  %c1_84 = arith.constant 1 : index
                  %151 = arith.maxui %118, %c1_84 : index
                  %c0_85 = arith.constant 0 : index
                  %c1_86 = arith.constant 1 : index
                  %c-1_87 = arith.constant -1 : index
                  %152 = arith.addi %41, %127 : index
                  %153 = arith.divui %152, %151 : index
                  %154 = arith.subi %arg8, %127 : index
                  %155 = arith.addi %127, %154 : index
                  %156 = arith.subi %153, %124 : index
                  %157 = arts.db_ref %arg3[%c0_75] : memref<?xmemref<?x?xf64>> -> memref<?x?xf64>
                  memref.store %150, %157[%arg8, %arg10] : memref<?x?xf64>
                } {arts.id = 103 : i64, arts.loop = #arts.loop_metadata<potentiallyParallel = false, hasReductions = false, tripCount = 256 : i64, nestingLevel = 2 : i64, hasInterIterationDeps = false, memrefsWithLoopCarriedDeps = 1 : i64, parallelClassification = 3 : i64, locationKey = "2mm.c:137:3">, arts.metadata_origin_id = 103 : i64, arts.metadata_provenance = "transferred"}
              } {arts.id = 101 : i64, arts.loop = #arts.loop_metadata<potentiallyParallel = false, hasReductions = false, tripCount = 256 : i64, nestingLevel = 1 : i64, hasInterIterationDeps = false, memrefsWithLoopCarriedDeps = 1 : i64, parallelClassification = 3 : i64, locationKey = "2mm.c:137:3">, arts.metadata_origin_id = 101 : i64, arts.metadata_provenance = "transferred"}
            } {arts.id = 148 : i64, arts.loop = #arts.loop_metadata<potentiallyParallel = true, hasReductions = false, tripCount = 0 : i64, nestingLevel = 1 : i64, hasInterIterationDeps = false, memrefsWithLoopCarriedDeps = 0 : i64, parallelClassification = 2 : i64, locationKey = "2mm.c:137:3">, arts.metadata_provenance = "exact"}
            arts.db_release(%arg3) : memref<?xmemref<?x?xf64>>
            arts.db_release(%arg4) : memref<?xmemref<?x?xf64>>
            arts.db_release(%arg5) : memref<?xmemref<?x?xf64>>
            arts.db_release(%arg6) : memref<?xmemref<?x?xf64>>
            arts.db_release(%arg7) : memref<?xmemref<?x?xf64>>
          }
        }
      }
    } : i64
    %37 = arts.epoch attributes {arts.pattern_revision = 2 : i64, arts.plan.async_strategy = "blocking", arts.plan.cost.expected_local_work = 0 : i64, arts.plan.cost.relaunch_amortization = 0 : i64, arts.plan.cost.scheduler_overhead = 300 : i64, arts.plan.cost.slice_widening_pressure = 0 : i64, arts.plan.iteration_topology = "owner_strip", arts.plan.kernel_family = "uniform", arts.plan.repetition_structure = "none", depPattern = #arts.dep_pattern<uniform>, distribution_kind = #arts.distribution_kind<block>, distribution_pattern = #arts.distribution_pattern<uniform>, distribution_version = 1 : i32} {
      scf.for %arg2 = %c0 to %c64 step %c1 {
        %41 = arith.muli %arg2, %c4 : index
        %42 = arith.cmpi uge, %41, %c256 : index
        %43 = arith.subi %c256, %41 : index
        %44 = arith.select %42, %c0, %43 : index
        %45 = arith.minui %44, %c4 : index
        %46 = arith.cmpi ugt, %45, %c0 : index
        scf.if %46 {
          %47 = arith.divui %41, %c256 : index
          %48 = arith.addi %41, %c3 : index
          %49 = arith.divui %48, %c256 : index
          %50 = arith.cmpi ugt, %47, %c0 : index
          %51 = arith.select %50, %49, %c0 : index
          %52 = arith.subi %51, %47 : index
          %53 = arith.addi %52, %c1 : index
          %54 = arith.select %50, %c0, %47 : index
          %55 = arith.select %50, %c0, %53 : index
          %c1_44 = arith.constant 1 : index
          %c0_45 = arith.constant 0 : index
          %56 = arith.maxui %7, %c1_44 : index
          %57 = arith.muli %13, %56 : index
          %58 = arith.divui %41, %56 : index
          %59 = arith.addi %41, %c4 : index
          %60 = arith.subi %59, %c1_44 : index
          %61 = arith.divui %60, %56 : index
          %62 = arith.subi %13, %c1_44 : index
          %63 = arith.cmpi ugt, %58, %62 : index
          %64 = arith.minui %61, %62 : index
          %65 = arith.select %63, %61, %64 : index
          %66 = arith.subi %65, %58 : index
          %67 = arith.addi %66, %c1_44 : index
          %68 = arith.select %63, %c0_45, %58 : index
          %69 = arith.select %63, %c0_45, %67 : index
          %guid_46, %ptr_47 = arts.db_acquire[<inout>] (%guid : memref<?xi64>, %ptr : memref<?xmemref<?x?xf64>>) partitioning(<block>, offsets[%41], sizes[%c4]), offsets[%68], sizes[%c1_44] element_offsets[%41] element_sizes[%c4] {arts.pattern_revision = 2 : i64, depPattern = #arts.dep_pattern<uniform>, distribution_kind = #arts.distribution_kind<block>, distribution_pattern = #arts.distribution_pattern<uniform>, distribution_version = 1 : i32, preserve_dep_edge = #arts.preserve_dep_edge, stencil_block_shape = [4, 256], stencil_owner_dims = [0]} -> (memref<?xi64>, memref<?xmemref<?x?xf64>>)
          arts.lowering_contract(%ptr_47 : memref<?xmemref<?x?xf64>>) pattern(<depPattern = <uniform>, distributionKind = <block>, distributionPattern = <uniform>, distributionVersion = 1 : i64, revision = 2 : i64>) block_shape[%c4] contract(<ownerDims = [0]>)
          %70 = arith.addi %41, %45 : index
          %71 = arith.cmpi uge, %41, %c1 : index
          %72 = arith.subi %41, %c1 : index
          %73 = arith.select %71, %72, %c0 : index
          %74 = arith.addi %70, %c1 : index
          %75 = arith.minui %74, %c256 : index
          %76 = arith.cmpi uge, %75, %73 : index
          %77 = arith.subi %75, %73 : index
          %78 = arith.select %76, %77, %c0 : index
          %79 = arith.maxui %78, %c1 : index
          %80 = arith.divui %73, %c256 : index
          %81 = arith.addi %73, %79 : index
          %82 = arith.subi %81, %c1 : index
          %83 = arith.divui %82, %c256 : index
          %84 = arith.cmpi ugt, %80, %c0 : index
          %85 = arith.select %84, %83, %c0 : index
          %86 = arith.subi %85, %80 : index
          %87 = arith.addi %86, %c1 : index
          %88 = arith.select %84, %c0, %80 : index
          %89 = arith.select %84, %c0, %87 : index
          %c1_48 = arith.constant 1 : index
          %c0_49 = arith.constant 0 : index
          %guid_50, %ptr_51 = arts.db_acquire[<in>] (%guid_19 : memref<?xi64>, %ptr_20 : memref<?xmemref<?x?xf64>>) partitioning(<block>, offsets[%73], sizes[%78]), offsets[%c0_49], sizes[%27] {arts.id = 156 : i64, arts.pattern_revision = 2 : i64, depPattern = #arts.dep_pattern<uniform>, distribution_kind = #arts.distribution_kind<block>, distribution_pattern = #arts.distribution_pattern<uniform>, distribution_version = 1 : i32, preserve_dep_edge = #arts.preserve_dep_edge, stencil_block_shape = []} -> (memref<?xi64>, memref<?xmemref<?x?xf64>>)
          arts.lowering_contract(%ptr_51 : memref<?xmemref<?x?xf64>>) pattern(<depPattern = <uniform>, distributionKind = <block>, distributionPattern = <uniform>, distributionVersion = 1 : i64, revision = 2 : i64>)
          %guid_52, %ptr_53 = arts.db_acquire[<in>] (%guid_25 : memref<?xi64>, %ptr_26 : memref<?xmemref<?x?xf64>>) partitioning(<block>, offsets[%73], sizes[%78]), offsets[%88], sizes[%89] {arts.id = 153 : i64, arts.pattern_revision = 2 : i64, depPattern = #arts.dep_pattern<uniform>, distribution_kind = #arts.distribution_kind<block>, distribution_pattern = #arts.distribution_pattern<uniform>, distribution_version = 1 : i32, preserve_dep_edge = #arts.preserve_dep_edge, stencil_block_shape = []} -> (memref<?xi64>, memref<?xmemref<?x?xf64>>)
          arts.lowering_contract(%ptr_53 : memref<?xmemref<?x?xf64>>) pattern(<depPattern = <uniform>, distributionKind = <block>, distributionPattern = <uniform>, distributionVersion = 1 : i64, revision = 2 : i64>) contract(<postDbRefined = true>)
          %c1_54 = arith.constant 1 : index
          %c0_55 = arith.constant 0 : index
          %90 = arith.maxui %29, %c1_54 : index
          %91 = arith.muli %35, %90 : index
          %92 = arith.divui %41, %90 : index
          %93 = arith.addi %41, %c4 : index
          %94 = arith.subi %93, %c1_54 : index
          %95 = arith.divui %94, %90 : index
          %96 = arith.subi %35, %c1_54 : index
          %97 = arith.cmpi ugt, %92, %96 : index
          %98 = arith.minui %95, %96 : index
          %99 = arith.select %97, %95, %98 : index
          %100 = arith.subi %99, %92 : index
          %101 = arith.addi %100, %c1_54 : index
          %102 = arith.select %97, %c0_55, %92 : index
          %103 = arith.select %97, %c0_55, %101 : index
          %guid_56, %ptr_57 = arts.db_acquire[<inout>] (%guid_40 : memref<?xi64>, %ptr_41 : memref<?xmemref<?x?xf64>>) partitioning(<block>, offsets[%41], sizes[%c4]), offsets[%102], sizes[%c1_54] element_offsets[%41] element_sizes[%c4] {arts.pattern_revision = 2 : i64, depPattern = #arts.dep_pattern<uniform>, distribution_kind = #arts.distribution_kind<block>, distribution_pattern = #arts.distribution_pattern<uniform>, distribution_version = 1 : i32, preserve_dep_edge = #arts.preserve_dep_edge, stencil_block_shape = [4, 256], stencil_owner_dims = [0]} -> (memref<?xi64>, memref<?xmemref<?x?xf64>>)
          arts.lowering_contract(%ptr_57 : memref<?xmemref<?x?xf64>>) pattern(<depPattern = <uniform>, distributionKind = <block>, distributionPattern = <uniform>, distributionVersion = 1 : i64, revision = 2 : i64>) block_shape[%c4] contract(<ownerDims = [0]>)
          %c0_58 = arith.constant 0 : index
          %guid_59, %ptr_60 = arts.db_acquire[<in>] (%guid_30 : memref<?xi64>, %ptr_31 : memref<?xmemref<?x?xf64>>) partitioning(<block>, offsets[%73], sizes[%78]), offsets[%88], sizes[%89] {arts.id = 155 : i64, arts.pattern_revision = 2 : i64, depPattern = #arts.dep_pattern<uniform>, distribution_kind = #arts.distribution_kind<block>, distribution_pattern = #arts.distribution_pattern<uniform>, distribution_version = 1 : i32, preserve_dep_edge = #arts.preserve_dep_edge, stencil_block_shape = []} -> (memref<?xi64>, memref<?xmemref<?x?xf64>>)
          arts.lowering_contract(%ptr_60 : memref<?xmemref<?x?xf64>>) pattern(<depPattern = <uniform>, distributionKind = <block>, distributionPattern = <uniform>, distributionVersion = 1 : i64, revision = 2 : i64>) contract(<postDbRefined = true>)
          arts.edt <task> <intranode> route(%c-1_i32) (%ptr_47, %ptr_51, %ptr_53, %ptr_57, %ptr_60) : memref<?xmemref<?x?xf64>>, memref<?xmemref<?x?xf64>>, memref<?xmemref<?x?xf64>>, memref<?xmemref<?x?xf64>>, memref<?xmemref<?x?xf64>> attributes {arts.id = 151 : i64, arts.pattern_revision = 2 : i64, arts.plan.async_strategy = "blocking", arts.plan.cost.expected_local_work = 0 : i64, arts.plan.cost.relaunch_amortization = 0 : i64, arts.plan.cost.scheduler_overhead = 300 : i64, arts.plan.cost.slice_widening_pressure = 0 : i64, arts.plan.iteration_topology = "owner_strip", arts.plan.kernel_family = "uniform", arts.plan.repetition_structure = "none", depPattern = #arts.dep_pattern<uniform>, distribution_kind = #arts.distribution_kind<block>, distribution_pattern = #arts.distribution_pattern<uniform>, distribution_version = 1 : i32, stencil_block_shape = [4, 256]} {
          ^bb0(%arg3: memref<?xmemref<?x?xf64>>, %arg4: memref<?xmemref<?x?xf64>>, %arg5: memref<?xmemref<?x?xf64>>, %arg6: memref<?xmemref<?x?xf64>>, %arg7: memref<?xmemref<?x?xf64>>):
            %c1_61 = arith.constant 1 : index
            %c0_62 = arith.constant 0 : index
            %104 = arith.maxui %21, %c1_61 : index
            %c0_63 = arith.constant 0 : index
            %c1_64 = arith.constant 1 : index
            %c0_65 = arith.constant 0 : index
            %105 = arith.maxui %29, %c1_64 : index
            %c0_66 = arith.constant 0 : index
            %c4_67 = arith.constant 4 : index
            %106 = arith.muli %arg2, %c4_67 : index
            %107 = arith.minui %c4_67, %c4_67 : index
            %c1_68 = arith.constant 1 : index
            %108 = arith.maxui %107, %c1_68 : index
            %c1_69 = arith.constant 1 : index
            %109 = arith.maxui %108, %c1_69 : index
            %110 = arith.divui %106, %109 : index
            %111 = arith.select %97, %c0_66, %110 : index
            %c1_70 = arith.constant 1 : index
            %c0_71 = arith.constant 0 : index
            %112 = arith.maxui %7, %c1_70 : index
            %c0_72 = arith.constant 0 : index
            %c4_73 = arith.constant 4 : index
            %113 = arith.muli %arg2, %c4_73 : index
            %114 = arith.minui %c4_73, %c4_73 : index
            %c1_74 = arith.constant 1 : index
            %115 = arith.maxui %114, %c1_74 : index
            %c1_75 = arith.constant 1 : index
            %116 = arith.maxui %115, %c1_75 : index
            %117 = arith.divui %113, %116 : index
            %118 = arith.select %63, %c0_72, %117 : index
            %119 = arith.subi %c0, %41 : index
            %120 = arith.cmpi slt, %119, %c0 : index
            %121 = arith.select %120, %c0, %119 : index
            %122 = arith.cmpi slt, %43, %c0 : index
            %123 = arith.select %122, %c0, %43 : index
            %124 = arith.minui %123, %45 : index
            scf.for %arg8 = %121 to %124 step %c1 {
              %125 = arith.addi %41, %arg8 : index
              scf.for %arg9 = %c0 to %c256 step %c1 {
                %c1_76 = arith.constant 1 : index
                %126 = arith.maxui %105, %c1_76 : index
                %c0_77 = arith.constant 0 : index
                %c1_78 = arith.constant 1 : index
                %c-1 = arith.constant -1 : index
                %127 = arith.addi %41, %121 : index
                %128 = arith.divui %127, %126 : index
                %129 = arith.subi %arg8, %121 : index
                %130 = arith.addi %121, %129 : index
                %131 = arith.subi %128, %111 : index
                %132 = arts.db_ref %arg6[%c0_65] : memref<?xmemref<?x?xf64>> -> memref<?x?xf64>
                %133 = memref.load %132[%arg8, %arg9] : memref<?x?xf64>
                %134 = arith.mulf %133, %cst : f64
                %c1_79 = arith.constant 1 : index
                %135 = arith.maxui %105, %c1_79 : index
                %c0_80 = arith.constant 0 : index
                %c1_81 = arith.constant 1 : index
                %c-1_82 = arith.constant -1 : index
                %136 = arith.addi %41, %121 : index
                %137 = arith.divui %136, %135 : index
                %138 = arith.subi %arg8, %121 : index
                %139 = arith.addi %121, %138 : index
                %140 = arith.subi %137, %111 : index
                %141 = arts.db_ref %arg6[%c0_65] : memref<?xmemref<?x?xf64>> -> memref<?x?xf64>
                memref.store %134, %141[%arg8, %arg9] : memref<?x?xf64>
              } {arts.id = 146 : i64, arts.loop = #arts.loop_metadata<potentiallyParallel = false, hasReductions = false, tripCount = 256 : i64, nestingLevel = 1 : i64, hasInterIterationDeps = false, memrefsWithLoopCarriedDeps = 0 : i64, parallelClassification = 0 : i64, locationKey = "2mm.c:137:3">, arts.metadata_provenance = "exact"}
              scf.for %arg9 = %c0 to %c256 step %c1 {
                scf.for %arg10 = %c0 to %c256 step %c1 {
                  %c1_76 = arith.constant 1 : index
                  %126 = arith.maxui %112, %c1_76 : index
                  %c0_77 = arith.constant 0 : index
                  %c1_78 = arith.constant 1 : index
                  %c-1 = arith.constant -1 : index
                  %127 = arith.addi %41, %121 : index
                  %128 = arith.divui %127, %126 : index
                  %129 = arith.subi %arg8, %121 : index
                  %130 = arith.addi %121, %129 : index
                  %131 = arith.subi %128, %118 : index
                  %132 = arts.db_ref %arg3[%c0_71] : memref<?xmemref<?x?xf64>> -> memref<?x?xf64>
                  %133 = memref.load %132[%arg8, %arg9] : memref<?x?xf64>
                  %134 = arts.db_ref %arg7[%c0] : memref<?xmemref<?x?xf64>> -> memref<?x?xf64>
                  %135 = memref.load %134[%arg9, %arg10] : memref<?x?xf64>
                  %136 = arith.mulf %133, %135 : f64
                  %c1_79 = arith.constant 1 : index
                  %137 = arith.maxui %105, %c1_79 : index
                  %c0_80 = arith.constant 0 : index
                  %c1_81 = arith.constant 1 : index
                  %c-1_82 = arith.constant -1 : index
                  %138 = arith.addi %41, %121 : index
                  %139 = arith.divui %138, %137 : index
                  %140 = arith.subi %arg8, %121 : index
                  %141 = arith.addi %121, %140 : index
                  %142 = arith.subi %139, %111 : index
                  %143 = arts.db_ref %arg6[%c0_65] : memref<?xmemref<?x?xf64>> -> memref<?x?xf64>
                  %144 = memref.load %143[%arg8, %arg10] : memref<?x?xf64>
                  %145 = arith.addf %144, %136 : f64
                  %c1_83 = arith.constant 1 : index
                  %146 = arith.maxui %105, %c1_83 : index
                  %c0_84 = arith.constant 0 : index
                  %c1_85 = arith.constant 1 : index
                  %c-1_86 = arith.constant -1 : index
                  %147 = arith.addi %41, %121 : index
                  %148 = arith.divui %147, %146 : index
                  %149 = arith.subi %arg8, %121 : index
                  %150 = arith.addi %121, %149 : index
                  %151 = arith.subi %148, %111 : index
                  %152 = arts.db_ref %arg6[%c0_65] : memref<?xmemref<?x?xf64>> -> memref<?x?xf64>
                  memref.store %145, %152[%arg8, %arg10] : memref<?x?xf64>
                } {arts.id = 119 : i64, arts.loop = #arts.loop_metadata<potentiallyParallel = false, hasReductions = false, tripCount = 256 : i64, nestingLevel = 2 : i64, hasInterIterationDeps = false, memrefsWithLoopCarriedDeps = 1 : i64, parallelClassification = 3 : i64, locationKey = "2mm.c:137:3">, arts.metadata_origin_id = 119 : i64, arts.metadata_provenance = "transferred"}
              } {arts.id = 117 : i64, arts.loop = #arts.loop_metadata<potentiallyParallel = false, hasReductions = false, tripCount = 256 : i64, nestingLevel = 1 : i64, hasInterIterationDeps = false, memrefsWithLoopCarriedDeps = 1 : i64, parallelClassification = 3 : i64, locationKey = "2mm.c:137:3">, arts.metadata_origin_id = 117 : i64, arts.metadata_provenance = "transferred"}
            } {arts.id = 149 : i64, arts.loop = #arts.loop_metadata<potentiallyParallel = true, hasReductions = false, tripCount = 0 : i64, nestingLevel = 1 : i64, hasInterIterationDeps = false, memrefsWithLoopCarriedDeps = 0 : i64, parallelClassification = 2 : i64, locationKey = "2mm.c:137:3">, arts.metadata_provenance = "exact"}
            arts.db_release(%arg3) : memref<?xmemref<?x?xf64>>
            arts.db_release(%arg4) : memref<?xmemref<?x?xf64>>
            arts.db_release(%arg5) : memref<?xmemref<?x?xf64>>
            arts.db_release(%arg6) : memref<?xmemref<?x?xf64>>
            arts.db_release(%arg7) : memref<?xmemref<?x?xf64>>
          }
        }
      }
    } : i64
    call @carts_kernel_timer_stop(%4) : (memref<?xi8>) -> ()
    %38 = polygeist.pointer2memref %1 : !llvm.ptr to memref<?xi8>
    call @carts_phase_timer_start(%38, %4) : (memref<?xi8>, memref<?xi8>) -> ()
    %39 = scf.for %arg2 = %c0 to %c256 step %c1 iter_args(%arg3 = %cst_2) -> (f64) {
      %c1_44 = arith.constant 1 : index
      %41 = arith.maxui %29, %c1_44 : index
      %42 = arith.divui %arg2, %41 : index
      %43 = arith.subi %42, %c0_43 : index
      %44 = arith.remui %arg2, %41 : index
      %45 = arts.db_ref %ptr_41[%43] : memref<?xmemref<?x?xf64>> -> memref<?x?xf64>
      %46 = memref.load %45[%44, %arg2] : memref<?x?xf64>
      %47 = arith.addf %arg3, %46 : f64
      scf.yield %47 : f64
    }
    call @carts_bench_checksum_d(%39) : (f64) -> ()
    call @carts_phase_timer_stop(%38) : (memref<?xi8>) -> ()
    %40 = polygeist.pointer2memref %0 : !llvm.ptr to memref<?xi8>
    call @carts_phase_timer_start(%40, %4) : (memref<?xi8>, memref<?xi8>) -> ()
    call @carts_phase_timer_stop(%40) : (memref<?xi8>) -> ()
    call @carts_e2e_timer_stop() : () -> ()
    arts.db_free(%guid_30) : memref<?xi64>
    arts.db_free(%ptr_31) : memref<?xmemref<?x?xf64>>
    arts.db_free(%guid_25) : memref<?xi64>
    arts.db_free(%ptr_26) : memref<?xmemref<?x?xf64>>
    arts.db_free(%guid) : memref<?xi64>
    arts.db_free(%ptr) : memref<?xmemref<?x?xf64>>
    arts.db_free(%guid_40) : memref<?xi64>
    arts.db_free(%ptr_41) : memref<?xmemref<?x?xf64>>
    arts.db_free(%guid_19) : memref<?xi64>
    arts.db_free(%ptr_20) : memref<?xmemref<?x?xf64>>
    return %c0_i32 : i32
  }
  func.func private @carts_benchmarks_start() attributes {llvm.linkage = #llvm.linkage<external>}
  func.func private @carts_e2e_timer_start(memref<?xi8>) attributes {llvm.linkage = #llvm.linkage<external>}
  func.func private @carts_phase_timer_start(memref<?xi8>, memref<?xi8>) attributes {llvm.linkage = #llvm.linkage<external>}
  func.func private @carts_phase_timer_stop(memref<?xi8>) attributes {llvm.linkage = #llvm.linkage<external>}
  func.func private @carts_kernel_timer_start(memref<?xi8>) attributes {llvm.linkage = #llvm.linkage<external>}
  func.func private @carts_kernel_timer_stop(memref<?xi8>) attributes {llvm.linkage = #llvm.linkage<external>}
  func.func private @carts_bench_checksum_d(f64) attributes {llvm.linkage = #llvm.linkage<external>}
  func.func private @carts_e2e_timer_stop() attributes {llvm.linkage = #llvm.linkage<external>}
}
