module attributes {arts.runtime_config_data = "[ARTS]\0A# Contract config for high-thread single-node lowering checks.\0Aworker_threads=64\0A\0A# Network configuration\0Asender_threads=0\0Areceiver_threads=0\0Aport_count=1\0A\0A# Launcher configuration\0Alauncher=local\0Amaster_node=localhost\0Anode_count=1\0Anodes=localhost\0Adefault_ports=34739\0A\0A# Scheduling\0Aworker_init_deque_size=2048\0Aroute_table_size=16\0A\0A# Debug\0Acore_dump=1\0Acounter_folder=./counters\0A", arts.runtime_static_workers = false, arts.runtime_total_nodes = 1 : i64, arts.runtime_total_workers = 64 : i64, dlti.dl_spec = #dlti.dl_spec<!llvm.ptr<270> = dense<32> : vector<4xi64>, !llvm.ptr<271> = dense<32> : vector<4xi64>, !llvm.ptr<272> = dense<64> : vector<4xi64>, i64 = dense<64> : vector<2xi64>, i128 = dense<128> : vector<2xi64>, f80 = dense<128> : vector<2xi64>, !llvm.ptr = dense<64> : vector<4xi64>, i1 = dense<8> : vector<2xi64>, i8 = dense<8> : vector<2xi64>, i16 = dense<16> : vector<2xi64>, i32 = dense<32> : vector<2xi64>, f16 = dense<16> : vector<2xi64>, f64 = dense<64> : vector<2xi64>, f128 = dense<128> : vector<2xi64>, "dlti.endianness" = "little", "dlti.mangling_mode" = "e", "dlti.legal_int_widths" = array<i32: 8, 16, 32, 64>, "dlti.stack_alignment" = 128 : i64>, llvm.data_layout = "e-m:e-p270:32:32-p271:32:32-p272:64:64-i64:64-i128:128-f80:128-n8:16:32:64-S128", llvm.target_triple = "x86_64-unknown-linux-gnu", "polygeist.target-cpu" = "x86-64", "polygeist.target-features" = "+cmov,+cx8,+fxsr,+mmx,+sse,+sse2,+x87", "polygeist.tune-cpu" = "generic"} {
  llvm.mlir.global internal constant @str3("cleanup\00") {addr_space = 0 : i32}
  llvm.mlir.global internal constant @str2("verification\00") {addr_space = 0 : i32}
  llvm.mlir.global internal constant @str1("startup\00") {addr_space = 0 : i32}
  llvm.mlir.global internal constant @str0("3mm\00") {addr_space = 0 : i32}
  func.func @main(%arg0: i32, %arg1: memref<?xmemref<?xi8>>) -> i32 attributes {llvm.linkage = #llvm.linkage<external>} {
    %c3 = arith.constant 3 : index
    %c64 = arith.constant 64 : index
    %c4 = arith.constant 4 : index
    %c-1_i32 = arith.constant -1 : i32
    %cst = arith.constant 2.560000e+02 : f64
    %c1_i32 = arith.constant 1 : i32
    %c3_i32 = arith.constant 3 : i32
    %c2_i32 = arith.constant 2 : i32
    %c1 = arith.constant 1 : index
    %c256 = arith.constant 256 : index
    %c0 = arith.constant 0 : index
    %0 = llvm.mlir.addressof @str3 : !llvm.ptr
    %cst_0 = arith.constant 0.000000e+00 : f64
    %1 = llvm.mlir.addressof @str2 : !llvm.ptr
    %2 = llvm.mlir.addressof @str1 : !llvm.ptr
    %c0_i32 = arith.constant 0 : i32
    %3 = llvm.mlir.addressof @str0 : !llvm.ptr
    call @carts_benchmarks_start() : () -> ()
    %4 = polygeist.pointer2memref %3 : !llvm.ptr to memref<?xi8>
    call @carts_e2e_timer_start(%4) : (memref<?xi8>) -> ()
    %5 = polygeist.pointer2memref %2 : !llvm.ptr to memref<?xi8>
    call @carts_phase_timer_start(%5, %4) : (memref<?xi8>, memref<?xi8>) -> ()
    %c1_1 = arith.constant 1 : index
    %c1_2 = arith.constant 1 : index
    %c1_3 = arith.constant 1 : index
    %c15 = arith.constant 15 : index
    %c1_4 = arith.constant 1 : index
    %6 = arith.maxui %c15, %c1_4 : index
    %c1_i64 = arith.constant 1 : i64
    %7 = arith.index_cast %c256 : index to i64
    %8 = arith.index_cast %6 : index to i64
    %9 = arith.addi %7, %8 : i64
    %10 = arith.subi %9, %c1_i64 : i64
    %11 = arith.divui %10, %8 : i64
    %12 = arith.index_cast %11 : i64 to index
    %c0_5 = arith.constant 0 : index
    %c1_6 = arith.constant 1 : index
    %c0_7 = arith.constant 0 : index
    %c1_8 = arith.constant 1 : index
    %c0_9 = arith.constant 0 : index
    %c1_10 = arith.constant 1 : index
    %guid, %ptr = arts.db_alloc[<inout>, <heap>, <write>, <block>, <uniform>] route(%c-1_i32 : i32) sizes[%12] elementType(f64) elementSizes[%6, %c256] {arts.id = 312 : i64, arts.local_only, arts.read_only_after_init} : (memref<?xi64>, memref<?xmemref<?x?xf64>>)
    arts.lowering_contract(%ptr : memref<?xmemref<?x?xf64>>) block_shape[%6] contract(<ownerDims = [0], postDbRefined = true>)
    %c1_11 = arith.constant 1 : index
    %c1_12 = arith.constant 1 : index
    %c1_13 = arith.constant 1 : index
    %c0_14 = arith.constant 0 : index
    %guid_15, %ptr_16 = arts.db_alloc[<in>, <heap>, <read>, <coarse>, <uniform>] route(%c-1_i32 : i32) sizes[%c1] elementType(f64) elementSizes[%c256, %c256] {arts.id = 313 : i64, arts.local_only} : (memref<?xi64>, memref<?xmemref<?x?xf64>>)
    %c1_17 = arith.constant 1 : index
    %c1_18 = arith.constant 1 : index
    %c1_19 = arith.constant 1 : index
    %c0_20 = arith.constant 0 : index
    %guid_21, %ptr_22 = arts.db_alloc[<in>, <heap>, <read>, <coarse>, <uniform>] route(%c-1_i32 : i32) sizes[%c1] elementType(f64) elementSizes[%c256, %c256] {arts.id = 314 : i64, arts.local_only} : (memref<?xi64>, memref<?xmemref<?x?xf64>>)
    %c1_23 = arith.constant 1 : index
    %c1_24 = arith.constant 1 : index
    %c1_25 = arith.constant 1 : index
    %c15_26 = arith.constant 15 : index
    %c1_27 = arith.constant 1 : index
    %13 = arith.maxui %c15_26, %c1_27 : index
    %c1_i64_28 = arith.constant 1 : i64
    %14 = arith.index_cast %c256 : index to i64
    %15 = arith.index_cast %13 : index to i64
    %16 = arith.addi %14, %15 : i64
    %17 = arith.subi %16, %c1_i64_28 : i64
    %18 = arith.divui %17, %15 : i64
    %19 = arith.index_cast %18 : i64 to index
    %c0_29 = arith.constant 0 : index
    %c1_30 = arith.constant 1 : index
    %c0_31 = arith.constant 0 : index
    %c1_32 = arith.constant 1 : index
    %c0_33 = arith.constant 0 : index
    %c1_34 = arith.constant 1 : index
    %guid_35, %ptr_36 = arts.db_alloc[<inout>, <heap>, <write>, <block>, <uniform>] route(%c-1_i32 : i32) sizes[%19] elementType(f64) elementSizes[%13, %c256] {arts.id = 315 : i64, arts.local_only, arts.read_only_after_init} : (memref<?xi64>, memref<?xmemref<?x?xf64>>)
    arts.lowering_contract(%ptr_36 : memref<?xmemref<?x?xf64>>) block_shape[%13] contract(<ownerDims = [0], postDbRefined = true>)
    %c1_37 = arith.constant 1 : index
    %c1_38 = arith.constant 1 : index
    %c1_39 = arith.constant 1 : index
    %c0_40 = arith.constant 0 : index
    %guid_41, %ptr_42 = arts.db_alloc[<in>, <heap>, <read>, <coarse>, <uniform>] route(%c-1_i32 : i32) sizes[%c1] elementType(f64) elementSizes[%c256, %c256] {arts.id = 316 : i64, arts.local_only} : (memref<?xi64>, memref<?xmemref<?x?xf64>>)
    %c1_43 = arith.constant 1 : index
    %c1_44 = arith.constant 1 : index
    %c1_45 = arith.constant 1 : index
    %c0_46 = arith.constant 0 : index
    %guid_47, %ptr_48 = arts.db_alloc[<in>, <heap>, <read>, <coarse>, <uniform>] route(%c-1_i32 : i32) sizes[%c1] elementType(f64) elementSizes[%c256, %c256] {arts.id = 317 : i64, arts.local_only} : (memref<?xi64>, memref<?xmemref<?x?xf64>>)
    %c1_49 = arith.constant 1 : index
    %c1_50 = arith.constant 1 : index
    %c1_51 = arith.constant 1 : index
    %c15_52 = arith.constant 15 : index
    %c1_53 = arith.constant 1 : index
    %20 = arith.maxui %c15_52, %c1_53 : index
    %c1_i64_54 = arith.constant 1 : i64
    %21 = arith.index_cast %c256 : index to i64
    %22 = arith.index_cast %20 : index to i64
    %23 = arith.addi %21, %22 : i64
    %24 = arith.subi %23, %c1_i64_54 : i64
    %25 = arith.divui %24, %22 : i64
    %26 = arith.index_cast %25 : i64 to index
    %c0_55 = arith.constant 0 : index
    %c1_56 = arith.constant 1 : index
    %c0_57 = arith.constant 0 : index
    %c1_58 = arith.constant 1 : index
    %c0_59 = arith.constant 0 : index
    %c1_60 = arith.constant 1 : index
    %guid_61, %ptr_62 = arts.db_alloc[<inout>, <heap>, <write>, <block>, <uniform>] route(%c-1_i32 : i32) sizes[%26] elementType(f64) elementSizes[%20, %c256] {arts.id = 318 : i64, arts.local_only, arts.read_only_after_init} : (memref<?xi64>, memref<?xmemref<?x?xf64>>)
    arts.lowering_contract(%ptr_62 : memref<?xmemref<?x?xf64>>) block_shape[%20] contract(<ownerDims = [0], postDbRefined = true>)
    %c0_63 = arith.constant 0 : index
    scf.for %arg2 = %c0 to %c256 step %c1 {
      %32 = arith.index_cast %arg2 : index to i32
      %33 = arith.sitofp %32 : i32 to f64
      scf.for %arg3 = %c0 to %c256 step %c1 {
        %34 = arith.index_cast %arg3 : index to i32
        %35 = arith.sitofp %34 : i32 to f64
        %36 = arith.mulf %33, %35 : f64
        %37 = arith.divf %36, %cst : f64
        %38 = arts.db_ref %ptr_16[%c0] : memref<?xmemref<?x?xf64>> -> memref<?x?xf64>
        memref.store %37, %38[%arg2, %arg3] : memref<?x?xf64>
      }
    }
    scf.for %arg2 = %c0 to %c256 step %c1 {
      %32 = arith.index_cast %arg2 : index to i32
      %33 = arith.sitofp %32 : i32 to f64
      scf.for %arg3 = %c0 to %c256 step %c1 {
        %34 = arith.index_cast %arg3 : index to i32
        %35 = arith.addi %34, %c1_i32 : i32
        %36 = arith.sitofp %35 : i32 to f64
        %37 = arith.mulf %33, %36 : f64
        %38 = arith.divf %37, %cst : f64
        %39 = arts.db_ref %ptr_22[%c0] : memref<?xmemref<?x?xf64>> -> memref<?x?xf64>
        memref.store %38, %39[%arg2, %arg3] : memref<?x?xf64>
      }
    }
    scf.for %arg2 = %c0 to %c256 step %c1 {
      %32 = arith.index_cast %arg2 : index to i32
      %33 = arith.sitofp %32 : i32 to f64
      scf.for %arg3 = %c0 to %c256 step %c1 {
        %34 = arith.index_cast %arg3 : index to i32
        %35 = arith.addi %34, %c3_i32 : i32
        %36 = arith.sitofp %35 : i32 to f64
        %37 = arith.mulf %33, %36 : f64
        %38 = arith.divf %37, %cst : f64
        %39 = arts.db_ref %ptr_42[%c0] : memref<?xmemref<?x?xf64>> -> memref<?x?xf64>
        memref.store %38, %39[%arg2, %arg3] : memref<?x?xf64>
      }
    }
    scf.for %arg2 = %c0 to %c256 step %c1 {
      %32 = arith.index_cast %arg2 : index to i32
      %33 = arith.sitofp %32 : i32 to f64
      scf.for %arg3 = %c0 to %c256 step %c1 {
        %34 = arith.index_cast %arg3 : index to i32
        %35 = arith.addi %34, %c2_i32 : i32
        %36 = arith.sitofp %35 : i32 to f64
        %37 = arith.mulf %33, %36 : f64
        %38 = arith.divf %37, %cst : f64
        %39 = arts.db_ref %ptr_48[%c0] : memref<?xmemref<?x?xf64>> -> memref<?x?xf64>
        memref.store %38, %39[%arg2, %arg3] : memref<?x?xf64>
      }
    }
    call @carts_phase_timer_stop(%5) : (memref<?xi8>) -> ()
    call @carts_kernel_timer_start(%4) : (memref<?xi8>) -> ()
    %27 = arts.epoch attributes {distribution_kind = #arts.distribution_kind<block>, distribution_pattern = #arts.distribution_pattern<matmul>, distribution_version = 1 : i32} {
      scf.for %arg2 = %c0 to %c64 step %c1 {
        %32 = arith.muli %arg2, %c4 : index
        %33 = arith.cmpi uge, %32, %c256 : index
        %34 = arith.subi %c256, %32 : index
        %35 = arith.select %33, %c0, %34 : index
        %36 = arith.minui %35, %c4 : index
        %37 = arith.cmpi ugt, %36, %c0 : index
        scf.if %37 {
          %38 = arith.divui %32, %c256 : index
          %39 = arith.addi %32, %c3 : index
          %40 = arith.divui %39, %c256 : index
          %41 = arith.cmpi ugt, %38, %c0 : index
          %42 = arith.select %41, %40, %c0 : index
          %43 = arith.subi %42, %38 : index
          %44 = arith.addi %43, %c1 : index
          %45 = arith.select %41, %c0, %38 : index
          %46 = arith.select %41, %c0, %44 : index
          %c1_64 = arith.constant 1 : index
          %c0_65 = arith.constant 0 : index
          %47 = arith.maxui %6, %c1_64 : index
          %48 = arith.muli %12, %47 : index
          %49 = arith.divui %32, %47 : index
          %50 = arith.addi %32, %c4 : index
          %51 = arith.subi %50, %c1_64 : index
          %52 = arith.divui %51, %47 : index
          %53 = arith.subi %12, %c1_64 : index
          %54 = arith.cmpi ugt, %49, %53 : index
          %55 = arith.minui %52, %53 : index
          %56 = arith.select %54, %52, %55 : index
          %57 = arith.subi %56, %49 : index
          %58 = arith.addi %57, %c1_64 : index
          %59 = arith.select %54, %c0_65, %49 : index
          %60 = arith.select %54, %c0_65, %58 : index
          %guid_66, %ptr_67 = arts.db_acquire[<inout>] (%guid : memref<?xi64>, %ptr : memref<?xmemref<?x?xf64>>) partitioning(<block>, offsets[%32], sizes[%c4]), offsets[%59], sizes[%c1_64] {arts.partition_hint = {blockSize = 15 : i64, mode = 1 : i8}, distribution_kind = #arts.distribution_kind<block>, distribution_pattern = #arts.distribution_pattern<matmul>, distribution_version = 1 : i32, stencil_block_shape = [4, 256], stencil_owner_dims = [0]} -> (memref<?xi64>, memref<?xmemref<?x?xf64>>)
          arts.lowering_contract(%ptr_67 : memref<?xmemref<?x?xf64>>) pattern(<distributionKind = <block>, distributionPattern = <matmul>, distributionVersion = 1 : i64>) block_shape[%c4] contract(<ownerDims = [0]>)
          %61 = arith.addi %32, %36 : index
          %62 = arith.cmpi uge, %32, %c1 : index
          %63 = arith.subi %32, %c1 : index
          %64 = arith.select %62, %63, %c0 : index
          %65 = arith.addi %61, %c1 : index
          %66 = arith.minui %65, %c256 : index
          %67 = arith.cmpi uge, %66, %64 : index
          %68 = arith.subi %66, %64 : index
          %69 = arith.select %67, %68, %c0 : index
          %70 = arith.maxui %69, %c1 : index
          %71 = arith.divui %64, %c256 : index
          %72 = arith.addi %64, %70 : index
          %73 = arith.subi %72, %c1 : index
          %74 = arith.divui %73, %c256 : index
          %75 = arith.cmpi ugt, %71, %c0 : index
          %76 = arith.select %75, %74, %c0 : index
          %77 = arith.subi %76, %71 : index
          %78 = arith.addi %77, %c1 : index
          %79 = arith.select %75, %c0, %71 : index
          %80 = arith.select %75, %c0, %78 : index
          %guid_68, %ptr_69 = arts.db_acquire[<in>] (%guid_15 : memref<?xi64>, %ptr_16 : memref<?xmemref<?x?xf64>>) partitioning(<coarse>), offsets[%c0_14], sizes[%c1] {arts.partition_hint = {blockSize = 15 : i64, mode = 1 : i8}, distribution_kind = #arts.distribution_kind<block>, distribution_pattern = #arts.distribution_pattern<matmul>, distribution_version = 1 : i32, stencil_block_shape = [4, 256], stencil_owner_dims = [0]} -> (memref<?xi64>, memref<?xmemref<?x?xf64>>)
          arts.lowering_contract(%ptr_69 : memref<?xmemref<?x?xf64>>) pattern(<distributionKind = <block>, distributionPattern = <matmul>, distributionVersion = 1 : i64>) block_shape[%c4] contract(<ownerDims = [0], postDbRefined = true>)
          %c0_70 = arith.constant 0 : index
          %guid_71, %ptr_72 = arts.db_acquire[<in>] (%guid_21 : memref<?xi64>, %ptr_22 : memref<?xmemref<?x?xf64>>) partitioning(<coarse>), offsets[%c0_20], sizes[%c1] {arts.id = 325 : i64, arts.partition_hint = {blockSize = 15 : i64, mode = 1 : i8}, distribution_kind = #arts.distribution_kind<block>, distribution_pattern = #arts.distribution_pattern<matmul>, distribution_version = 1 : i32, stencil_block_shape = []} -> (memref<?xi64>, memref<?xmemref<?x?xf64>>)
          arts.lowering_contract(%ptr_72 : memref<?xmemref<?x?xf64>>) pattern(<distributionKind = <block>, distributionPattern = <matmul>, distributionVersion = 1 : i64>) contract(<postDbRefined = true>)
          %c1_73 = arith.constant 1 : index
          %c0_74 = arith.constant 0 : index
          %guid_75, %ptr_76 = arts.db_acquire[<inout>] (%guid_35 : memref<?xi64>, %ptr_36 : memref<?xmemref<?x?xf64>>) partitioning(<block>, offsets[%32], sizes[%c4]), offsets[%c0_74], sizes[%19] {arts.partition_hint = {blockSize = 15 : i64, mode = 1 : i8}, distribution_kind = #arts.distribution_kind<block>, distribution_pattern = #arts.distribution_pattern<matmul>, distribution_version = 1 : i32, stencil_block_shape = []} -> (memref<?xi64>, memref<?xmemref<?x?xf64>>)
          arts.lowering_contract(%ptr_76 : memref<?xmemref<?x?xf64>>) pattern(<distributionKind = <block>, distributionPattern = <matmul>, distributionVersion = 1 : i64>)
          %guid_77, %ptr_78 = arts.db_acquire[<in>] (%guid_41 : memref<?xi64>, %ptr_42 : memref<?xmemref<?x?xf64>>) partitioning(<coarse>), offsets[%c0_40], sizes[%c1] {arts.id = 328 : i64, arts.partition_hint = {blockSize = 15 : i64, mode = 1 : i8}, distribution_kind = #arts.distribution_kind<block>, distribution_pattern = #arts.distribution_pattern<matmul>, distribution_version = 1 : i32, stencil_block_shape = []} -> (memref<?xi64>, memref<?xmemref<?x?xf64>>)
          arts.lowering_contract(%ptr_78 : memref<?xmemref<?x?xf64>>) pattern(<distributionKind = <block>, distributionPattern = <matmul>, distributionVersion = 1 : i64>) contract(<postDbRefined = true>)
          %guid_79, %ptr_80 = arts.db_acquire[<in>] (%guid_47 : memref<?xi64>, %ptr_48 : memref<?xmemref<?x?xf64>>) partitioning(<coarse>), offsets[%c0_46], sizes[%c1] {arts.id = 331 : i64, arts.partition_hint = {blockSize = 15 : i64, mode = 1 : i8}, distribution_kind = #arts.distribution_kind<block>, distribution_pattern = #arts.distribution_pattern<matmul>, distribution_version = 1 : i32, stencil_block_shape = []} -> (memref<?xi64>, memref<?xmemref<?x?xf64>>)
          arts.lowering_contract(%ptr_80 : memref<?xmemref<?x?xf64>>) pattern(<distributionKind = <block>, distributionPattern = <matmul>, distributionVersion = 1 : i64>) contract(<postDbRefined = true>)
          %c1_81 = arith.constant 1 : index
          %c0_82 = arith.constant 0 : index
          %guid_83, %ptr_84 = arts.db_acquire[<inout>] (%guid_61 : memref<?xi64>, %ptr_62 : memref<?xmemref<?x?xf64>>) partitioning(<block>, offsets[%32], sizes[%c4]), offsets[%c0_82], sizes[%26] {arts.partition_hint = {blockSize = 15 : i64, mode = 1 : i8}, distribution_kind = #arts.distribution_kind<block>, distribution_pattern = #arts.distribution_pattern<matmul>, distribution_version = 1 : i32, stencil_block_shape = []} -> (memref<?xi64>, memref<?xmemref<?x?xf64>>)
          arts.lowering_contract(%ptr_84 : memref<?xmemref<?x?xf64>>) pattern(<distributionKind = <block>, distributionPattern = <matmul>, distributionVersion = 1 : i64>)
          arts.edt <task> <intranode> route(%c-1_i32) (%ptr_67, %ptr_69, %ptr_72, %ptr_76, %ptr_78, %ptr_80, %ptr_84) : memref<?xmemref<?x?xf64>>, memref<?xmemref<?x?xf64>>, memref<?xmemref<?x?xf64>>, memref<?xmemref<?x?xf64>>, memref<?xmemref<?x?xf64>>, memref<?xmemref<?x?xf64>>, memref<?xmemref<?x?xf64>> attributes {arts.id = 322 : i64, distribution_kind = #arts.distribution_kind<block>, distribution_pattern = #arts.distribution_pattern<matmul>, distribution_version = 1 : i32, stencil_block_shape = [4, 256]} {
          ^bb0(%arg3: memref<?xmemref<?x?xf64>>, %arg4: memref<?xmemref<?x?xf64>>, %arg5: memref<?xmemref<?x?xf64>>, %arg6: memref<?xmemref<?x?xf64>>, %arg7: memref<?xmemref<?x?xf64>>, %arg8: memref<?xmemref<?x?xf64>>, %arg9: memref<?xmemref<?x?xf64>>):
            %c1_85 = arith.constant 1 : index
            %c0_86 = arith.constant 0 : index
            %81 = arith.maxui %20, %c1_85 : index
            %c0_87 = arith.constant 0 : index
            %c1_88 = arith.constant 1 : index
            %c0_89 = arith.constant 0 : index
            %82 = arith.maxui %6, %c1_88 : index
            %c0_90 = arith.constant 0 : index
            %c4_91 = arith.constant 4 : index
            %83 = arith.muli %arg2, %c4_91 : index
            %c15_92 = arith.constant 15 : index
            %c1_93 = arith.constant 1 : index
            %84 = arith.maxui %c15_92, %c1_93 : index
            %c1_94 = arith.constant 1 : index
            %85 = arith.maxui %84, %c1_94 : index
            %86 = arith.divui %83, %85 : index
            %87 = arith.select %54, %c0_90, %86 : index
            %c1_95 = arith.constant 1 : index
            %c0_96 = arith.constant 0 : index
            %88 = arith.maxui %13, %c1_95 : index
            %c0_97 = arith.constant 0 : index
            %89 = arith.subi %c0, %32 : index
            %90 = arith.cmpi slt, %89, %c0 : index
            %91 = arith.select %90, %c0, %89 : index
            %92 = arith.cmpi slt, %34, %c0 : index
            %93 = arith.select %92, %c0, %34 : index
            %94 = arith.minui %93, %36 : index
            scf.for %arg10 = %91 to %94 step %c1 {
              %95 = arith.addi %32, %arg10 : index
              scf.for %arg11 = %c0 to %c256 step %c1 {
                %c1_98 = arith.constant 1 : index
                %96 = arith.maxui %82, %c1_98 : index
                %c0_99 = arith.constant 0 : index
                %c1_100 = arith.constant 1 : index
                %c-1 = arith.constant -1 : index
                %97 = arith.addi %32, %91 : index
                %98 = arith.divui %97, %96 : index
                %99 = arith.remui %97, %96 : index
                %100 = arith.subi %arg10, %91 : index
                %101 = arith.addi %99, %100 : index
                %102 = arith.subi %98, %87 : index
                %103 = arith.cmpi slt, %101, %c0_99 : index
                %104 = arith.cmpi sge, %101, %96 : index
                %105 = arith.select %103, %c-1, %c0_99 : index
                %106 = arith.select %104, %c1_100, %105 : index
                %107 = arith.addi %102, %106 : index
                %108 = arith.subi %101, %96 : index
                %109 = arith.addi %101, %96 : index
                %110 = arith.select %103, %109, %101 : index
                %111 = arith.select %104, %108, %110 : index
                %112 = arts.db_ref %arg3[%c0_89] : memref<?xmemref<?x?xf64>> -> memref<?x?xf64>
                memref.store %cst_0, %112[%111, %arg11] : memref<?x?xf64>
              } {arts.id = 307 : i64, arts.loop = #arts.loop_metadata<potentiallyParallel = false, hasReductions = false, tripCount = 256 : i64, nestingLevel = 1 : i64, hasInterIterationDeps = false, memrefsWithLoopCarriedDeps = 0 : i64, parallelClassification = 0 : i64, locationKey = "3mm.c:137:3">, arts.metadata_provenance = "exact"}
              scf.for %arg11 = %c0 to %c256 step %c1 {
                scf.for %arg12 = %c0 to %c256 step %c1 {
                  %96 = arts.db_ref %arg4[%c0] : memref<?xmemref<?x?xf64>> -> memref<?x?xf64>
                  %97 = memref.load %96[%95, %arg11] : memref<?x?xf64>
                  %98 = arts.db_ref %arg5[%c0] : memref<?xmemref<?x?xf64>> -> memref<?x?xf64>
                  %99 = memref.load %98[%arg11, %arg12] : memref<?x?xf64>
                  %100 = arith.mulf %97, %99 : f64
                  %c1_98 = arith.constant 1 : index
                  %101 = arith.maxui %82, %c1_98 : index
                  %c0_99 = arith.constant 0 : index
                  %c1_100 = arith.constant 1 : index
                  %c-1 = arith.constant -1 : index
                  %102 = arith.addi %32, %91 : index
                  %103 = arith.divui %102, %101 : index
                  %104 = arith.remui %102, %101 : index
                  %105 = arith.subi %arg10, %91 : index
                  %106 = arith.addi %104, %105 : index
                  %107 = arith.subi %103, %87 : index
                  %108 = arith.cmpi slt, %106, %c0_99 : index
                  %109 = arith.cmpi sge, %106, %101 : index
                  %110 = arith.select %108, %c-1, %c0_99 : index
                  %111 = arith.select %109, %c1_100, %110 : index
                  %112 = arith.addi %107, %111 : index
                  %113 = arith.subi %106, %101 : index
                  %114 = arith.addi %106, %101 : index
                  %115 = arith.select %108, %114, %106 : index
                  %116 = arith.select %109, %113, %115 : index
                  %117 = arts.db_ref %arg3[%c0_89] : memref<?xmemref<?x?xf64>> -> memref<?x?xf64>
                  %118 = memref.load %117[%116, %arg12] : memref<?x?xf64>
                  %119 = arith.addf %118, %100 : f64
                  %c1_101 = arith.constant 1 : index
                  %120 = arith.maxui %82, %c1_101 : index
                  %c0_102 = arith.constant 0 : index
                  %c1_103 = arith.constant 1 : index
                  %c-1_104 = arith.constant -1 : index
                  %121 = arith.addi %32, %91 : index
                  %122 = arith.divui %121, %120 : index
                  %123 = arith.remui %121, %120 : index
                  %124 = arith.subi %arg10, %91 : index
                  %125 = arith.addi %123, %124 : index
                  %126 = arith.subi %122, %87 : index
                  %127 = arith.cmpi slt, %125, %c0_102 : index
                  %128 = arith.cmpi sge, %125, %120 : index
                  %129 = arith.select %127, %c-1_104, %c0_102 : index
                  %130 = arith.select %128, %c1_103, %129 : index
                  %131 = arith.addi %126, %130 : index
                  %132 = arith.subi %125, %120 : index
                  %133 = arith.addi %125, %120 : index
                  %134 = arith.select %127, %133, %125 : index
                  %135 = arith.select %128, %132, %134 : index
                  %136 = arts.db_ref %arg3[%c0_89] : memref<?xmemref<?x?xf64>> -> memref<?x?xf64>
                  memref.store %119, %136[%135, %arg12] : memref<?x?xf64>
                } {arts.id = 308 : i64, arts.loop = #arts.loop_metadata<potentiallyParallel = false, hasReductions = false, tripCount = 256 : i64, nestingLevel = 2 : i64, hasInterIterationDeps = false, memrefsWithLoopCarriedDeps = 0 : i64, parallelClassification = 0 : i64, locationKey = "3mm.c:137:3">, arts.metadata_origin_id = 308 : i64, arts.metadata_provenance = "transferred"}
              } {arts.id = 269 : i64, arts.loop = #arts.loop_metadata<potentiallyParallel = false, hasReductions = false, tripCount = 256 : i64, nestingLevel = 1 : i64, hasInterIterationDeps = false, memrefsWithLoopCarriedDeps = 0 : i64, parallelClassification = 0 : i64, locationKey = "3mm.c:137:3">, arts.metadata_origin_id = 269 : i64, arts.metadata_provenance = "transferred"}
            } {arts.id = 319 : i64, arts.loop = #arts.loop_metadata<potentiallyParallel = true, hasReductions = false, tripCount = 0 : i64, nestingLevel = 1 : i64, hasInterIterationDeps = false, memrefsWithLoopCarriedDeps = 0 : i64, parallelClassification = 2 : i64, locationKey = "3mm.c:137:3">, arts.metadata_provenance = "exact"}
            arts.db_release(%arg3) : memref<?xmemref<?x?xf64>>
            arts.db_release(%arg4) : memref<?xmemref<?x?xf64>>
            arts.db_release(%arg5) : memref<?xmemref<?x?xf64>>
            arts.db_release(%arg6) : memref<?xmemref<?x?xf64>>
            arts.db_release(%arg7) : memref<?xmemref<?x?xf64>>
            arts.db_release(%arg8) : memref<?xmemref<?x?xf64>>
            arts.db_release(%arg9) : memref<?xmemref<?x?xf64>>
          }
        }
      }
      scf.for %arg2 = %c0 to %c64 step %c1 {
        %32 = arith.muli %arg2, %c4 : index
        %33 = arith.cmpi uge, %32, %c256 : index
        %34 = arith.subi %c256, %32 : index
        %35 = arith.select %33, %c0, %34 : index
        %36 = arith.minui %35, %c4 : index
        %37 = arith.cmpi ugt, %36, %c0 : index
        scf.if %37 {
          %38 = arith.divui %32, %c256 : index
          %39 = arith.addi %32, %c3 : index
          %40 = arith.divui %39, %c256 : index
          %41 = arith.cmpi ugt, %38, %c0 : index
          %42 = arith.select %41, %40, %c0 : index
          %43 = arith.subi %42, %38 : index
          %44 = arith.addi %43, %c1 : index
          %45 = arith.select %41, %c0, %38 : index
          %46 = arith.select %41, %c0, %44 : index
          %c1_64 = arith.constant 1 : index
          %c0_65 = arith.constant 0 : index
          %guid_66, %ptr_67 = arts.db_acquire[<inout>] (%guid : memref<?xi64>, %ptr : memref<?xmemref<?x?xf64>>) partitioning(<block>, offsets[%32], sizes[%c4]), offsets[%c0_65], sizes[%12] {arts.partition_hint = {blockSize = 15 : i64, mode = 1 : i8}, distribution_kind = #arts.distribution_kind<block>, distribution_pattern = #arts.distribution_pattern<matmul>, distribution_version = 1 : i32, stencil_block_shape = []} -> (memref<?xi64>, memref<?xmemref<?x?xf64>>)
          arts.lowering_contract(%ptr_67 : memref<?xmemref<?x?xf64>>) pattern(<distributionKind = <block>, distributionPattern = <matmul>, distributionVersion = 1 : i64>)
          %47 = arith.addi %32, %36 : index
          %48 = arith.cmpi uge, %32, %c1 : index
          %49 = arith.subi %32, %c1 : index
          %50 = arith.select %48, %49, %c0 : index
          %51 = arith.addi %47, %c1 : index
          %52 = arith.minui %51, %c256 : index
          %53 = arith.cmpi uge, %52, %50 : index
          %54 = arith.subi %52, %50 : index
          %55 = arith.select %53, %54, %c0 : index
          %56 = arith.maxui %55, %c1 : index
          %57 = arith.divui %50, %c256 : index
          %58 = arith.addi %50, %56 : index
          %59 = arith.subi %58, %c1 : index
          %60 = arith.divui %59, %c256 : index
          %61 = arith.cmpi ugt, %57, %c0 : index
          %62 = arith.select %61, %60, %c0 : index
          %63 = arith.subi %62, %57 : index
          %64 = arith.addi %63, %c1 : index
          %65 = arith.select %61, %c0, %57 : index
          %66 = arith.select %61, %c0, %64 : index
          %guid_68, %ptr_69 = arts.db_acquire[<in>] (%guid_15 : memref<?xi64>, %ptr_16 : memref<?xmemref<?x?xf64>>) partitioning(<coarse>), offsets[%c0_14], sizes[%c1] {arts.id = 334 : i64, arts.partition_hint = {blockSize = 15 : i64, mode = 1 : i8}, distribution_kind = #arts.distribution_kind<block>, distribution_pattern = #arts.distribution_pattern<matmul>, distribution_version = 1 : i32, stencil_block_shape = []} -> (memref<?xi64>, memref<?xmemref<?x?xf64>>)
          arts.lowering_contract(%ptr_69 : memref<?xmemref<?x?xf64>>) pattern(<distributionKind = <block>, distributionPattern = <matmul>, distributionVersion = 1 : i64>) contract(<postDbRefined = true>)
          %guid_70, %ptr_71 = arts.db_acquire[<in>] (%guid_21 : memref<?xi64>, %ptr_22 : memref<?xmemref<?x?xf64>>) partitioning(<coarse>), offsets[%c0_20], sizes[%c1] {arts.id = 326 : i64, arts.partition_hint = {blockSize = 15 : i64, mode = 1 : i8}, distribution_kind = #arts.distribution_kind<block>, distribution_pattern = #arts.distribution_pattern<matmul>, distribution_version = 1 : i32, stencil_block_shape = []} -> (memref<?xi64>, memref<?xmemref<?x?xf64>>)
          arts.lowering_contract(%ptr_71 : memref<?xmemref<?x?xf64>>) pattern(<distributionKind = <block>, distributionPattern = <matmul>, distributionVersion = 1 : i64>) contract(<postDbRefined = true>)
          %c1_72 = arith.constant 1 : index
          %c0_73 = arith.constant 0 : index
          %67 = arith.maxui %13, %c1_72 : index
          %68 = arith.muli %19, %67 : index
          %69 = arith.divui %32, %67 : index
          %70 = arith.addi %32, %c4 : index
          %71 = arith.subi %70, %c1_72 : index
          %72 = arith.divui %71, %67 : index
          %73 = arith.subi %19, %c1_72 : index
          %74 = arith.cmpi ugt, %69, %73 : index
          %75 = arith.minui %72, %73 : index
          %76 = arith.select %74, %72, %75 : index
          %77 = arith.subi %76, %69 : index
          %78 = arith.addi %77, %c1_72 : index
          %79 = arith.select %74, %c0_73, %69 : index
          %80 = arith.select %74, %c0_73, %78 : index
          %guid_74, %ptr_75 = arts.db_acquire[<inout>] (%guid_35 : memref<?xi64>, %ptr_36 : memref<?xmemref<?x?xf64>>) partitioning(<block>, offsets[%32], sizes[%c4]), offsets[%79], sizes[%c1_72] {arts.partition_hint = {blockSize = 15 : i64, mode = 1 : i8}, distribution_kind = #arts.distribution_kind<block>, distribution_pattern = #arts.distribution_pattern<matmul>, distribution_version = 1 : i32, stencil_block_shape = [4, 256], stencil_owner_dims = [0]} -> (memref<?xi64>, memref<?xmemref<?x?xf64>>)
          arts.lowering_contract(%ptr_75 : memref<?xmemref<?x?xf64>>) pattern(<distributionKind = <block>, distributionPattern = <matmul>, distributionVersion = 1 : i64>) block_shape[%c4] contract(<ownerDims = [0]>)
          %guid_76, %ptr_77 = arts.db_acquire[<in>] (%guid_41 : memref<?xi64>, %ptr_42 : memref<?xmemref<?x?xf64>>) partitioning(<coarse>), offsets[%c0_40], sizes[%c1] {arts.partition_hint = {blockSize = 15 : i64, mode = 1 : i8}, distribution_kind = #arts.distribution_kind<block>, distribution_pattern = #arts.distribution_pattern<matmul>, distribution_version = 1 : i32, stencil_block_shape = [4, 256], stencil_owner_dims = [0]} -> (memref<?xi64>, memref<?xmemref<?x?xf64>>)
          arts.lowering_contract(%ptr_77 : memref<?xmemref<?x?xf64>>) pattern(<distributionKind = <block>, distributionPattern = <matmul>, distributionVersion = 1 : i64>) block_shape[%c4] contract(<ownerDims = [0], postDbRefined = true>)
          %c0_78 = arith.constant 0 : index
          %guid_79, %ptr_80 = arts.db_acquire[<in>] (%guid_47 : memref<?xi64>, %ptr_48 : memref<?xmemref<?x?xf64>>) partitioning(<coarse>), offsets[%c0_46], sizes[%c1] {arts.id = 332 : i64, arts.partition_hint = {blockSize = 15 : i64, mode = 1 : i8}, distribution_kind = #arts.distribution_kind<block>, distribution_pattern = #arts.distribution_pattern<matmul>, distribution_version = 1 : i32, stencil_block_shape = []} -> (memref<?xi64>, memref<?xmemref<?x?xf64>>)
          arts.lowering_contract(%ptr_80 : memref<?xmemref<?x?xf64>>) pattern(<distributionKind = <block>, distributionPattern = <matmul>, distributionVersion = 1 : i64>) contract(<postDbRefined = true>)
          %c1_81 = arith.constant 1 : index
          %c0_82 = arith.constant 0 : index
          %guid_83, %ptr_84 = arts.db_acquire[<inout>] (%guid_61 : memref<?xi64>, %ptr_62 : memref<?xmemref<?x?xf64>>) partitioning(<block>, offsets[%32], sizes[%c4]), offsets[%c0_82], sizes[%26] {arts.partition_hint = {blockSize = 15 : i64, mode = 1 : i8}, distribution_kind = #arts.distribution_kind<block>, distribution_pattern = #arts.distribution_pattern<matmul>, distribution_version = 1 : i32, stencil_block_shape = []} -> (memref<?xi64>, memref<?xmemref<?x?xf64>>)
          arts.lowering_contract(%ptr_84 : memref<?xmemref<?x?xf64>>) pattern(<distributionKind = <block>, distributionPattern = <matmul>, distributionVersion = 1 : i64>)
          arts.edt <task> <intranode> route(%c-1_i32) (%ptr_67, %ptr_69, %ptr_71, %ptr_75, %ptr_77, %ptr_80, %ptr_84) : memref<?xmemref<?x?xf64>>, memref<?xmemref<?x?xf64>>, memref<?xmemref<?x?xf64>>, memref<?xmemref<?x?xf64>>, memref<?xmemref<?x?xf64>>, memref<?xmemref<?x?xf64>>, memref<?xmemref<?x?xf64>> attributes {arts.id = 323 : i64, distribution_kind = #arts.distribution_kind<block>, distribution_pattern = #arts.distribution_pattern<matmul>, distribution_version = 1 : i32, stencil_block_shape = [4, 256]} {
          ^bb0(%arg3: memref<?xmemref<?x?xf64>>, %arg4: memref<?xmemref<?x?xf64>>, %arg5: memref<?xmemref<?x?xf64>>, %arg6: memref<?xmemref<?x?xf64>>, %arg7: memref<?xmemref<?x?xf64>>, %arg8: memref<?xmemref<?x?xf64>>, %arg9: memref<?xmemref<?x?xf64>>):
            %c1_85 = arith.constant 1 : index
            %c0_86 = arith.constant 0 : index
            %81 = arith.maxui %20, %c1_85 : index
            %c0_87 = arith.constant 0 : index
            %c1_88 = arith.constant 1 : index
            %c0_89 = arith.constant 0 : index
            %82 = arith.maxui %6, %c1_88 : index
            %c0_90 = arith.constant 0 : index
            %c1_91 = arith.constant 1 : index
            %c0_92 = arith.constant 0 : index
            %83 = arith.maxui %13, %c1_91 : index
            %c0_93 = arith.constant 0 : index
            %c4_94 = arith.constant 4 : index
            %84 = arith.muli %arg2, %c4_94 : index
            %c15_95 = arith.constant 15 : index
            %c1_96 = arith.constant 1 : index
            %85 = arith.maxui %c15_95, %c1_96 : index
            %c1_97 = arith.constant 1 : index
            %86 = arith.maxui %85, %c1_97 : index
            %87 = arith.divui %84, %86 : index
            %88 = arith.select %74, %c0_93, %87 : index
            %89 = arith.subi %c0, %32 : index
            %90 = arith.cmpi slt, %89, %c0 : index
            %91 = arith.select %90, %c0, %89 : index
            %92 = arith.cmpi slt, %34, %c0 : index
            %93 = arith.select %92, %c0, %34 : index
            %94 = arith.minui %93, %36 : index
            scf.for %arg10 = %91 to %94 step %c1 {
              %95 = arith.addi %32, %arg10 : index
              scf.for %arg11 = %c0 to %c256 step %c1 {
                %c1_98 = arith.constant 1 : index
                %96 = arith.maxui %83, %c1_98 : index
                %c0_99 = arith.constant 0 : index
                %c1_100 = arith.constant 1 : index
                %c-1 = arith.constant -1 : index
                %97 = arith.addi %32, %91 : index
                %98 = arith.divui %97, %96 : index
                %99 = arith.remui %97, %96 : index
                %100 = arith.subi %arg10, %91 : index
                %101 = arith.addi %99, %100 : index
                %102 = arith.subi %98, %88 : index
                %103 = arith.cmpi slt, %101, %c0_99 : index
                %104 = arith.cmpi sge, %101, %96 : index
                %105 = arith.select %103, %c-1, %c0_99 : index
                %106 = arith.select %104, %c1_100, %105 : index
                %107 = arith.addi %102, %106 : index
                %108 = arith.subi %101, %96 : index
                %109 = arith.addi %101, %96 : index
                %110 = arith.select %103, %109, %101 : index
                %111 = arith.select %104, %108, %110 : index
                %112 = arts.db_ref %arg6[%c0_92] : memref<?xmemref<?x?xf64>> -> memref<?x?xf64>
                memref.store %cst_0, %112[%111, %arg11] : memref<?x?xf64>
              } {arts.id = 308 : i64, arts.loop = #arts.loop_metadata<potentiallyParallel = false, hasReductions = false, tripCount = 256 : i64, nestingLevel = 1 : i64, hasInterIterationDeps = false, memrefsWithLoopCarriedDeps = 0 : i64, parallelClassification = 0 : i64, locationKey = "3mm.c:137:3">, arts.metadata_provenance = "exact"}
              scf.for %arg11 = %c0 to %c256 step %c1 {
                scf.for %arg12 = %c0 to %c256 step %c1 {
                  %96 = arts.db_ref %arg7[%c0] : memref<?xmemref<?x?xf64>> -> memref<?x?xf64>
                  %97 = memref.load %96[%95, %arg11] : memref<?x?xf64>
                  %98 = arts.db_ref %arg8[%c0] : memref<?xmemref<?x?xf64>> -> memref<?x?xf64>
                  %99 = memref.load %98[%arg11, %arg12] : memref<?x?xf64>
                  %100 = arith.mulf %97, %99 : f64
                  %c1_98 = arith.constant 1 : index
                  %101 = arith.maxui %83, %c1_98 : index
                  %c0_99 = arith.constant 0 : index
                  %c1_100 = arith.constant 1 : index
                  %c-1 = arith.constant -1 : index
                  %102 = arith.addi %32, %91 : index
                  %103 = arith.divui %102, %101 : index
                  %104 = arith.remui %102, %101 : index
                  %105 = arith.subi %arg10, %91 : index
                  %106 = arith.addi %104, %105 : index
                  %107 = arith.subi %103, %88 : index
                  %108 = arith.cmpi slt, %106, %c0_99 : index
                  %109 = arith.cmpi sge, %106, %101 : index
                  %110 = arith.select %108, %c-1, %c0_99 : index
                  %111 = arith.select %109, %c1_100, %110 : index
                  %112 = arith.addi %107, %111 : index
                  %113 = arith.subi %106, %101 : index
                  %114 = arith.addi %106, %101 : index
                  %115 = arith.select %108, %114, %106 : index
                  %116 = arith.select %109, %113, %115 : index
                  %117 = arts.db_ref %arg6[%c0_92] : memref<?xmemref<?x?xf64>> -> memref<?x?xf64>
                  %118 = memref.load %117[%116, %arg12] : memref<?x?xf64>
                  %119 = arith.addf %118, %100 : f64
                  %c1_101 = arith.constant 1 : index
                  %120 = arith.maxui %83, %c1_101 : index
                  %c0_102 = arith.constant 0 : index
                  %c1_103 = arith.constant 1 : index
                  %c-1_104 = arith.constant -1 : index
                  %121 = arith.addi %32, %91 : index
                  %122 = arith.divui %121, %120 : index
                  %123 = arith.remui %121, %120 : index
                  %124 = arith.subi %arg10, %91 : index
                  %125 = arith.addi %123, %124 : index
                  %126 = arith.subi %122, %88 : index
                  %127 = arith.cmpi slt, %125, %c0_102 : index
                  %128 = arith.cmpi sge, %125, %120 : index
                  %129 = arith.select %127, %c-1_104, %c0_102 : index
                  %130 = arith.select %128, %c1_103, %129 : index
                  %131 = arith.addi %126, %130 : index
                  %132 = arith.subi %125, %120 : index
                  %133 = arith.addi %125, %120 : index
                  %134 = arith.select %127, %133, %125 : index
                  %135 = arith.select %128, %132, %134 : index
                  %136 = arts.db_ref %arg6[%c0_92] : memref<?xmemref<?x?xf64>> -> memref<?x?xf64>
                  memref.store %119, %136[%135, %arg12] : memref<?x?xf64>
                } {arts.id = 310 : i64, arts.loop = #arts.loop_metadata<potentiallyParallel = false, hasReductions = false, tripCount = 256 : i64, nestingLevel = 2 : i64, hasInterIterationDeps = false, memrefsWithLoopCarriedDeps = 0 : i64, parallelClassification = 0 : i64, locationKey = "3mm.c:137:3">, arts.metadata_origin_id = 310 : i64, arts.metadata_provenance = "transferred"}
              } {arts.id = 309 : i64, arts.loop = #arts.loop_metadata<potentiallyParallel = false, hasReductions = false, tripCount = 256 : i64, nestingLevel = 1 : i64, hasInterIterationDeps = false, memrefsWithLoopCarriedDeps = 0 : i64, parallelClassification = 0 : i64, locationKey = "3mm.c:137:3">, arts.metadata_origin_id = 309 : i64, arts.metadata_provenance = "transferred"}
            } {arts.id = 320 : i64, arts.loop = #arts.loop_metadata<potentiallyParallel = true, hasReductions = false, tripCount = 0 : i64, nestingLevel = 1 : i64, hasInterIterationDeps = false, memrefsWithLoopCarriedDeps = 0 : i64, parallelClassification = 2 : i64, locationKey = "3mm.c:137:3">, arts.metadata_provenance = "exact"}
            arts.db_release(%arg3) : memref<?xmemref<?x?xf64>>
            arts.db_release(%arg4) : memref<?xmemref<?x?xf64>>
            arts.db_release(%arg5) : memref<?xmemref<?x?xf64>>
            arts.db_release(%arg6) : memref<?xmemref<?x?xf64>>
            arts.db_release(%arg7) : memref<?xmemref<?x?xf64>>
            arts.db_release(%arg8) : memref<?xmemref<?x?xf64>>
            arts.db_release(%arg9) : memref<?xmemref<?x?xf64>>
          }
        }
      }
    } : i64
    %28 = arts.epoch attributes {distribution_kind = #arts.distribution_kind<block>, distribution_pattern = #arts.distribution_pattern<matmul>, distribution_version = 1 : i32} {
      scf.for %arg2 = %c0 to %c64 step %c1 {
        %32 = arith.muli %arg2, %c4 : index
        %33 = arith.cmpi uge, %32, %c256 : index
        %34 = arith.subi %c256, %32 : index
        %35 = arith.select %33, %c0, %34 : index
        %36 = arith.minui %35, %c4 : index
        %37 = arith.cmpi ugt, %36, %c0 : index
        scf.if %37 {
          %38 = arith.divui %32, %c256 : index
          %39 = arith.addi %32, %c3 : index
          %40 = arith.divui %39, %c256 : index
          %41 = arith.cmpi ugt, %38, %c0 : index
          %42 = arith.select %41, %40, %c0 : index
          %43 = arith.subi %42, %38 : index
          %44 = arith.addi %43, %c1 : index
          %45 = arith.select %41, %c0, %38 : index
          %46 = arith.select %41, %c0, %44 : index
          %c1_64 = arith.constant 1 : index
          %c0_65 = arith.constant 0 : index
          %47 = arith.maxui %6, %c1_64 : index
          %48 = arith.muli %12, %47 : index
          %49 = arith.divui %32, %47 : index
          %50 = arith.addi %32, %c4 : index
          %51 = arith.subi %50, %c1_64 : index
          %52 = arith.divui %51, %47 : index
          %53 = arith.subi %12, %c1_64 : index
          %54 = arith.cmpi ugt, %49, %53 : index
          %55 = arith.minui %52, %53 : index
          %56 = arith.select %54, %52, %55 : index
          %57 = arith.subi %56, %49 : index
          %58 = arith.addi %57, %c1_64 : index
          %59 = arith.select %54, %c0_65, %49 : index
          %60 = arith.select %54, %c0_65, %58 : index
          %guid_66, %ptr_67 = arts.db_acquire[<inout>] (%guid : memref<?xi64>, %ptr : memref<?xmemref<?x?xf64>>) partitioning(<block>, offsets[%32], sizes[%c4]), offsets[%59], sizes[%c1_64] {arts.partition_hint = {blockSize = 15 : i64, mode = 1 : i8}, distribution_kind = #arts.distribution_kind<block>, distribution_pattern = #arts.distribution_pattern<matmul>, distribution_version = 1 : i32, stencil_block_shape = [4, 256], stencil_owner_dims = [0]} -> (memref<?xi64>, memref<?xmemref<?x?xf64>>)
          arts.lowering_contract(%ptr_67 : memref<?xmemref<?x?xf64>>) pattern(<distributionKind = <block>, distributionPattern = <matmul>, distributionVersion = 1 : i64>) block_shape[%c4] contract(<ownerDims = [0]>)
          %61 = arith.addi %32, %36 : index
          %62 = arith.cmpi uge, %32, %c1 : index
          %63 = arith.subi %32, %c1 : index
          %64 = arith.select %62, %63, %c0 : index
          %65 = arith.addi %61, %c1 : index
          %66 = arith.minui %65, %c256 : index
          %67 = arith.cmpi uge, %66, %64 : index
          %68 = arith.subi %66, %64 : index
          %69 = arith.select %67, %68, %c0 : index
          %70 = arith.maxui %69, %c1 : index
          %71 = arith.divui %64, %c256 : index
          %72 = arith.addi %64, %70 : index
          %73 = arith.subi %72, %c1 : index
          %74 = arith.divui %73, %c256 : index
          %75 = arith.cmpi ugt, %71, %c0 : index
          %76 = arith.select %75, %74, %c0 : index
          %77 = arith.subi %76, %71 : index
          %78 = arith.addi %77, %c1 : index
          %79 = arith.select %75, %c0, %71 : index
          %80 = arith.select %75, %c0, %78 : index
          %guid_68, %ptr_69 = arts.db_acquire[<in>] (%guid_15 : memref<?xi64>, %ptr_16 : memref<?xmemref<?x?xf64>>) partitioning(<coarse>), offsets[%c0_14], sizes[%c1] {arts.id = 335 : i64, arts.partition_hint = {blockSize = 15 : i64, mode = 1 : i8}, distribution_kind = #arts.distribution_kind<block>, distribution_pattern = #arts.distribution_pattern<matmul>, distribution_version = 1 : i32, stencil_block_shape = []} -> (memref<?xi64>, memref<?xmemref<?x?xf64>>)
          arts.lowering_contract(%ptr_69 : memref<?xmemref<?x?xf64>>) pattern(<distributionKind = <block>, distributionPattern = <matmul>, distributionVersion = 1 : i64>) contract(<postDbRefined = true>)
          %guid_70, %ptr_71 = arts.db_acquire[<in>] (%guid_21 : memref<?xi64>, %ptr_22 : memref<?xmemref<?x?xf64>>) partitioning(<coarse>), offsets[%c0_20], sizes[%c1] {arts.id = 327 : i64, arts.partition_hint = {blockSize = 15 : i64, mode = 1 : i8}, distribution_kind = #arts.distribution_kind<block>, distribution_pattern = #arts.distribution_pattern<matmul>, distribution_version = 1 : i32, stencil_block_shape = []} -> (memref<?xi64>, memref<?xmemref<?x?xf64>>)
          arts.lowering_contract(%ptr_71 : memref<?xmemref<?x?xf64>>) pattern(<distributionKind = <block>, distributionPattern = <matmul>, distributionVersion = 1 : i64>) contract(<postDbRefined = true>)
          %c0_72 = arith.constant 0 : index
          %c1_73 = arith.constant 1 : index
          %c0_74 = arith.constant 0 : index
          %guid_75, %ptr_76 = arts.db_acquire[<inout>] (%guid_35 : memref<?xi64>, %ptr_36 : memref<?xmemref<?x?xf64>>) partitioning(<block>, offsets[%32], sizes[%c4]), offsets[%c0_74], sizes[%19] {arts.id = 330 : i64, arts.partition_hint = {blockSize = 15 : i64, mode = 1 : i8}, distribution_kind = #arts.distribution_kind<block>, distribution_pattern = #arts.distribution_pattern<matmul>, distribution_version = 1 : i32, stencil_block_shape = []} -> (memref<?xi64>, memref<?xmemref<?x?xf64>>)
          arts.lowering_contract(%ptr_76 : memref<?xmemref<?x?xf64>>) pattern(<distributionKind = <block>, distributionPattern = <matmul>, distributionVersion = 1 : i64>)
          %guid_77, %ptr_78 = arts.db_acquire[<in>] (%guid_41 : memref<?xi64>, %ptr_42 : memref<?xmemref<?x?xf64>>) partitioning(<coarse>), offsets[%c0_40], sizes[%c1] {arts.id = 329 : i64, arts.partition_hint = {blockSize = 15 : i64, mode = 1 : i8}, distribution_kind = #arts.distribution_kind<block>, distribution_pattern = #arts.distribution_pattern<matmul>, distribution_version = 1 : i32, stencil_block_shape = []} -> (memref<?xi64>, memref<?xmemref<?x?xf64>>)
          arts.lowering_contract(%ptr_78 : memref<?xmemref<?x?xf64>>) pattern(<distributionKind = <block>, distributionPattern = <matmul>, distributionVersion = 1 : i64>) contract(<postDbRefined = true>)
          %guid_79, %ptr_80 = arts.db_acquire[<in>] (%guid_47 : memref<?xi64>, %ptr_48 : memref<?xmemref<?x?xf64>>) partitioning(<coarse>), offsets[%c0_46], sizes[%c1] {arts.id = 333 : i64, arts.partition_hint = {blockSize = 15 : i64, mode = 1 : i8}, distribution_kind = #arts.distribution_kind<block>, distribution_pattern = #arts.distribution_pattern<matmul>, distribution_version = 1 : i32, stencil_block_shape = []} -> (memref<?xi64>, memref<?xmemref<?x?xf64>>)
          arts.lowering_contract(%ptr_80 : memref<?xmemref<?x?xf64>>) pattern(<distributionKind = <block>, distributionPattern = <matmul>, distributionVersion = 1 : i64>) contract(<postDbRefined = true>)
          %c1_81 = arith.constant 1 : index
          %c0_82 = arith.constant 0 : index
          %81 = arith.maxui %20, %c1_81 : index
          %82 = arith.muli %26, %81 : index
          %83 = arith.divui %32, %81 : index
          %84 = arith.addi %32, %c4 : index
          %85 = arith.subi %84, %c1_81 : index
          %86 = arith.divui %85, %81 : index
          %87 = arith.subi %26, %c1_81 : index
          %88 = arith.cmpi ugt, %83, %87 : index
          %89 = arith.minui %86, %87 : index
          %90 = arith.select %88, %86, %89 : index
          %91 = arith.subi %90, %83 : index
          %92 = arith.addi %91, %c1_81 : index
          %93 = arith.select %88, %c0_82, %83 : index
          %94 = arith.select %88, %c0_82, %92 : index
          %guid_83, %ptr_84 = arts.db_acquire[<inout>] (%guid_61 : memref<?xi64>, %ptr_62 : memref<?xmemref<?x?xf64>>) partitioning(<block>, offsets[%32], sizes[%c4]), offsets[%93], sizes[%c1_81] {arts.partition_hint = {blockSize = 15 : i64, mode = 1 : i8}, distribution_kind = #arts.distribution_kind<block>, distribution_pattern = #arts.distribution_pattern<matmul>, distribution_version = 1 : i32, stencil_block_shape = [4, 256], stencil_owner_dims = [0]} -> (memref<?xi64>, memref<?xmemref<?x?xf64>>)
          arts.lowering_contract(%ptr_84 : memref<?xmemref<?x?xf64>>) pattern(<distributionKind = <block>, distributionPattern = <matmul>, distributionVersion = 1 : i64>) block_shape[%c4] contract(<ownerDims = [0]>)
          arts.edt <task> <intranode> route(%c-1_i32) (%ptr_67, %ptr_69, %ptr_71, %ptr_76, %ptr_78, %ptr_80, %ptr_84) : memref<?xmemref<?x?xf64>>, memref<?xmemref<?x?xf64>>, memref<?xmemref<?x?xf64>>, memref<?xmemref<?x?xf64>>, memref<?xmemref<?x?xf64>>, memref<?xmemref<?x?xf64>>, memref<?xmemref<?x?xf64>> attributes {arts.id = 324 : i64, distribution_kind = #arts.distribution_kind<block>, distribution_pattern = #arts.distribution_pattern<matmul>, distribution_version = 1 : i32, stencil_block_shape = [4, 256]} {
          ^bb0(%arg3: memref<?xmemref<?x?xf64>>, %arg4: memref<?xmemref<?x?xf64>>, %arg5: memref<?xmemref<?x?xf64>>, %arg6: memref<?xmemref<?x?xf64>>, %arg7: memref<?xmemref<?x?xf64>>, %arg8: memref<?xmemref<?x?xf64>>, %arg9: memref<?xmemref<?x?xf64>>):
            %c1_85 = arith.constant 1 : index
            %c0_86 = arith.constant 0 : index
            %95 = arith.maxui %20, %c1_85 : index
            %c0_87 = arith.constant 0 : index
            %c4_88 = arith.constant 4 : index
            %96 = arith.muli %arg2, %c4_88 : index
            %c15_89 = arith.constant 15 : index
            %c1_90 = arith.constant 1 : index
            %97 = arith.maxui %c15_89, %c1_90 : index
            %c1_91 = arith.constant 1 : index
            %98 = arith.maxui %97, %c1_91 : index
            %99 = arith.divui %96, %98 : index
            %100 = arith.select %88, %c0_87, %99 : index
            %c1_92 = arith.constant 1 : index
            %c0_93 = arith.constant 0 : index
            %101 = arith.maxui %6, %c1_92 : index
            %c0_94 = arith.constant 0 : index
            %c4_95 = arith.constant 4 : index
            %102 = arith.muli %arg2, %c4_95 : index
            %c15_96 = arith.constant 15 : index
            %c1_97 = arith.constant 1 : index
            %103 = arith.maxui %c15_96, %c1_97 : index
            %c1_98 = arith.constant 1 : index
            %104 = arith.maxui %103, %c1_98 : index
            %105 = arith.divui %102, %104 : index
            %106 = arith.select %54, %c0_94, %105 : index
            %c1_99 = arith.constant 1 : index
            %c0_100 = arith.constant 0 : index
            %107 = arith.maxui %13, %c1_99 : index
            %c0_101 = arith.constant 0 : index
            %108 = arith.subi %c0, %32 : index
            %109 = arith.cmpi slt, %108, %c0 : index
            %110 = arith.select %109, %c0, %108 : index
            %111 = arith.cmpi slt, %34, %c0 : index
            %112 = arith.select %111, %c0, %34 : index
            %113 = arith.minui %112, %36 : index
            scf.for %arg10 = %110 to %113 step %c1 {
              %114 = arith.addi %32, %arg10 : index
              scf.for %arg11 = %c0 to %c256 step %c1 {
                %c1_102 = arith.constant 1 : index
                %115 = arith.maxui %95, %c1_102 : index
                %c0_103 = arith.constant 0 : index
                %c1_104 = arith.constant 1 : index
                %c-1 = arith.constant -1 : index
                %116 = arith.addi %32, %110 : index
                %117 = arith.divui %116, %115 : index
                %118 = arith.remui %116, %115 : index
                %119 = arith.subi %arg10, %110 : index
                %120 = arith.addi %118, %119 : index
                %121 = arith.subi %117, %100 : index
                %122 = arith.cmpi slt, %120, %c0_103 : index
                %123 = arith.cmpi sge, %120, %115 : index
                %124 = arith.select %122, %c-1, %c0_103 : index
                %125 = arith.select %123, %c1_104, %124 : index
                %126 = arith.addi %121, %125 : index
                %127 = arith.subi %120, %115 : index
                %128 = arith.addi %120, %115 : index
                %129 = arith.select %122, %128, %120 : index
                %130 = arith.select %123, %127, %129 : index
                %131 = arts.db_ref %arg9[%c0_86] : memref<?xmemref<?x?xf64>> -> memref<?x?xf64>
                memref.store %cst_0, %131[%130, %arg11] : memref<?x?xf64>
              } {arts.id = 310 : i64, arts.loop = #arts.loop_metadata<potentiallyParallel = false, hasReductions = false, tripCount = 256 : i64, nestingLevel = 1 : i64, hasInterIterationDeps = false, memrefsWithLoopCarriedDeps = 0 : i64, parallelClassification = 0 : i64, locationKey = "3mm.c:137:3">, arts.metadata_provenance = "exact"}
              scf.for %arg11 = %c0 to %c256 step %c1 {
                scf.for %arg12 = %c0 to %c256 step %c1 {
                  %c1_102 = arith.constant 1 : index
                  %115 = arith.maxui %101, %c1_102 : index
                  %c0_103 = arith.constant 0 : index
                  %c1_104 = arith.constant 1 : index
                  %c-1 = arith.constant -1 : index
                  %116 = arith.addi %32, %110 : index
                  %117 = arith.divui %116, %115 : index
                  %118 = arith.remui %116, %115 : index
                  %119 = arith.subi %arg10, %110 : index
                  %120 = arith.addi %118, %119 : index
                  %121 = arith.subi %117, %106 : index
                  %122 = arith.cmpi slt, %120, %c0_103 : index
                  %123 = arith.cmpi sge, %120, %115 : index
                  %124 = arith.select %122, %c-1, %c0_103 : index
                  %125 = arith.select %123, %c1_104, %124 : index
                  %126 = arith.addi %121, %125 : index
                  %127 = arith.subi %120, %115 : index
                  %128 = arith.addi %120, %115 : index
                  %129 = arith.select %122, %128, %120 : index
                  %130 = arith.select %123, %127, %129 : index
                  %131 = arts.db_ref %arg3[%c0_93] : memref<?xmemref<?x?xf64>> -> memref<?x?xf64>
                  %132 = memref.load %131[%130, %arg11] : memref<?x?xf64>
                  %c1_105 = arith.constant 1 : index
                  %133 = arith.maxui %107, %c1_105 : index
                  %134 = arith.divui %arg11, %133 : index
                  %135 = arith.subi %134, %c0_101 : index
                  %136 = arith.remui %arg11, %133 : index
                  %137 = arts.db_ref %arg6[%135] : memref<?xmemref<?x?xf64>> -> memref<?x?xf64>
                  %138 = memref.load %137[%136, %arg12] : memref<?x?xf64>
                  %139 = arith.mulf %132, %138 : f64
                  %c1_106 = arith.constant 1 : index
                  %140 = arith.maxui %95, %c1_106 : index
                  %c0_107 = arith.constant 0 : index
                  %c1_108 = arith.constant 1 : index
                  %c-1_109 = arith.constant -1 : index
                  %141 = arith.addi %32, %110 : index
                  %142 = arith.divui %141, %140 : index
                  %143 = arith.remui %141, %140 : index
                  %144 = arith.subi %arg10, %110 : index
                  %145 = arith.addi %143, %144 : index
                  %146 = arith.subi %142, %100 : index
                  %147 = arith.cmpi slt, %145, %c0_107 : index
                  %148 = arith.cmpi sge, %145, %140 : index
                  %149 = arith.select %147, %c-1_109, %c0_107 : index
                  %150 = arith.select %148, %c1_108, %149 : index
                  %151 = arith.addi %146, %150 : index
                  %152 = arith.subi %145, %140 : index
                  %153 = arith.addi %145, %140 : index
                  %154 = arith.select %147, %153, %145 : index
                  %155 = arith.select %148, %152, %154 : index
                  %156 = arts.db_ref %arg9[%c0_86] : memref<?xmemref<?x?xf64>> -> memref<?x?xf64>
                  %157 = memref.load %156[%155, %arg12] : memref<?x?xf64>
                  %158 = arith.addf %157, %139 : f64
                  %c1_110 = arith.constant 1 : index
                  %159 = arith.maxui %95, %c1_110 : index
                  %c0_111 = arith.constant 0 : index
                  %c1_112 = arith.constant 1 : index
                  %c-1_113 = arith.constant -1 : index
                  %160 = arith.addi %32, %110 : index
                  %161 = arith.divui %160, %159 : index
                  %162 = arith.remui %160, %159 : index
                  %163 = arith.subi %arg10, %110 : index
                  %164 = arith.addi %162, %163 : index
                  %165 = arith.subi %161, %100 : index
                  %166 = arith.cmpi slt, %164, %c0_111 : index
                  %167 = arith.cmpi sge, %164, %159 : index
                  %168 = arith.select %166, %c-1_113, %c0_111 : index
                  %169 = arith.select %167, %c1_112, %168 : index
                  %170 = arith.addi %165, %169 : index
                  %171 = arith.subi %164, %159 : index
                  %172 = arith.addi %164, %159 : index
                  %173 = arith.select %166, %172, %164 : index
                  %174 = arith.select %167, %171, %173 : index
                  %175 = arts.db_ref %arg9[%c0_86] : memref<?xmemref<?x?xf64>> -> memref<?x?xf64>
                  memref.store %158, %175[%174, %arg12] : memref<?x?xf64>
                } {arts.id = 311 : i64, arts.loop = #arts.loop_metadata<potentiallyParallel = false, hasReductions = false, tripCount = 256 : i64, nestingLevel = 2 : i64, hasInterIterationDeps = false, memrefsWithLoopCarriedDeps = 0 : i64, parallelClassification = 0 : i64, locationKey = "3mm.c:137:3">, arts.metadata_origin_id = 311 : i64, arts.metadata_provenance = "transferred"}
              } {arts.id = 262 : i64, arts.loop = #arts.loop_metadata<potentiallyParallel = false, hasReductions = false, tripCount = 256 : i64, nestingLevel = 1 : i64, hasInterIterationDeps = false, memrefsWithLoopCarriedDeps = 0 : i64, parallelClassification = 0 : i64, locationKey = "3mm.c:137:3">, arts.metadata_origin_id = 262 : i64, arts.metadata_provenance = "transferred"}
            } {arts.id = 321 : i64, arts.loop = #arts.loop_metadata<potentiallyParallel = true, hasReductions = false, tripCount = 0 : i64, nestingLevel = 1 : i64, hasInterIterationDeps = false, memrefsWithLoopCarriedDeps = 0 : i64, parallelClassification = 2 : i64, locationKey = "3mm.c:137:3">, arts.metadata_provenance = "exact"}
            arts.db_release(%arg3) : memref<?xmemref<?x?xf64>>
            arts.db_release(%arg4) : memref<?xmemref<?x?xf64>>
            arts.db_release(%arg5) : memref<?xmemref<?x?xf64>>
            arts.db_release(%arg6) : memref<?xmemref<?x?xf64>>
            arts.db_release(%arg7) : memref<?xmemref<?x?xf64>>
            arts.db_release(%arg8) : memref<?xmemref<?x?xf64>>
            arts.db_release(%arg9) : memref<?xmemref<?x?xf64>>
          }
        }
      }
    } : i64
    call @carts_kernel_timer_stop(%4) : (memref<?xi8>) -> ()
    %29 = polygeist.pointer2memref %1 : !llvm.ptr to memref<?xi8>
    call @carts_phase_timer_start(%29, %4) : (memref<?xi8>, memref<?xi8>) -> ()
    %30 = scf.for %arg2 = %c0 to %c256 step %c1 iter_args(%arg3 = %cst_0) -> (f64) {
      %c1_64 = arith.constant 1 : index
      %32 = arith.maxui %20, %c1_64 : index
      %33 = arith.divui %arg2, %32 : index
      %34 = arith.subi %33, %c0_63 : index
      %35 = arith.remui %arg2, %32 : index
      %36 = arts.db_ref %ptr_62[%34] : memref<?xmemref<?x?xf64>> -> memref<?x?xf64>
      %37 = memref.load %36[%35, %arg2] : memref<?x?xf64>
      %38 = arith.addf %arg3, %37 : f64
      scf.yield %38 : f64
    }
    call @carts_bench_checksum_d(%30) : (f64) -> ()
    call @carts_phase_timer_stop(%29) : (memref<?xi8>) -> ()
    %31 = polygeist.pointer2memref %0 : !llvm.ptr to memref<?xi8>
    call @carts_phase_timer_start(%31, %4) : (memref<?xi8>, memref<?xi8>) -> ()
    call @carts_phase_timer_stop(%31) : (memref<?xi8>) -> ()
    call @carts_e2e_timer_stop() : () -> ()
    arts.db_free(%guid_15) : memref<?xi64>
    arts.db_free(%ptr_16) : memref<?xmemref<?x?xf64>>
    arts.db_free(%guid_47) : memref<?xi64>
    arts.db_free(%ptr_48) : memref<?xmemref<?x?xf64>>
    arts.db_free(%guid) : memref<?xi64>
    arts.db_free(%ptr) : memref<?xmemref<?x?xf64>>
    arts.db_free(%guid_41) : memref<?xi64>
    arts.db_free(%ptr_42) : memref<?xmemref<?x?xf64>>
    arts.db_free(%guid_61) : memref<?xi64>
    arts.db_free(%ptr_62) : memref<?xmemref<?x?xf64>>
    arts.db_free(%guid_35) : memref<?xi64>
    arts.db_free(%ptr_36) : memref<?xmemref<?x?xf64>>
    arts.db_free(%guid_21) : memref<?xi64>
    arts.db_free(%ptr_22) : memref<?xmemref<?x?xf64>>
    return %c0_i32 : i32
  }
  func.func private @carts_benchmarks_start() attributes {llvm.linkage = #llvm.linkage<external>}
  func.func private @carts_e2e_timer_start(memref<?xi8>) attributes {llvm.linkage = #llvm.linkage<external>}
  func.func private @carts_phase_timer_start(memref<?xi8>, memref<?xi8>) attributes {llvm.linkage = #llvm.linkage<external>}
  func.func private @carts_phase_timer_stop(memref<?xi8>) attributes {llvm.linkage = #llvm.linkage<external>}
  func.func private @carts_kernel_timer_start(memref<?xi8>) attributes {llvm.linkage = #llvm.linkage<external>}
  func.func private @carts_kernel_timer_stop(memref<?xi8>) attributes {llvm.linkage = #llvm.linkage<external>}
  func.func private @carts_bench_checksum_d(f64) attributes {llvm.linkage = #llvm.linkage<external>}
  func.func private @carts_e2e_timer_stop() attributes {llvm.linkage = #llvm.linkage<external>}
}
