module attributes {arts.runtime_config_data = "[ARTS]\0A# Contract config for high-thread single-node lowering checks.\0Aworker_threads=64\0A\0A# Network configuration\0Asender_threads=0\0Areceiver_threads=0\0Aport_count=1\0A\0A# Launcher configuration\0Alauncher=local\0Amaster_node=localhost\0Anode_count=1\0Anodes=localhost\0Adefault_ports=34739\0A\0A# Scheduling\0Aworker_init_deque_size=2048\0Aroute_table_size=16\0A\0A# Debug\0Acore_dump=1\0Acounter_folder=./counters\0A", arts.runtime_static_workers = false, arts.runtime_total_nodes = 1 : i64, arts.runtime_total_workers = 64 : i64, dlti.dl_spec = #dlti.dl_spec<!llvm.ptr<270> = dense<32> : vector<4xi64>, !llvm.ptr<271> = dense<32> : vector<4xi64>, !llvm.ptr<272> = dense<64> : vector<4xi64>, i64 = dense<64> : vector<2xi64>, i128 = dense<128> : vector<2xi64>, f80 = dense<128> : vector<2xi64>, !llvm.ptr = dense<64> : vector<4xi64>, i1 = dense<8> : vector<2xi64>, i8 = dense<8> : vector<2xi64>, i16 = dense<16> : vector<2xi64>, i32 = dense<32> : vector<2xi64>, f16 = dense<16> : vector<2xi64>, f64 = dense<64> : vector<2xi64>, f128 = dense<128> : vector<2xi64>, "dlti.endianness" = "little", "dlti.mangling_mode" = "e", "dlti.legal_int_widths" = array<i32: 8, 16, 32, 64>, "dlti.stack_alignment" = 128 : i64>, llvm.data_layout = "e-m:e-p270:32:32-p271:32:32-p272:64:64-i64:64-i128:128-f80:128-n8:16:32:64-S128", llvm.target_triple = "x86_64-unknown-linux-gnu", "polygeist.target-cpu" = "x86-64", "polygeist.target-features" = "+cmov,+cx8,+fxsr,+mmx,+sse,+sse2,+x87", "polygeist.tune-cpu" = "generic"} {
  llvm.mlir.global internal constant @str3("cleanup\00") {addr_space = 0 : i32}
  llvm.mlir.global internal constant @str2("verification\00") {addr_space = 0 : i32}
  llvm.mlir.global internal constant @str1("startup\00") {addr_space = 0 : i32}
  llvm.mlir.global internal constant @str0("3mm\00") {addr_space = 0 : i32}
  func.func @main(%arg0: i32, %arg1: memref<?xmemref<?xi8>>) -> i32 attributes {llvm.linkage = #llvm.linkage<external>} {
    %c3 = arith.constant 3 : index
    %c64 = arith.constant 64 : index
    %c4 = arith.constant 4 : index
    %c-1_i32 = arith.constant -1 : i32
    %cst = arith.constant 2.560000e+02 : f64
    %c1_i32 = arith.constant 1 : i32
    %c3_i32 = arith.constant 3 : i32
    %c2_i32 = arith.constant 2 : i32
    %c1 = arith.constant 1 : index
    %c256 = arith.constant 256 : index
    %c0 = arith.constant 0 : index
    %0 = llvm.mlir.addressof @str3 : !llvm.ptr
    %cst_0 = arith.constant 0.000000e+00 : f64
    %1 = llvm.mlir.addressof @str2 : !llvm.ptr
    %2 = llvm.mlir.addressof @str1 : !llvm.ptr
    %c0_i32 = arith.constant 0 : i32
    %3 = llvm.mlir.addressof @str0 : !llvm.ptr
    call @carts_benchmarks_start() : () -> ()
    %4 = polygeist.pointer2memref %3 : !llvm.ptr to memref<?xi8>
    call @carts_e2e_timer_start(%4) : (memref<?xi8>) -> ()
    %5 = polygeist.pointer2memref %2 : !llvm.ptr to memref<?xi8>
    call @carts_phase_timer_start(%5, %4) : (memref<?xi8>, memref<?xi8>) -> ()
    %c1_1 = arith.constant 1 : index
    %c1_2 = arith.constant 1 : index
    %c1_3 = arith.constant 1 : index
    %c15 = arith.constant 15 : index
    %c1_4 = arith.constant 1 : index
    %6 = arith.maxui %c15, %c1_4 : index
    %c1_i64 = arith.constant 1 : i64
    %7 = arith.index_cast %c256 : index to i64
    %8 = arith.index_cast %6 : index to i64
    %9 = arith.addi %7, %8 : i64
    %10 = arith.subi %9, %c1_i64 : i64
    %11 = arith.divui %10, %8 : i64
    %12 = arith.index_cast %11 : i64 to index
    %c0_5 = arith.constant 0 : index
    %c1_6 = arith.constant 1 : index
    %c0_7 = arith.constant 0 : index
    %c1_8 = arith.constant 1 : index
    %c0_9 = arith.constant 0 : index
    %c1_10 = arith.constant 1 : index
    %guid, %ptr = arts.db_alloc[<inout>, <heap>, <write>, <block>, <uniform>] route(%c-1_i32 : i32) sizes[%12] elementType(f64) elementSizes[%6, %c256] {arts.id = 314 : i64, arts.local_only, arts.read_only_after_init} : (memref<?xi64>, memref<?xmemref<?x?xf64>>)
    arts.lowering_contract(%ptr : memref<?xmemref<?x?xf64>>) block_shape[%6] {owner_dims = array<i64: 0>, post_db_refined}
    %c1_11 = arith.constant 1 : index
    %c1_12 = arith.constant 1 : index
    %c1_13 = arith.constant 1 : index
    %c15_14 = arith.constant 15 : index
    %c1_15 = arith.constant 1 : index
    %13 = arith.maxui %c15_14, %c1_15 : index
    %c1_i64_16 = arith.constant 1 : i64
    %14 = arith.index_cast %c256 : index to i64
    %15 = arith.index_cast %13 : index to i64
    %16 = arith.addi %14, %15 : i64
    %17 = arith.subi %16, %c1_i64_16 : i64
    %18 = arith.divui %17, %15 : i64
    %19 = arith.index_cast %18 : i64 to index
    %c0_17 = arith.constant 0 : index
    %c1_18 = arith.constant 1 : index
    %c0_19 = arith.constant 0 : index
    %c1_20 = arith.constant 1 : index
    %c0_21 = arith.constant 0 : index
    %c1_22 = arith.constant 1 : index
    %guid_23, %ptr_24 = arts.db_alloc[<in>, <heap>, <read>, <block>, <uniform>] route(%c-1_i32 : i32) sizes[%19] elementType(f64) elementSizes[%13, %c256] {arts.id = 315 : i64, arts.local_only} : (memref<?xi64>, memref<?xmemref<?x?xf64>>)
    arts.lowering_contract(%ptr_24 : memref<?xmemref<?x?xf64>>) block_shape[%13] {owner_dims = array<i64: 0>, post_db_refined}
    %c0_25 = arith.constant 0 : index
    %c1_26 = arith.constant 1 : index
    %c1_27 = arith.constant 1 : index
    %c1_28 = arith.constant 1 : index
    %c0_29 = arith.constant 0 : index
    %guid_30, %ptr_31 = arts.db_alloc[<in>, <heap>, <read>, <coarse>, <uniform>] route(%c-1_i32 : i32) sizes[%c1] elementType(f64) elementSizes[%c256, %c256] {arts.id = 316 : i64, arts.local_only} : (memref<?xi64>, memref<?xmemref<?x?xf64>>)
    %c1_32 = arith.constant 1 : index
    %c1_33 = arith.constant 1 : index
    %c1_34 = arith.constant 1 : index
    %c15_35 = arith.constant 15 : index
    %c1_36 = arith.constant 1 : index
    %20 = arith.maxui %c15_35, %c1_36 : index
    %c1_i64_37 = arith.constant 1 : i64
    %21 = arith.index_cast %c256 : index to i64
    %22 = arith.index_cast %20 : index to i64
    %23 = arith.addi %21, %22 : i64
    %24 = arith.subi %23, %c1_i64_37 : i64
    %25 = arith.divui %24, %22 : i64
    %26 = arith.index_cast %25 : i64 to index
    %c0_38 = arith.constant 0 : index
    %c1_39 = arith.constant 1 : index
    %c0_40 = arith.constant 0 : index
    %c1_41 = arith.constant 1 : index
    %c0_42 = arith.constant 0 : index
    %c1_43 = arith.constant 1 : index
    %guid_44, %ptr_45 = arts.db_alloc[<inout>, <heap>, <write>, <block>, <uniform>] route(%c-1_i32 : i32) sizes[%26] elementType(f64) elementSizes[%20, %c256] {arts.id = 317 : i64, arts.local_only, arts.read_only_after_init} : (memref<?xi64>, memref<?xmemref<?x?xf64>>)
    arts.lowering_contract(%ptr_45 : memref<?xmemref<?x?xf64>>) block_shape[%20] {owner_dims = array<i64: 0>, post_db_refined}
    %c1_46 = arith.constant 1 : index
    %c1_47 = arith.constant 1 : index
    %c1_48 = arith.constant 1 : index
    %c15_49 = arith.constant 15 : index
    %c1_50 = arith.constant 1 : index
    %27 = arith.maxui %c15_49, %c1_50 : index
    %c1_i64_51 = arith.constant 1 : i64
    %28 = arith.index_cast %c256 : index to i64
    %29 = arith.index_cast %27 : index to i64
    %30 = arith.addi %28, %29 : i64
    %31 = arith.subi %30, %c1_i64_51 : i64
    %32 = arith.divui %31, %29 : i64
    %33 = arith.index_cast %32 : i64 to index
    %c0_52 = arith.constant 0 : index
    %c1_53 = arith.constant 1 : index
    %c0_54 = arith.constant 0 : index
    %c1_55 = arith.constant 1 : index
    %c0_56 = arith.constant 0 : index
    %c1_57 = arith.constant 1 : index
    %guid_58, %ptr_59 = arts.db_alloc[<in>, <heap>, <read>, <block>, <uniform>] route(%c-1_i32 : i32) sizes[%33] elementType(f64) elementSizes[%27, %c256] {arts.id = 318 : i64, arts.local_only} : (memref<?xi64>, memref<?xmemref<?x?xf64>>)
    arts.lowering_contract(%ptr_59 : memref<?xmemref<?x?xf64>>) block_shape[%27] {owner_dims = array<i64: 0>, post_db_refined}
    %c0_60 = arith.constant 0 : index
    %c1_61 = arith.constant 1 : index
    %c1_62 = arith.constant 1 : index
    %c1_63 = arith.constant 1 : index
    %c0_64 = arith.constant 0 : index
    %guid_65, %ptr_66 = arts.db_alloc[<in>, <heap>, <read>, <coarse>, <uniform>] route(%c-1_i32 : i32) sizes[%c1] elementType(f64) elementSizes[%c256, %c256] {arts.id = 319 : i64, arts.local_only} : (memref<?xi64>, memref<?xmemref<?x?xf64>>)
    %c1_67 = arith.constant 1 : index
    %c1_68 = arith.constant 1 : index
    %c1_69 = arith.constant 1 : index
    %c15_70 = arith.constant 15 : index
    %c1_71 = arith.constant 1 : index
    %34 = arith.maxui %c15_70, %c1_71 : index
    %c1_i64_72 = arith.constant 1 : i64
    %35 = arith.index_cast %c256 : index to i64
    %36 = arith.index_cast %34 : index to i64
    %37 = arith.addi %35, %36 : i64
    %38 = arith.subi %37, %c1_i64_72 : i64
    %39 = arith.divui %38, %36 : i64
    %40 = arith.index_cast %39 : i64 to index
    %c0_73 = arith.constant 0 : index
    %c1_74 = arith.constant 1 : index
    %c0_75 = arith.constant 0 : index
    %c1_76 = arith.constant 1 : index
    %c0_77 = arith.constant 0 : index
    %c1_78 = arith.constant 1 : index
    %guid_79, %ptr_80 = arts.db_alloc[<inout>, <heap>, <write>, <block>, <uniform>] route(%c-1_i32 : i32) sizes[%40] elementType(f64) elementSizes[%34, %c256] {arts.id = 320 : i64, arts.local_only, arts.read_only_after_init} : (memref<?xi64>, memref<?xmemref<?x?xf64>>)
    arts.lowering_contract(%ptr_80 : memref<?xmemref<?x?xf64>>) block_shape[%34] {owner_dims = array<i64: 0>, post_db_refined}
    %c0_81 = arith.constant 0 : index
    scf.for %arg2 = %c0 to %c256 step %c1 {
      %46 = arith.index_cast %arg2 : index to i32
      %47 = arith.sitofp %46 : i32 to f64
      scf.for %arg3 = %c0 to %c256 step %c1 {
        %48 = arith.index_cast %arg3 : index to i32
        %49 = arith.sitofp %48 : i32 to f64
        %50 = arith.mulf %47, %49 : f64
        %51 = arith.divf %50, %cst : f64
        %c1_82 = arith.constant 1 : index
        %52 = arith.maxui %13, %c1_82 : index
        %53 = arith.divui %arg2, %52 : index
        %54 = arith.subi %53, %c0_25 : index
        %55 = arith.remui %arg2, %52 : index
        %56 = arts.db_ref %ptr_24[%54] : memref<?xmemref<?x?xf64>> -> memref<?x?xf64>
        memref.store %51, %56[%55, %arg3] : memref<?x?xf64>
      }
    }
    scf.for %arg2 = %c0 to %c256 step %c1 {
      %46 = arith.index_cast %arg2 : index to i32
      %47 = arith.sitofp %46 : i32 to f64
      scf.for %arg3 = %c0 to %c256 step %c1 {
        %48 = arith.index_cast %arg3 : index to i32
        %49 = arith.addi %48, %c1_i32 : i32
        %50 = arith.sitofp %49 : i32 to f64
        %51 = arith.mulf %47, %50 : f64
        %52 = arith.divf %51, %cst : f64
        %53 = arts.db_ref %ptr_31[%c0] : memref<?xmemref<?x?xf64>> -> memref<?x?xf64>
        memref.store %52, %53[%arg2, %arg3] : memref<?x?xf64>
      }
    }
    scf.for %arg2 = %c0 to %c256 step %c1 {
      %46 = arith.index_cast %arg2 : index to i32
      %47 = arith.sitofp %46 : i32 to f64
      scf.for %arg3 = %c0 to %c256 step %c1 {
        %48 = arith.index_cast %arg3 : index to i32
        %49 = arith.addi %48, %c3_i32 : i32
        %50 = arith.sitofp %49 : i32 to f64
        %51 = arith.mulf %47, %50 : f64
        %52 = arith.divf %51, %cst : f64
        %c1_82 = arith.constant 1 : index
        %53 = arith.maxui %27, %c1_82 : index
        %54 = arith.divui %arg2, %53 : index
        %55 = arith.subi %54, %c0_60 : index
        %56 = arith.remui %arg2, %53 : index
        %57 = arts.db_ref %ptr_59[%55] : memref<?xmemref<?x?xf64>> -> memref<?x?xf64>
        memref.store %52, %57[%56, %arg3] : memref<?x?xf64>
      }
    }
    scf.for %arg2 = %c0 to %c256 step %c1 {
      %46 = arith.index_cast %arg2 : index to i32
      %47 = arith.sitofp %46 : i32 to f64
      scf.for %arg3 = %c0 to %c256 step %c1 {
        %48 = arith.index_cast %arg3 : index to i32
        %49 = arith.addi %48, %c2_i32 : i32
        %50 = arith.sitofp %49 : i32 to f64
        %51 = arith.mulf %47, %50 : f64
        %52 = arith.divf %51, %cst : f64
        %53 = arts.db_ref %ptr_66[%c0] : memref<?xmemref<?x?xf64>> -> memref<?x?xf64>
        memref.store %52, %53[%arg2, %arg3] : memref<?x?xf64>
      }
    }
    call @carts_phase_timer_stop(%5) : (memref<?xi8>) -> ()
    call @carts_kernel_timer_start(%4) : (memref<?xi8>) -> ()
    %41 = arts.epoch attributes {distribution_kind = #arts.distribution_kind<block>, distribution_pattern = #arts.distribution_pattern<matmul>, distribution_version = 1 : i32} {
      scf.for %arg2 = %c0 to %c64 step %c1 {
        %46 = arith.muli %arg2, %c4 : index
        %47 = arith.cmpi uge, %46, %c256 : index
        %48 = arith.subi %c256, %46 : index
        %49 = arith.select %47, %c0, %48 : index
        %50 = arith.minui %49, %c4 : index
        %51 = arith.cmpi ugt, %50, %c0 : index
        scf.if %51 {
          %52 = arith.divui %46, %c256 : index
          %53 = arith.addi %46, %c3 : index
          %54 = arith.divui %53, %c256 : index
          %55 = arith.cmpi ugt, %52, %c0 : index
          %56 = arith.select %55, %54, %c0 : index
          %57 = arith.subi %56, %52 : index
          %58 = arith.addi %57, %c1 : index
          %59 = arith.select %55, %c0, %52 : index
          %60 = arith.select %55, %c0, %58 : index
          %c1_82 = arith.constant 1 : index
          %c0_83 = arith.constant 0 : index
          %61 = arith.maxui %6, %c1_82 : index
          %62 = arith.muli %12, %61 : index
          %63 = arith.divui %46, %61 : index
          %64 = arith.addi %46, %c4 : index
          %65 = arith.subi %64, %c1_82 : index
          %66 = arith.divui %65, %61 : index
          %67 = arith.subi %12, %c1_82 : index
          %68 = arith.cmpi ugt, %63, %67 : index
          %69 = arith.minui %66, %67 : index
          %70 = arith.select %68, %66, %69 : index
          %71 = arith.subi %70, %63 : index
          %72 = arith.addi %71, %c1_82 : index
          %73 = arith.select %68, %c0_83, %63 : index
          %74 = arith.select %68, %c0_83, %72 : index
          %guid_84, %ptr_85 = arts.db_acquire[<inout>] (%guid : memref<?xi64>, %ptr : memref<?xmemref<?x?xf64>>) partitioning(<block>, offsets[%46], sizes[%c4]), offsets[%73], sizes[%c1_82] {arts.partition_hint = {blockSize = 15 : i64, mode = 1 : i8}, distribution_kind = #arts.distribution_kind<block>, distribution_pattern = #arts.distribution_pattern<matmul>, distribution_version = 1 : i32, stencil_block_shape = [4, 256], stencil_owner_dims = [0]} -> (memref<?xi64>, memref<?xmemref<?x?xf64>>)
          arts.lowering_contract(%ptr_85 : memref<?xmemref<?x?xf64>>) distribution_kind(<block>) distribution_pattern(<matmul>) block_shape[%c4] {distribution_version = 1 : i64, owner_dims = array<i64: 0>}
          %c1_86 = arith.constant 1 : index
          %c0_87 = arith.constant 0 : index
          %75 = arith.maxui %13, %c1_86 : index
          %76 = arith.muli %19, %75 : index
          %77 = arith.divui %46, %75 : index
          %78 = arith.addi %46, %c4 : index
          %79 = arith.subi %78, %c1_86 : index
          %80 = arith.divui %79, %75 : index
          %81 = arith.subi %19, %c1_86 : index
          %82 = arith.cmpi ugt, %77, %81 : index
          %83 = arith.minui %80, %81 : index
          %84 = arith.select %82, %80, %83 : index
          %85 = arith.subi %84, %77 : index
          %86 = arith.addi %85, %c1_86 : index
          %87 = arith.select %82, %c0_87, %77 : index
          %88 = arith.select %82, %c0_87, %86 : index
          %guid_88, %ptr_89 = arts.db_acquire[<in>] (%guid_23 : memref<?xi64>, %ptr_24 : memref<?xmemref<?x?xf64>>) partitioning(<block>, offsets[%46], sizes[%c4]), offsets[%87], sizes[%c1_86] element_offsets[%46] element_sizes[%c4] {arts.partition_hint = {blockSize = 15 : i64, mode = 1 : i8}, distribution_kind = #arts.distribution_kind<block>, distribution_pattern = #arts.distribution_pattern<matmul>, distribution_version = 1 : i32, stencil_block_shape = [4, 256], stencil_owner_dims = [0]} -> (memref<?xi64>, memref<?xmemref<?x?xf64>>)
          arts.lowering_contract(%ptr_89 : memref<?xmemref<?x?xf64>>) distribution_kind(<block>) distribution_pattern(<matmul>) block_shape[%c4] {distribution_version = 1 : i64, owner_dims = array<i64: 0>}
          %c0_90 = arith.constant 0 : index
          %guid_91, %ptr_92 = arts.db_acquire[<in>] (%guid_30 : memref<?xi64>, %ptr_31 : memref<?xmemref<?x?xf64>>) partitioning(<coarse>), offsets[%c0_29], sizes[%c1] {arts.id = 326 : i64, arts.partition_hint = {blockSize = 15 : i64, mode = 1 : i8}, distribution_kind = #arts.distribution_kind<block>, distribution_pattern = #arts.distribution_pattern<matmul>, distribution_version = 1 : i32} -> (memref<?xi64>, memref<?xmemref<?x?xf64>>)
          arts.lowering_contract(%ptr_92 : memref<?xmemref<?x?xf64>>) distribution_kind(<block>) distribution_pattern(<matmul>) {distribution_version = 1 : i64, post_db_refined}
          %c1_93 = arith.constant 1 : index
          %c0_94 = arith.constant 0 : index
          %guid_95, %ptr_96 = arts.db_acquire[<inout>] (%guid_44 : memref<?xi64>, %ptr_45 : memref<?xmemref<?x?xf64>>) partitioning(<block>, offsets[%46], sizes[%c4]), offsets[%c0_94], sizes[%26] {arts.partition_hint = {blockSize = 15 : i64, mode = 1 : i8}, distribution_kind = #arts.distribution_kind<block>, distribution_pattern = #arts.distribution_pattern<matmul>, distribution_version = 1 : i32} -> (memref<?xi64>, memref<?xmemref<?x?xf64>>)
          %c1_97 = arith.constant 1 : index
          %c0_98 = arith.constant 0 : index
          %guid_99, %ptr_100 = arts.db_acquire[<in>] (%guid_58 : memref<?xi64>, %ptr_59 : memref<?xmemref<?x?xf64>>) partitioning(<block>, offsets[%46], sizes[%c4]), offsets[%c0_98], sizes[%33] {arts.id = 332 : i64, arts.partition_hint = {blockSize = 15 : i64, mode = 1 : i8}, distribution_kind = #arts.distribution_kind<block>, distribution_pattern = #arts.distribution_pattern<matmul>, distribution_version = 1 : i32} -> (memref<?xi64>, memref<?xmemref<?x?xf64>>)
          %guid_101, %ptr_102 = arts.db_acquire[<in>] (%guid_65 : memref<?xi64>, %ptr_66 : memref<?xmemref<?x?xf64>>) partitioning(<coarse>), offsets[%c0_64], sizes[%c1] {arts.id = 329 : i64, arts.partition_hint = {blockSize = 15 : i64, mode = 1 : i8}, distribution_kind = #arts.distribution_kind<block>, distribution_pattern = #arts.distribution_pattern<matmul>, distribution_version = 1 : i32} -> (memref<?xi64>, memref<?xmemref<?x?xf64>>)
          arts.lowering_contract(%ptr_102 : memref<?xmemref<?x?xf64>>) distribution_kind(<block>) distribution_pattern(<matmul>) {distribution_version = 1 : i64, post_db_refined}
          %c1_103 = arith.constant 1 : index
          %c0_104 = arith.constant 0 : index
          %guid_105, %ptr_106 = arts.db_acquire[<inout>] (%guid_79 : memref<?xi64>, %ptr_80 : memref<?xmemref<?x?xf64>>) partitioning(<block>, offsets[%46], sizes[%c4]), offsets[%c0_104], sizes[%40] {arts.partition_hint = {blockSize = 15 : i64, mode = 1 : i8}, distribution_kind = #arts.distribution_kind<block>, distribution_pattern = #arts.distribution_pattern<matmul>, distribution_version = 1 : i32} -> (memref<?xi64>, memref<?xmemref<?x?xf64>>)
          arts.edt <task> <intranode> route(%c-1_i32) (%ptr_85, %ptr_89, %ptr_92, %ptr_96, %ptr_100, %ptr_102, %ptr_106) : memref<?xmemref<?x?xf64>>, memref<?xmemref<?x?xf64>>, memref<?xmemref<?x?xf64>>, memref<?xmemref<?x?xf64>>, memref<?xmemref<?x?xf64>>, memref<?xmemref<?x?xf64>>, memref<?xmemref<?x?xf64>> attributes {arts.id = 324 : i64, distribution_kind = #arts.distribution_kind<block>, distribution_pattern = #arts.distribution_pattern<matmul>, distribution_version = 1 : i32, stencil_block_shape = [4, 256]} {
          ^bb0(%arg3: memref<?xmemref<?x?xf64>>, %arg4: memref<?xmemref<?x?xf64>>, %arg5: memref<?xmemref<?x?xf64>>, %arg6: memref<?xmemref<?x?xf64>>, %arg7: memref<?xmemref<?x?xf64>>, %arg8: memref<?xmemref<?x?xf64>>, %arg9: memref<?xmemref<?x?xf64>>):
            %c1_107 = arith.constant 1 : index
            %c0_108 = arith.constant 0 : index
            %89 = arith.maxui %6, %c1_107 : index
            %c0_109 = arith.constant 0 : index
            %c4_110 = arith.constant 4 : index
            %90 = arith.muli %arg2, %c4_110 : index
            %c15_111 = arith.constant 15 : index
            %c1_112 = arith.constant 1 : index
            %91 = arith.maxui %c15_111, %c1_112 : index
            %c1_113 = arith.constant 1 : index
            %92 = arith.maxui %91, %c1_113 : index
            %93 = arith.divui %90, %92 : index
            %94 = arith.select %68, %c0_109, %93 : index
            %c1_114 = arith.constant 1 : index
            %c0_115 = arith.constant 0 : index
            %95 = arith.maxui %20, %c1_114 : index
            %c0_116 = arith.constant 0 : index
            %c1_117 = arith.constant 1 : index
            %c0_118 = arith.constant 0 : index
            %96 = arith.maxui %13, %c1_117 : index
            %c0_119 = arith.constant 0 : index
            %c4_120 = arith.constant 4 : index
            %97 = arith.muli %arg2, %c4_120 : index
            %c15_121 = arith.constant 15 : index
            %c1_122 = arith.constant 1 : index
            %98 = arith.maxui %c15_121, %c1_122 : index
            %c1_123 = arith.constant 1 : index
            %99 = arith.maxui %98, %c1_123 : index
            %100 = arith.divui %97, %99 : index
            %101 = arith.select %82, %c0_119, %100 : index
            %c1_124 = arith.constant 1 : index
            %c0_125 = arith.constant 0 : index
            %102 = arith.maxui %27, %c1_124 : index
            %c0_126 = arith.constant 0 : index
            %c1_127 = arith.constant 1 : index
            %c0_128 = arith.constant 0 : index
            %103 = arith.maxui %34, %c1_127 : index
            %c0_129 = arith.constant 0 : index
            %104 = arith.subi %c0, %46 : index
            %105 = arith.cmpi slt, %104, %c0 : index
            %106 = arith.select %105, %c0, %104 : index
            %107 = arith.cmpi slt, %48, %c0 : index
            %108 = arith.select %107, %c0, %48 : index
            %109 = arith.minui %108, %50 : index
            scf.for %arg10 = %106 to %109 step %c1 {
              %110 = arith.addi %46, %arg10 : index
              scf.for %arg11 = %c0 to %c256 step %c1 {
                %c1_130 = arith.constant 1 : index
                %111 = arith.maxui %89, %c1_130 : index
                %c0_131 = arith.constant 0 : index
                %c1_132 = arith.constant 1 : index
                %c-1 = arith.constant -1 : index
                %112 = arith.addi %46, %106 : index
                %113 = arith.divui %112, %111 : index
                %114 = arith.remui %112, %111 : index
                %115 = arith.subi %arg10, %106 : index
                %116 = arith.addi %114, %115 : index
                %117 = arith.subi %113, %94 : index
                %118 = arith.cmpi slt, %116, %c0_131 : index
                %119 = arith.cmpi sge, %116, %111 : index
                %120 = arith.select %118, %c-1, %c0_131 : index
                %121 = arith.select %119, %c1_132, %120 : index
                %122 = arith.addi %117, %121 : index
                %123 = arith.subi %116, %111 : index
                %124 = arith.addi %116, %111 : index
                %125 = arith.select %118, %124, %116 : index
                %126 = arith.select %119, %123, %125 : index
                %127 = arts.db_ref %arg3[%c0_108] : memref<?xmemref<?x?xf64>> -> memref<?x?xf64>
                memref.store %cst_0, %127[%126, %arg11] : memref<?x?xf64>
              } {arts.id = 307 : i64, arts.loop = #arts.loop_metadata<potentiallyParallel = false, hasReductions = false, tripCount = 256 : i64, nestingLevel = 1 : i64, hasInterIterationDeps = false, memrefsWithLoopCarriedDeps = 0 : i64, parallelClassification = 0 : i64, locationKey = "3mm.c:137:3">, arts.metadata_provenance = "exact"}
              scf.for %arg11 = %c0 to %c256 step %c1 {
                scf.for %arg12 = %c0 to %c256 step %c1 {
                  %c1_130 = arith.constant 1 : index
                  %111 = arith.maxui %96, %c1_130 : index
                  %c0_131 = arith.constant 0 : index
                  %c1_132 = arith.constant 1 : index
                  %c-1 = arith.constant -1 : index
                  %112 = arith.addi %46, %106 : index
                  %113 = arith.divui %112, %111 : index
                  %114 = arith.remui %112, %111 : index
                  %115 = arith.subi %arg10, %106 : index
                  %116 = arith.addi %114, %115 : index
                  %117 = arith.subi %113, %101 : index
                  %118 = arith.cmpi slt, %116, %c0_131 : index
                  %119 = arith.cmpi sge, %116, %111 : index
                  %120 = arith.select %118, %c-1, %c0_131 : index
                  %121 = arith.select %119, %c1_132, %120 : index
                  %122 = arith.addi %117, %121 : index
                  %123 = arith.subi %116, %111 : index
                  %124 = arith.addi %116, %111 : index
                  %125 = arith.select %118, %124, %116 : index
                  %126 = arith.select %119, %123, %125 : index
                  %127 = arts.db_ref %arg4[%c0_118] : memref<?xmemref<?x?xf64>> -> memref<?x?xf64>
                  %128 = memref.load %127[%126, %arg11] : memref<?x?xf64>
                  %129 = arts.db_ref %arg5[%c0] : memref<?xmemref<?x?xf64>> -> memref<?x?xf64>
                  %130 = memref.load %129[%arg11, %arg12] : memref<?x?xf64>
                  %131 = arith.mulf %128, %130 : f64
                  %c1_133 = arith.constant 1 : index
                  %132 = arith.maxui %89, %c1_133 : index
                  %c0_134 = arith.constant 0 : index
                  %c1_135 = arith.constant 1 : index
                  %c-1_136 = arith.constant -1 : index
                  %133 = arith.addi %46, %106 : index
                  %134 = arith.divui %133, %132 : index
                  %135 = arith.remui %133, %132 : index
                  %136 = arith.subi %arg10, %106 : index
                  %137 = arith.addi %135, %136 : index
                  %138 = arith.subi %134, %94 : index
                  %139 = arith.cmpi slt, %137, %c0_134 : index
                  %140 = arith.cmpi sge, %137, %132 : index
                  %141 = arith.select %139, %c-1_136, %c0_134 : index
                  %142 = arith.select %140, %c1_135, %141 : index
                  %143 = arith.addi %138, %142 : index
                  %144 = arith.subi %137, %132 : index
                  %145 = arith.addi %137, %132 : index
                  %146 = arith.select %139, %145, %137 : index
                  %147 = arith.select %140, %144, %146 : index
                  %148 = arts.db_ref %arg3[%c0_108] : memref<?xmemref<?x?xf64>> -> memref<?x?xf64>
                  %149 = memref.load %148[%147, %arg12] : memref<?x?xf64>
                  %150 = arith.addf %149, %131 : f64
                  %c1_137 = arith.constant 1 : index
                  %151 = arith.maxui %89, %c1_137 : index
                  %c0_138 = arith.constant 0 : index
                  %c1_139 = arith.constant 1 : index
                  %c-1_140 = arith.constant -1 : index
                  %152 = arith.addi %46, %106 : index
                  %153 = arith.divui %152, %151 : index
                  %154 = arith.remui %152, %151 : index
                  %155 = arith.subi %arg10, %106 : index
                  %156 = arith.addi %154, %155 : index
                  %157 = arith.subi %153, %94 : index
                  %158 = arith.cmpi slt, %156, %c0_138 : index
                  %159 = arith.cmpi sge, %156, %151 : index
                  %160 = arith.select %158, %c-1_140, %c0_138 : index
                  %161 = arith.select %159, %c1_139, %160 : index
                  %162 = arith.addi %157, %161 : index
                  %163 = arith.subi %156, %151 : index
                  %164 = arith.addi %156, %151 : index
                  %165 = arith.select %158, %164, %156 : index
                  %166 = arith.select %159, %163, %165 : index
                  %167 = arts.db_ref %arg3[%c0_108] : memref<?xmemref<?x?xf64>> -> memref<?x?xf64>
                  memref.store %150, %167[%166, %arg12] : memref<?x?xf64>
                } {arts.id = 309 : i64, arts.loop = #arts.loop_metadata<potentiallyParallel = false, hasReductions = false, tripCount = 256 : i64, nestingLevel = 2 : i64, hasInterIterationDeps = false, memrefsWithLoopCarriedDeps = 0 : i64, parallelClassification = 0 : i64, locationKey = "3mm.c:137:3">, arts.metadata_origin_id = 309 : i64, arts.metadata_provenance = "transferred"}
              } {arts.id = 308 : i64, arts.loop = #arts.loop_metadata<potentiallyParallel = false, hasReductions = false, tripCount = 256 : i64, nestingLevel = 1 : i64, hasInterIterationDeps = false, memrefsWithLoopCarriedDeps = 0 : i64, parallelClassification = 0 : i64, locationKey = "3mm.c:137:3">, arts.metadata_origin_id = 308 : i64, arts.metadata_provenance = "transferred"}
            } {arts.id = 321 : i64, arts.loop = #arts.loop_metadata<potentiallyParallel = true, hasReductions = false, tripCount = 0 : i64, nestingLevel = 1 : i64, hasInterIterationDeps = false, memrefsWithLoopCarriedDeps = 0 : i64, parallelClassification = 2 : i64, locationKey = "3mm.c:137:3">, arts.metadata_provenance = "exact"}
            arts.db_release(%arg3) : memref<?xmemref<?x?xf64>>
            arts.db_release(%arg4) : memref<?xmemref<?x?xf64>>
            arts.db_release(%arg5) : memref<?xmemref<?x?xf64>>
            arts.db_release(%arg6) : memref<?xmemref<?x?xf64>>
            arts.db_release(%arg7) : memref<?xmemref<?x?xf64>>
            arts.db_release(%arg8) : memref<?xmemref<?x?xf64>>
            arts.db_release(%arg9) : memref<?xmemref<?x?xf64>>
          }
        }
      }
      scf.for %arg2 = %c0 to %c64 step %c1 {
        %46 = arith.muli %arg2, %c4 : index
        %47 = arith.cmpi uge, %46, %c256 : index
        %48 = arith.subi %c256, %46 : index
        %49 = arith.select %47, %c0, %48 : index
        %50 = arith.minui %49, %c4 : index
        %51 = arith.cmpi ugt, %50, %c0 : index
        scf.if %51 {
          %52 = arith.divui %46, %c256 : index
          %53 = arith.addi %46, %c3 : index
          %54 = arith.divui %53, %c256 : index
          %55 = arith.cmpi ugt, %52, %c0 : index
          %56 = arith.select %55, %54, %c0 : index
          %57 = arith.subi %56, %52 : index
          %58 = arith.addi %57, %c1 : index
          %59 = arith.select %55, %c0, %52 : index
          %60 = arith.select %55, %c0, %58 : index
          %c1_82 = arith.constant 1 : index
          %c0_83 = arith.constant 0 : index
          %guid_84, %ptr_85 = arts.db_acquire[<inout>] (%guid : memref<?xi64>, %ptr : memref<?xmemref<?x?xf64>>) partitioning(<block>, offsets[%46], sizes[%c4]), offsets[%c0_83], sizes[%12] {arts.partition_hint = {blockSize = 15 : i64, mode = 1 : i8}, distribution_kind = #arts.distribution_kind<block>, distribution_pattern = #arts.distribution_pattern<matmul>, distribution_version = 1 : i32} -> (memref<?xi64>, memref<?xmemref<?x?xf64>>)
          %c1_86 = arith.constant 1 : index
          %c0_87 = arith.constant 0 : index
          %guid_88, %ptr_89 = arts.db_acquire[<in>] (%guid_23 : memref<?xi64>, %ptr_24 : memref<?xmemref<?x?xf64>>) partitioning(<block>, offsets[%46], sizes[%c4]), offsets[%c0_87], sizes[%19] {arts.id = 334 : i64, arts.partition_hint = {blockSize = 15 : i64, mode = 1 : i8}, distribution_kind = #arts.distribution_kind<block>, distribution_pattern = #arts.distribution_pattern<matmul>, distribution_version = 1 : i32} -> (memref<?xi64>, memref<?xmemref<?x?xf64>>)
          %guid_90, %ptr_91 = arts.db_acquire[<in>] (%guid_30 : memref<?xi64>, %ptr_31 : memref<?xmemref<?x?xf64>>) partitioning(<coarse>), offsets[%c0_29], sizes[%c1] {arts.id = 327 : i64, arts.partition_hint = {blockSize = 15 : i64, mode = 1 : i8}, distribution_kind = #arts.distribution_kind<block>, distribution_pattern = #arts.distribution_pattern<matmul>, distribution_version = 1 : i32} -> (memref<?xi64>, memref<?xmemref<?x?xf64>>)
          arts.lowering_contract(%ptr_91 : memref<?xmemref<?x?xf64>>) distribution_kind(<block>) distribution_pattern(<matmul>) {distribution_version = 1 : i64, post_db_refined}
          %c1_92 = arith.constant 1 : index
          %c0_93 = arith.constant 0 : index
          %61 = arith.maxui %20, %c1_92 : index
          %62 = arith.muli %26, %61 : index
          %63 = arith.divui %46, %61 : index
          %64 = arith.addi %46, %c4 : index
          %65 = arith.subi %64, %c1_92 : index
          %66 = arith.divui %65, %61 : index
          %67 = arith.subi %26, %c1_92 : index
          %68 = arith.cmpi ugt, %63, %67 : index
          %69 = arith.minui %66, %67 : index
          %70 = arith.select %68, %66, %69 : index
          %71 = arith.subi %70, %63 : index
          %72 = arith.addi %71, %c1_92 : index
          %73 = arith.select %68, %c0_93, %63 : index
          %74 = arith.select %68, %c0_93, %72 : index
          %guid_94, %ptr_95 = arts.db_acquire[<inout>] (%guid_44 : memref<?xi64>, %ptr_45 : memref<?xmemref<?x?xf64>>) partitioning(<block>, offsets[%46], sizes[%c4]), offsets[%73], sizes[%c1_92] {arts.partition_hint = {blockSize = 15 : i64, mode = 1 : i8}, distribution_kind = #arts.distribution_kind<block>, distribution_pattern = #arts.distribution_pattern<matmul>, distribution_version = 1 : i32, stencil_block_shape = [4, 256], stencil_owner_dims = [0]} -> (memref<?xi64>, memref<?xmemref<?x?xf64>>)
          arts.lowering_contract(%ptr_95 : memref<?xmemref<?x?xf64>>) distribution_kind(<block>) distribution_pattern(<matmul>) block_shape[%c4] {distribution_version = 1 : i64, owner_dims = array<i64: 0>}
          %c1_96 = arith.constant 1 : index
          %c0_97 = arith.constant 0 : index
          %75 = arith.maxui %27, %c1_96 : index
          %76 = arith.muli %33, %75 : index
          %77 = arith.divui %46, %75 : index
          %78 = arith.addi %46, %c4 : index
          %79 = arith.subi %78, %c1_96 : index
          %80 = arith.divui %79, %75 : index
          %81 = arith.subi %33, %c1_96 : index
          %82 = arith.cmpi ugt, %77, %81 : index
          %83 = arith.minui %80, %81 : index
          %84 = arith.select %82, %80, %83 : index
          %85 = arith.subi %84, %77 : index
          %86 = arith.addi %85, %c1_96 : index
          %87 = arith.select %82, %c0_97, %77 : index
          %88 = arith.select %82, %c0_97, %86 : index
          %guid_98, %ptr_99 = arts.db_acquire[<in>] (%guid_58 : memref<?xi64>, %ptr_59 : memref<?xmemref<?x?xf64>>) partitioning(<block>, offsets[%46], sizes[%c4]), offsets[%87], sizes[%c1_96] element_offsets[%46] element_sizes[%c4] {arts.partition_hint = {blockSize = 15 : i64, mode = 1 : i8}, distribution_kind = #arts.distribution_kind<block>, distribution_pattern = #arts.distribution_pattern<matmul>, distribution_version = 1 : i32, stencil_block_shape = [4, 256], stencil_owner_dims = [0]} -> (memref<?xi64>, memref<?xmemref<?x?xf64>>)
          arts.lowering_contract(%ptr_99 : memref<?xmemref<?x?xf64>>) distribution_kind(<block>) distribution_pattern(<matmul>) block_shape[%c4] {distribution_version = 1 : i64, owner_dims = array<i64: 0>}
          %c0_100 = arith.constant 0 : index
          %guid_101, %ptr_102 = arts.db_acquire[<in>] (%guid_65 : memref<?xi64>, %ptr_66 : memref<?xmemref<?x?xf64>>) partitioning(<coarse>), offsets[%c0_64], sizes[%c1] {arts.id = 330 : i64, arts.partition_hint = {blockSize = 15 : i64, mode = 1 : i8}, distribution_kind = #arts.distribution_kind<block>, distribution_pattern = #arts.distribution_pattern<matmul>, distribution_version = 1 : i32} -> (memref<?xi64>, memref<?xmemref<?x?xf64>>)
          arts.lowering_contract(%ptr_102 : memref<?xmemref<?x?xf64>>) distribution_kind(<block>) distribution_pattern(<matmul>) {distribution_version = 1 : i64, post_db_refined}
          %c1_103 = arith.constant 1 : index
          %c0_104 = arith.constant 0 : index
          %guid_105, %ptr_106 = arts.db_acquire[<inout>] (%guid_79 : memref<?xi64>, %ptr_80 : memref<?xmemref<?x?xf64>>) partitioning(<block>, offsets[%46], sizes[%c4]), offsets[%c0_104], sizes[%40] {arts.partition_hint = {blockSize = 15 : i64, mode = 1 : i8}, distribution_kind = #arts.distribution_kind<block>, distribution_pattern = #arts.distribution_pattern<matmul>, distribution_version = 1 : i32} -> (memref<?xi64>, memref<?xmemref<?x?xf64>>)
          arts.edt <task> <intranode> route(%c-1_i32) (%ptr_85, %ptr_89, %ptr_91, %ptr_95, %ptr_99, %ptr_102, %ptr_106) : memref<?xmemref<?x?xf64>>, memref<?xmemref<?x?xf64>>, memref<?xmemref<?x?xf64>>, memref<?xmemref<?x?xf64>>, memref<?xmemref<?x?xf64>>, memref<?xmemref<?x?xf64>>, memref<?xmemref<?x?xf64>> attributes {arts.id = 325 : i64, distribution_kind = #arts.distribution_kind<block>, distribution_pattern = #arts.distribution_pattern<matmul>, distribution_version = 1 : i32, stencil_block_shape = [4, 256]} {
          ^bb0(%arg3: memref<?xmemref<?x?xf64>>, %arg4: memref<?xmemref<?x?xf64>>, %arg5: memref<?xmemref<?x?xf64>>, %arg6: memref<?xmemref<?x?xf64>>, %arg7: memref<?xmemref<?x?xf64>>, %arg8: memref<?xmemref<?x?xf64>>, %arg9: memref<?xmemref<?x?xf64>>):
            %c1_107 = arith.constant 1 : index
            %c0_108 = arith.constant 0 : index
            %89 = arith.maxui %6, %c1_107 : index
            %c0_109 = arith.constant 0 : index
            %c1_110 = arith.constant 1 : index
            %c0_111 = arith.constant 0 : index
            %90 = arith.maxui %20, %c1_110 : index
            %c0_112 = arith.constant 0 : index
            %c4_113 = arith.constant 4 : index
            %91 = arith.muli %arg2, %c4_113 : index
            %c15_114 = arith.constant 15 : index
            %c1_115 = arith.constant 1 : index
            %92 = arith.maxui %c15_114, %c1_115 : index
            %c1_116 = arith.constant 1 : index
            %93 = arith.maxui %92, %c1_116 : index
            %94 = arith.divui %91, %93 : index
            %95 = arith.select %68, %c0_112, %94 : index
            %c1_117 = arith.constant 1 : index
            %c0_118 = arith.constant 0 : index
            %96 = arith.maxui %13, %c1_117 : index
            %c0_119 = arith.constant 0 : index
            %c1_120 = arith.constant 1 : index
            %c0_121 = arith.constant 0 : index
            %97 = arith.maxui %27, %c1_120 : index
            %c0_122 = arith.constant 0 : index
            %c4_123 = arith.constant 4 : index
            %98 = arith.muli %arg2, %c4_123 : index
            %c15_124 = arith.constant 15 : index
            %c1_125 = arith.constant 1 : index
            %99 = arith.maxui %c15_124, %c1_125 : index
            %c1_126 = arith.constant 1 : index
            %100 = arith.maxui %99, %c1_126 : index
            %101 = arith.divui %98, %100 : index
            %102 = arith.select %82, %c0_122, %101 : index
            %c1_127 = arith.constant 1 : index
            %c0_128 = arith.constant 0 : index
            %103 = arith.maxui %34, %c1_127 : index
            %c0_129 = arith.constant 0 : index
            %104 = arith.subi %c0, %46 : index
            %105 = arith.cmpi slt, %104, %c0 : index
            %106 = arith.select %105, %c0, %104 : index
            %107 = arith.cmpi slt, %48, %c0 : index
            %108 = arith.select %107, %c0, %48 : index
            %109 = arith.minui %108, %50 : index
            scf.for %arg10 = %106 to %109 step %c1 {
              %110 = arith.addi %46, %arg10 : index
              scf.for %arg11 = %c0 to %c256 step %c1 {
                %c1_130 = arith.constant 1 : index
                %111 = arith.maxui %90, %c1_130 : index
                %c0_131 = arith.constant 0 : index
                %c1_132 = arith.constant 1 : index
                %c-1 = arith.constant -1 : index
                %112 = arith.addi %46, %106 : index
                %113 = arith.divui %112, %111 : index
                %114 = arith.remui %112, %111 : index
                %115 = arith.subi %arg10, %106 : index
                %116 = arith.addi %114, %115 : index
                %117 = arith.subi %113, %95 : index
                %118 = arith.cmpi slt, %116, %c0_131 : index
                %119 = arith.cmpi sge, %116, %111 : index
                %120 = arith.select %118, %c-1, %c0_131 : index
                %121 = arith.select %119, %c1_132, %120 : index
                %122 = arith.addi %117, %121 : index
                %123 = arith.subi %116, %111 : index
                %124 = arith.addi %116, %111 : index
                %125 = arith.select %118, %124, %116 : index
                %126 = arith.select %119, %123, %125 : index
                %127 = arts.db_ref %arg6[%c0_111] : memref<?xmemref<?x?xf64>> -> memref<?x?xf64>
                memref.store %cst_0, %127[%126, %arg11] : memref<?x?xf64>
              } {arts.id = 309 : i64, arts.loop = #arts.loop_metadata<potentiallyParallel = false, hasReductions = false, tripCount = 256 : i64, nestingLevel = 1 : i64, hasInterIterationDeps = false, memrefsWithLoopCarriedDeps = 0 : i64, parallelClassification = 0 : i64, locationKey = "3mm.c:137:3">, arts.metadata_provenance = "exact"}
              scf.for %arg11 = %c0 to %c256 step %c1 {
                scf.for %arg12 = %c0 to %c256 step %c1 {
                  %c1_130 = arith.constant 1 : index
                  %111 = arith.maxui %97, %c1_130 : index
                  %c0_131 = arith.constant 0 : index
                  %c1_132 = arith.constant 1 : index
                  %c-1 = arith.constant -1 : index
                  %112 = arith.addi %46, %106 : index
                  %113 = arith.divui %112, %111 : index
                  %114 = arith.remui %112, %111 : index
                  %115 = arith.subi %arg10, %106 : index
                  %116 = arith.addi %114, %115 : index
                  %117 = arith.subi %113, %102 : index
                  %118 = arith.cmpi slt, %116, %c0_131 : index
                  %119 = arith.cmpi sge, %116, %111 : index
                  %120 = arith.select %118, %c-1, %c0_131 : index
                  %121 = arith.select %119, %c1_132, %120 : index
                  %122 = arith.addi %117, %121 : index
                  %123 = arith.subi %116, %111 : index
                  %124 = arith.addi %116, %111 : index
                  %125 = arith.select %118, %124, %116 : index
                  %126 = arith.select %119, %123, %125 : index
                  %127 = arts.db_ref %arg7[%c0_121] : memref<?xmemref<?x?xf64>> -> memref<?x?xf64>
                  %128 = memref.load %127[%126, %arg11] : memref<?x?xf64>
                  %129 = arts.db_ref %arg8[%c0] : memref<?xmemref<?x?xf64>> -> memref<?x?xf64>
                  %130 = memref.load %129[%arg11, %arg12] : memref<?x?xf64>
                  %131 = arith.mulf %128, %130 : f64
                  %c1_133 = arith.constant 1 : index
                  %132 = arith.maxui %90, %c1_133 : index
                  %c0_134 = arith.constant 0 : index
                  %c1_135 = arith.constant 1 : index
                  %c-1_136 = arith.constant -1 : index
                  %133 = arith.addi %46, %106 : index
                  %134 = arith.divui %133, %132 : index
                  %135 = arith.remui %133, %132 : index
                  %136 = arith.subi %arg10, %106 : index
                  %137 = arith.addi %135, %136 : index
                  %138 = arith.subi %134, %95 : index
                  %139 = arith.cmpi slt, %137, %c0_134 : index
                  %140 = arith.cmpi sge, %137, %132 : index
                  %141 = arith.select %139, %c-1_136, %c0_134 : index
                  %142 = arith.select %140, %c1_135, %141 : index
                  %143 = arith.addi %138, %142 : index
                  %144 = arith.subi %137, %132 : index
                  %145 = arith.addi %137, %132 : index
                  %146 = arith.select %139, %145, %137 : index
                  %147 = arith.select %140, %144, %146 : index
                  %148 = arts.db_ref %arg6[%c0_111] : memref<?xmemref<?x?xf64>> -> memref<?x?xf64>
                  %149 = memref.load %148[%147, %arg12] : memref<?x?xf64>
                  %150 = arith.addf %149, %131 : f64
                  %c1_137 = arith.constant 1 : index
                  %151 = arith.maxui %90, %c1_137 : index
                  %c0_138 = arith.constant 0 : index
                  %c1_139 = arith.constant 1 : index
                  %c-1_140 = arith.constant -1 : index
                  %152 = arith.addi %46, %106 : index
                  %153 = arith.divui %152, %151 : index
                  %154 = arith.remui %152, %151 : index
                  %155 = arith.subi %arg10, %106 : index
                  %156 = arith.addi %154, %155 : index
                  %157 = arith.subi %153, %95 : index
                  %158 = arith.cmpi slt, %156, %c0_138 : index
                  %159 = arith.cmpi sge, %156, %151 : index
                  %160 = arith.select %158, %c-1_140, %c0_138 : index
                  %161 = arith.select %159, %c1_139, %160 : index
                  %162 = arith.addi %157, %161 : index
                  %163 = arith.subi %156, %151 : index
                  %164 = arith.addi %156, %151 : index
                  %165 = arith.select %158, %164, %156 : index
                  %166 = arith.select %159, %163, %165 : index
                  %167 = arts.db_ref %arg6[%c0_111] : memref<?xmemref<?x?xf64>> -> memref<?x?xf64>
                  memref.store %150, %167[%166, %arg12] : memref<?x?xf64>
                } {arts.id = 311 : i64, arts.loop = #arts.loop_metadata<potentiallyParallel = false, hasReductions = false, tripCount = 256 : i64, nestingLevel = 2 : i64, hasInterIterationDeps = false, memrefsWithLoopCarriedDeps = 0 : i64, parallelClassification = 0 : i64, locationKey = "3mm.c:137:3">, arts.metadata_origin_id = 311 : i64, arts.metadata_provenance = "transferred"}
              } {arts.id = 310 : i64, arts.loop = #arts.loop_metadata<potentiallyParallel = false, hasReductions = false, tripCount = 256 : i64, nestingLevel = 1 : i64, hasInterIterationDeps = false, memrefsWithLoopCarriedDeps = 0 : i64, parallelClassification = 0 : i64, locationKey = "3mm.c:137:3">, arts.metadata_origin_id = 310 : i64, arts.metadata_provenance = "transferred"}
            } {arts.id = 322 : i64, arts.loop = #arts.loop_metadata<potentiallyParallel = true, hasReductions = false, tripCount = 0 : i64, nestingLevel = 1 : i64, hasInterIterationDeps = false, memrefsWithLoopCarriedDeps = 0 : i64, parallelClassification = 2 : i64, locationKey = "3mm.c:137:3">, arts.metadata_provenance = "exact"}
            arts.db_release(%arg3) : memref<?xmemref<?x?xf64>>
            arts.db_release(%arg4) : memref<?xmemref<?x?xf64>>
            arts.db_release(%arg5) : memref<?xmemref<?x?xf64>>
            arts.db_release(%arg6) : memref<?xmemref<?x?xf64>>
            arts.db_release(%arg7) : memref<?xmemref<?x?xf64>>
            arts.db_release(%arg8) : memref<?xmemref<?x?xf64>>
            arts.db_release(%arg9) : memref<?xmemref<?x?xf64>>
          }
        }
      }
    } : i64
    %42 = arts.epoch attributes {distribution_kind = #arts.distribution_kind<block>, distribution_pattern = #arts.distribution_pattern<matmul>, distribution_version = 1 : i32} {
      scf.for %arg2 = %c0 to %c64 step %c1 {
        %46 = arith.muli %arg2, %c4 : index
        %47 = arith.cmpi uge, %46, %c256 : index
        %48 = arith.subi %c256, %46 : index
        %49 = arith.select %47, %c0, %48 : index
        %50 = arith.minui %49, %c4 : index
        %51 = arith.cmpi ugt, %50, %c0 : index
        scf.if %51 {
          %52 = arith.divui %46, %c256 : index
          %53 = arith.addi %46, %c3 : index
          %54 = arith.divui %53, %c256 : index
          %55 = arith.cmpi ugt, %52, %c0 : index
          %56 = arith.select %55, %54, %c0 : index
          %57 = arith.subi %56, %52 : index
          %58 = arith.addi %57, %c1 : index
          %59 = arith.select %55, %c0, %52 : index
          %60 = arith.select %55, %c0, %58 : index
          %c1_82 = arith.constant 1 : index
          %c0_83 = arith.constant 0 : index
          %61 = arith.maxui %6, %c1_82 : index
          %62 = arith.muli %12, %61 : index
          %63 = arith.divui %46, %61 : index
          %64 = arith.addi %46, %c4 : index
          %65 = arith.subi %64, %c1_82 : index
          %66 = arith.divui %65, %61 : index
          %67 = arith.subi %12, %c1_82 : index
          %68 = arith.cmpi ugt, %63, %67 : index
          %69 = arith.minui %66, %67 : index
          %70 = arith.select %68, %66, %69 : index
          %71 = arith.subi %70, %63 : index
          %72 = arith.addi %71, %c1_82 : index
          %73 = arith.select %68, %c0_83, %63 : index
          %74 = arith.select %68, %c0_83, %72 : index
          %guid_84, %ptr_85 = arts.db_acquire[<inout>] (%guid : memref<?xi64>, %ptr : memref<?xmemref<?x?xf64>>) partitioning(<block>, offsets[%46], sizes[%c4]), offsets[%73], sizes[%c1_82] {arts.partition_hint = {blockSize = 15 : i64, mode = 1 : i8}, distribution_kind = #arts.distribution_kind<block>, distribution_pattern = #arts.distribution_pattern<matmul>, distribution_version = 1 : i32, stencil_block_shape = [4, 256], stencil_owner_dims = [0]} -> (memref<?xi64>, memref<?xmemref<?x?xf64>>)
          arts.lowering_contract(%ptr_85 : memref<?xmemref<?x?xf64>>) distribution_kind(<block>) distribution_pattern(<matmul>) block_shape[%c4] {distribution_version = 1 : i64, owner_dims = array<i64: 0>}
          %c1_86 = arith.constant 1 : index
          %c0_87 = arith.constant 0 : index
          %guid_88, %ptr_89 = arts.db_acquire[<in>] (%guid_23 : memref<?xi64>, %ptr_24 : memref<?xmemref<?x?xf64>>) partitioning(<block>, offsets[%46], sizes[%c4]), offsets[%c0_87], sizes[%19] {arts.id = 335 : i64, arts.partition_hint = {blockSize = 15 : i64, mode = 1 : i8}, distribution_kind = #arts.distribution_kind<block>, distribution_pattern = #arts.distribution_pattern<matmul>, distribution_version = 1 : i32} -> (memref<?xi64>, memref<?xmemref<?x?xf64>>)
          %guid_90, %ptr_91 = arts.db_acquire[<in>] (%guid_30 : memref<?xi64>, %ptr_31 : memref<?xmemref<?x?xf64>>) partitioning(<coarse>), offsets[%c0_29], sizes[%c1] {arts.id = 328 : i64, arts.partition_hint = {blockSize = 15 : i64, mode = 1 : i8}, distribution_kind = #arts.distribution_kind<block>, distribution_pattern = #arts.distribution_pattern<matmul>, distribution_version = 1 : i32} -> (memref<?xi64>, memref<?xmemref<?x?xf64>>)
          arts.lowering_contract(%ptr_91 : memref<?xmemref<?x?xf64>>) distribution_kind(<block>) distribution_pattern(<matmul>) {distribution_version = 1 : i64, post_db_refined}
          %c0_92 = arith.constant 0 : index
          %c1_93 = arith.constant 1 : index
          %c0_94 = arith.constant 0 : index
          %guid_95, %ptr_96 = arts.db_acquire[<inout>] (%guid_44 : memref<?xi64>, %ptr_45 : memref<?xmemref<?x?xf64>>) partitioning(<block>, offsets[%46], sizes[%c4]), offsets[%c0_94], sizes[%26] {arts.id = 336 : i64, arts.partition_hint = {blockSize = 15 : i64, mode = 1 : i8}, distribution_kind = #arts.distribution_kind<block>, distribution_pattern = #arts.distribution_pattern<matmul>, distribution_version = 1 : i32} -> (memref<?xi64>, memref<?xmemref<?x?xf64>>)
          %c1_97 = arith.constant 1 : index
          %c0_98 = arith.constant 0 : index
          %guid_99, %ptr_100 = arts.db_acquire[<in>] (%guid_58 : memref<?xi64>, %ptr_59 : memref<?xmemref<?x?xf64>>) partitioning(<block>, offsets[%46], sizes[%c4]), offsets[%c0_98], sizes[%33] {arts.id = 333 : i64, arts.partition_hint = {blockSize = 15 : i64, mode = 1 : i8}, distribution_kind = #arts.distribution_kind<block>, distribution_pattern = #arts.distribution_pattern<matmul>, distribution_version = 1 : i32} -> (memref<?xi64>, memref<?xmemref<?x?xf64>>)
          %guid_101, %ptr_102 = arts.db_acquire[<in>] (%guid_65 : memref<?xi64>, %ptr_66 : memref<?xmemref<?x?xf64>>) partitioning(<coarse>), offsets[%c0_64], sizes[%c1] {arts.id = 331 : i64, arts.partition_hint = {blockSize = 15 : i64, mode = 1 : i8}, distribution_kind = #arts.distribution_kind<block>, distribution_pattern = #arts.distribution_pattern<matmul>, distribution_version = 1 : i32} -> (memref<?xi64>, memref<?xmemref<?x?xf64>>)
          arts.lowering_contract(%ptr_102 : memref<?xmemref<?x?xf64>>) distribution_kind(<block>) distribution_pattern(<matmul>) {distribution_version = 1 : i64, post_db_refined}
          %c1_103 = arith.constant 1 : index
          %c0_104 = arith.constant 0 : index
          %75 = arith.maxui %34, %c1_103 : index
          %76 = arith.muli %40, %75 : index
          %77 = arith.divui %46, %75 : index
          %78 = arith.addi %46, %c4 : index
          %79 = arith.subi %78, %c1_103 : index
          %80 = arith.divui %79, %75 : index
          %81 = arith.subi %40, %c1_103 : index
          %82 = arith.cmpi ugt, %77, %81 : index
          %83 = arith.minui %80, %81 : index
          %84 = arith.select %82, %80, %83 : index
          %85 = arith.subi %84, %77 : index
          %86 = arith.addi %85, %c1_103 : index
          %87 = arith.select %82, %c0_104, %77 : index
          %88 = arith.select %82, %c0_104, %86 : index
          %guid_105, %ptr_106 = arts.db_acquire[<inout>] (%guid_79 : memref<?xi64>, %ptr_80 : memref<?xmemref<?x?xf64>>) partitioning(<block>, offsets[%46], sizes[%c4]), offsets[%87], sizes[%c1_103] {arts.partition_hint = {blockSize = 15 : i64, mode = 1 : i8}, distribution_kind = #arts.distribution_kind<block>, distribution_pattern = #arts.distribution_pattern<matmul>, distribution_version = 1 : i32, stencil_block_shape = [4, 256], stencil_owner_dims = [0]} -> (memref<?xi64>, memref<?xmemref<?x?xf64>>)
          arts.lowering_contract(%ptr_106 : memref<?xmemref<?x?xf64>>) distribution_kind(<block>) distribution_pattern(<matmul>) block_shape[%c4] {distribution_version = 1 : i64, owner_dims = array<i64: 0>}
          arts.edt <task> <intranode> route(%c-1_i32) (%ptr_85, %ptr_89, %ptr_91, %ptr_96, %ptr_100, %ptr_102, %ptr_106) : memref<?xmemref<?x?xf64>>, memref<?xmemref<?x?xf64>>, memref<?xmemref<?x?xf64>>, memref<?xmemref<?x?xf64>>, memref<?xmemref<?x?xf64>>, memref<?xmemref<?x?xf64>>, memref<?xmemref<?x?xf64>> attributes {arts.id = 121 : i64, distribution_kind = #arts.distribution_kind<block>, distribution_pattern = #arts.distribution_pattern<matmul>, distribution_version = 1 : i32, stencil_block_shape = [4, 256]} {
          ^bb0(%arg3: memref<?xmemref<?x?xf64>>, %arg4: memref<?xmemref<?x?xf64>>, %arg5: memref<?xmemref<?x?xf64>>, %arg6: memref<?xmemref<?x?xf64>>, %arg7: memref<?xmemref<?x?xf64>>, %arg8: memref<?xmemref<?x?xf64>>, %arg9: memref<?xmemref<?x?xf64>>):
            %c1_107 = arith.constant 1 : index
            %c0_108 = arith.constant 0 : index
            %89 = arith.maxui %6, %c1_107 : index
            %c0_109 = arith.constant 0 : index
            %c4_110 = arith.constant 4 : index
            %90 = arith.muli %arg2, %c4_110 : index
            %c15_111 = arith.constant 15 : index
            %c1_112 = arith.constant 1 : index
            %91 = arith.maxui %c15_111, %c1_112 : index
            %c1_113 = arith.constant 1 : index
            %92 = arith.maxui %91, %c1_113 : index
            %93 = arith.divui %90, %92 : index
            %94 = arith.select %68, %c0_109, %93 : index
            %c1_114 = arith.constant 1 : index
            %c0_115 = arith.constant 0 : index
            %95 = arith.maxui %20, %c1_114 : index
            %c0_116 = arith.constant 0 : index
            %c1_117 = arith.constant 1 : index
            %c0_118 = arith.constant 0 : index
            %96 = arith.maxui %13, %c1_117 : index
            %c0_119 = arith.constant 0 : index
            %c1_120 = arith.constant 1 : index
            %c0_121 = arith.constant 0 : index
            %97 = arith.maxui %27, %c1_120 : index
            %c0_122 = arith.constant 0 : index
            %c1_123 = arith.constant 1 : index
            %c0_124 = arith.constant 0 : index
            %98 = arith.maxui %34, %c1_123 : index
            %c0_125 = arith.constant 0 : index
            %c4_126 = arith.constant 4 : index
            %99 = arith.muli %arg2, %c4_126 : index
            %c15_127 = arith.constant 15 : index
            %c1_128 = arith.constant 1 : index
            %100 = arith.maxui %c15_127, %c1_128 : index
            %c1_129 = arith.constant 1 : index
            %101 = arith.maxui %100, %c1_129 : index
            %102 = arith.divui %99, %101 : index
            %103 = arith.select %82, %c0_125, %102 : index
            %104 = arith.subi %c0, %46 : index
            %105 = arith.cmpi slt, %104, %c0 : index
            %106 = arith.select %105, %c0, %104 : index
            %107 = arith.cmpi slt, %48, %c0 : index
            %108 = arith.select %107, %c0, %48 : index
            %109 = arith.minui %108, %50 : index
            scf.for %arg10 = %106 to %109 step %c1 {
              %110 = arith.addi %46, %arg10 : index
              scf.for %arg11 = %c0 to %c256 step %c1 {
                %c1_130 = arith.constant 1 : index
                %111 = arith.maxui %98, %c1_130 : index
                %c0_131 = arith.constant 0 : index
                %c1_132 = arith.constant 1 : index
                %c-1 = arith.constant -1 : index
                %112 = arith.addi %46, %106 : index
                %113 = arith.divui %112, %111 : index
                %114 = arith.remui %112, %111 : index
                %115 = arith.subi %arg10, %106 : index
                %116 = arith.addi %114, %115 : index
                %117 = arith.subi %113, %103 : index
                %118 = arith.cmpi slt, %116, %c0_131 : index
                %119 = arith.cmpi sge, %116, %111 : index
                %120 = arith.select %118, %c-1, %c0_131 : index
                %121 = arith.select %119, %c1_132, %120 : index
                %122 = arith.addi %117, %121 : index
                %123 = arith.subi %116, %111 : index
                %124 = arith.addi %116, %111 : index
                %125 = arith.select %118, %124, %116 : index
                %126 = arith.select %119, %123, %125 : index
                %127 = arts.db_ref %arg9[%c0_124] : memref<?xmemref<?x?xf64>> -> memref<?x?xf64>
                memref.store %cst_0, %127[%126, %arg11] : memref<?x?xf64>
              } {arts.id = 311 : i64, arts.loop = #arts.loop_metadata<potentiallyParallel = false, hasReductions = false, tripCount = 256 : i64, nestingLevel = 1 : i64, hasInterIterationDeps = false, memrefsWithLoopCarriedDeps = 0 : i64, parallelClassification = 0 : i64, locationKey = "3mm.c:137:3">, arts.metadata_provenance = "exact"}
              scf.for %arg11 = %c0 to %c256 step %c1 {
                scf.for %arg12 = %c0 to %c256 step %c1 {
                  %c1_130 = arith.constant 1 : index
                  %111 = arith.maxui %89, %c1_130 : index
                  %c0_131 = arith.constant 0 : index
                  %c1_132 = arith.constant 1 : index
                  %c-1 = arith.constant -1 : index
                  %112 = arith.addi %46, %106 : index
                  %113 = arith.divui %112, %111 : index
                  %114 = arith.remui %112, %111 : index
                  %115 = arith.subi %arg10, %106 : index
                  %116 = arith.addi %114, %115 : index
                  %117 = arith.subi %113, %94 : index
                  %118 = arith.cmpi slt, %116, %c0_131 : index
                  %119 = arith.cmpi sge, %116, %111 : index
                  %120 = arith.select %118, %c-1, %c0_131 : index
                  %121 = arith.select %119, %c1_132, %120 : index
                  %122 = arith.addi %117, %121 : index
                  %123 = arith.subi %116, %111 : index
                  %124 = arith.addi %116, %111 : index
                  %125 = arith.select %118, %124, %116 : index
                  %126 = arith.select %119, %123, %125 : index
                  %127 = arts.db_ref %arg3[%c0_108] : memref<?xmemref<?x?xf64>> -> memref<?x?xf64>
                  %128 = memref.load %127[%126, %arg11] : memref<?x?xf64>
                  %c1_133 = arith.constant 1 : index
                  %129 = arith.maxui %95, %c1_133 : index
                  %130 = arith.divui %arg11, %129 : index
                  %131 = arith.subi %130, %c0_116 : index
                  %132 = arith.remui %arg11, %129 : index
                  %133 = arts.db_ref %arg6[%131] : memref<?xmemref<?x?xf64>> -> memref<?x?xf64>
                  %134 = memref.load %133[%132, %arg12] : memref<?x?xf64>
                  %135 = arith.mulf %128, %134 : f64
                  %c1_134 = arith.constant 1 : index
                  %136 = arith.maxui %98, %c1_134 : index
                  %c0_135 = arith.constant 0 : index
                  %c1_136 = arith.constant 1 : index
                  %c-1_137 = arith.constant -1 : index
                  %137 = arith.addi %46, %106 : index
                  %138 = arith.divui %137, %136 : index
                  %139 = arith.remui %137, %136 : index
                  %140 = arith.subi %arg10, %106 : index
                  %141 = arith.addi %139, %140 : index
                  %142 = arith.subi %138, %103 : index
                  %143 = arith.cmpi slt, %141, %c0_135 : index
                  %144 = arith.cmpi sge, %141, %136 : index
                  %145 = arith.select %143, %c-1_137, %c0_135 : index
                  %146 = arith.select %144, %c1_136, %145 : index
                  %147 = arith.addi %142, %146 : index
                  %148 = arith.subi %141, %136 : index
                  %149 = arith.addi %141, %136 : index
                  %150 = arith.select %143, %149, %141 : index
                  %151 = arith.select %144, %148, %150 : index
                  %152 = arts.db_ref %arg9[%c0_124] : memref<?xmemref<?x?xf64>> -> memref<?x?xf64>
                  %153 = memref.load %152[%151, %arg12] : memref<?x?xf64>
                  %154 = arith.addf %153, %135 : f64
                  %c1_138 = arith.constant 1 : index
                  %155 = arith.maxui %98, %c1_138 : index
                  %c0_139 = arith.constant 0 : index
                  %c1_140 = arith.constant 1 : index
                  %c-1_141 = arith.constant -1 : index
                  %156 = arith.addi %46, %106 : index
                  %157 = arith.divui %156, %155 : index
                  %158 = arith.remui %156, %155 : index
                  %159 = arith.subi %arg10, %106 : index
                  %160 = arith.addi %158, %159 : index
                  %161 = arith.subi %157, %103 : index
                  %162 = arith.cmpi slt, %160, %c0_139 : index
                  %163 = arith.cmpi sge, %160, %155 : index
                  %164 = arith.select %162, %c-1_141, %c0_139 : index
                  %165 = arith.select %163, %c1_140, %164 : index
                  %166 = arith.addi %161, %165 : index
                  %167 = arith.subi %160, %155 : index
                  %168 = arith.addi %160, %155 : index
                  %169 = arith.select %162, %168, %160 : index
                  %170 = arith.select %163, %167, %169 : index
                  %171 = arts.db_ref %arg9[%c0_124] : memref<?xmemref<?x?xf64>> -> memref<?x?xf64>
                  memref.store %154, %171[%170, %arg12] : memref<?x?xf64>
                } {arts.id = 313 : i64, arts.loop = #arts.loop_metadata<potentiallyParallel = false, hasReductions = false, tripCount = 256 : i64, nestingLevel = 2 : i64, hasInterIterationDeps = false, memrefsWithLoopCarriedDeps = 0 : i64, parallelClassification = 0 : i64, locationKey = "3mm.c:137:3">, arts.metadata_origin_id = 313 : i64, arts.metadata_provenance = "transferred"}
              } {arts.id = 312 : i64, arts.loop = #arts.loop_metadata<potentiallyParallel = false, hasReductions = false, tripCount = 256 : i64, nestingLevel = 1 : i64, hasInterIterationDeps = false, memrefsWithLoopCarriedDeps = 0 : i64, parallelClassification = 0 : i64, locationKey = "3mm.c:137:3">, arts.metadata_origin_id = 312 : i64, arts.metadata_provenance = "transferred"}
            } {arts.id = 323 : i64, arts.loop = #arts.loop_metadata<potentiallyParallel = true, hasReductions = false, tripCount = 0 : i64, nestingLevel = 1 : i64, hasInterIterationDeps = false, memrefsWithLoopCarriedDeps = 0 : i64, parallelClassification = 2 : i64, locationKey = "3mm.c:137:3">, arts.metadata_provenance = "exact"}
            arts.db_release(%arg3) : memref<?xmemref<?x?xf64>>
            arts.db_release(%arg4) : memref<?xmemref<?x?xf64>>
            arts.db_release(%arg5) : memref<?xmemref<?x?xf64>>
            arts.db_release(%arg6) : memref<?xmemref<?x?xf64>>
            arts.db_release(%arg7) : memref<?xmemref<?x?xf64>>
            arts.db_release(%arg8) : memref<?xmemref<?x?xf64>>
            arts.db_release(%arg9) : memref<?xmemref<?x?xf64>>
          }
        }
      }
    } : i64
    call @carts_kernel_timer_stop(%4) : (memref<?xi8>) -> ()
    %43 = polygeist.pointer2memref %1 : !llvm.ptr to memref<?xi8>
    call @carts_phase_timer_start(%43, %4) : (memref<?xi8>, memref<?xi8>) -> ()
    %44 = scf.for %arg2 = %c0 to %c256 step %c1 iter_args(%arg3 = %cst_0) -> (f64) {
      %c1_82 = arith.constant 1 : index
      %46 = arith.maxui %34, %c1_82 : index
      %47 = arith.divui %arg2, %46 : index
      %48 = arith.subi %47, %c0_81 : index
      %49 = arith.remui %arg2, %46 : index
      %50 = arts.db_ref %ptr_80[%48] : memref<?xmemref<?x?xf64>> -> memref<?x?xf64>
      %51 = memref.load %50[%49, %arg2] : memref<?x?xf64>
      %52 = arith.addf %arg3, %51 : f64
      scf.yield %52 : f64
    }
    call @carts_bench_checksum_d(%44) : (f64) -> ()
    call @carts_phase_timer_stop(%43) : (memref<?xi8>) -> ()
    %45 = polygeist.pointer2memref %0 : !llvm.ptr to memref<?xi8>
    call @carts_phase_timer_start(%45, %4) : (memref<?xi8>, memref<?xi8>) -> ()
    call @carts_phase_timer_stop(%45) : (memref<?xi8>) -> ()
    call @carts_e2e_timer_stop() : () -> ()
    arts.db_free(%guid_30) : memref<?xi64>
    arts.db_free(%ptr_31) : memref<?xmemref<?x?xf64>>
    arts.db_free(%guid) : memref<?xi64>
    arts.db_free(%ptr) : memref<?xmemref<?x?xf64>>
    arts.db_free(%guid_23) : memref<?xi64>
    arts.db_free(%ptr_24) : memref<?xmemref<?x?xf64>>
    arts.db_free(%guid_65) : memref<?xi64>
    arts.db_free(%ptr_66) : memref<?xmemref<?x?xf64>>
    arts.db_free(%guid_58) : memref<?xi64>
    arts.db_free(%ptr_59) : memref<?xmemref<?x?xf64>>
    arts.db_free(%guid_79) : memref<?xi64>
    arts.db_free(%ptr_80) : memref<?xmemref<?x?xf64>>
    arts.db_free(%guid_44) : memref<?xi64>
    arts.db_free(%ptr_45) : memref<?xmemref<?x?xf64>>
    return %c0_i32 : i32
  }
  func.func private @carts_benchmarks_start() attributes {llvm.linkage = #llvm.linkage<external>}
  func.func private @carts_e2e_timer_start(memref<?xi8>) attributes {llvm.linkage = #llvm.linkage<external>}
  func.func private @carts_phase_timer_start(memref<?xi8>, memref<?xi8>) attributes {llvm.linkage = #llvm.linkage<external>}
  func.func private @carts_phase_timer_stop(memref<?xi8>) attributes {llvm.linkage = #llvm.linkage<external>}
  func.func private @carts_kernel_timer_start(memref<?xi8>) attributes {llvm.linkage = #llvm.linkage<external>}
  func.func private @carts_kernel_timer_stop(memref<?xi8>) attributes {llvm.linkage = #llvm.linkage<external>}
  func.func private @carts_bench_checksum_d(f64) attributes {llvm.linkage = #llvm.linkage<external>}
  func.func private @carts_e2e_timer_stop() attributes {llvm.linkage = #llvm.linkage<external>}
}
