#loc122 = loc("/home/raherrer/projects/carts/external/carts-benchmarks/specfem3d/velocity/velocity_update.c":102:3)
#loc143 = loc("/home/raherrer/projects/carts/external/carts-benchmarks/specfem3d/velocity/velocity_update.c":113:5)
#loc168 = loc("/home/raherrer/projects/carts/external/carts-benchmarks/specfem3d/velocity/velocity_update.c":132:3)
#loc189 = loc("/home/raherrer/projects/carts/external/carts-benchmarks/specfem3d/velocity/velocity_update.c":145:3)
#loc207 = loc("/home/raherrer/projects/carts/external/carts-benchmarks/specfem3d/velocity/velocity_update.c":155:3)
#loc208 = loc("/home/raherrer/projects/carts/external/carts-benchmarks/specfem3d/velocity/velocity_update.c":156:5)
#loc255 = loc("/home/raherrer/projects/carts/external/carts-benchmarks/specfem3d/velocity/velocity_update.c":22:13)
#loc259 = loc("/home/raherrer/projects/carts/external/carts-benchmarks/specfem3d/velocity/velocity_update.c":26:3)
#loc270 = loc("/home/raherrer/projects/carts/external/carts-benchmarks/specfem3d/velocity/velocity_update.c":27:5)
#loc320 = loc("/home/raherrer/projects/carts/external/carts-benchmarks/specfem3d/velocity/velocity_update.c":57:13)
#loc326 = loc("/home/raherrer/projects/carts/external/carts-benchmarks/specfem3d/velocity/velocity_update.c":63:3)
#loc327 = loc("/home/raherrer/projects/carts/external/carts-benchmarks/specfem3d/velocity/velocity_update.c":64:5)
#loc328 = loc("/home/raherrer/projects/carts/external/carts-benchmarks/specfem3d/velocity/velocity_update.c":65:7)
#loc369 = loc("/home/raherrer/projects/carts/external/carts-benchmarks/specfem3d/velocity/velocity_update.c":45:22)
#loc380 = loc("/home/raherrer/projects/carts/external/carts-benchmarks/specfem3d/velocity/velocity_update.c":49:22)
#loc391 = loc("/home/raherrer/projects/carts/external/carts-benchmarks/specfem3d/velocity/velocity_update.c":53:22)
module attributes {dlti.dl_spec = #dlti.dl_spec<!llvm.ptr<270> = dense<32> : vector<4xi64>, !llvm.ptr<271> = dense<32> : vector<4xi64>, !llvm.ptr<272> = dense<64> : vector<4xi64>, i64 = dense<64> : vector<2xi64>, i128 = dense<128> : vector<2xi64>, f80 = dense<128> : vector<2xi64>, !llvm.ptr = dense<64> : vector<4xi64>, i1 = dense<8> : vector<2xi64>, i8 = dense<8> : vector<2xi64>, i16 = dense<16> : vector<2xi64>, i32 = dense<32> : vector<2xi64>, f16 = dense<16> : vector<2xi64>, f64 = dense<64> : vector<2xi64>, f128 = dense<128> : vector<2xi64>, "dlti.endianness" = "little", "dlti.mangling_mode" = "e", "dlti.legal_int_widths" = array<i32: 8, 16, 32, 64>, "dlti.stack_alignment" = 128 : i64>, llvm.data_layout = "e-m:e-p270:32:32-p271:32:32-p272:64:64-i64:64-i128:128-f80:128-n8:16:32:64-S128", llvm.target_triple = "x86_64-unknown-linux-gnu", "polygeist.target-cpu" = "x86-64", "polygeist.target-features" = "+cmov,+cx8,+fxsr,+mmx,+sse,+sse2,+x87", "polygeist.tune-cpu" = "generic"} {
  llvm.mlir.global internal constant @str3("cleanup\00") {addr_space = 0 : i32} loc(#loc1)
  llvm.mlir.global internal constant @str2("verification\00") {addr_space = 0 : i32} loc(#loc2)
  llvm.mlir.global internal constant @str1("startup\00") {addr_space = 0 : i32} loc(#loc3)
  llvm.mlir.global internal constant @str0("specfem_velocity_update\00") {addr_space = 0 : i32} loc(#loc4)
  func.func @main() -> i32 attributes {llvm.linkage = #llvm.linkage<external>} {
    %0 = llvm.mlir.addressof @str3 : !llvm.ptr loc(#loc)
    %cst = arith.constant 0.000000e+00 : f64 loc(#loc)
    %1 = llvm.mlir.addressof @str2 : !llvm.ptr loc(#loc)
    %c48_i32 = arith.constant 48 : i32 loc(#loc)
    %c48_i64 = arith.constant 48 : i64 loc(#loc)
    %2 = llvm.mlir.addressof @str1 : !llvm.ptr loc(#loc)
    %c0_i32 = arith.constant 0 : i32 loc(#loc)
    %3 = llvm.mlir.addressof @str0 : !llvm.ptr loc(#loc)
    %true = arith.constant true loc(#loc6)
    %4 = "polygeist.undef"() : () -> i32 loc(#loc7)
    %alloca = memref.alloca() : memref<1xf64> loc(#loc8)
    %5 = "polygeist.undef"() : () -> f64 loc(#loc8)
    affine.store %5, %alloca[0] : memref<1xf64> loc(#loc8)
    %alloca_0 = memref.alloca() : memref<1xmemref<?xmemref<?xmemref<?xf64>>>> loc(#loc9)
    %alloca_1 = memref.alloca() : memref<1xmemref<?xmemref<?xmemref<?xf64>>>> loc(#loc10)
    %alloca_2 = memref.alloca() : memref<1xmemref<?xmemref<?xmemref<?xf64>>>> loc(#loc11)
    %alloca_3 = memref.alloca() : memref<1xmemref<?xmemref<?xmemref<?xf64>>>> loc(#loc12)
    %alloca_4 = memref.alloca() : memref<1xmemref<?xmemref<?xmemref<?xf64>>>> loc(#loc13)
    %alloca_5 = memref.alloca() : memref<1xmemref<?xmemref<?xmemref<?xf64>>>> loc(#loc14)
    %alloca_6 = memref.alloca() : memref<1xmemref<?xmemref<?xmemref<?xf64>>>> loc(#loc15)
    %alloca_7 = memref.alloca() : memref<1xmemref<?xmemref<?xmemref<?xf64>>>> loc(#loc16)
    %alloca_8 = memref.alloca() : memref<1xmemref<?xmemref<?xmemref<?xf64>>>> loc(#loc17)
    %alloca_9 = memref.alloca() : memref<1xmemref<?xmemref<?xmemref<?xf64>>>> loc(#loc18)
    scf.if %true {
      scf.execute_region {
        func.call @carts_benchmarks_start() : () -> () loc(#loc19)
        scf.yield loc(#loc)
      } loc(#loc)
    } loc(#loc)
    scf.if %true {
      scf.execute_region {
        %11 = polygeist.pointer2memref %3 : !llvm.ptr to memref<?xi8> loc(#loc20)
        func.call @carts_e2e_timer_start(%11) : (memref<?xi8>) -> () loc(#loc20)
        scf.yield loc(#loc)
      } loc(#loc)
    } loc(#loc)
    scf.if %true {
      scf.execute_region {
        %11 = polygeist.pointer2memref %2 : !llvm.ptr to memref<?xi8> loc(#loc21)
        %12 = polygeist.pointer2memref %3 : !llvm.ptr to memref<?xi8> loc(#loc21)
        func.call @carts_phase_timer_start(%11, %12) : (memref<?xi8>, memref<?xi8>) -> () loc(#loc21)
        scf.yield loc(#loc)
      } loc(#loc)
    } loc(#loc)
    scf.if %true {
      scf.execute_region {
        scf.if %true {
          %11 = scf.execute_region -> memref<?xmemref<?xmemref<?xf64>>> {
            %12 = polygeist.typeSize memref<?xmemref<?xf64>> : index loc(#loc22)
            %13 = arith.index_cast %12 : index to i64 loc(#loc23)
            %14 = arith.muli %13, %c48_i64 : i64 loc(#loc24)
            %15 = arith.index_cast %14 : i64 to index loc(#loc22)
            %16 = arith.divui %15, %12 : index loc(#loc22)
            %alloc = memref.alloc(%16) : memref<?xmemref<?xmemref<?xf64>>> loc(#loc22)
            affine.store %alloc, %alloca_9[0] : memref<1xmemref<?xmemref<?xmemref<?xf64>>>> loc(#loc18)
            scf.yield %alloc : memref<?xmemref<?xmemref<?xf64>>> loc(#loc)
          } loc(#loc)
        } loc(#loc)
        scf.yield loc(#loc)
      } loc(#loc)
    } loc(#loc)
    scf.if %true {
      scf.execute_region {
        scf.if %true {
          %11 = scf.execute_region -> memref<?xmemref<?xmemref<?xf64>>> {
            %12 = polygeist.typeSize memref<?xmemref<?xf64>> : index loc(#loc25)
            %13 = arith.index_cast %12 : index to i64 loc(#loc26)
            %14 = arith.muli %13, %c48_i64 : i64 loc(#loc27)
            %15 = arith.index_cast %14 : i64 to index loc(#loc25)
            %16 = arith.divui %15, %12 : index loc(#loc25)
            %alloc = memref.alloc(%16) : memref<?xmemref<?xmemref<?xf64>>> loc(#loc25)
            affine.store %alloc, %alloca_8[0] : memref<1xmemref<?xmemref<?xmemref<?xf64>>>> loc(#loc17)
            scf.yield %alloc : memref<?xmemref<?xmemref<?xf64>>> loc(#loc)
          } loc(#loc)
        } loc(#loc)
        scf.yield loc(#loc)
      } loc(#loc)
    } loc(#loc)
    scf.if %true {
      scf.execute_region {
        scf.if %true {
          %11 = scf.execute_region -> memref<?xmemref<?xmemref<?xf64>>> {
            %12 = polygeist.typeSize memref<?xmemref<?xf64>> : index loc(#loc28)
            %13 = arith.index_cast %12 : index to i64 loc(#loc29)
            %14 = arith.muli %13, %c48_i64 : i64 loc(#loc30)
            %15 = arith.index_cast %14 : i64 to index loc(#loc28)
            %16 = arith.divui %15, %12 : index loc(#loc28)
            %alloc = memref.alloc(%16) : memref<?xmemref<?xmemref<?xf64>>> loc(#loc28)
            affine.store %alloc, %alloca_7[0] : memref<1xmemref<?xmemref<?xmemref<?xf64>>>> loc(#loc16)
            scf.yield %alloc : memref<?xmemref<?xmemref<?xf64>>> loc(#loc)
          } loc(#loc)
        } loc(#loc)
        scf.yield loc(#loc)
      } loc(#loc)
    } loc(#loc)
    scf.if %true {
      scf.execute_region {
        scf.if %true {
          %11 = scf.execute_region -> memref<?xmemref<?xmemref<?xf64>>> {
            %12 = polygeist.typeSize memref<?xmemref<?xf64>> : index loc(#loc31)
            %13 = arith.index_cast %12 : index to i64 loc(#loc32)
            %14 = arith.muli %13, %c48_i64 : i64 loc(#loc33)
            %15 = arith.index_cast %14 : i64 to index loc(#loc31)
            %16 = arith.divui %15, %12 : index loc(#loc31)
            %alloc = memref.alloc(%16) : memref<?xmemref<?xmemref<?xf64>>> loc(#loc31)
            affine.store %alloc, %alloca_6[0] : memref<1xmemref<?xmemref<?xmemref<?xf64>>>> loc(#loc15)
            scf.yield %alloc : memref<?xmemref<?xmemref<?xf64>>> loc(#loc)
          } loc(#loc)
        } loc(#loc)
        scf.yield loc(#loc)
      } loc(#loc)
    } loc(#loc)
    scf.if %true {
      scf.execute_region {
        scf.if %true {
          %11 = scf.execute_region -> memref<?xmemref<?xmemref<?xf64>>> {
            %12 = polygeist.typeSize memref<?xmemref<?xf64>> : index loc(#loc34)
            %13 = arith.index_cast %12 : index to i64 loc(#loc35)
            %14 = arith.muli %13, %c48_i64 : i64 loc(#loc36)
            %15 = arith.index_cast %14 : i64 to index loc(#loc34)
            %16 = arith.divui %15, %12 : index loc(#loc34)
            %alloc = memref.alloc(%16) : memref<?xmemref<?xmemref<?xf64>>> loc(#loc34)
            affine.store %alloc, %alloca_5[0] : memref<1xmemref<?xmemref<?xmemref<?xf64>>>> loc(#loc14)
            scf.yield %alloc : memref<?xmemref<?xmemref<?xf64>>> loc(#loc)
          } loc(#loc)
        } loc(#loc)
        scf.yield loc(#loc)
      } loc(#loc)
    } loc(#loc)
    scf.if %true {
      scf.execute_region {
        scf.if %true {
          %11 = scf.execute_region -> memref<?xmemref<?xmemref<?xf64>>> {
            %12 = polygeist.typeSize memref<?xmemref<?xf64>> : index loc(#loc37)
            %13 = arith.index_cast %12 : index to i64 loc(#loc38)
            %14 = arith.muli %13, %c48_i64 : i64 loc(#loc39)
            %15 = arith.index_cast %14 : i64 to index loc(#loc37)
            %16 = arith.divui %15, %12 : index loc(#loc37)
            %alloc = memref.alloc(%16) : memref<?xmemref<?xmemref<?xf64>>> loc(#loc37)
            affine.store %alloc, %alloca_4[0] : memref<1xmemref<?xmemref<?xmemref<?xf64>>>> loc(#loc13)
            scf.yield %alloc : memref<?xmemref<?xmemref<?xf64>>> loc(#loc)
          } loc(#loc)
        } loc(#loc)
        scf.yield loc(#loc)
      } loc(#loc)
    } loc(#loc)
    scf.if %true {
      scf.execute_region {
        scf.if %true {
          %11 = scf.execute_region -> memref<?xmemref<?xmemref<?xf64>>> {
            %12 = polygeist.typeSize memref<?xmemref<?xf64>> : index loc(#loc40)
            %13 = arith.index_cast %12 : index to i64 loc(#loc41)
            %14 = arith.muli %13, %c48_i64 : i64 loc(#loc42)
            %15 = arith.index_cast %14 : i64 to index loc(#loc40)
            %16 = arith.divui %15, %12 : index loc(#loc40)
            %alloc = memref.alloc(%16) : memref<?xmemref<?xmemref<?xf64>>> loc(#loc40)
            affine.store %alloc, %alloca_3[0] : memref<1xmemref<?xmemref<?xmemref<?xf64>>>> loc(#loc12)
            scf.yield %alloc : memref<?xmemref<?xmemref<?xf64>>> loc(#loc)
          } loc(#loc)
        } loc(#loc)
        scf.yield loc(#loc)
      } loc(#loc)
    } loc(#loc)
    scf.if %true {
      scf.execute_region {
        scf.if %true {
          %11 = scf.execute_region -> memref<?xmemref<?xmemref<?xf64>>> {
            %12 = polygeist.typeSize memref<?xmemref<?xf64>> : index loc(#loc43)
            %13 = arith.index_cast %12 : index to i64 loc(#loc44)
            %14 = arith.muli %13, %c48_i64 : i64 loc(#loc45)
            %15 = arith.index_cast %14 : i64 to index loc(#loc43)
            %16 = arith.divui %15, %12 : index loc(#loc43)
            %alloc = memref.alloc(%16) : memref<?xmemref<?xmemref<?xf64>>> loc(#loc43)
            affine.store %alloc, %alloca_2[0] : memref<1xmemref<?xmemref<?xmemref<?xf64>>>> loc(#loc11)
            scf.yield %alloc : memref<?xmemref<?xmemref<?xf64>>> loc(#loc)
          } loc(#loc)
        } loc(#loc)
        scf.yield loc(#loc)
      } loc(#loc)
    } loc(#loc)
    scf.if %true {
      scf.execute_region {
        scf.if %true {
          %11 = scf.execute_region -> memref<?xmemref<?xmemref<?xf64>>> {
            %12 = polygeist.typeSize memref<?xmemref<?xf64>> : index loc(#loc46)
            %13 = arith.index_cast %12 : index to i64 loc(#loc47)
            %14 = arith.muli %13, %c48_i64 : i64 loc(#loc48)
            %15 = arith.index_cast %14 : i64 to index loc(#loc46)
            %16 = arith.divui %15, %12 : index loc(#loc46)
            %alloc = memref.alloc(%16) : memref<?xmemref<?xmemref<?xf64>>> loc(#loc46)
            affine.store %alloc, %alloca_1[0] : memref<1xmemref<?xmemref<?xmemref<?xf64>>>> loc(#loc10)
            scf.yield %alloc : memref<?xmemref<?xmemref<?xf64>>> loc(#loc)
          } loc(#loc)
        } loc(#loc)
        scf.yield loc(#loc)
      } loc(#loc)
    } loc(#loc)
    scf.if %true {
      scf.execute_region {
        scf.if %true {
          %11 = scf.execute_region -> memref<?xmemref<?xmemref<?xf64>>> {
            %12 = polygeist.typeSize memref<?xmemref<?xf64>> : index loc(#loc49)
            %13 = arith.index_cast %12 : index to i64 loc(#loc50)
            %14 = arith.muli %13, %c48_i64 : i64 loc(#loc51)
            %15 = arith.index_cast %14 : i64 to index loc(#loc49)
            %16 = arith.divui %15, %12 : index loc(#loc49)
            %alloc = memref.alloc(%16) : memref<?xmemref<?xmemref<?xf64>>> loc(#loc49)
            affine.store %alloc, %alloca_0[0] : memref<1xmemref<?xmemref<?xmemref<?xf64>>>> loc(#loc9)
            scf.yield %alloc : memref<?xmemref<?xmemref<?xf64>>> loc(#loc)
          } loc(#loc)
        } loc(#loc)
        scf.yield loc(#loc)
      } loc(#loc)
    } loc(#loc)
    scf.if %true {
      scf.execute_region {
        scf.if %true {
          scf.execute_region {
            %11 = affine.load %alloca_9[0] : memref<1xmemref<?xmemref<?xmemref<?xf64>>>> loc(#loc52)
            %12 = polygeist.typeSize memref<?xf64> : index loc(#loc53)
            %13 = arith.index_cast %12 : index to i64 loc(#loc54)
            %14 = arith.muli %13, %c48_i64 : i64 loc(#loc55)
            %15 = arith.index_cast %14 : i64 to index loc(#loc53)
            %16 = arith.divui %15, %12 : index loc(#loc53)
            %17 = affine.load %alloca_8[0] : memref<1xmemref<?xmemref<?xmemref<?xf64>>>> loc(#loc56)
            %18 = polygeist.typeSize memref<?xf64> : index loc(#loc57)
            %19 = arith.index_cast %18 : index to i64 loc(#loc58)
            %20 = arith.muli %19, %c48_i64 : i64 loc(#loc59)
            %21 = arith.index_cast %20 : i64 to index loc(#loc57)
            %22 = arith.divui %21, %18 : index loc(#loc57)
            %23 = affine.load %alloca_7[0] : memref<1xmemref<?xmemref<?xmemref<?xf64>>>> loc(#loc60)
            %24 = polygeist.typeSize memref<?xf64> : index loc(#loc61)
            %25 = arith.index_cast %24 : index to i64 loc(#loc62)
            %26 = arith.muli %25, %c48_i64 : i64 loc(#loc63)
            %27 = arith.index_cast %26 : i64 to index loc(#loc61)
            %28 = arith.divui %27, %24 : index loc(#loc61)
            %29 = affine.load %alloca_6[0] : memref<1xmemref<?xmemref<?xmemref<?xf64>>>> loc(#loc64)
            %30 = polygeist.typeSize memref<?xf64> : index loc(#loc65)
            %31 = arith.index_cast %30 : index to i64 loc(#loc66)
            %32 = arith.muli %31, %c48_i64 : i64 loc(#loc67)
            %33 = arith.index_cast %32 : i64 to index loc(#loc65)
            %34 = arith.divui %33, %30 : index loc(#loc65)
            %35 = affine.load %alloca_5[0] : memref<1xmemref<?xmemref<?xmemref<?xf64>>>> loc(#loc68)
            %36 = polygeist.typeSize memref<?xf64> : index loc(#loc69)
            %37 = arith.index_cast %36 : index to i64 loc(#loc70)
            %38 = arith.muli %37, %c48_i64 : i64 loc(#loc71)
            %39 = arith.index_cast %38 : i64 to index loc(#loc69)
            %40 = arith.divui %39, %36 : index loc(#loc69)
            %41 = affine.load %alloca_4[0] : memref<1xmemref<?xmemref<?xmemref<?xf64>>>> loc(#loc72)
            %42 = polygeist.typeSize memref<?xf64> : index loc(#loc73)
            %43 = arith.index_cast %42 : index to i64 loc(#loc74)
            %44 = arith.muli %43, %c48_i64 : i64 loc(#loc75)
            %45 = arith.index_cast %44 : i64 to index loc(#loc73)
            %46 = arith.divui %45, %42 : index loc(#loc73)
            %47 = affine.load %alloca_3[0] : memref<1xmemref<?xmemref<?xmemref<?xf64>>>> loc(#loc76)
            %48 = polygeist.typeSize memref<?xf64> : index loc(#loc77)
            %49 = arith.index_cast %48 : index to i64 loc(#loc78)
            %50 = arith.muli %49, %c48_i64 : i64 loc(#loc79)
            %51 = arith.index_cast %50 : i64 to index loc(#loc77)
            %52 = arith.divui %51, %48 : index loc(#loc77)
            %53 = affine.load %alloca_2[0] : memref<1xmemref<?xmemref<?xmemref<?xf64>>>> loc(#loc80)
            %54 = polygeist.typeSize memref<?xf64> : index loc(#loc81)
            %55 = arith.index_cast %54 : index to i64 loc(#loc82)
            %56 = arith.muli %55, %c48_i64 : i64 loc(#loc83)
            %57 = arith.index_cast %56 : i64 to index loc(#loc81)
            %58 = arith.divui %57, %54 : index loc(#loc81)
            %59 = affine.load %alloca_1[0] : memref<1xmemref<?xmemref<?xmemref<?xf64>>>> loc(#loc84)
            %60 = polygeist.typeSize memref<?xf64> : index loc(#loc85)
            %61 = arith.index_cast %60 : index to i64 loc(#loc86)
            %62 = arith.muli %61, %c48_i64 : i64 loc(#loc87)
            %63 = arith.index_cast %62 : i64 to index loc(#loc85)
            %64 = arith.divui %63, %60 : index loc(#loc85)
            %65 = affine.load %alloca_0[0] : memref<1xmemref<?xmemref<?xmemref<?xf64>>>> loc(#loc88)
            %66 = polygeist.typeSize memref<?xf64> : index loc(#loc89)
            %67 = arith.index_cast %66 : index to i64 loc(#loc90)
            %68 = arith.muli %67, %c48_i64 : i64 loc(#loc91)
            %69 = arith.index_cast %68 : i64 to index loc(#loc89)
            %70 = arith.divui %69, %66 : index loc(#loc89)
            %71 = polygeist.typeSize f64 : index loc(#loc92)
            %72 = arith.index_cast %71 : index to i64 loc(#loc93)
            %73 = arith.muli %72, %c48_i64 : i64 loc(#loc94)
            %74 = arith.index_cast %73 : i64 to index loc(#loc92)
            %75 = arith.divui %74, %71 : index loc(#loc92)
            %76 = polygeist.typeSize f64 : index loc(#loc95)
            %77 = arith.index_cast %76 : index to i64 loc(#loc96)
            %78 = arith.muli %77, %c48_i64 : i64 loc(#loc97)
            %79 = arith.index_cast %78 : i64 to index loc(#loc95)
            %80 = arith.divui %79, %76 : index loc(#loc95)
            %81 = polygeist.typeSize f64 : index loc(#loc98)
            %82 = arith.index_cast %81 : index to i64 loc(#loc99)
            %83 = arith.muli %82, %c48_i64 : i64 loc(#loc100)
            %84 = arith.index_cast %83 : i64 to index loc(#loc98)
            %85 = arith.divui %84, %81 : index loc(#loc98)
            %86 = polygeist.typeSize f64 : index loc(#loc101)
            %87 = arith.index_cast %86 : index to i64 loc(#loc102)
            %88 = arith.muli %87, %c48_i64 : i64 loc(#loc103)
            %89 = arith.index_cast %88 : i64 to index loc(#loc101)
            %90 = arith.divui %89, %86 : index loc(#loc101)
            %91 = polygeist.typeSize f64 : index loc(#loc104)
            %92 = arith.index_cast %91 : index to i64 loc(#loc105)
            %93 = arith.muli %92, %c48_i64 : i64 loc(#loc106)
            %94 = arith.index_cast %93 : i64 to index loc(#loc104)
            %95 = arith.divui %94, %91 : index loc(#loc104)
            %96 = polygeist.typeSize f64 : index loc(#loc107)
            %97 = arith.index_cast %96 : index to i64 loc(#loc108)
            %98 = arith.muli %97, %c48_i64 : i64 loc(#loc109)
            %99 = arith.index_cast %98 : i64 to index loc(#loc107)
            %100 = arith.divui %99, %96 : index loc(#loc107)
            %101 = polygeist.typeSize f64 : index loc(#loc110)
            %102 = arith.index_cast %101 : index to i64 loc(#loc111)
            %103 = arith.muli %102, %c48_i64 : i64 loc(#loc112)
            %104 = arith.index_cast %103 : i64 to index loc(#loc110)
            %105 = arith.divui %104, %101 : index loc(#loc110)
            %106 = polygeist.typeSize f64 : index loc(#loc113)
            %107 = arith.index_cast %106 : index to i64 loc(#loc114)
            %108 = arith.muli %107, %c48_i64 : i64 loc(#loc115)
            %109 = arith.index_cast %108 : i64 to index loc(#loc113)
            %110 = arith.divui %109, %106 : index loc(#loc113)
            %111 = polygeist.typeSize f64 : index loc(#loc116)
            %112 = arith.index_cast %111 : index to i64 loc(#loc117)
            %113 = arith.muli %112, %c48_i64 : i64 loc(#loc118)
            %114 = arith.index_cast %113 : i64 to index loc(#loc116)
            %115 = arith.divui %114, %111 : index loc(#loc116)
            %116 = polygeist.typeSize f64 : index loc(#loc119)
            %117 = arith.index_cast %116 : index to i64 loc(#loc120)
            %118 = arith.muli %117, %c48_i64 : i64 loc(#loc121)
            %119 = arith.index_cast %118 : i64 to index loc(#loc119)
            %120 = arith.divui %119, %116 : index loc(#loc119)
            affine.for %arg0 loc("/home/raherrer/projects/carts/external/carts-benchmarks/specfem3d/velocity/velocity_update.c":102:3) = 0 to 48 {
              scf.if %true {
                scf.execute_region {
                  %121 = polygeist.subindex %11[%arg0] () : memref<?xmemref<?xmemref<?xf64>>> -> memref<?xmemref<?xmemref<?xf64>>> loc(#loc52)
                  %alloc = memref.alloc(%16) : memref<?xmemref<?xf64>> loc(#loc53)
                  affine.store %alloc, %121[0] : memref<?xmemref<?xmemref<?xf64>>> loc(#loc123)
                  scf.yield loc(#loc)
                } loc(#loc)
              } loc(#loc)
              scf.if %true {
                scf.execute_region {
                  %121 = polygeist.subindex %17[%arg0] () : memref<?xmemref<?xmemref<?xf64>>> -> memref<?xmemref<?xmemref<?xf64>>> loc(#loc56)
                  %alloc = memref.alloc(%22) : memref<?xmemref<?xf64>> loc(#loc57)
                  affine.store %alloc, %121[0] : memref<?xmemref<?xmemref<?xf64>>> loc(#loc124)
                  scf.yield loc(#loc)
                } loc(#loc)
              } loc(#loc)
              scf.if %true {
                scf.execute_region {
                  %121 = polygeist.subindex %23[%arg0] () : memref<?xmemref<?xmemref<?xf64>>> -> memref<?xmemref<?xmemref<?xf64>>> loc(#loc60)
                  %alloc = memref.alloc(%28) : memref<?xmemref<?xf64>> loc(#loc61)
                  affine.store %alloc, %121[0] : memref<?xmemref<?xmemref<?xf64>>> loc(#loc125)
                  scf.yield loc(#loc)
                } loc(#loc)
              } loc(#loc)
              scf.if %true {
                scf.execute_region {
                  %121 = polygeist.subindex %29[%arg0] () : memref<?xmemref<?xmemref<?xf64>>> -> memref<?xmemref<?xmemref<?xf64>>> loc(#loc64)
                  %alloc = memref.alloc(%34) : memref<?xmemref<?xf64>> loc(#loc65)
                  affine.store %alloc, %121[0] : memref<?xmemref<?xmemref<?xf64>>> loc(#loc126)
                  scf.yield loc(#loc)
                } loc(#loc)
              } loc(#loc)
              scf.if %true {
                scf.execute_region {
                  %121 = polygeist.subindex %35[%arg0] () : memref<?xmemref<?xmemref<?xf64>>> -> memref<?xmemref<?xmemref<?xf64>>> loc(#loc68)
                  %alloc = memref.alloc(%40) : memref<?xmemref<?xf64>> loc(#loc69)
                  affine.store %alloc, %121[0] : memref<?xmemref<?xmemref<?xf64>>> loc(#loc127)
                  scf.yield loc(#loc)
                } loc(#loc)
              } loc(#loc)
              scf.if %true {
                scf.execute_region {
                  %121 = polygeist.subindex %41[%arg0] () : memref<?xmemref<?xmemref<?xf64>>> -> memref<?xmemref<?xmemref<?xf64>>> loc(#loc72)
                  %alloc = memref.alloc(%46) : memref<?xmemref<?xf64>> loc(#loc73)
                  affine.store %alloc, %121[0] : memref<?xmemref<?xmemref<?xf64>>> loc(#loc128)
                  scf.yield loc(#loc)
                } loc(#loc)
              } loc(#loc)
              scf.if %true {
                scf.execute_region {
                  %121 = polygeist.subindex %47[%arg0] () : memref<?xmemref<?xmemref<?xf64>>> -> memref<?xmemref<?xmemref<?xf64>>> loc(#loc76)
                  %alloc = memref.alloc(%52) : memref<?xmemref<?xf64>> loc(#loc77)
                  affine.store %alloc, %121[0] : memref<?xmemref<?xmemref<?xf64>>> loc(#loc129)
                  scf.yield loc(#loc)
                } loc(#loc)
              } loc(#loc)
              scf.if %true {
                scf.execute_region {
                  %121 = polygeist.subindex %53[%arg0] () : memref<?xmemref<?xmemref<?xf64>>> -> memref<?xmemref<?xmemref<?xf64>>> loc(#loc80)
                  %alloc = memref.alloc(%58) : memref<?xmemref<?xf64>> loc(#loc81)
                  affine.store %alloc, %121[0] : memref<?xmemref<?xmemref<?xf64>>> loc(#loc130)
                  scf.yield loc(#loc)
                } loc(#loc)
              } loc(#loc)
              scf.if %true {
                scf.execute_region {
                  %121 = polygeist.subindex %59[%arg0] () : memref<?xmemref<?xmemref<?xf64>>> -> memref<?xmemref<?xmemref<?xf64>>> loc(#loc84)
                  %alloc = memref.alloc(%64) : memref<?xmemref<?xf64>> loc(#loc85)
                  affine.store %alloc, %121[0] : memref<?xmemref<?xmemref<?xf64>>> loc(#loc131)
                  scf.yield loc(#loc)
                } loc(#loc)
              } loc(#loc)
              scf.if %true {
                scf.execute_region {
                  %121 = polygeist.subindex %65[%arg0] () : memref<?xmemref<?xmemref<?xf64>>> -> memref<?xmemref<?xmemref<?xf64>>> loc(#loc88)
                  %alloc = memref.alloc(%70) : memref<?xmemref<?xf64>> loc(#loc89)
                  affine.store %alloc, %121[0] : memref<?xmemref<?xmemref<?xf64>>> loc(#loc132)
                  scf.yield loc(#loc)
                } loc(#loc)
              } loc(#loc)
              scf.if %true {
                scf.execute_region {
                  scf.if %true {
                    scf.execute_region {
                      %121 = polygeist.subindex %11[%arg0] () : memref<?xmemref<?xmemref<?xf64>>> -> memref<?xmemref<?xmemref<?xf64>>> loc(#loc133)
                      %122 = polygeist.subindex %17[%arg0] () : memref<?xmemref<?xmemref<?xf64>>> -> memref<?xmemref<?xmemref<?xf64>>> loc(#loc134)
                      %123 = polygeist.subindex %23[%arg0] () : memref<?xmemref<?xmemref<?xf64>>> -> memref<?xmemref<?xmemref<?xf64>>> loc(#loc135)
                      %124 = polygeist.subindex %29[%arg0] () : memref<?xmemref<?xmemref<?xf64>>> -> memref<?xmemref<?xmemref<?xf64>>> loc(#loc136)
                      %125 = polygeist.subindex %35[%arg0] () : memref<?xmemref<?xmemref<?xf64>>> -> memref<?xmemref<?xmemref<?xf64>>> loc(#loc137)
                      %126 = polygeist.subindex %41[%arg0] () : memref<?xmemref<?xmemref<?xf64>>> -> memref<?xmemref<?xmemref<?xf64>>> loc(#loc138)
                      %127 = polygeist.subindex %47[%arg0] () : memref<?xmemref<?xmemref<?xf64>>> -> memref<?xmemref<?xmemref<?xf64>>> loc(#loc139)
                      %128 = polygeist.subindex %53[%arg0] () : memref<?xmemref<?xmemref<?xf64>>> -> memref<?xmemref<?xmemref<?xf64>>> loc(#loc140)
                      %129 = polygeist.subindex %59[%arg0] () : memref<?xmemref<?xmemref<?xf64>>> -> memref<?xmemref<?xmemref<?xf64>>> loc(#loc141)
                      %130 = polygeist.subindex %65[%arg0] () : memref<?xmemref<?xmemref<?xf64>>> -> memref<?xmemref<?xmemref<?xf64>>> loc(#loc142)
                      affine.for %arg1 loc("/home/raherrer/projects/carts/external/carts-benchmarks/specfem3d/velocity/velocity_update.c":113:5) = 0 to 48 {
                        scf.if %true {
                          scf.execute_region {
                            %131 = affine.load %121[0] : memref<?xmemref<?xmemref<?xf64>>> loc(#loc133)
                            %132 = polygeist.subindex %131[%arg1] () : memref<?xmemref<?xf64>> -> memref<?xmemref<?xf64>> loc(#loc133)
                            %alloc = memref.alloc(%75) : memref<?xf64> loc(#loc92)
                            affine.store %alloc, %132[0] : memref<?xmemref<?xf64>> loc(#loc144)
                            scf.yield loc(#loc)
                          } loc(#loc)
                        } loc(#loc)
                        scf.if %true {
                          scf.execute_region {
                            %131 = affine.load %122[0] : memref<?xmemref<?xmemref<?xf64>>> loc(#loc134)
                            %132 = polygeist.subindex %131[%arg1] () : memref<?xmemref<?xf64>> -> memref<?xmemref<?xf64>> loc(#loc134)
                            %alloc = memref.alloc(%80) : memref<?xf64> loc(#loc95)
                            affine.store %alloc, %132[0] : memref<?xmemref<?xf64>> loc(#loc145)
                            scf.yield loc(#loc)
                          } loc(#loc)
                        } loc(#loc)
                        scf.if %true {
                          scf.execute_region {
                            %131 = affine.load %123[0] : memref<?xmemref<?xmemref<?xf64>>> loc(#loc135)
                            %132 = polygeist.subindex %131[%arg1] () : memref<?xmemref<?xf64>> -> memref<?xmemref<?xf64>> loc(#loc135)
                            %alloc = memref.alloc(%85) : memref<?xf64> loc(#loc98)
                            affine.store %alloc, %132[0] : memref<?xmemref<?xf64>> loc(#loc146)
                            scf.yield loc(#loc)
                          } loc(#loc)
                        } loc(#loc)
                        scf.if %true {
                          scf.execute_region {
                            %131 = affine.load %124[0] : memref<?xmemref<?xmemref<?xf64>>> loc(#loc136)
                            %132 = polygeist.subindex %131[%arg1] () : memref<?xmemref<?xf64>> -> memref<?xmemref<?xf64>> loc(#loc136)
                            %alloc = memref.alloc(%90) : memref<?xf64> loc(#loc101)
                            affine.store %alloc, %132[0] : memref<?xmemref<?xf64>> loc(#loc147)
                            scf.yield loc(#loc)
                          } loc(#loc)
                        } loc(#loc)
                        scf.if %true {
                          scf.execute_region {
                            %131 = affine.load %125[0] : memref<?xmemref<?xmemref<?xf64>>> loc(#loc137)
                            %132 = polygeist.subindex %131[%arg1] () : memref<?xmemref<?xf64>> -> memref<?xmemref<?xf64>> loc(#loc137)
                            %alloc = memref.alloc(%95) : memref<?xf64> loc(#loc104)
                            affine.store %alloc, %132[0] : memref<?xmemref<?xf64>> loc(#loc148)
                            scf.yield loc(#loc)
                          } loc(#loc)
                        } loc(#loc)
                        scf.if %true {
                          scf.execute_region {
                            %131 = affine.load %126[0] : memref<?xmemref<?xmemref<?xf64>>> loc(#loc138)
                            %132 = polygeist.subindex %131[%arg1] () : memref<?xmemref<?xf64>> -> memref<?xmemref<?xf64>> loc(#loc138)
                            %alloc = memref.alloc(%100) : memref<?xf64> loc(#loc107)
                            affine.store %alloc, %132[0] : memref<?xmemref<?xf64>> loc(#loc149)
                            scf.yield loc(#loc)
                          } loc(#loc)
                        } loc(#loc)
                        scf.if %true {
                          scf.execute_region {
                            %131 = affine.load %127[0] : memref<?xmemref<?xmemref<?xf64>>> loc(#loc139)
                            %132 = polygeist.subindex %131[%arg1] () : memref<?xmemref<?xf64>> -> memref<?xmemref<?xf64>> loc(#loc139)
                            %alloc = memref.alloc(%105) : memref<?xf64> loc(#loc110)
                            affine.store %alloc, %132[0] : memref<?xmemref<?xf64>> loc(#loc150)
                            scf.yield loc(#loc)
                          } loc(#loc)
                        } loc(#loc)
                        scf.if %true {
                          scf.execute_region {
                            %131 = affine.load %128[0] : memref<?xmemref<?xmemref<?xf64>>> loc(#loc140)
                            %132 = polygeist.subindex %131[%arg1] () : memref<?xmemref<?xf64>> -> memref<?xmemref<?xf64>> loc(#loc140)
                            %alloc = memref.alloc(%110) : memref<?xf64> loc(#loc113)
                            affine.store %alloc, %132[0] : memref<?xmemref<?xf64>> loc(#loc151)
                            scf.yield loc(#loc)
                          } loc(#loc)
                        } loc(#loc)
                        scf.if %true {
                          scf.execute_region {
                            %131 = affine.load %129[0] : memref<?xmemref<?xmemref<?xf64>>> loc(#loc141)
                            %132 = polygeist.subindex %131[%arg1] () : memref<?xmemref<?xf64>> -> memref<?xmemref<?xf64>> loc(#loc141)
                            %alloc = memref.alloc(%115) : memref<?xf64> loc(#loc116)
                            affine.store %alloc, %132[0] : memref<?xmemref<?xf64>> loc(#loc152)
                            scf.yield loc(#loc)
                          } loc(#loc)
                        } loc(#loc)
                        scf.if %true {
                          scf.execute_region {
                            %131 = affine.load %130[0] : memref<?xmemref<?xmemref<?xf64>>> loc(#loc142)
                            %132 = polygeist.subindex %131[%arg1] () : memref<?xmemref<?xf64>> -> memref<?xmemref<?xf64>> loc(#loc142)
                            %alloc = memref.alloc(%120) : memref<?xf64> loc(#loc119)
                            affine.store %alloc, %132[0] : memref<?xmemref<?xf64>> loc(#loc153)
                            scf.yield loc(#loc)
                          } loc(#loc)
                        } loc(#loc)
                      } loc(#loc143)
                      scf.yield loc(#loc)
                    } loc(#loc)
                  } loc(#loc)
                  scf.yield loc(#loc)
                } loc(#loc)
              } loc(#loc)
            } loc(#loc122)
            scf.yield loc(#loc)
          } loc(#loc)
        } loc(#loc)
        scf.yield loc(#loc)
      } loc(#loc)
    } loc(#loc)
    scf.if %true {
      scf.execute_region {
        %11 = affine.load %alloca_9[0] : memref<1xmemref<?xmemref<?xmemref<?xf64>>>> loc(#loc154)
        %12 = affine.load %alloca_8[0] : memref<1xmemref<?xmemref<?xmemref<?xf64>>>> loc(#loc155)
        %13 = affine.load %alloca_7[0] : memref<1xmemref<?xmemref<?xmemref<?xf64>>>> loc(#loc156)
        %14 = affine.load %alloca_6[0] : memref<1xmemref<?xmemref<?xmemref<?xf64>>>> loc(#loc157)
        %15 = affine.load %alloca_5[0] : memref<1xmemref<?xmemref<?xmemref<?xf64>>>> loc(#loc158)
        %16 = affine.load %alloca_4[0] : memref<1xmemref<?xmemref<?xmemref<?xf64>>>> loc(#loc159)
        %17 = affine.load %alloca_3[0] : memref<1xmemref<?xmemref<?xmemref<?xf64>>>> loc(#loc160)
        %18 = affine.load %alloca_2[0] : memref<1xmemref<?xmemref<?xmemref<?xf64>>>> loc(#loc161)
        %19 = affine.load %alloca_1[0] : memref<1xmemref<?xmemref<?xmemref<?xf64>>>> loc(#loc162)
        %20 = affine.load %alloca_0[0] : memref<1xmemref<?xmemref<?xmemref<?xf64>>>> loc(#loc163)
        func.call @init(%11, %12, %13, %14, %15, %16, %17, %18, %19, %20) : (memref<?xmemref<?xmemref<?xf64>>>, memref<?xmemref<?xmemref<?xf64>>>, memref<?xmemref<?xmemref<?xf64>>>, memref<?xmemref<?xmemref<?xf64>>>, memref<?xmemref<?xmemref<?xf64>>>, memref<?xmemref<?xmemref<?xf64>>>, memref<?xmemref<?xmemref<?xf64>>>, memref<?xmemref<?xmemref<?xf64>>>, memref<?xmemref<?xmemref<?xf64>>>, memref<?xmemref<?xmemref<?xf64>>>) -> () loc(#loc164)
        scf.yield loc(#loc)
      } loc(#loc)
    } loc(#loc)
    scf.if %true {
      scf.execute_region {
        %11 = polygeist.pointer2memref %2 : !llvm.ptr to memref<?xi8> loc(#loc165)
        func.call @carts_phase_timer_stop(%11) : (memref<?xi8>) -> () loc(#loc165)
        scf.yield loc(#loc)
      } loc(#loc)
    } loc(#loc)
    scf.if %true {
      scf.execute_region {
        %11 = polygeist.pointer2memref %3 : !llvm.ptr to memref<?xi8> loc(#loc166)
        func.call @carts_kernel_timer_start(%11) : (memref<?xi8>) -> () loc(#loc166)
        scf.yield loc(#loc)
      } loc(#loc)
    } loc(#loc)
    scf.if %true {
      scf.execute_region {
        scf.if %true {
          scf.execute_region {
            %11 = polygeist.pointer2memref %3 : !llvm.ptr to memref<?xi8> loc(#loc167)
            affine.for %arg0 loc("/home/raherrer/projects/carts/external/carts-benchmarks/specfem3d/velocity/velocity_update.c":132:3) = 0 to 1 {
              scf.if %true {
                scf.execute_region {
                  %12 = affine.load %alloca_9[0] : memref<1xmemref<?xmemref<?xmemref<?xf64>>>> loc(#loc169)
                  %13 = affine.load %alloca_8[0] : memref<1xmemref<?xmemref<?xmemref<?xf64>>>> loc(#loc170)
                  %14 = affine.load %alloca_7[0] : memref<1xmemref<?xmemref<?xmemref<?xf64>>>> loc(#loc171)
                  %15 = affine.load %alloca_6[0] : memref<1xmemref<?xmemref<?xmemref<?xf64>>>> loc(#loc172)
                  %16 = affine.load %alloca_5[0] : memref<1xmemref<?xmemref<?xmemref<?xf64>>>> loc(#loc173)
                  %17 = affine.load %alloca_4[0] : memref<1xmemref<?xmemref<?xmemref<?xf64>>>> loc(#loc174)
                  %18 = affine.load %alloca_3[0] : memref<1xmemref<?xmemref<?xmemref<?xf64>>>> loc(#loc175)
                  %19 = affine.load %alloca_2[0] : memref<1xmemref<?xmemref<?xmemref<?xf64>>>> loc(#loc176)
                  %20 = affine.load %alloca_1[0] : memref<1xmemref<?xmemref<?xmemref<?xf64>>>> loc(#loc177)
                  %21 = affine.load %alloca_0[0] : memref<1xmemref<?xmemref<?xmemref<?xf64>>>> loc(#loc178)
                  func.call @specfem_velocity_update(%12, %13, %14, %15, %16, %17, %18, %19, %20, %21) : (memref<?xmemref<?xmemref<?xf64>>>, memref<?xmemref<?xmemref<?xf64>>>, memref<?xmemref<?xmemref<?xf64>>>, memref<?xmemref<?xmemref<?xf64>>>, memref<?xmemref<?xmemref<?xf64>>>, memref<?xmemref<?xmemref<?xf64>>>, memref<?xmemref<?xmemref<?xf64>>>, memref<?xmemref<?xmemref<?xf64>>>, memref<?xmemref<?xmemref<?xf64>>>, memref<?xmemref<?xmemref<?xf64>>>) -> () loc(#loc179)
                  scf.yield loc(#loc)
                } loc(#loc)
              } loc(#loc)
              scf.if %true {
                scf.execute_region {
                  func.call @carts_kernel_timer_accum(%11) : (memref<?xi8>) -> () loc(#loc167)
                  scf.yield loc(#loc)
                } loc(#loc)
              } loc(#loc)
            } loc(#loc168)
            scf.yield loc(#loc)
          } loc(#loc)
        } loc(#loc)
        scf.yield loc(#loc)
      } loc(#loc)
    } loc(#loc)
    scf.if %true {
      scf.execute_region {
        %11 = polygeist.pointer2memref %3 : !llvm.ptr to memref<?xi8> loc(#loc180)
        func.call @carts_kernel_timer_print(%11) : (memref<?xi8>) -> () loc(#loc180)
        scf.yield loc(#loc)
      } loc(#loc)
    } loc(#loc)
    scf.if %true {
      scf.execute_region {
        %11 = polygeist.pointer2memref %1 : !llvm.ptr to memref<?xi8> loc(#loc181)
        %12 = polygeist.pointer2memref %3 : !llvm.ptr to memref<?xi8> loc(#loc181)
        func.call @carts_phase_timer_start(%11, %12) : (memref<?xi8>, memref<?xi8>) -> () loc(#loc181)
        scf.yield loc(#loc)
      } loc(#loc)
    } loc(#loc)
    scf.if %true {
      scf.execute_region {
        scf.if %true {
          scf.execute_region {
            affine.store %cst, %alloca[0] : memref<1xf64> loc(#loc8)
            scf.yield loc(#loc)
          } loc(#loc)
        } loc(#loc)
        scf.yield loc(#loc)
      } loc(#loc)
    } loc(#loc)
    %6 = scf.if %true -> (i32) {
      %11 = scf.execute_region -> i32 {
        %12 = scf.if %true -> (i32) {
          %13 = scf.execute_region -> i32 {
            scf.yield %c48_i32 : i32 loc(#loc)
          } loc(#loc)
          scf.yield %13 : i32 loc(#loc)
        } else {
          scf.yield %4 : i32 loc(#loc)
        } loc(#loc)
        scf.yield %12 : i32 loc(#loc)
      } loc(#loc)
      scf.yield %11 : i32 loc(#loc)
    } else {
      scf.yield %4 : i32 loc(#loc)
    } loc(#loc)
    %7 = scf.if %true -> (i32) {
      %11 = scf.execute_region -> i32 {
        %12 = scf.if %true -> (i32) {
          %13 = scf.execute_region -> i32 {
            %14 = arith.cmpi sgt, %6, %c48_i32 : i32 loc(#loc182)
            %15 = scf.if %14 -> (i32) {
              scf.yield %c48_i32 : i32 loc(#loc183)
            } else {
              scf.yield %6 : i32 loc(#loc183)
            } loc(#loc183)
            scf.yield %15 : i32 loc(#loc)
          } loc(#loc)
          scf.yield %13 : i32 loc(#loc)
        } else {
          scf.yield %6 : i32 loc(#loc)
        } loc(#loc)
        scf.yield %12 : i32 loc(#loc)
      } loc(#loc)
      scf.yield %11 : i32 loc(#loc)
    } else {
      scf.yield %6 : i32 loc(#loc)
    } loc(#loc)
    %8 = scf.if %true -> (i32) {
      %11 = scf.execute_region -> i32 {
        %12 = scf.if %true -> (i32) {
          %13 = scf.execute_region -> i32 {
            %14 = arith.cmpi sgt, %7, %c48_i32 : i32 loc(#loc184)
            %15 = scf.if %14 -> (i32) {
              scf.yield %c48_i32 : i32 loc(#loc185)
            } else {
              scf.yield %7 : i32 loc(#loc185)
            } loc(#loc185)
            scf.yield %15 : i32 loc(#loc)
          } loc(#loc)
          scf.yield %13 : i32 loc(#loc)
        } else {
          scf.yield %7 : i32 loc(#loc)
        } loc(#loc)
        scf.yield %12 : i32 loc(#loc)
      } loc(#loc)
      scf.yield %11 : i32 loc(#loc)
    } else {
      scf.yield %7 : i32 loc(#loc)
    } loc(#loc)
    %9 = arith.index_cast %8 : i32 to index loc(#loc)
    scf.if %true {
      scf.execute_region {
        scf.if %true {
          scf.execute_region {
            %11 = affine.load %alloca_9[0] : memref<1xmemref<?xmemref<?xmemref<?xf64>>>> loc(#loc186)
            %12 = affine.load %alloca_8[0] : memref<1xmemref<?xmemref<?xmemref<?xf64>>>> loc(#loc187)
            %13 = affine.load %alloca_7[0] : memref<1xmemref<?xmemref<?xmemref<?xf64>>>> loc(#loc188)
            affine.for %arg0 loc("/home/raherrer/projects/carts/external/carts-benchmarks/specfem3d/velocity/velocity_update.c":145:3) = 0 to %9 {
              scf.if %true {
                scf.execute_region {
                  %14 = polygeist.subindex %11[%arg0] () : memref<?xmemref<?xmemref<?xf64>>> -> memref<?xmemref<?xmemref<?xf64>>> loc(#loc186)
                  %15 = affine.load %14[0] : memref<?xmemref<?xmemref<?xf64>>> loc(#loc186)
                  %16 = polygeist.subindex %15[%arg0] () : memref<?xmemref<?xf64>> -> memref<?xmemref<?xf64>> loc(#loc186)
                  %17 = affine.load %16[0] : memref<?xmemref<?xf64>> loc(#loc186)
                  %18 = polygeist.subindex %17[%arg0] () : memref<?xf64> -> memref<?xf64> loc(#loc186)
                  %19 = affine.load %18[0] : memref<?xf64> loc(#loc186)
                  %20 = polygeist.subindex %12[%arg0] () : memref<?xmemref<?xmemref<?xf64>>> -> memref<?xmemref<?xmemref<?xf64>>> loc(#loc187)
                  %21 = affine.load %20[0] : memref<?xmemref<?xmemref<?xf64>>> loc(#loc187)
                  %22 = polygeist.subindex %21[%arg0] () : memref<?xmemref<?xf64>> -> memref<?xmemref<?xf64>> loc(#loc187)
                  %23 = affine.load %22[0] : memref<?xmemref<?xf64>> loc(#loc187)
                  %24 = polygeist.subindex %23[%arg0] () : memref<?xf64> -> memref<?xf64> loc(#loc187)
                  %25 = affine.load %24[0] : memref<?xf64> loc(#loc187)
                  %26 = arith.addf %19, %25 : f64 loc(#loc190)
                  %27 = polygeist.subindex %13[%arg0] () : memref<?xmemref<?xmemref<?xf64>>> -> memref<?xmemref<?xmemref<?xf64>>> loc(#loc188)
                  %28 = affine.load %27[0] : memref<?xmemref<?xmemref<?xf64>>> loc(#loc188)
                  %29 = polygeist.subindex %28[%arg0] () : memref<?xmemref<?xf64>> -> memref<?xmemref<?xf64>> loc(#loc188)
                  %30 = affine.load %29[0] : memref<?xmemref<?xf64>> loc(#loc188)
                  %31 = polygeist.subindex %30[%arg0] () : memref<?xf64> -> memref<?xf64> loc(#loc188)
                  %32 = affine.load %31[0] : memref<?xf64> loc(#loc188)
                  %33 = arith.addf %26, %32 : f64 loc(#loc191)
                  %34 = affine.load %alloca[0] : memref<1xf64> loc(#loc192)
                  %35 = arith.addf %34, %33 : f64 loc(#loc192)
                  affine.store %35, %alloca[0] : memref<1xf64> loc(#loc192)
                  scf.yield loc(#loc)
                } loc(#loc)
              } loc(#loc)
            } loc(#loc189)
            scf.yield loc(#loc)
          } loc(#loc)
        } loc(#loc)
        scf.yield loc(#loc)
      } loc(#loc)
    } loc(#loc)
    scf.if %true {
      scf.execute_region {
        %11 = affine.load %alloca[0] : memref<1xf64> loc(#loc193)
        func.call @carts_bench_checksum_d(%11) : (f64) -> () loc(#loc194)
        scf.yield loc(#loc)
      } loc(#loc)
    } loc(#loc)
    scf.if %true {
      scf.execute_region {
        %11 = polygeist.pointer2memref %1 : !llvm.ptr to memref<?xi8> loc(#loc195)
        func.call @carts_phase_timer_stop(%11) : (memref<?xi8>) -> () loc(#loc195)
        scf.yield loc(#loc)
      } loc(#loc)
    } loc(#loc)
    scf.if %true {
      scf.execute_region {
        %11 = polygeist.pointer2memref %0 : !llvm.ptr to memref<?xi8> loc(#loc196)
        %12 = polygeist.pointer2memref %3 : !llvm.ptr to memref<?xi8> loc(#loc196)
        func.call @carts_phase_timer_start(%11, %12) : (memref<?xi8>, memref<?xi8>) -> () loc(#loc196)
        scf.yield loc(#loc)
      } loc(#loc)
    } loc(#loc)
    scf.if %true {
      scf.execute_region {
        scf.if %true {
          scf.execute_region {
            %11 = affine.load %alloca_9[0] : memref<1xmemref<?xmemref<?xmemref<?xf64>>>> loc(#loc197)
            %12 = affine.load %alloca_8[0] : memref<1xmemref<?xmemref<?xmemref<?xf64>>>> loc(#loc198)
            %13 = affine.load %alloca_7[0] : memref<1xmemref<?xmemref<?xmemref<?xf64>>>> loc(#loc199)
            %14 = affine.load %alloca_6[0] : memref<1xmemref<?xmemref<?xmemref<?xf64>>>> loc(#loc200)
            %15 = affine.load %alloca_5[0] : memref<1xmemref<?xmemref<?xmemref<?xf64>>>> loc(#loc201)
            %16 = affine.load %alloca_4[0] : memref<1xmemref<?xmemref<?xmemref<?xf64>>>> loc(#loc202)
            %17 = affine.load %alloca_3[0] : memref<1xmemref<?xmemref<?xmemref<?xf64>>>> loc(#loc203)
            %18 = affine.load %alloca_2[0] : memref<1xmemref<?xmemref<?xmemref<?xf64>>>> loc(#loc204)
            %19 = affine.load %alloca_1[0] : memref<1xmemref<?xmemref<?xmemref<?xf64>>>> loc(#loc205)
            %20 = affine.load %alloca_0[0] : memref<1xmemref<?xmemref<?xmemref<?xf64>>>> loc(#loc206)
            affine.for %arg0 loc("/home/raherrer/projects/carts/external/carts-benchmarks/specfem3d/velocity/velocity_update.c":155:3) = 0 to 48 {
              scf.if %true {
                scf.execute_region {
                  scf.if %true {
                    scf.execute_region {
                      %21 = polygeist.subindex %11[%arg0] () : memref<?xmemref<?xmemref<?xf64>>> -> memref<?xmemref<?xmemref<?xf64>>> loc(#loc197)
                      %22 = polygeist.subindex %12[%arg0] () : memref<?xmemref<?xmemref<?xf64>>> -> memref<?xmemref<?xmemref<?xf64>>> loc(#loc198)
                      %23 = polygeist.subindex %13[%arg0] () : memref<?xmemref<?xmemref<?xf64>>> -> memref<?xmemref<?xmemref<?xf64>>> loc(#loc199)
                      %24 = polygeist.subindex %14[%arg0] () : memref<?xmemref<?xmemref<?xf64>>> -> memref<?xmemref<?xmemref<?xf64>>> loc(#loc200)
                      %25 = polygeist.subindex %15[%arg0] () : memref<?xmemref<?xmemref<?xf64>>> -> memref<?xmemref<?xmemref<?xf64>>> loc(#loc201)
                      %26 = polygeist.subindex %16[%arg0] () : memref<?xmemref<?xmemref<?xf64>>> -> memref<?xmemref<?xmemref<?xf64>>> loc(#loc202)
                      %27 = polygeist.subindex %17[%arg0] () : memref<?xmemref<?xmemref<?xf64>>> -> memref<?xmemref<?xmemref<?xf64>>> loc(#loc203)
                      %28 = polygeist.subindex %18[%arg0] () : memref<?xmemref<?xmemref<?xf64>>> -> memref<?xmemref<?xmemref<?xf64>>> loc(#loc204)
                      %29 = polygeist.subindex %19[%arg0] () : memref<?xmemref<?xmemref<?xf64>>> -> memref<?xmemref<?xmemref<?xf64>>> loc(#loc205)
                      %30 = polygeist.subindex %20[%arg0] () : memref<?xmemref<?xmemref<?xf64>>> -> memref<?xmemref<?xmemref<?xf64>>> loc(#loc206)
                      affine.for %arg1 loc("/home/raherrer/projects/carts/external/carts-benchmarks/specfem3d/velocity/velocity_update.c":156:5) = 0 to 48 {
                        scf.if %true {
                          scf.execute_region {
                            %31 = affine.load %21[0] : memref<?xmemref<?xmemref<?xf64>>> loc(#loc197)
                            %32 = polygeist.subindex %31[%arg1] () : memref<?xmemref<?xf64>> -> memref<?xmemref<?xf64>> loc(#loc197)
                            %33 = affine.load %32[0] : memref<?xmemref<?xf64>> loc(#loc209)
                            memref.dealloc %33 : memref<?xf64> loc(#loc209)
                            scf.yield loc(#loc)
                          } loc(#loc)
                        } loc(#loc)
                        scf.if %true {
                          scf.execute_region {
                            %31 = affine.load %22[0] : memref<?xmemref<?xmemref<?xf64>>> loc(#loc198)
                            %32 = polygeist.subindex %31[%arg1] () : memref<?xmemref<?xf64>> -> memref<?xmemref<?xf64>> loc(#loc198)
                            %33 = affine.load %32[0] : memref<?xmemref<?xf64>> loc(#loc210)
                            memref.dealloc %33 : memref<?xf64> loc(#loc210)
                            scf.yield loc(#loc)
                          } loc(#loc)
                        } loc(#loc)
                        scf.if %true {
                          scf.execute_region {
                            %31 = affine.load %23[0] : memref<?xmemref<?xmemref<?xf64>>> loc(#loc199)
                            %32 = polygeist.subindex %31[%arg1] () : memref<?xmemref<?xf64>> -> memref<?xmemref<?xf64>> loc(#loc199)
                            %33 = affine.load %32[0] : memref<?xmemref<?xf64>> loc(#loc211)
                            memref.dealloc %33 : memref<?xf64> loc(#loc211)
                            scf.yield loc(#loc)
                          } loc(#loc)
                        } loc(#loc)
                        scf.if %true {
                          scf.execute_region {
                            %31 = affine.load %24[0] : memref<?xmemref<?xmemref<?xf64>>> loc(#loc200)
                            %32 = polygeist.subindex %31[%arg1] () : memref<?xmemref<?xf64>> -> memref<?xmemref<?xf64>> loc(#loc200)
                            %33 = affine.load %32[0] : memref<?xmemref<?xf64>> loc(#loc212)
                            memref.dealloc %33 : memref<?xf64> loc(#loc212)
                            scf.yield loc(#loc)
                          } loc(#loc)
                        } loc(#loc)
                        scf.if %true {
                          scf.execute_region {
                            %31 = affine.load %25[0] : memref<?xmemref<?xmemref<?xf64>>> loc(#loc201)
                            %32 = polygeist.subindex %31[%arg1] () : memref<?xmemref<?xf64>> -> memref<?xmemref<?xf64>> loc(#loc201)
                            %33 = affine.load %32[0] : memref<?xmemref<?xf64>> loc(#loc213)
                            memref.dealloc %33 : memref<?xf64> loc(#loc213)
                            scf.yield loc(#loc)
                          } loc(#loc)
                        } loc(#loc)
                        scf.if %true {
                          scf.execute_region {
                            %31 = affine.load %26[0] : memref<?xmemref<?xmemref<?xf64>>> loc(#loc202)
                            %32 = polygeist.subindex %31[%arg1] () : memref<?xmemref<?xf64>> -> memref<?xmemref<?xf64>> loc(#loc202)
                            %33 = affine.load %32[0] : memref<?xmemref<?xf64>> loc(#loc214)
                            memref.dealloc %33 : memref<?xf64> loc(#loc214)
                            scf.yield loc(#loc)
                          } loc(#loc)
                        } loc(#loc)
                        scf.if %true {
                          scf.execute_region {
                            %31 = affine.load %27[0] : memref<?xmemref<?xmemref<?xf64>>> loc(#loc203)
                            %32 = polygeist.subindex %31[%arg1] () : memref<?xmemref<?xf64>> -> memref<?xmemref<?xf64>> loc(#loc203)
                            %33 = affine.load %32[0] : memref<?xmemref<?xf64>> loc(#loc215)
                            memref.dealloc %33 : memref<?xf64> loc(#loc215)
                            scf.yield loc(#loc)
                          } loc(#loc)
                        } loc(#loc)
                        scf.if %true {
                          scf.execute_region {
                            %31 = affine.load %28[0] : memref<?xmemref<?xmemref<?xf64>>> loc(#loc204)
                            %32 = polygeist.subindex %31[%arg1] () : memref<?xmemref<?xf64>> -> memref<?xmemref<?xf64>> loc(#loc204)
                            %33 = affine.load %32[0] : memref<?xmemref<?xf64>> loc(#loc216)
                            memref.dealloc %33 : memref<?xf64> loc(#loc216)
                            scf.yield loc(#loc)
                          } loc(#loc)
                        } loc(#loc)
                        scf.if %true {
                          scf.execute_region {
                            %31 = affine.load %29[0] : memref<?xmemref<?xmemref<?xf64>>> loc(#loc205)
                            %32 = polygeist.subindex %31[%arg1] () : memref<?xmemref<?xf64>> -> memref<?xmemref<?xf64>> loc(#loc205)
                            %33 = affine.load %32[0] : memref<?xmemref<?xf64>> loc(#loc217)
                            memref.dealloc %33 : memref<?xf64> loc(#loc217)
                            scf.yield loc(#loc)
                          } loc(#loc)
                        } loc(#loc)
                        scf.if %true {
                          scf.execute_region {
                            %31 = affine.load %30[0] : memref<?xmemref<?xmemref<?xf64>>> loc(#loc206)
                            %32 = polygeist.subindex %31[%arg1] () : memref<?xmemref<?xf64>> -> memref<?xmemref<?xf64>> loc(#loc206)
                            %33 = affine.load %32[0] : memref<?xmemref<?xf64>> loc(#loc218)
                            memref.dealloc %33 : memref<?xf64> loc(#loc218)
                            scf.yield loc(#loc)
                          } loc(#loc)
                        } loc(#loc)
                      } loc(#loc208)
                      scf.yield loc(#loc)
                    } loc(#loc)
                  } loc(#loc)
                  scf.yield loc(#loc)
                } loc(#loc)
              } loc(#loc)
              scf.if %true {
                scf.execute_region {
                  %21 = polygeist.subindex %11[%arg0] () : memref<?xmemref<?xmemref<?xf64>>> -> memref<?xmemref<?xmemref<?xf64>>> loc(#loc219)
                  %22 = affine.load %21[0] : memref<?xmemref<?xmemref<?xf64>>> loc(#loc220)
                  memref.dealloc %22 : memref<?xmemref<?xf64>> loc(#loc220)
                  scf.yield loc(#loc)
                } loc(#loc)
              } loc(#loc)
              scf.if %true {
                scf.execute_region {
                  %21 = polygeist.subindex %12[%arg0] () : memref<?xmemref<?xmemref<?xf64>>> -> memref<?xmemref<?xmemref<?xf64>>> loc(#loc221)
                  %22 = affine.load %21[0] : memref<?xmemref<?xmemref<?xf64>>> loc(#loc222)
                  memref.dealloc %22 : memref<?xmemref<?xf64>> loc(#loc222)
                  scf.yield loc(#loc)
                } loc(#loc)
              } loc(#loc)
              scf.if %true {
                scf.execute_region {
                  %21 = polygeist.subindex %13[%arg0] () : memref<?xmemref<?xmemref<?xf64>>> -> memref<?xmemref<?xmemref<?xf64>>> loc(#loc223)
                  %22 = affine.load %21[0] : memref<?xmemref<?xmemref<?xf64>>> loc(#loc224)
                  memref.dealloc %22 : memref<?xmemref<?xf64>> loc(#loc224)
                  scf.yield loc(#loc)
                } loc(#loc)
              } loc(#loc)
              scf.if %true {
                scf.execute_region {
                  %21 = polygeist.subindex %14[%arg0] () : memref<?xmemref<?xmemref<?xf64>>> -> memref<?xmemref<?xmemref<?xf64>>> loc(#loc225)
                  %22 = affine.load %21[0] : memref<?xmemref<?xmemref<?xf64>>> loc(#loc226)
                  memref.dealloc %22 : memref<?xmemref<?xf64>> loc(#loc226)
                  scf.yield loc(#loc)
                } loc(#loc)
              } loc(#loc)
              scf.if %true {
                scf.execute_region {
                  %21 = polygeist.subindex %15[%arg0] () : memref<?xmemref<?xmemref<?xf64>>> -> memref<?xmemref<?xmemref<?xf64>>> loc(#loc227)
                  %22 = affine.load %21[0] : memref<?xmemref<?xmemref<?xf64>>> loc(#loc228)
                  memref.dealloc %22 : memref<?xmemref<?xf64>> loc(#loc228)
                  scf.yield loc(#loc)
                } loc(#loc)
              } loc(#loc)
              scf.if %true {
                scf.execute_region {
                  %21 = polygeist.subindex %16[%arg0] () : memref<?xmemref<?xmemref<?xf64>>> -> memref<?xmemref<?xmemref<?xf64>>> loc(#loc229)
                  %22 = affine.load %21[0] : memref<?xmemref<?xmemref<?xf64>>> loc(#loc230)
                  memref.dealloc %22 : memref<?xmemref<?xf64>> loc(#loc230)
                  scf.yield loc(#loc)
                } loc(#loc)
              } loc(#loc)
              scf.if %true {
                scf.execute_region {
                  %21 = polygeist.subindex %17[%arg0] () : memref<?xmemref<?xmemref<?xf64>>> -> memref<?xmemref<?xmemref<?xf64>>> loc(#loc231)
                  %22 = affine.load %21[0] : memref<?xmemref<?xmemref<?xf64>>> loc(#loc232)
                  memref.dealloc %22 : memref<?xmemref<?xf64>> loc(#loc232)
                  scf.yield loc(#loc)
                } loc(#loc)
              } loc(#loc)
              scf.if %true {
                scf.execute_region {
                  %21 = polygeist.subindex %18[%arg0] () : memref<?xmemref<?xmemref<?xf64>>> -> memref<?xmemref<?xmemref<?xf64>>> loc(#loc233)
                  %22 = affine.load %21[0] : memref<?xmemref<?xmemref<?xf64>>> loc(#loc234)
                  memref.dealloc %22 : memref<?xmemref<?xf64>> loc(#loc234)
                  scf.yield loc(#loc)
                } loc(#loc)
              } loc(#loc)
              scf.if %true {
                scf.execute_region {
                  %21 = polygeist.subindex %19[%arg0] () : memref<?xmemref<?xmemref<?xf64>>> -> memref<?xmemref<?xmemref<?xf64>>> loc(#loc235)
                  %22 = affine.load %21[0] : memref<?xmemref<?xmemref<?xf64>>> loc(#loc236)
                  memref.dealloc %22 : memref<?xmemref<?xf64>> loc(#loc236)
                  scf.yield loc(#loc)
                } loc(#loc)
              } loc(#loc)
              scf.if %true {
                scf.execute_region {
                  %21 = polygeist.subindex %20[%arg0] () : memref<?xmemref<?xmemref<?xf64>>> -> memref<?xmemref<?xmemref<?xf64>>> loc(#loc237)
                  %22 = affine.load %21[0] : memref<?xmemref<?xmemref<?xf64>>> loc(#loc238)
                  memref.dealloc %22 : memref<?xmemref<?xf64>> loc(#loc238)
                  scf.yield loc(#loc)
                } loc(#loc)
              } loc(#loc)
            } loc(#loc207)
            scf.yield loc(#loc)
          } loc(#loc)
        } loc(#loc)
        scf.yield loc(#loc)
      } loc(#loc)
    } loc(#loc)
    scf.if %true {
      scf.execute_region {
        %11 = affine.load %alloca_9[0] : memref<1xmemref<?xmemref<?xmemref<?xf64>>>> loc(#loc239)
        memref.dealloc %11 : memref<?xmemref<?xmemref<?xf64>>> loc(#loc239)
        scf.yield loc(#loc)
      } loc(#loc)
    } loc(#loc)
    scf.if %true {
      scf.execute_region {
        %11 = affine.load %alloca_8[0] : memref<1xmemref<?xmemref<?xmemref<?xf64>>>> loc(#loc240)
        memref.dealloc %11 : memref<?xmemref<?xmemref<?xf64>>> loc(#loc240)
        scf.yield loc(#loc)
      } loc(#loc)
    } loc(#loc)
    scf.if %true {
      scf.execute_region {
        %11 = affine.load %alloca_7[0] : memref<1xmemref<?xmemref<?xmemref<?xf64>>>> loc(#loc241)
        memref.dealloc %11 : memref<?xmemref<?xmemref<?xf64>>> loc(#loc241)
        scf.yield loc(#loc)
      } loc(#loc)
    } loc(#loc)
    scf.if %true {
      scf.execute_region {
        %11 = affine.load %alloca_6[0] : memref<1xmemref<?xmemref<?xmemref<?xf64>>>> loc(#loc242)
        memref.dealloc %11 : memref<?xmemref<?xmemref<?xf64>>> loc(#loc242)
        scf.yield loc(#loc)
      } loc(#loc)
    } loc(#loc)
    scf.if %true {
      scf.execute_region {
        %11 = affine.load %alloca_5[0] : memref<1xmemref<?xmemref<?xmemref<?xf64>>>> loc(#loc243)
        memref.dealloc %11 : memref<?xmemref<?xmemref<?xf64>>> loc(#loc243)
        scf.yield loc(#loc)
      } loc(#loc)
    } loc(#loc)
    scf.if %true {
      scf.execute_region {
        %11 = affine.load %alloca_4[0] : memref<1xmemref<?xmemref<?xmemref<?xf64>>>> loc(#loc244)
        memref.dealloc %11 : memref<?xmemref<?xmemref<?xf64>>> loc(#loc244)
        scf.yield loc(#loc)
      } loc(#loc)
    } loc(#loc)
    scf.if %true {
      scf.execute_region {
        %11 = affine.load %alloca_3[0] : memref<1xmemref<?xmemref<?xmemref<?xf64>>>> loc(#loc245)
        memref.dealloc %11 : memref<?xmemref<?xmemref<?xf64>>> loc(#loc245)
        scf.yield loc(#loc)
      } loc(#loc)
    } loc(#loc)
    scf.if %true {
      scf.execute_region {
        %11 = affine.load %alloca_2[0] : memref<1xmemref<?xmemref<?xmemref<?xf64>>>> loc(#loc246)
        memref.dealloc %11 : memref<?xmemref<?xmemref<?xf64>>> loc(#loc246)
        scf.yield loc(#loc)
      } loc(#loc)
    } loc(#loc)
    scf.if %true {
      scf.execute_region {
        %11 = affine.load %alloca_1[0] : memref<1xmemref<?xmemref<?xmemref<?xf64>>>> loc(#loc247)
        memref.dealloc %11 : memref<?xmemref<?xmemref<?xf64>>> loc(#loc247)
        scf.yield loc(#loc)
      } loc(#loc)
    } loc(#loc)
    scf.if %true {
      scf.execute_region {
        %11 = affine.load %alloca_0[0] : memref<1xmemref<?xmemref<?xmemref<?xf64>>>> loc(#loc248)
        memref.dealloc %11 : memref<?xmemref<?xmemref<?xf64>>> loc(#loc248)
        scf.yield loc(#loc)
      } loc(#loc)
    } loc(#loc)
    scf.if %true {
      scf.execute_region {
        %11 = polygeist.pointer2memref %0 : !llvm.ptr to memref<?xi8> loc(#loc249)
        func.call @carts_phase_timer_stop(%11) : (memref<?xi8>) -> () loc(#loc249)
        scf.yield loc(#loc)
      } loc(#loc)
    } loc(#loc)
    scf.if %true {
      scf.execute_region {
        func.call @carts_e2e_timer_stop() : () -> () loc(#loc250)
        scf.yield loc(#loc)
      } loc(#loc)
    } loc(#loc)
    %10 = scf.if %true -> (i32) {
      %11 = scf.execute_region -> i32 {
        %12 = scf.if %true -> (i32) {
          %13 = scf.execute_region -> i32 {
            scf.yield %c0_i32 : i32 loc(#loc)
          } loc(#loc)
          scf.yield %13 : i32 loc(#loc)
        } else {
          scf.yield %4 : i32 loc(#loc)
        } loc(#loc)
        scf.yield %12 : i32 loc(#loc)
      } loc(#loc)
      scf.yield %11 : i32 loc(#loc)
    } else {
      scf.yield %4 : i32 loc(#loc)
    } loc(#loc)
    return %10 : i32 loc(#loc251)
  } loc(#loc5)
  func.func private @carts_benchmarks_start() attributes {llvm.linkage = #llvm.linkage<external>} loc(#loc252)
  func.func private @carts_e2e_timer_start(memref<?xi8>) attributes {llvm.linkage = #llvm.linkage<external>} loc(#loc253)
  func.func private @carts_phase_timer_start(memref<?xi8>, memref<?xi8>) attributes {llvm.linkage = #llvm.linkage<external>} loc(#loc254)
  func.func private @init(%arg0: memref<?xmemref<?xmemref<?xf64>>> loc("/home/raherrer/projects/carts/external/carts-benchmarks/specfem3d/velocity/velocity_update.c":22:13), %arg1: memref<?xmemref<?xmemref<?xf64>>> loc("/home/raherrer/projects/carts/external/carts-benchmarks/specfem3d/velocity/velocity_update.c":22:13), %arg2: memref<?xmemref<?xmemref<?xf64>>> loc("/home/raherrer/projects/carts/external/carts-benchmarks/specfem3d/velocity/velocity_update.c":22:13), %arg3: memref<?xmemref<?xmemref<?xf64>>> loc("/home/raherrer/projects/carts/external/carts-benchmarks/specfem3d/velocity/velocity_update.c":22:13), %arg4: memref<?xmemref<?xmemref<?xf64>>> loc("/home/raherrer/projects/carts/external/carts-benchmarks/specfem3d/velocity/velocity_update.c":22:13), %arg5: memref<?xmemref<?xmemref<?xf64>>> loc("/home/raherrer/projects/carts/external/carts-benchmarks/specfem3d/velocity/velocity_update.c":22:13), %arg6: memref<?xmemref<?xmemref<?xf64>>> loc("/home/raherrer/projects/carts/external/carts-benchmarks/specfem3d/velocity/velocity_update.c":22:13), %arg7: memref<?xmemref<?xmemref<?xf64>>> loc("/home/raherrer/projects/carts/external/carts-benchmarks/specfem3d/velocity/velocity_update.c":22:13), %arg8: memref<?xmemref<?xmemref<?xf64>>> loc("/home/raherrer/projects/carts/external/carts-benchmarks/specfem3d/velocity/velocity_update.c":22:13), %arg9: memref<?xmemref<?xmemref<?xf64>>> loc("/home/raherrer/projects/carts/external/carts-benchmarks/specfem3d/velocity/velocity_update.c":22:13)) attributes {llvm.linkage = #llvm.linkage<internal>} {
    %c1 = arith.constant 1 : index loc(#loc)
    %c0 = arith.constant 0 : index loc(#loc)
    %c48 = arith.constant 48 : index loc(#loc)
    %c1_i32 = arith.constant 1 : i32 loc(#loc)
    %c31_i32 = arith.constant 31 : i32 loc(#loc)
    %c29_i32 = arith.constant 29 : i32 loc(#loc)
    %c13_i32 = arith.constant 13 : i32 loc(#loc)
    %c7_i32 = arith.constant 7 : i32 loc(#loc)
    %cst = arith.constant 1.000000e-02 : f64 loc(#loc)
    %c23_i32 = arith.constant 23 : i32 loc(#loc)
    %c5_i32 = arith.constant 5 : i32 loc(#loc)
    %c19_i32 = arith.constant 19 : i32 loc(#loc)
    %c3_i32 = arith.constant 3 : i32 loc(#loc)
    %c17_i32 = arith.constant 17 : i32 loc(#loc)
    %c2_i32 = arith.constant 2 : i32 loc(#loc)
    %cst_0 = arith.constant 2.000000e-02 : f64 loc(#loc)
    %c11_i32 = arith.constant 11 : i32 loc(#loc)
    %cst_1 = arith.constant 2.300000e+03 : f64 loc(#loc)
    %cst_2 = arith.constant 0.000000e+00 : f64 loc(#loc)
    %c0_i32 = arith.constant 0 : i32 loc(#loc)
    %true = arith.constant true loc(#loc256)
    %0 = "polygeist.undef"() : () -> i32 loc(#loc257)
    %alloca = memref.alloca() : memref<1xi32> loc(#loc258)
    affine.store %0, %alloca[0] : memref<1xi32> loc(#loc258)
    scf.if %true {
      scf.execute_region {
        scf.if %true {
          scf.execute_region {
            affine.store %c0_i32, %alloca[0] : memref<1xi32> loc(#loc258)
            scf.yield loc(#loc)
          } loc(#loc)
        } loc(#loc)
        scf.yield loc(#loc)
      } loc(#loc)
    } loc(#loc)
    scf.if %true {
      scf.execute_region {
        scf.if %true {
          scf.execute_region {
            affine.for %arg10 loc("/home/raherrer/projects/carts/external/carts-benchmarks/specfem3d/velocity/velocity_update.c":26:3) = 0 to 48 {
              scf.if %true {
                scf.execute_region {
                  scf.if %true {
                    scf.execute_region {
                      %1 = polygeist.subindex %arg0[%arg10] () : memref<?xmemref<?xmemref<?xf64>>> -> memref<?xmemref<?xmemref<?xf64>>> loc(#loc260)
                      %2 = polygeist.subindex %arg1[%arg10] () : memref<?xmemref<?xmemref<?xf64>>> -> memref<?xmemref<?xmemref<?xf64>>> loc(#loc261)
                      %3 = polygeist.subindex %arg2[%arg10] () : memref<?xmemref<?xmemref<?xf64>>> -> memref<?xmemref<?xmemref<?xf64>>> loc(#loc262)
                      %4 = polygeist.subindex %arg3[%arg10] () : memref<?xmemref<?xmemref<?xf64>>> -> memref<?xmemref<?xmemref<?xf64>>> loc(#loc263)
                      %5 = polygeist.subindex %arg4[%arg10] () : memref<?xmemref<?xmemref<?xf64>>> -> memref<?xmemref<?xmemref<?xf64>>> loc(#loc264)
                      %6 = polygeist.subindex %arg5[%arg10] () : memref<?xmemref<?xmemref<?xf64>>> -> memref<?xmemref<?xmemref<?xf64>>> loc(#loc265)
                      %7 = polygeist.subindex %arg6[%arg10] () : memref<?xmemref<?xmemref<?xf64>>> -> memref<?xmemref<?xmemref<?xf64>>> loc(#loc266)
                      %8 = polygeist.subindex %arg7[%arg10] () : memref<?xmemref<?xmemref<?xf64>>> -> memref<?xmemref<?xmemref<?xf64>>> loc(#loc267)
                      %9 = polygeist.subindex %arg8[%arg10] () : memref<?xmemref<?xmemref<?xf64>>> -> memref<?xmemref<?xmemref<?xf64>>> loc(#loc268)
                      %10 = polygeist.subindex %arg9[%arg10] () : memref<?xmemref<?xmemref<?xf64>>> -> memref<?xmemref<?xmemref<?xf64>>> loc(#loc269)
                      affine.for %arg11 loc("/home/raherrer/projects/carts/external/carts-benchmarks/specfem3d/velocity/velocity_update.c":27:5) = 0 to 48 {
                        scf.if %true {
                          scf.execute_region {
                            scf.if %true {
                              scf.execute_region {
                                scf.for %arg12 = %c0 to %c48 step %c1 {
                                  scf.if %true {
                                    scf.execute_region {
                                      %11 = affine.load %1[0] : memref<?xmemref<?xmemref<?xf64>>> loc(#loc260)
                                      %12 = polygeist.subindex %11[%arg11] () : memref<?xmemref<?xf64>> -> memref<?xmemref<?xf64>> loc(#loc260)
                                      %13 = affine.load %12[0] : memref<?xmemref<?xf64>> loc(#loc260)
                                      %14 = polygeist.subindex %13[%arg12] () : memref<?xf64> -> memref<?xf64> loc(#loc260)
                                      affine.store %cst_2, %14[0] : memref<?xf64> loc(#loc272)
                                      scf.yield loc(#loc)
                                    } loc(#loc)
                                  } loc(#loc)
                                  scf.if %true {
                                    scf.execute_region {
                                      %11 = affine.load %2[0] : memref<?xmemref<?xmemref<?xf64>>> loc(#loc261)
                                      %12 = polygeist.subindex %11[%arg11] () : memref<?xmemref<?xf64>> -> memref<?xmemref<?xf64>> loc(#loc261)
                                      %13 = affine.load %12[0] : memref<?xmemref<?xf64>> loc(#loc261)
                                      %14 = polygeist.subindex %13[%arg12] () : memref<?xf64> -> memref<?xf64> loc(#loc261)
                                      affine.store %cst_2, %14[0] : memref<?xf64> loc(#loc273)
                                      scf.yield loc(#loc)
                                    } loc(#loc)
                                  } loc(#loc)
                                  scf.if %true {
                                    scf.execute_region {
                                      %11 = affine.load %3[0] : memref<?xmemref<?xmemref<?xf64>>> loc(#loc262)
                                      %12 = polygeist.subindex %11[%arg11] () : memref<?xmemref<?xf64>> -> memref<?xmemref<?xf64>> loc(#loc262)
                                      %13 = affine.load %12[0] : memref<?xmemref<?xf64>> loc(#loc262)
                                      %14 = polygeist.subindex %13[%arg12] () : memref<?xf64> -> memref<?xf64> loc(#loc262)
                                      affine.store %cst_2, %14[0] : memref<?xf64> loc(#loc274)
                                      scf.yield loc(#loc)
                                    } loc(#loc)
                                  } loc(#loc)
                                  scf.if %true {
                                    scf.execute_region {
                                      %11 = affine.load %4[0] : memref<?xmemref<?xmemref<?xf64>>> loc(#loc263)
                                      %12 = polygeist.subindex %11[%arg11] () : memref<?xmemref<?xf64>> -> memref<?xmemref<?xf64>> loc(#loc263)
                                      %13 = affine.load %12[0] : memref<?xmemref<?xf64>> loc(#loc263)
                                      %14 = polygeist.subindex %13[%arg12] () : memref<?xf64> -> memref<?xf64> loc(#loc263)
                                      %15 = affine.load %alloca[0] : memref<1xi32> loc(#loc275)
                                      %16 = arith.remsi %15, %c11_i32 : i32 loc(#loc276)
                                      %17 = arith.sitofp %16 : i32 to f64 loc(#loc277)
                                      %18 = arith.addf %17, %cst_1 : f64 loc(#loc278)
                                      affine.store %18, %14[0] : memref<?xf64> loc(#loc279)
                                      scf.yield loc(#loc)
                                    } loc(#loc)
                                  } loc(#loc)
                                  scf.if %true {
                                    scf.execute_region {
                                      %11 = affine.load %5[0] : memref<?xmemref<?xmemref<?xf64>>> loc(#loc264)
                                      %12 = polygeist.subindex %11[%arg11] () : memref<?xmemref<?xf64>> -> memref<?xmemref<?xf64>> loc(#loc264)
                                      %13 = affine.load %12[0] : memref<?xmemref<?xf64>> loc(#loc264)
                                      %14 = polygeist.subindex %13[%arg12] () : memref<?xf64> -> memref<?xf64> loc(#loc264)
                                      %15 = affine.load %alloca[0] : memref<1xi32> loc(#loc280)
                                      %16 = arith.muli %15, %c2_i32 : i32 loc(#loc281)
                                      %17 = arith.remsi %16, %c17_i32 : i32 loc(#loc282)
                                      %18 = arith.sitofp %17 : i32 to f64 loc(#loc283)
                                      %19 = arith.mulf %18, %cst_0 : f64 loc(#loc284)
                                      affine.store %19, %14[0] : memref<?xf64> loc(#loc285)
                                      scf.yield loc(#loc)
                                    } loc(#loc)
                                  } loc(#loc)
                                  scf.if %true {
                                    scf.execute_region {
                                      %11 = affine.load %6[0] : memref<?xmemref<?xmemref<?xf64>>> loc(#loc265)
                                      %12 = polygeist.subindex %11[%arg11] () : memref<?xmemref<?xf64>> -> memref<?xmemref<?xf64>> loc(#loc265)
                                      %13 = affine.load %12[0] : memref<?xmemref<?xf64>> loc(#loc265)
                                      %14 = polygeist.subindex %13[%arg12] () : memref<?xf64> -> memref<?xf64> loc(#loc265)
                                      %15 = affine.load %alloca[0] : memref<1xi32> loc(#loc286)
                                      %16 = arith.muli %15, %c3_i32 : i32 loc(#loc287)
                                      %17 = arith.remsi %16, %c19_i32 : i32 loc(#loc288)
                                      %18 = arith.sitofp %17 : i32 to f64 loc(#loc289)
                                      %19 = arith.mulf %18, %cst_0 : f64 loc(#loc290)
                                      affine.store %19, %14[0] : memref<?xf64> loc(#loc291)
                                      scf.yield loc(#loc)
                                    } loc(#loc)
                                  } loc(#loc)
                                  scf.if %true {
                                    scf.execute_region {
                                      %11 = affine.load %7[0] : memref<?xmemref<?xmemref<?xf64>>> loc(#loc266)
                                      %12 = polygeist.subindex %11[%arg11] () : memref<?xmemref<?xf64>> -> memref<?xmemref<?xf64>> loc(#loc266)
                                      %13 = affine.load %12[0] : memref<?xmemref<?xf64>> loc(#loc266)
                                      %14 = polygeist.subindex %13[%arg12] () : memref<?xf64> -> memref<?xf64> loc(#loc266)
                                      %15 = affine.load %alloca[0] : memref<1xi32> loc(#loc292)
                                      %16 = arith.muli %15, %c5_i32 : i32 loc(#loc293)
                                      %17 = arith.remsi %16, %c23_i32 : i32 loc(#loc294)
                                      %18 = arith.sitofp %17 : i32 to f64 loc(#loc295)
                                      %19 = arith.mulf %18, %cst_0 : f64 loc(#loc296)
                                      affine.store %19, %14[0] : memref<?xf64> loc(#loc297)
                                      scf.yield loc(#loc)
                                    } loc(#loc)
                                  } loc(#loc)
                                  scf.if %true {
                                    scf.execute_region {
                                      %11 = affine.load %8[0] : memref<?xmemref<?xmemref<?xf64>>> loc(#loc267)
                                      %12 = polygeist.subindex %11[%arg11] () : memref<?xmemref<?xf64>> -> memref<?xmemref<?xf64>> loc(#loc267)
                                      %13 = affine.load %12[0] : memref<?xmemref<?xf64>> loc(#loc267)
                                      %14 = polygeist.subindex %13[%arg12] () : memref<?xf64> -> memref<?xf64> loc(#loc267)
                                      %15 = affine.load %alloca[0] : memref<1xi32> loc(#loc298)
                                      %16 = arith.muli %15, %c7_i32 : i32 loc(#loc299)
                                      %17 = arith.remsi %16, %c13_i32 : i32 loc(#loc300)
                                      %18 = arith.sitofp %17 : i32 to f64 loc(#loc301)
                                      %19 = arith.mulf %18, %cst : f64 loc(#loc302)
                                      affine.store %19, %14[0] : memref<?xf64> loc(#loc303)
                                      scf.yield loc(#loc)
                                    } loc(#loc)
                                  } loc(#loc)
                                  scf.if %true {
                                    scf.execute_region {
                                      %11 = affine.load %9[0] : memref<?xmemref<?xmemref<?xf64>>> loc(#loc268)
                                      %12 = polygeist.subindex %11[%arg11] () : memref<?xmemref<?xf64>> -> memref<?xmemref<?xf64>> loc(#loc268)
                                      %13 = affine.load %12[0] : memref<?xmemref<?xf64>> loc(#loc268)
                                      %14 = polygeist.subindex %13[%arg12] () : memref<?xf64> -> memref<?xf64> loc(#loc268)
                                      %15 = affine.load %alloca[0] : memref<1xi32> loc(#loc304)
                                      %16 = arith.muli %15, %c11_i32 : i32 loc(#loc305)
                                      %17 = arith.remsi %16, %c29_i32 : i32 loc(#loc306)
                                      %18 = arith.sitofp %17 : i32 to f64 loc(#loc307)
                                      %19 = arith.mulf %18, %cst : f64 loc(#loc308)
                                      affine.store %19, %14[0] : memref<?xf64> loc(#loc309)
                                      scf.yield loc(#loc)
                                    } loc(#loc)
                                  } loc(#loc)
                                  scf.if %true {
                                    scf.execute_region {
                                      %11 = affine.load %10[0] : memref<?xmemref<?xmemref<?xf64>>> loc(#loc269)
                                      %12 = polygeist.subindex %11[%arg11] () : memref<?xmemref<?xf64>> -> memref<?xmemref<?xf64>> loc(#loc269)
                                      %13 = affine.load %12[0] : memref<?xmemref<?xf64>> loc(#loc269)
                                      %14 = polygeist.subindex %13[%arg12] () : memref<?xf64> -> memref<?xf64> loc(#loc269)
                                      %15 = affine.load %alloca[0] : memref<1xi32> loc(#loc310)
                                      %16 = arith.muli %15, %c13_i32 : i32 loc(#loc311)
                                      %17 = arith.remsi %16, %c31_i32 : i32 loc(#loc312)
                                      %18 = arith.sitofp %17 : i32 to f64 loc(#loc313)
                                      %19 = arith.mulf %18, %cst : f64 loc(#loc314)
                                      affine.store %19, %14[0] : memref<?xf64> loc(#loc315)
                                      scf.yield loc(#loc)
                                    } loc(#loc)
                                  } loc(#loc)
                                  scf.if %true {
                                    scf.execute_region {
                                      %11 = affine.load %alloca[0] : memref<1xi32> loc(#loc316)
                                      %12 = arith.addi %11, %c1_i32 : i32 loc(#loc316)
                                      affine.store %12, %alloca[0] : memref<1xi32> loc(#loc316)
                                      scf.yield loc(#loc)
                                    } loc(#loc)
                                  } loc(#loc)
                                } loc(#loc271)
                                scf.yield loc(#loc)
                              } loc(#loc)
                            } loc(#loc)
                            scf.yield loc(#loc)
                          } loc(#loc)
                        } loc(#loc)
                      } loc(#loc270)
                      scf.yield loc(#loc)
                    } loc(#loc)
                  } loc(#loc)
                  scf.yield loc(#loc)
                } loc(#loc)
              } loc(#loc)
            } loc(#loc259)
            scf.yield loc(#loc)
          } loc(#loc)
        } loc(#loc)
        scf.yield loc(#loc)
      } loc(#loc)
    } loc(#loc)
    return loc(#loc317)
  } loc(#loc255)
  func.func private @carts_phase_timer_stop(memref<?xi8>) attributes {llvm.linkage = #llvm.linkage<external>} loc(#loc318)
  func.func private @carts_kernel_timer_start(memref<?xi8>) attributes {llvm.linkage = #llvm.linkage<external>} loc(#loc319)
  func.func private @specfem_velocity_update(%arg0: memref<?xmemref<?xmemref<?xf64>>> loc("/home/raherrer/projects/carts/external/carts-benchmarks/specfem3d/velocity/velocity_update.c":57:13), %arg1: memref<?xmemref<?xmemref<?xf64>>> loc("/home/raherrer/projects/carts/external/carts-benchmarks/specfem3d/velocity/velocity_update.c":57:13), %arg2: memref<?xmemref<?xmemref<?xf64>>> loc("/home/raherrer/projects/carts/external/carts-benchmarks/specfem3d/velocity/velocity_update.c":57:13), %arg3: memref<?xmemref<?xmemref<?xf64>>> loc("/home/raherrer/projects/carts/external/carts-benchmarks/specfem3d/velocity/velocity_update.c":57:13), %arg4: memref<?xmemref<?xmemref<?xf64>>> loc("/home/raherrer/projects/carts/external/carts-benchmarks/specfem3d/velocity/velocity_update.c":57:13), %arg5: memref<?xmemref<?xmemref<?xf64>>> loc("/home/raherrer/projects/carts/external/carts-benchmarks/specfem3d/velocity/velocity_update.c":57:13), %arg6: memref<?xmemref<?xmemref<?xf64>>> loc("/home/raherrer/projects/carts/external/carts-benchmarks/specfem3d/velocity/velocity_update.c":57:13), %arg7: memref<?xmemref<?xmemref<?xf64>>> loc("/home/raherrer/projects/carts/external/carts-benchmarks/specfem3d/velocity/velocity_update.c":57:13), %arg8: memref<?xmemref<?xmemref<?xf64>>> loc("/home/raherrer/projects/carts/external/carts-benchmarks/specfem3d/velocity/velocity_update.c":57:13), %arg9: memref<?xmemref<?xmemref<?xf64>>> loc("/home/raherrer/projects/carts/external/carts-benchmarks/specfem3d/velocity/velocity_update.c":57:13)) attributes {llvm.linkage = #llvm.linkage<internal>} {
    %cst = arith.constant 1.000000e-03 : f64 loc(#loc)
    %cst_0 = arith.constant 1.000000e+00 : f64 loc(#loc)
    %true = arith.constant true loc(#loc321)
    %alloca = memref.alloca() : memref<1xf64> loc(#loc322)
    %0 = "polygeist.undef"() : () -> f64 loc(#loc322)
    affine.store %0, %alloca[0] : memref<1xf64> loc(#loc322)
    %alloca_1 = memref.alloca() : memref<1xf64> loc(#loc323)
    affine.store %0, %alloca_1[0] : memref<1xf64> loc(#loc323)
    %alloca_2 = memref.alloca() : memref<1xf64> loc(#loc324)
    affine.store %0, %alloca_2[0] : memref<1xf64> loc(#loc324)
    %alloca_3 = memref.alloca() : memref<1xf64> loc(#loc325)
    affine.store %0, %alloca_3[0] : memref<1xf64> loc(#loc325)
    scf.if %true {
      scf.execute_region {
        scf.if %true {
          scf.execute_region {
            affine.for %arg10 loc("/home/raherrer/projects/carts/external/carts-benchmarks/specfem3d/velocity/velocity_update.c":63:3) = 1 to 47 {
              %1 = arith.index_cast %arg10 : index to i32 loc(#loc326)
              scf.if %true {
                scf.execute_region {
                  scf.if %true {
                    scf.execute_region {
                      affine.for %arg11 loc("/home/raherrer/projects/carts/external/carts-benchmarks/specfem3d/velocity/velocity_update.c":64:5) = 1 to 47 {
                        %2 = arith.index_cast %arg11 : index to i32 loc(#loc327)
                        scf.if %true {
                          scf.execute_region {
                            scf.if %true {
                              scf.execute_region {
                                affine.for %arg12 loc("/home/raherrer/projects/carts/external/carts-benchmarks/specfem3d/velocity/velocity_update.c":65:7) = 1 to 47 {
                                  %3 = arith.index_cast %arg12 : index to i32 loc(#loc328)
                                  scf.if %true {
                                    scf.execute_region {
                                      scf.if %true {
                                        %4 = scf.execute_region -> f64 {
                                          %5 = polygeist.subindex %arg3[%arg12] () : memref<?xmemref<?xmemref<?xf64>>> -> memref<?xmemref<?xmemref<?xf64>>> loc(#loc329)
                                          %6 = affine.load %5[0] : memref<?xmemref<?xmemref<?xf64>>> loc(#loc329)
                                          %7 = polygeist.subindex %6[%arg11] () : memref<?xmemref<?xf64>> -> memref<?xmemref<?xf64>> loc(#loc329)
                                          %8 = affine.load %7[0] : memref<?xmemref<?xf64>> loc(#loc329)
                                          %9 = polygeist.subindex %8[%arg10] () : memref<?xf64> -> memref<?xf64> loc(#loc329)
                                          %10 = affine.load %9[0] : memref<?xf64> loc(#loc329)
                                          %11 = arith.divf %cst_0, %10 : f64 loc(#loc330)
                                          affine.store %11, %alloca_3[0] : memref<1xf64> loc(#loc325)
                                          scf.yield %11 : f64 loc(#loc)
                                        } loc(#loc)
                                      } loc(#loc)
                                      scf.yield loc(#loc)
                                    } loc(#loc)
                                  } loc(#loc)
                                  scf.if %true {
                                    scf.execute_region {
                                      scf.if %true {
                                        %4 = scf.execute_region -> f64 {
                                          %5 = func.call @diff_x(%arg4, %3, %2, %1) : (memref<?xmemref<?xmemref<?xf64>>>, i32, i32, i32) -> f64 loc(#loc331)
                                          %6 = func.call @diff_y(%arg7, %3, %2, %1) : (memref<?xmemref<?xmemref<?xf64>>>, i32, i32, i32) -> f64 loc(#loc332)
                                          %7 = arith.addf %5, %6 : f64 loc(#loc333)
                                          %8 = func.call @diff_z(%arg8, %3, %2, %1) : (memref<?xmemref<?xmemref<?xf64>>>, i32, i32, i32) -> f64 loc(#loc334)
                                          %9 = arith.addf %7, %8 : f64 loc(#loc335)
                                          affine.store %9, %alloca_2[0] : memref<1xf64> loc(#loc324)
                                          scf.yield %9 : f64 loc(#loc)
                                        } loc(#loc)
                                      } loc(#loc)
                                      scf.yield loc(#loc)
                                    } loc(#loc)
                                  } loc(#loc)
                                  scf.if %true {
                                    scf.execute_region {
                                      scf.if %true {
                                        %4 = scf.execute_region -> f64 {
                                          %5 = func.call @diff_x(%arg7, %3, %2, %1) : (memref<?xmemref<?xmemref<?xf64>>>, i32, i32, i32) -> f64 loc(#loc336)
                                          %6 = func.call @diff_y(%arg5, %3, %2, %1) : (memref<?xmemref<?xmemref<?xf64>>>, i32, i32, i32) -> f64 loc(#loc337)
                                          %7 = arith.addf %5, %6 : f64 loc(#loc338)
                                          %8 = func.call @diff_z(%arg9, %3, %2, %1) : (memref<?xmemref<?xmemref<?xf64>>>, i32, i32, i32) -> f64 loc(#loc339)
                                          %9 = arith.addf %7, %8 : f64 loc(#loc340)
                                          affine.store %9, %alloca_1[0] : memref<1xf64> loc(#loc323)
                                          scf.yield %9 : f64 loc(#loc)
                                        } loc(#loc)
                                      } loc(#loc)
                                      scf.yield loc(#loc)
                                    } loc(#loc)
                                  } loc(#loc)
                                  scf.if %true {
                                    scf.execute_region {
                                      scf.if %true {
                                        %4 = scf.execute_region -> f64 {
                                          %5 = func.call @diff_x(%arg8, %3, %2, %1) : (memref<?xmemref<?xmemref<?xf64>>>, i32, i32, i32) -> f64 loc(#loc341)
                                          %6 = func.call @diff_y(%arg9, %3, %2, %1) : (memref<?xmemref<?xmemref<?xf64>>>, i32, i32, i32) -> f64 loc(#loc342)
                                          %7 = arith.addf %5, %6 : f64 loc(#loc343)
                                          %8 = func.call @diff_z(%arg6, %3, %2, %1) : (memref<?xmemref<?xmemref<?xf64>>>, i32, i32, i32) -> f64 loc(#loc344)
                                          %9 = arith.addf %7, %8 : f64 loc(#loc345)
                                          affine.store %9, %alloca[0] : memref<1xf64> loc(#loc322)
                                          scf.yield %9 : f64 loc(#loc)
                                        } loc(#loc)
                                      } loc(#loc)
                                      scf.yield loc(#loc)
                                    } loc(#loc)
                                  } loc(#loc)
                                  scf.if %true {
                                    scf.execute_region {
                                      %4 = polygeist.subindex %arg0[%arg12] () : memref<?xmemref<?xmemref<?xf64>>> -> memref<?xmemref<?xmemref<?xf64>>> loc(#loc346)
                                      %5 = affine.load %4[0] : memref<?xmemref<?xmemref<?xf64>>> loc(#loc346)
                                      %6 = polygeist.subindex %5[%arg11] () : memref<?xmemref<?xf64>> -> memref<?xmemref<?xf64>> loc(#loc346)
                                      %7 = affine.load %6[0] : memref<?xmemref<?xf64>> loc(#loc346)
                                      %8 = polygeist.subindex %7[%arg10] () : memref<?xf64> -> memref<?xf64> loc(#loc346)
                                      %9 = affine.load %alloca_3[0] : memref<1xf64> loc(#loc347)
                                      %10 = arith.mulf %9, %cst : f64 loc(#loc348)
                                      %11 = affine.load %alloca_2[0] : memref<1xf64> loc(#loc349)
                                      %12 = arith.mulf %10, %11 : f64 loc(#loc350)
                                      %13 = affine.load %8[0] : memref<?xf64> loc(#loc351)
                                      %14 = arith.addf %13, %12 : f64 loc(#loc351)
                                      affine.store %14, %8[0] : memref<?xf64> loc(#loc351)
                                      scf.yield loc(#loc)
                                    } loc(#loc)
                                  } loc(#loc)
                                  scf.if %true {
                                    scf.execute_region {
                                      %4 = polygeist.subindex %arg1[%arg12] () : memref<?xmemref<?xmemref<?xf64>>> -> memref<?xmemref<?xmemref<?xf64>>> loc(#loc352)
                                      %5 = affine.load %4[0] : memref<?xmemref<?xmemref<?xf64>>> loc(#loc352)
                                      %6 = polygeist.subindex %5[%arg11] () : memref<?xmemref<?xf64>> -> memref<?xmemref<?xf64>> loc(#loc352)
                                      %7 = affine.load %6[0] : memref<?xmemref<?xf64>> loc(#loc352)
                                      %8 = polygeist.subindex %7[%arg10] () : memref<?xf64> -> memref<?xf64> loc(#loc352)
                                      %9 = affine.load %alloca_3[0] : memref<1xf64> loc(#loc353)
                                      %10 = arith.mulf %9, %cst : f64 loc(#loc354)
                                      %11 = affine.load %alloca_1[0] : memref<1xf64> loc(#loc355)
                                      %12 = arith.mulf %10, %11 : f64 loc(#loc356)
                                      %13 = affine.load %8[0] : memref<?xf64> loc(#loc357)
                                      %14 = arith.addf %13, %12 : f64 loc(#loc357)
                                      affine.store %14, %8[0] : memref<?xf64> loc(#loc357)
                                      scf.yield loc(#loc)
                                    } loc(#loc)
                                  } loc(#loc)
                                  scf.if %true {
                                    scf.execute_region {
                                      %4 = polygeist.subindex %arg2[%arg12] () : memref<?xmemref<?xmemref<?xf64>>> -> memref<?xmemref<?xmemref<?xf64>>> loc(#loc358)
                                      %5 = affine.load %4[0] : memref<?xmemref<?xmemref<?xf64>>> loc(#loc358)
                                      %6 = polygeist.subindex %5[%arg11] () : memref<?xmemref<?xf64>> -> memref<?xmemref<?xf64>> loc(#loc358)
                                      %7 = affine.load %6[0] : memref<?xmemref<?xf64>> loc(#loc358)
                                      %8 = polygeist.subindex %7[%arg10] () : memref<?xf64> -> memref<?xf64> loc(#loc358)
                                      %9 = affine.load %alloca_3[0] : memref<1xf64> loc(#loc359)
                                      %10 = arith.mulf %9, %cst : f64 loc(#loc360)
                                      %11 = affine.load %alloca[0] : memref<1xf64> loc(#loc361)
                                      %12 = arith.mulf %10, %11 : f64 loc(#loc362)
                                      %13 = affine.load %8[0] : memref<?xf64> loc(#loc363)
                                      %14 = arith.addf %13, %12 : f64 loc(#loc363)
                                      affine.store %14, %8[0] : memref<?xf64> loc(#loc363)
                                      scf.yield loc(#loc)
                                    } loc(#loc)
                                  } loc(#loc)
                                } loc(#loc328)
                                scf.yield loc(#loc)
                              } loc(#loc)
                            } loc(#loc)
                            scf.yield loc(#loc)
                          } loc(#loc)
                        } loc(#loc)
                      } loc(#loc327)
                      scf.yield loc(#loc)
                    } loc(#loc)
                  } loc(#loc)
                  scf.yield loc(#loc)
                } loc(#loc)
              } loc(#loc)
            } loc(#loc326)
            scf.yield loc(#loc)
          } loc(#loc)
        } loc(#loc)
        scf.yield loc(#loc)
      } loc(#loc)
    } loc(#loc)
    return loc(#loc364)
  } loc(#loc320)
  func.func private @carts_kernel_timer_accum(memref<?xi8>) attributes {llvm.linkage = #llvm.linkage<external>} loc(#loc365)
  func.func private @carts_kernel_timer_print(memref<?xi8>) attributes {llvm.linkage = #llvm.linkage<external>} loc(#loc366)
  func.func private @carts_bench_checksum_d(f64) attributes {llvm.linkage = #llvm.linkage<external>} loc(#loc367)
  func.func private @carts_e2e_timer_stop() attributes {llvm.linkage = #llvm.linkage<external>} loc(#loc368)
  func.func private @diff_x(%arg0: memref<?xmemref<?xmemref<?xf64>>> loc("/home/raherrer/projects/carts/external/carts-benchmarks/specfem3d/velocity/velocity_update.c":45:22), %arg1: i32 loc("/home/raherrer/projects/carts/external/carts-benchmarks/specfem3d/velocity/velocity_update.c":45:22), %arg2: i32 loc("/home/raherrer/projects/carts/external/carts-benchmarks/specfem3d/velocity/velocity_update.c":45:22), %arg3: i32 loc("/home/raherrer/projects/carts/external/carts-benchmarks/specfem3d/velocity/velocity_update.c":45:22)) -> f64 attributes {llvm.linkage = #llvm.linkage<internal>} {
    %c1_i32 = arith.constant 1 : i32 loc(#loc)
    %true = arith.constant true loc(#loc370)
    %0 = "polygeist.undef"() : () -> f64 loc(#loc370)
    %1 = scf.if %true -> (f64) {
      %2 = scf.execute_region -> f64 {
        %3 = scf.if %true -> (f64) {
          %4 = scf.execute_region -> f64 {
            %5 = arith.addi %arg1, %c1_i32 : i32 loc(#loc371)
            %6 = arith.index_cast %5 : i32 to index loc(#loc372)
            %7 = polygeist.subindex %arg0[%6] () : memref<?xmemref<?xmemref<?xf64>>> -> memref<?xmemref<?xmemref<?xf64>>> loc(#loc373)
            %8 = affine.load %7[0] : memref<?xmemref<?xmemref<?xf64>>> loc(#loc373)
            %9 = arith.index_cast %arg2 : i32 to index loc(#loc374)
            %10 = polygeist.subindex %8[%9] () : memref<?xmemref<?xf64>> -> memref<?xmemref<?xf64>> loc(#loc373)
            %11 = affine.load %10[0] : memref<?xmemref<?xf64>> loc(#loc373)
            %12 = arith.index_cast %arg3 : i32 to index loc(#loc375)
            %13 = polygeist.subindex %11[%12] () : memref<?xf64> -> memref<?xf64> loc(#loc373)
            %14 = affine.load %13[0] : memref<?xf64> loc(#loc373)
            %15 = arith.index_cast %arg1 : i32 to index loc(#loc376)
            %16 = polygeist.subindex %arg0[%15] () : memref<?xmemref<?xmemref<?xf64>>> -> memref<?xmemref<?xmemref<?xf64>>> loc(#loc377)
            %17 = affine.load %16[0] : memref<?xmemref<?xmemref<?xf64>>> loc(#loc377)
            %18 = polygeist.subindex %17[%9] () : memref<?xmemref<?xf64>> -> memref<?xmemref<?xf64>> loc(#loc377)
            %19 = affine.load %18[0] : memref<?xmemref<?xf64>> loc(#loc377)
            %20 = polygeist.subindex %19[%12] () : memref<?xf64> -> memref<?xf64> loc(#loc377)
            %21 = affine.load %20[0] : memref<?xf64> loc(#loc377)
            %22 = arith.subf %14, %21 : f64 loc(#loc378)
            scf.yield %22 : f64 loc(#loc)
          } loc(#loc)
          scf.yield %4 : f64 loc(#loc)
        } else {
          scf.yield %0 : f64 loc(#loc)
        } loc(#loc)
        scf.yield %3 : f64 loc(#loc)
      } loc(#loc)
      scf.yield %2 : f64 loc(#loc)
    } else {
      scf.yield %0 : f64 loc(#loc)
    } loc(#loc)
    return %1 : f64 loc(#loc379)
  } loc(#loc369)
  func.func private @diff_y(%arg0: memref<?xmemref<?xmemref<?xf64>>> loc("/home/raherrer/projects/carts/external/carts-benchmarks/specfem3d/velocity/velocity_update.c":49:22), %arg1: i32 loc("/home/raherrer/projects/carts/external/carts-benchmarks/specfem3d/velocity/velocity_update.c":49:22), %arg2: i32 loc("/home/raherrer/projects/carts/external/carts-benchmarks/specfem3d/velocity/velocity_update.c":49:22), %arg3: i32 loc("/home/raherrer/projects/carts/external/carts-benchmarks/specfem3d/velocity/velocity_update.c":49:22)) -> f64 attributes {llvm.linkage = #llvm.linkage<internal>} {
    %c1_i32 = arith.constant 1 : i32 loc(#loc)
    %true = arith.constant true loc(#loc381)
    %0 = "polygeist.undef"() : () -> f64 loc(#loc381)
    %1 = scf.if %true -> (f64) {
      %2 = scf.execute_region -> f64 {
        %3 = scf.if %true -> (f64) {
          %4 = scf.execute_region -> f64 {
            %5 = arith.index_cast %arg1 : i32 to index loc(#loc382)
            %6 = polygeist.subindex %arg0[%5] () : memref<?xmemref<?xmemref<?xf64>>> -> memref<?xmemref<?xmemref<?xf64>>> loc(#loc383)
            %7 = affine.load %6[0] : memref<?xmemref<?xmemref<?xf64>>> loc(#loc383)
            %8 = arith.addi %arg2, %c1_i32 : i32 loc(#loc384)
            %9 = arith.index_cast %8 : i32 to index loc(#loc385)
            %10 = polygeist.subindex %7[%9] () : memref<?xmemref<?xf64>> -> memref<?xmemref<?xf64>> loc(#loc383)
            %11 = affine.load %10[0] : memref<?xmemref<?xf64>> loc(#loc383)
            %12 = arith.index_cast %arg3 : i32 to index loc(#loc386)
            %13 = polygeist.subindex %11[%12] () : memref<?xf64> -> memref<?xf64> loc(#loc383)
            %14 = affine.load %13[0] : memref<?xf64> loc(#loc383)
            %15 = arith.index_cast %arg2 : i32 to index loc(#loc387)
            %16 = polygeist.subindex %7[%15] () : memref<?xmemref<?xf64>> -> memref<?xmemref<?xf64>> loc(#loc388)
            %17 = affine.load %16[0] : memref<?xmemref<?xf64>> loc(#loc388)
            %18 = polygeist.subindex %17[%12] () : memref<?xf64> -> memref<?xf64> loc(#loc388)
            %19 = affine.load %18[0] : memref<?xf64> loc(#loc388)
            %20 = arith.subf %14, %19 : f64 loc(#loc389)
            scf.yield %20 : f64 loc(#loc)
          } loc(#loc)
          scf.yield %4 : f64 loc(#loc)
        } else {
          scf.yield %0 : f64 loc(#loc)
        } loc(#loc)
        scf.yield %3 : f64 loc(#loc)
      } loc(#loc)
      scf.yield %2 : f64 loc(#loc)
    } else {
      scf.yield %0 : f64 loc(#loc)
    } loc(#loc)
    return %1 : f64 loc(#loc390)
  } loc(#loc380)
  func.func private @diff_z(%arg0: memref<?xmemref<?xmemref<?xf64>>> loc("/home/raherrer/projects/carts/external/carts-benchmarks/specfem3d/velocity/velocity_update.c":53:22), %arg1: i32 loc("/home/raherrer/projects/carts/external/carts-benchmarks/specfem3d/velocity/velocity_update.c":53:22), %arg2: i32 loc("/home/raherrer/projects/carts/external/carts-benchmarks/specfem3d/velocity/velocity_update.c":53:22), %arg3: i32 loc("/home/raherrer/projects/carts/external/carts-benchmarks/specfem3d/velocity/velocity_update.c":53:22)) -> f64 attributes {llvm.linkage = #llvm.linkage<internal>} {
    %c1_i32 = arith.constant 1 : i32 loc(#loc)
    %true = arith.constant true loc(#loc392)
    %0 = "polygeist.undef"() : () -> f64 loc(#loc392)
    %1 = scf.if %true -> (f64) {
      %2 = scf.execute_region -> f64 {
        %3 = scf.if %true -> (f64) {
          %4 = scf.execute_region -> f64 {
            %5 = arith.index_cast %arg1 : i32 to index loc(#loc393)
            %6 = polygeist.subindex %arg0[%5] () : memref<?xmemref<?xmemref<?xf64>>> -> memref<?xmemref<?xmemref<?xf64>>> loc(#loc394)
            %7 = affine.load %6[0] : memref<?xmemref<?xmemref<?xf64>>> loc(#loc394)
            %8 = arith.index_cast %arg2 : i32 to index loc(#loc395)
            %9 = polygeist.subindex %7[%8] () : memref<?xmemref<?xf64>> -> memref<?xmemref<?xf64>> loc(#loc394)
            %10 = affine.load %9[0] : memref<?xmemref<?xf64>> loc(#loc394)
            %11 = arith.addi %arg3, %c1_i32 : i32 loc(#loc396)
            %12 = arith.index_cast %11 : i32 to index loc(#loc397)
            %13 = polygeist.subindex %10[%12] () : memref<?xf64> -> memref<?xf64> loc(#loc394)
            %14 = affine.load %13[0] : memref<?xf64> loc(#loc394)
            %15 = arith.index_cast %arg3 : i32 to index loc(#loc398)
            %16 = polygeist.subindex %10[%15] () : memref<?xf64> -> memref<?xf64> loc(#loc399)
            %17 = affine.load %16[0] : memref<?xf64> loc(#loc399)
            %18 = arith.subf %14, %17 : f64 loc(#loc400)
            scf.yield %18 : f64 loc(#loc)
          } loc(#loc)
          scf.yield %4 : f64 loc(#loc)
        } else {
          scf.yield %0 : f64 loc(#loc)
        } loc(#loc)
        scf.yield %3 : f64 loc(#loc)
      } loc(#loc)
      scf.yield %2 : f64 loc(#loc)
    } else {
      scf.yield %0 : f64 loc(#loc)
    } loc(#loc)
    return %1 : f64 loc(#loc401)
  } loc(#loc391)
} loc(#loc)
#loc = loc(unknown)
#loc1 = loc("/home/raherrer/projects/carts/.install/carts/include/arts/utils/benchmarks/CartsBenchmarks.h":100:65)
#loc2 = loc("/home/raherrer/projects/carts/.install/carts/include/arts/utils/benchmarks/CartsBenchmarks.h":98:27)
#loc3 = loc("/home/raherrer/projects/carts/.install/carts/include/arts/utils/benchmarks/CartsBenchmarks.h":95:65)
#loc4 = loc("/home/raherrer/projects/carts/external/carts-benchmarks/specfem3d/velocity/velocity_update.c":86:25)
#loc5 = loc("/home/raherrer/projects/carts/external/carts-benchmarks/specfem3d/velocity/velocity_update.c":83:5)
#loc6 = loc("/home/raherrer/projects/carts/external/carts-benchmarks/specfem3d/velocity/velocity_update.c":83:1)
#loc7 = loc("/home/raherrer/projects/carts/external/carts-benchmarks/specfem3d/velocity/velocity_update.c":156:10)
#loc8 = loc("/home/raherrer/projects/carts/external/carts-benchmarks/specfem3d/velocity/velocity_update.c":141:3)
#loc9 = loc("/home/raherrer/projects/carts/external/carts-benchmarks/specfem3d/velocity/velocity_update.c":100:3)
#loc10 = loc("/home/raherrer/projects/carts/external/carts-benchmarks/specfem3d/velocity/velocity_update.c":99:3)
#loc11 = loc("/home/raherrer/projects/carts/external/carts-benchmarks/specfem3d/velocity/velocity_update.c":98:3)
#loc12 = loc("/home/raherrer/projects/carts/external/carts-benchmarks/specfem3d/velocity/velocity_update.c":97:3)
#loc13 = loc("/home/raherrer/projects/carts/external/carts-benchmarks/specfem3d/velocity/velocity_update.c":96:3)
#loc14 = loc("/home/raherrer/projects/carts/external/carts-benchmarks/specfem3d/velocity/velocity_update.c":95:3)
#loc15 = loc("/home/raherrer/projects/carts/external/carts-benchmarks/specfem3d/velocity/velocity_update.c":94:3)
#loc16 = loc("/home/raherrer/projects/carts/external/carts-benchmarks/specfem3d/velocity/velocity_update.c":93:3)
#loc17 = loc("/home/raherrer/projects/carts/external/carts-benchmarks/specfem3d/velocity/velocity_update.c":92:3)
#loc18 = loc("/home/raherrer/projects/carts/external/carts-benchmarks/specfem3d/velocity/velocity_update.c":91:3)
#loc19 = loc("/home/raherrer/projects/carts/.install/carts/include/arts/utils/benchmarks/CartsBenchmarks.h":54:34)
#loc20 = loc("/home/raherrer/projects/carts/.install/carts/include/arts/utils/benchmarks/CartsBenchmarks.h":79:37)
#loc21 = loc("/home/raherrer/projects/carts/.install/carts/include/arts/utils/benchmarks/CartsBenchmarks.h":95:41)
#loc22 = loc("/home/raherrer/projects/carts/external/carts-benchmarks/specfem3d/velocity/velocity_update.c":91:18)
#loc23 = loc("/home/raherrer/projects/carts/external/carts-benchmarks/specfem3d/velocity/velocity_update.c":91:42)
#loc24 = loc("/home/raherrer/projects/carts/external/carts-benchmarks/specfem3d/velocity/velocity_update.c":91:40)
#loc25 = loc("/home/raherrer/projects/carts/external/carts-benchmarks/specfem3d/velocity/velocity_update.c":92:18)
#loc26 = loc("/home/raherrer/projects/carts/external/carts-benchmarks/specfem3d/velocity/velocity_update.c":92:42)
#loc27 = loc("/home/raherrer/projects/carts/external/carts-benchmarks/specfem3d/velocity/velocity_update.c":92:40)
#loc28 = loc("/home/raherrer/projects/carts/external/carts-benchmarks/specfem3d/velocity/velocity_update.c":93:18)
#loc29 = loc("/home/raherrer/projects/carts/external/carts-benchmarks/specfem3d/velocity/velocity_update.c":93:42)
#loc30 = loc("/home/raherrer/projects/carts/external/carts-benchmarks/specfem3d/velocity/velocity_update.c":93:40)
#loc31 = loc("/home/raherrer/projects/carts/external/carts-benchmarks/specfem3d/velocity/velocity_update.c":94:19)
#loc32 = loc("/home/raherrer/projects/carts/external/carts-benchmarks/specfem3d/velocity/velocity_update.c":94:43)
#loc33 = loc("/home/raherrer/projects/carts/external/carts-benchmarks/specfem3d/velocity/velocity_update.c":94:41)
#loc34 = loc("/home/raherrer/projects/carts/external/carts-benchmarks/specfem3d/velocity/velocity_update.c":95:19)
#loc35 = loc("/home/raherrer/projects/carts/external/carts-benchmarks/specfem3d/velocity/velocity_update.c":95:43)
#loc36 = loc("/home/raherrer/projects/carts/external/carts-benchmarks/specfem3d/velocity/velocity_update.c":95:41)
#loc37 = loc("/home/raherrer/projects/carts/external/carts-benchmarks/specfem3d/velocity/velocity_update.c":96:19)
#loc38 = loc("/home/raherrer/projects/carts/external/carts-benchmarks/specfem3d/velocity/velocity_update.c":96:43)
#loc39 = loc("/home/raherrer/projects/carts/external/carts-benchmarks/specfem3d/velocity/velocity_update.c":96:41)
#loc40 = loc("/home/raherrer/projects/carts/external/carts-benchmarks/specfem3d/velocity/velocity_update.c":97:19)
#loc41 = loc("/home/raherrer/projects/carts/external/carts-benchmarks/specfem3d/velocity/velocity_update.c":97:43)
#loc42 = loc("/home/raherrer/projects/carts/external/carts-benchmarks/specfem3d/velocity/velocity_update.c":97:41)
#loc43 = loc("/home/raherrer/projects/carts/external/carts-benchmarks/specfem3d/velocity/velocity_update.c":98:19)
#loc44 = loc("/home/raherrer/projects/carts/external/carts-benchmarks/specfem3d/velocity/velocity_update.c":98:43)
#loc45 = loc("/home/raherrer/projects/carts/external/carts-benchmarks/specfem3d/velocity/velocity_update.c":98:41)
#loc46 = loc("/home/raherrer/projects/carts/external/carts-benchmarks/specfem3d/velocity/velocity_update.c":99:19)
#loc47 = loc("/home/raherrer/projects/carts/external/carts-benchmarks/specfem3d/velocity/velocity_update.c":99:43)
#loc48 = loc("/home/raherrer/projects/carts/external/carts-benchmarks/specfem3d/velocity/velocity_update.c":99:41)
#loc49 = loc("/home/raherrer/projects/carts/external/carts-benchmarks/specfem3d/velocity/velocity_update.c":100:19)
#loc50 = loc("/home/raherrer/projects/carts/external/carts-benchmarks/specfem3d/velocity/velocity_update.c":100:43)
#loc51 = loc("/home/raherrer/projects/carts/external/carts-benchmarks/specfem3d/velocity/velocity_update.c":100:41)
#loc52 = loc("/home/raherrer/projects/carts/external/carts-benchmarks/specfem3d/velocity/velocity_update.c":103:5)
#loc53 = loc("/home/raherrer/projects/carts/external/carts-benchmarks/specfem3d/velocity/velocity_update.c":103:13)
#loc54 = loc("/home/raherrer/projects/carts/external/carts-benchmarks/specfem3d/velocity/velocity_update.c":103:36)
#loc55 = loc("/home/raherrer/projects/carts/external/carts-benchmarks/specfem3d/velocity/velocity_update.c":103:34)
#loc56 = loc("/home/raherrer/projects/carts/external/carts-benchmarks/specfem3d/velocity/velocity_update.c":104:5)
#loc57 = loc("/home/raherrer/projects/carts/external/carts-benchmarks/specfem3d/velocity/velocity_update.c":104:13)
#loc58 = loc("/home/raherrer/projects/carts/external/carts-benchmarks/specfem3d/velocity/velocity_update.c":104:36)
#loc59 = loc("/home/raherrer/projects/carts/external/carts-benchmarks/specfem3d/velocity/velocity_update.c":104:34)
#loc60 = loc("/home/raherrer/projects/carts/external/carts-benchmarks/specfem3d/velocity/velocity_update.c":105:5)
#loc61 = loc("/home/raherrer/projects/carts/external/carts-benchmarks/specfem3d/velocity/velocity_update.c":105:13)
#loc62 = loc("/home/raherrer/projects/carts/external/carts-benchmarks/specfem3d/velocity/velocity_update.c":105:36)
#loc63 = loc("/home/raherrer/projects/carts/external/carts-benchmarks/specfem3d/velocity/velocity_update.c":105:34)
#loc64 = loc("/home/raherrer/projects/carts/external/carts-benchmarks/specfem3d/velocity/velocity_update.c":106:5)
#loc65 = loc("/home/raherrer/projects/carts/external/carts-benchmarks/specfem3d/velocity/velocity_update.c":106:14)
#loc66 = loc("/home/raherrer/projects/carts/external/carts-benchmarks/specfem3d/velocity/velocity_update.c":106:37)
#loc67 = loc("/home/raherrer/projects/carts/external/carts-benchmarks/specfem3d/velocity/velocity_update.c":106:35)
#loc68 = loc("/home/raherrer/projects/carts/external/carts-benchmarks/specfem3d/velocity/velocity_update.c":107:5)
#loc69 = loc("/home/raherrer/projects/carts/external/carts-benchmarks/specfem3d/velocity/velocity_update.c":107:14)
#loc70 = loc("/home/raherrer/projects/carts/external/carts-benchmarks/specfem3d/velocity/velocity_update.c":107:37)
#loc71 = loc("/home/raherrer/projects/carts/external/carts-benchmarks/specfem3d/velocity/velocity_update.c":107:35)
#loc72 = loc("/home/raherrer/projects/carts/external/carts-benchmarks/specfem3d/velocity/velocity_update.c":108:5)
#loc73 = loc("/home/raherrer/projects/carts/external/carts-benchmarks/specfem3d/velocity/velocity_update.c":108:14)
#loc74 = loc("/home/raherrer/projects/carts/external/carts-benchmarks/specfem3d/velocity/velocity_update.c":108:37)
#loc75 = loc("/home/raherrer/projects/carts/external/carts-benchmarks/specfem3d/velocity/velocity_update.c":108:35)
#loc76 = loc("/home/raherrer/projects/carts/external/carts-benchmarks/specfem3d/velocity/velocity_update.c":109:5)
#loc77 = loc("/home/raherrer/projects/carts/external/carts-benchmarks/specfem3d/velocity/velocity_update.c":109:14)
#loc78 = loc("/home/raherrer/projects/carts/external/carts-benchmarks/specfem3d/velocity/velocity_update.c":109:37)
#loc79 = loc("/home/raherrer/projects/carts/external/carts-benchmarks/specfem3d/velocity/velocity_update.c":109:35)
#loc80 = loc("/home/raherrer/projects/carts/external/carts-benchmarks/specfem3d/velocity/velocity_update.c":110:5)
#loc81 = loc("/home/raherrer/projects/carts/external/carts-benchmarks/specfem3d/velocity/velocity_update.c":110:14)
#loc82 = loc("/home/raherrer/projects/carts/external/carts-benchmarks/specfem3d/velocity/velocity_update.c":110:37)
#loc83 = loc("/home/raherrer/projects/carts/external/carts-benchmarks/specfem3d/velocity/velocity_update.c":110:35)
#loc84 = loc("/home/raherrer/projects/carts/external/carts-benchmarks/specfem3d/velocity/velocity_update.c":111:5)
#loc85 = loc("/home/raherrer/projects/carts/external/carts-benchmarks/specfem3d/velocity/velocity_update.c":111:14)
#loc86 = loc("/home/raherrer/projects/carts/external/carts-benchmarks/specfem3d/velocity/velocity_update.c":111:37)
#loc87 = loc("/home/raherrer/projects/carts/external/carts-benchmarks/specfem3d/velocity/velocity_update.c":111:35)
#loc88 = loc("/home/raherrer/projects/carts/external/carts-benchmarks/specfem3d/velocity/velocity_update.c":112:5)
#loc89 = loc("/home/raherrer/projects/carts/external/carts-benchmarks/specfem3d/velocity/velocity_update.c":112:14)
#loc90 = loc("/home/raherrer/projects/carts/external/carts-benchmarks/specfem3d/velocity/velocity_update.c":112:37)
#loc91 = loc("/home/raherrer/projects/carts/external/carts-benchmarks/specfem3d/velocity/velocity_update.c":112:35)
#loc92 = loc("/home/raherrer/projects/carts/external/carts-benchmarks/specfem3d/velocity/velocity_update.c":114:18)
#loc93 = loc("/home/raherrer/projects/carts/external/carts-benchmarks/specfem3d/velocity/velocity_update.c":114:40)
#loc94 = loc("/home/raherrer/projects/carts/external/carts-benchmarks/specfem3d/velocity/velocity_update.c":114:38)
#loc95 = loc("/home/raherrer/projects/carts/external/carts-benchmarks/specfem3d/velocity/velocity_update.c":115:18)
#loc96 = loc("/home/raherrer/projects/carts/external/carts-benchmarks/specfem3d/velocity/velocity_update.c":115:40)
#loc97 = loc("/home/raherrer/projects/carts/external/carts-benchmarks/specfem3d/velocity/velocity_update.c":115:38)
#loc98 = loc("/home/raherrer/projects/carts/external/carts-benchmarks/specfem3d/velocity/velocity_update.c":116:18)
#loc99 = loc("/home/raherrer/projects/carts/external/carts-benchmarks/specfem3d/velocity/velocity_update.c":116:40)
#loc100 = loc("/home/raherrer/projects/carts/external/carts-benchmarks/specfem3d/velocity/velocity_update.c":116:38)
#loc101 = loc("/home/raherrer/projects/carts/external/carts-benchmarks/specfem3d/velocity/velocity_update.c":117:19)
#loc102 = loc("/home/raherrer/projects/carts/external/carts-benchmarks/specfem3d/velocity/velocity_update.c":117:41)
#loc103 = loc("/home/raherrer/projects/carts/external/carts-benchmarks/specfem3d/velocity/velocity_update.c":117:39)
#loc104 = loc("/home/raherrer/projects/carts/external/carts-benchmarks/specfem3d/velocity/velocity_update.c":118:19)
#loc105 = loc("/home/raherrer/projects/carts/external/carts-benchmarks/specfem3d/velocity/velocity_update.c":118:41)
#loc106 = loc("/home/raherrer/projects/carts/external/carts-benchmarks/specfem3d/velocity/velocity_update.c":118:39)
#loc107 = loc("/home/raherrer/projects/carts/external/carts-benchmarks/specfem3d/velocity/velocity_update.c":119:19)
#loc108 = loc("/home/raherrer/projects/carts/external/carts-benchmarks/specfem3d/velocity/velocity_update.c":119:41)
#loc109 = loc("/home/raherrer/projects/carts/external/carts-benchmarks/specfem3d/velocity/velocity_update.c":119:39)
#loc110 = loc("/home/raherrer/projects/carts/external/carts-benchmarks/specfem3d/velocity/velocity_update.c":120:19)
#loc111 = loc("/home/raherrer/projects/carts/external/carts-benchmarks/specfem3d/velocity/velocity_update.c":120:41)
#loc112 = loc("/home/raherrer/projects/carts/external/carts-benchmarks/specfem3d/velocity/velocity_update.c":120:39)
#loc113 = loc("/home/raherrer/projects/carts/external/carts-benchmarks/specfem3d/velocity/velocity_update.c":121:19)
#loc114 = loc("/home/raherrer/projects/carts/external/carts-benchmarks/specfem3d/velocity/velocity_update.c":121:41)
#loc115 = loc("/home/raherrer/projects/carts/external/carts-benchmarks/specfem3d/velocity/velocity_update.c":121:39)
#loc116 = loc("/home/raherrer/projects/carts/external/carts-benchmarks/specfem3d/velocity/velocity_update.c":122:19)
#loc117 = loc("/home/raherrer/projects/carts/external/carts-benchmarks/specfem3d/velocity/velocity_update.c":122:41)
#loc118 = loc("/home/raherrer/projects/carts/external/carts-benchmarks/specfem3d/velocity/velocity_update.c":122:39)
#loc119 = loc("/home/raherrer/projects/carts/external/carts-benchmarks/specfem3d/velocity/velocity_update.c":123:19)
#loc120 = loc("/home/raherrer/projects/carts/external/carts-benchmarks/specfem3d/velocity/velocity_update.c":123:41)
#loc121 = loc("/home/raherrer/projects/carts/external/carts-benchmarks/specfem3d/velocity/velocity_update.c":123:39)
#loc123 = loc("/home/raherrer/projects/carts/external/carts-benchmarks/specfem3d/velocity/velocity_update.c":103:11)
#loc124 = loc("/home/raherrer/projects/carts/external/carts-benchmarks/specfem3d/velocity/velocity_update.c":104:11)
#loc125 = loc("/home/raherrer/projects/carts/external/carts-benchmarks/specfem3d/velocity/velocity_update.c":105:11)
#loc126 = loc("/home/raherrer/projects/carts/external/carts-benchmarks/specfem3d/velocity/velocity_update.c":106:12)
#loc127 = loc("/home/raherrer/projects/carts/external/carts-benchmarks/specfem3d/velocity/velocity_update.c":107:12)
#loc128 = loc("/home/raherrer/projects/carts/external/carts-benchmarks/specfem3d/velocity/velocity_update.c":108:12)
#loc129 = loc("/home/raherrer/projects/carts/external/carts-benchmarks/specfem3d/velocity/velocity_update.c":109:12)
#loc130 = loc("/home/raherrer/projects/carts/external/carts-benchmarks/specfem3d/velocity/velocity_update.c":110:12)
#loc131 = loc("/home/raherrer/projects/carts/external/carts-benchmarks/specfem3d/velocity/velocity_update.c":111:12)
#loc132 = loc("/home/raherrer/projects/carts/external/carts-benchmarks/specfem3d/velocity/velocity_update.c":112:12)
#loc133 = loc("/home/raherrer/projects/carts/external/carts-benchmarks/specfem3d/velocity/velocity_update.c":114:7)
#loc134 = loc("/home/raherrer/projects/carts/external/carts-benchmarks/specfem3d/velocity/velocity_update.c":115:7)
#loc135 = loc("/home/raherrer/projects/carts/external/carts-benchmarks/specfem3d/velocity/velocity_update.c":116:7)
#loc136 = loc("/home/raherrer/projects/carts/external/carts-benchmarks/specfem3d/velocity/velocity_update.c":117:7)
#loc137 = loc("/home/raherrer/projects/carts/external/carts-benchmarks/specfem3d/velocity/velocity_update.c":118:7)
#loc138 = loc("/home/raherrer/projects/carts/external/carts-benchmarks/specfem3d/velocity/velocity_update.c":119:7)
#loc139 = loc("/home/raherrer/projects/carts/external/carts-benchmarks/specfem3d/velocity/velocity_update.c":120:7)
#loc140 = loc("/home/raherrer/projects/carts/external/carts-benchmarks/specfem3d/velocity/velocity_update.c":121:7)
#loc141 = loc("/home/raherrer/projects/carts/external/carts-benchmarks/specfem3d/velocity/velocity_update.c":122:7)
#loc142 = loc("/home/raherrer/projects/carts/external/carts-benchmarks/specfem3d/velocity/velocity_update.c":123:7)
#loc144 = loc("/home/raherrer/projects/carts/external/carts-benchmarks/specfem3d/velocity/velocity_update.c":114:16)
#loc145 = loc("/home/raherrer/projects/carts/external/carts-benchmarks/specfem3d/velocity/velocity_update.c":115:16)
#loc146 = loc("/home/raherrer/projects/carts/external/carts-benchmarks/specfem3d/velocity/velocity_update.c":116:16)
#loc147 = loc("/home/raherrer/projects/carts/external/carts-benchmarks/specfem3d/velocity/velocity_update.c":117:17)
#loc148 = loc("/home/raherrer/projects/carts/external/carts-benchmarks/specfem3d/velocity/velocity_update.c":118:17)
#loc149 = loc("/home/raherrer/projects/carts/external/carts-benchmarks/specfem3d/velocity/velocity_update.c":119:17)
#loc150 = loc("/home/raherrer/projects/carts/external/carts-benchmarks/specfem3d/velocity/velocity_update.c":120:17)
#loc151 = loc("/home/raherrer/projects/carts/external/carts-benchmarks/specfem3d/velocity/velocity_update.c":121:17)
#loc152 = loc("/home/raherrer/projects/carts/external/carts-benchmarks/specfem3d/velocity/velocity_update.c":122:17)
#loc153 = loc("/home/raherrer/projects/carts/external/carts-benchmarks/specfem3d/velocity/velocity_update.c":123:17)
#loc154 = loc("/home/raherrer/projects/carts/external/carts-benchmarks/specfem3d/velocity/velocity_update.c":127:8)
#loc155 = loc("/home/raherrer/projects/carts/external/carts-benchmarks/specfem3d/velocity/velocity_update.c":127:12)
#loc156 = loc("/home/raherrer/projects/carts/external/carts-benchmarks/specfem3d/velocity/velocity_update.c":127:16)
#loc157 = loc("/home/raherrer/projects/carts/external/carts-benchmarks/specfem3d/velocity/velocity_update.c":127:20)
#loc158 = loc("/home/raherrer/projects/carts/external/carts-benchmarks/specfem3d/velocity/velocity_update.c":127:25)
#loc159 = loc("/home/raherrer/projects/carts/external/carts-benchmarks/specfem3d/velocity/velocity_update.c":127:30)
#loc160 = loc("/home/raherrer/projects/carts/external/carts-benchmarks/specfem3d/velocity/velocity_update.c":127:35)
#loc161 = loc("/home/raherrer/projects/carts/external/carts-benchmarks/specfem3d/velocity/velocity_update.c":127:40)
#loc162 = loc("/home/raherrer/projects/carts/external/carts-benchmarks/specfem3d/velocity/velocity_update.c":127:45)
#loc163 = loc("/home/raherrer/projects/carts/external/carts-benchmarks/specfem3d/velocity/velocity_update.c":127:50)
#loc164 = loc("/home/raherrer/projects/carts/external/carts-benchmarks/specfem3d/velocity/velocity_update.c":127:3)
#loc165 = loc("/home/raherrer/projects/carts/.install/carts/include/arts/utils/benchmarks/CartsBenchmarks.h":96:36)
#loc166 = loc("/home/raherrer/projects/carts/.install/carts/include/arts/utils/benchmarks/CartsBenchmarks.h":139:40)
#loc167 = loc("/home/raherrer/projects/carts/.install/carts/include/arts/utils/benchmarks/CartsBenchmarks.h":141:40)
#loc169 = loc("/home/raherrer/projects/carts/external/carts-benchmarks/specfem3d/velocity/velocity_update.c":133:29)
#loc170 = loc("/home/raherrer/projects/carts/external/carts-benchmarks/specfem3d/velocity/velocity_update.c":133:33)
#loc171 = loc("/home/raherrer/projects/carts/external/carts-benchmarks/specfem3d/velocity/velocity_update.c":133:37)
#loc172 = loc("/home/raherrer/projects/carts/external/carts-benchmarks/specfem3d/velocity/velocity_update.c":133:41)
#loc173 = loc("/home/raherrer/projects/carts/external/carts-benchmarks/specfem3d/velocity/velocity_update.c":133:46)
#loc174 = loc("/home/raherrer/projects/carts/external/carts-benchmarks/specfem3d/velocity/velocity_update.c":133:51)
#loc175 = loc("/home/raherrer/projects/carts/external/carts-benchmarks/specfem3d/velocity/velocity_update.c":133:56)
#loc176 = loc("/home/raherrer/projects/carts/external/carts-benchmarks/specfem3d/velocity/velocity_update.c":133:61)
#loc177 = loc("/home/raherrer/projects/carts/external/carts-benchmarks/specfem3d/velocity/velocity_update.c":133:66)
#loc178 = loc("/home/raherrer/projects/carts/external/carts-benchmarks/specfem3d/velocity/velocity_update.c":133:71)
#loc179 = loc("/home/raherrer/projects/carts/external/carts-benchmarks/specfem3d/velocity/velocity_update.c":133:5)
#loc180 = loc("/home/raherrer/projects/carts/.install/carts/include/arts/utils/benchmarks/CartsBenchmarks.h":142:40)
#loc181 = loc("/home/raherrer/projects/carts/.install/carts/include/arts/utils/benchmarks/CartsBenchmarks.h":98:3)
#loc182 = loc("/home/raherrer/projects/carts/external/carts-benchmarks/specfem3d/velocity/velocity_update.c":143:10)
#loc183 = loc("/home/raherrer/projects/carts/external/carts-benchmarks/specfem3d/velocity/velocity_update.c":143:3)
#loc184 = loc("/home/raherrer/projects/carts/external/carts-benchmarks/specfem3d/velocity/velocity_update.c":144:10)
#loc185 = loc("/home/raherrer/projects/carts/external/carts-benchmarks/specfem3d/velocity/velocity_update.c":144:3)
#loc186 = loc("/home/raherrer/projects/carts/external/carts-benchmarks/specfem3d/velocity/velocity_update.c":146:17)
#loc187 = loc("/home/raherrer/projects/carts/external/carts-benchmarks/specfem3d/velocity/velocity_update.c":146:31)
#loc188 = loc("/home/raherrer/projects/carts/external/carts-benchmarks/specfem3d/velocity/velocity_update.c":146:45)
#loc190 = loc("/home/raherrer/projects/carts/external/carts-benchmarks/specfem3d/velocity/velocity_update.c":146:29)
#loc191 = loc("/home/raherrer/projects/carts/external/carts-benchmarks/specfem3d/velocity/velocity_update.c":146:43)
#loc192 = loc("/home/raherrer/projects/carts/external/carts-benchmarks/specfem3d/velocity/velocity_update.c":146:14)
#loc193 = loc("/home/raherrer/projects/carts/external/carts-benchmarks/specfem3d/velocity/velocity_update.c":148:24)
#loc194 = loc("/home/raherrer/projects/carts/.install/carts/include/arts/utils/benchmarks/CartsBenchmarks.h":251:3)
#loc195 = loc("/home/raherrer/projects/carts/.install/carts/include/arts/utils/benchmarks/CartsBenchmarks.h":99:41)
#loc196 = loc("/home/raherrer/projects/carts/.install/carts/include/arts/utils/benchmarks/CartsBenchmarks.h":100:41)
#loc197 = loc("/home/raherrer/projects/carts/external/carts-benchmarks/specfem3d/velocity/velocity_update.c":157:12)
#loc198 = loc("/home/raherrer/projects/carts/external/carts-benchmarks/specfem3d/velocity/velocity_update.c":158:12)
#loc199 = loc("/home/raherrer/projects/carts/external/carts-benchmarks/specfem3d/velocity/velocity_update.c":159:12)
#loc200 = loc("/home/raherrer/projects/carts/external/carts-benchmarks/specfem3d/velocity/velocity_update.c":160:12)
#loc201 = loc("/home/raherrer/projects/carts/external/carts-benchmarks/specfem3d/velocity/velocity_update.c":161:12)
#loc202 = loc("/home/raherrer/projects/carts/external/carts-benchmarks/specfem3d/velocity/velocity_update.c":162:12)
#loc203 = loc("/home/raherrer/projects/carts/external/carts-benchmarks/specfem3d/velocity/velocity_update.c":163:12)
#loc204 = loc("/home/raherrer/projects/carts/external/carts-benchmarks/specfem3d/velocity/velocity_update.c":164:12)
#loc205 = loc("/home/raherrer/projects/carts/external/carts-benchmarks/specfem3d/velocity/velocity_update.c":165:12)
#loc206 = loc("/home/raherrer/projects/carts/external/carts-benchmarks/specfem3d/velocity/velocity_update.c":166:12)
#loc209 = loc("/home/raherrer/projects/carts/external/carts-benchmarks/specfem3d/velocity/velocity_update.c":157:7)
#loc210 = loc("/home/raherrer/projects/carts/external/carts-benchmarks/specfem3d/velocity/velocity_update.c":158:7)
#loc211 = loc("/home/raherrer/projects/carts/external/carts-benchmarks/specfem3d/velocity/velocity_update.c":159:7)
#loc212 = loc("/home/raherrer/projects/carts/external/carts-benchmarks/specfem3d/velocity/velocity_update.c":160:7)
#loc213 = loc("/home/raherrer/projects/carts/external/carts-benchmarks/specfem3d/velocity/velocity_update.c":161:7)
#loc214 = loc("/home/raherrer/projects/carts/external/carts-benchmarks/specfem3d/velocity/velocity_update.c":162:7)
#loc215 = loc("/home/raherrer/projects/carts/external/carts-benchmarks/specfem3d/velocity/velocity_update.c":163:7)
#loc216 = loc("/home/raherrer/projects/carts/external/carts-benchmarks/specfem3d/velocity/velocity_update.c":164:7)
#loc217 = loc("/home/raherrer/projects/carts/external/carts-benchmarks/specfem3d/velocity/velocity_update.c":165:7)
#loc218 = loc("/home/raherrer/projects/carts/external/carts-benchmarks/specfem3d/velocity/velocity_update.c":166:7)
#loc219 = loc("/home/raherrer/projects/carts/external/carts-benchmarks/specfem3d/velocity/velocity_update.c":168:10)
#loc220 = loc("/home/raherrer/projects/carts/external/carts-benchmarks/specfem3d/velocity/velocity_update.c":168:5)
#loc221 = loc("/home/raherrer/projects/carts/external/carts-benchmarks/specfem3d/velocity/velocity_update.c":169:10)
#loc222 = loc("/home/raherrer/projects/carts/external/carts-benchmarks/specfem3d/velocity/velocity_update.c":169:5)
#loc223 = loc("/home/raherrer/projects/carts/external/carts-benchmarks/specfem3d/velocity/velocity_update.c":170:10)
#loc224 = loc("/home/raherrer/projects/carts/external/carts-benchmarks/specfem3d/velocity/velocity_update.c":170:5)
#loc225 = loc("/home/raherrer/projects/carts/external/carts-benchmarks/specfem3d/velocity/velocity_update.c":171:10)
#loc226 = loc("/home/raherrer/projects/carts/external/carts-benchmarks/specfem3d/velocity/velocity_update.c":171:5)
#loc227 = loc("/home/raherrer/projects/carts/external/carts-benchmarks/specfem3d/velocity/velocity_update.c":172:10)
#loc228 = loc("/home/raherrer/projects/carts/external/carts-benchmarks/specfem3d/velocity/velocity_update.c":172:5)
#loc229 = loc("/home/raherrer/projects/carts/external/carts-benchmarks/specfem3d/velocity/velocity_update.c":173:10)
#loc230 = loc("/home/raherrer/projects/carts/external/carts-benchmarks/specfem3d/velocity/velocity_update.c":173:5)
#loc231 = loc("/home/raherrer/projects/carts/external/carts-benchmarks/specfem3d/velocity/velocity_update.c":174:10)
#loc232 = loc("/home/raherrer/projects/carts/external/carts-benchmarks/specfem3d/velocity/velocity_update.c":174:5)
#loc233 = loc("/home/raherrer/projects/carts/external/carts-benchmarks/specfem3d/velocity/velocity_update.c":175:10)
#loc234 = loc("/home/raherrer/projects/carts/external/carts-benchmarks/specfem3d/velocity/velocity_update.c":175:5)
#loc235 = loc("/home/raherrer/projects/carts/external/carts-benchmarks/specfem3d/velocity/velocity_update.c":176:10)
#loc236 = loc("/home/raherrer/projects/carts/external/carts-benchmarks/specfem3d/velocity/velocity_update.c":176:5)
#loc237 = loc("/home/raherrer/projects/carts/external/carts-benchmarks/specfem3d/velocity/velocity_update.c":177:10)
#loc238 = loc("/home/raherrer/projects/carts/external/carts-benchmarks/specfem3d/velocity/velocity_update.c":177:5)
#loc239 = loc("/home/raherrer/projects/carts/external/carts-benchmarks/specfem3d/velocity/velocity_update.c":179:3)
#loc240 = loc("/home/raherrer/projects/carts/external/carts-benchmarks/specfem3d/velocity/velocity_update.c":180:3)
#loc241 = loc("/home/raherrer/projects/carts/external/carts-benchmarks/specfem3d/velocity/velocity_update.c":181:3)
#loc242 = loc("/home/raherrer/projects/carts/external/carts-benchmarks/specfem3d/velocity/velocity_update.c":182:3)
#loc243 = loc("/home/raherrer/projects/carts/external/carts-benchmarks/specfem3d/velocity/velocity_update.c":183:3)
#loc244 = loc("/home/raherrer/projects/carts/external/carts-benchmarks/specfem3d/velocity/velocity_update.c":184:3)
#loc245 = loc("/home/raherrer/projects/carts/external/carts-benchmarks/specfem3d/velocity/velocity_update.c":185:3)
#loc246 = loc("/home/raherrer/projects/carts/external/carts-benchmarks/specfem3d/velocity/velocity_update.c":186:3)
#loc247 = loc("/home/raherrer/projects/carts/external/carts-benchmarks/specfem3d/velocity/velocity_update.c":187:3)
#loc248 = loc("/home/raherrer/projects/carts/external/carts-benchmarks/specfem3d/velocity/velocity_update.c":188:3)
#loc249 = loc("/home/raherrer/projects/carts/.install/carts/include/arts/utils/benchmarks/CartsBenchmarks.h":101:36)
#loc250 = loc("/home/raherrer/projects/carts/.install/carts/include/arts/utils/benchmarks/CartsBenchmarks.h":80:32)
#loc251 = loc("/home/raherrer/projects/carts/external/carts-benchmarks/specfem3d/velocity/velocity_update.c":195:1)
#loc252 = loc("/home/raherrer/projects/carts/.install/carts/include/arts/utils/benchmarks/CartsBenchmarks.h":50:6)
#loc253 = loc("/home/raherrer/projects/carts/.install/carts/include/arts/utils/benchmarks/CartsBenchmarks.h":74:6)
#loc254 = loc("/home/raherrer/projects/carts/.install/carts/include/arts/utils/benchmarks/CartsBenchmarks.h":90:6)
#loc256 = loc("/home/raherrer/projects/carts/external/carts-benchmarks/specfem3d/velocity/velocity_update.c":22:1)
#loc257 = loc("/home/raherrer/projects/carts/external/carts-benchmarks/specfem3d/velocity/velocity_update.c":28:12)
#loc258 = loc("/home/raherrer/projects/carts/external/carts-benchmarks/specfem3d/velocity/velocity_update.c":25:3)
#loc260 = loc("/home/raherrer/projects/carts/external/carts-benchmarks/specfem3d/velocity/velocity_update.c":29:9)
#loc261 = loc("/home/raherrer/projects/carts/external/carts-benchmarks/specfem3d/velocity/velocity_update.c":30:9)
#loc262 = loc("/home/raherrer/projects/carts/external/carts-benchmarks/specfem3d/velocity/velocity_update.c":31:9)
#loc263 = loc("/home/raherrer/projects/carts/external/carts-benchmarks/specfem3d/velocity/velocity_update.c":32:9)
#loc264 = loc("/home/raherrer/projects/carts/external/carts-benchmarks/specfem3d/velocity/velocity_update.c":33:9)
#loc265 = loc("/home/raherrer/projects/carts/external/carts-benchmarks/specfem3d/velocity/velocity_update.c":34:9)
#loc266 = loc("/home/raherrer/projects/carts/external/carts-benchmarks/specfem3d/velocity/velocity_update.c":35:9)
#loc267 = loc("/home/raherrer/projects/carts/external/carts-benchmarks/specfem3d/velocity/velocity_update.c":36:9)
#loc268 = loc("/home/raherrer/projects/carts/external/carts-benchmarks/specfem3d/velocity/velocity_update.c":37:9)
#loc269 = loc("/home/raherrer/projects/carts/external/carts-benchmarks/specfem3d/velocity/velocity_update.c":38:9)
#loc271 = loc("/home/raherrer/projects/carts/external/carts-benchmarks/specfem3d/velocity/velocity_update.c":28:7)
#loc272 = loc("/home/raherrer/projects/carts/external/carts-benchmarks/specfem3d/velocity/velocity_update.c":29:21)
#loc273 = loc("/home/raherrer/projects/carts/external/carts-benchmarks/specfem3d/velocity/velocity_update.c":30:21)
#loc274 = loc("/home/raherrer/projects/carts/external/carts-benchmarks/specfem3d/velocity/velocity_update.c":31:21)
#loc275 = loc("/home/raherrer/projects/carts/external/carts-benchmarks/specfem3d/velocity/velocity_update.c":32:42)
#loc276 = loc("/home/raherrer/projects/carts/external/carts-benchmarks/specfem3d/velocity/velocity_update.c":32:46)
#loc277 = loc("/home/raherrer/projects/carts/external/carts-benchmarks/specfem3d/velocity/velocity_update.c":32:33)
#loc278 = loc("/home/raherrer/projects/carts/external/carts-benchmarks/specfem3d/velocity/velocity_update.c":32:31)
#loc279 = loc("/home/raherrer/projects/carts/external/carts-benchmarks/specfem3d/velocity/velocity_update.c":32:22)
#loc280 = loc("/home/raherrer/projects/carts/external/carts-benchmarks/specfem3d/velocity/velocity_update.c":33:41)
#loc281 = loc("/home/raherrer/projects/carts/external/carts-benchmarks/specfem3d/velocity/velocity_update.c":33:45)
#loc282 = loc("/home/raherrer/projects/carts/external/carts-benchmarks/specfem3d/velocity/velocity_update.c":33:50)
#loc283 = loc("/home/raherrer/projects/carts/external/carts-benchmarks/specfem3d/velocity/velocity_update.c":33:31)
#loc284 = loc("/home/raherrer/projects/carts/external/carts-benchmarks/specfem3d/velocity/velocity_update.c":33:29)
#loc285 = loc("/home/raherrer/projects/carts/external/carts-benchmarks/specfem3d/velocity/velocity_update.c":33:22)
#loc286 = loc("/home/raherrer/projects/carts/external/carts-benchmarks/specfem3d/velocity/velocity_update.c":34:41)
#loc287 = loc("/home/raherrer/projects/carts/external/carts-benchmarks/specfem3d/velocity/velocity_update.c":34:45)
#loc288 = loc("/home/raherrer/projects/carts/external/carts-benchmarks/specfem3d/velocity/velocity_update.c":34:50)
#loc289 = loc("/home/raherrer/projects/carts/external/carts-benchmarks/specfem3d/velocity/velocity_update.c":34:31)
#loc290 = loc("/home/raherrer/projects/carts/external/carts-benchmarks/specfem3d/velocity/velocity_update.c":34:29)
#loc291 = loc("/home/raherrer/projects/carts/external/carts-benchmarks/specfem3d/velocity/velocity_update.c":34:22)
#loc292 = loc("/home/raherrer/projects/carts/external/carts-benchmarks/specfem3d/velocity/velocity_update.c":35:41)
#loc293 = loc("/home/raherrer/projects/carts/external/carts-benchmarks/specfem3d/velocity/velocity_update.c":35:45)
#loc294 = loc("/home/raherrer/projects/carts/external/carts-benchmarks/specfem3d/velocity/velocity_update.c":35:50)
#loc295 = loc("/home/raherrer/projects/carts/external/carts-benchmarks/specfem3d/velocity/velocity_update.c":35:31)
#loc296 = loc("/home/raherrer/projects/carts/external/carts-benchmarks/specfem3d/velocity/velocity_update.c":35:29)
#loc297 = loc("/home/raherrer/projects/carts/external/carts-benchmarks/specfem3d/velocity/velocity_update.c":35:22)
#loc298 = loc("/home/raherrer/projects/carts/external/carts-benchmarks/specfem3d/velocity/velocity_update.c":36:41)
#loc299 = loc("/home/raherrer/projects/carts/external/carts-benchmarks/specfem3d/velocity/velocity_update.c":36:45)
#loc300 = loc("/home/raherrer/projects/carts/external/carts-benchmarks/specfem3d/velocity/velocity_update.c":36:50)
#loc301 = loc("/home/raherrer/projects/carts/external/carts-benchmarks/specfem3d/velocity/velocity_update.c":36:31)
#loc302 = loc("/home/raherrer/projects/carts/external/carts-benchmarks/specfem3d/velocity/velocity_update.c":36:29)
#loc303 = loc("/home/raherrer/projects/carts/external/carts-benchmarks/specfem3d/velocity/velocity_update.c":36:22)
#loc304 = loc("/home/raherrer/projects/carts/external/carts-benchmarks/specfem3d/velocity/velocity_update.c":37:41)
#loc305 = loc("/home/raherrer/projects/carts/external/carts-benchmarks/specfem3d/velocity/velocity_update.c":37:45)
#loc306 = loc("/home/raherrer/projects/carts/external/carts-benchmarks/specfem3d/velocity/velocity_update.c":37:51)
#loc307 = loc("/home/raherrer/projects/carts/external/carts-benchmarks/specfem3d/velocity/velocity_update.c":37:31)
#loc308 = loc("/home/raherrer/projects/carts/external/carts-benchmarks/specfem3d/velocity/velocity_update.c":37:29)
#loc309 = loc("/home/raherrer/projects/carts/external/carts-benchmarks/specfem3d/velocity/velocity_update.c":37:22)
#loc310 = loc("/home/raherrer/projects/carts/external/carts-benchmarks/specfem3d/velocity/velocity_update.c":38:41)
#loc311 = loc("/home/raherrer/projects/carts/external/carts-benchmarks/specfem3d/velocity/velocity_update.c":38:45)
#loc312 = loc("/home/raherrer/projects/carts/external/carts-benchmarks/specfem3d/velocity/velocity_update.c":38:51)
#loc313 = loc("/home/raherrer/projects/carts/external/carts-benchmarks/specfem3d/velocity/velocity_update.c":38:31)
#loc314 = loc("/home/raherrer/projects/carts/external/carts-benchmarks/specfem3d/velocity/velocity_update.c":38:29)
#loc315 = loc("/home/raherrer/projects/carts/external/carts-benchmarks/specfem3d/velocity/velocity_update.c":38:22)
#loc316 = loc("/home/raherrer/projects/carts/external/carts-benchmarks/specfem3d/velocity/velocity_update.c":39:12)
#loc317 = loc("/home/raherrer/projects/carts/external/carts-benchmarks/specfem3d/velocity/velocity_update.c":43:1)
#loc318 = loc("/home/raherrer/projects/carts/.install/carts/include/arts/utils/benchmarks/CartsBenchmarks.h":93:6)
#loc319 = loc("/home/raherrer/projects/carts/.install/carts/include/arts/utils/benchmarks/CartsBenchmarks.h":128:6)
#loc321 = loc("/home/raherrer/projects/carts/external/carts-benchmarks/specfem3d/velocity/velocity_update.c":57:1)
#loc322 = loc("/home/raherrer/projects/carts/external/carts-benchmarks/specfem3d/velocity/velocity_update.c":72:9)
#loc323 = loc("/home/raherrer/projects/carts/external/carts-benchmarks/specfem3d/velocity/velocity_update.c":70:9)
#loc324 = loc("/home/raherrer/projects/carts/external/carts-benchmarks/specfem3d/velocity/velocity_update.c":68:9)
#loc325 = loc("/home/raherrer/projects/carts/external/carts-benchmarks/specfem3d/velocity/velocity_update.c":66:9)
#loc329 = loc("/home/raherrer/projects/carts/external/carts-benchmarks/specfem3d/velocity/velocity_update.c":66:38)
#loc330 = loc("/home/raherrer/projects/carts/external/carts-benchmarks/specfem3d/velocity/velocity_update.c":66:36)
#loc331 = loc("/home/raherrer/projects/carts/external/carts-benchmarks/specfem3d/velocity/velocity_update.c":69:13)
#loc332 = loc("/home/raherrer/projects/carts/external/carts-benchmarks/specfem3d/velocity/velocity_update.c":69:36)
#loc333 = loc("/home/raherrer/projects/carts/external/carts-benchmarks/specfem3d/velocity/velocity_update.c":69:34)
#loc334 = loc("/home/raherrer/projects/carts/external/carts-benchmarks/specfem3d/velocity/velocity_update.c":69:59)
#loc335 = loc("/home/raherrer/projects/carts/external/carts-benchmarks/specfem3d/velocity/velocity_update.c":69:57)
#loc336 = loc("/home/raherrer/projects/carts/external/carts-benchmarks/specfem3d/velocity/velocity_update.c":71:13)
#loc337 = loc("/home/raherrer/projects/carts/external/carts-benchmarks/specfem3d/velocity/velocity_update.c":71:36)
#loc338 = loc("/home/raherrer/projects/carts/external/carts-benchmarks/specfem3d/velocity/velocity_update.c":71:34)
#loc339 = loc("/home/raherrer/projects/carts/external/carts-benchmarks/specfem3d/velocity/velocity_update.c":71:59)
#loc340 = loc("/home/raherrer/projects/carts/external/carts-benchmarks/specfem3d/velocity/velocity_update.c":71:57)
#loc341 = loc("/home/raherrer/projects/carts/external/carts-benchmarks/specfem3d/velocity/velocity_update.c":73:13)
#loc342 = loc("/home/raherrer/projects/carts/external/carts-benchmarks/specfem3d/velocity/velocity_update.c":73:36)
#loc343 = loc("/home/raherrer/projects/carts/external/carts-benchmarks/specfem3d/velocity/velocity_update.c":73:34)
#loc344 = loc("/home/raherrer/projects/carts/external/carts-benchmarks/specfem3d/velocity/velocity_update.c":73:59)
#loc345 = loc("/home/raherrer/projects/carts/external/carts-benchmarks/specfem3d/velocity/velocity_update.c":73:57)
#loc346 = loc("/home/raherrer/projects/carts/external/carts-benchmarks/specfem3d/velocity/velocity_update.c":75:9)
#loc347 = loc("/home/raherrer/projects/carts/external/carts-benchmarks/specfem3d/velocity/velocity_update.c":75:29)
#loc348 = loc("/home/raherrer/projects/carts/external/carts-benchmarks/specfem3d/velocity/velocity_update.c":75:27)
#loc349 = loc("/home/raherrer/projects/carts/external/carts-benchmarks/specfem3d/velocity/velocity_update.c":75:39)
#loc350 = loc("/home/raherrer/projects/carts/external/carts-benchmarks/specfem3d/velocity/velocity_update.c":75:37)
#loc351 = loc("/home/raherrer/projects/carts/external/carts-benchmarks/specfem3d/velocity/velocity_update.c":75:21)
#loc352 = loc("/home/raherrer/projects/carts/external/carts-benchmarks/specfem3d/velocity/velocity_update.c":76:9)
#loc353 = loc("/home/raherrer/projects/carts/external/carts-benchmarks/specfem3d/velocity/velocity_update.c":76:29)
#loc354 = loc("/home/raherrer/projects/carts/external/carts-benchmarks/specfem3d/velocity/velocity_update.c":76:27)
#loc355 = loc("/home/raherrer/projects/carts/external/carts-benchmarks/specfem3d/velocity/velocity_update.c":76:39)
#loc356 = loc("/home/raherrer/projects/carts/external/carts-benchmarks/specfem3d/velocity/velocity_update.c":76:37)
#loc357 = loc("/home/raherrer/projects/carts/external/carts-benchmarks/specfem3d/velocity/velocity_update.c":76:21)
#loc358 = loc("/home/raherrer/projects/carts/external/carts-benchmarks/specfem3d/velocity/velocity_update.c":77:9)
#loc359 = loc("/home/raherrer/projects/carts/external/carts-benchmarks/specfem3d/velocity/velocity_update.c":77:29)
#loc360 = loc("/home/raherrer/projects/carts/external/carts-benchmarks/specfem3d/velocity/velocity_update.c":77:27)
#loc361 = loc("/home/raherrer/projects/carts/external/carts-benchmarks/specfem3d/velocity/velocity_update.c":77:39)
#loc362 = loc("/home/raherrer/projects/carts/external/carts-benchmarks/specfem3d/velocity/velocity_update.c":77:37)
#loc363 = loc("/home/raherrer/projects/carts/external/carts-benchmarks/specfem3d/velocity/velocity_update.c":77:21)
#loc364 = loc("/home/raherrer/projects/carts/external/carts-benchmarks/specfem3d/velocity/velocity_update.c":81:1)
#loc365 = loc("/home/raherrer/projects/carts/.install/carts/include/arts/utils/benchmarks/CartsBenchmarks.h":134:6)
#loc366 = loc("/home/raherrer/projects/carts/.install/carts/include/arts/utils/benchmarks/CartsBenchmarks.h":137:6)
#loc367 = loc("/home/raherrer/projects/carts/.install/carts/include/arts/utils/benchmarks/CartsBenchmarks.h":207:6)
#loc368 = loc("/home/raherrer/projects/carts/.install/carts/include/arts/utils/benchmarks/CartsBenchmarks.h":77:6)
#loc370 = loc("/home/raherrer/projects/carts/external/carts-benchmarks/specfem3d/velocity/velocity_update.c":45:1)
#loc371 = loc("/home/raherrer/projects/carts/external/carts-benchmarks/specfem3d/velocity/velocity_update.c":46:16)
#loc372 = loc("/home/raherrer/projects/carts/external/carts-benchmarks/specfem3d/velocity/velocity_update.c":46:19)
#loc373 = loc("/home/raherrer/projects/carts/external/carts-benchmarks/specfem3d/velocity/velocity_update.c":46:10)
#loc374 = loc("/home/raherrer/projects/carts/external/carts-benchmarks/specfem3d/velocity/velocity_update.c":46:22)
#loc375 = loc("/home/raherrer/projects/carts/external/carts-benchmarks/specfem3d/velocity/velocity_update.c":46:25)
#loc376 = loc("/home/raherrer/projects/carts/external/carts-benchmarks/specfem3d/velocity/velocity_update.c":46:34)
#loc377 = loc("/home/raherrer/projects/carts/external/carts-benchmarks/specfem3d/velocity/velocity_update.c":46:29)
#loc378 = loc("/home/raherrer/projects/carts/external/carts-benchmarks/specfem3d/velocity/velocity_update.c":46:27)
#loc379 = loc("/home/raherrer/projects/carts/external/carts-benchmarks/specfem3d/velocity/velocity_update.c":47:1)
#loc381 = loc("/home/raherrer/projects/carts/external/carts-benchmarks/specfem3d/velocity/velocity_update.c":49:1)
#loc382 = loc("/home/raherrer/projects/carts/external/carts-benchmarks/specfem3d/velocity/velocity_update.c":50:15)
#loc383 = loc("/home/raherrer/projects/carts/external/carts-benchmarks/specfem3d/velocity/velocity_update.c":50:10)
#loc384 = loc("/home/raherrer/projects/carts/external/carts-benchmarks/specfem3d/velocity/velocity_update.c":50:19)
#loc385 = loc("/home/raherrer/projects/carts/external/carts-benchmarks/specfem3d/velocity/velocity_update.c":50:22)
#loc386 = loc("/home/raherrer/projects/carts/external/carts-benchmarks/specfem3d/velocity/velocity_update.c":50:25)
#loc387 = loc("/home/raherrer/projects/carts/external/carts-benchmarks/specfem3d/velocity/velocity_update.c":50:37)
#loc388 = loc("/home/raherrer/projects/carts/external/carts-benchmarks/specfem3d/velocity/velocity_update.c":50:29)
#loc389 = loc("/home/raherrer/projects/carts/external/carts-benchmarks/specfem3d/velocity/velocity_update.c":50:27)
#loc390 = loc("/home/raherrer/projects/carts/external/carts-benchmarks/specfem3d/velocity/velocity_update.c":51:1)
#loc392 = loc("/home/raherrer/projects/carts/external/carts-benchmarks/specfem3d/velocity/velocity_update.c":53:1)
#loc393 = loc("/home/raherrer/projects/carts/external/carts-benchmarks/specfem3d/velocity/velocity_update.c":54:15)
#loc394 = loc("/home/raherrer/projects/carts/external/carts-benchmarks/specfem3d/velocity/velocity_update.c":54:10)
#loc395 = loc("/home/raherrer/projects/carts/external/carts-benchmarks/specfem3d/velocity/velocity_update.c":54:18)
#loc396 = loc("/home/raherrer/projects/carts/external/carts-benchmarks/specfem3d/velocity/velocity_update.c":54:22)
#loc397 = loc("/home/raherrer/projects/carts/external/carts-benchmarks/specfem3d/velocity/velocity_update.c":54:25)
#loc398 = loc("/home/raherrer/projects/carts/external/carts-benchmarks/specfem3d/velocity/velocity_update.c":54:40)
#loc399 = loc("/home/raherrer/projects/carts/external/carts-benchmarks/specfem3d/velocity/velocity_update.c":54:29)
#loc400 = loc("/home/raherrer/projects/carts/external/carts-benchmarks/specfem3d/velocity/velocity_update.c":54:27)
#loc401 = loc("/home/raherrer/projects/carts/external/carts-benchmarks/specfem3d/velocity/velocity_update.c":55:1)
