
-----------------------------------------
DatablockPass STARTED
-----------------------------------------
module attributes {dlti.dl_spec = #dlti.dl_spec<#dlti.dl_entry<f16, dense<16> : vector<2xi32>>, #dlti.dl_entry<i32, dense<32> : vector<2xi32>>, #dlti.dl_entry<i16, dense<16> : vector<2xi32>>, #dlti.dl_entry<!llvm.ptr<271>, dense<32> : vector<4xi32>>, #dlti.dl_entry<!llvm.ptr<272>, dense<64> : vector<4xi32>>, #dlti.dl_entry<f64, dense<64> : vector<2xi32>>, #dlti.dl_entry<!llvm.ptr<270>, dense<32> : vector<4xi32>>, #dlti.dl_entry<f128, dense<128> : vector<2xi32>>, #dlti.dl_entry<f80, dense<128> : vector<2xi32>>, #dlti.dl_entry<i64, dense<64> : vector<2xi32>>, #dlti.dl_entry<i1, dense<8> : vector<2xi32>>, #dlti.dl_entry<i8, dense<8> : vector<2xi32>>, #dlti.dl_entry<!llvm.ptr, dense<64> : vector<4xi32>>, #dlti.dl_entry<"dlti.endianness", "little">, #dlti.dl_entry<"dlti.stack_alignment", 128 : i32>>, llvm.data_layout = "e-m:e-p270:32:32-p271:32:32-p272:64:64-i64:64-f80:128-n8:16:32:64-S128", llvm.target_triple = "x86_64-unknown-linux-gnu", "polygeist.target-cpu" = "x86-64", "polygeist.target-features" = "+cmov,+cx8,+fxsr,+mmx,+sse,+sse2,+x87", "polygeist.tune-cpu" = "generic"} {
  llvm.mlir.global internal constant @str12("Verification FAILED\00") {addr_space = 0 : i32}
  llvm.mlir.global internal constant @str11("Verification PASSED\00") {addr_space = 0 : i32}
  llvm.mlir.global internal constant @str10("%s\0A\00") {addr_space = 0 : i32}
  llvm.mlir.global internal constant @str9("----------------------\0A\00") {addr_space = 0 : i32}
  llvm.mlir.global internal constant @str8("\0AMatrix C (Sequential):\0A\00") {addr_space = 0 : i32}
  llvm.mlir.global internal constant @str7("\0AMatrix C (Parallel):\0A\00") {addr_space = 0 : i32}
  llvm.mlir.global internal constant @str6("\0AMatrix B:\0A\00") {addr_space = 0 : i32}
  llvm.mlir.global internal constant @str5("\0A\00") {addr_space = 0 : i32}
  llvm.mlir.global internal constant @str4("%6.2f \00") {addr_space = 0 : i32}
  llvm.mlir.global internal constant @str3("Matrix A:\0A\00") {addr_space = 0 : i32}
  llvm.mlir.global internal constant @str2("Mismatch at (%d,%d): Parallel=%.2f, Sequential=%.2f\0A\00") {addr_space = 0 : i32}
  llvm.func @printf(!llvm.ptr, ...) -> i32
  llvm.mlir.global internal constant @str1("Matrix size and block size must be positive integers.\0A\00") {addr_space = 0 : i32}
  llvm.mlir.global internal constant @str0("Usage: %s <matrix_size> <block_size>\0A\00") {addr_space = 0 : i32}
  llvm.mlir.global external @stderr() {addr_space = 0 : i32} : memref<?x!llvm.struct<(i32, ptr, ptr, ptr, ptr, ptr, ptr, ptr, ptr, ptr, ptr, ptr, ptr, ptr, i32, i32, i64, i16, i8, array<1 x i8>, ptr, i64, ptr, ptr, ptr, ptr, i64, i32, array<20 x i8>)>>
  llvm.func @fprintf(!llvm.ptr, !llvm.ptr, ...) -> i32
  func.func @main(%arg0: i32, %arg1: memref<?xmemref<?xi8>>) -> i32 attributes {llvm.linkage = #llvm.linkage<external>} {
    %c4 = arith.constant 4 : index
    %c2 = arith.constant 2 : index
    %c0 = arith.constant 0 : index
    %c1 = arith.constant 1 : index
    %false = arith.constant false
    %true = arith.constant true
    %cst = arith.constant 9.9999999999999995E-7 : f64
    %cst_0 = arith.constant 0.000000e+00 : f32
    %c0_i32 = arith.constant 0 : i32
    %c1_i32 = arith.constant 1 : i32
    %c3_i32 = arith.constant 3 : i32
    %0 = llvm.mlir.undef : i32
    %1 = arith.cmpi ne, %arg0, %c3_i32 : i32
    %2 = arith.cmpi eq, %arg0, %c3_i32 : i32
    %3 = arith.select %1, %c1_i32, %0 : i32
    scf.if %1 {
      %6 = llvm.mlir.addressof @stderr : !llvm.ptr
      %7 = llvm.load %6 : !llvm.ptr -> memref<?x!llvm.struct<(i32, ptr, ptr, ptr, ptr, ptr, ptr, ptr, ptr, ptr, ptr, ptr, ptr, ptr, i32, i32, i64, i16, i8, array<1 x i8>, ptr, i64, ptr, ptr, ptr, ptr, i64, i32, array<20 x i8>)>>
      %8 = "polygeist.memref2pointer"(%7) : (memref<?x!llvm.struct<(i32, ptr, ptr, ptr, ptr, ptr, ptr, ptr, ptr, ptr, ptr, ptr, ptr, ptr, i32, i32, i64, i16, i8, array<1 x i8>, ptr, i64, ptr, ptr, ptr, ptr, i64, i32, array<20 x i8>)>>) -> !llvm.ptr
      %9 = llvm.mlir.addressof @str0 : !llvm.ptr
      %10 = llvm.getelementptr %9[0, 0] : (!llvm.ptr) -> !llvm.ptr, !llvm.array<38 x i8>
      %11 = memref.load %arg1[%c0] : memref<?xmemref<?xi8>>
      %12 = "polygeist.memref2pointer"(%11) : (memref<?xi8>) -> !llvm.ptr
      %13 = llvm.call @fprintf(%8, %10, %12) vararg(!llvm.func<i32 (ptr, ptr, ...)>) : (!llvm.ptr, !llvm.ptr, !llvm.ptr) -> i32
    }
    %4:4 = scf.if %2 -> (i32, i32, i1, i32) {
      %6 = memref.load %arg1[%c1] : memref<?xmemref<?xi8>>
      %7 = func.call @atoi(%6) : (memref<?xi8>) -> i32
      %8 = arith.cmpi sgt, %7, %c0_i32 : i32
      %9 = memref.load %arg1[%c2] : memref<?xmemref<?xi8>>
      %10 = func.call @atoi(%9) : (memref<?xi8>) -> i32
      %11 = arith.cmpi sle, %10, %c0_i32 : i32
      %12 = arith.cmpi sle, %7, %c0_i32 : i32
      %13 = arith.andi %8, %11 : i1
      %14 = arith.ori %12, %13 : i1
      %15 = arith.xori %14, %true : i1
      %16 = arith.select %14, %c1_i32, %3 : i32
      scf.if %14 {
        %17 = llvm.mlir.addressof @stderr : !llvm.ptr
        %18 = llvm.load %17 : !llvm.ptr -> memref<?x!llvm.struct<(i32, ptr, ptr, ptr, ptr, ptr, ptr, ptr, ptr, ptr, ptr, ptr, ptr, ptr, i32, i32, i64, i16, i8, array<1 x i8>, ptr, i64, ptr, ptr, ptr, ptr, i64, i32, array<20 x i8>)>>
        %19 = "polygeist.memref2pointer"(%18) : (memref<?x!llvm.struct<(i32, ptr, ptr, ptr, ptr, ptr, ptr, ptr, ptr, ptr, ptr, ptr, ptr, ptr, i32, i32, i64, i16, i8, array<1 x i8>, ptr, i64, ptr, ptr, ptr, ptr, i64, i32, array<20 x i8>)>>) -> !llvm.ptr
        %20 = llvm.mlir.addressof @str1 : !llvm.ptr
        %21 = llvm.getelementptr %20[0, 0] : (!llvm.ptr) -> !llvm.ptr, !llvm.array<55 x i8>
        %22 = llvm.call @fprintf(%19, %21) vararg(!llvm.func<i32 (ptr, ptr, ...)>) : (!llvm.ptr, !llvm.ptr) -> i32
      }
      scf.yield %7, %10, %15, %16 : i32, i32, i1, i32
    } else {
      scf.yield %0, %0, %false, %3 : i32, i32, i1, i32
    }
    %5 = arith.select %4#2, %c0_i32, %4#3 : i32
    scf.if %4#2 {
      %6 = arith.index_cast %4#0 : i32 to index
      %alloca = memref.alloca(%6, %6) : memref<?x?xf32>
      %7 = arts.datablock "in" ptr[%alloca : memref<?x?xf32>], indices[], sizes[%6, %6], type[f32], typeSize[%c4] -> memref<?x?xf32>
      %alloca_1 = memref.alloca(%6, %6) : memref<?x?xf32>
      %8 = arts.datablock "in" ptr[%alloca_1 : memref<?x?xf32>], indices[], sizes[%6, %6], type[f32], typeSize[%c4] -> memref<?x?xf32>
      %alloca_2 = memref.alloca(%6, %6) : memref<?x?xf32>
      %9 = arts.datablock "inout" ptr[%alloca_2 : memref<?x?xf32>], indices[], sizes[%6, %6], type[f32], typeSize[%c4] -> memref<?x?xf32>
      %alloca_3 = memref.alloca(%6, %6) : memref<?x?xf32>
      %10 = arith.index_cast %4#0 : i32 to index
      scf.for %arg2 = %c0 to %10 step %c1 {
        %46 = arith.index_cast %arg2 : index to i32
        %47 = arith.index_cast %4#0 : i32 to index
        scf.for %arg3 = %c0 to %47 step %c1 {
          %48 = arith.index_cast %arg3 : index to i32
          %49 = arith.addi %46, %48 : i32
          %50 = arith.sitofp %49 : i32 to f32
          memref.store %50, %7[%arg2, %arg3] : memref<?x?xf32>
          %51 = arith.subi %46, %48 : i32
          %52 = arith.sitofp %51 : i32 to f32
          memref.store %52, %8[%arg2, %arg3] : memref<?x?xf32>
          memref.store %cst_0, %9[%arg2, %arg3] : memref<?x?xf32>
          memref.store %cst_0, %alloca_3[%arg2, %arg3] : memref<?x?xf32>
        }
      }
      %11 = arith.index_cast %4#0 : i32 to index
      %12 = arith.index_cast %4#1 : i32 to index
      arts.edt dependencies(%7, %8, %9) : (memref<?x?xf32>, memref<?x?xf32>, memref<?x?xf32>) attributes {sync} {
        scf.for %arg2 = %c0 to %11 step %12 {
          %46 = arith.divui %arg2, %12 : index
          %47 = arith.index_cast %4#1 : i32 to index
          %48 = arith.muli %46, %47 : index
          %49 = arith.index_cast %48 : index to i32
          %50 = arith.index_cast %4#0 : i32 to index
          %51 = arith.index_cast %4#1 : i32 to index
          scf.for %arg3 = %c0 to %50 step %51 {
            %52 = arith.divui %arg3, %51 : index
            %53 = arith.index_cast %4#1 : i32 to index
            %54 = arith.muli %52, %53 : index
            %55 = arith.index_cast %54 : index to i32
            %56 = arith.index_cast %4#0 : i32 to index
            %57 = arith.index_cast %4#1 : i32 to index
            scf.for %arg4 = %c0 to %56 step %57 {
              %58 = arith.divui %arg4, %57 : index
              %59 = arith.index_cast %4#1 : i32 to index
              %60 = arith.muli %58, %59 : index
              %61 = arith.index_cast %60 : index to i32
              %62 = arith.addi %49, %4#1 : i32
              %63 = arith.index_cast %62 : i32 to index
              %dim = memref.dim %7, %c0 : memref<?x?xf32>
              %dim_4 = memref.dim %7, %c1 : memref<?x?xf32>
              %64 = arts.datablock "in" ptr[%7 : memref<?x?xf32>], indices[], sizes[%dim, %dim_4], type[f32], typeSize[%c4] -> memref<?x?xf32>
              %dim_5 = memref.dim %8, %c0 : memref<?x?xf32>
              %dim_6 = memref.dim %8, %c1 : memref<?x?xf32>
              %65 = arts.datablock "in" ptr[%8 : memref<?x?xf32>], indices[], sizes[%dim_5, %dim_6], type[f32], typeSize[%c4] -> memref<?x?xf32>
              %dim_7 = memref.dim %9, %c0 : memref<?x?xf32>
              %dim_8 = memref.dim %9, %c1 : memref<?x?xf32>
              %66 = arts.datablock "inout" ptr[%9 : memref<?x?xf32>], indices[], sizes[%dim_7, %dim_8], type[f32], typeSize[%c4] -> memref<?x?xf32>
              arts.edt dependencies(%64, %65, %66) : (memref<?x?xf32>, memref<?x?xf32>, memref<?x?xf32>) attributes {task} {
                scf.for %arg5 = %48 to %63 step %c1 {
                  %67 = arith.addi %55, %4#1 : i32
                  %68 = arith.index_cast %67 : i32 to index
                  scf.for %arg6 = %54 to %68 step %c1 {
                    %69 = arith.addi %61, %4#1 : i32
                    %70 = arith.index_cast %69 : i32 to index
                    scf.for %arg7 = %60 to %70 step %c1 {
                      %71 = memref.load %64[%arg5, %arg7] : memref<?x?xf32>
                      %72 = memref.load %65[%arg7, %arg6] : memref<?x?xf32>
                      %73 = arith.mulf %71, %72 : f32
                      %74 = memref.load %66[%arg5, %arg6] : memref<?x?xf32>
                      %75 = arith.addf %74, %73 : f32
                      memref.store %75, %66[%arg5, %arg6] : memref<?x?xf32>
                    }
                  }
                }
                arts.yield
              }
            }
          }
        }
        arts.yield
      }
      %13 = arith.index_cast %4#0 : i32 to index
      scf.for %arg2 = %c0 to %13 step %c1 {
        %46 = arith.index_cast %4#0 : i32 to index
        scf.for %arg3 = %c0 to %46 step %c1 {
          %47 = arith.index_cast %4#0 : i32 to index
          %48 = scf.for %arg4 = %c0 to %47 step %c1 iter_args(%arg5 = %cst_0) -> (f32) {
            %49 = memref.load %7[%arg2, %arg4] : memref<?x?xf32>
            %50 = memref.load %8[%arg4, %arg3] : memref<?x?xf32>
            %51 = arith.mulf %49, %50 : f32
            %52 = arith.addf %arg5, %51 : f32
            scf.yield %52 : f32
          }
          memref.store %48, %alloca_3[%arg2, %arg3] : memref<?x?xf32>
        }
      }
      %14 = arith.index_cast %4#0 : i32 to index
      %15 = scf.for %arg2 = %c0 to %14 step %c1 iter_args(%arg3 = %c1_i32) -> (i32) {
        %46 = arith.index_cast %arg2 : index to i32
        %47 = arith.index_cast %4#0 : i32 to index
        %48 = scf.for %arg4 = %c0 to %47 step %c1 iter_args(%arg5 = %arg3) -> (i32) {
          %49 = arith.index_cast %arg4 : index to i32
          %50 = memref.load %9[%arg2, %arg4] : memref<?x?xf32>
          %51 = memref.load %alloca_3[%arg2, %arg4] : memref<?x?xf32>
          %52 = arith.subf %50, %51 : f32
          %53 = arith.extf %52 : f32 to f64
          %54 = math.absf %53 : f64
          %55 = arith.cmpf ogt, %54, %cst : f64
          %56 = arith.select %55, %c0_i32, %arg5 : i32
          scf.if %55 {
            %57 = llvm.mlir.addressof @str2 : !llvm.ptr
            %58 = llvm.getelementptr %57[0, 0] : (!llvm.ptr) -> !llvm.ptr, !llvm.array<53 x i8>
            %59 = arith.extf %50 : f32 to f64
            %60 = arith.extf %51 : f32 to f64
            %61 = llvm.call @printf(%58, %46, %49, %59, %60) vararg(!llvm.func<i32 (ptr, ...)>) : (!llvm.ptr, i32, i32, f64, f64) -> i32
          }
          scf.yield %56 : i32
        }
        scf.yield %48 : i32
      }
      %16 = arith.cmpi ne, %15, %c0_i32 : i32
      %17 = llvm.mlir.addressof @str3 : !llvm.ptr
      %18 = llvm.getelementptr %17[0, 0] : (!llvm.ptr) -> !llvm.ptr, !llvm.array<11 x i8>
      %19 = llvm.call @printf(%18) vararg(!llvm.func<i32 (ptr, ...)>) : (!llvm.ptr) -> i32
      %20 = arith.index_cast %4#0 : i32 to index
      scf.for %arg2 = %c0 to %20 step %c1 {
        %46 = arith.index_cast %4#0 : i32 to index
        scf.for %arg3 = %c0 to %46 step %c1 {
          %50 = llvm.mlir.addressof @str4 : !llvm.ptr
          %51 = llvm.getelementptr %50[0, 0] : (!llvm.ptr) -> !llvm.ptr, !llvm.array<7 x i8>
          %52 = memref.load %7[%arg2, %arg3] : memref<?x?xf32>
          %53 = arith.extf %52 : f32 to f64
          %54 = llvm.call @printf(%51, %53) vararg(!llvm.func<i32 (ptr, ...)>) : (!llvm.ptr, f64) -> i32
        }
        %47 = llvm.mlir.addressof @str5 : !llvm.ptr
        %48 = llvm.getelementptr %47[0, 0] : (!llvm.ptr) -> !llvm.ptr, !llvm.array<2 x i8>
        %49 = llvm.call @printf(%48) vararg(!llvm.func<i32 (ptr, ...)>) : (!llvm.ptr) -> i32
      }
      %21 = llvm.mlir.addressof @str6 : !llvm.ptr
      %22 = llvm.getelementptr %21[0, 0] : (!llvm.ptr) -> !llvm.ptr, !llvm.array<12 x i8>
      %23 = llvm.call @printf(%22) vararg(!llvm.func<i32 (ptr, ...)>) : (!llvm.ptr) -> i32
      %24 = arith.index_cast %4#0 : i32 to index
      scf.for %arg2 = %c0 to %24 step %c1 {
        %46 = arith.index_cast %4#0 : i32 to index
        scf.for %arg3 = %c0 to %46 step %c1 {
          %50 = llvm.mlir.addressof @str4 : !llvm.ptr
          %51 = llvm.getelementptr %50[0, 0] : (!llvm.ptr) -> !llvm.ptr, !llvm.array<7 x i8>
          %52 = memref.load %8[%arg2, %arg3] : memref<?x?xf32>
          %53 = arith.extf %52 : f32 to f64
          %54 = llvm.call @printf(%51, %53) vararg(!llvm.func<i32 (ptr, ...)>) : (!llvm.ptr, f64) -> i32
        }
        %47 = llvm.mlir.addressof @str5 : !llvm.ptr
        %48 = llvm.getelementptr %47[0, 0] : (!llvm.ptr) -> !llvm.ptr, !llvm.array<2 x i8>
        %49 = llvm.call @printf(%48) vararg(!llvm.func<i32 (ptr, ...)>) : (!llvm.ptr) -> i32
      }
      %25 = llvm.mlir.addressof @str7 : !llvm.ptr
      %26 = llvm.getelementptr %25[0, 0] : (!llvm.ptr) -> !llvm.ptr, !llvm.array<23 x i8>
      %27 = llvm.call @printf(%26) vararg(!llvm.func<i32 (ptr, ...)>) : (!llvm.ptr) -> i32
      %28 = arith.index_cast %4#0 : i32 to index
      scf.for %arg2 = %c0 to %28 step %c1 {
        %46 = arith.index_cast %4#0 : i32 to index
        scf.for %arg3 = %c0 to %46 step %c1 {
          %50 = llvm.mlir.addressof @str4 : !llvm.ptr
          %51 = llvm.getelementptr %50[0, 0] : (!llvm.ptr) -> !llvm.ptr, !llvm.array<7 x i8>
          %52 = memref.load %9[%arg2, %arg3] : memref<?x?xf32>
          %53 = arith.extf %52 : f32 to f64
          %54 = llvm.call @printf(%51, %53) vararg(!llvm.func<i32 (ptr, ...)>) : (!llvm.ptr, f64) -> i32
        }
        %47 = llvm.mlir.addressof @str5 : !llvm.ptr
        %48 = llvm.getelementptr %47[0, 0] : (!llvm.ptr) -> !llvm.ptr, !llvm.array<2 x i8>
        %49 = llvm.call @printf(%48) vararg(!llvm.func<i32 (ptr, ...)>) : (!llvm.ptr) -> i32
      }
      %29 = llvm.mlir.addressof @str8 : !llvm.ptr
      %30 = llvm.getelementptr %29[0, 0] : (!llvm.ptr) -> !llvm.ptr, !llvm.array<25 x i8>
      %31 = llvm.call @printf(%30) vararg(!llvm.func<i32 (ptr, ...)>) : (!llvm.ptr) -> i32
      %32 = arith.index_cast %4#0 : i32 to index
      scf.for %arg2 = %c0 to %32 step %c1 {
        %46 = arith.index_cast %4#0 : i32 to index
        scf.for %arg3 = %c0 to %46 step %c1 {
          %50 = llvm.mlir.addressof @str4 : !llvm.ptr
          %51 = llvm.getelementptr %50[0, 0] : (!llvm.ptr) -> !llvm.ptr, !llvm.array<7 x i8>
          %52 = memref.load %alloca_3[%arg2, %arg3] : memref<?x?xf32>
          %53 = arith.extf %52 : f32 to f64
          %54 = llvm.call @printf(%51, %53) vararg(!llvm.func<i32 (ptr, ...)>) : (!llvm.ptr, f64) -> i32
        }
        %47 = llvm.mlir.addressof @str5 : !llvm.ptr
        %48 = llvm.getelementptr %47[0, 0] : (!llvm.ptr) -> !llvm.ptr, !llvm.array<2 x i8>
        %49 = llvm.call @printf(%48) vararg(!llvm.func<i32 (ptr, ...)>) : (!llvm.ptr) -> i32
      }
      %33 = llvm.mlir.addressof @str5 : !llvm.ptr
      %34 = llvm.getelementptr %33[0, 0] : (!llvm.ptr) -> !llvm.ptr, !llvm.array<2 x i8>
      %35 = llvm.call @printf(%34) vararg(!llvm.func<i32 (ptr, ...)>) : (!llvm.ptr) -> i32
      %36 = llvm.mlir.addressof @str9 : !llvm.ptr
      %37 = llvm.getelementptr %36[0, 0] : (!llvm.ptr) -> !llvm.ptr, !llvm.array<24 x i8>
      %38 = llvm.call @printf(%37) vararg(!llvm.func<i32 (ptr, ...)>) : (!llvm.ptr) -> i32
      %39 = llvm.mlir.addressof @str10 : !llvm.ptr
      %40 = llvm.getelementptr %39[0, 0] : (!llvm.ptr) -> !llvm.ptr, !llvm.array<4 x i8>
      %41 = scf.if %16 -> (!llvm.ptr) {
        %46 = llvm.mlir.addressof @str11 : !llvm.ptr
        %47 = llvm.getelementptr %46[0, 0] : (!llvm.ptr) -> !llvm.ptr, !llvm.array<20 x i8>
        scf.yield %47 : !llvm.ptr
      } else {
        %46 = llvm.mlir.addressof @str12 : !llvm.ptr
        %47 = llvm.getelementptr %46[0, 0] : (!llvm.ptr) -> !llvm.ptr, !llvm.array<20 x i8>
        scf.yield %47 : !llvm.ptr
      }
      %42 = llvm.call @printf(%40, %41) vararg(!llvm.func<i32 (ptr, ...)>) : (!llvm.ptr, !llvm.ptr) -> i32
      %43 = llvm.mlir.addressof @str9 : !llvm.ptr
      %44 = llvm.getelementptr %43[0, 0] : (!llvm.ptr) -> !llvm.ptr, !llvm.array<24 x i8>
      %45 = llvm.call @printf(%44) vararg(!llvm.func<i32 (ptr, ...)>) : (!llvm.ptr) -> i32
    }
    return %5 : i32
  }
  func.func private @atoi(memref<?xi8>) -> i32 attributes {llvm.linkage = #llvm.linkage<external>}
}
Converting datablocks to parameters - Analyzing 7 datablocks
Datablock conversion - Found 0 datablocks to convert
Removing datablocks 0
Canonicalizing dim ops - Analyzing 7 datablocks
- Canonicalizing dim op: %dim = memref.dim %7, %c0 : memref<?x?xf32>
- Canonicalizing dim op: %dim = memref.dim %7, %c1 : memref<?x?xf32>
- Canonicalizing dim op: %dim = memref.dim %8, %c0 : memref<?x?xf32>
- Canonicalizing dim op: %dim = memref.dim %8, %c1 : memref<?x?xf32>
- Canonicalizing dim op: %dim = memref.dim %9, %c0 : memref<?x?xf32>
- Canonicalizing dim op: %dim = memref.dim %9, %c1 : memref<?x?xf32>
No graph for function: atoi
-----------------------------------------
DatablockPass FINISHED
-----------------------------------------
module attributes {dlti.dl_spec = #dlti.dl_spec<#dlti.dl_entry<f16, dense<16> : vector<2xi32>>, #dlti.dl_entry<i32, dense<32> : vector<2xi32>>, #dlti.dl_entry<i16, dense<16> : vector<2xi32>>, #dlti.dl_entry<!llvm.ptr<271>, dense<32> : vector<4xi32>>, #dlti.dl_entry<!llvm.ptr<272>, dense<64> : vector<4xi32>>, #dlti.dl_entry<f64, dense<64> : vector<2xi32>>, #dlti.dl_entry<!llvm.ptr<270>, dense<32> : vector<4xi32>>, #dlti.dl_entry<f128, dense<128> : vector<2xi32>>, #dlti.dl_entry<f80, dense<128> : vector<2xi32>>, #dlti.dl_entry<i64, dense<64> : vector<2xi32>>, #dlti.dl_entry<i1, dense<8> : vector<2xi32>>, #dlti.dl_entry<i8, dense<8> : vector<2xi32>>, #dlti.dl_entry<!llvm.ptr, dense<64> : vector<4xi32>>, #dlti.dl_entry<"dlti.endianness", "little">, #dlti.dl_entry<"dlti.stack_alignment", 128 : i32>>, llvm.data_layout = "e-m:e-p270:32:32-p271:32:32-p272:64:64-i64:64-f80:128-n8:16:32:64-S128", llvm.target_triple = "x86_64-unknown-linux-gnu", "polygeist.target-cpu" = "x86-64", "polygeist.target-features" = "+cmov,+cx8,+fxsr,+mmx,+sse,+sse2,+x87", "polygeist.tune-cpu" = "generic"} {
  llvm.mlir.global internal constant @str12("Verification FAILED\00") {addr_space = 0 : i32}
  llvm.mlir.global internal constant @str11("Verification PASSED\00") {addr_space = 0 : i32}
  llvm.mlir.global internal constant @str10("%s\0A\00") {addr_space = 0 : i32}
  llvm.mlir.global internal constant @str9("----------------------\0A\00") {addr_space = 0 : i32}
  llvm.mlir.global internal constant @str8("\0AMatrix C (Sequential):\0A\00") {addr_space = 0 : i32}
  llvm.mlir.global internal constant @str7("\0AMatrix C (Parallel):\0A\00") {addr_space = 0 : i32}
  llvm.mlir.global internal constant @str6("\0AMatrix B:\0A\00") {addr_space = 0 : i32}
  llvm.mlir.global internal constant @str5("\0A\00") {addr_space = 0 : i32}
  llvm.mlir.global internal constant @str4("%6.2f \00") {addr_space = 0 : i32}
  llvm.mlir.global internal constant @str3("Matrix A:\0A\00") {addr_space = 0 : i32}
  llvm.mlir.global internal constant @str2("Mismatch at (%d,%d): Parallel=%.2f, Sequential=%.2f\0A\00") {addr_space = 0 : i32}
  llvm.func @printf(!llvm.ptr, ...) -> i32
  llvm.mlir.global internal constant @str1("Matrix size and block size must be positive integers.\0A\00") {addr_space = 0 : i32}
  llvm.mlir.global internal constant @str0("Usage: %s <matrix_size> <block_size>\0A\00") {addr_space = 0 : i32}
  llvm.mlir.global external @stderr() {addr_space = 0 : i32} : memref<?x!llvm.struct<(i32, ptr, ptr, ptr, ptr, ptr, ptr, ptr, ptr, ptr, ptr, ptr, ptr, ptr, i32, i32, i64, i16, i8, array<1 x i8>, ptr, i64, ptr, ptr, ptr, ptr, i64, i32, array<20 x i8>)>>
  llvm.func @fprintf(!llvm.ptr, !llvm.ptr, ...) -> i32
  func.func @main(%arg0: i32, %arg1: memref<?xmemref<?xi8>>) -> i32 attributes {llvm.linkage = #llvm.linkage<external>} {
    %c4 = arith.constant 4 : index
    %c2 = arith.constant 2 : index
    %c0 = arith.constant 0 : index
    %c1 = arith.constant 1 : index
    %false = arith.constant false
    %true = arith.constant true
    %cst = arith.constant 9.9999999999999995E-7 : f64
    %cst_0 = arith.constant 0.000000e+00 : f32
    %c0_i32 = arith.constant 0 : i32
    %c1_i32 = arith.constant 1 : i32
    %c3_i32 = arith.constant 3 : i32
    %0 = llvm.mlir.undef : i32
    %1 = arith.cmpi ne, %arg0, %c3_i32 : i32
    %2 = arith.cmpi eq, %arg0, %c3_i32 : i32
    %3 = arith.select %1, %c1_i32, %0 : i32
    scf.if %1 {
      %6 = llvm.mlir.addressof @stderr : !llvm.ptr
      %7 = llvm.load %6 : !llvm.ptr -> memref<?x!llvm.struct<(i32, ptr, ptr, ptr, ptr, ptr, ptr, ptr, ptr, ptr, ptr, ptr, ptr, ptr, i32, i32, i64, i16, i8, array<1 x i8>, ptr, i64, ptr, ptr, ptr, ptr, i64, i32, array<20 x i8>)>>
      %8 = "polygeist.memref2pointer"(%7) : (memref<?x!llvm.struct<(i32, ptr, ptr, ptr, ptr, ptr, ptr, ptr, ptr, ptr, ptr, ptr, ptr, ptr, i32, i32, i64, i16, i8, array<1 x i8>, ptr, i64, ptr, ptr, ptr, ptr, i64, i32, array<20 x i8>)>>) -> !llvm.ptr
      %9 = llvm.mlir.addressof @str0 : !llvm.ptr
      %10 = llvm.getelementptr %9[0, 0] : (!llvm.ptr) -> !llvm.ptr, !llvm.array<38 x i8>
      %11 = memref.load %arg1[%c0] : memref<?xmemref<?xi8>>
      %12 = "polygeist.memref2pointer"(%11) : (memref<?xi8>) -> !llvm.ptr
      %13 = llvm.call @fprintf(%8, %10, %12) vararg(!llvm.func<i32 (ptr, ptr, ...)>) : (!llvm.ptr, !llvm.ptr, !llvm.ptr) -> i32
    }
    %4:4 = scf.if %2 -> (i32, i32, i1, i32) {
      %6 = memref.load %arg1[%c1] : memref<?xmemref<?xi8>>
      %7 = func.call @atoi(%6) : (memref<?xi8>) -> i32
      %8 = arith.cmpi sgt, %7, %c0_i32 : i32
      %9 = memref.load %arg1[%c2] : memref<?xmemref<?xi8>>
      %10 = func.call @atoi(%9) : (memref<?xi8>) -> i32
      %11 = arith.cmpi sle, %10, %c0_i32 : i32
      %12 = arith.cmpi sle, %7, %c0_i32 : i32
      %13 = arith.andi %8, %11 : i1
      %14 = arith.ori %12, %13 : i1
      %15 = arith.xori %14, %true : i1
      %16 = arith.select %14, %c1_i32, %3 : i32
      scf.if %14 {
        %17 = llvm.mlir.addressof @stderr : !llvm.ptr
        %18 = llvm.load %17 : !llvm.ptr -> memref<?x!llvm.struct<(i32, ptr, ptr, ptr, ptr, ptr, ptr, ptr, ptr, ptr, ptr, ptr, ptr, ptr, i32, i32, i64, i16, i8, array<1 x i8>, ptr, i64, ptr, ptr, ptr, ptr, i64, i32, array<20 x i8>)>>
        %19 = "polygeist.memref2pointer"(%18) : (memref<?x!llvm.struct<(i32, ptr, ptr, ptr, ptr, ptr, ptr, ptr, ptr, ptr, ptr, ptr, ptr, ptr, i32, i32, i64, i16, i8, array<1 x i8>, ptr, i64, ptr, ptr, ptr, ptr, i64, i32, array<20 x i8>)>>) -> !llvm.ptr
        %20 = llvm.mlir.addressof @str1 : !llvm.ptr
        %21 = llvm.getelementptr %20[0, 0] : (!llvm.ptr) -> !llvm.ptr, !llvm.array<55 x i8>
        %22 = llvm.call @fprintf(%19, %21) vararg(!llvm.func<i32 (ptr, ptr, ...)>) : (!llvm.ptr, !llvm.ptr) -> i32
      }
      scf.yield %7, %10, %15, %16 : i32, i32, i1, i32
    } else {
      scf.yield %0, %0, %false, %3 : i32, i32, i1, i32
    }
    %5 = arith.select %4#2, %c0_i32, %4#3 : i32
    scf.if %4#2 {
      %6 = arith.index_cast %4#0 : i32 to index
      %alloca = memref.alloca(%6, %6) : memref<?x?xf32>
      %7 = arts.datablock "in" ptr[%alloca : memref<?x?xf32>], indices[], sizes[%6, %6], type[f32], typeSize[%c4] -> memref<?x?xf32>
      %alloca_1 = memref.alloca(%6, %6) : memref<?x?xf32>
      %8 = arts.datablock "in" ptr[%alloca_1 : memref<?x?xf32>], indices[], sizes[%6, %6], type[f32], typeSize[%c4] -> memref<?x?xf32>
      %alloca_2 = memref.alloca(%6, %6) : memref<?x?xf32>
      %9 = arts.datablock "inout" ptr[%alloca_2 : memref<?x?xf32>], indices[], sizes[%6, %6], type[f32], typeSize[%c4] -> memref<?x?xf32>
      %alloca_3 = memref.alloca(%6, %6) : memref<?x?xf32>
      %10 = arith.index_cast %4#0 : i32 to index
      scf.for %arg2 = %c0 to %10 step %c1 {
        %46 = arith.index_cast %arg2 : index to i32
        %47 = arith.index_cast %4#0 : i32 to index
        scf.for %arg3 = %c0 to %47 step %c1 {
          %48 = arith.index_cast %arg3 : index to i32
          %49 = arith.addi %46, %48 : i32
          %50 = arith.sitofp %49 : i32 to f32
          memref.store %50, %7[%arg2, %arg3] : memref<?x?xf32>
          %51 = arith.subi %46, %48 : i32
          %52 = arith.sitofp %51 : i32 to f32
          memref.store %52, %8[%arg2, %arg3] : memref<?x?xf32>
          memref.store %cst_0, %9[%arg2, %arg3] : memref<?x?xf32>
          memref.store %cst_0, %alloca_3[%arg2, %arg3] : memref<?x?xf32>
        }
      }
      %11 = arith.index_cast %4#0 : i32 to index
      %12 = arith.index_cast %4#1 : i32 to index
      arts.edt dependencies(%7, %8, %9) : (memref<?x?xf32>, memref<?x?xf32>, memref<?x?xf32>) attributes {sync} {
        scf.for %arg2 = %c0 to %11 step %12 {
          %46 = arith.divui %arg2, %12 : index
          %47 = arith.index_cast %4#1 : i32 to index
          %48 = arith.muli %46, %47 : index
          %49 = arith.index_cast %48 : index to i32
          %50 = arith.index_cast %4#0 : i32 to index
          %51 = arith.index_cast %4#1 : i32 to index
          scf.for %arg3 = %c0 to %50 step %51 {
            %52 = arith.divui %arg3, %51 : index
            %53 = arith.index_cast %4#1 : i32 to index
            %54 = arith.muli %52, %53 : index
            %55 = arith.index_cast %54 : index to i32
            %56 = arith.index_cast %4#0 : i32 to index
            %57 = arith.index_cast %4#1 : i32 to index
            scf.for %arg4 = %c0 to %56 step %57 {
              %58 = arith.divui %arg4, %57 : index
              %59 = arith.index_cast %4#1 : i32 to index
              %60 = arith.muli %58, %59 : index
              %61 = arith.index_cast %60 : index to i32
              %62 = arith.addi %49, %4#1 : i32
              %63 = arith.index_cast %62 : i32 to index
              %64 = arts.datablock "in" ptr[%7 : memref<?x?xf32>], indices[], sizes[%6, %6], type[f32], typeSize[%c4] {hasGuid, ptrDb} -> memref<?x?xf32>
              %65 = arts.datablock "in" ptr[%8 : memref<?x?xf32>], indices[], sizes[%6, %6], type[f32], typeSize[%c4] {hasGuid, ptrDb} -> memref<?x?xf32>
              %66 = arts.datablock "inout" ptr[%9 : memref<?x?xf32>], indices[], sizes[%6, %6], type[f32], typeSize[%c4] {hasGuid, ptrDb} -> memref<?x?xf32>
              arts.edt dependencies(%64, %65, %66) : (memref<?x?xf32>, memref<?x?xf32>, memref<?x?xf32>) attributes {task} {
                scf.for %arg5 = %48 to %63 step %c1 {
                  %67 = arith.addi %55, %4#1 : i32
                  %68 = arith.index_cast %67 : i32 to index
                  scf.for %arg6 = %54 to %68 step %c1 {
                    %69 = arith.addi %61, %4#1 : i32
                    %70 = arith.index_cast %69 : i32 to index
                    scf.for %arg7 = %60 to %70 step %c1 {
                      %71 = memref.load %64[%arg5, %arg7] : memref<?x?xf32>
                      %72 = memref.load %65[%arg7, %arg6] : memref<?x?xf32>
                      %73 = arith.mulf %71, %72 : f32
                      %74 = memref.load %66[%arg5, %arg6] : memref<?x?xf32>
                      %75 = arith.addf %74, %73 : f32
                      memref.store %75, %66[%arg5, %arg6] : memref<?x?xf32>
                    }
                  }
                }
                arts.yield
              }
            }
          }
        }
        arts.yield
      }
      %13 = arith.index_cast %4#0 : i32 to index
      scf.for %arg2 = %c0 to %13 step %c1 {
        %46 = arith.index_cast %4#0 : i32 to index
        scf.for %arg3 = %c0 to %46 step %c1 {
          %47 = arith.index_cast %4#0 : i32 to index
          %48 = scf.for %arg4 = %c0 to %47 step %c1 iter_args(%arg5 = %cst_0) -> (f32) {
            %49 = memref.load %7[%arg2, %arg4] : memref<?x?xf32>
            %50 = memref.load %8[%arg4, %arg3] : memref<?x?xf32>
            %51 = arith.mulf %49, %50 : f32
            %52 = arith.addf %arg5, %51 : f32
            scf.yield %52 : f32
          }
          memref.store %48, %alloca_3[%arg2, %arg3] : memref<?x?xf32>
        }
      }
      %14 = arith.index_cast %4#0 : i32 to index
      %15 = scf.for %arg2 = %c0 to %14 step %c1 iter_args(%arg3 = %c1_i32) -> (i32) {
        %46 = arith.index_cast %arg2 : index to i32
        %47 = arith.index_cast %4#0 : i32 to index
        %48 = scf.for %arg4 = %c0 to %47 step %c1 iter_args(%arg5 = %arg3) -> (i32) {
          %49 = arith.index_cast %arg4 : index to i32
          %50 = memref.load %9[%arg2, %arg4] : memref<?x?xf32>
          %51 = memref.load %alloca_3[%arg2, %arg4] : memref<?x?xf32>
          %52 = arith.subf %50, %51 : f32
          %53 = arith.extf %52 : f32 to f64
          %54 = math.absf %53 : f64
          %55 = arith.cmpf ogt, %54, %cst : f64
          %56 = arith.select %55, %c0_i32, %arg5 : i32
          scf.if %55 {
            %57 = llvm.mlir.addressof @str2 : !llvm.ptr
            %58 = llvm.getelementptr %57[0, 0] : (!llvm.ptr) -> !llvm.ptr, !llvm.array<53 x i8>
            %59 = arith.extf %50 : f32 to f64
            %60 = arith.extf %51 : f32 to f64
            %61 = llvm.call @printf(%58, %46, %49, %59, %60) vararg(!llvm.func<i32 (ptr, ...)>) : (!llvm.ptr, i32, i32, f64, f64) -> i32
          }
          scf.yield %56 : i32
        }
        scf.yield %48 : i32
      }
      %16 = arith.cmpi ne, %15, %c0_i32 : i32
      %17 = llvm.mlir.addressof @str3 : !llvm.ptr
      %18 = llvm.getelementptr %17[0, 0] : (!llvm.ptr) -> !llvm.ptr, !llvm.array<11 x i8>
      %19 = llvm.call @printf(%18) vararg(!llvm.func<i32 (ptr, ...)>) : (!llvm.ptr) -> i32
      %20 = arith.index_cast %4#0 : i32 to index
      scf.for %arg2 = %c0 to %20 step %c1 {
        %46 = arith.index_cast %4#0 : i32 to index
        scf.for %arg3 = %c0 to %46 step %c1 {
          %50 = llvm.mlir.addressof @str4 : !llvm.ptr
          %51 = llvm.getelementptr %50[0, 0] : (!llvm.ptr) -> !llvm.ptr, !llvm.array<7 x i8>
          %52 = memref.load %7[%arg2, %arg3] : memref<?x?xf32>
          %53 = arith.extf %52 : f32 to f64
          %54 = llvm.call @printf(%51, %53) vararg(!llvm.func<i32 (ptr, ...)>) : (!llvm.ptr, f64) -> i32
        }
        %47 = llvm.mlir.addressof @str5 : !llvm.ptr
        %48 = llvm.getelementptr %47[0, 0] : (!llvm.ptr) -> !llvm.ptr, !llvm.array<2 x i8>
        %49 = llvm.call @printf(%48) vararg(!llvm.func<i32 (ptr, ...)>) : (!llvm.ptr) -> i32
      }
      %21 = llvm.mlir.addressof @str6 : !llvm.ptr
      %22 = llvm.getelementptr %21[0, 0] : (!llvm.ptr) -> !llvm.ptr, !llvm.array<12 x i8>
      %23 = llvm.call @printf(%22) vararg(!llvm.func<i32 (ptr, ...)>) : (!llvm.ptr) -> i32
      %24 = arith.index_cast %4#0 : i32 to index
      scf.for %arg2 = %c0 to %24 step %c1 {
        %46 = arith.index_cast %4#0 : i32 to index
        scf.for %arg3 = %c0 to %46 step %c1 {
          %50 = llvm.mlir.addressof @str4 : !llvm.ptr
          %51 = llvm.getelementptr %50[0, 0] : (!llvm.ptr) -> !llvm.ptr, !llvm.array<7 x i8>
          %52 = memref.load %8[%arg2, %arg3] : memref<?x?xf32>
          %53 = arith.extf %52 : f32 to f64
          %54 = llvm.call @printf(%51, %53) vararg(!llvm.func<i32 (ptr, ...)>) : (!llvm.ptr, f64) -> i32
        }
        %47 = llvm.mlir.addressof @str5 : !llvm.ptr
        %48 = llvm.getelementptr %47[0, 0] : (!llvm.ptr) -> !llvm.ptr, !llvm.array<2 x i8>
        %49 = llvm.call @printf(%48) vararg(!llvm.func<i32 (ptr, ...)>) : (!llvm.ptr) -> i32
      }
      %25 = llvm.mlir.addressof @str7 : !llvm.ptr
      %26 = llvm.getelementptr %25[0, 0] : (!llvm.ptr) -> !llvm.ptr, !llvm.array<23 x i8>
      %27 = llvm.call @printf(%26) vararg(!llvm.func<i32 (ptr, ...)>) : (!llvm.ptr) -> i32
      %28 = arith.index_cast %4#0 : i32 to index
      scf.for %arg2 = %c0 to %28 step %c1 {
        %46 = arith.index_cast %4#0 : i32 to index
        scf.for %arg3 = %c0 to %46 step %c1 {
          %50 = llvm.mlir.addressof @str4 : !llvm.ptr
          %51 = llvm.getelementptr %50[0, 0] : (!llvm.ptr) -> !llvm.ptr, !llvm.array<7 x i8>
          %52 = memref.load %9[%arg2, %arg3] : memref<?x?xf32>
          %53 = arith.extf %52 : f32 to f64
          %54 = llvm.call @printf(%51, %53) vararg(!llvm.func<i32 (ptr, ...)>) : (!llvm.ptr, f64) -> i32
        }
        %47 = llvm.mlir.addressof @str5 : !llvm.ptr
        %48 = llvm.getelementptr %47[0, 0] : (!llvm.ptr) -> !llvm.ptr, !llvm.array<2 x i8>
        %49 = llvm.call @printf(%48) vararg(!llvm.func<i32 (ptr, ...)>) : (!llvm.ptr) -> i32
      }
      %29 = llvm.mlir.addressof @str8 : !llvm.ptr
      %30 = llvm.getelementptr %29[0, 0] : (!llvm.ptr) -> !llvm.ptr, !llvm.array<25 x i8>
      %31 = llvm.call @printf(%30) vararg(!llvm.func<i32 (ptr, ...)>) : (!llvm.ptr) -> i32
      %32 = arith.index_cast %4#0 : i32 to index
      scf.for %arg2 = %c0 to %32 step %c1 {
        %46 = arith.index_cast %4#0 : i32 to index
        scf.for %arg3 = %c0 to %46 step %c1 {
          %50 = llvm.mlir.addressof @str4 : !llvm.ptr
          %51 = llvm.getelementptr %50[0, 0] : (!llvm.ptr) -> !llvm.ptr, !llvm.array<7 x i8>
          %52 = memref.load %alloca_3[%arg2, %arg3] : memref<?x?xf32>
          %53 = arith.extf %52 : f32 to f64
          %54 = llvm.call @printf(%51, %53) vararg(!llvm.func<i32 (ptr, ...)>) : (!llvm.ptr, f64) -> i32
        }
        %47 = llvm.mlir.addressof @str5 : !llvm.ptr
        %48 = llvm.getelementptr %47[0, 0] : (!llvm.ptr) -> !llvm.ptr, !llvm.array<2 x i8>
        %49 = llvm.call @printf(%48) vararg(!llvm.func<i32 (ptr, ...)>) : (!llvm.ptr) -> i32
      }
      %33 = llvm.mlir.addressof @str5 : !llvm.ptr
      %34 = llvm.getelementptr %33[0, 0] : (!llvm.ptr) -> !llvm.ptr, !llvm.array<2 x i8>
      %35 = llvm.call @printf(%34) vararg(!llvm.func<i32 (ptr, ...)>) : (!llvm.ptr) -> i32
      %36 = llvm.mlir.addressof @str9 : !llvm.ptr
      %37 = llvm.getelementptr %36[0, 0] : (!llvm.ptr) -> !llvm.ptr, !llvm.array<24 x i8>
      %38 = llvm.call @printf(%37) vararg(!llvm.func<i32 (ptr, ...)>) : (!llvm.ptr) -> i32
      %39 = llvm.mlir.addressof @str10 : !llvm.ptr
      %40 = llvm.getelementptr %39[0, 0] : (!llvm.ptr) -> !llvm.ptr, !llvm.array<4 x i8>
      %41 = scf.if %16 -> (!llvm.ptr) {
        %46 = llvm.mlir.addressof @str11 : !llvm.ptr
        %47 = llvm.getelementptr %46[0, 0] : (!llvm.ptr) -> !llvm.ptr, !llvm.array<20 x i8>
        scf.yield %47 : !llvm.ptr
      } else {
        %46 = llvm.mlir.addressof @str12 : !llvm.ptr
        %47 = llvm.getelementptr %46[0, 0] : (!llvm.ptr) -> !llvm.ptr, !llvm.array<20 x i8>
        scf.yield %47 : !llvm.ptr
      }
      %42 = llvm.call @printf(%40, %41) vararg(!llvm.func<i32 (ptr, ...)>) : (!llvm.ptr, !llvm.ptr) -> i32
      %43 = llvm.mlir.addressof @str9 : !llvm.ptr
      %44 = llvm.getelementptr %43[0, 0] : (!llvm.ptr) -> !llvm.ptr, !llvm.array<24 x i8>
      %45 = llvm.call @printf(%44) vararg(!llvm.func<i32 (ptr, ...)>) : (!llvm.ptr) -> i32
    }
    return %5 : i32
  }
  func.func private @atoi(memref<?xi8>) -> i32 attributes {llvm.linkage = #llvm.linkage<external>}
}
-----------------------------------------
ConvertArtsToLLVMPass START
-----------------------------------------
module attributes {dlti.dl_spec = #dlti.dl_spec<#dlti.dl_entry<f16, dense<16> : vector<2xi32>>, #dlti.dl_entry<i32, dense<32> : vector<2xi32>>, #dlti.dl_entry<i16, dense<16> : vector<2xi32>>, #dlti.dl_entry<!llvm.ptr<271>, dense<32> : vector<4xi32>>, #dlti.dl_entry<!llvm.ptr<272>, dense<64> : vector<4xi32>>, #dlti.dl_entry<f64, dense<64> : vector<2xi32>>, #dlti.dl_entry<!llvm.ptr<270>, dense<32> : vector<4xi32>>, #dlti.dl_entry<f128, dense<128> : vector<2xi32>>, #dlti.dl_entry<f80, dense<128> : vector<2xi32>>, #dlti.dl_entry<i64, dense<64> : vector<2xi32>>, #dlti.dl_entry<i1, dense<8> : vector<2xi32>>, #dlti.dl_entry<i8, dense<8> : vector<2xi32>>, #dlti.dl_entry<!llvm.ptr, dense<64> : vector<4xi32>>, #dlti.dl_entry<"dlti.endianness", "little">, #dlti.dl_entry<"dlti.stack_alignment", 128 : i32>>, llvm.data_layout = "e-m:e-p270:32:32-p271:32:32-p272:64:64-i64:64-f80:128-n8:16:32:64-S128", llvm.target_triple = "x86_64-unknown-linux-gnu", "polygeist.target-cpu" = "x86-64", "polygeist.target-features" = "+cmov,+cx8,+fxsr,+mmx,+sse,+sse2,+x87", "polygeist.tune-cpu" = "generic"} {
  llvm.mlir.global internal constant @str12("Verification FAILED\00") {addr_space = 0 : i32}
  llvm.mlir.global internal constant @str11("Verification PASSED\00") {addr_space = 0 : i32}
  llvm.mlir.global internal constant @str10("%s\0A\00") {addr_space = 0 : i32}
  llvm.mlir.global internal constant @str9("----------------------\0A\00") {addr_space = 0 : i32}
  llvm.mlir.global internal constant @str8("\0AMatrix C (Sequential):\0A\00") {addr_space = 0 : i32}
  llvm.mlir.global internal constant @str7("\0AMatrix C (Parallel):\0A\00") {addr_space = 0 : i32}
  llvm.mlir.global internal constant @str6("\0AMatrix B:\0A\00") {addr_space = 0 : i32}
  llvm.mlir.global internal constant @str5("\0A\00") {addr_space = 0 : i32}
  llvm.mlir.global internal constant @str4("%6.2f \00") {addr_space = 0 : i32}
  llvm.mlir.global internal constant @str3("Matrix A:\0A\00") {addr_space = 0 : i32}
  llvm.mlir.global internal constant @str2("Mismatch at (%d,%d): Parallel=%.2f, Sequential=%.2f\0A\00") {addr_space = 0 : i32}
  llvm.func @printf(!llvm.ptr, ...) -> i32
  llvm.mlir.global internal constant @str1("Matrix size and block size must be positive integers.\0A\00") {addr_space = 0 : i32}
  llvm.mlir.global internal constant @str0("Usage: %s <matrix_size> <block_size>\0A\00") {addr_space = 0 : i32}
  llvm.mlir.global external @stderr() {addr_space = 0 : i32} : memref<?x!llvm.struct<(i32, ptr, ptr, ptr, ptr, ptr, ptr, ptr, ptr, ptr, ptr, ptr, ptr, ptr, i32, i32, i64, i16, i8, array<1 x i8>, ptr, i64, ptr, ptr, ptr, ptr, i64, i32, array<20 x i8>)>>
  llvm.func @fprintf(!llvm.ptr, !llvm.ptr, ...) -> i32
  func.func @main(%arg0: i32, %arg1: memref<?xmemref<?xi8>>) -> i32 attributes {llvm.linkage = #llvm.linkage<external>} {
    %c4 = arith.constant 4 : index
    %c2 = arith.constant 2 : index
    %c0 = arith.constant 0 : index
    %c1 = arith.constant 1 : index
    %false = arith.constant false
    %true = arith.constant true
    %cst = arith.constant 9.9999999999999995E-7 : f64
    %cst_0 = arith.constant 0.000000e+00 : f32
    %c0_i32 = arith.constant 0 : i32
    %c1_i32 = arith.constant 1 : i32
    %c3_i32 = arith.constant 3 : i32
    %0 = llvm.mlir.undef : i32
    %1 = arith.cmpi ne, %arg0, %c3_i32 : i32
    %2 = arith.cmpi eq, %arg0, %c3_i32 : i32
    %3 = arith.select %1, %c1_i32, %0 : i32
    scf.if %1 {
      %6 = llvm.mlir.addressof @stderr : !llvm.ptr
      %7 = llvm.load %6 : !llvm.ptr -> memref<?x!llvm.struct<(i32, ptr, ptr, ptr, ptr, ptr, ptr, ptr, ptr, ptr, ptr, ptr, ptr, ptr, i32, i32, i64, i16, i8, array<1 x i8>, ptr, i64, ptr, ptr, ptr, ptr, i64, i32, array<20 x i8>)>>
      %8 = "polygeist.memref2pointer"(%7) : (memref<?x!llvm.struct<(i32, ptr, ptr, ptr, ptr, ptr, ptr, ptr, ptr, ptr, ptr, ptr, ptr, ptr, i32, i32, i64, i16, i8, array<1 x i8>, ptr, i64, ptr, ptr, ptr, ptr, i64, i32, array<20 x i8>)>>) -> !llvm.ptr
      %9 = llvm.mlir.addressof @str0 : !llvm.ptr
      %10 = llvm.getelementptr %9[0, 0] : (!llvm.ptr) -> !llvm.ptr, !llvm.array<38 x i8>
      %11 = memref.load %arg1[%c0] : memref<?xmemref<?xi8>>
      %12 = "polygeist.memref2pointer"(%11) : (memref<?xi8>) -> !llvm.ptr
      %13 = llvm.call @fprintf(%8, %10, %12) vararg(!llvm.func<i32 (ptr, ptr, ...)>) : (!llvm.ptr, !llvm.ptr, !llvm.ptr) -> i32
    }
    %4:4 = scf.if %2 -> (i32, i32, i1, i32) {
      %6 = memref.load %arg1[%c1] : memref<?xmemref<?xi8>>
      %7 = func.call @atoi(%6) : (memref<?xi8>) -> i32
      %8 = arith.cmpi sgt, %7, %c0_i32 : i32
      %9 = memref.load %arg1[%c2] : memref<?xmemref<?xi8>>
      %10 = func.call @atoi(%9) : (memref<?xi8>) -> i32
      %11 = arith.cmpi sle, %10, %c0_i32 : i32
      %12 = arith.cmpi sle, %7, %c0_i32 : i32
      %13 = arith.andi %8, %11 : i1
      %14 = arith.ori %12, %13 : i1
      %15 = arith.xori %14, %true : i1
      %16 = arith.select %14, %c1_i32, %3 : i32
      scf.if %14 {
        %17 = llvm.mlir.addressof @stderr : !llvm.ptr
        %18 = llvm.load %17 : !llvm.ptr -> memref<?x!llvm.struct<(i32, ptr, ptr, ptr, ptr, ptr, ptr, ptr, ptr, ptr, ptr, ptr, ptr, ptr, i32, i32, i64, i16, i8, array<1 x i8>, ptr, i64, ptr, ptr, ptr, ptr, i64, i32, array<20 x i8>)>>
        %19 = "polygeist.memref2pointer"(%18) : (memref<?x!llvm.struct<(i32, ptr, ptr, ptr, ptr, ptr, ptr, ptr, ptr, ptr, ptr, ptr, ptr, ptr, i32, i32, i64, i16, i8, array<1 x i8>, ptr, i64, ptr, ptr, ptr, ptr, i64, i32, array<20 x i8>)>>) -> !llvm.ptr
        %20 = llvm.mlir.addressof @str1 : !llvm.ptr
        %21 = llvm.getelementptr %20[0, 0] : (!llvm.ptr) -> !llvm.ptr, !llvm.array<55 x i8>
        %22 = llvm.call @fprintf(%19, %21) vararg(!llvm.func<i32 (ptr, ptr, ...)>) : (!llvm.ptr, !llvm.ptr) -> i32
      }
      scf.yield %7, %10, %15, %16 : i32, i32, i1, i32
    } else {
      scf.yield %0, %0, %false, %3 : i32, i32, i1, i32
    }
    %5 = arith.select %4#2, %c0_i32, %4#3 : i32
    scf.if %4#2 {
      %6 = arith.index_cast %4#0 : i32 to index
      %alloca = memref.alloca(%6, %6) : memref<?x?xf32>
      %7 = arts.event[%6, %6] -> : memref<?x?xi64>
      %8 = arts.datablock "in" ptr[%alloca : memref<?x?xf32>], indices[], sizes[%6, %6], type[f32], typeSize[%c4], inEvent[%7] -> memref<?x?xf32>
      %alloca_1 = memref.alloca(%6, %6) : memref<?x?xf32>
      %9 = arts.event[%6, %6] -> : memref<?x?xi64>
      %10 = arts.datablock "in" ptr[%alloca_1 : memref<?x?xf32>], indices[], sizes[%6, %6], type[f32], typeSize[%c4], inEvent[%9] -> memref<?x?xf32>
      %alloca_2 = memref.alloca(%6, %6) : memref<?x?xf32>
      %11 = arts.event[%6, %6] -> : memref<?x?xi64>
      %12 = arts.datablock "inout" ptr[%alloca_2 : memref<?x?xf32>], indices[], sizes[%6, %6], type[f32], typeSize[%c4], inEvent[%11] -> memref<?x?xf32>
      %alloca_3 = memref.alloca(%6, %6) : memref<?x?xf32>
      %13 = arith.index_cast %4#0 : i32 to index
      scf.for %arg2 = %c0 to %13 step %c1 {
        %49 = arith.index_cast %arg2 : index to i32
        %50 = arith.index_cast %4#0 : i32 to index
        scf.for %arg3 = %c0 to %50 step %c1 {
          %51 = arith.index_cast %arg3 : index to i32
          %52 = arith.addi %49, %51 : i32
          %53 = arith.sitofp %52 : i32 to f32
          memref.store %53, %8[%arg2, %arg3] : memref<?x?xf32>
          %54 = arith.subi %49, %51 : i32
          %55 = arith.sitofp %54 : i32 to f32
          memref.store %55, %10[%arg2, %arg3] : memref<?x?xf32>
          memref.store %cst_0, %12[%arg2, %arg3] : memref<?x?xf32>
          memref.store %cst_0, %alloca_3[%arg2, %arg3] : memref<?x?xf32>
        }
      }
      %14 = arith.index_cast %4#0 : i32 to index
      %15 = arith.index_cast %4#1 : i32 to index
      arts.epoch {
        arts.edt dependencies(%8, %10, %12) : (memref<?x?xf32>, memref<?x?xf32>, memref<?x?xf32>) attributes {task} {
          %49 = arts.event[%6, %6] -> : memref<?x?xi64>
          %50 = arts.event[%6, %6] -> : memref<?x?xi64>
          %51 = arts.event[%6, %6] -> : memref<?x?xi64>
          scf.for %arg2 = %c0 to %14 step %15 {
            %52 = arith.divui %arg2, %15 : index
            %53 = arith.index_cast %4#1 : i32 to index
            %54 = arith.muli %52, %53 : index
            %55 = arith.index_cast %54 : index to i32
            %56 = arith.index_cast %4#0 : i32 to index
            %57 = arith.index_cast %4#1 : i32 to index
            scf.for %arg3 = %c0 to %56 step %57 {
              %58 = arith.divui %arg3, %57 : index
              %59 = arith.index_cast %4#1 : i32 to index
              %60 = arith.muli %58, %59 : index
              %61 = arith.index_cast %60 : index to i32
              %62 = arith.index_cast %4#0 : i32 to index
              %63 = arith.index_cast %4#1 : i32 to index
              scf.for %arg4 = %c0 to %62 step %63 {
                %64 = arith.divui %arg4, %63 : index
                %65 = arith.index_cast %4#1 : i32 to index
                %66 = arith.muli %64, %65 : index
                %67 = arith.index_cast %66 : index to i32
                %68 = arith.addi %55, %4#1 : i32
                %69 = arith.index_cast %68 : i32 to index
                %70 = arts.datablock "in" ptr[%8 : memref<?x?xf32>], indices[], sizes[%6, %6], type[f32], typeSize[%c4], inEvent[%51] {hasGuid, ptrDb} -> memref<?x?xf32>
                %71 = arts.datablock "in" ptr[%10 : memref<?x?xf32>], indices[], sizes[%6, %6], type[f32], typeSize[%c4], inEvent[%50] {hasGuid, ptrDb} -> memref<?x?xf32>
                %72 = arts.datablock "inout" ptr[%12 : memref<?x?xf32>], indices[], sizes[%6, %6], type[f32], typeSize[%c4], inEvent[%49], outEvent[%49] {hasGuid, ptrDb} -> memref<?x?xf32>
                arts.edt dependencies(%70, %71, %72) : (memref<?x?xf32>, memref<?x?xf32>, memref<?x?xf32>) attributes {task} {
                  scf.for %arg5 = %54 to %69 step %c1 {
                    %73 = arith.addi %61, %4#1 : i32
                    %74 = arith.index_cast %73 : i32 to index
                    scf.for %arg6 = %60 to %74 step %c1 {
                      %75 = arith.addi %67, %4#1 : i32
                      %76 = arith.index_cast %75 : i32 to index
                      scf.for %arg7 = %66 to %76 step %c1 {
                        %77 = memref.load %70[%arg5, %arg7] : memref<?x?xf32>
                        %78 = memref.load %71[%arg7, %arg6] : memref<?x?xf32>
                        %79 = arith.mulf %77, %78 : f32
                        %80 = memref.load %72[%arg5, %arg6] : memref<?x?xf32>
                        %81 = arith.addf %80, %79 : f32
                        memref.store %81, %72[%arg5, %arg6] : memref<?x?xf32>
                      }
                    }
                  }
                  arts.yield
                }
              }
            }
          }
          arts.yield
        }
      }
      %16 = arith.index_cast %4#0 : i32 to index
      scf.for %arg2 = %c0 to %16 step %c1 {
        %49 = arith.index_cast %4#0 : i32 to index
        scf.for %arg3 = %c0 to %49 step %c1 {
          %50 = arith.index_cast %4#0 : i32 to index
          %51 = scf.for %arg4 = %c0 to %50 step %c1 iter_args(%arg5 = %cst_0) -> (f32) {
            %52 = memref.load %8[%arg2, %arg4] : memref<?x?xf32>
            %53 = memref.load %10[%arg4, %arg3] : memref<?x?xf32>
            %54 = arith.mulf %52, %53 : f32
            %55 = arith.addf %arg5, %54 : f32
            scf.yield %55 : f32
          }
          memref.store %51, %alloca_3[%arg2, %arg3] : memref<?x?xf32>
        }
      }
      %17 = arith.index_cast %4#0 : i32 to index
      %18 = scf.for %arg2 = %c0 to %17 step %c1 iter_args(%arg3 = %c1_i32) -> (i32) {
        %49 = arith.index_cast %arg2 : index to i32
        %50 = arith.index_cast %4#0 : i32 to index
        %51 = scf.for %arg4 = %c0 to %50 step %c1 iter_args(%arg5 = %arg3) -> (i32) {
          %52 = arith.index_cast %arg4 : index to i32
          %53 = memref.load %12[%arg2, %arg4] : memref<?x?xf32>
          %54 = memref.load %alloca_3[%arg2, %arg4] : memref<?x?xf32>
          %55 = arith.subf %53, %54 : f32
          %56 = arith.extf %55 : f32 to f64
          %57 = math.absf %56 : f64
          %58 = arith.cmpf ogt, %57, %cst : f64
          %59 = arith.select %58, %c0_i32, %arg5 : i32
          scf.if %58 {
            %60 = llvm.mlir.addressof @str2 : !llvm.ptr
            %61 = llvm.getelementptr %60[0, 0] : (!llvm.ptr) -> !llvm.ptr, !llvm.array<53 x i8>
            %62 = arith.extf %53 : f32 to f64
            %63 = arith.extf %54 : f32 to f64
            %64 = llvm.call @printf(%61, %49, %52, %62, %63) vararg(!llvm.func<i32 (ptr, ...)>) : (!llvm.ptr, i32, i32, f64, f64) -> i32
          }
          scf.yield %59 : i32
        }
        scf.yield %51 : i32
      }
      %19 = arith.cmpi ne, %18, %c0_i32 : i32
      %20 = llvm.mlir.addressof @str3 : !llvm.ptr
      %21 = llvm.getelementptr %20[0, 0] : (!llvm.ptr) -> !llvm.ptr, !llvm.array<11 x i8>
      %22 = llvm.call @printf(%21) vararg(!llvm.func<i32 (ptr, ...)>) : (!llvm.ptr) -> i32
      %23 = arith.index_cast %4#0 : i32 to index
      scf.for %arg2 = %c0 to %23 step %c1 {
        %49 = arith.index_cast %4#0 : i32 to index
        scf.for %arg3 = %c0 to %49 step %c1 {
          %53 = llvm.mlir.addressof @str4 : !llvm.ptr
          %54 = llvm.getelementptr %53[0, 0] : (!llvm.ptr) -> !llvm.ptr, !llvm.array<7 x i8>
          %55 = memref.load %8[%arg2, %arg3] : memref<?x?xf32>
          %56 = arith.extf %55 : f32 to f64
          %57 = llvm.call @printf(%54, %56) vararg(!llvm.func<i32 (ptr, ...)>) : (!llvm.ptr, f64) -> i32
        }
        %50 = llvm.mlir.addressof @str5 : !llvm.ptr
        %51 = llvm.getelementptr %50[0, 0] : (!llvm.ptr) -> !llvm.ptr, !llvm.array<2 x i8>
        %52 = llvm.call @printf(%51) vararg(!llvm.func<i32 (ptr, ...)>) : (!llvm.ptr) -> i32
      }
      %24 = llvm.mlir.addressof @str6 : !llvm.ptr
      %25 = llvm.getelementptr %24[0, 0] : (!llvm.ptr) -> !llvm.ptr, !llvm.array<12 x i8>
      %26 = llvm.call @printf(%25) vararg(!llvm.func<i32 (ptr, ...)>) : (!llvm.ptr) -> i32
      %27 = arith.index_cast %4#0 : i32 to index
      scf.for %arg2 = %c0 to %27 step %c1 {
        %49 = arith.index_cast %4#0 : i32 to index
        scf.for %arg3 = %c0 to %49 step %c1 {
          %53 = llvm.mlir.addressof @str4 : !llvm.ptr
          %54 = llvm.getelementptr %53[0, 0] : (!llvm.ptr) -> !llvm.ptr, !llvm.array<7 x i8>
          %55 = memref.load %10[%arg2, %arg3] : memref<?x?xf32>
          %56 = arith.extf %55 : f32 to f64
          %57 = llvm.call @printf(%54, %56) vararg(!llvm.func<i32 (ptr, ...)>) : (!llvm.ptr, f64) -> i32
        }
        %50 = llvm.mlir.addressof @str5 : !llvm.ptr
        %51 = llvm.getelementptr %50[0, 0] : (!llvm.ptr) -> !llvm.ptr, !llvm.array<2 x i8>
        %52 = llvm.call @printf(%51) vararg(!llvm.func<i32 (ptr, ...)>) : (!llvm.ptr) -> i32
      }
      %28 = llvm.mlir.addressof @str7 : !llvm.ptr
      %29 = llvm.getelementptr %28[0, 0] : (!llvm.ptr) -> !llvm.ptr, !llvm.array<23 x i8>
      %30 = llvm.call @printf(%29) vararg(!llvm.func<i32 (ptr, ...)>) : (!llvm.ptr) -> i32
      %31 = arith.index_cast %4#0 : i32 to index
      scf.for %arg2 = %c0 to %31 step %c1 {
        %49 = arith.index_cast %4#0 : i32 to index
        scf.for %arg3 = %c0 to %49 step %c1 {
          %53 = llvm.mlir.addressof @str4 : !llvm.ptr
          %54 = llvm.getelementptr %53[0, 0] : (!llvm.ptr) -> !llvm.ptr, !llvm.array<7 x i8>
          %55 = memref.load %12[%arg2, %arg3] : memref<?x?xf32>
          %56 = arith.extf %55 : f32 to f64
          %57 = llvm.call @printf(%54, %56) vararg(!llvm.func<i32 (ptr, ...)>) : (!llvm.ptr, f64) -> i32
        }
        %50 = llvm.mlir.addressof @str5 : !llvm.ptr
        %51 = llvm.getelementptr %50[0, 0] : (!llvm.ptr) -> !llvm.ptr, !llvm.array<2 x i8>
        %52 = llvm.call @printf(%51) vararg(!llvm.func<i32 (ptr, ...)>) : (!llvm.ptr) -> i32
      }
      %32 = llvm.mlir.addressof @str8 : !llvm.ptr
      %33 = llvm.getelementptr %32[0, 0] : (!llvm.ptr) -> !llvm.ptr, !llvm.array<25 x i8>
      %34 = llvm.call @printf(%33) vararg(!llvm.func<i32 (ptr, ...)>) : (!llvm.ptr) -> i32
      %35 = arith.index_cast %4#0 : i32 to index
      scf.for %arg2 = %c0 to %35 step %c1 {
        %49 = arith.index_cast %4#0 : i32 to index
        scf.for %arg3 = %c0 to %49 step %c1 {
          %53 = llvm.mlir.addressof @str4 : !llvm.ptr
          %54 = llvm.getelementptr %53[0, 0] : (!llvm.ptr) -> !llvm.ptr, !llvm.array<7 x i8>
          %55 = memref.load %alloca_3[%arg2, %arg3] : memref<?x?xf32>
          %56 = arith.extf %55 : f32 to f64
          %57 = llvm.call @printf(%54, %56) vararg(!llvm.func<i32 (ptr, ...)>) : (!llvm.ptr, f64) -> i32
        }
        %50 = llvm.mlir.addressof @str5 : !llvm.ptr
        %51 = llvm.getelementptr %50[0, 0] : (!llvm.ptr) -> !llvm.ptr, !llvm.array<2 x i8>
        %52 = llvm.call @printf(%51) vararg(!llvm.func<i32 (ptr, ...)>) : (!llvm.ptr) -> i32
      }
      %36 = llvm.mlir.addressof @str5 : !llvm.ptr
      %37 = llvm.getelementptr %36[0, 0] : (!llvm.ptr) -> !llvm.ptr, !llvm.array<2 x i8>
      %38 = llvm.call @printf(%37) vararg(!llvm.func<i32 (ptr, ...)>) : (!llvm.ptr) -> i32
      %39 = llvm.mlir.addressof @str9 : !llvm.ptr
      %40 = llvm.getelementptr %39[0, 0] : (!llvm.ptr) -> !llvm.ptr, !llvm.array<24 x i8>
      %41 = llvm.call @printf(%40) vararg(!llvm.func<i32 (ptr, ...)>) : (!llvm.ptr) -> i32
      %42 = llvm.mlir.addressof @str10 : !llvm.ptr
      %43 = llvm.getelementptr %42[0, 0] : (!llvm.ptr) -> !llvm.ptr, !llvm.array<4 x i8>
      %44 = scf.if %19 -> (!llvm.ptr) {
        %49 = llvm.mlir.addressof @str11 : !llvm.ptr
        %50 = llvm.getelementptr %49[0, 0] : (!llvm.ptr) -> !llvm.ptr, !llvm.array<20 x i8>
        scf.yield %50 : !llvm.ptr
      } else {
        %49 = llvm.mlir.addressof @str12 : !llvm.ptr
        %50 = llvm.getelementptr %49[0, 0] : (!llvm.ptr) -> !llvm.ptr, !llvm.array<20 x i8>
        scf.yield %50 : !llvm.ptr
      }
      %45 = llvm.call @printf(%43, %44) vararg(!llvm.func<i32 (ptr, ...)>) : (!llvm.ptr, !llvm.ptr) -> i32
      %46 = llvm.mlir.addressof @str9 : !llvm.ptr
      %47 = llvm.getelementptr %46[0, 0] : (!llvm.ptr) -> !llvm.ptr, !llvm.array<24 x i8>
      %48 = llvm.call @printf(%47) vararg(!llvm.func<i32 (ptr, ...)>) : (!llvm.ptr) -> i32
    }
    return %5 : i32
  }
  func.func private @atoi(memref<?xi8>) -> i32 attributes {llvm.linkage = #llvm.linkage<external>}
}
Rewiring datablock:
  %8 = arts.datablock "in" ptr[%alloca : memref<?x?xf32>], indices[], sizes[%6, %6], type[f32], typeSize[%c4], inEvent[%7] -> memref<?x?xf32>
  %9 = arts.datablock "in" ptr[%alloca : memref<?x?xf32>], indices[], sizes[%6, %6], type[f32], typeSize[%c4], inEvent[%7] {newDb} -> memref<?x?xmemref<?xi8>>
Rewiring datablock:
  %10 = arts.datablock "in" ptr[%alloca_1 : memref<?x?xf32>], indices[], sizes[%6, %6], type[f32], typeSize[%c4], inEvent[%9] -> memref<?x?xf32>
  %11 = arts.datablock "in" ptr[%alloca_1 : memref<?x?xf32>], indices[], sizes[%6, %6], type[f32], typeSize[%c4], inEvent[%9] {newDb} -> memref<?x?xmemref<?xi8>>
Rewiring datablock:
  %12 = arts.datablock "inout" ptr[%alloca_2 : memref<?x?xf32>], indices[], sizes[%6, %6], type[f32], typeSize[%c4], inEvent[%11] -> memref<?x?xf32>
  %13 = arts.datablock "inout" ptr[%alloca_2 : memref<?x?xf32>], indices[], sizes[%6, %6], type[f32], typeSize[%c4], inEvent[%11] {newDb} -> memref<?x?xmemref<?xi8>>
Rewiring datablock:
  %70 = arts.datablock "in" ptr[%8 : memref<?x?xmemref<?xi8>>], indices[], sizes[%6, %6], type[f32], typeSize[%c4], inEvent[%51] {hasGuid, ptrDb} -> memref<?x?xf32>
  %71 = arts.datablock "in" ptr[%8 : memref<?x?xmemref<?xi8>>], indices[], sizes[%6, %6], type[f32], typeSize[%c4], inEvent[%51] {hasGuid, newDb, ptrDb} -> memref<?x?xmemref<?xi8>>
Rewiring datablock:
  %71 = arts.datablock "in" ptr[%10 : memref<?x?xmemref<?xi8>>], indices[], sizes[%6, %6], type[f32], typeSize[%c4], inEvent[%50] {hasGuid, ptrDb} -> memref<?x?xf32>
  %72 = arts.datablock "in" ptr[%10 : memref<?x?xmemref<?xi8>>], indices[], sizes[%6, %6], type[f32], typeSize[%c4], inEvent[%50] {hasGuid, newDb, ptrDb} -> memref<?x?xmemref<?xi8>>
Rewiring datablock:
  %72 = arts.datablock "inout" ptr[%12 : memref<?x?xmemref<?xi8>>], indices[], sizes[%6, %6], type[f32], typeSize[%c4], inEvent[%49], outEvent[%49] {hasGuid, ptrDb} -> memref<?x?xf32>
  %73 = arts.datablock "inout" ptr[%12 : memref<?x?xmemref<?xi8>>], indices[], sizes[%6, %6], type[f32], typeSize[%c4], inEvent[%49], outEvent[%49] {hasGuid, newDb, ptrDb} -> memref<?x?xmemref<?xi8>>
-----------------------------------------
Handling new datablocks
[convert-arts-to-llvm] Lowering arts.datablock
  %8 = arts.datablock "in" ptr[%alloca : memref<?x?xf32>], indices[], sizes[%6, %6], type[f32], typeSize[%c4], inEvent[%7] {newDb} -> memref<?x?xmemref<?xi8>>
[convert-arts-to-llvm] Lowering arts.datablock
  %12 = arts.datablock "in" ptr[%alloca_5 : memref<?x?xf32>], indices[], sizes[%6, %6], type[f32], typeSize[%c4], inEvent[%11] {newDb} -> memref<?x?xmemref<?xi8>>
[convert-arts-to-llvm] Lowering arts.datablock
  %16 = arts.datablock "inout" ptr[%alloca_11 : memref<?x?xf32>], indices[], sizes[%6, %6], type[f32], typeSize[%c4], inEvent[%15] {newDb} -> memref<?x?xmemref<?xi8>>
[convert-arts-to-llvm] Lowering arts.datablock
  %76 = arts.datablock "in" ptr[%10 : memref<?x?xmemref<?xi8>>], indices[], sizes[%6, %6], type[f32], typeSize[%c4], inEvent[%57] {hasGuid, newDb, ptrDb} -> memref<?x?xmemref<?xi8>>
[convert-arts-to-llvm] Lowering arts.datablock
  %77 = arts.datablock "in" ptr[%14 : memref<?x?xmemref<?xi8>>], indices[], sizes[%6, %6], type[f32], typeSize[%c4], inEvent[%56] {hasGuid, newDb, ptrDb} -> memref<?x?xmemref<?xi8>>
[convert-arts-to-llvm] Lowering arts.datablock
  %78 = arts.datablock "inout" ptr[%18 : memref<?x?xmemref<?xi8>>], indices[], sizes[%6, %6], type[f32], typeSize[%c4], inEvent[%55], outEvent[%55] {hasGuid, newDb, ptrDb} -> memref<?x?xmemref<?xi8>>
Module after preprocessing DataBlocks:
module attributes {dlti.dl_spec = #dlti.dl_spec<#dlti.dl_entry<f16, dense<16> : vector<2xi32>>, #dlti.dl_entry<i32, dense<32> : vector<2xi32>>, #dlti.dl_entry<i16, dense<16> : vector<2xi32>>, #dlti.dl_entry<!llvm.ptr<271>, dense<32> : vector<4xi32>>, #dlti.dl_entry<!llvm.ptr<272>, dense<64> : vector<4xi32>>, #dlti.dl_entry<f64, dense<64> : vector<2xi32>>, #dlti.dl_entry<!llvm.ptr<270>, dense<32> : vector<4xi32>>, #dlti.dl_entry<f128, dense<128> : vector<2xi32>>, #dlti.dl_entry<f80, dense<128> : vector<2xi32>>, #dlti.dl_entry<i64, dense<64> : vector<2xi32>>, #dlti.dl_entry<i1, dense<8> : vector<2xi32>>, #dlti.dl_entry<i8, dense<8> : vector<2xi32>>, #dlti.dl_entry<!llvm.ptr, dense<64> : vector<4xi32>>, #dlti.dl_entry<"dlti.endianness", "little">, #dlti.dl_entry<"dlti.stack_alignment", 128 : i32>>, llvm.data_layout = "e-m:e-p270:32:32-p271:32:32-p272:64:64-i64:64-f80:128-n8:16:32:64-S128", llvm.target_triple = "x86_64-unknown-linux-gnu", "polygeist.target-cpu" = "x86-64", "polygeist.target-features" = "+cmov,+cx8,+fxsr,+mmx,+sse,+sse2,+x87", "polygeist.tune-cpu" = "generic"} {
  func.func private @artsDbCreateWithGuid(i64, i64) -> memref<?xi8> attributes {llvm.linkage = #llvm.linkage<external>}
  func.func private @artsReserveGuidRoute(i32, i32) -> i64 attributes {llvm.linkage = #llvm.linkage<external>}
  func.func private @artsGetCurrentNode() -> i32 attributes {llvm.linkage = #llvm.linkage<external>, llvm.nounwind, llvm.readnone}
  llvm.mlir.global internal constant @str12("Verification FAILED\00") {addr_space = 0 : i32}
  llvm.mlir.global internal constant @str11("Verification PASSED\00") {addr_space = 0 : i32}
  llvm.mlir.global internal constant @str10("%s\0A\00") {addr_space = 0 : i32}
  llvm.mlir.global internal constant @str9("----------------------\0A\00") {addr_space = 0 : i32}
  llvm.mlir.global internal constant @str8("\0AMatrix C (Sequential):\0A\00") {addr_space = 0 : i32}
  llvm.mlir.global internal constant @str7("\0AMatrix C (Parallel):\0A\00") {addr_space = 0 : i32}
  llvm.mlir.global internal constant @str6("\0AMatrix B:\0A\00") {addr_space = 0 : i32}
  llvm.mlir.global internal constant @str5("\0A\00") {addr_space = 0 : i32}
  llvm.mlir.global internal constant @str4("%6.2f \00") {addr_space = 0 : i32}
  llvm.mlir.global internal constant @str3("Matrix A:\0A\00") {addr_space = 0 : i32}
  llvm.mlir.global internal constant @str2("Mismatch at (%d,%d): Parallel=%.2f, Sequential=%.2f\0A\00") {addr_space = 0 : i32}
  llvm.func @printf(!llvm.ptr, ...) -> i32
  llvm.mlir.global internal constant @str1("Matrix size and block size must be positive integers.\0A\00") {addr_space = 0 : i32}
  llvm.mlir.global internal constant @str0("Usage: %s <matrix_size> <block_size>\0A\00") {addr_space = 0 : i32}
  llvm.mlir.global external @stderr() {addr_space = 0 : i32} : memref<?x!llvm.struct<(i32, ptr, ptr, ptr, ptr, ptr, ptr, ptr, ptr, ptr, ptr, ptr, ptr, ptr, i32, i32, i64, i16, i8, array<1 x i8>, ptr, i64, ptr, ptr, ptr, ptr, i64, i32, array<20 x i8>)>>
  llvm.func @fprintf(!llvm.ptr, !llvm.ptr, ...) -> i32
  func.func @main(%arg0: i32, %arg1: memref<?xmemref<?xi8>>) -> i32 attributes {llvm.linkage = #llvm.linkage<external>} {
    %c4 = arith.constant 4 : index
    %c2 = arith.constant 2 : index
    %c0 = arith.constant 0 : index
    %c1 = arith.constant 1 : index
    %false = arith.constant false
    %true = arith.constant true
    %cst = arith.constant 9.9999999999999995E-7 : f64
    %cst_0 = arith.constant 0.000000e+00 : f32
    %c0_i32 = arith.constant 0 : i32
    %c1_i32 = arith.constant 1 : i32
    %c3_i32 = arith.constant 3 : i32
    %0 = llvm.mlir.undef : i32
    %1 = arith.cmpi ne, %arg0, %c3_i32 : i32
    %2 = arith.cmpi eq, %arg0, %c3_i32 : i32
    %3 = arith.select %1, %c1_i32, %0 : i32
    scf.if %1 {
      %6 = llvm.mlir.addressof @stderr : !llvm.ptr
      %7 = llvm.load %6 : !llvm.ptr -> memref<?x!llvm.struct<(i32, ptr, ptr, ptr, ptr, ptr, ptr, ptr, ptr, ptr, ptr, ptr, ptr, ptr, i32, i32, i64, i16, i8, array<1 x i8>, ptr, i64, ptr, ptr, ptr, ptr, i64, i32, array<20 x i8>)>>
      %8 = "polygeist.memref2pointer"(%7) : (memref<?x!llvm.struct<(i32, ptr, ptr, ptr, ptr, ptr, ptr, ptr, ptr, ptr, ptr, ptr, ptr, ptr, i32, i32, i64, i16, i8, array<1 x i8>, ptr, i64, ptr, ptr, ptr, ptr, i64, i32, array<20 x i8>)>>) -> !llvm.ptr
      %9 = llvm.mlir.addressof @str0 : !llvm.ptr
      %10 = llvm.getelementptr %9[0, 0] : (!llvm.ptr) -> !llvm.ptr, !llvm.array<38 x i8>
      %11 = memref.load %arg1[%c0] : memref<?xmemref<?xi8>>
      %12 = "polygeist.memref2pointer"(%11) : (memref<?xi8>) -> !llvm.ptr
      %13 = llvm.call @fprintf(%8, %10, %12) vararg(!llvm.func<i32 (ptr, ptr, ...)>) : (!llvm.ptr, !llvm.ptr, !llvm.ptr) -> i32
    }
    %4:4 = scf.if %2 -> (i32, i32, i1, i32) {
      %6 = memref.load %arg1[%c1] : memref<?xmemref<?xi8>>
      %7 = func.call @atoi(%6) : (memref<?xi8>) -> i32
      %8 = arith.cmpi sgt, %7, %c0_i32 : i32
      %9 = memref.load %arg1[%c2] : memref<?xmemref<?xi8>>
      %10 = func.call @atoi(%9) : (memref<?xi8>) -> i32
      %11 = arith.cmpi sle, %10, %c0_i32 : i32
      %12 = arith.cmpi sle, %7, %c0_i32 : i32
      %13 = arith.andi %8, %11 : i1
      %14 = arith.ori %12, %13 : i1
      %15 = arith.xori %14, %true : i1
      %16 = arith.select %14, %c1_i32, %3 : i32
      scf.if %14 {
        %17 = llvm.mlir.addressof @stderr : !llvm.ptr
        %18 = llvm.load %17 : !llvm.ptr -> memref<?x!llvm.struct<(i32, ptr, ptr, ptr, ptr, ptr, ptr, ptr, ptr, ptr, ptr, ptr, ptr, ptr, i32, i32, i64, i16, i8, array<1 x i8>, ptr, i64, ptr, ptr, ptr, ptr, i64, i32, array<20 x i8>)>>
        %19 = "polygeist.memref2pointer"(%18) : (memref<?x!llvm.struct<(i32, ptr, ptr, ptr, ptr, ptr, ptr, ptr, ptr, ptr, ptr, ptr, ptr, ptr, i32, i32, i64, i16, i8, array<1 x i8>, ptr, i64, ptr, ptr, ptr, ptr, i64, i32, array<20 x i8>)>>) -> !llvm.ptr
        %20 = llvm.mlir.addressof @str1 : !llvm.ptr
        %21 = llvm.getelementptr %20[0, 0] : (!llvm.ptr) -> !llvm.ptr, !llvm.array<55 x i8>
        %22 = llvm.call @fprintf(%19, %21) vararg(!llvm.func<i32 (ptr, ptr, ...)>) : (!llvm.ptr, !llvm.ptr) -> i32
      }
      scf.yield %7, %10, %15, %16 : i32, i32, i1, i32
    } else {
      scf.yield %0, %0, %false, %3 : i32, i32, i1, i32
    }
    %5 = arith.select %4#2, %c0_i32, %4#3 : i32
    scf.if %4#2 {
      %6 = arith.index_cast %4#0 : i32 to index
      %alloca = memref.alloca(%6, %6) : memref<?x?xf32>
      %7 = arts.event[%6, %6] -> : memref<?x?xi64>
      %8 = func.call @artsGetCurrentNode() : () -> i32
      %9 = arith.index_cast %c4 : index to i64
      %c8_i32 = arith.constant 8 : i32
      %alloca_1 = memref.alloca(%6, %6) : memref<?x?xi64>
      %alloca_2 = memref.alloca(%6, %6) : memref<?x?xmemref<?xi8>>
      %c0_3 = arith.constant 0 : index
      %c1_4 = arith.constant 1 : index
      scf.for %arg2 = %c0_3 to %6 step %c1_4 {
        %c0_17 = arith.constant 0 : index
        %c1_18 = arith.constant 1 : index
        scf.for %arg3 = %c0_17 to %6 step %c1_18 {
          %55 = func.call @artsReserveGuidRoute(%c8_i32, %8) : (i32, i32) -> i64
          %56 = func.call @artsDbCreateWithGuid(%55, %9) : (i64, i64) -> memref<?xi8>
          memref.store %55, %alloca_1[%arg2, %arg3] : memref<?x?xi64>
          memref.store %56, %alloca_2[%arg2, %arg3] : memref<?x?xmemref<?xi8>>
        }
      }
      %10 = arts.datablock "in" ptr[%alloca : memref<?x?xf32>], indices[], sizes[%6, %6], type[f32], typeSize[%c4], inEvent[%7] {newDb} -> memref<?x?xmemref<?xi8>>
      %alloca_5 = memref.alloca(%6, %6) : memref<?x?xf32>
      %11 = arts.event[%6, %6] -> : memref<?x?xi64>
      %12 = func.call @artsGetCurrentNode() : () -> i32
      %13 = arith.index_cast %c4 : index to i64
      %c8_i32_6 = arith.constant 8 : i32
      %alloca_7 = memref.alloca(%6, %6) : memref<?x?xi64>
      %alloca_8 = memref.alloca(%6, %6) : memref<?x?xmemref<?xi8>>
      %c0_9 = arith.constant 0 : index
      %c1_10 = arith.constant 1 : index
      scf.for %arg2 = %c0_9 to %6 step %c1_10 {
        %c0_17 = arith.constant 0 : index
        %c1_18 = arith.constant 1 : index
        scf.for %arg3 = %c0_17 to %6 step %c1_18 {
          %55 = func.call @artsReserveGuidRoute(%c8_i32_6, %12) : (i32, i32) -> i64
          %56 = func.call @artsDbCreateWithGuid(%55, %13) : (i64, i64) -> memref<?xi8>
          memref.store %55, %alloca_7[%arg2, %arg3] : memref<?x?xi64>
          memref.store %56, %alloca_8[%arg2, %arg3] : memref<?x?xmemref<?xi8>>
        }
      }
      %14 = arts.datablock "in" ptr[%alloca_5 : memref<?x?xf32>], indices[], sizes[%6, %6], type[f32], typeSize[%c4], inEvent[%11] {newDb} -> memref<?x?xmemref<?xi8>>
      %alloca_11 = memref.alloca(%6, %6) : memref<?x?xf32>
      %15 = arts.event[%6, %6] -> : memref<?x?xi64>
      %16 = func.call @artsGetCurrentNode() : () -> i32
      %17 = arith.index_cast %c4 : index to i64
      %c10_i32 = arith.constant 10 : i32
      %alloca_12 = memref.alloca(%6, %6) : memref<?x?xi64>
      %alloca_13 = memref.alloca(%6, %6) : memref<?x?xmemref<?xi8>>
      %c0_14 = arith.constant 0 : index
      %c1_15 = arith.constant 1 : index
      scf.for %arg2 = %c0_14 to %6 step %c1_15 {
        %c0_17 = arith.constant 0 : index
        %c1_18 = arith.constant 1 : index
        scf.for %arg3 = %c0_17 to %6 step %c1_18 {
          %55 = func.call @artsReserveGuidRoute(%c10_i32, %16) : (i32, i32) -> i64
          %56 = func.call @artsDbCreateWithGuid(%55, %17) : (i64, i64) -> memref<?xi8>
          memref.store %55, %alloca_12[%arg2, %arg3] : memref<?x?xi64>
          memref.store %56, %alloca_13[%arg2, %arg3] : memref<?x?xmemref<?xi8>>
        }
      }
      %18 = arts.datablock "inout" ptr[%alloca_11 : memref<?x?xf32>], indices[], sizes[%6, %6], type[f32], typeSize[%c4], inEvent[%15] {newDb} -> memref<?x?xmemref<?xi8>>
      %alloca_16 = memref.alloca(%6, %6) : memref<?x?xf32>
      %19 = arith.index_cast %4#0 : i32 to index
      scf.for %arg2 = %c0 to %19 step %c1 {
        %55 = arith.index_cast %arg2 : index to i32
        %56 = arith.index_cast %4#0 : i32 to index
        scf.for %arg3 = %c0 to %56 step %c1 {
          %57 = arith.index_cast %arg3 : index to i32
          %58 = arith.addi %55, %57 : i32
          %59 = arith.sitofp %58 : i32 to f32
          %60 = polygeist.subindex %10[%arg2] () : memref<?x?xmemref<?xi8>> -> memref<?xmemref<?xi8>>
          %61 = polygeist.subindex %60[%arg3] () : memref<?xmemref<?xi8>> -> memref<memref<?xi8>>
          %62 = "polygeist.memref2pointer"(%61) : (memref<memref<?xi8>>) -> !llvm.ptr
          %63 = llvm.load %62 : !llvm.ptr -> !llvm.ptr
          llvm.store %59, %63 : f32, !llvm.ptr
          %64 = arith.subi %55, %57 : i32
          %65 = arith.sitofp %64 : i32 to f32
          %66 = polygeist.subindex %14[%arg2] () : memref<?x?xmemref<?xi8>> -> memref<?xmemref<?xi8>>
          %67 = polygeist.subindex %66[%arg3] () : memref<?xmemref<?xi8>> -> memref<memref<?xi8>>
          %68 = "polygeist.memref2pointer"(%67) : (memref<memref<?xi8>>) -> !llvm.ptr
          %69 = llvm.load %68 : !llvm.ptr -> !llvm.ptr
          llvm.store %65, %69 : f32, !llvm.ptr
          %70 = polygeist.subindex %18[%arg2] () : memref<?x?xmemref<?xi8>> -> memref<?xmemref<?xi8>>
          %71 = polygeist.subindex %70[%arg3] () : memref<?xmemref<?xi8>> -> memref<memref<?xi8>>
          %72 = "polygeist.memref2pointer"(%71) : (memref<memref<?xi8>>) -> !llvm.ptr
          %73 = llvm.load %72 : !llvm.ptr -> !llvm.ptr
          llvm.store %cst_0, %73 : f32, !llvm.ptr
          memref.store %cst_0, %alloca_16[%arg2, %arg3] : memref<?x?xf32>
        }
      }
      %20 = arith.index_cast %4#0 : i32 to index
      %21 = arith.index_cast %4#1 : i32 to index
      arts.epoch {
        arts.edt dependencies(%10, %14, %18) : (memref<?x?xmemref<?xi8>>, memref<?x?xmemref<?xi8>>, memref<?x?xmemref<?xi8>>) attributes {task} {
          %55 = arts.event[%6, %6] -> : memref<?x?xi64>
          %56 = arts.event[%6, %6] -> : memref<?x?xi64>
          %57 = arts.event[%6, %6] -> : memref<?x?xi64>
          scf.for %arg2 = %c0 to %20 step %21 {
            %58 = arith.divui %arg2, %21 : index
            %59 = arith.index_cast %4#1 : i32 to index
            %60 = arith.muli %58, %59 : index
            %61 = arith.index_cast %60 : index to i32
            %62 = arith.index_cast %4#0 : i32 to index
            %63 = arith.index_cast %4#1 : i32 to index
            scf.for %arg3 = %c0 to %62 step %63 {
              %64 = arith.divui %arg3, %63 : index
              %65 = arith.index_cast %4#1 : i32 to index
              %66 = arith.muli %64, %65 : index
              %67 = arith.index_cast %66 : index to i32
              %68 = arith.index_cast %4#0 : i32 to index
              %69 = arith.index_cast %4#1 : i32 to index
              scf.for %arg4 = %c0 to %68 step %69 {
                %70 = arith.divui %arg4, %69 : index
                %71 = arith.index_cast %4#1 : i32 to index
                %72 = arith.muli %70, %71 : index
                %73 = arith.index_cast %72 : index to i32
                %74 = arith.addi %61, %4#1 : i32
                %75 = arith.index_cast %74 : i32 to index
                %76 = arts.datablock "in" ptr[%10 : memref<?x?xmemref<?xi8>>], indices[], sizes[%6, %6], type[f32], typeSize[%c4], inEvent[%57] {hasGuid, newDb, ptrDb} -> memref<?x?xmemref<?xi8>>
                %77 = arts.datablock "in" ptr[%14 : memref<?x?xmemref<?xi8>>], indices[], sizes[%6, %6], type[f32], typeSize[%c4], inEvent[%56] {hasGuid, newDb, ptrDb} -> memref<?x?xmemref<?xi8>>
                %78 = arts.datablock "inout" ptr[%18 : memref<?x?xmemref<?xi8>>], indices[], sizes[%6, %6], type[f32], typeSize[%c4], inEvent[%55], outEvent[%55] {hasGuid, newDb, ptrDb} -> memref<?x?xmemref<?xi8>>
                arts.edt dependencies(%76, %77, %78) : (memref<?x?xmemref<?xi8>>, memref<?x?xmemref<?xi8>>, memref<?x?xmemref<?xi8>>) attributes {task} {
                  scf.for %arg5 = %60 to %75 step %c1 {
                    %79 = arith.addi %67, %4#1 : i32
                    %80 = arith.index_cast %79 : i32 to index
                    scf.for %arg6 = %66 to %80 step %c1 {
                      %81 = arith.addi %73, %4#1 : i32
                      %82 = arith.index_cast %81 : i32 to index
                      scf.for %arg7 = %72 to %82 step %c1 {
                        %83 = polygeist.subindex %76[%arg5] () : memref<?x?xmemref<?xi8>> -> memref<?xmemref<?xi8>>
                        %84 = polygeist.subindex %83[%arg7] () : memref<?xmemref<?xi8>> -> memref<memref<?xi8>>
                        %85 = "polygeist.memref2pointer"(%84) : (memref<memref<?xi8>>) -> !llvm.ptr
                        %86 = llvm.load %85 : !llvm.ptr -> !llvm.ptr
                        %87 = llvm.load %86 : !llvm.ptr -> f32
                        %88 = polygeist.subindex %77[%arg7] () : memref<?x?xmemref<?xi8>> -> memref<?xmemref<?xi8>>
                        %89 = polygeist.subindex %88[%arg6] () : memref<?xmemref<?xi8>> -> memref<memref<?xi8>>
                        %90 = "polygeist.memref2pointer"(%89) : (memref<memref<?xi8>>) -> !llvm.ptr
                        %91 = llvm.load %90 : !llvm.ptr -> !llvm.ptr
                        %92 = llvm.load %91 : !llvm.ptr -> f32
                        %93 = arith.mulf %87, %92 : f32
                        %94 = polygeist.subindex %78[%arg5] () : memref<?x?xmemref<?xi8>> -> memref<?xmemref<?xi8>>
                        %95 = polygeist.subindex %94[%arg6] () : memref<?xmemref<?xi8>> -> memref<memref<?xi8>>
                        %96 = "polygeist.memref2pointer"(%95) : (memref<memref<?xi8>>) -> !llvm.ptr
                        %97 = llvm.load %96 : !llvm.ptr -> !llvm.ptr
                        %98 = llvm.load %97 : !llvm.ptr -> f32
                        %99 = arith.addf %98, %93 : f32
                        %100 = polygeist.subindex %78[%arg5] () : memref<?x?xmemref<?xi8>> -> memref<?xmemref<?xi8>>
                        %101 = polygeist.subindex %100[%arg6] () : memref<?xmemref<?xi8>> -> memref<memref<?xi8>>
                        %102 = "polygeist.memref2pointer"(%101) : (memref<memref<?xi8>>) -> !llvm.ptr
                        %103 = llvm.load %102 : !llvm.ptr -> !llvm.ptr
                        llvm.store %99, %103 : f32, !llvm.ptr
                      }
                    }
                  }
                  arts.yield
                }
              }
            }
          }
          arts.yield
        }
      }
      %22 = arith.index_cast %4#0 : i32 to index
      scf.for %arg2 = %c0 to %22 step %c1 {
        %55 = arith.index_cast %4#0 : i32 to index
        scf.for %arg3 = %c0 to %55 step %c1 {
          %56 = arith.index_cast %4#0 : i32 to index
          %57 = scf.for %arg4 = %c0 to %56 step %c1 iter_args(%arg5 = %cst_0) -> (f32) {
            %58 = polygeist.subindex %10[%arg2] () : memref<?x?xmemref<?xi8>> -> memref<?xmemref<?xi8>>
            %59 = polygeist.subindex %58[%arg4] () : memref<?xmemref<?xi8>> -> memref<memref<?xi8>>
            %60 = "polygeist.memref2pointer"(%59) : (memref<memref<?xi8>>) -> !llvm.ptr
            %61 = llvm.load %60 : !llvm.ptr -> !llvm.ptr
            %62 = llvm.load %61 : !llvm.ptr -> f32
            %63 = polygeist.subindex %14[%arg4] () : memref<?x?xmemref<?xi8>> -> memref<?xmemref<?xi8>>
            %64 = polygeist.subindex %63[%arg3] () : memref<?xmemref<?xi8>> -> memref<memref<?xi8>>
            %65 = "polygeist.memref2pointer"(%64) : (memref<memref<?xi8>>) -> !llvm.ptr
            %66 = llvm.load %65 : !llvm.ptr -> !llvm.ptr
            %67 = llvm.load %66 : !llvm.ptr -> f32
            %68 = arith.mulf %62, %67 : f32
            %69 = arith.addf %arg5, %68 : f32
            scf.yield %69 : f32
          }
          memref.store %57, %alloca_16[%arg2, %arg3] : memref<?x?xf32>
        }
      }
      %23 = arith.index_cast %4#0 : i32 to index
      %24 = scf.for %arg2 = %c0 to %23 step %c1 iter_args(%arg3 = %c1_i32) -> (i32) {
        %55 = arith.index_cast %arg2 : index to i32
        %56 = arith.index_cast %4#0 : i32 to index
        %57 = scf.for %arg4 = %c0 to %56 step %c1 iter_args(%arg5 = %arg3) -> (i32) {
          %58 = arith.index_cast %arg4 : index to i32
          %59 = polygeist.subindex %18[%arg2] () : memref<?x?xmemref<?xi8>> -> memref<?xmemref<?xi8>>
          %60 = polygeist.subindex %59[%arg4] () : memref<?xmemref<?xi8>> -> memref<memref<?xi8>>
          %61 = "polygeist.memref2pointer"(%60) : (memref<memref<?xi8>>) -> !llvm.ptr
          %62 = llvm.load %61 : !llvm.ptr -> !llvm.ptr
          %63 = llvm.load %62 : !llvm.ptr -> f32
          %64 = memref.load %alloca_16[%arg2, %arg4] : memref<?x?xf32>
          %65 = arith.subf %63, %64 : f32
          %66 = arith.extf %65 : f32 to f64
          %67 = math.absf %66 : f64
          %68 = arith.cmpf ogt, %67, %cst : f64
          %69 = arith.select %68, %c0_i32, %arg5 : i32
          scf.if %68 {
            %70 = llvm.mlir.addressof @str2 : !llvm.ptr
            %71 = llvm.getelementptr %70[0, 0] : (!llvm.ptr) -> !llvm.ptr, !llvm.array<53 x i8>
            %72 = arith.extf %63 : f32 to f64
            %73 = arith.extf %64 : f32 to f64
            %74 = llvm.call @printf(%71, %55, %58, %72, %73) vararg(!llvm.func<i32 (ptr, ...)>) : (!llvm.ptr, i32, i32, f64, f64) -> i32
          }
          scf.yield %69 : i32
        }
        scf.yield %57 : i32
      }
      %25 = arith.cmpi ne, %24, %c0_i32 : i32
      %26 = llvm.mlir.addressof @str3 : !llvm.ptr
      %27 = llvm.getelementptr %26[0, 0] : (!llvm.ptr) -> !llvm.ptr, !llvm.array<11 x i8>
      %28 = llvm.call @printf(%27) vararg(!llvm.func<i32 (ptr, ...)>) : (!llvm.ptr) -> i32
      %29 = arith.index_cast %4#0 : i32 to index
      scf.for %arg2 = %c0 to %29 step %c1 {
        %55 = arith.index_cast %4#0 : i32 to index
        scf.for %arg3 = %c0 to %55 step %c1 {
          %59 = llvm.mlir.addressof @str4 : !llvm.ptr
          %60 = llvm.getelementptr %59[0, 0] : (!llvm.ptr) -> !llvm.ptr, !llvm.array<7 x i8>
          %61 = polygeist.subindex %10[%arg2] () : memref<?x?xmemref<?xi8>> -> memref<?xmemref<?xi8>>
          %62 = polygeist.subindex %61[%arg3] () : memref<?xmemref<?xi8>> -> memref<memref<?xi8>>
          %63 = "polygeist.memref2pointer"(%62) : (memref<memref<?xi8>>) -> !llvm.ptr
          %64 = llvm.load %63 : !llvm.ptr -> !llvm.ptr
          %65 = llvm.load %64 : !llvm.ptr -> f32
          %66 = arith.extf %65 : f32 to f64
          %67 = llvm.call @printf(%60, %66) vararg(!llvm.func<i32 (ptr, ...)>) : (!llvm.ptr, f64) -> i32
        }
        %56 = llvm.mlir.addressof @str5 : !llvm.ptr
        %57 = llvm.getelementptr %56[0, 0] : (!llvm.ptr) -> !llvm.ptr, !llvm.array<2 x i8>
        %58 = llvm.call @printf(%57) vararg(!llvm.func<i32 (ptr, ...)>) : (!llvm.ptr) -> i32
      }
      %30 = llvm.mlir.addressof @str6 : !llvm.ptr
      %31 = llvm.getelementptr %30[0, 0] : (!llvm.ptr) -> !llvm.ptr, !llvm.array<12 x i8>
      %32 = llvm.call @printf(%31) vararg(!llvm.func<i32 (ptr, ...)>) : (!llvm.ptr) -> i32
      %33 = arith.index_cast %4#0 : i32 to index
      scf.for %arg2 = %c0 to %33 step %c1 {
        %55 = arith.index_cast %4#0 : i32 to index
        scf.for %arg3 = %c0 to %55 step %c1 {
          %59 = llvm.mlir.addressof @str4 : !llvm.ptr
          %60 = llvm.getelementptr %59[0, 0] : (!llvm.ptr) -> !llvm.ptr, !llvm.array<7 x i8>
          %61 = polygeist.subindex %14[%arg2] () : memref<?x?xmemref<?xi8>> -> memref<?xmemref<?xi8>>
          %62 = polygeist.subindex %61[%arg3] () : memref<?xmemref<?xi8>> -> memref<memref<?xi8>>
          %63 = "polygeist.memref2pointer"(%62) : (memref<memref<?xi8>>) -> !llvm.ptr
          %64 = llvm.load %63 : !llvm.ptr -> !llvm.ptr
          %65 = llvm.load %64 : !llvm.ptr -> f32
          %66 = arith.extf %65 : f32 to f64
          %67 = llvm.call @printf(%60, %66) vararg(!llvm.func<i32 (ptr, ...)>) : (!llvm.ptr, f64) -> i32
        }
        %56 = llvm.mlir.addressof @str5 : !llvm.ptr
        %57 = llvm.getelementptr %56[0, 0] : (!llvm.ptr) -> !llvm.ptr, !llvm.array<2 x i8>
        %58 = llvm.call @printf(%57) vararg(!llvm.func<i32 (ptr, ...)>) : (!llvm.ptr) -> i32
      }
      %34 = llvm.mlir.addressof @str7 : !llvm.ptr
      %35 = llvm.getelementptr %34[0, 0] : (!llvm.ptr) -> !llvm.ptr, !llvm.array<23 x i8>
      %36 = llvm.call @printf(%35) vararg(!llvm.func<i32 (ptr, ...)>) : (!llvm.ptr) -> i32
      %37 = arith.index_cast %4#0 : i32 to index
      scf.for %arg2 = %c0 to %37 step %c1 {
        %55 = arith.index_cast %4#0 : i32 to index
        scf.for %arg3 = %c0 to %55 step %c1 {
          %59 = llvm.mlir.addressof @str4 : !llvm.ptr
          %60 = llvm.getelementptr %59[0, 0] : (!llvm.ptr) -> !llvm.ptr, !llvm.array<7 x i8>
          %61 = polygeist.subindex %18[%arg2] () : memref<?x?xmemref<?xi8>> -> memref<?xmemref<?xi8>>
          %62 = polygeist.subindex %61[%arg3] () : memref<?xmemref<?xi8>> -> memref<memref<?xi8>>
          %63 = "polygeist.memref2pointer"(%62) : (memref<memref<?xi8>>) -> !llvm.ptr
          %64 = llvm.load %63 : !llvm.ptr -> !llvm.ptr
          %65 = llvm.load %64 : !llvm.ptr -> f32
          %66 = arith.extf %65 : f32 to f64
          %67 = llvm.call @printf(%60, %66) vararg(!llvm.func<i32 (ptr, ...)>) : (!llvm.ptr, f64) -> i32
        }
        %56 = llvm.mlir.addressof @str5 : !llvm.ptr
        %57 = llvm.getelementptr %56[0, 0] : (!llvm.ptr) -> !llvm.ptr, !llvm.array<2 x i8>
        %58 = llvm.call @printf(%57) vararg(!llvm.func<i32 (ptr, ...)>) : (!llvm.ptr) -> i32
      }
      %38 = llvm.mlir.addressof @str8 : !llvm.ptr
      %39 = llvm.getelementptr %38[0, 0] : (!llvm.ptr) -> !llvm.ptr, !llvm.array<25 x i8>
      %40 = llvm.call @printf(%39) vararg(!llvm.func<i32 (ptr, ...)>) : (!llvm.ptr) -> i32
      %41 = arith.index_cast %4#0 : i32 to index
      scf.for %arg2 = %c0 to %41 step %c1 {
        %55 = arith.index_cast %4#0 : i32 to index
        scf.for %arg3 = %c0 to %55 step %c1 {
          %59 = llvm.mlir.addressof @str4 : !llvm.ptr
          %60 = llvm.getelementptr %59[0, 0] : (!llvm.ptr) -> !llvm.ptr, !llvm.array<7 x i8>
          %61 = memref.load %alloca_16[%arg2, %arg3] : memref<?x?xf32>
          %62 = arith.extf %61 : f32 to f64
          %63 = llvm.call @printf(%60, %62) vararg(!llvm.func<i32 (ptr, ...)>) : (!llvm.ptr, f64) -> i32
        }
        %56 = llvm.mlir.addressof @str5 : !llvm.ptr
        %57 = llvm.getelementptr %56[0, 0] : (!llvm.ptr) -> !llvm.ptr, !llvm.array<2 x i8>
        %58 = llvm.call @printf(%57) vararg(!llvm.func<i32 (ptr, ...)>) : (!llvm.ptr) -> i32
      }
      %42 = llvm.mlir.addressof @str5 : !llvm.ptr
      %43 = llvm.getelementptr %42[0, 0] : (!llvm.ptr) -> !llvm.ptr, !llvm.array<2 x i8>
      %44 = llvm.call @printf(%43) vararg(!llvm.func<i32 (ptr, ...)>) : (!llvm.ptr) -> i32
      %45 = llvm.mlir.addressof @str9 : !llvm.ptr
      %46 = llvm.getelementptr %45[0, 0] : (!llvm.ptr) -> !llvm.ptr, !llvm.array<24 x i8>
      %47 = llvm.call @printf(%46) vararg(!llvm.func<i32 (ptr, ...)>) : (!llvm.ptr) -> i32
      %48 = llvm.mlir.addressof @str10 : !llvm.ptr
      %49 = llvm.getelementptr %48[0, 0] : (!llvm.ptr) -> !llvm.ptr, !llvm.array<4 x i8>
      %50 = scf.if %25 -> (!llvm.ptr) {
        %55 = llvm.mlir.addressof @str11 : !llvm.ptr
        %56 = llvm.getelementptr %55[0, 0] : (!llvm.ptr) -> !llvm.ptr, !llvm.array<20 x i8>
        scf.yield %56 : !llvm.ptr
      } else {
        %55 = llvm.mlir.addressof @str12 : !llvm.ptr
        %56 = llvm.getelementptr %55[0, 0] : (!llvm.ptr) -> !llvm.ptr, !llvm.array<20 x i8>
        scf.yield %56 : !llvm.ptr
      }
      %51 = llvm.call @printf(%49, %50) vararg(!llvm.func<i32 (ptr, ...)>) : (!llvm.ptr, !llvm.ptr) -> i32
      %52 = llvm.mlir.addressof @str9 : !llvm.ptr
      %53 = llvm.getelementptr %52[0, 0] : (!llvm.ptr) -> !llvm.ptr, !llvm.array<24 x i8>
      %54 = llvm.call @printf(%53) vararg(!llvm.func<i32 (ptr, ...)>) : (!llvm.ptr) -> i32
    }
    return %5 : i32
  }
  func.func private @atoi(memref<?xi8>) -> i32 attributes {llvm.linkage = #llvm.linkage<external>}
}
-----------------------------------------
[convert-arts-to-llvm] Lowering arts.epoch: arts.epoch {
  arts.edt dependencies(%10, %14, %18) : (memref<?x?xmemref<?xi8>>, memref<?x?xmemref<?xi8>>, memref<?x?xmemref<?xi8>>) attributes {task} {
    %55 = arts.event[%6, %6] -> : memref<?x?xi64>
    %56 = arts.event[%6, %6] -> : memref<?x?xi64>
    %57 = arts.event[%6, %6] -> : memref<?x?xi64>
    scf.for %arg2 = %c0 to %20 step %21 {
      %58 = arith.divui %arg2, %21 : index
      %59 = arith.index_cast %4#1 : i32 to index
      %60 = arith.muli %58, %59 : index
      %61 = arith.index_cast %60 : index to i32
      %62 = arith.index_cast %4#0 : i32 to index
      %63 = arith.index_cast %4#1 : i32 to index
      scf.for %arg3 = %c0 to %62 step %63 {
        %64 = arith.divui %arg3, %63 : index
        %65 = arith.index_cast %4#1 : i32 to index
        %66 = arith.muli %64, %65 : index
        %67 = arith.index_cast %66 : index to i32
        %68 = arith.index_cast %4#0 : i32 to index
        %69 = arith.index_cast %4#1 : i32 to index
        scf.for %arg4 = %c0 to %68 step %69 {
          %70 = arith.divui %arg4, %69 : index
          %71 = arith.index_cast %4#1 : i32 to index
          %72 = arith.muli %70, %71 : index
          %73 = arith.index_cast %72 : index to i32
          %74 = arith.addi %61, %4#1 : i32
          %75 = arith.index_cast %74 : i32 to index
          %76 = arts.datablock "in" ptr[%10 : memref<?x?xmemref<?xi8>>], indices[], sizes[%6, %6], type[f32], typeSize[%c4], inEvent[%57] {hasGuid, newDb, ptrDb} -> memref<?x?xmemref<?xi8>>
          %77 = arts.datablock "in" ptr[%14 : memref<?x?xmemref<?xi8>>], indices[], sizes[%6, %6], type[f32], typeSize[%c4], inEvent[%56] {hasGuid, newDb, ptrDb} -> memref<?x?xmemref<?xi8>>
          %78 = arts.datablock "inout" ptr[%18 : memref<?x?xmemref<?xi8>>], indices[], sizes[%6, %6], type[f32], typeSize[%c4], inEvent[%55], outEvent[%55] {hasGuid, newDb, ptrDb} -> memref<?x?xmemref<?xi8>>
          arts.edt dependencies(%76, %77, %78) : (memref<?x?xmemref<?xi8>>, memref<?x?xmemref<?xi8>>, memref<?x?xmemref<?xi8>>) attributes {task} {
            scf.for %arg5 = %60 to %75 step %c1 {
              %79 = arith.addi %67, %4#1 : i32
              %80 = arith.index_cast %79 : i32 to index
              scf.for %arg6 = %66 to %80 step %c1 {
                %81 = arith.addi %73, %4#1 : i32
                %82 = arith.index_cast %81 : i32 to index
                scf.for %arg7 = %72 to %82 step %c1 {
                  %83 = polygeist.subindex %76[%arg5] () : memref<?x?xmemref<?xi8>> -> memref<?xmemref<?xi8>>
                  %84 = polygeist.subindex %83[%arg7] () : memref<?xmemref<?xi8>> -> memref<memref<?xi8>>
                  %85 = "polygeist.memref2pointer"(%84) : (memref<memref<?xi8>>) -> !llvm.ptr
                  %86 = llvm.load %85 : !llvm.ptr -> !llvm.ptr
                  %87 = llvm.load %86 : !llvm.ptr -> f32
                  %88 = polygeist.subindex %77[%arg7] () : memref<?x?xmemref<?xi8>> -> memref<?xmemref<?xi8>>
                  %89 = polygeist.subindex %88[%arg6] () : memref<?xmemref<?xi8>> -> memref<memref<?xi8>>
                  %90 = "polygeist.memref2pointer"(%89) : (memref<memref<?xi8>>) -> !llvm.ptr
                  %91 = llvm.load %90 : !llvm.ptr -> !llvm.ptr
                  %92 = llvm.load %91 : !llvm.ptr -> f32
                  %93 = arith.mulf %87, %92 : f32
                  %94 = polygeist.subindex %78[%arg5] () : memref<?x?xmemref<?xi8>> -> memref<?xmemref<?xi8>>
                  %95 = polygeist.subindex %94[%arg6] () : memref<?xmemref<?xi8>> -> memref<memref<?xi8>>
                  %96 = "polygeist.memref2pointer"(%95) : (memref<memref<?xi8>>) -> !llvm.ptr
                  %97 = llvm.load %96 : !llvm.ptr -> !llvm.ptr
                  %98 = llvm.load %97 : !llvm.ptr -> f32
                  %99 = arith.addf %98, %93 : f32
                  %100 = polygeist.subindex %78[%arg5] () : memref<?x?xmemref<?xi8>> -> memref<?xmemref<?xi8>>
                  %101 = polygeist.subindex %100[%arg6] () : memref<?xmemref<?xi8>> -> memref<memref<?xi8>>
                  %102 = "polygeist.memref2pointer"(%101) : (memref<memref<?xi8>>) -> !llvm.ptr
                  %103 = llvm.load %102 : !llvm.ptr -> !llvm.ptr
                  llvm.store %99, %103 : f32, !llvm.ptr
                }
              }
            }
            arts.yield
          }
        }
      }
    }
    arts.yield
  }
}
[convert-arts-to-llvm] Lowering arts.event
[convert-arts-to-llvm] Lowering arts.event
[convert-arts-to-llvm] Lowering arts.event
[convert-arts-to-llvm] Lowering arts.event
[convert-arts-to-llvm] Lowering arts.event
[convert-arts-to-llvm] Lowering arts.event
[convert-arts-to-llvm] Module after iterating Epochs and Events:
module attributes {dlti.dl_spec = #dlti.dl_spec<#dlti.dl_entry<f16, dense<16> : vector<2xi32>>, #dlti.dl_entry<i32, dense<32> : vector<2xi32>>, #dlti.dl_entry<i16, dense<16> : vector<2xi32>>, #dlti.dl_entry<!llvm.ptr<271>, dense<32> : vector<4xi32>>, #dlti.dl_entry<!llvm.ptr<272>, dense<64> : vector<4xi32>>, #dlti.dl_entry<f64, dense<64> : vector<2xi32>>, #dlti.dl_entry<!llvm.ptr<270>, dense<32> : vector<4xi32>>, #dlti.dl_entry<f128, dense<128> : vector<2xi32>>, #dlti.dl_entry<f80, dense<128> : vector<2xi32>>, #dlti.dl_entry<i64, dense<64> : vector<2xi32>>, #dlti.dl_entry<i1, dense<8> : vector<2xi32>>, #dlti.dl_entry<i8, dense<8> : vector<2xi32>>, #dlti.dl_entry<!llvm.ptr, dense<64> : vector<4xi32>>, #dlti.dl_entry<"dlti.endianness", "little">, #dlti.dl_entry<"dlti.stack_alignment", 128 : i32>>, llvm.data_layout = "e-m:e-p270:32:32-p271:32:32-p272:64:64-i64:64-f80:128-n8:16:32:64-S128", llvm.target_triple = "x86_64-unknown-linux-gnu", "polygeist.target-cpu" = "x86-64", "polygeist.target-features" = "+cmov,+cx8,+fxsr,+mmx,+sse,+sse2,+x87", "polygeist.tune-cpu" = "generic"} {
  func.func private @artsPersistentEventCreate(i32, i32, i64) -> i64 attributes {llvm.linkage = #llvm.linkage<external>}
  func.func private @artsWaitOnHandle(i64) -> i1 attributes {llvm.linkage = #llvm.linkage<external>}
  func.func private @artsInitializeAndStartEpoch(i64, i32) -> i64 attributes {llvm.linkage = #llvm.linkage<external>}
  func.func private @artsEdtCreate(memref<?x!llvm.func<void (i32, memref<?xi64>, i32, memref<?x!llvm.struct<(i64, i32, ptr)>>)>>, i32, i32, memref<?xi64>, i32) -> i64 attributes {llvm.linkage = #llvm.linkage<external>}
  func.func private @artsDbCreateWithGuid(i64, i64) -> memref<?xi8> attributes {llvm.linkage = #llvm.linkage<external>}
  func.func private @artsReserveGuidRoute(i32, i32) -> i64 attributes {llvm.linkage = #llvm.linkage<external>}
  func.func private @artsGetCurrentNode() -> i32 attributes {llvm.linkage = #llvm.linkage<external>, llvm.nounwind, llvm.readnone}
  llvm.mlir.global internal constant @str12("Verification FAILED\00") {addr_space = 0 : i32}
  llvm.mlir.global internal constant @str11("Verification PASSED\00") {addr_space = 0 : i32}
  llvm.mlir.global internal constant @str10("%s\0A\00") {addr_space = 0 : i32}
  llvm.mlir.global internal constant @str9("----------------------\0A\00") {addr_space = 0 : i32}
  llvm.mlir.global internal constant @str8("\0AMatrix C (Sequential):\0A\00") {addr_space = 0 : i32}
  llvm.mlir.global internal constant @str7("\0AMatrix C (Parallel):\0A\00") {addr_space = 0 : i32}
  llvm.mlir.global internal constant @str6("\0AMatrix B:\0A\00") {addr_space = 0 : i32}
  llvm.mlir.global internal constant @str5("\0A\00") {addr_space = 0 : i32}
  llvm.mlir.global internal constant @str4("%6.2f \00") {addr_space = 0 : i32}
  llvm.mlir.global internal constant @str3("Matrix A:\0A\00") {addr_space = 0 : i32}
  llvm.mlir.global internal constant @str2("Mismatch at (%d,%d): Parallel=%.2f, Sequential=%.2f\0A\00") {addr_space = 0 : i32}
  llvm.func @printf(!llvm.ptr, ...) -> i32
  llvm.mlir.global internal constant @str1("Matrix size and block size must be positive integers.\0A\00") {addr_space = 0 : i32}
  llvm.mlir.global internal constant @str0("Usage: %s <matrix_size> <block_size>\0A\00") {addr_space = 0 : i32}
  llvm.mlir.global external @stderr() {addr_space = 0 : i32} : memref<?x!llvm.struct<(i32, ptr, ptr, ptr, ptr, ptr, ptr, ptr, ptr, ptr, ptr, ptr, ptr, ptr, i32, i32, i64, i16, i8, array<1 x i8>, ptr, i64, ptr, ptr, ptr, ptr, i64, i32, array<20 x i8>)>>
  llvm.func @fprintf(!llvm.ptr, !llvm.ptr, ...) -> i32
  func.func @main(%arg0: i32, %arg1: memref<?xmemref<?xi8>>) -> i32 attributes {llvm.linkage = #llvm.linkage<external>} {
    %c4 = arith.constant 4 : index
    %c2 = arith.constant 2 : index
    %c0 = arith.constant 0 : index
    %c1 = arith.constant 1 : index
    %false = arith.constant false
    %true = arith.constant true
    %cst = arith.constant 9.9999999999999995E-7 : f64
    %cst_0 = arith.constant 0.000000e+00 : f32
    %c0_i32 = arith.constant 0 : i32
    %c1_i32 = arith.constant 1 : i32
    %c3_i32 = arith.constant 3 : i32
    %0 = llvm.mlir.undef : i32
    %1 = arith.cmpi ne, %arg0, %c3_i32 : i32
    %2 = arith.cmpi eq, %arg0, %c3_i32 : i32
    %3 = arith.select %1, %c1_i32, %0 : i32
    scf.if %1 {
      %6 = llvm.mlir.addressof @stderr : !llvm.ptr
      %7 = llvm.load %6 : !llvm.ptr -> memref<?x!llvm.struct<(i32, ptr, ptr, ptr, ptr, ptr, ptr, ptr, ptr, ptr, ptr, ptr, ptr, ptr, i32, i32, i64, i16, i8, array<1 x i8>, ptr, i64, ptr, ptr, ptr, ptr, i64, i32, array<20 x i8>)>>
      %8 = "polygeist.memref2pointer"(%7) : (memref<?x!llvm.struct<(i32, ptr, ptr, ptr, ptr, ptr, ptr, ptr, ptr, ptr, ptr, ptr, ptr, ptr, i32, i32, i64, i16, i8, array<1 x i8>, ptr, i64, ptr, ptr, ptr, ptr, i64, i32, array<20 x i8>)>>) -> !llvm.ptr
      %9 = llvm.mlir.addressof @str0 : !llvm.ptr
      %10 = llvm.getelementptr %9[0, 0] : (!llvm.ptr) -> !llvm.ptr, !llvm.array<38 x i8>
      %11 = memref.load %arg1[%c0] : memref<?xmemref<?xi8>>
      %12 = "polygeist.memref2pointer"(%11) : (memref<?xi8>) -> !llvm.ptr
      %13 = llvm.call @fprintf(%8, %10, %12) vararg(!llvm.func<i32 (ptr, ptr, ...)>) : (!llvm.ptr, !llvm.ptr, !llvm.ptr) -> i32
    }
    %4:4 = scf.if %2 -> (i32, i32, i1, i32) {
      %6 = memref.load %arg1[%c1] : memref<?xmemref<?xi8>>
      %7 = func.call @atoi(%6) : (memref<?xi8>) -> i32
      %8 = arith.cmpi sgt, %7, %c0_i32 : i32
      %9 = memref.load %arg1[%c2] : memref<?xmemref<?xi8>>
      %10 = func.call @atoi(%9) : (memref<?xi8>) -> i32
      %11 = arith.cmpi sle, %10, %c0_i32 : i32
      %12 = arith.cmpi sle, %7, %c0_i32 : i32
      %13 = arith.andi %8, %11 : i1
      %14 = arith.ori %12, %13 : i1
      %15 = arith.xori %14, %true : i1
      %16 = arith.select %14, %c1_i32, %3 : i32
      scf.if %14 {
        %17 = llvm.mlir.addressof @stderr : !llvm.ptr
        %18 = llvm.load %17 : !llvm.ptr -> memref<?x!llvm.struct<(i32, ptr, ptr, ptr, ptr, ptr, ptr, ptr, ptr, ptr, ptr, ptr, ptr, ptr, i32, i32, i64, i16, i8, array<1 x i8>, ptr, i64, ptr, ptr, ptr, ptr, i64, i32, array<20 x i8>)>>
        %19 = "polygeist.memref2pointer"(%18) : (memref<?x!llvm.struct<(i32, ptr, ptr, ptr, ptr, ptr, ptr, ptr, ptr, ptr, ptr, ptr, ptr, ptr, i32, i32, i64, i16, i8, array<1 x i8>, ptr, i64, ptr, ptr, ptr, ptr, i64, i32, array<20 x i8>)>>) -> !llvm.ptr
        %20 = llvm.mlir.addressof @str1 : !llvm.ptr
        %21 = llvm.getelementptr %20[0, 0] : (!llvm.ptr) -> !llvm.ptr, !llvm.array<55 x i8>
        %22 = llvm.call @fprintf(%19, %21) vararg(!llvm.func<i32 (ptr, ptr, ...)>) : (!llvm.ptr, !llvm.ptr) -> i32
      }
      scf.yield %7, %10, %15, %16 : i32, i32, i1, i32
    } else {
      scf.yield %0, %0, %false, %3 : i32, i32, i1, i32
    }
    %5 = arith.select %4#2, %c0_i32, %4#3 : i32
    scf.if %4#2 {
      %6 = arith.index_cast %4#0 : i32 to index
      %alloca = memref.alloca(%6, %6) : memref<?x?xf32>
      %7 = func.call @artsGetCurrentNode() : () -> i32
      %alloca_1 = memref.alloca(%6, %6) : memref<?x?xi64>
      %c0_2 = arith.constant 0 : index
      %c1_3 = arith.constant 1 : index
      scf.for %arg2 = %c0_2 to %6 step %c1_3 {
        %c0_34 = arith.constant 0 : index
        %c1_35 = arith.constant 1 : index
        scf.for %arg3 = %c0_34 to %6 step %c1_35 {
          %c0_i32_36 = arith.constant 0 : i32
          %c0_i64 = arith.constant 0 : i64
          %68 = func.call @artsPersistentEventCreate(%7, %c0_i32_36, %c0_i64) : (i32, i32, i64) -> i64
          memref.store %68, %alloca_1[%arg2, %arg3] : memref<?x?xi64>
        }
      }
      %8 = arts.event[%6, %6] -> : memref<?x?xi64>
      %9 = func.call @artsGetCurrentNode() : () -> i32
      %10 = arith.index_cast %c4 : index to i64
      %c8_i32 = arith.constant 8 : i32
      %alloca_4 = memref.alloca(%6, %6) : memref<?x?xi64>
      %alloca_5 = memref.alloca(%6, %6) : memref<?x?xmemref<?xi8>>
      %c0_6 = arith.constant 0 : index
      %c1_7 = arith.constant 1 : index
      scf.for %arg2 = %c0_6 to %6 step %c1_7 {
        %c0_34 = arith.constant 0 : index
        %c1_35 = arith.constant 1 : index
        scf.for %arg3 = %c0_34 to %6 step %c1_35 {
          %68 = func.call @artsReserveGuidRoute(%c8_i32, %9) : (i32, i32) -> i64
          %69 = func.call @artsDbCreateWithGuid(%68, %10) : (i64, i64) -> memref<?xi8>
          memref.store %68, %alloca_4[%arg2, %arg3] : memref<?x?xi64>
          memref.store %69, %alloca_5[%arg2, %arg3] : memref<?x?xmemref<?xi8>>
        }
      }
      %11 = arts.datablock "in" ptr[%alloca : memref<?x?xf32>], indices[], sizes[%6, %6], type[f32], typeSize[%c4], inEvent[%8] {newDb} -> memref<?x?xmemref<?xi8>>
      %alloca_8 = memref.alloca(%6, %6) : memref<?x?xf32>
      %12 = func.call @artsGetCurrentNode() : () -> i32
      %alloca_9 = memref.alloca(%6, %6) : memref<?x?xi64>
      %c0_10 = arith.constant 0 : index
      %c1_11 = arith.constant 1 : index
      scf.for %arg2 = %c0_10 to %6 step %c1_11 {
        %c0_34 = arith.constant 0 : index
        %c1_35 = arith.constant 1 : index
        scf.for %arg3 = %c0_34 to %6 step %c1_35 {
          %c0_i32_36 = arith.constant 0 : i32
          %c0_i64 = arith.constant 0 : i64
          %68 = func.call @artsPersistentEventCreate(%12, %c0_i32_36, %c0_i64) : (i32, i32, i64) -> i64
          memref.store %68, %alloca_9[%arg2, %arg3] : memref<?x?xi64>
        }
      }
      %13 = arts.event[%6, %6] -> : memref<?x?xi64>
      %14 = func.call @artsGetCurrentNode() : () -> i32
      %15 = arith.index_cast %c4 : index to i64
      %c8_i32_12 = arith.constant 8 : i32
      %alloca_13 = memref.alloca(%6, %6) : memref<?x?xi64>
      %alloca_14 = memref.alloca(%6, %6) : memref<?x?xmemref<?xi8>>
      %c0_15 = arith.constant 0 : index
      %c1_16 = arith.constant 1 : index
      scf.for %arg2 = %c0_15 to %6 step %c1_16 {
        %c0_34 = arith.constant 0 : index
        %c1_35 = arith.constant 1 : index
        scf.for %arg3 = %c0_34 to %6 step %c1_35 {
          %68 = func.call @artsReserveGuidRoute(%c8_i32_12, %14) : (i32, i32) -> i64
          %69 = func.call @artsDbCreateWithGuid(%68, %15) : (i64, i64) -> memref<?xi8>
          memref.store %68, %alloca_13[%arg2, %arg3] : memref<?x?xi64>
          memref.store %69, %alloca_14[%arg2, %arg3] : memref<?x?xmemref<?xi8>>
        }
      }
      %16 = arts.datablock "in" ptr[%alloca_8 : memref<?x?xf32>], indices[], sizes[%6, %6], type[f32], typeSize[%c4], inEvent[%13] {newDb} -> memref<?x?xmemref<?xi8>>
      %alloca_17 = memref.alloca(%6, %6) : memref<?x?xf32>
      %17 = func.call @artsGetCurrentNode() : () -> i32
      %alloca_18 = memref.alloca(%6, %6) : memref<?x?xi64>
      %c0_19 = arith.constant 0 : index
      %c1_20 = arith.constant 1 : index
      scf.for %arg2 = %c0_19 to %6 step %c1_20 {
        %c0_34 = arith.constant 0 : index
        %c1_35 = arith.constant 1 : index
        scf.for %arg3 = %c0_34 to %6 step %c1_35 {
          %c0_i32_36 = arith.constant 0 : i32
          %c0_i64 = arith.constant 0 : i64
          %68 = func.call @artsPersistentEventCreate(%17, %c0_i32_36, %c0_i64) : (i32, i32, i64) -> i64
          memref.store %68, %alloca_18[%arg2, %arg3] : memref<?x?xi64>
        }
      }
      %18 = arts.event[%6, %6] -> : memref<?x?xi64>
      %19 = func.call @artsGetCurrentNode() : () -> i32
      %20 = arith.index_cast %c4 : index to i64
      %c10_i32 = arith.constant 10 : i32
      %alloca_21 = memref.alloca(%6, %6) : memref<?x?xi64>
      %alloca_22 = memref.alloca(%6, %6) : memref<?x?xmemref<?xi8>>
      %c0_23 = arith.constant 0 : index
      %c1_24 = arith.constant 1 : index
      scf.for %arg2 = %c0_23 to %6 step %c1_24 {
        %c0_34 = arith.constant 0 : index
        %c1_35 = arith.constant 1 : index
        scf.for %arg3 = %c0_34 to %6 step %c1_35 {
          %68 = func.call @artsReserveGuidRoute(%c10_i32, %19) : (i32, i32) -> i64
          %69 = func.call @artsDbCreateWithGuid(%68, %20) : (i64, i64) -> memref<?xi8>
          memref.store %68, %alloca_21[%arg2, %arg3] : memref<?x?xi64>
          memref.store %69, %alloca_22[%arg2, %arg3] : memref<?x?xmemref<?xi8>>
        }
      }
      %21 = arts.datablock "inout" ptr[%alloca_17 : memref<?x?xf32>], indices[], sizes[%6, %6], type[f32], typeSize[%c4], inEvent[%18] {newDb} -> memref<?x?xmemref<?xi8>>
      %alloca_25 = memref.alloca(%6, %6) : memref<?x?xf32>
      %22 = arith.index_cast %4#0 : i32 to index
      scf.for %arg2 = %c0 to %22 step %c1 {
        %68 = arith.index_cast %arg2 : index to i32
        %69 = arith.index_cast %4#0 : i32 to index
        scf.for %arg3 = %c0 to %69 step %c1 {
          %70 = arith.index_cast %arg3 : index to i32
          %71 = arith.addi %68, %70 : i32
          %72 = arith.sitofp %71 : i32 to f32
          %73 = polygeist.subindex %11[%arg2] () : memref<?x?xmemref<?xi8>> -> memref<?xmemref<?xi8>>
          %74 = polygeist.subindex %73[%arg3] () : memref<?xmemref<?xi8>> -> memref<memref<?xi8>>
          %75 = "polygeist.memref2pointer"(%74) : (memref<memref<?xi8>>) -> !llvm.ptr
          %76 = llvm.load %75 : !llvm.ptr -> !llvm.ptr
          llvm.store %72, %76 : f32, !llvm.ptr
          %77 = arith.subi %68, %70 : i32
          %78 = arith.sitofp %77 : i32 to f32
          %79 = polygeist.subindex %16[%arg2] () : memref<?x?xmemref<?xi8>> -> memref<?xmemref<?xi8>>
          %80 = polygeist.subindex %79[%arg3] () : memref<?xmemref<?xi8>> -> memref<memref<?xi8>>
          %81 = "polygeist.memref2pointer"(%80) : (memref<memref<?xi8>>) -> !llvm.ptr
          %82 = llvm.load %81 : !llvm.ptr -> !llvm.ptr
          llvm.store %78, %82 : f32, !llvm.ptr
          %83 = polygeist.subindex %21[%arg2] () : memref<?x?xmemref<?xi8>> -> memref<?xmemref<?xi8>>
          %84 = polygeist.subindex %83[%arg3] () : memref<?xmemref<?xi8>> -> memref<memref<?xi8>>
          %85 = "polygeist.memref2pointer"(%84) : (memref<memref<?xi8>>) -> !llvm.ptr
          %86 = llvm.load %85 : !llvm.ptr -> !llvm.ptr
          llvm.store %cst_0, %86 : f32, !llvm.ptr
          memref.store %cst_0, %alloca_25[%arg2, %arg3] : memref<?x?xf32>
        }
      }
      %23 = arith.index_cast %4#0 : i32 to index
      %24 = arith.index_cast %4#1 : i32 to index
      %25 = func.call @artsGetCurrentNode() : () -> i32
      %c0_26 = arith.constant 0 : index
      %alloca_27 = memref.alloca() : memref<index>
      memref.store %c0_26, %alloca_27[] : memref<index>
      %alloca_28 = memref.alloca() : memref<index>
      memref.store %c0_26, %alloca_28[] : memref<index>
      %26 = memref.load %alloca_28[] : memref<index>
      %27 = arith.index_cast %26 : index to i32
      %alloca_29 = memref.alloca() : memref<index>
      %c0_30 = arith.constant 0 : index
      memref.store %c0_30, %alloca_29[] : memref<index>
      %28 = memref.load %alloca_29[] : memref<index>
      %29 = arith.index_cast %28 : index to i32
      %alloca_31 = memref.alloca(%28) : memref<?xi64>
      %c1_i32_32 = arith.constant 1 : i32
      %30 = "polygeist.get_func"() <{name = @__arts_edt_1}> : () -> !llvm.ptr<!llvm.func<void (i32, memref<?xi64>, i32, memref<?x!llvm.struct<(i64, i32, ptr)>>)>>
      %31 = "polygeist.pointer2memref"(%30) : (!llvm.ptr<!llvm.func<void (i32, memref<?xi64>, i32, memref<?x!llvm.struct<(i64, i32, ptr)>>)>>) -> memref<?x!llvm.func<void (i32, memref<?xi64>, i32, memref<?x!llvm.struct<(i64, i32, ptr)>>)>>
      %32 = func.call @artsEdtCreate(%31, %25, %29, %alloca_31, %c1_i32_32) : (memref<?x!llvm.func<void (i32, memref<?xi64>, i32, memref<?x!llvm.struct<(i64, i32, ptr)>>)>>, i32, i32, memref<?xi64>, i32) -> i64
      %c0_i32_33 = arith.constant 0 : i32
      %33 = func.call @artsInitializeAndStartEpoch(%32, %c0_i32_33) : (i64, i32) -> i64
      arts.edt dependencies(%11, %16, %21) : (memref<?x?xmemref<?xi8>>, memref<?x?xmemref<?xi8>>, memref<?x?xmemref<?xi8>>) attributes {task} {
        %68 = func.call @artsGetCurrentNode() : () -> i32
        %alloca_34 = memref.alloca(%6, %6) : memref<?x?xi64>
        %c0_35 = arith.constant 0 : index
        %c1_36 = arith.constant 1 : index
        scf.for %arg2 = %c0_35 to %6 step %c1_36 {
          %c0_43 = arith.constant 0 : index
          %c1_44 = arith.constant 1 : index
          scf.for %arg3 = %c0_43 to %6 step %c1_44 {
            %c0_i32_45 = arith.constant 0 : i32
            %c0_i64 = arith.constant 0 : i64
            %74 = func.call @artsPersistentEventCreate(%68, %c0_i32_45, %c0_i64) : (i32, i32, i64) -> i64
            memref.store %74, %alloca_34[%arg2, %arg3] : memref<?x?xi64>
          }
        }
        %69 = arts.event[%6, %6] -> : memref<?x?xi64>
        %70 = func.call @artsGetCurrentNode() : () -> i32
        %alloca_37 = memref.alloca(%6, %6) : memref<?x?xi64>
        %c0_38 = arith.constant 0 : index
        %c1_39 = arith.constant 1 : index
        scf.for %arg2 = %c0_38 to %6 step %c1_39 {
          %c0_43 = arith.constant 0 : index
          %c1_44 = arith.constant 1 : index
          scf.for %arg3 = %c0_43 to %6 step %c1_44 {
            %c0_i32_45 = arith.constant 0 : i32
            %c0_i64 = arith.constant 0 : i64
            %74 = func.call @artsPersistentEventCreate(%70, %c0_i32_45, %c0_i64) : (i32, i32, i64) -> i64
            memref.store %74, %alloca_37[%arg2, %arg3] : memref<?x?xi64>
          }
        }
        %71 = arts.event[%6, %6] -> : memref<?x?xi64>
        %72 = func.call @artsGetCurrentNode() : () -> i32
        %alloca_40 = memref.alloca(%6, %6) : memref<?x?xi64>
        %c0_41 = arith.constant 0 : index
        %c1_42 = arith.constant 1 : index
        scf.for %arg2 = %c0_41 to %6 step %c1_42 {
          %c0_43 = arith.constant 0 : index
          %c1_44 = arith.constant 1 : index
          scf.for %arg3 = %c0_43 to %6 step %c1_44 {
            %c0_i32_45 = arith.constant 0 : i32
            %c0_i64 = arith.constant 0 : i64
            %74 = func.call @artsPersistentEventCreate(%72, %c0_i32_45, %c0_i64) : (i32, i32, i64) -> i64
            memref.store %74, %alloca_40[%arg2, %arg3] : memref<?x?xi64>
          }
        }
        %73 = arts.event[%6, %6] -> : memref<?x?xi64>
        scf.for %arg2 = %c0 to %23 step %24 {
          %74 = arith.divui %arg2, %24 : index
          %75 = arith.index_cast %4#1 : i32 to index
          %76 = arith.muli %74, %75 : index
          %77 = arith.index_cast %76 : index to i32
          %78 = arith.index_cast %4#0 : i32 to index
          %79 = arith.index_cast %4#1 : i32 to index
          scf.for %arg3 = %c0 to %78 step %79 {
            %80 = arith.divui %arg3, %79 : index
            %81 = arith.index_cast %4#1 : i32 to index
            %82 = arith.muli %80, %81 : index
            %83 = arith.index_cast %82 : index to i32
            %84 = arith.index_cast %4#0 : i32 to index
            %85 = arith.index_cast %4#1 : i32 to index
            scf.for %arg4 = %c0 to %84 step %85 {
              %86 = arith.divui %arg4, %85 : index
              %87 = arith.index_cast %4#1 : i32 to index
              %88 = arith.muli %86, %87 : index
              %89 = arith.index_cast %88 : index to i32
              %90 = arith.addi %77, %4#1 : i32
              %91 = arith.index_cast %90 : i32 to index
              %92 = arts.datablock "in" ptr[%11 : memref<?x?xmemref<?xi8>>], indices[], sizes[%6, %6], type[f32], typeSize[%c4], inEvent[%73] {hasGuid, newDb, ptrDb} -> memref<?x?xmemref<?xi8>>
              %93 = arts.datablock "in" ptr[%16 : memref<?x?xmemref<?xi8>>], indices[], sizes[%6, %6], type[f32], typeSize[%c4], inEvent[%71] {hasGuid, newDb, ptrDb} -> memref<?x?xmemref<?xi8>>
              %94 = arts.datablock "inout" ptr[%21 : memref<?x?xmemref<?xi8>>], indices[], sizes[%6, %6], type[f32], typeSize[%c4], inEvent[%69], outEvent[%69] {hasGuid, newDb, ptrDb} -> memref<?x?xmemref<?xi8>>
              arts.edt dependencies(%92, %93, %94) : (memref<?x?xmemref<?xi8>>, memref<?x?xmemref<?xi8>>, memref<?x?xmemref<?xi8>>) attributes {task} {
                scf.for %arg5 = %76 to %91 step %c1 {
                  %95 = arith.addi %83, %4#1 : i32
                  %96 = arith.index_cast %95 : i32 to index
                  scf.for %arg6 = %82 to %96 step %c1 {
                    %97 = arith.addi %89, %4#1 : i32
                    %98 = arith.index_cast %97 : i32 to index
                    scf.for %arg7 = %88 to %98 step %c1 {
                      %99 = polygeist.subindex %92[%arg5] () : memref<?x?xmemref<?xi8>> -> memref<?xmemref<?xi8>>
                      %100 = polygeist.subindex %99[%arg7] () : memref<?xmemref<?xi8>> -> memref<memref<?xi8>>
                      %101 = "polygeist.memref2pointer"(%100) : (memref<memref<?xi8>>) -> !llvm.ptr
                      %102 = llvm.load %101 : !llvm.ptr -> !llvm.ptr
                      %103 = llvm.load %102 : !llvm.ptr -> f32
                      %104 = polygeist.subindex %93[%arg7] () : memref<?x?xmemref<?xi8>> -> memref<?xmemref<?xi8>>
                      %105 = polygeist.subindex %104[%arg6] () : memref<?xmemref<?xi8>> -> memref<memref<?xi8>>
                      %106 = "polygeist.memref2pointer"(%105) : (memref<memref<?xi8>>) -> !llvm.ptr
                      %107 = llvm.load %106 : !llvm.ptr -> !llvm.ptr
                      %108 = llvm.load %107 : !llvm.ptr -> f32
                      %109 = arith.mulf %103, %108 : f32
                      %110 = polygeist.subindex %94[%arg5] () : memref<?x?xmemref<?xi8>> -> memref<?xmemref<?xi8>>
                      %111 = polygeist.subindex %110[%arg6] () : memref<?xmemref<?xi8>> -> memref<memref<?xi8>>
                      %112 = "polygeist.memref2pointer"(%111) : (memref<memref<?xi8>>) -> !llvm.ptr
                      %113 = llvm.load %112 : !llvm.ptr -> !llvm.ptr
                      %114 = llvm.load %113 : !llvm.ptr -> f32
                      %115 = arith.addf %114, %109 : f32
                      %116 = polygeist.subindex %94[%arg5] () : memref<?x?xmemref<?xi8>> -> memref<?xmemref<?xi8>>
                      %117 = polygeist.subindex %116[%arg6] () : memref<?xmemref<?xi8>> -> memref<memref<?xi8>>
                      %118 = "polygeist.memref2pointer"(%117) : (memref<memref<?xi8>>) -> !llvm.ptr
                      %119 = llvm.load %118 : !llvm.ptr -> !llvm.ptr
                      llvm.store %115, %119 : f32, !llvm.ptr
                    }
                  }
                }
                arts.yield
              }
            }
          }
        }
        arts.yield
      }
      %34 = func.call @artsWaitOnHandle(%33) : (i64) -> i1
      %35 = arith.index_cast %4#0 : i32 to index
      scf.for %arg2 = %c0 to %35 step %c1 {
        %68 = arith.index_cast %4#0 : i32 to index
        scf.for %arg3 = %c0 to %68 step %c1 {
          %69 = arith.index_cast %4#0 : i32 to index
          %70 = scf.for %arg4 = %c0 to %69 step %c1 iter_args(%arg5 = %cst_0) -> (f32) {
            %71 = polygeist.subindex %11[%arg2] () : memref<?x?xmemref<?xi8>> -> memref<?xmemref<?xi8>>
            %72 = polygeist.subindex %71[%arg4] () : memref<?xmemref<?xi8>> -> memref<memref<?xi8>>
            %73 = "polygeist.memref2pointer"(%72) : (memref<memref<?xi8>>) -> !llvm.ptr
            %74 = llvm.load %73 : !llvm.ptr -> !llvm.ptr
            %75 = llvm.load %74 : !llvm.ptr -> f32
            %76 = polygeist.subindex %16[%arg4] () : memref<?x?xmemref<?xi8>> -> memref<?xmemref<?xi8>>
            %77 = polygeist.subindex %76[%arg3] () : memref<?xmemref<?xi8>> -> memref<memref<?xi8>>
            %78 = "polygeist.memref2pointer"(%77) : (memref<memref<?xi8>>) -> !llvm.ptr
            %79 = llvm.load %78 : !llvm.ptr -> !llvm.ptr
            %80 = llvm.load %79 : !llvm.ptr -> f32
            %81 = arith.mulf %75, %80 : f32
            %82 = arith.addf %arg5, %81 : f32
            scf.yield %82 : f32
          }
          memref.store %70, %alloca_25[%arg2, %arg3] : memref<?x?xf32>
        }
      }
      %36 = arith.index_cast %4#0 : i32 to index
      %37 = scf.for %arg2 = %c0 to %36 step %c1 iter_args(%arg3 = %c1_i32) -> (i32) {
        %68 = arith.index_cast %arg2 : index to i32
        %69 = arith.index_cast %4#0 : i32 to index
        %70 = scf.for %arg4 = %c0 to %69 step %c1 iter_args(%arg5 = %arg3) -> (i32) {
          %71 = arith.index_cast %arg4 : index to i32
          %72 = polygeist.subindex %21[%arg2] () : memref<?x?xmemref<?xi8>> -> memref<?xmemref<?xi8>>
          %73 = polygeist.subindex %72[%arg4] () : memref<?xmemref<?xi8>> -> memref<memref<?xi8>>
          %74 = "polygeist.memref2pointer"(%73) : (memref<memref<?xi8>>) -> !llvm.ptr
          %75 = llvm.load %74 : !llvm.ptr -> !llvm.ptr
          %76 = llvm.load %75 : !llvm.ptr -> f32
          %77 = memref.load %alloca_25[%arg2, %arg4] : memref<?x?xf32>
          %78 = arith.subf %76, %77 : f32
          %79 = arith.extf %78 : f32 to f64
          %80 = math.absf %79 : f64
          %81 = arith.cmpf ogt, %80, %cst : f64
          %82 = arith.select %81, %c0_i32, %arg5 : i32
          scf.if %81 {
            %83 = llvm.mlir.addressof @str2 : !llvm.ptr
            %84 = llvm.getelementptr %83[0, 0] : (!llvm.ptr) -> !llvm.ptr, !llvm.array<53 x i8>
            %85 = arith.extf %76 : f32 to f64
            %86 = arith.extf %77 : f32 to f64
            %87 = llvm.call @printf(%84, %68, %71, %85, %86) vararg(!llvm.func<i32 (ptr, ...)>) : (!llvm.ptr, i32, i32, f64, f64) -> i32
          }
          scf.yield %82 : i32
        }
        scf.yield %70 : i32
      }
      %38 = arith.cmpi ne, %37, %c0_i32 : i32
      %39 = llvm.mlir.addressof @str3 : !llvm.ptr
      %40 = llvm.getelementptr %39[0, 0] : (!llvm.ptr) -> !llvm.ptr, !llvm.array<11 x i8>
      %41 = llvm.call @printf(%40) vararg(!llvm.func<i32 (ptr, ...)>) : (!llvm.ptr) -> i32
      %42 = arith.index_cast %4#0 : i32 to index
      scf.for %arg2 = %c0 to %42 step %c1 {
        %68 = arith.index_cast %4#0 : i32 to index
        scf.for %arg3 = %c0 to %68 step %c1 {
          %72 = llvm.mlir.addressof @str4 : !llvm.ptr
          %73 = llvm.getelementptr %72[0, 0] : (!llvm.ptr) -> !llvm.ptr, !llvm.array<7 x i8>
          %74 = polygeist.subindex %11[%arg2] () : memref<?x?xmemref<?xi8>> -> memref<?xmemref<?xi8>>
          %75 = polygeist.subindex %74[%arg3] () : memref<?xmemref<?xi8>> -> memref<memref<?xi8>>
          %76 = "polygeist.memref2pointer"(%75) : (memref<memref<?xi8>>) -> !llvm.ptr
          %77 = llvm.load %76 : !llvm.ptr -> !llvm.ptr
          %78 = llvm.load %77 : !llvm.ptr -> f32
          %79 = arith.extf %78 : f32 to f64
          %80 = llvm.call @printf(%73, %79) vararg(!llvm.func<i32 (ptr, ...)>) : (!llvm.ptr, f64) -> i32
        }
        %69 = llvm.mlir.addressof @str5 : !llvm.ptr
        %70 = llvm.getelementptr %69[0, 0] : (!llvm.ptr) -> !llvm.ptr, !llvm.array<2 x i8>
        %71 = llvm.call @printf(%70) vararg(!llvm.func<i32 (ptr, ...)>) : (!llvm.ptr) -> i32
      }
      %43 = llvm.mlir.addressof @str6 : !llvm.ptr
      %44 = llvm.getelementptr %43[0, 0] : (!llvm.ptr) -> !llvm.ptr, !llvm.array<12 x i8>
      %45 = llvm.call @printf(%44) vararg(!llvm.func<i32 (ptr, ...)>) : (!llvm.ptr) -> i32
      %46 = arith.index_cast %4#0 : i32 to index
      scf.for %arg2 = %c0 to %46 step %c1 {
        %68 = arith.index_cast %4#0 : i32 to index
        scf.for %arg3 = %c0 to %68 step %c1 {
          %72 = llvm.mlir.addressof @str4 : !llvm.ptr
          %73 = llvm.getelementptr %72[0, 0] : (!llvm.ptr) -> !llvm.ptr, !llvm.array<7 x i8>
          %74 = polygeist.subindex %16[%arg2] () : memref<?x?xmemref<?xi8>> -> memref<?xmemref<?xi8>>
          %75 = polygeist.subindex %74[%arg3] () : memref<?xmemref<?xi8>> -> memref<memref<?xi8>>
          %76 = "polygeist.memref2pointer"(%75) : (memref<memref<?xi8>>) -> !llvm.ptr
          %77 = llvm.load %76 : !llvm.ptr -> !llvm.ptr
          %78 = llvm.load %77 : !llvm.ptr -> f32
          %79 = arith.extf %78 : f32 to f64
          %80 = llvm.call @printf(%73, %79) vararg(!llvm.func<i32 (ptr, ...)>) : (!llvm.ptr, f64) -> i32
        }
        %69 = llvm.mlir.addressof @str5 : !llvm.ptr
        %70 = llvm.getelementptr %69[0, 0] : (!llvm.ptr) -> !llvm.ptr, !llvm.array<2 x i8>
        %71 = llvm.call @printf(%70) vararg(!llvm.func<i32 (ptr, ...)>) : (!llvm.ptr) -> i32
      }
      %47 = llvm.mlir.addressof @str7 : !llvm.ptr
      %48 = llvm.getelementptr %47[0, 0] : (!llvm.ptr) -> !llvm.ptr, !llvm.array<23 x i8>
      %49 = llvm.call @printf(%48) vararg(!llvm.func<i32 (ptr, ...)>) : (!llvm.ptr) -> i32
      %50 = arith.index_cast %4#0 : i32 to index
      scf.for %arg2 = %c0 to %50 step %c1 {
        %68 = arith.index_cast %4#0 : i32 to index
        scf.for %arg3 = %c0 to %68 step %c1 {
          %72 = llvm.mlir.addressof @str4 : !llvm.ptr
          %73 = llvm.getelementptr %72[0, 0] : (!llvm.ptr) -> !llvm.ptr, !llvm.array<7 x i8>
          %74 = polygeist.subindex %21[%arg2] () : memref<?x?xmemref<?xi8>> -> memref<?xmemref<?xi8>>
          %75 = polygeist.subindex %74[%arg3] () : memref<?xmemref<?xi8>> -> memref<memref<?xi8>>
          %76 = "polygeist.memref2pointer"(%75) : (memref<memref<?xi8>>) -> !llvm.ptr
          %77 = llvm.load %76 : !llvm.ptr -> !llvm.ptr
          %78 = llvm.load %77 : !llvm.ptr -> f32
          %79 = arith.extf %78 : f32 to f64
          %80 = llvm.call @printf(%73, %79) vararg(!llvm.func<i32 (ptr, ...)>) : (!llvm.ptr, f64) -> i32
        }
        %69 = llvm.mlir.addressof @str5 : !llvm.ptr
        %70 = llvm.getelementptr %69[0, 0] : (!llvm.ptr) -> !llvm.ptr, !llvm.array<2 x i8>
        %71 = llvm.call @printf(%70) vararg(!llvm.func<i32 (ptr, ...)>) : (!llvm.ptr) -> i32
      }
      %51 = llvm.mlir.addressof @str8 : !llvm.ptr
      %52 = llvm.getelementptr %51[0, 0] : (!llvm.ptr) -> !llvm.ptr, !llvm.array<25 x i8>
      %53 = llvm.call @printf(%52) vararg(!llvm.func<i32 (ptr, ...)>) : (!llvm.ptr) -> i32
      %54 = arith.index_cast %4#0 : i32 to index
      scf.for %arg2 = %c0 to %54 step %c1 {
        %68 = arith.index_cast %4#0 : i32 to index
        scf.for %arg3 = %c0 to %68 step %c1 {
          %72 = llvm.mlir.addressof @str4 : !llvm.ptr
          %73 = llvm.getelementptr %72[0, 0] : (!llvm.ptr) -> !llvm.ptr, !llvm.array<7 x i8>
          %74 = memref.load %alloca_25[%arg2, %arg3] : memref<?x?xf32>
          %75 = arith.extf %74 : f32 to f64
          %76 = llvm.call @printf(%73, %75) vararg(!llvm.func<i32 (ptr, ...)>) : (!llvm.ptr, f64) -> i32
        }
        %69 = llvm.mlir.addressof @str5 : !llvm.ptr
        %70 = llvm.getelementptr %69[0, 0] : (!llvm.ptr) -> !llvm.ptr, !llvm.array<2 x i8>
        %71 = llvm.call @printf(%70) vararg(!llvm.func<i32 (ptr, ...)>) : (!llvm.ptr) -> i32
      }
      %55 = llvm.mlir.addressof @str5 : !llvm.ptr
      %56 = llvm.getelementptr %55[0, 0] : (!llvm.ptr) -> !llvm.ptr, !llvm.array<2 x i8>
      %57 = llvm.call @printf(%56) vararg(!llvm.func<i32 (ptr, ...)>) : (!llvm.ptr) -> i32
      %58 = llvm.mlir.addressof @str9 : !llvm.ptr
      %59 = llvm.getelementptr %58[0, 0] : (!llvm.ptr) -> !llvm.ptr, !llvm.array<24 x i8>
      %60 = llvm.call @printf(%59) vararg(!llvm.func<i32 (ptr, ...)>) : (!llvm.ptr) -> i32
      %61 = llvm.mlir.addressof @str10 : !llvm.ptr
      %62 = llvm.getelementptr %61[0, 0] : (!llvm.ptr) -> !llvm.ptr, !llvm.array<4 x i8>
      %63 = scf.if %38 -> (!llvm.ptr) {
        %68 = llvm.mlir.addressof @str11 : !llvm.ptr
        %69 = llvm.getelementptr %68[0, 0] : (!llvm.ptr) -> !llvm.ptr, !llvm.array<20 x i8>
        scf.yield %69 : !llvm.ptr
      } else {
        %68 = llvm.mlir.addressof @str12 : !llvm.ptr
        %69 = llvm.getelementptr %68[0, 0] : (!llvm.ptr) -> !llvm.ptr, !llvm.array<20 x i8>
        scf.yield %69 : !llvm.ptr
      }
      %64 = llvm.call @printf(%62, %63) vararg(!llvm.func<i32 (ptr, ...)>) : (!llvm.ptr, !llvm.ptr) -> i32
      %65 = llvm.mlir.addressof @str9 : !llvm.ptr
      %66 = llvm.getelementptr %65[0, 0] : (!llvm.ptr) -> !llvm.ptr, !llvm.array<24 x i8>
      %67 = llvm.call @printf(%66) vararg(!llvm.func<i32 (ptr, ...)>) : (!llvm.ptr) -> i32
    }
    return %5 : i32
  }
  func.func private @atoi(memref<?xi8>) -> i32 attributes {llvm.linkage = #llvm.linkage<external>}
  func.func private @__arts_edt_1(%arg0: i32, %arg1: memref<?xi64>, %arg2: i32, %arg3: memref<?x!llvm.struct<(i64, i32, ptr)>>) {
    return
  }
}
-----------------------------------------
[convert-arts-to-llvm] Lowering arts.edt
[convert-arts-to-llvm] Lowering arts.edt
[convert-arts-to-llvm] Module after iterating edts:
module attributes {dlti.dl_spec = #dlti.dl_spec<#dlti.dl_entry<f16, dense<16> : vector<2xi32>>, #dlti.dl_entry<i32, dense<32> : vector<2xi32>>, #dlti.dl_entry<i16, dense<16> : vector<2xi32>>, #dlti.dl_entry<!llvm.ptr<271>, dense<32> : vector<4xi32>>, #dlti.dl_entry<!llvm.ptr<272>, dense<64> : vector<4xi32>>, #dlti.dl_entry<f64, dense<64> : vector<2xi32>>, #dlti.dl_entry<!llvm.ptr<270>, dense<32> : vector<4xi32>>, #dlti.dl_entry<f128, dense<128> : vector<2xi32>>, #dlti.dl_entry<f80, dense<128> : vector<2xi32>>, #dlti.dl_entry<i64, dense<64> : vector<2xi32>>, #dlti.dl_entry<i1, dense<8> : vector<2xi32>>, #dlti.dl_entry<i8, dense<8> : vector<2xi32>>, #dlti.dl_entry<!llvm.ptr, dense<64> : vector<4xi32>>, #dlti.dl_entry<"dlti.endianness", "little">, #dlti.dl_entry<"dlti.stack_alignment", 128 : i32>>, llvm.data_layout = "e-m:e-p270:32:32-p271:32:32-p272:64:64-i64:64-f80:128-n8:16:32:64-S128", llvm.target_triple = "x86_64-unknown-linux-gnu", "polygeist.target-cpu" = "x86-64", "polygeist.target-features" = "+cmov,+cx8,+fxsr,+mmx,+sse,+sse2,+x87", "polygeist.tune-cpu" = "generic"} {
  func.func private @artsPersistentEventIncrementLatch(i64, i64) attributes {llvm.linkage = #llvm.linkage<external>}
  func.func private @artsPersistentEventDecrementLatch(i64, i64) attributes {llvm.linkage = #llvm.linkage<external>}
  func.func private @artsGetCurrentEpochGuid() -> i64 attributes {llvm.linkage = #llvm.linkage<external>}
  func.func private @artsAddDependenceToPersistentEvent(i64, i64, i32, i64) attributes {llvm.linkage = #llvm.linkage<external>}
  func.func private @artsEdtCreateWithEpoch(memref<?x!llvm.func<void (i32, memref<?xi64>, i32, memref<?x!llvm.struct<(i64, i32, ptr)>>)>>, i32, i32, memref<?xi64>, i32, i64) -> i64 attributes {llvm.linkage = #llvm.linkage<external>}
  func.func private @artsPersistentEventCreate(i32, i32, i64) -> i64 attributes {llvm.linkage = #llvm.linkage<external>}
  func.func private @artsWaitOnHandle(i64) -> i1 attributes {llvm.linkage = #llvm.linkage<external>}
  func.func private @artsInitializeAndStartEpoch(i64, i32) -> i64 attributes {llvm.linkage = #llvm.linkage<external>}
  func.func private @artsEdtCreate(memref<?x!llvm.func<void (i32, memref<?xi64>, i32, memref<?x!llvm.struct<(i64, i32, ptr)>>)>>, i32, i32, memref<?xi64>, i32) -> i64 attributes {llvm.linkage = #llvm.linkage<external>}
  func.func private @artsDbCreateWithGuid(i64, i64) -> memref<?xi8> attributes {llvm.linkage = #llvm.linkage<external>}
  func.func private @artsReserveGuidRoute(i32, i32) -> i64 attributes {llvm.linkage = #llvm.linkage<external>}
  func.func private @artsGetCurrentNode() -> i32 attributes {llvm.linkage = #llvm.linkage<external>, llvm.nounwind, llvm.readnone}
  llvm.mlir.global internal constant @str12("Verification FAILED\00") {addr_space = 0 : i32}
  llvm.mlir.global internal constant @str11("Verification PASSED\00") {addr_space = 0 : i32}
  llvm.mlir.global internal constant @str10("%s\0A\00") {addr_space = 0 : i32}
  llvm.mlir.global internal constant @str9("----------------------\0A\00") {addr_space = 0 : i32}
  llvm.mlir.global internal constant @str8("\0AMatrix C (Sequential):\0A\00") {addr_space = 0 : i32}
  llvm.mlir.global internal constant @str7("\0AMatrix C (Parallel):\0A\00") {addr_space = 0 : i32}
  llvm.mlir.global internal constant @str6("\0AMatrix B:\0A\00") {addr_space = 0 : i32}
  llvm.mlir.global internal constant @str5("\0A\00") {addr_space = 0 : i32}
  llvm.mlir.global internal constant @str4("%6.2f \00") {addr_space = 0 : i32}
  llvm.mlir.global internal constant @str3("Matrix A:\0A\00") {addr_space = 0 : i32}
  llvm.mlir.global internal constant @str2("Mismatch at (%d,%d): Parallel=%.2f, Sequential=%.2f\0A\00") {addr_space = 0 : i32}
  llvm.func @printf(!llvm.ptr, ...) -> i32
  llvm.mlir.global internal constant @str1("Matrix size and block size must be positive integers.\0A\00") {addr_space = 0 : i32}
  llvm.mlir.global internal constant @str0("Usage: %s <matrix_size> <block_size>\0A\00") {addr_space = 0 : i32}
  llvm.mlir.global external @stderr() {addr_space = 0 : i32} : memref<?x!llvm.struct<(i32, ptr, ptr, ptr, ptr, ptr, ptr, ptr, ptr, ptr, ptr, ptr, ptr, ptr, i32, i32, i64, i16, i8, array<1 x i8>, ptr, i64, ptr, ptr, ptr, ptr, i64, i32, array<20 x i8>)>>
  llvm.func @fprintf(!llvm.ptr, !llvm.ptr, ...) -> i32
  func.func @main(%arg0: i32, %arg1: memref<?xmemref<?xi8>>) -> i32 attributes {llvm.linkage = #llvm.linkage<external>} {
    %c4 = arith.constant 4 : index
    %c2 = arith.constant 2 : index
    %c0 = arith.constant 0 : index
    %c1 = arith.constant 1 : index
    %false = arith.constant false
    %true = arith.constant true
    %cst = arith.constant 9.9999999999999995E-7 : f64
    %cst_0 = arith.constant 0.000000e+00 : f32
    %c0_i32 = arith.constant 0 : i32
    %c1_i32 = arith.constant 1 : i32
    %c3_i32 = arith.constant 3 : i32
    %0 = llvm.mlir.undef : i32
    %1 = arith.cmpi ne, %arg0, %c3_i32 : i32
    %2 = arith.cmpi eq, %arg0, %c3_i32 : i32
    %3 = arith.select %1, %c1_i32, %0 : i32
    scf.if %1 {
      %6 = llvm.mlir.addressof @stderr : !llvm.ptr
      %7 = llvm.load %6 : !llvm.ptr -> memref<?x!llvm.struct<(i32, ptr, ptr, ptr, ptr, ptr, ptr, ptr, ptr, ptr, ptr, ptr, ptr, ptr, i32, i32, i64, i16, i8, array<1 x i8>, ptr, i64, ptr, ptr, ptr, ptr, i64, i32, array<20 x i8>)>>
      %8 = "polygeist.memref2pointer"(%7) : (memref<?x!llvm.struct<(i32, ptr, ptr, ptr, ptr, ptr, ptr, ptr, ptr, ptr, ptr, ptr, ptr, ptr, i32, i32, i64, i16, i8, array<1 x i8>, ptr, i64, ptr, ptr, ptr, ptr, i64, i32, array<20 x i8>)>>) -> !llvm.ptr
      %9 = llvm.mlir.addressof @str0 : !llvm.ptr
      %10 = llvm.getelementptr %9[0, 0] : (!llvm.ptr) -> !llvm.ptr, !llvm.array<38 x i8>
      %11 = memref.load %arg1[%c0] : memref<?xmemref<?xi8>>
      %12 = "polygeist.memref2pointer"(%11) : (memref<?xi8>) -> !llvm.ptr
      %13 = llvm.call @fprintf(%8, %10, %12) vararg(!llvm.func<i32 (ptr, ptr, ...)>) : (!llvm.ptr, !llvm.ptr, !llvm.ptr) -> i32
    }
    %4:4 = scf.if %2 -> (i32, i32, i1, i32) {
      %6 = memref.load %arg1[%c1] : memref<?xmemref<?xi8>>
      %7 = func.call @atoi(%6) : (memref<?xi8>) -> i32
      %8 = arith.cmpi sgt, %7, %c0_i32 : i32
      %9 = memref.load %arg1[%c2] : memref<?xmemref<?xi8>>
      %10 = func.call @atoi(%9) : (memref<?xi8>) -> i32
      %11 = arith.cmpi sle, %10, %c0_i32 : i32
      %12 = arith.cmpi sle, %7, %c0_i32 : i32
      %13 = arith.andi %8, %11 : i1
      %14 = arith.ori %12, %13 : i1
      %15 = arith.xori %14, %true : i1
      %16 = arith.select %14, %c1_i32, %3 : i32
      scf.if %14 {
        %17 = llvm.mlir.addressof @stderr : !llvm.ptr
        %18 = llvm.load %17 : !llvm.ptr -> memref<?x!llvm.struct<(i32, ptr, ptr, ptr, ptr, ptr, ptr, ptr, ptr, ptr, ptr, ptr, ptr, ptr, i32, i32, i64, i16, i8, array<1 x i8>, ptr, i64, ptr, ptr, ptr, ptr, i64, i32, array<20 x i8>)>>
        %19 = "polygeist.memref2pointer"(%18) : (memref<?x!llvm.struct<(i32, ptr, ptr, ptr, ptr, ptr, ptr, ptr, ptr, ptr, ptr, ptr, ptr, ptr, i32, i32, i64, i16, i8, array<1 x i8>, ptr, i64, ptr, ptr, ptr, ptr, i64, i32, array<20 x i8>)>>) -> !llvm.ptr
        %20 = llvm.mlir.addressof @str1 : !llvm.ptr
        %21 = llvm.getelementptr %20[0, 0] : (!llvm.ptr) -> !llvm.ptr, !llvm.array<55 x i8>
        %22 = llvm.call @fprintf(%19, %21) vararg(!llvm.func<i32 (ptr, ptr, ...)>) : (!llvm.ptr, !llvm.ptr) -> i32
      }
      scf.yield %7, %10, %15, %16 : i32, i32, i1, i32
    } else {
      scf.yield %0, %0, %false, %3 : i32, i32, i1, i32
    }
    %5 = arith.select %4#2, %c0_i32, %4#3 : i32
    scf.if %4#2 {
      %6 = arith.index_cast %4#0 : i32 to index
      %7 = func.call @artsGetCurrentNode() : () -> i32
      %alloca = memref.alloca(%6, %6) : memref<?x?xi64>
      %c0_1 = arith.constant 0 : index
      %c1_2 = arith.constant 1 : index
      scf.for %arg2 = %c0_1 to %6 step %c1_2 {
        %c0_51 = arith.constant 0 : index
        %c1_52 = arith.constant 1 : index
        scf.for %arg3 = %c0_51 to %6 step %c1_52 {
          %c0_i32_53 = arith.constant 0 : i32
          %c0_i64 = arith.constant 0 : i64
          %96 = func.call @artsPersistentEventCreate(%7, %c0_i32_53, %c0_i64) : (i32, i32, i64) -> i64
          memref.store %96, %alloca[%arg2, %arg3] : memref<?x?xi64>
        }
      }
      %8 = func.call @artsGetCurrentNode() : () -> i32
      %9 = arith.index_cast %c4 : index to i64
      %c8_i32 = arith.constant 8 : i32
      %alloca_3 = memref.alloca(%6, %6) : memref<?x?xi64>
      %alloca_4 = memref.alloca(%6, %6) : memref<?x?xmemref<?xi8>>
      %c0_5 = arith.constant 0 : index
      %c1_6 = arith.constant 1 : index
      scf.for %arg2 = %c0_5 to %6 step %c1_6 {
        %c0_51 = arith.constant 0 : index
        %c1_52 = arith.constant 1 : index
        scf.for %arg3 = %c0_51 to %6 step %c1_52 {
          %96 = func.call @artsReserveGuidRoute(%c8_i32, %8) : (i32, i32) -> i64
          %97 = func.call @artsDbCreateWithGuid(%96, %9) : (i64, i64) -> memref<?xi8>
          memref.store %96, %alloca_3[%arg2, %arg3] : memref<?x?xi64>
          memref.store %97, %alloca_4[%arg2, %arg3] : memref<?x?xmemref<?xi8>>
        }
      }
      %10 = func.call @artsGetCurrentNode() : () -> i32
      %alloca_7 = memref.alloca(%6, %6) : memref<?x?xi64>
      %c0_8 = arith.constant 0 : index
      %c1_9 = arith.constant 1 : index
      scf.for %arg2 = %c0_8 to %6 step %c1_9 {
        %c0_51 = arith.constant 0 : index
        %c1_52 = arith.constant 1 : index
        scf.for %arg3 = %c0_51 to %6 step %c1_52 {
          %c0_i32_53 = arith.constant 0 : i32
          %c0_i64 = arith.constant 0 : i64
          %96 = func.call @artsPersistentEventCreate(%10, %c0_i32_53, %c0_i64) : (i32, i32, i64) -> i64
          memref.store %96, %alloca_7[%arg2, %arg3] : memref<?x?xi64>
        }
      }
      %11 = func.call @artsGetCurrentNode() : () -> i32
      %12 = arith.index_cast %c4 : index to i64
      %c8_i32_10 = arith.constant 8 : i32
      %alloca_11 = memref.alloca(%6, %6) : memref<?x?xi64>
      %alloca_12 = memref.alloca(%6, %6) : memref<?x?xmemref<?xi8>>
      %c0_13 = arith.constant 0 : index
      %c1_14 = arith.constant 1 : index
      scf.for %arg2 = %c0_13 to %6 step %c1_14 {
        %c0_51 = arith.constant 0 : index
        %c1_52 = arith.constant 1 : index
        scf.for %arg3 = %c0_51 to %6 step %c1_52 {
          %96 = func.call @artsReserveGuidRoute(%c8_i32_10, %11) : (i32, i32) -> i64
          %97 = func.call @artsDbCreateWithGuid(%96, %12) : (i64, i64) -> memref<?xi8>
          memref.store %96, %alloca_11[%arg2, %arg3] : memref<?x?xi64>
          memref.store %97, %alloca_12[%arg2, %arg3] : memref<?x?xmemref<?xi8>>
        }
      }
      %13 = func.call @artsGetCurrentNode() : () -> i32
      %alloca_15 = memref.alloca(%6, %6) : memref<?x?xi64>
      %c0_16 = arith.constant 0 : index
      %c1_17 = arith.constant 1 : index
      scf.for %arg2 = %c0_16 to %6 step %c1_17 {
        %c0_51 = arith.constant 0 : index
        %c1_52 = arith.constant 1 : index
        scf.for %arg3 = %c0_51 to %6 step %c1_52 {
          %c0_i32_53 = arith.constant 0 : i32
          %c0_i64 = arith.constant 0 : i64
          %96 = func.call @artsPersistentEventCreate(%13, %c0_i32_53, %c0_i64) : (i32, i32, i64) -> i64
          memref.store %96, %alloca_15[%arg2, %arg3] : memref<?x?xi64>
        }
      }
      %14 = func.call @artsGetCurrentNode() : () -> i32
      %15 = arith.index_cast %c4 : index to i64
      %c10_i32 = arith.constant 10 : i32
      %alloca_18 = memref.alloca(%6, %6) : memref<?x?xi64>
      %alloca_19 = memref.alloca(%6, %6) : memref<?x?xmemref<?xi8>>
      %c0_20 = arith.constant 0 : index
      %c1_21 = arith.constant 1 : index
      scf.for %arg2 = %c0_20 to %6 step %c1_21 {
        %c0_51 = arith.constant 0 : index
        %c1_52 = arith.constant 1 : index
        scf.for %arg3 = %c0_51 to %6 step %c1_52 {
          %96 = func.call @artsReserveGuidRoute(%c10_i32, %14) : (i32, i32) -> i64
          %97 = func.call @artsDbCreateWithGuid(%96, %15) : (i64, i64) -> memref<?xi8>
          memref.store %96, %alloca_18[%arg2, %arg3] : memref<?x?xi64>
          memref.store %97, %alloca_19[%arg2, %arg3] : memref<?x?xmemref<?xi8>>
        }
      }
      %alloca_22 = memref.alloca(%6, %6) : memref<?x?xf32>
      %16 = arith.index_cast %4#0 : i32 to index
      scf.for %arg2 = %c0 to %16 step %c1 {
        %96 = arith.index_cast %arg2 : index to i32
        %97 = arith.index_cast %4#0 : i32 to index
        scf.for %arg3 = %c0 to %97 step %c1 {
          %98 = arith.index_cast %arg3 : index to i32
          %99 = arith.addi %96, %98 : i32
          %100 = arith.sitofp %99 : i32 to f32
          %101 = polygeist.subindex %alloca_4[%arg2] () : memref<?x?xmemref<?xi8>> -> memref<?xmemref<?xi8>>
          %102 = polygeist.subindex %101[%arg3] () : memref<?xmemref<?xi8>> -> memref<memref<?xi8>>
          %103 = "polygeist.memref2pointer"(%102) : (memref<memref<?xi8>>) -> !llvm.ptr
          %104 = llvm.load %103 : !llvm.ptr -> !llvm.ptr
          llvm.store %100, %104 : f32, !llvm.ptr
          %105 = arith.subi %96, %98 : i32
          %106 = arith.sitofp %105 : i32 to f32
          %107 = polygeist.subindex %alloca_12[%arg2] () : memref<?x?xmemref<?xi8>> -> memref<?xmemref<?xi8>>
          %108 = polygeist.subindex %107[%arg3] () : memref<?xmemref<?xi8>> -> memref<memref<?xi8>>
          %109 = "polygeist.memref2pointer"(%108) : (memref<memref<?xi8>>) -> !llvm.ptr
          %110 = llvm.load %109 : !llvm.ptr -> !llvm.ptr
          llvm.store %106, %110 : f32, !llvm.ptr
          %111 = polygeist.subindex %alloca_19[%arg2] () : memref<?x?xmemref<?xi8>> -> memref<?xmemref<?xi8>>
          %112 = polygeist.subindex %111[%arg3] () : memref<?xmemref<?xi8>> -> memref<memref<?xi8>>
          %113 = "polygeist.memref2pointer"(%112) : (memref<memref<?xi8>>) -> !llvm.ptr
          %114 = llvm.load %113 : !llvm.ptr -> !llvm.ptr
          llvm.store %cst_0, %114 : f32, !llvm.ptr
          memref.store %cst_0, %alloca_22[%arg2, %arg3] : memref<?x?xf32>
        }
      }
      %17 = arith.index_cast %4#0 : i32 to index
      %18 = arith.index_cast %4#1 : i32 to index
      %19 = func.call @artsGetCurrentNode() : () -> i32
      %c0_23 = arith.constant 0 : index
      %alloca_24 = memref.alloca() : memref<index>
      memref.store %c0_23, %alloca_24[] : memref<index>
      %alloca_25 = memref.alloca() : memref<index>
      memref.store %c0_23, %alloca_25[] : memref<index>
      %20 = memref.load %alloca_25[] : memref<index>
      %21 = arith.index_cast %20 : index to i32
      %alloca_26 = memref.alloca() : memref<index>
      %c0_27 = arith.constant 0 : index
      memref.store %c0_27, %alloca_26[] : memref<index>
      %22 = memref.load %alloca_26[] : memref<index>
      %23 = arith.index_cast %22 : index to i32
      %alloca_28 = memref.alloca(%22) : memref<?xi64>
      %c1_i32_29 = arith.constant 1 : i32
      %24 = "polygeist.get_func"() <{name = @__arts_edt_1}> : () -> !llvm.ptr<!llvm.func<void (i32, memref<?xi64>, i32, memref<?x!llvm.struct<(i64, i32, ptr)>>)>>
      %25 = "polygeist.pointer2memref"(%24) : (!llvm.ptr<!llvm.func<void (i32, memref<?xi64>, i32, memref<?x!llvm.struct<(i64, i32, ptr)>>)>>) -> memref<?x!llvm.func<void (i32, memref<?xi64>, i32, memref<?x!llvm.struct<(i64, i32, ptr)>>)>>
      %26 = func.call @artsEdtCreate(%25, %19, %23, %alloca_28, %c1_i32_29) : (memref<?x!llvm.func<void (i32, memref<?xi64>, i32, memref<?x!llvm.struct<(i64, i32, ptr)>>)>>, i32, i32, memref<?xi64>, i32) -> i64
      %c0_i32_30 = arith.constant 0 : i32
      %27 = func.call @artsInitializeAndStartEpoch(%26, %c0_i32_30) : (i64, i32) -> i64
      %28 = func.call @artsGetCurrentNode() : () -> i32
      %c0_31 = arith.constant 0 : index
      %alloca_32 = memref.alloca() : memref<index>
      memref.store %c0_31, %alloca_32[] : memref<index>
      %alloca_33 = memref.alloca() : memref<index>
      memref.store %c0_31, %alloca_33[] : memref<index>
      %29 = memref.load %alloca_33[] : memref<index>
      %c1_34 = arith.constant 1 : index
      %30 = arith.muli %c1_34, %6 : index
      %31 = arith.muli %30, %6 : index
      %32 = memref.load %alloca_33[] : memref<index>
      %33 = arith.addi %32, %31 : index
      memref.store %33, %alloca_33[] : memref<index>
      %34 = memref.load %alloca_33[] : memref<index>
      %c1_35 = arith.constant 1 : index
      %35 = arith.muli %c1_35, %6 : index
      %36 = arith.muli %35, %6 : index
      %37 = memref.load %alloca_33[] : memref<index>
      %38 = arith.addi %37, %36 : index
      memref.store %38, %alloca_33[] : memref<index>
      %39 = memref.load %alloca_33[] : memref<index>
      %c1_36 = arith.constant 1 : index
      %40 = arith.muli %c1_36, %6 : index
      %41 = arith.muli %40, %6 : index
      %42 = memref.load %alloca_33[] : memref<index>
      %43 = arith.addi %42, %41 : index
      memref.store %43, %alloca_33[] : memref<index>
      %44 = memref.load %alloca_33[] : memref<index>
      %45 = arith.index_cast %44 : index to i32
      %alloca_37 = memref.alloca() : memref<index>
      %c11 = arith.constant 11 : index
      memref.store %c11, %alloca_37[] : memref<index>
      %46 = memref.load %alloca_37[] : memref<index>
      %47 = arith.index_cast %46 : index to i32
      %alloca_38 = memref.alloca(%46) : memref<?xi64>
      %c0_39 = arith.constant 0 : index
      %48 = arith.index_cast %6 : index to i64
      memref.store %48, %alloca_38[%c0_39] : memref<?xi64>
      %c1_40 = arith.constant 1 : index
      %49 = arith.index_cast %18 : index to i64
      memref.store %49, %alloca_38[%c1_40] : memref<?xi64>
      %c2_41 = arith.constant 2 : index
      %50 = arith.extsi %4#1 : i32 to i64
      memref.store %50, %alloca_38[%c2_41] : memref<?xi64>
      %c3 = arith.constant 3 : index
      %51 = arith.extsi %4#0 : i32 to i64
      memref.store %51, %alloca_38[%c3] : memref<?xi64>
      %c4_42 = arith.constant 4 : index
      %52 = arith.index_cast %17 : index to i64
      memref.store %52, %alloca_38[%c4_42] : memref<?xi64>
      %c5 = arith.constant 5 : index
      %53 = arith.index_cast %6 : index to i64
      memref.store %53, %alloca_38[%c5] : memref<?xi64>
      %c6 = arith.constant 6 : index
      %54 = arith.index_cast %6 : index to i64
      memref.store %54, %alloca_38[%c6] : memref<?xi64>
      %c7 = arith.constant 7 : index
      %55 = arith.index_cast %6 : index to i64
      memref.store %55, %alloca_38[%c7] : memref<?xi64>
      %c8 = arith.constant 8 : index
      %56 = arith.index_cast %6 : index to i64
      memref.store %56, %alloca_38[%c8] : memref<?xi64>
      %c9 = arith.constant 9 : index
      %57 = arith.index_cast %6 : index to i64
      memref.store %57, %alloca_38[%c9] : memref<?xi64>
      %c10 = arith.constant 10 : index
      %58 = arith.index_cast %6 : index to i64
      memref.store %58, %alloca_38[%c10] : memref<?xi64>
      %59 = "polygeist.get_func"() <{name = @__arts_edt_2}> : () -> !llvm.ptr<!llvm.func<void (i32, memref<?xi64>, i32, memref<?x!llvm.struct<(i64, i32, ptr)>>)>>
      %60 = "polygeist.pointer2memref"(%59) : (!llvm.ptr<!llvm.func<void (i32, memref<?xi64>, i32, memref<?x!llvm.struct<(i64, i32, ptr)>>)>>) -> memref<?x!llvm.func<void (i32, memref<?xi64>, i32, memref<?x!llvm.struct<(i64, i32, ptr)>>)>>
      %61 = func.call @artsEdtCreateWithEpoch(%60, %28, %47, %alloca_38, %45, %27) : (memref<?x!llvm.func<void (i32, memref<?xi64>, i32, memref<?x!llvm.struct<(i64, i32, ptr)>>)>>, i32, i32, memref<?xi64>, i32, i64) -> i64
      %alloc = memref.alloc() : memref<index>
      memref.store %29, %alloc[] : memref<index>
      %c0_43 = arith.constant 0 : index
      %c1_44 = arith.constant 1 : index
      scf.for %arg2 = %c0_43 to %6 step %c1_44 {
        %c0_51 = arith.constant 0 : index
        %c1_52 = arith.constant 1 : index
        scf.for %arg3 = %c0_51 to %6 step %c1_52 {
          %96 = memref.load %alloca[%arg2, %arg3] : memref<?x?xi64>
          %97 = memref.load %alloc[] : memref<index>
          %98 = memref.load %alloca_3[%arg2, %arg3] : memref<?x?xi64>
          %99 = arith.index_cast %97 : index to i32
          func.call @artsAddDependenceToPersistentEvent(%96, %61, %99, %98) : (i64, i64, i32, i64) -> ()
          %c1_53 = arith.constant 1 : index
          %100 = arith.addi %97, %c1_53 : index
          memref.store %100, %alloc[] : memref<index>
        }
      }
      %alloc_45 = memref.alloc() : memref<index>
      memref.store %34, %alloc_45[] : memref<index>
      %c0_46 = arith.constant 0 : index
      %c1_47 = arith.constant 1 : index
      scf.for %arg2 = %c0_46 to %6 step %c1_47 {
        %c0_51 = arith.constant 0 : index
        %c1_52 = arith.constant 1 : index
        scf.for %arg3 = %c0_51 to %6 step %c1_52 {
          %96 = memref.load %alloca_7[%arg2, %arg3] : memref<?x?xi64>
          %97 = memref.load %alloc_45[] : memref<index>
          %98 = memref.load %alloca_11[%arg2, %arg3] : memref<?x?xi64>
          %99 = arith.index_cast %97 : index to i32
          func.call @artsAddDependenceToPersistentEvent(%96, %61, %99, %98) : (i64, i64, i32, i64) -> ()
          %c1_53 = arith.constant 1 : index
          %100 = arith.addi %97, %c1_53 : index
          memref.store %100, %alloc_45[] : memref<index>
        }
      }
      %alloc_48 = memref.alloc() : memref<index>
      memref.store %39, %alloc_48[] : memref<index>
      %c0_49 = arith.constant 0 : index
      %c1_50 = arith.constant 1 : index
      scf.for %arg2 = %c0_49 to %6 step %c1_50 {
        %c0_51 = arith.constant 0 : index
        %c1_52 = arith.constant 1 : index
        scf.for %arg3 = %c0_51 to %6 step %c1_52 {
          %96 = memref.load %alloca_15[%arg2, %arg3] : memref<?x?xi64>
          %97 = memref.load %alloc_48[] : memref<index>
          %98 = memref.load %alloca_18[%arg2, %arg3] : memref<?x?xi64>
          %99 = arith.index_cast %97 : index to i32
          func.call @artsAddDependenceToPersistentEvent(%96, %61, %99, %98) : (i64, i64, i32, i64) -> ()
          %c1_53 = arith.constant 1 : index
          %100 = arith.addi %97, %c1_53 : index
          memref.store %100, %alloc_48[] : memref<index>
        }
      }
      %62 = func.call @artsWaitOnHandle(%27) : (i64) -> i1
      %63 = arith.index_cast %4#0 : i32 to index
      scf.for %arg2 = %c0 to %63 step %c1 {
        %96 = arith.index_cast %4#0 : i32 to index
        scf.for %arg3 = %c0 to %96 step %c1 {
          %97 = arith.index_cast %4#0 : i32 to index
          %98 = scf.for %arg4 = %c0 to %97 step %c1 iter_args(%arg5 = %cst_0) -> (f32) {
            %99 = polygeist.subindex %alloca_4[%arg2] () : memref<?x?xmemref<?xi8>> -> memref<?xmemref<?xi8>>
            %100 = polygeist.subindex %99[%arg4] () : memref<?xmemref<?xi8>> -> memref<memref<?xi8>>
            %101 = "polygeist.memref2pointer"(%100) : (memref<memref<?xi8>>) -> !llvm.ptr
            %102 = llvm.load %101 : !llvm.ptr -> !llvm.ptr
            %103 = llvm.load %102 : !llvm.ptr -> f32
            %104 = polygeist.subindex %alloca_12[%arg4] () : memref<?x?xmemref<?xi8>> -> memref<?xmemref<?xi8>>
            %105 = polygeist.subindex %104[%arg3] () : memref<?xmemref<?xi8>> -> memref<memref<?xi8>>
            %106 = "polygeist.memref2pointer"(%105) : (memref<memref<?xi8>>) -> !llvm.ptr
            %107 = llvm.load %106 : !llvm.ptr -> !llvm.ptr
            %108 = llvm.load %107 : !llvm.ptr -> f32
            %109 = arith.mulf %103, %108 : f32
            %110 = arith.addf %arg5, %109 : f32
            scf.yield %110 : f32
          }
          memref.store %98, %alloca_22[%arg2, %arg3] : memref<?x?xf32>
        }
      }
      %64 = arith.index_cast %4#0 : i32 to index
      %65 = scf.for %arg2 = %c0 to %64 step %c1 iter_args(%arg3 = %c1_i32) -> (i32) {
        %96 = arith.index_cast %arg2 : index to i32
        %97 = arith.index_cast %4#0 : i32 to index
        %98 = scf.for %arg4 = %c0 to %97 step %c1 iter_args(%arg5 = %arg3) -> (i32) {
          %99 = arith.index_cast %arg4 : index to i32
          %100 = polygeist.subindex %alloca_19[%arg2] () : memref<?x?xmemref<?xi8>> -> memref<?xmemref<?xi8>>
          %101 = polygeist.subindex %100[%arg4] () : memref<?xmemref<?xi8>> -> memref<memref<?xi8>>
          %102 = "polygeist.memref2pointer"(%101) : (memref<memref<?xi8>>) -> !llvm.ptr
          %103 = llvm.load %102 : !llvm.ptr -> !llvm.ptr
          %104 = llvm.load %103 : !llvm.ptr -> f32
          %105 = memref.load %alloca_22[%arg2, %arg4] : memref<?x?xf32>
          %106 = arith.subf %104, %105 : f32
          %107 = arith.extf %106 : f32 to f64
          %108 = math.absf %107 : f64
          %109 = arith.cmpf ogt, %108, %cst : f64
          %110 = arith.select %109, %c0_i32, %arg5 : i32
          scf.if %109 {
            %111 = llvm.mlir.addressof @str2 : !llvm.ptr
            %112 = llvm.getelementptr %111[0, 0] : (!llvm.ptr) -> !llvm.ptr, !llvm.array<53 x i8>
            %113 = arith.extf %104 : f32 to f64
            %114 = arith.extf %105 : f32 to f64
            %115 = llvm.call @printf(%112, %96, %99, %113, %114) vararg(!llvm.func<i32 (ptr, ...)>) : (!llvm.ptr, i32, i32, f64, f64) -> i32
          }
          scf.yield %110 : i32
        }
        scf.yield %98 : i32
      }
      %66 = arith.cmpi ne, %65, %c0_i32 : i32
      %67 = llvm.mlir.addressof @str3 : !llvm.ptr
      %68 = llvm.getelementptr %67[0, 0] : (!llvm.ptr) -> !llvm.ptr, !llvm.array<11 x i8>
      %69 = llvm.call @printf(%68) vararg(!llvm.func<i32 (ptr, ...)>) : (!llvm.ptr) -> i32
      %70 = arith.index_cast %4#0 : i32 to index
      scf.for %arg2 = %c0 to %70 step %c1 {
        %96 = arith.index_cast %4#0 : i32 to index
        scf.for %arg3 = %c0 to %96 step %c1 {
          %100 = llvm.mlir.addressof @str4 : !llvm.ptr
          %101 = llvm.getelementptr %100[0, 0] : (!llvm.ptr) -> !llvm.ptr, !llvm.array<7 x i8>
          %102 = polygeist.subindex %alloca_4[%arg2] () : memref<?x?xmemref<?xi8>> -> memref<?xmemref<?xi8>>
          %103 = polygeist.subindex %102[%arg3] () : memref<?xmemref<?xi8>> -> memref<memref<?xi8>>
          %104 = "polygeist.memref2pointer"(%103) : (memref<memref<?xi8>>) -> !llvm.ptr
          %105 = llvm.load %104 : !llvm.ptr -> !llvm.ptr
          %106 = llvm.load %105 : !llvm.ptr -> f32
          %107 = arith.extf %106 : f32 to f64
          %108 = llvm.call @printf(%101, %107) vararg(!llvm.func<i32 (ptr, ...)>) : (!llvm.ptr, f64) -> i32
        }
        %97 = llvm.mlir.addressof @str5 : !llvm.ptr
        %98 = llvm.getelementptr %97[0, 0] : (!llvm.ptr) -> !llvm.ptr, !llvm.array<2 x i8>
        %99 = llvm.call @printf(%98) vararg(!llvm.func<i32 (ptr, ...)>) : (!llvm.ptr) -> i32
      }
      %71 = llvm.mlir.addressof @str6 : !llvm.ptr
      %72 = llvm.getelementptr %71[0, 0] : (!llvm.ptr) -> !llvm.ptr, !llvm.array<12 x i8>
      %73 = llvm.call @printf(%72) vararg(!llvm.func<i32 (ptr, ...)>) : (!llvm.ptr) -> i32
      %74 = arith.index_cast %4#0 : i32 to index
      scf.for %arg2 = %c0 to %74 step %c1 {
        %96 = arith.index_cast %4#0 : i32 to index
        scf.for %arg3 = %c0 to %96 step %c1 {
          %100 = llvm.mlir.addressof @str4 : !llvm.ptr
          %101 = llvm.getelementptr %100[0, 0] : (!llvm.ptr) -> !llvm.ptr, !llvm.array<7 x i8>
          %102 = polygeist.subindex %alloca_12[%arg2] () : memref<?x?xmemref<?xi8>> -> memref<?xmemref<?xi8>>
          %103 = polygeist.subindex %102[%arg3] () : memref<?xmemref<?xi8>> -> memref<memref<?xi8>>
          %104 = "polygeist.memref2pointer"(%103) : (memref<memref<?xi8>>) -> !llvm.ptr
          %105 = llvm.load %104 : !llvm.ptr -> !llvm.ptr
          %106 = llvm.load %105 : !llvm.ptr -> f32
          %107 = arith.extf %106 : f32 to f64
          %108 = llvm.call @printf(%101, %107) vararg(!llvm.func<i32 (ptr, ...)>) : (!llvm.ptr, f64) -> i32
        }
        %97 = llvm.mlir.addressof @str5 : !llvm.ptr
        %98 = llvm.getelementptr %97[0, 0] : (!llvm.ptr) -> !llvm.ptr, !llvm.array<2 x i8>
…
          %96 = func.call @artsReserveGuidRoute(%c8_i32_10, %11) : (i32, i32) -> i64
          %97 = func.call @artsDbCreateWithGuid(%96, %12) : (i64, i64) -> memref<?xi8>
          memref.store %96, %alloca_11[%arg2, %arg3] : memref<?x?xi64>
          memref.store %97, %alloca_12[%arg2, %arg3] : memref<?x?xmemref<?xi8>>
        }
      }
      %13 = func.call @artsGetCurrentNode() : () -> i32
      %alloca_15 = memref.alloca(%6, %6) : memref<?x?xi64>
      %c0_16 = arith.constant 0 : index
      %c1_17 = arith.constant 1 : index
      scf.for %arg2 = %c0_16 to %6 step %c1_17 {
        %c0_51 = arith.constant 0 : index
        %c1_52 = arith.constant 1 : index
        scf.for %arg3 = %c0_51 to %6 step %c1_52 {
          %c0_i32_53 = arith.constant 0 : i32
          %c0_i64 = arith.constant 0 : i64
          %96 = func.call @artsPersistentEventCreate(%13, %c0_i32_53, %c0_i64) : (i32, i32, i64) -> i64
          memref.store %96, %alloca_15[%arg2, %arg3] : memref<?x?xi64>
        }
      }
      %14 = func.call @artsGetCurrentNode() : () -> i32
      %15 = arith.index_cast %c4 : index to i64
      %c10_i32 = arith.constant 10 : i32
      %alloca_18 = memref.alloca(%6, %6) : memref<?x?xi64>
      %alloca_19 = memref.alloca(%6, %6) : memref<?x?xmemref<?xi8>>
      %c0_20 = arith.constant 0 : index
      %c1_21 = arith.constant 1 : index
      scf.for %arg2 = %c0_20 to %6 step %c1_21 {
        %c0_51 = arith.constant 0 : index
        %c1_52 = arith.constant 1 : index
        scf.for %arg3 = %c0_51 to %6 step %c1_52 {
          %96 = func.call @artsReserveGuidRoute(%c10_i32, %14) : (i32, i32) -> i64
          %97 = func.call @artsDbCreateWithGuid(%96, %15) : (i64, i64) -> memref<?xi8>
          memref.store %96, %alloca_18[%arg2, %arg3] : memref<?x?xi64>
          memref.store %97, %alloca_19[%arg2, %arg3] : memref<?x?xmemref<?xi8>>
        }
      }
      %alloca_22 = memref.alloca(%6, %6) : memref<?x?xf32>
      %16 = arith.index_cast %4#0 : i32 to index
      scf.for %arg2 = %c0 to %16 step %c1 {
        %96 = arith.index_cast %arg2 : index to i32
        %97 = arith.index_cast %4#0 : i32 to index
        scf.for %arg3 = %c0 to %97 step %c1 {
          %98 = arith.index_cast %arg3 : index to i32
          %99 = arith.addi %96, %98 : i32
          %100 = arith.sitofp %99 : i32 to f32
          %101 = polygeist.subindex %alloca_4[%arg2] () : memref<?x?xmemref<?xi8>> -> memref<?xmemref<?xi8>>
          %102 = polygeist.subindex %101[%arg3] () : memref<?xmemref<?xi8>> -> memref<memref<?xi8>>
          %103 = "polygeist.memref2pointer"(%102) : (memref<memref<?xi8>>) -> !llvm.ptr
          %104 = llvm.load %103 : !llvm.ptr -> !llvm.ptr
          llvm.store %100, %104 : f32, !llvm.ptr
          %105 = arith.subi %96, %98 : i32
          %106 = arith.sitofp %105 : i32 to f32
          %107 = polygeist.subindex %alloca_12[%arg2] () : memref<?x?xmemref<?xi8>> -> memref<?xmemref<?xi8>>
          %108 = polygeist.subindex %107[%arg3] () : memref<?xmemref<?xi8>> -> memref<memref<?xi8>>
          %109 = "polygeist.memref2pointer"(%108) : (memref<memref<?xi8>>) -> !llvm.ptr
          %110 = llvm.load %109 : !llvm.ptr -> !llvm.ptr
          llvm.store %106, %110 : f32, !llvm.ptr
          %111 = polygeist.subindex %alloca_19[%arg2] () : memref<?x?xmemref<?xi8>> -> memref<?xmemref<?xi8>>
          %112 = polygeist.subindex %111[%arg3] () : memref<?xmemref<?xi8>> -> memref<memref<?xi8>>
          %113 = "polygeist.memref2pointer"(%112) : (memref<memref<?xi8>>) -> !llvm.ptr
          %114 = llvm.load %113 : !llvm.ptr -> !llvm.ptr
          llvm.store %cst_0, %114 : f32, !llvm.ptr
          memref.store %cst_0, %alloca_22[%arg2, %arg3] : memref<?x?xf32>
        }
      }
      %17 = arith.index_cast %4#0 : i32 to index
      %18 = arith.index_cast %4#1 : i32 to index
      %19 = func.call @artsGetCurrentNode() : () -> i32
      %c0_23 = arith.constant 0 : index
      %alloca_24 = memref.alloca() : memref<index>
      memref.store %c0_23, %alloca_24[] : memref<index>
      %alloca_25 = memref.alloca() : memref<index>
      memref.store %c0_23, %alloca_25[] : memref<index>
      %20 = memref.load %alloca_25[] : memref<index>
      %21 = arith.index_cast %20 : index to i32
      %alloca_26 = memref.alloca() : memref<index>
      %c0_27 = arith.constant 0 : index
      memref.store %c0_27, %alloca_26[] : memref<index>
      %22 = memref.load %alloca_26[] : memref<index>
      %23 = arith.index_cast %22 : index to i32
      %alloca_28 = memref.alloca(%22) : memref<?xi64>
      %c1_i32_29 = arith.constant 1 : i32
      %24 = "polygeist.get_func"() <{name = @__arts_edt_1}> : () -> !llvm.ptr<!llvm.func<void (i32, memref<?xi64>, i32, memref<?x!llvm.struct<(i64, i32, ptr)>>)>>
      %25 = "polygeist.pointer2memref"(%24) : (!llvm.ptr<!llvm.func<void (i32, memref<?xi64>, i32, memref<?x!llvm.struct<(i64, i32, ptr)>>)>>) -> memref<?x!llvm.func<void (i32, memref<?xi64>, i32, memref<?x!llvm.struct<(i64, i32, ptr)>>)>>
      %26 = func.call @artsEdtCreate(%25, %19, %23, %alloca_28, %c1_i32_29) : (memref<?x!llvm.func<void (i32, memref<?xi64>, i32, memref<?x!llvm.struct<(i64, i32, ptr)>>)>>, i32, i32, memref<?xi64>, i32) -> i64
      %c0_i32_30 = arith.constant 0 : i32
      %27 = func.call @artsInitializeAndStartEpoch(%26, %c0_i32_30) : (i64, i32) -> i64
      %28 = func.call @artsGetCurrentNode() : () -> i32
      %c0_31 = arith.constant 0 : index
      %alloca_32 = memref.alloca() : memref<index>
      memref.store %c0_31, %alloca_32[] : memref<index>
      %alloca_33 = memref.alloca() : memref<index>
      memref.store %c0_31, %alloca_33[] : memref<index>
      %29 = memref.load %alloca_33[] : memref<index>
      %c1_34 = arith.constant 1 : index
      %30 = arith.muli %c1_34, %6 : index
      %31 = arith.muli %30, %6 : index
      %32 = memref.load %alloca_33[] : memref<index>
      %33 = arith.addi %32, %31 : index
      memref.store %33, %alloca_33[] : memref<index>
      %34 = memref.load %alloca_33[] : memref<index>
      %c1_35 = arith.constant 1 : index
      %35 = arith.muli %c1_35, %6 : index
      %36 = arith.muli %35, %6 : index
      %37 = memref.load %alloca_33[] : memref<index>
      %38 = arith.addi %37, %36 : index
      memref.store %38, %alloca_33[] : memref<index>
      %39 = memref.load %alloca_33[] : memref<index>
      %c1_36 = arith.constant 1 : index
      %40 = arith.muli %c1_36, %6 : index
      %41 = arith.muli %40, %6 : index
      %42 = memref.load %alloca_33[] : memref<index>
      %43 = arith.addi %42, %41 : index
      memref.store %43, %alloca_33[] : memref<index>
      %44 = memref.load %alloca_33[] : memref<index>
      %45 = arith.index_cast %44 : index to i32
      %alloca_37 = memref.alloca() : memref<index>
      %c11 = arith.constant 11 : index
      memref.store %c11, %alloca_37[] : memref<index>
      %46 = memref.load %alloca_37[] : memref<index>
      %47 = arith.index_cast %46 : index to i32
      %alloca_38 = memref.alloca(%46) : memref<?xi64>
      %c0_39 = arith.constant 0 : index
      %48 = arith.index_cast %6 : index to i64
      memref.store %48, %alloca_38[%c0_39] : memref<?xi64>
      %c1_40 = arith.constant 1 : index
      %49 = arith.index_cast %18 : index to i64
      memref.store %49, %alloca_38[%c1_40] : memref<?xi64>
      %c2_41 = arith.constant 2 : index
      %50 = arith.extsi %4#1 : i32 to i64
      memref.store %50, %alloca_38[%c2_41] : memref<?xi64>
      %c3 = arith.constant 3 : index
      %51 = arith.extsi %4#0 : i32 to i64
      memref.store %51, %alloca_38[%c3] : memref<?xi64>
      %c4_42 = arith.constant 4 : index
      %52 = arith.index_cast %17 : index to i64
      memref.store %52, %alloca_38[%c4_42] : memref<?xi64>
      %c5 = arith.constant 5 : index
      %53 = arith.index_cast %6 : index to i64
      memref.store %53, %alloca_38[%c5] : memref<?xi64>
      %c6 = arith.constant 6 : index
      %54 = arith.index_cast %6 : index to i64
      memref.store %54, %alloca_38[%c6] : memref<?xi64>
      %c7 = arith.constant 7 : index
      %55 = arith.index_cast %6 : index to i64
      memref.store %55, %alloca_38[%c7] : memref<?xi64>
      %c8 = arith.constant 8 : index
      %56 = arith.index_cast %6 : index to i64
      memref.store %56, %alloca_38[%c8] : memref<?xi64>
      %c9 = arith.constant 9 : index
      %57 = arith.index_cast %6 : index to i64
      memref.store %57, %alloca_38[%c9] : memref<?xi64>
      %c10 = arith.constant 10 : index
      %58 = arith.index_cast %6 : index to i64
      memref.store %58, %alloca_38[%c10] : memref<?xi64>
      %59 = "polygeist.get_func"() <{name = @__arts_edt_2}> : () -> !llvm.ptr<!llvm.func<void (i32, memref<?xi64>, i32, memref<?x!llvm.struct<(i64, i32, ptr)>>)>>
      %60 = "polygeist.pointer2memref"(%59) : (!llvm.ptr<!llvm.func<void (i32, memref<?xi64>, i32, memref<?x!llvm.struct<(i64, i32, ptr)>>)>>) -> memref<?x!llvm.func<void (i32, memref<?xi64>, i32, memref<?x!llvm.struct<(i64, i32, ptr)>>)>>
      %61 = func.call @artsEdtCreateWithEpoch(%60, %28, %47, %alloca_38, %45, %27) : (memref<?x!llvm.func<void (i32, memref<?xi64>, i32, memref<?x!llvm.struct<(i64, i32, ptr)>>)>>, i32, i32, memref<?xi64>, i32, i64) -> i64
      %alloc = memref.alloc() : memref<index>
      memref.store %29, %alloc[] : memref<index>
      %c0_43 = arith.constant 0 : index
      %c1_44 = arith.constant 1 : index
      scf.for %arg2 = %c0_43 to %6 step %c1_44 {
        %c0_51 = arith.constant 0 : index
        %c1_52 = arith.constant 1 : index
        scf.for %arg3 = %c0_51 to %6 step %c1_52 {
          %96 = memref.load %alloca[%arg2, %arg3] : memref<?x?xi64>
          %97 = memref.load %alloc[] : memref<index>
          %98 = memref.load %alloca_3[%arg2, %arg3] : memref<?x?xi64>
          %99 = arith.index_cast %97 : index to i32
          func.call @artsAddDependenceToPersistentEvent(%96, %61, %99, %98) : (i64, i64, i32, i64) -> ()
          %c1_53 = arith.constant 1 : index
          %100 = arith.addi %97, %c1_53 : index
          memref.store %100, %alloc[] : memref<index>
        }
      }
      %alloc_45 = memref.alloc() : memref<index>
      memref.store %34, %alloc_45[] : memref<index>
      %c0_46 = arith.constant 0 : index
      %c1_47 = arith.constant 1 : index
      scf.for %arg2 = %c0_46 to %6 step %c1_47 {
        %c0_51 = arith.constant 0 : index
        %c1_52 = arith.constant 1 : index
        scf.for %arg3 = %c0_51 to %6 step %c1_52 {
          %96 = memref.load %alloca_7[%arg2, %arg3] : memref<?x?xi64>
          %97 = memref.load %alloc_45[] : memref<index>
          %98 = memref.load %alloca_11[%arg2, %arg3] : memref<?x?xi64>
          %99 = arith.index_cast %97 : index to i32
          func.call @artsAddDependenceToPersistentEvent(%96, %61, %99, %98) : (i64, i64, i32, i64) -> ()
          %c1_53 = arith.constant 1 : index
          %100 = arith.addi %97, %c1_53 : index
          memref.store %100, %alloc_45[] : memref<index>
        }
      }
      %alloc_48 = memref.alloc() : memref<index>
      memref.store %39, %alloc_48[] : memref<index>
      %c0_49 = arith.constant 0 : index
      %c1_50 = arith.constant 1 : index
      scf.for %arg2 = %c0_49 to %6 step %c1_50 {
        %c0_51 = arith.constant 0 : index
        %c1_52 = arith.constant 1 : index
        scf.for %arg3 = %c0_51 to %6 step %c1_52 {
          %96 = memref.load %alloca_15[%arg2, %arg3] : memref<?x?xi64>
          %97 = memref.load %alloc_48[] : memref<index>
          %98 = memref.load %alloca_18[%arg2, %arg3] : memref<?x?xi64>
          %99 = arith.index_cast %97 : index to i32
          func.call @artsAddDependenceToPersistentEvent(%96, %61, %99, %98) : (i64, i64, i32, i64) -> ()
          %c1_53 = arith.constant 1 : index
          %100 = arith.addi %97, %c1_53 : index
          memref.store %100, %alloc_48[] : memref<index>
        }
      }
      %62 = func.call @artsWaitOnHandle(%27) : (i64) -> i1
      %63 = arith.index_cast %4#0 : i32 to index
      scf.for %arg2 = %c0 to %63 step %c1 {
        %96 = arith.index_cast %4#0 : i32 to index
        scf.for %arg3 = %c0 to %96 step %c1 {
          %97 = arith.index_cast %4#0 : i32 to index
          %98 = scf.for %arg4 = %c0 to %97 step %c1 iter_args(%arg5 = %cst_0) -> (f32) {
            %99 = polygeist.subindex %alloca_4[%arg2] () : memref<?x?xmemref<?xi8>> -> memref<?xmemref<?xi8>>
            %100 = polygeist.subindex %99[%arg4] () : memref<?xmemref<?xi8>> -> memref<memref<?xi8>>
            %101 = "polygeist.memref2pointer"(%100) : (memref<memref<?xi8>>) -> !llvm.ptr
            %102 = llvm.load %101 : !llvm.ptr -> !llvm.ptr
            %103 = llvm.load %102 : !llvm.ptr -> f32
            %104 = polygeist.subindex %alloca_12[%arg4] () : memref<?x?xmemref<?xi8>> -> memref<?xmemref<?xi8>>
            %105 = polygeist.subindex %104[%arg3] () : memref<?xmemref<?xi8>> -> memref<memref<?xi8>>
            %106 = "polygeist.memref2pointer"(%105) : (memref<memref<?xi8>>) -> !llvm.ptr
            %107 = llvm.load %106 : !llvm.ptr -> !llvm.ptr
            %108 = llvm.load %107 : !llvm.ptr -> f32
            %109 = arith.mulf %103, %108 : f32
            %110 = arith.addf %arg5, %109 : f32
            scf.yield %110 : f32
          }
          memref.store %98, %alloca_22[%arg2, %arg3] : memref<?x?xf32>
        }
      }
      %64 = arith.index_cast %4#0 : i32 to index
      %65 = scf.for %arg2 = %c0 to %64 step %c1 iter_args(%arg3 = %c1_i32) -> (i32) {
        %96 = arith.index_cast %arg2 : index to i32
        %97 = arith.index_cast %4#0 : i32 to index
        %98 = scf.for %arg4 = %c0 to %97 step %c1 iter_args(%arg5 = %arg3) -> (i32) {
          %99 = arith.index_cast %arg4 : index to i32
          %100 = polygeist.subindex %alloca_19[%arg2] () : memref<?x?xmemref<?xi8>> -> memref<?xmemref<?xi8>>
          %101 = polygeist.subindex %100[%arg4] () : memref<?xmemref<?xi8>> -> memref<memref<?xi8>>
          %102 = "polygeist.memref2pointer"(%101) : (memref<memref<?xi8>>) -> !llvm.ptr
          %103 = llvm.load %102 : !llvm.ptr -> !llvm.ptr
          %104 = llvm.load %103 : !llvm.ptr -> f32
          %105 = memref.load %alloca_22[%arg2, %arg4] : memref<?x?xf32>
          %106 = arith.subf %104, %105 : f32
          %107 = arith.extf %106 : f32 to f64
          %108 = math.absf %107 : f64
          %109 = arith.cmpf ogt, %108, %cst : f64
          %110 = arith.select %109, %c0_i32, %arg5 : i32
          scf.if %109 {
            %111 = llvm.mlir.addressof @str2 : !llvm.ptr
            %112 = llvm.getelementptr %111[0, 0] : (!llvm.ptr) -> !llvm.ptr, !llvm.array<53 x i8>
            %113 = arith.extf %104 : f32 to f64
            %114 = arith.extf %105 : f32 to f64
            %115 = llvm.call @printf(%112, %96, %99, %113, %114) vararg(!llvm.func<i32 (ptr, ...)>) : (!llvm.ptr, i32, i32, f64, f64) -> i32
          }
          scf.yield %110 : i32
        }
        scf.yield %98 : i32
      }
      %66 = arith.cmpi ne, %65, %c0_i32 : i32
      %67 = llvm.mlir.addressof @str3 : !llvm.ptr
      %68 = llvm.getelementptr %67[0, 0] : (!llvm.ptr) -> !llvm.ptr, !llvm.array<11 x i8>
      %69 = llvm.call @printf(%68) vararg(!llvm.func<i32 (ptr, ...)>) : (!llvm.ptr) -> i32
      %70 = arith.index_cast %4#0 : i32 to index
      scf.for %arg2 = %c0 to %70 step %c1 {
        %96 = arith.index_cast %4#0 : i32 to index
        scf.for %arg3 = %c0 to %96 step %c1 {
          %100 = llvm.mlir.addressof @str4 : !llvm.ptr
          %101 = llvm.getelementptr %100[0, 0] : (!llvm.ptr) -> !llvm.ptr, !llvm.array<7 x i8>
          %102 = polygeist.subindex %alloca_4[%arg2] () : memref<?x?xmemref<?xi8>> -> memref<?xmemref<?xi8>>
          %103 = polygeist.subindex %102[%arg3] () : memref<?xmemref<?xi8>> -> memref<memref<?xi8>>
          %104 = "polygeist.memref2pointer"(%103) : (memref<memref<?xi8>>) -> !llvm.ptr
          %105 = llvm.load %104 : !llvm.ptr -> !llvm.ptr
          %106 = llvm.load %105 : !llvm.ptr -> f32
          %107 = arith.extf %106 : f32 to f64
          %108 = llvm.call @printf(%101, %107) vararg(!llvm.func<i32 (ptr, ...)>) : (!llvm.ptr, f64) -> i32
        }
        %97 = llvm.mlir.addressof @str5 : !llvm.ptr
        %98 = llvm.getelementptr %97[0, 0] : (!llvm.ptr) -> !llvm.ptr, !llvm.array<2 x i8>
        %99 = llvm.call @printf(%98) vararg(!llvm.func<i32 (ptr, ...)>) : (!llvm.ptr) -> i32
      }
      %71 = llvm.mlir.addressof @str6 : !llvm.ptr
      %72 = llvm.getelementptr %71[0, 0] : (!llvm.ptr) -> !llvm.ptr, !llvm.array<12 x i8>
      %73 = llvm.call @printf(%72) vararg(!llvm.func<i32 (ptr, ...)>) : (!llvm.ptr) -> i32
      %74 = arith.index_cast %4#0 : i32 to index
      scf.for %arg2 = %c0 to %74 step %c1 {
        %96 = arith.index_cast %4#0 : i32 to index
        scf.for %arg3 = %c0 to %96 step %c1 {
          %100 = llvm.mlir.addressof @str4 : !llvm.ptr
          %101 = llvm.getelementptr %100[0, 0] : (!llvm.ptr) -> !llvm.ptr, !llvm.array<7 x i8>
          %102 = polygeist.subindex %alloca_12[%arg2] () : memref<?x?xmemref<?xi8>> -> memref<?xmemref<?xi8>>
          %103 = polygeist.subindex %102[%arg3] () : memref<?xmemref<?xi8>> -> memref<memref<?xi8>>
          %104 = "polygeist.memref2pointer"(%103) : (memref<memref<?xi8>>) -> !llvm.ptr
          %105 = llvm.load %104 : !llvm.ptr -> !llvm.ptr
          %106 = llvm.load %105 : !llvm.ptr -> f32
          %107 = arith.extf %106 : f32 to f64
          %108 = llvm.call @printf(%101, %107) vararg(!llvm.func<i32 (ptr, ...)>) : (!llvm.ptr, f64) -> i32
        }
        %97 = llvm.mlir.addressof @str5 : !llvm.ptr
        %98 = llvm.getelementptr %97[0, 0] : (!llvm.ptr) -> !llvm.ptr, !llvm.array<2 x i8>
        %99 = llvm.call @printf(%98) vararg(!llvm.func<i32 (ptr, ...)>) : (!llvm.ptr) -> i32
      }
      %75 = llvm.mlir.addressof @str7 : !llvm.ptr
      %76 = llvm.getelementptr %75[0, 0] : (!llvm.ptr) -> !llvm.ptr, !llvm.array<23 x i8>
      %77 = llvm.call @printf(%76) vararg(!llvm.func<i32 (ptr, ...)>) : (!llvm.ptr) -> i32
      %78 = arith.index_cast %4#0 : i32 to index
      scf.for %arg2 = %c0 to %78 step %c1 {
        %96 = arith.index_cast %4#0 : i32 to index
        scf.for %arg3 = %c0 to %96 step %c1 {
          %100 = llvm.mlir.addressof @str4 : !llvm.ptr
          %101 = llvm.getelementptr %100[0, 0] : (!llvm.ptr) -> !llvm.ptr, !llvm.array<7 x i8>
          %102 = polygeist.subindex %alloca_19[%arg2] () : memref<?x?xmemref<?xi8>> -> memref<?xmemref<?xi8>>
          %103 = polygeist.subindex %102[%arg3] () : memref<?xmemref<?xi8>> -> memref<memref<?xi8>>
          %104 = "polygeist.memref2pointer"(%103) : (memref<memref<?xi8>>) -> !llvm.ptr
          %105 = llvm.load %104 : !llvm.ptr -> !llvm.ptr
          %106 = llvm.load %105 : !llvm.ptr -> f32
          %107 = arith.extf %106 : f32 to f64
          %108 = llvm.call @printf(%101, %107) vararg(!llvm.func<i32 (ptr, ...)>) : (!llvm.ptr, f64) -> i32
        }
        %97 = llvm.mlir.addressof @str5 : !llvm.ptr
        %98 = llvm.getelementptr %97[0, 0] : (!llvm.ptr) -> !llvm.ptr, !llvm.array<2 x i8>
        %99 = llvm.call @printf(%98) vararg(!llvm.func<i32 (ptr, ...)>) : (!llvm.ptr) -> i32
      }
      %79 = llvm.mlir.addressof @str8 : !llvm.ptr
      %80 = llvm.getelementptr %79[0, 0] : (!llvm.ptr) -> !llvm.ptr, !llvm.array<25 x i8>
      %81 = llvm.call @printf(%80) vararg(!llvm.func<i32 (ptr, ...)>) : (!llvm.ptr) -> i32
      %82 = arith.index_cast %4#0 : i32 to index
      scf.for %arg2 = %c0 to %82 step %c1 {
        %96 = arith.index_cast %4#0 : i32 to index
        scf.for %arg3 = %c0 to %96 step %c1 {
          %100 = llvm.mlir.addressof @str4 : !llvm.ptr
          %101 = llvm.getelementptr %100[0, 0] : (!llvm.ptr) -> !llvm.ptr, !llvm.array<7 x i8>
          %102 = memref.load %alloca_22[%arg2, %arg3] : memref<?x?xf32>
          %103 = arith.extf %102 : f32 to f64
          %104 = llvm.call @printf(%101, %103) vararg(!llvm.func<i32 (ptr, ...)>) : (!llvm.ptr, f64) -> i32
        }
        %97 = llvm.mlir.addressof @str5 : !llvm.ptr
        %98 = llvm.getelementptr %97[0, 0] : (!llvm.ptr) -> !llvm.ptr, !llvm.array<2 x i8>
        %99 = llvm.call @printf(%98) vararg(!llvm.func<i32 (ptr, ...)>) : (!llvm.ptr) -> i32
      }
      %83 = llvm.mlir.addressof @str5 : !llvm.ptr
      %84 = llvm.getelementptr %83[0, 0] : (!llvm.ptr) -> !llvm.ptr, !llvm.array<2 x i8>
      %85 = llvm.call @printf(%84) vararg(!llvm.func<i32 (ptr, ...)>) : (!llvm.ptr) -> i32
      %86 = llvm.mlir.addressof @str9 : !llvm.ptr
      %87 = llvm.getelementptr %86[0, 0] : (!llvm.ptr) -> !llvm.ptr, !llvm.array<24 x i8>
      %88 = llvm.call @printf(%87) vararg(!llvm.func<i32 (ptr, ...)>) : (!llvm.ptr) -> i32
      %89 = llvm.mlir.addressof @str10 : !llvm.ptr
      %90 = llvm.getelementptr %89[0, 0] : (!llvm.ptr) -> !llvm.ptr, !llvm.array<4 x i8>
      %91 = scf.if %66 -> (!llvm.ptr) {
        %96 = llvm.mlir.addressof @str11 : !llvm.ptr
        %97 = llvm.getelementptr %96[0, 0] : (!llvm.ptr) -> !llvm.ptr, !llvm.array<20 x i8>
        scf.yield %97 : !llvm.ptr
      } else {
        %96 = llvm.mlir.addressof @str12 : !llvm.ptr
        %97 = llvm.getelementptr %96[0, 0] : (!llvm.ptr) -> !llvm.ptr, !llvm.array<20 x i8>
        scf.yield %97 : !llvm.ptr
      }
      %92 = llvm.call @printf(%90, %91) vararg(!llvm.func<i32 (ptr, ...)>) : (!llvm.ptr, !llvm.ptr) -> i32
      %93 = llvm.mlir.addressof @str9 : !llvm.ptr
      %94 = llvm.getelementptr %93[0, 0] : (!llvm.ptr) -> !llvm.ptr, !llvm.array<24 x i8>
      %95 = llvm.call @printf(%94) vararg(!llvm.func<i32 (ptr, ...)>) : (!llvm.ptr) -> i32
    }
    return %5 : i32
  }
  func.func private @atoi(memref<?xi8>) -> i32 attributes {llvm.linkage = #llvm.linkage<external>}
  func.func private @__arts_edt_1(%arg0: i32, %arg1: memref<?xi64>, %arg2: i32, %arg3: memref<?x!llvm.struct<(i64, i32, ptr)>>) {
    return
  }
  func.func private @__arts_edt_2(%arg0: i32, %arg1: memref<?xi64>, %arg2: i32, %arg3: memref<?x!llvm.struct<(i64, i32, ptr)>>) {
    %c4 = arith.constant 4 : index
    %c1 = arith.constant 1 : index
    %c0 = arith.constant 0 : index
    %c0_0 = arith.constant 0 : index
    %0 = memref.load %arg1[%c0_0] : memref<?xi64>
    %1 = arith.index_cast %0 : i64 to index
    %c1_1 = arith.constant 1 : index
    %2 = memref.load %arg1[%c1_1] : memref<?xi64>
    %3 = arith.index_cast %2 : i64 to index
    %c2 = arith.constant 2 : index
    %4 = memref.load %arg1[%c2] : memref<?xi64>
    %5 = arith.trunci %4 : i64 to i32
    %c3 = arith.constant 3 : index
    %6 = memref.load %arg1[%c3] : memref<?xi64>
    %7 = arith.trunci %6 : i64 to i32
    %c4_2 = arith.constant 4 : index
    %8 = memref.load %arg1[%c4_2] : memref<?xi64>
    %9 = arith.index_cast %8 : i64 to index
    %c5 = arith.constant 5 : index
    %10 = memref.load %arg1[%c5] : memref<?xi64>
    %11 = arith.index_cast %10 : i64 to index
    %c6 = arith.constant 6 : index
    %12 = memref.load %arg1[%c6] : memref<?xi64>
    %13 = arith.index_cast %12 : i64 to index
    %c7 = arith.constant 7 : index
    %14 = memref.load %arg1[%c7] : memref<?xi64>
    %15 = arith.index_cast %14 : i64 to index
    %c8 = arith.constant 8 : index
    %16 = memref.load %arg1[%c8] : memref<?xi64>
    %17 = arith.index_cast %16 : i64 to index
    %c9 = arith.constant 9 : index
    %18 = memref.load %arg1[%c9] : memref<?xi64>
    %19 = arith.index_cast %18 : i64 to index
    %c10 = arith.constant 10 : index
    %20 = memref.load %arg1[%c10] : memref<?xi64>
    %21 = arith.index_cast %20 : i64 to index
    %c0_3 = arith.constant 0 : index
    %c1_4 = arith.constant 1 : index
    %alloca = memref.alloca() : memref<index>
    memref.store %c0_3, %alloca[] : memref<index>
    %22 = "polygeist.typeSize"() <{source = !llvm.struct<(i64, i32, ptr)>}> : () -> index
    %23 = "polygeist.memref2pointer"(%arg3) : (memref<?x!llvm.struct<(i64, i32, ptr)>>) -> !llvm.ptr
    %alloca_5 = memref.alloca(%21, %21) : memref<?x?xi64>
    %alloca_6 = memref.alloca(%21, %21) : memref<?x?xmemref<?xi8>>
    %c0_7 = arith.constant 0 : index
    scf.for %arg4 = %c0_7 to %21 step %c1_4 {
      %c0_23 = arith.constant 0 : index
      scf.for %arg5 = %c0_23 to %21 step %c1_4 {
        %27 = memref.load %alloca[] : memref<index>
        %28 = arith.muli %27, %22 : index
        %29 = arith.index_cast %28 : index to i32
        %30 = llvm.getelementptr %23[%29] : (!llvm.ptr, i32) -> !llvm.ptr, i8
        %c0_i32 = arith.constant 0 : i32
        %31 = llvm.getelementptr %30[%c0_i32, 0] : (!llvm.ptr, i32) -> !llvm.ptr, !llvm.struct<(i64, i32, ptr)>
        %32 = llvm.load %31 : !llvm.ptr -> i64
        %c0_i32_24 = arith.constant 0 : i32
        %c2_i32 = arith.constant 2 : i32
        %33 = llvm.getelementptr %30[%c0_i32_24, 2] : (!llvm.ptr, i32) -> !llvm.ptr, !llvm.struct<(i64, i32, ptr)>
        %34 = llvm.load %33 : !llvm.ptr -> memref<?xi8>
        memref.store %32, %alloca_5[%arg4, %arg5] : memref<?x?xi64>
        memref.store %34, %alloca_6[%arg4, %arg5] : memref<?x?xmemref<?xi8>>
        %35 = arith.addi %27, %c1_4 : index
        memref.store %35, %alloca[] : memref<index>
      }
    }
    %alloca_8 = memref.alloca(%21, %21) : memref<?x?xi64>
    %alloca_9 = memref.alloca(%21, %21) : memref<?x?xmemref<?xi8>>
    %c0_10 = arith.constant 0 : index
    scf.for %arg4 = %c0_10 to %21 step %c1_4 {
      %c0_23 = arith.constant 0 : index
      scf.for %arg5 = %c0_23 to %21 step %c1_4 {
        %27 = memref.load %alloca[] : memref<index>
        %28 = arith.muli %27, %22 : index
        %29 = arith.index_cast %28 : index to i32
        %30 = llvm.getelementptr %23[%29] : (!llvm.ptr, i32) -> !llvm.ptr, i8
        %c0_i32 = arith.constant 0 : i32
        %31 = llvm.getelementptr %30[%c0_i32, 0] : (!llvm.ptr, i32) -> !llvm.ptr, !llvm.struct<(i64, i32, ptr)>
        %32 = llvm.load %31 : !llvm.ptr -> i64
        %c0_i32_24 = arith.constant 0 : i32
        %c2_i32 = arith.constant 2 : i32
        %33 = llvm.getelementptr %30[%c0_i32_24, 2] : (!llvm.ptr, i32) -> !llvm.ptr, !llvm.struct<(i64, i32, ptr)>
        %34 = llvm.load %33 : !llvm.ptr -> memref<?xi8>
        memref.store %32, %alloca_8[%arg4, %arg5] : memref<?x?xi64>
        memref.store %34, %alloca_9[%arg4, %arg5] : memref<?x?xmemref<?xi8>>
        %35 = arith.addi %27, %c1_4 : index
        memref.store %35, %alloca[] : memref<index>
      }
    }
    %alloca_11 = memref.alloca(%21, %21) : memref<?x?xi64>
    %alloca_12 = memref.alloca(%21, %21) : memref<?x?xmemref<?xi8>>
    %c0_13 = arith.constant 0 : index
    scf.for %arg4 = %c0_13 to %21 step %c1_4 {
      %c0_23 = arith.constant 0 : index
      scf.for %arg5 = %c0_23 to %21 step %c1_4 {
        %27 = memref.load %alloca[] : memref<index>
        %28 = arith.muli %27, %22 : index
        %29 = arith.index_cast %28 : index to i32
        %30 = llvm.getelementptr %23[%29] : (!llvm.ptr, i32) -> !llvm.ptr, i8
        %c0_i32 = arith.constant 0 : i32
        %31 = llvm.getelementptr %30[%c0_i32, 0] : (!llvm.ptr, i32) -> !llvm.ptr, !llvm.struct<(i64, i32, ptr)>
        %32 = llvm.load %31 : !llvm.ptr -> i64
        %c0_i32_24 = arith.constant 0 : i32
        %c2_i32 = arith.constant 2 : i32
        %33 = llvm.getelementptr %30[%c0_i32_24, 2] : (!llvm.ptr, i32) -> !llvm.ptr, !llvm.struct<(i64, i32, ptr)>
        %34 = llvm.load %33 : !llvm.ptr -> memref<?xi8>
        memref.store %32, %alloca_11[%arg4, %arg5] : memref<?x?xi64>
        memref.store %34, %alloca_12[%arg4, %arg5] : memref<?x?xmemref<?xi8>>
        %35 = arith.addi %27, %c1_4 : index
        memref.store %35, %alloca[] : memref<index>
      }
    }
    %24 = call @artsGetCurrentNode() : () -> i32
    %alloca_14 = memref.alloca(%21, %21) : memref<?x?xi64>
    %c0_15 = arith.constant 0 : index
    %c1_16 = arith.constant 1 : index
    scf.for %arg4 = %c0_15 to %21 step %c1_16 {
      %c0_23 = arith.constant 0 : index
      %c1_24 = arith.constant 1 : index
      scf.for %arg5 = %c0_23 to %21 step %c1_24 {
        %c0_i32 = arith.constant 0 : i32
        %c0_i64 = arith.constant 0 : i64
        %27 = func.call @artsPersistentEventCreate(%24, %c0_i32, %c0_i64) : (i32, i32, i64) -> i64
        memref.store %27, %alloca_14[%arg4, %arg5] : memref<?x?xi64>
      }
    }
    %25 = call @artsGetCurrentNode() : () -> i32
    %alloca_17 = memref.alloca(%21, %21) : memref<?x?xi64>
    %c0_18 = arith.constant 0 : index
    %c1_19 = arith.constant 1 : index
    scf.for %arg4 = %c0_18 to %21 step %c1_19 {
      %c0_23 = arith.constant 0 : index
      %c1_24 = arith.constant 1 : index
      scf.for %arg5 = %c0_23 to %21 step %c1_24 {
        %c0_i32 = arith.constant 0 : i32
        %c0_i64 = arith.constant 0 : i64
        %27 = func.call @artsPersistentEventCreate(%25, %c0_i32, %c0_i64) : (i32, i32, i64) -> i64
        memref.store %27, %alloca_17[%arg4, %arg5] : memref<?x?xi64>
      }
    }
    %26 = call @artsGetCurrentNode() : () -> i32
    %alloca_20 = memref.alloca(%21, %21) : memref<?x?xi64>
    %c0_21 = arith.constant 0 : index
    %c1_22 = arith.constant 1 : index
    scf.for %arg4 = %c0_21 to %21 step %c1_22 {
      %c0_23 = arith.constant 0 : index
      %c1_24 = arith.constant 1 : index
      scf.for %arg5 = %c0_23 to %21 step %c1_24 {
        %c0_i32 = arith.constant 0 : i32
        %c0_i64 = arith.constant 0 : i64
        %27 = func.call @artsPersistentEventCreate(%26, %c0_i32, %c0_i64) : (i32, i32, i64) -> i64
        memref.store %27, %alloca_20[%arg4, %arg5] : memref<?x?xi64>
      }
    }
    scf.for %arg4 = %c0 to %9 step %3 {
      %27 = arith.divui %arg4, %3 : index
      %28 = arith.index_cast %5 : i32 to index
      %29 = arith.muli %27, %28 : index
      %30 = arith.index_cast %29 : index to i32
      %31 = arith.index_cast %7 : i32 to index
      %32 = arith.index_cast %5 : i32 to index
      scf.for %arg5 = %c0 to %31 step %32 {
        %33 = arith.divui %arg5, %32 : index
        %34 = arith.index_cast %5 : i32 to index
        %35 = arith.muli %33, %34 : index
        %36 = arith.index_cast %35 : index to i32
        %37 = arith.index_cast %7 : i32 to index
        %38 = arith.index_cast %5 : i32 to index
        scf.for %arg6 = %c0 to %37 step %38 {
          %39 = arith.divui %arg6, %38 : index
          %40 = arith.index_cast %5 : i32 to index
          %41 = arith.muli %39, %40 : index
          %42 = arith.index_cast %41 : index to i32
          %43 = arith.addi %30, %5 : i32
          %44 = arith.index_cast %43 : i32 to index
          %45 = func.call @artsGetCurrentEpochGuid() : () -> i64
          %46 = func.call @artsGetCurrentNode() : () -> i32
          %c0_23 = arith.constant 0 : index
          %alloca_24 = memref.alloca() : memref<index>
          memref.store %c0_23, %alloca_24[] : memref<index>
          %alloca_25 = memref.alloca() : memref<index>
          memref.store %c0_23, %alloca_25[] : memref<index>
          %47 = memref.load %alloca_25[] : memref<index>
          %c1_26 = arith.constant 1 : index
          %48 = arith.muli %c1_26, %21 : index
          %49 = arith.muli %48, %21 : index
          %50 = memref.load %alloca_25[] : memref<index>
          %51 = arith.addi %50, %49 : index
          memref.store %51, %alloca_25[] : memref<index>
          %52 = memref.load %alloca_25[] : memref<index>
          %c1_27 = arith.constant 1 : index
          %53 = arith.muli %c1_27, %21 : index
          %54 = arith.muli %53, %21 : index
          %55 = memref.load %alloca_25[] : memref<index>
          %56 = arith.addi %55, %54 : index
          memref.store %56, %alloca_25[] : memref<index>
          %57 = memref.load %alloca_25[] : memref<index>
          %c1_28 = arith.constant 1 : index
          %58 = arith.muli %c1_28, %21 : index
          %59 = arith.muli %58, %21 : index
          %60 = memref.load %alloca_25[] : memref<index>
          %61 = arith.addi %60, %59 : index
          memref.store %61, %alloca_25[] : memref<index>
          %62 = memref.load %alloca_24[] : memref<index>
          %63 = arith.addi %62, %59 : index
          memref.store %63, %alloca_24[] : memref<index>
          %64 = memref.load %alloca_25[] : memref<index>
          %65 = arith.index_cast %64 : index to i32
          %alloca_29 = memref.alloca() : memref<index>
          %c13 = arith.constant 13 : index
          memref.store %c13, %alloca_29[] : memref<index>
          %66 = memref.load %alloca_29[] : memref<index>
          %67 = memref.load %alloca_24[] : memref<index>
          %68 = arith.addi %66, %67 : index
          memref.store %68, %alloca_29[] : memref<index>
          %69 = memref.load %alloca_29[] : memref<index>
          %70 = arith.index_cast %69 : index to i32
          %alloca_30 = memref.alloca(%69) : memref<?xi64>
          %c0_31 = arith.constant 0 : index
          %71 = arith.extsi %36 : i32 to i64
          memref.store %71, %alloca_30[%c0_31] : memref<?xi64>
          %c1_32 = arith.constant 1 : index
          %72 = arith.extsi %5 : i32 to i64
          memref.store %72, %alloca_30[%c1_32] : memref<?xi64>
          %c2_33 = arith.constant 2 : index
          %73 = arith.extsi %42 : i32 to i64
          memref.store %73, %alloca_30[%c2_33] : memref<?xi64>
          %c3_34 = arith.constant 3 : index
          %74 = arith.index_cast %41 : index to i64
          memref.store %74, %alloca_30[%c3_34] : memref<?xi64>
          %c4_35 = arith.constant 4 : index
          %75 = arith.index_cast %35 : index to i64
          memref.store %75, %alloca_30[%c4_35] : memref<?xi64>
          %c5_36 = arith.constant 5 : index
          %76 = arith.index_cast %29 : index to i64
          memref.store %76, %alloca_30[%c5_36] : memref<?xi64>
          %c6_37 = arith.constant 6 : index
          %77 = arith.index_cast %44 : index to i64
          memref.store %77, %alloca_30[%c6_37] : memref<?xi64>
          %c7_38 = arith.constant 7 : index
          %78 = arith.index_cast %21 : index to i64
          memref.store %78, %alloca_30[%c7_38] : memref<?xi64>
          %c8_39 = arith.constant 8 : index
          %79 = arith.index_cast %21 : index to i64
          memref.store %79, %alloca_30[%c8_39] : memref<?xi64>
          %c9_40 = arith.constant 9 : index
          %80 = arith.index_cast %21 : index to i64
          memref.store %80, %alloca_30[%c9_40] : memref<?xi64>
          %c10_41 = arith.constant 10 : index
          %81 = arith.index_cast %21 : index to i64
          memref.store %81, %alloca_30[%c10_41] : memref<?xi64>
          %c11 = arith.constant 11 : index
          %82 = arith.index_cast %21 : index to i64
          memref.store %82, %alloca_30[%c11] : memref<?xi64>
          %c12 = arith.constant 12 : index
          %83 = arith.index_cast %21 : index to i64
          memref.store %83, %alloca_30[%c12] : memref<?xi64>
          %alloca_42 = memref.alloca() : memref<index>
          %c13_43 = arith.constant 13 : index
          memref.store %c13_43, %alloca_42[] : memref<index>
          %c0_44 = arith.constant 0 : index
          %c1_45 = arith.constant 1 : index
          scf.for %arg7 = %c0_44 to %21 step %c1_45 {
            %c0_57 = arith.constant 0 : index
            %c1_58 = arith.constant 1 : index
            scf.for %arg8 = %c0_57 to %21 step %c1_58 {
              %88 = memref.load %alloca_14[%arg7, %arg8] : memref<?x?xi64>
              %89 = memref.load %alloca_42[] : memref<index>
              memref.store %88, %alloca_30[%89] : memref<?xi64>
              %c1_59 = arith.constant 1 : index
              %90 = arith.addi %89, %c1_59 : index
              memref.store %90, %alloca_42[] : memref<index>
            }
          }
          %84 = "polygeist.get_func"() <{name = @__arts_edt_3}> : () -> !llvm.ptr<!llvm.func<void (i32, memref<?xi64>, i32, memref<?x!llvm.struct<(i64, i32, ptr)>>)>>
          %85 = "polygeist.pointer2memref"(%84) : (!llvm.ptr<!llvm.func<void (i32, memref<?xi64>, i32, memref<?x!llvm.struct<(i64, i32, ptr)>>)>>) -> memref<?x!llvm.func<void (i32, memref<?xi64>, i32, memref<?x!llvm.struct<(i64, i32, ptr)>>)>>
          %86 = func.call @artsEdtCreateWithEpoch(%85, %46, %70, %alloca_30, %65, %45) : (memref<?x!llvm.func<void (i32, memref<?xi64>, i32, memref<?x!llvm.struct<(i64, i32, ptr)>>)>>, i32, i32, memref<?xi64>, i32, i64) -> i64
          %alloc = memref.alloc() : memref<index>
          memref.store %47, %alloc[] : memref<index>
          %c0_46 = arith.constant 0 : index
          %c1_47 = arith.constant 1 : index
          scf.for %arg7 = %c0_46 to %21 step %c1_47 {
            %c0_57 = arith.constant 0 : index
            %c1_58 = arith.constant 1 : index
            scf.for %arg8 = %c0_57 to %21 step %c1_58 {
              %88 = memref.load %alloca_20[%arg7, %arg8] : memref<?x?xi64>
              %89 = memref.load %alloc[] : memref<index>
              %90 = memref.load %alloca_5[%arg7, %arg8] : memref<?x?xi64>
              %91 = arith.index_cast %89 : index to i32
              func.call @artsAddDependenceToPersistentEvent(%88, %86, %91, %90) : (i64, i64, i32, i64) -> ()
              %c1_59 = arith.constant 1 : index
              %92 = arith.addi %89, %c1_59 : index
              memref.store %92, %alloc[] : memref<index>
            }
          }
          %alloc_48 = memref.alloc() : memref<index>
          memref.store %52, %alloc_48[] : memref<index>
          %c0_49 = arith.constant 0 : index
          %c1_50 = arith.constant 1 : index
          scf.for %arg7 = %c0_49 to %21 step %c1_50 {
            %c0_57 = arith.constant 0 : index
            %c1_58 = arith.constant 1 : index
            scf.for %arg8 = %c0_57 to %21 step %c1_58 {
              %88 = memref.load %alloca_17[%arg7, %arg8] : memref<?x?xi64>
              %89 = memref.load %alloc_48[] : memref<index>
              %90 = memref.load %alloca_8[%arg7, %arg8] : memref<?x?xi64>
              %91 = arith.index_cast %89 : index to i32
              func.call @artsAddDependenceToPersistentEvent(%88, %86, %91, %90) : (i64, i64, i32, i64) -> ()
              %c1_59 = arith.constant 1 : index
              %92 = arith.addi %89, %c1_59 : index
              memref.store %92, %alloc_48[] : memref<index>
            }
          }
          %alloc_51 = memref.alloc() : memref<index>
          memref.store %57, %alloc_51[] : memref<index>
          %c0_52 = arith.constant 0 : index
          %c1_53 = arith.constant 1 : index
          scf.for %arg7 = %c0_52 to %21 step %c1_53 {
            %c0_57 = arith.constant 0 : index
            %c1_58 = arith.constant 1 : index
            scf.for %arg8 = %c0_57 to %21 step %c1_58 {
              %88 = memref.load %alloca_14[%arg7, %arg8] : memref<?x?xi64>
              %89 = memref.load %alloc_51[] : memref<index>
              %90 = memref.load %alloca_11[%arg7, %arg8] : memref<?x?xi64>
              %91 = arith.index_cast %89 : index to i32
              func.call @artsAddDependenceToPersistentEvent(%88, %86, %91, %90) : (i64, i64, i32, i64) -> ()
              %c1_59 = arith.constant 1 : index
              %92 = arith.addi %89, %c1_59 : index
              memref.store %92, %alloc_51[] : memref<index>
            }
          }
          %alloc_54 = memref.alloc() : memref<index>
          memref.store %57, %alloc_54[] : memref<index>
          %c0_55 = arith.constant 0 : index
          %c1_56 = arith.constant 1 : index
          %87 = scf.for %arg7 = %c0_55 to %21 step %c1_56 iter_args(%arg8 = %alloc_54) -> (memref<index>) {
            %c0_57 = arith.constant 0 : index
            %c1_58 = arith.constant 1 : index
            %88 = scf.for %arg9 = %c0_57 to %21 step %c1_58 iter_args(%arg10 = %arg8) -> (memref<index>) {
              %89 = memref.load %alloca_14[%arg7, %arg9] : memref<?x?xi64>
              %90 = memref.load %alloca_11[%arg7, %arg9] : memref<?x?xi64>
              func.call @artsPersistentEventIncrementLatch(%89, %90) : (i64, i64) -> ()
              %91 = memref.load %arg10[] : memref<index>
              %c1_59 = arith.constant 1 : index
              %92 = arith.addi %91, %c1_59 : index
              memref.store %92, %arg10[] : memref<index>
              scf.yield %arg10 : memref<index>
            }
            scf.yield %arg8 : memref<index>
          }
        }
      }
    }
    return
  }
  func.func private @__arts_edt_3(%arg0: i32, %arg1: memref<?xi64>, %arg2: i32, %arg3: memref<?x!llvm.struct<(i64, i32, ptr)>>) {
    %c1 = arith.constant 1 : index
    %c0 = arith.constant 0 : index
    %0 = memref.load %arg1[%c0] : memref<?xi64>
    %1 = arith.trunci %0 : i64 to i32
    %c1_0 = arith.constant 1 : index
    %2 = memref.load %arg1[%c1_0] : memref<?xi64>
    %3 = arith.trunci %2 : i64 to i32
    %c2 = arith.constant 2 : index
    %4 = memref.load %arg1[%c2] : memref<?xi64>
    %5 = arith.trunci %4 : i64 to i32
    %c3 = arith.constant 3 : index
    %6 = memref.load %arg1[%c3] : memref<?xi64>
    %7 = arith.index_cast %6 : i64 to index
    %c4 = arith.constant 4 : index
    %8 = memref.load %arg1[%c4] : memref<?xi64>
    %9 = arith.index_cast %8 : i64 to index
    %c5 = arith.constant 5 : index
    %10 = memref.load %arg1[%c5] : memref<?xi64>
    %11 = arith.index_cast %10 : i64 to index
    %c6 = arith.constant 6 : index
    %12 = memref.load %arg1[%c6] : memref<?xi64>
    %13 = arith.index_cast %12 : i64 to index
    %c7 = arith.constant 7 : index
    %14 = memref.load %arg1[%c7] : memref<?xi64>
    %15 = arith.index_cast %14 : i64 to index
    %c8 = arith.constant 8 : index
    %16 = memref.load %arg1[%c8] : memref<?xi64>
    %17 = arith.index_cast %16 : i64 to index
    %c9 = arith.constant 9 : index
    %18 = memref.load %arg1[%c9] : memref<?xi64>
    %19 = arith.index_cast %18 : i64 to index
    %c10 = arith.constant 10 : index
    %20 = memref.load %arg1[%c10] : memref<?xi64>
    %21 = arith.index_cast %20 : i64 to index
    %c11 = arith.constant 11 : index
    %22 = memref.load %arg1[%c11] : memref<?xi64>
    %23 = arith.index_cast %22 : i64 to index
    %c12 = arith.constant 12 : index
    %24 = memref.load %arg1[%c12] : memref<?xi64>
    %25 = arith.index_cast %24 : i64 to index
    %c0_1 = arith.constant 0 : index
    %c1_2 = arith.constant 1 : index
    %alloca = memref.alloca() : memref<index>
    memref.store %c0_1, %alloca[] : memref<index>
    %26 = "polygeist.typeSize"() <{source = !llvm.struct<(i64, i32, ptr)>}> : () -> index
    %27 = "polygeist.memref2pointer"(%arg3) : (memref<?x!llvm.struct<(i64, i32, ptr)>>) -> !llvm.ptr
    %alloca_3 = memref.alloca(%25, %25) : memref<?x?xi64>
    %alloca_4 = memref.alloca(%25, %25) : memref<?x?xmemref<?xi8>>
    %c0_5 = arith.constant 0 : index
    scf.for %arg4 = %c0_5 to %25 step %c1_2 {
      %c0_15 = arith.constant 0 : index
      scf.for %arg5 = %c0_15 to %25 step %c1_2 {
        %30 = memref.load %alloca[] : memref<index>
        %31 = arith.muli %30, %26 : index
        %32 = arith.index_cast %31 : index to i32
        %33 = llvm.getelementptr %27[%32] : (!llvm.ptr, i32) -> !llvm.ptr, i8
        %c0_i32 = arith.constant 0 : i32
        %34 = llvm.getelementptr %33[%c0_i32, 0] : (!llvm.ptr, i32) -> !llvm.ptr, !llvm.struct<(i64, i32, ptr)>
        %35 = llvm.load %34 : !llvm.ptr -> i64
        %c0_i32_16 = arith.constant 0 : i32
        %c2_i32 = arith.constant 2 : i32
        %36 = llvm.getelementptr %33[%c0_i32_16, 2] : (!llvm.ptr, i32) -> !llvm.ptr, !llvm.struct<(i64, i32, ptr)>
        %37 = llvm.load %36 : !llvm.ptr -> memref<?xi8>
        memref.store %35, %alloca_3[%arg4, %arg5] : memref<?x?xi64>
        memref.store %37, %alloca_4[%arg4, %arg5] : memref<?x?xmemref<?xi8>>
        %38 = arith.addi %30, %c1_2 : index
        memref.store %38, %alloca[] : memref<index>
      }
    }
    %alloca_6 = memref.alloca(%25, %25) : memref<?x?xi64>
    %alloca_7 = memref.alloca(%25, %25) : memref<?x?xmemref<?xi8>>
    %c0_8 = arith.constant 0 : index
    scf.for %arg4 = %c0_8 to %25 step %c1_2 {
      %c0_15 = arith.constant 0 : index
      scf.for %arg5 = %c0_15 to %25 step %c1_2 {
        %30 = memref.load %alloca[] : memref<index>
        %31 = arith.muli %30, %26 : index
        %32 = arith.index_cast %31 : index to i32
        %33 = llvm.getelementptr %27[%32] : (!llvm.ptr, i32) -> !llvm.ptr, i8
        %c0_i32 = arith.constant 0 : i32
        %34 = llvm.getelementptr %33[%c0_i32, 0] : (!llvm.ptr, i32) -> !llvm.ptr, !llvm.struct<(i64, i32, ptr)>
        %35 = llvm.load %34 : !llvm.ptr -> i64
        %c0_i32_16 = arith.constant 0 : i32
        %c2_i32 = arith.constant 2 : i32
        %36 = llvm.getelementptr %33[%c0_i32_16, 2] : (!llvm.ptr, i32) -> !llvm.ptr, !llvm.struct<(i64, i32, ptr)>
        %37 = llvm.load %36 : !llvm.ptr -> memref<?xi8>
        memref.store %35, %alloca_6[%arg4, %arg5] : memref<?x?xi64>
        memref.store %37, %alloca_7[%arg4, %arg5] : memref<?x?xmemref<?xi8>>
        %38 = arith.addi %30, %c1_2 : index
        memref.store %38, %alloca[] : memref<index>
      }
    }
    %alloca_9 = memref.alloca(%25, %25) : memref<?x?xi64>
    %alloca_10 = memref.alloca(%25, %25) : memref<?x?xmemref<?xi8>>
    %c0_11 = arith.constant 0 : index
    scf.for %arg4 = %c0_11 to %25 step %c1_2 {
      %c0_15 = arith.constant 0 : index
      scf.for %arg5 = %c0_15 to %25 step %c1_2 {
        %30 = memref.load %alloca[] : memref<index>
        %31 = arith.muli %30, %26 : index
        %32 = arith.index_cast %31 : index to i32
        %33 = llvm.getelementptr %27[%32] : (!llvm.ptr, i32) -> !llvm.ptr, i8
        %c0_i32 = arith.constant 0 : i32
        %34 = llvm.getelementptr %33[%c0_i32, 0] : (!llvm.ptr, i32) -> !llvm.ptr, !llvm.struct<(i64, i32, ptr)>
        %35 = llvm.load %34 : !llvm.ptr -> i64
        %c0_i32_16 = arith.constant 0 : i32
        %c2_i32 = arith.constant 2 : i32
        %36 = llvm.getelementptr %33[%c0_i32_16, 2] : (!llvm.ptr, i32) -> !llvm.ptr, !llvm.struct<(i64, i32, ptr)>
        %37 = llvm.load %36 : !llvm.ptr -> memref<?xi8>
        memref.store %35, %alloca_9[%arg4, %arg5] : memref<?x?xi64>
        memref.store %37, %alloca_10[%arg4, %arg5] : memref<?x?xmemref<?xi8>>
        %38 = arith.addi %30, %c1_2 : index
        memref.store %38, %alloca[] : memref<index>
      }
    }
    scf.for %arg4 = %11 to %13 step %c1 {
      %30 = arith.addi %1, %3 : i32
      %31 = arith.index_cast %30 : i32 to index
      scf.for %arg5 = %9 to %31 step %c1 {
        %32 = arith.addi %5, %3 : i32
        %33 = arith.index_cast %32 : i32 to index
        scf.for %arg6 = %7 to %33 step %c1 {
          %34 = polygeist.subindex %alloca_4[%arg4] () : memref<?x?xmemref<?xi8>> -> memref<?xmemref<?xi8>>
          %35 = polygeist.subindex %34[%arg6] () : memref<?xmemref<?xi8>> -> memref<memref<?xi8>>
          %36 = "polygeist.memref2pointer"(%35) : (memref<memref<?xi8>>) -> !llvm.ptr
          %37 = llvm.load %36 : !llvm.ptr -> !llvm.ptr
          %38 = llvm.load %37 : !llvm.ptr -> f32
          %39 = polygeist.subindex %alloca_7[%arg6] () : memref<?x?xmemref<?xi8>> -> memref<?xmemref<?xi8>>
          %40 = polygeist.subindex %39[%arg5] () : memref<?xmemref<?xi8>> -> memref<memref<?xi8>>
          %41 = "polygeist.memref2pointer"(%40) : (memref<memref<?xi8>>) -> !llvm.ptr
          %42 = llvm.load %41 : !llvm.ptr -> !llvm.ptr
          %43 = llvm.load %42 : !llvm.ptr -> f32
          %44 = arith.mulf %38, %43 : f32
          %45 = polygeist.subindex %alloca_10[%arg4] () : memref<?x?xmemref<?xi8>> -> memref<?xmemref<?xi8>>
          %46 = polygeist.subindex %45[%arg5] () : memref<?xmemref<?xi8>> -> memref<memref<?xi8>>
          %47 = "polygeist.memref2pointer"(%46) : (memref<memref<?xi8>>) -> !llvm.ptr
          %48 = llvm.load %47 : !llvm.ptr -> !llvm.ptr
          %49 = llvm.load %48 : !llvm.ptr -> f32
          %50 = arith.addf %49, %44 : f32
          %51 = polygeist.subindex %alloca_10[%arg4] () : memref<?x?xmemref<?xi8>> -> memref<?xmemref<?xi8>>
          %52 = polygeist.subindex %51[%arg5] () : memref<?xmemref<?xi8>> -> memref<memref<?xi8>>
          %53 = "polygeist.memref2pointer"(%52) : (memref<memref<?xi8>>) -> !llvm.ptr
          %54 = llvm.load %53 : !llvm.ptr -> !llvm.ptr
          llvm.store %50, %54 : f32, !llvm.ptr
        }
      }
    }
    %alloca_12 = memref.alloca() : memref<index>
    %c13 = arith.constant 13 : index
    memref.store %c13, %alloca_12[] : memref<index>
    %28 = "polygeist.memref2pointer"(%arg1) : (memref<?xi64>) -> !llvm.ptr
    %c0_13 = arith.constant 0 : index
    %c1_14 = arith.constant 1 : index
    %29 = scf.for %arg4 = %c0_13 to %25 step %c1_14 iter_args(%arg5 = %alloca_12) -> (memref<index>) {
      %c0_15 = arith.constant 0 : index
      %c1_16 = arith.constant 1 : index
      %30 = scf.for %arg6 = %c0_15 to %25 step %c1_16 iter_args(%arg7 = %arg5) -> (memref<index>) {
        %31 = memref.load %arg7[] : memref<index>
        %32 = arith.index_cast %31 : index to i32
        %33 = llvm.getelementptr %28[%32] : (!llvm.ptr, i32) -> !llvm.ptr, i64
        %34 = llvm.load %33 : !llvm.ptr -> i64
        %35 = polygeist.subindex %alloca_9[%arg4] () : memref<?x?xi64> -> memref<?xi64>
        %36 = polygeist.subindex %35[%arg6] () : memref<?xi64> -> memref<i64>
        %37 = memref.load %36[] : memref<i64>
        func.call @artsPersistentEventDecrementLatch(%34, %37) : (i64, i64) -> ()
        %c1_17 = arith.constant 1 : index
        %38 = arith.addi %31, %c1_17 : index
        memref.store %38, %arg7[] : memref<index>
        scf.yield %arg7 : memref<index>
      }
      scf.yield %30 : memref<index>
    }
    return
  }
  func.func @initPerWorker(%arg0: i32, %arg1: i32, %arg2: memref<?xmemref<?xi8>>) {
    return
  }
  func.func @initPerNode(%arg0: i32, %arg1: i32, %arg2: memref<?xmemref<?xi8>>) {
    %0 = arith.index_cast %arg0 : i32 to index
    %c1 = arith.constant 1 : index
    %1 = arith.cmpi uge, %0, %c1 : index
    cf.cond_br %1, ^bb1, ^bb2(%arg1, %arg2 : i32, memref<?xmemref<?xi8>>)
  ^bb1:  // pred: ^bb0
    return
  ^bb2(%2: i32, %3: memref<?xmemref<?xi8>>):  // pred: ^bb0
    %4 = call @mainBody(%arg1, %arg2) : (i32, memref<?xmemref<?xi8>>) -> i32
    call @artsShutdown() : () -> ()
    return
  }
  func.func @main(%arg0: i32, %arg1: memref<?xmemref<?xi8>>) -> i32 {
    %0 = call @artsRT(%arg0, %arg1) : (i32, memref<?xmemref<?xi8>>) -> i32
    %c0_i32 = arith.constant 0 : i32
    return %c0_i32 : i32
  }
}
