#loc144 = loc("/home/raherrer/projects/carts/external/carts-benchmarks/specfem3d/stress/stress_update.c":110:3)
#loc169 = loc("/home/raherrer/projects/carts/external/carts-benchmarks/specfem3d/stress/stress_update.c":123:5)
#loc198 = loc("/home/raherrer/projects/carts/external/carts-benchmarks/specfem3d/stress/stress_update.c":144:3)
#loc223 = loc("/home/raherrer/projects/carts/external/carts-benchmarks/specfem3d/stress/stress_update.c":157:3)
#loc246 = loc("/home/raherrer/projects/carts/external/carts-benchmarks/specfem3d/stress/stress_update.c":168:3)
#loc247 = loc("/home/raherrer/projects/carts/external/carts-benchmarks/specfem3d/stress/stress_update.c":169:5)
#loc302 = loc("/home/raherrer/projects/carts/external/carts-benchmarks/specfem3d/stress/stress_update.c":22:13)
#loc306 = loc("/home/raherrer/projects/carts/external/carts-benchmarks/specfem3d/stress/stress_update.c":26:3)
#loc319 = loc("/home/raherrer/projects/carts/external/carts-benchmarks/specfem3d/stress/stress_update.c":27:5)
#loc365 = loc("/home/raherrer/projects/carts/external/carts-benchmarks/specfem3d/stress/stress_update.c":55:13)
#loc374 = loc("/home/raherrer/projects/carts/external/carts-benchmarks/specfem3d/stress/stress_update.c":61:3)
#loc375 = loc("/home/raherrer/projects/carts/external/carts-benchmarks/specfem3d/stress/stress_update.c":62:5)
#loc376 = loc("/home/raherrer/projects/carts/external/carts-benchmarks/specfem3d/stress/stress_update.c":63:7)
#loc448 = loc("/home/raherrer/projects/carts/external/carts-benchmarks/specfem3d/stress/stress_update.c":43:22)
#loc461 = loc("/home/raherrer/projects/carts/external/carts-benchmarks/specfem3d/stress/stress_update.c":47:22)
#loc474 = loc("/home/raherrer/projects/carts/external/carts-benchmarks/specfem3d/stress/stress_update.c":51:22)
module attributes {dlti.dl_spec = #dlti.dl_spec<!llvm.ptr<270> = dense<32> : vector<4xi64>, !llvm.ptr<271> = dense<32> : vector<4xi64>, !llvm.ptr<272> = dense<64> : vector<4xi64>, i64 = dense<64> : vector<2xi64>, i128 = dense<128> : vector<2xi64>, f80 = dense<128> : vector<2xi64>, !llvm.ptr = dense<64> : vector<4xi64>, i1 = dense<8> : vector<2xi64>, i8 = dense<8> : vector<2xi64>, i16 = dense<16> : vector<2xi64>, i32 = dense<32> : vector<2xi64>, f16 = dense<16> : vector<2xi64>, f64 = dense<64> : vector<2xi64>, f128 = dense<128> : vector<2xi64>, "dlti.endianness" = "little", "dlti.mangling_mode" = "e", "dlti.legal_int_widths" = array<i32: 8, 16, 32, 64>, "dlti.stack_alignment" = 128 : i64>, llvm.data_layout = "e-m:e-p270:32:32-p271:32:32-p272:64:64-i64:64-i128:128-f80:128-n8:16:32:64-S128", llvm.target_triple = "x86_64-unknown-linux-gnu", "polygeist.target-cpu" = "x86-64", "polygeist.target-features" = "+cmov,+cx8,+fxsr,+mmx,+sse,+sse2,+x87", "polygeist.tune-cpu" = "generic"} {
  llvm.mlir.global internal constant @str3("cleanup\00") {addr_space = 0 : i32} loc(#loc1)
  llvm.mlir.global internal constant @str2("verification\00") {addr_space = 0 : i32} loc(#loc2)
  llvm.mlir.global internal constant @str1("startup\00") {addr_space = 0 : i32} loc(#loc3)
  llvm.mlir.global internal constant @str0("specfem3d_update_stress\00") {addr_space = 0 : i32} loc(#loc4)
  func.func @main() -> i32 attributes {llvm.linkage = #llvm.linkage<external>} {
    %0 = llvm.mlir.addressof @str3 : !llvm.ptr loc(#loc)
    %cst = arith.constant 0.000000e+00 : f64 loc(#loc)
    %1 = llvm.mlir.addressof @str2 : !llvm.ptr loc(#loc)
    %c40_i32 = arith.constant 40 : i32 loc(#loc)
    %c40_i64 = arith.constant 40 : i64 loc(#loc)
    %2 = llvm.mlir.addressof @str1 : !llvm.ptr loc(#loc)
    %c0_i32 = arith.constant 0 : i32 loc(#loc)
    %3 = llvm.mlir.addressof @str0 : !llvm.ptr loc(#loc)
    %true = arith.constant true loc(#loc6)
    %4 = "polygeist.undef"() : () -> i32 loc(#loc7)
    %alloca = memref.alloca() : memref<1xf64> loc(#loc8)
    %5 = "polygeist.undef"() : () -> f64 loc(#loc8)
    affine.store %5, %alloca[0] : memref<1xf64> loc(#loc8)
    %alloca_0 = memref.alloca() : memref<1xmemref<?xmemref<?xmemref<?xf64>>>> loc(#loc9)
    %alloca_1 = memref.alloca() : memref<1xmemref<?xmemref<?xmemref<?xf64>>>> loc(#loc10)
    %alloca_2 = memref.alloca() : memref<1xmemref<?xmemref<?xmemref<?xf64>>>> loc(#loc11)
    %alloca_3 = memref.alloca() : memref<1xmemref<?xmemref<?xmemref<?xf64>>>> loc(#loc12)
    %alloca_4 = memref.alloca() : memref<1xmemref<?xmemref<?xmemref<?xf64>>>> loc(#loc13)
    %alloca_5 = memref.alloca() : memref<1xmemref<?xmemref<?xmemref<?xf64>>>> loc(#loc14)
    %alloca_6 = memref.alloca() : memref<1xmemref<?xmemref<?xmemref<?xf64>>>> loc(#loc15)
    %alloca_7 = memref.alloca() : memref<1xmemref<?xmemref<?xmemref<?xf64>>>> loc(#loc16)
    %alloca_8 = memref.alloca() : memref<1xmemref<?xmemref<?xmemref<?xf64>>>> loc(#loc17)
    %alloca_9 = memref.alloca() : memref<1xmemref<?xmemref<?xmemref<?xf64>>>> loc(#loc18)
    %alloca_10 = memref.alloca() : memref<1xmemref<?xmemref<?xmemref<?xf64>>>> loc(#loc19)
    %alloca_11 = memref.alloca() : memref<1xmemref<?xmemref<?xmemref<?xf64>>>> loc(#loc20)
    scf.if %true {
      scf.execute_region {
        func.call @carts_benchmarks_start() : () -> () loc(#loc21)
        scf.yield loc(#loc)
      } loc(#loc)
    } loc(#loc)
    scf.if %true {
      scf.execute_region {
        %11 = polygeist.pointer2memref %3 : !llvm.ptr to memref<?xi8> loc(#loc22)
        func.call @carts_e2e_timer_start(%11) : (memref<?xi8>) -> () loc(#loc22)
        scf.yield loc(#loc)
      } loc(#loc)
    } loc(#loc)
    scf.if %true {
      scf.execute_region {
        %11 = polygeist.pointer2memref %2 : !llvm.ptr to memref<?xi8> loc(#loc23)
        %12 = polygeist.pointer2memref %3 : !llvm.ptr to memref<?xi8> loc(#loc23)
        func.call @carts_phase_timer_start(%11, %12) : (memref<?xi8>, memref<?xi8>) -> () loc(#loc23)
        scf.yield loc(#loc)
      } loc(#loc)
    } loc(#loc)
    scf.if %true {
      scf.execute_region {
        scf.if %true {
          %11 = scf.execute_region -> memref<?xmemref<?xmemref<?xf64>>> {
            %12 = polygeist.typeSize memref<?xmemref<?xf64>> : index loc(#loc24)
            %13 = arith.index_cast %12 : index to i64 loc(#loc25)
            %14 = arith.muli %13, %c40_i64 : i64 loc(#loc26)
            %15 = arith.index_cast %14 : i64 to index loc(#loc24)
            %16 = arith.divui %15, %12 : index loc(#loc24)
            %alloc = memref.alloc(%16) : memref<?xmemref<?xmemref<?xf64>>> loc(#loc24)
            affine.store %alloc, %alloca_11[0] : memref<1xmemref<?xmemref<?xmemref<?xf64>>>> loc(#loc20)
            scf.yield %alloc : memref<?xmemref<?xmemref<?xf64>>> loc(#loc)
          } loc(#loc)
        } loc(#loc)
        scf.yield loc(#loc)
      } loc(#loc)
    } loc(#loc)
    scf.if %true {
      scf.execute_region {
        scf.if %true {
          %11 = scf.execute_region -> memref<?xmemref<?xmemref<?xf64>>> {
            %12 = polygeist.typeSize memref<?xmemref<?xf64>> : index loc(#loc27)
            %13 = arith.index_cast %12 : index to i64 loc(#loc28)
            %14 = arith.muli %13, %c40_i64 : i64 loc(#loc29)
            %15 = arith.index_cast %14 : i64 to index loc(#loc27)
            %16 = arith.divui %15, %12 : index loc(#loc27)
            %alloc = memref.alloc(%16) : memref<?xmemref<?xmemref<?xf64>>> loc(#loc27)
            affine.store %alloc, %alloca_10[0] : memref<1xmemref<?xmemref<?xmemref<?xf64>>>> loc(#loc19)
            scf.yield %alloc : memref<?xmemref<?xmemref<?xf64>>> loc(#loc)
          } loc(#loc)
        } loc(#loc)
        scf.yield loc(#loc)
      } loc(#loc)
    } loc(#loc)
    scf.if %true {
      scf.execute_region {
        scf.if %true {
          %11 = scf.execute_region -> memref<?xmemref<?xmemref<?xf64>>> {
            %12 = polygeist.typeSize memref<?xmemref<?xf64>> : index loc(#loc30)
            %13 = arith.index_cast %12 : index to i64 loc(#loc31)
            %14 = arith.muli %13, %c40_i64 : i64 loc(#loc32)
            %15 = arith.index_cast %14 : i64 to index loc(#loc30)
            %16 = arith.divui %15, %12 : index loc(#loc30)
            %alloc = memref.alloc(%16) : memref<?xmemref<?xmemref<?xf64>>> loc(#loc30)
            affine.store %alloc, %alloca_9[0] : memref<1xmemref<?xmemref<?xmemref<?xf64>>>> loc(#loc18)
            scf.yield %alloc : memref<?xmemref<?xmemref<?xf64>>> loc(#loc)
          } loc(#loc)
        } loc(#loc)
        scf.yield loc(#loc)
      } loc(#loc)
    } loc(#loc)
    scf.if %true {
      scf.execute_region {
        scf.if %true {
          %11 = scf.execute_region -> memref<?xmemref<?xmemref<?xf64>>> {
            %12 = polygeist.typeSize memref<?xmemref<?xf64>> : index loc(#loc33)
            %13 = arith.index_cast %12 : index to i64 loc(#loc34)
            %14 = arith.muli %13, %c40_i64 : i64 loc(#loc35)
            %15 = arith.index_cast %14 : i64 to index loc(#loc33)
            %16 = arith.divui %15, %12 : index loc(#loc33)
            %alloc = memref.alloc(%16) : memref<?xmemref<?xmemref<?xf64>>> loc(#loc33)
            affine.store %alloc, %alloca_8[0] : memref<1xmemref<?xmemref<?xmemref<?xf64>>>> loc(#loc17)
            scf.yield %alloc : memref<?xmemref<?xmemref<?xf64>>> loc(#loc)
          } loc(#loc)
        } loc(#loc)
        scf.yield loc(#loc)
      } loc(#loc)
    } loc(#loc)
    scf.if %true {
      scf.execute_region {
        scf.if %true {
          %11 = scf.execute_region -> memref<?xmemref<?xmemref<?xf64>>> {
            %12 = polygeist.typeSize memref<?xmemref<?xf64>> : index loc(#loc36)
            %13 = arith.index_cast %12 : index to i64 loc(#loc37)
            %14 = arith.muli %13, %c40_i64 : i64 loc(#loc38)
            %15 = arith.index_cast %14 : i64 to index loc(#loc36)
            %16 = arith.divui %15, %12 : index loc(#loc36)
            %alloc = memref.alloc(%16) : memref<?xmemref<?xmemref<?xf64>>> loc(#loc36)
            affine.store %alloc, %alloca_7[0] : memref<1xmemref<?xmemref<?xmemref<?xf64>>>> loc(#loc16)
            scf.yield %alloc : memref<?xmemref<?xmemref<?xf64>>> loc(#loc)
          } loc(#loc)
        } loc(#loc)
        scf.yield loc(#loc)
      } loc(#loc)
    } loc(#loc)
    scf.if %true {
      scf.execute_region {
        scf.if %true {
          %11 = scf.execute_region -> memref<?xmemref<?xmemref<?xf64>>> {
            %12 = polygeist.typeSize memref<?xmemref<?xf64>> : index loc(#loc39)
            %13 = arith.index_cast %12 : index to i64 loc(#loc40)
            %14 = arith.muli %13, %c40_i64 : i64 loc(#loc41)
            %15 = arith.index_cast %14 : i64 to index loc(#loc39)
            %16 = arith.divui %15, %12 : index loc(#loc39)
            %alloc = memref.alloc(%16) : memref<?xmemref<?xmemref<?xf64>>> loc(#loc39)
            affine.store %alloc, %alloca_6[0] : memref<1xmemref<?xmemref<?xmemref<?xf64>>>> loc(#loc15)
            scf.yield %alloc : memref<?xmemref<?xmemref<?xf64>>> loc(#loc)
          } loc(#loc)
        } loc(#loc)
        scf.yield loc(#loc)
      } loc(#loc)
    } loc(#loc)
    scf.if %true {
      scf.execute_region {
        scf.if %true {
          %11 = scf.execute_region -> memref<?xmemref<?xmemref<?xf64>>> {
            %12 = polygeist.typeSize memref<?xmemref<?xf64>> : index loc(#loc42)
            %13 = arith.index_cast %12 : index to i64 loc(#loc43)
            %14 = arith.muli %13, %c40_i64 : i64 loc(#loc44)
            %15 = arith.index_cast %14 : i64 to index loc(#loc42)
            %16 = arith.divui %15, %12 : index loc(#loc42)
            %alloc = memref.alloc(%16) : memref<?xmemref<?xmemref<?xf64>>> loc(#loc42)
            affine.store %alloc, %alloca_5[0] : memref<1xmemref<?xmemref<?xmemref<?xf64>>>> loc(#loc14)
            scf.yield %alloc : memref<?xmemref<?xmemref<?xf64>>> loc(#loc)
          } loc(#loc)
        } loc(#loc)
        scf.yield loc(#loc)
      } loc(#loc)
    } loc(#loc)
    scf.if %true {
      scf.execute_region {
        scf.if %true {
          %11 = scf.execute_region -> memref<?xmemref<?xmemref<?xf64>>> {
            %12 = polygeist.typeSize memref<?xmemref<?xf64>> : index loc(#loc45)
            %13 = arith.index_cast %12 : index to i64 loc(#loc46)
            %14 = arith.muli %13, %c40_i64 : i64 loc(#loc47)
            %15 = arith.index_cast %14 : i64 to index loc(#loc45)
            %16 = arith.divui %15, %12 : index loc(#loc45)
            %alloc = memref.alloc(%16) : memref<?xmemref<?xmemref<?xf64>>> loc(#loc45)
            affine.store %alloc, %alloca_4[0] : memref<1xmemref<?xmemref<?xmemref<?xf64>>>> loc(#loc13)
            scf.yield %alloc : memref<?xmemref<?xmemref<?xf64>>> loc(#loc)
          } loc(#loc)
        } loc(#loc)
        scf.yield loc(#loc)
      } loc(#loc)
    } loc(#loc)
    scf.if %true {
      scf.execute_region {
        scf.if %true {
          %11 = scf.execute_region -> memref<?xmemref<?xmemref<?xf64>>> {
            %12 = polygeist.typeSize memref<?xmemref<?xf64>> : index loc(#loc48)
            %13 = arith.index_cast %12 : index to i64 loc(#loc49)
            %14 = arith.muli %13, %c40_i64 : i64 loc(#loc50)
            %15 = arith.index_cast %14 : i64 to index loc(#loc48)
            %16 = arith.divui %15, %12 : index loc(#loc48)
            %alloc = memref.alloc(%16) : memref<?xmemref<?xmemref<?xf64>>> loc(#loc48)
            affine.store %alloc, %alloca_3[0] : memref<1xmemref<?xmemref<?xmemref<?xf64>>>> loc(#loc12)
            scf.yield %alloc : memref<?xmemref<?xmemref<?xf64>>> loc(#loc)
          } loc(#loc)
        } loc(#loc)
        scf.yield loc(#loc)
      } loc(#loc)
    } loc(#loc)
    scf.if %true {
      scf.execute_region {
        scf.if %true {
          %11 = scf.execute_region -> memref<?xmemref<?xmemref<?xf64>>> {
            %12 = polygeist.typeSize memref<?xmemref<?xf64>> : index loc(#loc51)
            %13 = arith.index_cast %12 : index to i64 loc(#loc52)
            %14 = arith.muli %13, %c40_i64 : i64 loc(#loc53)
            %15 = arith.index_cast %14 : i64 to index loc(#loc51)
            %16 = arith.divui %15, %12 : index loc(#loc51)
            %alloc = memref.alloc(%16) : memref<?xmemref<?xmemref<?xf64>>> loc(#loc51)
            affine.store %alloc, %alloca_2[0] : memref<1xmemref<?xmemref<?xmemref<?xf64>>>> loc(#loc11)
            scf.yield %alloc : memref<?xmemref<?xmemref<?xf64>>> loc(#loc)
          } loc(#loc)
        } loc(#loc)
        scf.yield loc(#loc)
      } loc(#loc)
    } loc(#loc)
    scf.if %true {
      scf.execute_region {
        scf.if %true {
          %11 = scf.execute_region -> memref<?xmemref<?xmemref<?xf64>>> {
            %12 = polygeist.typeSize memref<?xmemref<?xf64>> : index loc(#loc54)
            %13 = arith.index_cast %12 : index to i64 loc(#loc55)
            %14 = arith.muli %13, %c40_i64 : i64 loc(#loc56)
            %15 = arith.index_cast %14 : i64 to index loc(#loc54)
            %16 = arith.divui %15, %12 : index loc(#loc54)
            %alloc = memref.alloc(%16) : memref<?xmemref<?xmemref<?xf64>>> loc(#loc54)
            affine.store %alloc, %alloca_1[0] : memref<1xmemref<?xmemref<?xmemref<?xf64>>>> loc(#loc10)
            scf.yield %alloc : memref<?xmemref<?xmemref<?xf64>>> loc(#loc)
          } loc(#loc)
        } loc(#loc)
        scf.yield loc(#loc)
      } loc(#loc)
    } loc(#loc)
    scf.if %true {
      scf.execute_region {
        scf.if %true {
          %11 = scf.execute_region -> memref<?xmemref<?xmemref<?xf64>>> {
            %12 = polygeist.typeSize memref<?xmemref<?xf64>> : index loc(#loc57)
            %13 = arith.index_cast %12 : index to i64 loc(#loc58)
            %14 = arith.muli %13, %c40_i64 : i64 loc(#loc59)
            %15 = arith.index_cast %14 : i64 to index loc(#loc57)
            %16 = arith.divui %15, %12 : index loc(#loc57)
            %alloc = memref.alloc(%16) : memref<?xmemref<?xmemref<?xf64>>> loc(#loc57)
            affine.store %alloc, %alloca_0[0] : memref<1xmemref<?xmemref<?xmemref<?xf64>>>> loc(#loc9)
            scf.yield %alloc : memref<?xmemref<?xmemref<?xf64>>> loc(#loc)
          } loc(#loc)
        } loc(#loc)
        scf.yield loc(#loc)
      } loc(#loc)
    } loc(#loc)
    scf.if %true {
      scf.execute_region {
        scf.if %true {
          scf.execute_region {
            %11 = affine.load %alloca_11[0] : memref<1xmemref<?xmemref<?xmemref<?xf64>>>> loc(#loc60)
            %12 = polygeist.typeSize memref<?xf64> : index loc(#loc61)
            %13 = arith.index_cast %12 : index to i64 loc(#loc62)
            %14 = arith.muli %13, %c40_i64 : i64 loc(#loc63)
            %15 = arith.index_cast %14 : i64 to index loc(#loc61)
            %16 = arith.divui %15, %12 : index loc(#loc61)
            %17 = affine.load %alloca_10[0] : memref<1xmemref<?xmemref<?xmemref<?xf64>>>> loc(#loc64)
            %18 = polygeist.typeSize memref<?xf64> : index loc(#loc65)
            %19 = arith.index_cast %18 : index to i64 loc(#loc66)
            %20 = arith.muli %19, %c40_i64 : i64 loc(#loc67)
            %21 = arith.index_cast %20 : i64 to index loc(#loc65)
            %22 = arith.divui %21, %18 : index loc(#loc65)
            %23 = affine.load %alloca_9[0] : memref<1xmemref<?xmemref<?xmemref<?xf64>>>> loc(#loc68)
            %24 = polygeist.typeSize memref<?xf64> : index loc(#loc69)
            %25 = arith.index_cast %24 : index to i64 loc(#loc70)
            %26 = arith.muli %25, %c40_i64 : i64 loc(#loc71)
            %27 = arith.index_cast %26 : i64 to index loc(#loc69)
            %28 = arith.divui %27, %24 : index loc(#loc69)
            %29 = affine.load %alloca_8[0] : memref<1xmemref<?xmemref<?xmemref<?xf64>>>> loc(#loc72)
            %30 = polygeist.typeSize memref<?xf64> : index loc(#loc73)
            %31 = arith.index_cast %30 : index to i64 loc(#loc74)
            %32 = arith.muli %31, %c40_i64 : i64 loc(#loc75)
            %33 = arith.index_cast %32 : i64 to index loc(#loc73)
            %34 = arith.divui %33, %30 : index loc(#loc73)
            %35 = affine.load %alloca_7[0] : memref<1xmemref<?xmemref<?xmemref<?xf64>>>> loc(#loc76)
            %36 = polygeist.typeSize memref<?xf64> : index loc(#loc77)
            %37 = arith.index_cast %36 : index to i64 loc(#loc78)
            %38 = arith.muli %37, %c40_i64 : i64 loc(#loc79)
            %39 = arith.index_cast %38 : i64 to index loc(#loc77)
            %40 = arith.divui %39, %36 : index loc(#loc77)
            %41 = affine.load %alloca_6[0] : memref<1xmemref<?xmemref<?xmemref<?xf64>>>> loc(#loc80)
            %42 = polygeist.typeSize memref<?xf64> : index loc(#loc81)
            %43 = arith.index_cast %42 : index to i64 loc(#loc82)
            %44 = arith.muli %43, %c40_i64 : i64 loc(#loc83)
            %45 = arith.index_cast %44 : i64 to index loc(#loc81)
            %46 = arith.divui %45, %42 : index loc(#loc81)
            %47 = affine.load %alloca_5[0] : memref<1xmemref<?xmemref<?xmemref<?xf64>>>> loc(#loc84)
            %48 = polygeist.typeSize memref<?xf64> : index loc(#loc85)
            %49 = arith.index_cast %48 : index to i64 loc(#loc86)
            %50 = arith.muli %49, %c40_i64 : i64 loc(#loc87)
            %51 = arith.index_cast %50 : i64 to index loc(#loc85)
            %52 = arith.divui %51, %48 : index loc(#loc85)
            %53 = affine.load %alloca_4[0] : memref<1xmemref<?xmemref<?xmemref<?xf64>>>> loc(#loc88)
            %54 = polygeist.typeSize memref<?xf64> : index loc(#loc89)
            %55 = arith.index_cast %54 : index to i64 loc(#loc90)
            %56 = arith.muli %55, %c40_i64 : i64 loc(#loc91)
            %57 = arith.index_cast %56 : i64 to index loc(#loc89)
            %58 = arith.divui %57, %54 : index loc(#loc89)
            %59 = affine.load %alloca_3[0] : memref<1xmemref<?xmemref<?xmemref<?xf64>>>> loc(#loc92)
            %60 = polygeist.typeSize memref<?xf64> : index loc(#loc93)
            %61 = arith.index_cast %60 : index to i64 loc(#loc94)
            %62 = arith.muli %61, %c40_i64 : i64 loc(#loc95)
            %63 = arith.index_cast %62 : i64 to index loc(#loc93)
            %64 = arith.divui %63, %60 : index loc(#loc93)
            %65 = affine.load %alloca_2[0] : memref<1xmemref<?xmemref<?xmemref<?xf64>>>> loc(#loc96)
            %66 = polygeist.typeSize memref<?xf64> : index loc(#loc97)
            %67 = arith.index_cast %66 : index to i64 loc(#loc98)
            %68 = arith.muli %67, %c40_i64 : i64 loc(#loc99)
            %69 = arith.index_cast %68 : i64 to index loc(#loc97)
            %70 = arith.divui %69, %66 : index loc(#loc97)
            %71 = affine.load %alloca_1[0] : memref<1xmemref<?xmemref<?xmemref<?xf64>>>> loc(#loc100)
            %72 = polygeist.typeSize memref<?xf64> : index loc(#loc101)
            %73 = arith.index_cast %72 : index to i64 loc(#loc102)
            %74 = arith.muli %73, %c40_i64 : i64 loc(#loc103)
            %75 = arith.index_cast %74 : i64 to index loc(#loc101)
            %76 = arith.divui %75, %72 : index loc(#loc101)
            %77 = affine.load %alloca_0[0] : memref<1xmemref<?xmemref<?xmemref<?xf64>>>> loc(#loc104)
            %78 = polygeist.typeSize memref<?xf64> : index loc(#loc105)
            %79 = arith.index_cast %78 : index to i64 loc(#loc106)
            %80 = arith.muli %79, %c40_i64 : i64 loc(#loc107)
            %81 = arith.index_cast %80 : i64 to index loc(#loc105)
            %82 = arith.divui %81, %78 : index loc(#loc105)
            %83 = polygeist.typeSize f64 : index loc(#loc108)
            %84 = arith.index_cast %83 : index to i64 loc(#loc109)
            %85 = arith.muli %84, %c40_i64 : i64 loc(#loc110)
            %86 = arith.index_cast %85 : i64 to index loc(#loc108)
            %87 = arith.divui %86, %83 : index loc(#loc108)
            %88 = polygeist.typeSize f64 : index loc(#loc111)
            %89 = arith.index_cast %88 : index to i64 loc(#loc112)
            %90 = arith.muli %89, %c40_i64 : i64 loc(#loc113)
            %91 = arith.index_cast %90 : i64 to index loc(#loc111)
            %92 = arith.divui %91, %88 : index loc(#loc111)
            %93 = polygeist.typeSize f64 : index loc(#loc114)
            %94 = arith.index_cast %93 : index to i64 loc(#loc115)
            %95 = arith.muli %94, %c40_i64 : i64 loc(#loc116)
            %96 = arith.index_cast %95 : i64 to index loc(#loc114)
            %97 = arith.divui %96, %93 : index loc(#loc114)
            %98 = polygeist.typeSize f64 : index loc(#loc117)
            %99 = arith.index_cast %98 : index to i64 loc(#loc118)
            %100 = arith.muli %99, %c40_i64 : i64 loc(#loc119)
            %101 = arith.index_cast %100 : i64 to index loc(#loc117)
            %102 = arith.divui %101, %98 : index loc(#loc117)
            %103 = polygeist.typeSize f64 : index loc(#loc120)
            %104 = arith.index_cast %103 : index to i64 loc(#loc121)
            %105 = arith.muli %104, %c40_i64 : i64 loc(#loc122)
            %106 = arith.index_cast %105 : i64 to index loc(#loc120)
            %107 = arith.divui %106, %103 : index loc(#loc120)
            %108 = polygeist.typeSize f64 : index loc(#loc123)
            %109 = arith.index_cast %108 : index to i64 loc(#loc124)
            %110 = arith.muli %109, %c40_i64 : i64 loc(#loc125)
            %111 = arith.index_cast %110 : i64 to index loc(#loc123)
            %112 = arith.divui %111, %108 : index loc(#loc123)
            %113 = polygeist.typeSize f64 : index loc(#loc126)
            %114 = arith.index_cast %113 : index to i64 loc(#loc127)
            %115 = arith.muli %114, %c40_i64 : i64 loc(#loc128)
            %116 = arith.index_cast %115 : i64 to index loc(#loc126)
            %117 = arith.divui %116, %113 : index loc(#loc126)
            %118 = polygeist.typeSize f64 : index loc(#loc129)
            %119 = arith.index_cast %118 : index to i64 loc(#loc130)
            %120 = arith.muli %119, %c40_i64 : i64 loc(#loc131)
            %121 = arith.index_cast %120 : i64 to index loc(#loc129)
            %122 = arith.divui %121, %118 : index loc(#loc129)
            %123 = polygeist.typeSize f64 : index loc(#loc132)
            %124 = arith.index_cast %123 : index to i64 loc(#loc133)
            %125 = arith.muli %124, %c40_i64 : i64 loc(#loc134)
            %126 = arith.index_cast %125 : i64 to index loc(#loc132)
            %127 = arith.divui %126, %123 : index loc(#loc132)
            %128 = polygeist.typeSize f64 : index loc(#loc135)
            %129 = arith.index_cast %128 : index to i64 loc(#loc136)
            %130 = arith.muli %129, %c40_i64 : i64 loc(#loc137)
            %131 = arith.index_cast %130 : i64 to index loc(#loc135)
            %132 = arith.divui %131, %128 : index loc(#loc135)
            %133 = polygeist.typeSize f64 : index loc(#loc138)
            %134 = arith.index_cast %133 : index to i64 loc(#loc139)
            %135 = arith.muli %134, %c40_i64 : i64 loc(#loc140)
            %136 = arith.index_cast %135 : i64 to index loc(#loc138)
            %137 = arith.divui %136, %133 : index loc(#loc138)
            %138 = polygeist.typeSize f64 : index loc(#loc141)
            %139 = arith.index_cast %138 : index to i64 loc(#loc142)
            %140 = arith.muli %139, %c40_i64 : i64 loc(#loc143)
            %141 = arith.index_cast %140 : i64 to index loc(#loc141)
            %142 = arith.divui %141, %138 : index loc(#loc141)
            affine.for %arg0 loc("/home/raherrer/projects/carts/external/carts-benchmarks/specfem3d/stress/stress_update.c":110:3) = 0 to 40 {
              scf.if %true {
                scf.execute_region {
                  %143 = polygeist.subindex %11[%arg0] () : memref<?xmemref<?xmemref<?xf64>>> -> memref<?xmemref<?xmemref<?xf64>>> loc(#loc60)
                  %alloc = memref.alloc(%16) : memref<?xmemref<?xf64>> loc(#loc61)
                  affine.store %alloc, %143[0] : memref<?xmemref<?xmemref<?xf64>>> loc(#loc145)
                  scf.yield loc(#loc)
                } loc(#loc)
              } loc(#loc)
              scf.if %true {
                scf.execute_region {
                  %143 = polygeist.subindex %17[%arg0] () : memref<?xmemref<?xmemref<?xf64>>> -> memref<?xmemref<?xmemref<?xf64>>> loc(#loc64)
                  %alloc = memref.alloc(%22) : memref<?xmemref<?xf64>> loc(#loc65)
                  affine.store %alloc, %143[0] : memref<?xmemref<?xmemref<?xf64>>> loc(#loc146)
                  scf.yield loc(#loc)
                } loc(#loc)
              } loc(#loc)
              scf.if %true {
                scf.execute_region {
                  %143 = polygeist.subindex %23[%arg0] () : memref<?xmemref<?xmemref<?xf64>>> -> memref<?xmemref<?xmemref<?xf64>>> loc(#loc68)
                  %alloc = memref.alloc(%28) : memref<?xmemref<?xf64>> loc(#loc69)
                  affine.store %alloc, %143[0] : memref<?xmemref<?xmemref<?xf64>>> loc(#loc147)
                  scf.yield loc(#loc)
                } loc(#loc)
              } loc(#loc)
              scf.if %true {
                scf.execute_region {
                  %143 = polygeist.subindex %29[%arg0] () : memref<?xmemref<?xmemref<?xf64>>> -> memref<?xmemref<?xmemref<?xf64>>> loc(#loc72)
                  %alloc = memref.alloc(%34) : memref<?xmemref<?xf64>> loc(#loc73)
                  affine.store %alloc, %143[0] : memref<?xmemref<?xmemref<?xf64>>> loc(#loc148)
                  scf.yield loc(#loc)
                } loc(#loc)
              } loc(#loc)
              scf.if %true {
                scf.execute_region {
                  %143 = polygeist.subindex %35[%arg0] () : memref<?xmemref<?xmemref<?xf64>>> -> memref<?xmemref<?xmemref<?xf64>>> loc(#loc76)
                  %alloc = memref.alloc(%40) : memref<?xmemref<?xf64>> loc(#loc77)
                  affine.store %alloc, %143[0] : memref<?xmemref<?xmemref<?xf64>>> loc(#loc149)
                  scf.yield loc(#loc)
                } loc(#loc)
              } loc(#loc)
              scf.if %true {
                scf.execute_region {
                  %143 = polygeist.subindex %41[%arg0] () : memref<?xmemref<?xmemref<?xf64>>> -> memref<?xmemref<?xmemref<?xf64>>> loc(#loc80)
                  %alloc = memref.alloc(%46) : memref<?xmemref<?xf64>> loc(#loc81)
                  affine.store %alloc, %143[0] : memref<?xmemref<?xmemref<?xf64>>> loc(#loc150)
                  scf.yield loc(#loc)
                } loc(#loc)
              } loc(#loc)
              scf.if %true {
                scf.execute_region {
                  %143 = polygeist.subindex %47[%arg0] () : memref<?xmemref<?xmemref<?xf64>>> -> memref<?xmemref<?xmemref<?xf64>>> loc(#loc84)
                  %alloc = memref.alloc(%52) : memref<?xmemref<?xf64>> loc(#loc85)
                  affine.store %alloc, %143[0] : memref<?xmemref<?xmemref<?xf64>>> loc(#loc151)
                  scf.yield loc(#loc)
                } loc(#loc)
              } loc(#loc)
              scf.if %true {
                scf.execute_region {
                  %143 = polygeist.subindex %53[%arg0] () : memref<?xmemref<?xmemref<?xf64>>> -> memref<?xmemref<?xmemref<?xf64>>> loc(#loc88)
                  %alloc = memref.alloc(%58) : memref<?xmemref<?xf64>> loc(#loc89)
                  affine.store %alloc, %143[0] : memref<?xmemref<?xmemref<?xf64>>> loc(#loc152)
                  scf.yield loc(#loc)
                } loc(#loc)
              } loc(#loc)
              scf.if %true {
                scf.execute_region {
                  %143 = polygeist.subindex %59[%arg0] () : memref<?xmemref<?xmemref<?xf64>>> -> memref<?xmemref<?xmemref<?xf64>>> loc(#loc92)
                  %alloc = memref.alloc(%64) : memref<?xmemref<?xf64>> loc(#loc93)
                  affine.store %alloc, %143[0] : memref<?xmemref<?xmemref<?xf64>>> loc(#loc153)
                  scf.yield loc(#loc)
                } loc(#loc)
              } loc(#loc)
              scf.if %true {
                scf.execute_region {
                  %143 = polygeist.subindex %65[%arg0] () : memref<?xmemref<?xmemref<?xf64>>> -> memref<?xmemref<?xmemref<?xf64>>> loc(#loc96)
                  %alloc = memref.alloc(%70) : memref<?xmemref<?xf64>> loc(#loc97)
                  affine.store %alloc, %143[0] : memref<?xmemref<?xmemref<?xf64>>> loc(#loc154)
                  scf.yield loc(#loc)
                } loc(#loc)
              } loc(#loc)
              scf.if %true {
                scf.execute_region {
                  %143 = polygeist.subindex %71[%arg0] () : memref<?xmemref<?xmemref<?xf64>>> -> memref<?xmemref<?xmemref<?xf64>>> loc(#loc100)
                  %alloc = memref.alloc(%76) : memref<?xmemref<?xf64>> loc(#loc101)
                  affine.store %alloc, %143[0] : memref<?xmemref<?xmemref<?xf64>>> loc(#loc155)
                  scf.yield loc(#loc)
                } loc(#loc)
              } loc(#loc)
              scf.if %true {
                scf.execute_region {
                  %143 = polygeist.subindex %77[%arg0] () : memref<?xmemref<?xmemref<?xf64>>> -> memref<?xmemref<?xmemref<?xf64>>> loc(#loc104)
                  %alloc = memref.alloc(%82) : memref<?xmemref<?xf64>> loc(#loc105)
                  affine.store %alloc, %143[0] : memref<?xmemref<?xmemref<?xf64>>> loc(#loc156)
                  scf.yield loc(#loc)
                } loc(#loc)
              } loc(#loc)
              scf.if %true {
                scf.execute_region {
                  scf.if %true {
                    scf.execute_region {
                      %143 = polygeist.subindex %11[%arg0] () : memref<?xmemref<?xmemref<?xf64>>> -> memref<?xmemref<?xmemref<?xf64>>> loc(#loc157)
                      %144 = polygeist.subindex %17[%arg0] () : memref<?xmemref<?xmemref<?xf64>>> -> memref<?xmemref<?xmemref<?xf64>>> loc(#loc158)
                      %145 = polygeist.subindex %23[%arg0] () : memref<?xmemref<?xmemref<?xf64>>> -> memref<?xmemref<?xmemref<?xf64>>> loc(#loc159)
                      %146 = polygeist.subindex %29[%arg0] () : memref<?xmemref<?xmemref<?xf64>>> -> memref<?xmemref<?xmemref<?xf64>>> loc(#loc160)
                      %147 = polygeist.subindex %35[%arg0] () : memref<?xmemref<?xmemref<?xf64>>> -> memref<?xmemref<?xmemref<?xf64>>> loc(#loc161)
                      %148 = polygeist.subindex %41[%arg0] () : memref<?xmemref<?xmemref<?xf64>>> -> memref<?xmemref<?xmemref<?xf64>>> loc(#loc162)
                      %149 = polygeist.subindex %47[%arg0] () : memref<?xmemref<?xmemref<?xf64>>> -> memref<?xmemref<?xmemref<?xf64>>> loc(#loc163)
                      %150 = polygeist.subindex %53[%arg0] () : memref<?xmemref<?xmemref<?xf64>>> -> memref<?xmemref<?xmemref<?xf64>>> loc(#loc164)
                      %151 = polygeist.subindex %59[%arg0] () : memref<?xmemref<?xmemref<?xf64>>> -> memref<?xmemref<?xmemref<?xf64>>> loc(#loc165)
                      %152 = polygeist.subindex %65[%arg0] () : memref<?xmemref<?xmemref<?xf64>>> -> memref<?xmemref<?xmemref<?xf64>>> loc(#loc166)
                      %153 = polygeist.subindex %71[%arg0] () : memref<?xmemref<?xmemref<?xf64>>> -> memref<?xmemref<?xmemref<?xf64>>> loc(#loc167)
                      %154 = polygeist.subindex %77[%arg0] () : memref<?xmemref<?xmemref<?xf64>>> -> memref<?xmemref<?xmemref<?xf64>>> loc(#loc168)
                      affine.for %arg1 loc("/home/raherrer/projects/carts/external/carts-benchmarks/specfem3d/stress/stress_update.c":123:5) = 0 to 40 {
                        scf.if %true {
                          scf.execute_region {
                            %155 = affine.load %143[0] : memref<?xmemref<?xmemref<?xf64>>> loc(#loc157)
                            %156 = polygeist.subindex %155[%arg1] () : memref<?xmemref<?xf64>> -> memref<?xmemref<?xf64>> loc(#loc157)
                            %alloc = memref.alloc(%87) : memref<?xf64> loc(#loc108)
                            affine.store %alloc, %156[0] : memref<?xmemref<?xf64>> loc(#loc170)
                            scf.yield loc(#loc)
                          } loc(#loc)
                        } loc(#loc)
                        scf.if %true {
                          scf.execute_region {
                            %155 = affine.load %144[0] : memref<?xmemref<?xmemref<?xf64>>> loc(#loc158)
                            %156 = polygeist.subindex %155[%arg1] () : memref<?xmemref<?xf64>> -> memref<?xmemref<?xf64>> loc(#loc158)
                            %alloc = memref.alloc(%92) : memref<?xf64> loc(#loc111)
                            affine.store %alloc, %156[0] : memref<?xmemref<?xf64>> loc(#loc171)
                            scf.yield loc(#loc)
                          } loc(#loc)
                        } loc(#loc)
                        scf.if %true {
                          scf.execute_region {
                            %155 = affine.load %145[0] : memref<?xmemref<?xmemref<?xf64>>> loc(#loc159)
                            %156 = polygeist.subindex %155[%arg1] () : memref<?xmemref<?xf64>> -> memref<?xmemref<?xf64>> loc(#loc159)
                            %alloc = memref.alloc(%97) : memref<?xf64> loc(#loc114)
                            affine.store %alloc, %156[0] : memref<?xmemref<?xf64>> loc(#loc172)
                            scf.yield loc(#loc)
                          } loc(#loc)
                        } loc(#loc)
                        scf.if %true {
                          scf.execute_region {
                            %155 = affine.load %146[0] : memref<?xmemref<?xmemref<?xf64>>> loc(#loc160)
                            %156 = polygeist.subindex %155[%arg1] () : memref<?xmemref<?xf64>> -> memref<?xmemref<?xf64>> loc(#loc160)
                            %alloc = memref.alloc(%102) : memref<?xf64> loc(#loc117)
                            affine.store %alloc, %156[0] : memref<?xmemref<?xf64>> loc(#loc173)
                            scf.yield loc(#loc)
                          } loc(#loc)
                        } loc(#loc)
                        scf.if %true {
                          scf.execute_region {
                            %155 = affine.load %147[0] : memref<?xmemref<?xmemref<?xf64>>> loc(#loc161)
                            %156 = polygeist.subindex %155[%arg1] () : memref<?xmemref<?xf64>> -> memref<?xmemref<?xf64>> loc(#loc161)
                            %alloc = memref.alloc(%107) : memref<?xf64> loc(#loc120)
                            affine.store %alloc, %156[0] : memref<?xmemref<?xf64>> loc(#loc174)
                            scf.yield loc(#loc)
                          } loc(#loc)
                        } loc(#loc)
                        scf.if %true {
                          scf.execute_region {
                            %155 = affine.load %148[0] : memref<?xmemref<?xmemref<?xf64>>> loc(#loc162)
                            %156 = polygeist.subindex %155[%arg1] () : memref<?xmemref<?xf64>> -> memref<?xmemref<?xf64>> loc(#loc162)
                            %alloc = memref.alloc(%112) : memref<?xf64> loc(#loc123)
                            affine.store %alloc, %156[0] : memref<?xmemref<?xf64>> loc(#loc175)
                            scf.yield loc(#loc)
                          } loc(#loc)
                        } loc(#loc)
                        scf.if %true {
                          scf.execute_region {
                            %155 = affine.load %149[0] : memref<?xmemref<?xmemref<?xf64>>> loc(#loc163)
                            %156 = polygeist.subindex %155[%arg1] () : memref<?xmemref<?xf64>> -> memref<?xmemref<?xf64>> loc(#loc163)
                            %alloc = memref.alloc(%117) : memref<?xf64> loc(#loc126)
                            affine.store %alloc, %156[0] : memref<?xmemref<?xf64>> loc(#loc176)
                            scf.yield loc(#loc)
                          } loc(#loc)
                        } loc(#loc)
                        scf.if %true {
                          scf.execute_region {
                            %155 = affine.load %150[0] : memref<?xmemref<?xmemref<?xf64>>> loc(#loc164)
                            %156 = polygeist.subindex %155[%arg1] () : memref<?xmemref<?xf64>> -> memref<?xmemref<?xf64>> loc(#loc164)
                            %alloc = memref.alloc(%122) : memref<?xf64> loc(#loc129)
                            affine.store %alloc, %156[0] : memref<?xmemref<?xf64>> loc(#loc177)
                            scf.yield loc(#loc)
                          } loc(#loc)
                        } loc(#loc)
                        scf.if %true {
                          scf.execute_region {
                            %155 = affine.load %151[0] : memref<?xmemref<?xmemref<?xf64>>> loc(#loc165)
                            %156 = polygeist.subindex %155[%arg1] () : memref<?xmemref<?xf64>> -> memref<?xmemref<?xf64>> loc(#loc165)
                            %alloc = memref.alloc(%127) : memref<?xf64> loc(#loc132)
                            affine.store %alloc, %156[0] : memref<?xmemref<?xf64>> loc(#loc178)
                            scf.yield loc(#loc)
                          } loc(#loc)
                        } loc(#loc)
                        scf.if %true {
                          scf.execute_region {
                            %155 = affine.load %152[0] : memref<?xmemref<?xmemref<?xf64>>> loc(#loc166)
                            %156 = polygeist.subindex %155[%arg1] () : memref<?xmemref<?xf64>> -> memref<?xmemref<?xf64>> loc(#loc166)
                            %alloc = memref.alloc(%132) : memref<?xf64> loc(#loc135)
                            affine.store %alloc, %156[0] : memref<?xmemref<?xf64>> loc(#loc179)
                            scf.yield loc(#loc)
                          } loc(#loc)
                        } loc(#loc)
                        scf.if %true {
                          scf.execute_region {
                            %155 = affine.load %153[0] : memref<?xmemref<?xmemref<?xf64>>> loc(#loc167)
                            %156 = polygeist.subindex %155[%arg1] () : memref<?xmemref<?xf64>> -> memref<?xmemref<?xf64>> loc(#loc167)
                            %alloc = memref.alloc(%137) : memref<?xf64> loc(#loc138)
                            affine.store %alloc, %156[0] : memref<?xmemref<?xf64>> loc(#loc180)
                            scf.yield loc(#loc)
                          } loc(#loc)
                        } loc(#loc)
                        scf.if %true {
                          scf.execute_region {
                            %155 = affine.load %154[0] : memref<?xmemref<?xmemref<?xf64>>> loc(#loc168)
                            %156 = polygeist.subindex %155[%arg1] () : memref<?xmemref<?xf64>> -> memref<?xmemref<?xf64>> loc(#loc168)
                            %alloc = memref.alloc(%142) : memref<?xf64> loc(#loc141)
                            affine.store %alloc, %156[0] : memref<?xmemref<?xf64>> loc(#loc181)
                            scf.yield loc(#loc)
                          } loc(#loc)
                        } loc(#loc)
                      } loc(#loc169)
                      scf.yield loc(#loc)
                    } loc(#loc)
                  } loc(#loc)
                  scf.yield loc(#loc)
                } loc(#loc)
              } loc(#loc)
            } loc(#loc144)
            scf.yield loc(#loc)
          } loc(#loc)
        } loc(#loc)
        scf.yield loc(#loc)
      } loc(#loc)
    } loc(#loc)
    scf.if %true {
      scf.execute_region {
        %11 = affine.load %alloca_11[0] : memref<1xmemref<?xmemref<?xmemref<?xf64>>>> loc(#loc182)
        %12 = affine.load %alloca_10[0] : memref<1xmemref<?xmemref<?xmemref<?xf64>>>> loc(#loc183)
        %13 = affine.load %alloca_9[0] : memref<1xmemref<?xmemref<?xmemref<?xf64>>>> loc(#loc184)
        %14 = affine.load %alloca_8[0] : memref<1xmemref<?xmemref<?xmemref<?xf64>>>> loc(#loc185)
        %15 = affine.load %alloca_7[0] : memref<1xmemref<?xmemref<?xmemref<?xf64>>>> loc(#loc186)
        %16 = affine.load %alloca_6[0] : memref<1xmemref<?xmemref<?xmemref<?xf64>>>> loc(#loc187)
        %17 = affine.load %alloca_5[0] : memref<1xmemref<?xmemref<?xmemref<?xf64>>>> loc(#loc188)
        %18 = affine.load %alloca_4[0] : memref<1xmemref<?xmemref<?xmemref<?xf64>>>> loc(#loc189)
        %19 = affine.load %alloca_3[0] : memref<1xmemref<?xmemref<?xmemref<?xf64>>>> loc(#loc190)
        %20 = affine.load %alloca_2[0] : memref<1xmemref<?xmemref<?xmemref<?xf64>>>> loc(#loc191)
        %21 = affine.load %alloca_1[0] : memref<1xmemref<?xmemref<?xmemref<?xf64>>>> loc(#loc192)
        %22 = affine.load %alloca_0[0] : memref<1xmemref<?xmemref<?xmemref<?xf64>>>> loc(#loc193)
        func.call @init(%11, %12, %13, %14, %15, %16, %17, %18, %19, %20, %21, %22) : (memref<?xmemref<?xmemref<?xf64>>>, memref<?xmemref<?xmemref<?xf64>>>, memref<?xmemref<?xmemref<?xf64>>>, memref<?xmemref<?xmemref<?xf64>>>, memref<?xmemref<?xmemref<?xf64>>>, memref<?xmemref<?xmemref<?xf64>>>, memref<?xmemref<?xmemref<?xf64>>>, memref<?xmemref<?xmemref<?xf64>>>, memref<?xmemref<?xmemref<?xf64>>>, memref<?xmemref<?xmemref<?xf64>>>, memref<?xmemref<?xmemref<?xf64>>>, memref<?xmemref<?xmemref<?xf64>>>) -> () loc(#loc194)
        scf.yield loc(#loc)
      } loc(#loc)
    } loc(#loc)
    scf.if %true {
      scf.execute_region {
        %11 = polygeist.pointer2memref %2 : !llvm.ptr to memref<?xi8> loc(#loc195)
        func.call @carts_phase_timer_stop(%11) : (memref<?xi8>) -> () loc(#loc195)
        scf.yield loc(#loc)
      } loc(#loc)
    } loc(#loc)
    scf.if %true {
      scf.execute_region {
        %11 = polygeist.pointer2memref %3 : !llvm.ptr to memref<?xi8> loc(#loc196)
        func.call @carts_kernel_timer_start(%11) : (memref<?xi8>) -> () loc(#loc196)
        scf.yield loc(#loc)
      } loc(#loc)
    } loc(#loc)
    scf.if %true {
      scf.execute_region {
        scf.if %true {
          scf.execute_region {
            %11 = polygeist.pointer2memref %3 : !llvm.ptr to memref<?xi8> loc(#loc197)
            affine.for %arg0 loc("/home/raherrer/projects/carts/external/carts-benchmarks/specfem3d/stress/stress_update.c":144:3) = 0 to 1 {
              scf.if %true {
                scf.execute_region {
                  %12 = affine.load %alloca_5[0] : memref<1xmemref<?xmemref<?xmemref<?xf64>>>> loc(#loc199)
                  %13 = affine.load %alloca_4[0] : memref<1xmemref<?xmemref<?xmemref<?xf64>>>> loc(#loc200)
                  %14 = affine.load %alloca_3[0] : memref<1xmemref<?xmemref<?xmemref<?xf64>>>> loc(#loc201)
                  %15 = affine.load %alloca_2[0] : memref<1xmemref<?xmemref<?xmemref<?xf64>>>> loc(#loc202)
                  %16 = affine.load %alloca_1[0] : memref<1xmemref<?xmemref<?xmemref<?xf64>>>> loc(#loc203)
                  %17 = affine.load %alloca_0[0] : memref<1xmemref<?xmemref<?xmemref<?xf64>>>> loc(#loc204)
                  %18 = affine.load %alloca_11[0] : memref<1xmemref<?xmemref<?xmemref<?xf64>>>> loc(#loc205)
                  %19 = affine.load %alloca_10[0] : memref<1xmemref<?xmemref<?xmemref<?xf64>>>> loc(#loc206)
                  %20 = affine.load %alloca_9[0] : memref<1xmemref<?xmemref<?xmemref<?xf64>>>> loc(#loc207)
                  %21 = affine.load %alloca_7[0] : memref<1xmemref<?xmemref<?xmemref<?xf64>>>> loc(#loc208)
                  %22 = affine.load %alloca_6[0] : memref<1xmemref<?xmemref<?xmemref<?xf64>>>> loc(#loc209)
                  func.call @specfem3d_update_stress(%12, %13, %14, %15, %16, %17, %18, %19, %20, %21, %22) : (memref<?xmemref<?xmemref<?xf64>>>, memref<?xmemref<?xmemref<?xf64>>>, memref<?xmemref<?xmemref<?xf64>>>, memref<?xmemref<?xmemref<?xf64>>>, memref<?xmemref<?xmemref<?xf64>>>, memref<?xmemref<?xmemref<?xf64>>>, memref<?xmemref<?xmemref<?xf64>>>, memref<?xmemref<?xmemref<?xf64>>>, memref<?xmemref<?xmemref<?xf64>>>, memref<?xmemref<?xmemref<?xf64>>>, memref<?xmemref<?xmemref<?xf64>>>) -> () loc(#loc210)
                  scf.yield loc(#loc)
                } loc(#loc)
              } loc(#loc)
              scf.if %true {
                scf.execute_region {
                  func.call @carts_kernel_timer_accum(%11) : (memref<?xi8>) -> () loc(#loc197)
                  scf.yield loc(#loc)
                } loc(#loc)
              } loc(#loc)
            } loc(#loc198)
            scf.yield loc(#loc)
          } loc(#loc)
        } loc(#loc)
        scf.yield loc(#loc)
      } loc(#loc)
    } loc(#loc)
    scf.if %true {
      scf.execute_region {
        %11 = polygeist.pointer2memref %3 : !llvm.ptr to memref<?xi8> loc(#loc211)
        func.call @carts_kernel_timer_print(%11) : (memref<?xi8>) -> () loc(#loc211)
        scf.yield loc(#loc)
      } loc(#loc)
    } loc(#loc)
    scf.if %true {
      scf.execute_region {
        %11 = polygeist.pointer2memref %1 : !llvm.ptr to memref<?xi8> loc(#loc212)
        %12 = polygeist.pointer2memref %3 : !llvm.ptr to memref<?xi8> loc(#loc212)
        func.call @carts_phase_timer_start(%11, %12) : (memref<?xi8>, memref<?xi8>) -> () loc(#loc212)
        scf.yield loc(#loc)
      } loc(#loc)
    } loc(#loc)
    scf.if %true {
      scf.execute_region {
        scf.if %true {
          scf.execute_region {
            affine.store %cst, %alloca[0] : memref<1xf64> loc(#loc8)
            scf.yield loc(#loc)
          } loc(#loc)
        } loc(#loc)
        scf.yield loc(#loc)
      } loc(#loc)
    } loc(#loc)
    %6 = scf.if %true -> (i32) {
      %11 = scf.execute_region -> i32 {
        %12 = scf.if %true -> (i32) {
          %13 = scf.execute_region -> i32 {
            scf.yield %c40_i32 : i32 loc(#loc)
          } loc(#loc)
          scf.yield %13 : i32 loc(#loc)
        } else {
          scf.yield %4 : i32 loc(#loc)
        } loc(#loc)
        scf.yield %12 : i32 loc(#loc)
      } loc(#loc)
      scf.yield %11 : i32 loc(#loc)
    } else {
      scf.yield %4 : i32 loc(#loc)
    } loc(#loc)
    %7 = scf.if %true -> (i32) {
      %11 = scf.execute_region -> i32 {
        %12 = scf.if %true -> (i32) {
          %13 = scf.execute_region -> i32 {
            %14 = arith.cmpi sgt, %6, %c40_i32 : i32 loc(#loc213)
            %15 = scf.if %14 -> (i32) {
              scf.yield %c40_i32 : i32 loc(#loc214)
            } else {
              scf.yield %6 : i32 loc(#loc214)
            } loc(#loc214)
            scf.yield %15 : i32 loc(#loc)
          } loc(#loc)
          scf.yield %13 : i32 loc(#loc)
        } else {
          scf.yield %6 : i32 loc(#loc)
        } loc(#loc)
        scf.yield %12 : i32 loc(#loc)
      } loc(#loc)
      scf.yield %11 : i32 loc(#loc)
    } else {
      scf.yield %6 : i32 loc(#loc)
    } loc(#loc)
    %8 = scf.if %true -> (i32) {
      %11 = scf.execute_region -> i32 {
        %12 = scf.if %true -> (i32) {
          %13 = scf.execute_region -> i32 {
            %14 = arith.cmpi sgt, %7, %c40_i32 : i32 loc(#loc215)
            %15 = scf.if %14 -> (i32) {
              scf.yield %c40_i32 : i32 loc(#loc216)
            } else {
              scf.yield %7 : i32 loc(#loc216)
            } loc(#loc216)
            scf.yield %15 : i32 loc(#loc)
          } loc(#loc)
          scf.yield %13 : i32 loc(#loc)
        } else {
          scf.yield %7 : i32 loc(#loc)
        } loc(#loc)
        scf.yield %12 : i32 loc(#loc)
      } loc(#loc)
      scf.yield %11 : i32 loc(#loc)
    } else {
      scf.yield %7 : i32 loc(#loc)
    } loc(#loc)
    %9 = arith.index_cast %8 : i32 to index loc(#loc)
    scf.if %true {
      scf.execute_region {
        scf.if %true {
          scf.execute_region {
            %11 = affine.load %alloca_5[0] : memref<1xmemref<?xmemref<?xmemref<?xf64>>>> loc(#loc217)
            %12 = affine.load %alloca_4[0] : memref<1xmemref<?xmemref<?xmemref<?xf64>>>> loc(#loc218)
            %13 = affine.load %alloca_3[0] : memref<1xmemref<?xmemref<?xmemref<?xf64>>>> loc(#loc219)
            %14 = affine.load %alloca_2[0] : memref<1xmemref<?xmemref<?xmemref<?xf64>>>> loc(#loc220)
            %15 = affine.load %alloca_1[0] : memref<1xmemref<?xmemref<?xmemref<?xf64>>>> loc(#loc221)
            %16 = affine.load %alloca_0[0] : memref<1xmemref<?xmemref<?xmemref<?xf64>>>> loc(#loc222)
            affine.for %arg0 loc("/home/raherrer/projects/carts/external/carts-benchmarks/specfem3d/stress/stress_update.c":157:3) = 0 to %9 {
              scf.if %true {
                scf.execute_region {
                  %17 = polygeist.subindex %11[%arg0] () : memref<?xmemref<?xmemref<?xf64>>> -> memref<?xmemref<?xmemref<?xf64>>> loc(#loc217)
                  %18 = affine.load %17[0] : memref<?xmemref<?xmemref<?xf64>>> loc(#loc217)
                  %19 = polygeist.subindex %18[%arg0] () : memref<?xmemref<?xf64>> -> memref<?xmemref<?xf64>> loc(#loc217)
                  %20 = affine.load %19[0] : memref<?xmemref<?xf64>> loc(#loc217)
                  %21 = polygeist.subindex %20[%arg0] () : memref<?xf64> -> memref<?xf64> loc(#loc217)
                  %22 = affine.load %21[0] : memref<?xf64> loc(#loc217)
                  %23 = polygeist.subindex %12[%arg0] () : memref<?xmemref<?xmemref<?xf64>>> -> memref<?xmemref<?xmemref<?xf64>>> loc(#loc218)
                  %24 = affine.load %23[0] : memref<?xmemref<?xmemref<?xf64>>> loc(#loc218)
                  %25 = polygeist.subindex %24[%arg0] () : memref<?xmemref<?xf64>> -> memref<?xmemref<?xf64>> loc(#loc218)
                  %26 = affine.load %25[0] : memref<?xmemref<?xf64>> loc(#loc218)
                  %27 = polygeist.subindex %26[%arg0] () : memref<?xf64> -> memref<?xf64> loc(#loc218)
                  %28 = affine.load %27[0] : memref<?xf64> loc(#loc218)
                  %29 = arith.addf %22, %28 : f64 loc(#loc224)
                  %30 = polygeist.subindex %13[%arg0] () : memref<?xmemref<?xmemref<?xf64>>> -> memref<?xmemref<?xmemref<?xf64>>> loc(#loc219)
                  %31 = affine.load %30[0] : memref<?xmemref<?xmemref<?xf64>>> loc(#loc219)
                  %32 = polygeist.subindex %31[%arg0] () : memref<?xmemref<?xf64>> -> memref<?xmemref<?xf64>> loc(#loc219)
                  %33 = affine.load %32[0] : memref<?xmemref<?xf64>> loc(#loc219)
                  %34 = polygeist.subindex %33[%arg0] () : memref<?xf64> -> memref<?xf64> loc(#loc219)
                  %35 = affine.load %34[0] : memref<?xf64> loc(#loc219)
                  %36 = arith.addf %29, %35 : f64 loc(#loc225)
                  %37 = polygeist.subindex %14[%arg0] () : memref<?xmemref<?xmemref<?xf64>>> -> memref<?xmemref<?xmemref<?xf64>>> loc(#loc220)
                  %38 = affine.load %37[0] : memref<?xmemref<?xmemref<?xf64>>> loc(#loc220)
                  %39 = polygeist.subindex %38[%arg0] () : memref<?xmemref<?xf64>> -> memref<?xmemref<?xf64>> loc(#loc220)
                  %40 = affine.load %39[0] : memref<?xmemref<?xf64>> loc(#loc220)
                  %41 = polygeist.subindex %40[%arg0] () : memref<?xf64> -> memref<?xf64> loc(#loc220)
                  %42 = affine.load %41[0] : memref<?xf64> loc(#loc220)
                  %43 = arith.addf %36, %42 : f64 loc(#loc226)
                  %44 = polygeist.subindex %15[%arg0] () : memref<?xmemref<?xmemref<?xf64>>> -> memref<?xmemref<?xmemref<?xf64>>> loc(#loc221)
                  %45 = affine.load %44[0] : memref<?xmemref<?xmemref<?xf64>>> loc(#loc221)
                  %46 = polygeist.subindex %45[%arg0] () : memref<?xmemref<?xf64>> -> memref<?xmemref<?xf64>> loc(#loc221)
                  %47 = affine.load %46[0] : memref<?xmemref<?xf64>> loc(#loc221)
                  %48 = polygeist.subindex %47[%arg0] () : memref<?xf64> -> memref<?xf64> loc(#loc221)
                  %49 = affine.load %48[0] : memref<?xf64> loc(#loc221)
                  %50 = arith.addf %43, %49 : f64 loc(#loc227)
                  %51 = polygeist.subindex %16[%arg0] () : memref<?xmemref<?xmemref<?xf64>>> -> memref<?xmemref<?xmemref<?xf64>>> loc(#loc222)
                  %52 = affine.load %51[0] : memref<?xmemref<?xmemref<?xf64>>> loc(#loc222)
                  %53 = polygeist.subindex %52[%arg0] () : memref<?xmemref<?xf64>> -> memref<?xmemref<?xf64>> loc(#loc222)
                  %54 = affine.load %53[0] : memref<?xmemref<?xf64>> loc(#loc222)
                  %55 = polygeist.subindex %54[%arg0] () : memref<?xf64> -> memref<?xf64> loc(#loc222)
                  %56 = affine.load %55[0] : memref<?xf64> loc(#loc222)
                  %57 = arith.addf %50, %56 : f64 loc(#loc228)
                  %58 = affine.load %alloca[0] : memref<1xf64> loc(#loc229)
                  %59 = arith.addf %58, %57 : f64 loc(#loc229)
                  affine.store %59, %alloca[0] : memref<1xf64> loc(#loc229)
                  scf.yield loc(#loc)
                } loc(#loc)
              } loc(#loc)
            } loc(#loc223)
            scf.yield loc(#loc)
          } loc(#loc)
        } loc(#loc)
        scf.yield loc(#loc)
      } loc(#loc)
    } loc(#loc)
    scf.if %true {
      scf.execute_region {
        %11 = affine.load %alloca[0] : memref<1xf64> loc(#loc230)
        func.call @carts_bench_checksum_d(%11) : (f64) -> () loc(#loc231)
        scf.yield loc(#loc)
      } loc(#loc)
    } loc(#loc)
    scf.if %true {
      scf.execute_region {
        %11 = polygeist.pointer2memref %1 : !llvm.ptr to memref<?xi8> loc(#loc232)
        func.call @carts_phase_timer_stop(%11) : (memref<?xi8>) -> () loc(#loc232)
        scf.yield loc(#loc)
      } loc(#loc)
    } loc(#loc)
    scf.if %true {
      scf.execute_region {
        %11 = polygeist.pointer2memref %0 : !llvm.ptr to memref<?xi8> loc(#loc233)
        %12 = polygeist.pointer2memref %3 : !llvm.ptr to memref<?xi8> loc(#loc233)
        func.call @carts_phase_timer_start(%11, %12) : (memref<?xi8>, memref<?xi8>) -> () loc(#loc233)
        scf.yield loc(#loc)
      } loc(#loc)
    } loc(#loc)
    scf.if %true {
      scf.execute_region {
        scf.if %true {
          scf.execute_region {
            %11 = affine.load %alloca_11[0] : memref<1xmemref<?xmemref<?xmemref<?xf64>>>> loc(#loc234)
            %12 = affine.load %alloca_10[0] : memref<1xmemref<?xmemref<?xmemref<?xf64>>>> loc(#loc235)
            %13 = affine.load %alloca_9[0] : memref<1xmemref<?xmemref<?xmemref<?xf64>>>> loc(#loc236)
            %14 = affine.load %alloca_8[0] : memref<1xmemref<?xmemref<?xmemref<?xf64>>>> loc(#loc237)
            %15 = affine.load %alloca_7[0] : memref<1xmemref<?xmemref<?xmemref<?xf64>>>> loc(#loc238)
            %16 = affine.load %alloca_6[0] : memref<1xmemref<?xmemref<?xmemref<?xf64>>>> loc(#loc239)
            %17 = affine.load %alloca_5[0] : memref<1xmemref<?xmemref<?xmemref<?xf64>>>> loc(#loc240)
            %18 = affine.load %alloca_4[0] : memref<1xmemref<?xmemref<?xmemref<?xf64>>>> loc(#loc241)
            %19 = affine.load %alloca_3[0] : memref<1xmemref<?xmemref<?xmemref<?xf64>>>> loc(#loc242)
            %20 = affine.load %alloca_2[0] : memref<1xmemref<?xmemref<?xmemref<?xf64>>>> loc(#loc243)
            %21 = affine.load %alloca_1[0] : memref<1xmemref<?xmemref<?xmemref<?xf64>>>> loc(#loc244)
            %22 = affine.load %alloca_0[0] : memref<1xmemref<?xmemref<?xmemref<?xf64>>>> loc(#loc245)
            affine.for %arg0 loc("/home/raherrer/projects/carts/external/carts-benchmarks/specfem3d/stress/stress_update.c":168:3) = 0 to 40 {
              scf.if %true {
                scf.execute_region {
                  scf.if %true {
                    scf.execute_region {
                      %23 = polygeist.subindex %11[%arg0] () : memref<?xmemref<?xmemref<?xf64>>> -> memref<?xmemref<?xmemref<?xf64>>> loc(#loc234)
                      %24 = polygeist.subindex %12[%arg0] () : memref<?xmemref<?xmemref<?xf64>>> -> memref<?xmemref<?xmemref<?xf64>>> loc(#loc235)
                      %25 = polygeist.subindex %13[%arg0] () : memref<?xmemref<?xmemref<?xf64>>> -> memref<?xmemref<?xmemref<?xf64>>> loc(#loc236)
                      %26 = polygeist.subindex %14[%arg0] () : memref<?xmemref<?xmemref<?xf64>>> -> memref<?xmemref<?xmemref<?xf64>>> loc(#loc237)
                      %27 = polygeist.subindex %15[%arg0] () : memref<?xmemref<?xmemref<?xf64>>> -> memref<?xmemref<?xmemref<?xf64>>> loc(#loc238)
                      %28 = polygeist.subindex %16[%arg0] () : memref<?xmemref<?xmemref<?xf64>>> -> memref<?xmemref<?xmemref<?xf64>>> loc(#loc239)
                      %29 = polygeist.subindex %17[%arg0] () : memref<?xmemref<?xmemref<?xf64>>> -> memref<?xmemref<?xmemref<?xf64>>> loc(#loc240)
                      %30 = polygeist.subindex %18[%arg0] () : memref<?xmemref<?xmemref<?xf64>>> -> memref<?xmemref<?xmemref<?xf64>>> loc(#loc241)
                      %31 = polygeist.subindex %19[%arg0] () : memref<?xmemref<?xmemref<?xf64>>> -> memref<?xmemref<?xmemref<?xf64>>> loc(#loc242)
                      %32 = polygeist.subindex %20[%arg0] () : memref<?xmemref<?xmemref<?xf64>>> -> memref<?xmemref<?xmemref<?xf64>>> loc(#loc243)
                      %33 = polygeist.subindex %21[%arg0] () : memref<?xmemref<?xmemref<?xf64>>> -> memref<?xmemref<?xmemref<?xf64>>> loc(#loc244)
                      %34 = polygeist.subindex %22[%arg0] () : memref<?xmemref<?xmemref<?xf64>>> -> memref<?xmemref<?xmemref<?xf64>>> loc(#loc245)
                      affine.for %arg1 loc("/home/raherrer/projects/carts/external/carts-benchmarks/specfem3d/stress/stress_update.c":169:5) = 0 to 40 {
                        scf.if %true {
                          scf.execute_region {
                            %35 = affine.load %23[0] : memref<?xmemref<?xmemref<?xf64>>> loc(#loc234)
                            %36 = polygeist.subindex %35[%arg1] () : memref<?xmemref<?xf64>> -> memref<?xmemref<?xf64>> loc(#loc234)
                            %37 = affine.load %36[0] : memref<?xmemref<?xf64>> loc(#loc248)
                            memref.dealloc %37 : memref<?xf64> loc(#loc248)
                            scf.yield loc(#loc)
                          } loc(#loc)
                        } loc(#loc)
                        scf.if %true {
                          scf.execute_region {
                            %35 = affine.load %24[0] : memref<?xmemref<?xmemref<?xf64>>> loc(#loc235)
                            %36 = polygeist.subindex %35[%arg1] () : memref<?xmemref<?xf64>> -> memref<?xmemref<?xf64>> loc(#loc235)
                            %37 = affine.load %36[0] : memref<?xmemref<?xf64>> loc(#loc249)
                            memref.dealloc %37 : memref<?xf64> loc(#loc249)
                            scf.yield loc(#loc)
                          } loc(#loc)
                        } loc(#loc)
                        scf.if %true {
                          scf.execute_region {
                            %35 = affine.load %25[0] : memref<?xmemref<?xmemref<?xf64>>> loc(#loc236)
                            %36 = polygeist.subindex %35[%arg1] () : memref<?xmemref<?xf64>> -> memref<?xmemref<?xf64>> loc(#loc236)
                            %37 = affine.load %36[0] : memref<?xmemref<?xf64>> loc(#loc250)
                            memref.dealloc %37 : memref<?xf64> loc(#loc250)
                            scf.yield loc(#loc)
                          } loc(#loc)
                        } loc(#loc)
                        scf.if %true {
                          scf.execute_region {
                            %35 = affine.load %26[0] : memref<?xmemref<?xmemref<?xf64>>> loc(#loc237)
                            %36 = polygeist.subindex %35[%arg1] () : memref<?xmemref<?xf64>> -> memref<?xmemref<?xf64>> loc(#loc237)
                            %37 = affine.load %36[0] : memref<?xmemref<?xf64>> loc(#loc251)
                            memref.dealloc %37 : memref<?xf64> loc(#loc251)
                            scf.yield loc(#loc)
                          } loc(#loc)
                        } loc(#loc)
                        scf.if %true {
                          scf.execute_region {
                            %35 = affine.load %27[0] : memref<?xmemref<?xmemref<?xf64>>> loc(#loc238)
                            %36 = polygeist.subindex %35[%arg1] () : memref<?xmemref<?xf64>> -> memref<?xmemref<?xf64>> loc(#loc238)
                            %37 = affine.load %36[0] : memref<?xmemref<?xf64>> loc(#loc252)
                            memref.dealloc %37 : memref<?xf64> loc(#loc252)
                            scf.yield loc(#loc)
                          } loc(#loc)
                        } loc(#loc)
                        scf.if %true {
                          scf.execute_region {
                            %35 = affine.load %28[0] : memref<?xmemref<?xmemref<?xf64>>> loc(#loc239)
                            %36 = polygeist.subindex %35[%arg1] () : memref<?xmemref<?xf64>> -> memref<?xmemref<?xf64>> loc(#loc239)
                            %37 = affine.load %36[0] : memref<?xmemref<?xf64>> loc(#loc253)
                            memref.dealloc %37 : memref<?xf64> loc(#loc253)
                            scf.yield loc(#loc)
                          } loc(#loc)
                        } loc(#loc)
                        scf.if %true {
                          scf.execute_region {
                            %35 = affine.load %29[0] : memref<?xmemref<?xmemref<?xf64>>> loc(#loc240)
                            %36 = polygeist.subindex %35[%arg1] () : memref<?xmemref<?xf64>> -> memref<?xmemref<?xf64>> loc(#loc240)
                            %37 = affine.load %36[0] : memref<?xmemref<?xf64>> loc(#loc254)
                            memref.dealloc %37 : memref<?xf64> loc(#loc254)
                            scf.yield loc(#loc)
                          } loc(#loc)
                        } loc(#loc)
                        scf.if %true {
                          scf.execute_region {
                            %35 = affine.load %30[0] : memref<?xmemref<?xmemref<?xf64>>> loc(#loc241)
                            %36 = polygeist.subindex %35[%arg1] () : memref<?xmemref<?xf64>> -> memref<?xmemref<?xf64>> loc(#loc241)
                            %37 = affine.load %36[0] : memref<?xmemref<?xf64>> loc(#loc255)
                            memref.dealloc %37 : memref<?xf64> loc(#loc255)
                            scf.yield loc(#loc)
                          } loc(#loc)
                        } loc(#loc)
                        scf.if %true {
                          scf.execute_region {
                            %35 = affine.load %31[0] : memref<?xmemref<?xmemref<?xf64>>> loc(#loc242)
                            %36 = polygeist.subindex %35[%arg1] () : memref<?xmemref<?xf64>> -> memref<?xmemref<?xf64>> loc(#loc242)
                            %37 = affine.load %36[0] : memref<?xmemref<?xf64>> loc(#loc256)
                            memref.dealloc %37 : memref<?xf64> loc(#loc256)
                            scf.yield loc(#loc)
                          } loc(#loc)
                        } loc(#loc)
                        scf.if %true {
                          scf.execute_region {
                            %35 = affine.load %32[0] : memref<?xmemref<?xmemref<?xf64>>> loc(#loc243)
                            %36 = polygeist.subindex %35[%arg1] () : memref<?xmemref<?xf64>> -> memref<?xmemref<?xf64>> loc(#loc243)
                            %37 = affine.load %36[0] : memref<?xmemref<?xf64>> loc(#loc257)
                            memref.dealloc %37 : memref<?xf64> loc(#loc257)
                            scf.yield loc(#loc)
                          } loc(#loc)
                        } loc(#loc)
                        scf.if %true {
                          scf.execute_region {
                            %35 = affine.load %33[0] : memref<?xmemref<?xmemref<?xf64>>> loc(#loc244)
                            %36 = polygeist.subindex %35[%arg1] () : memref<?xmemref<?xf64>> -> memref<?xmemref<?xf64>> loc(#loc244)
                            %37 = affine.load %36[0] : memref<?xmemref<?xf64>> loc(#loc258)
                            memref.dealloc %37 : memref<?xf64> loc(#loc258)
                            scf.yield loc(#loc)
                          } loc(#loc)
                        } loc(#loc)
                        scf.if %true {
                          scf.execute_region {
                            %35 = affine.load %34[0] : memref<?xmemref<?xmemref<?xf64>>> loc(#loc245)
                            %36 = polygeist.subindex %35[%arg1] () : memref<?xmemref<?xf64>> -> memref<?xmemref<?xf64>> loc(#loc245)
                            %37 = affine.load %36[0] : memref<?xmemref<?xf64>> loc(#loc259)
                            memref.dealloc %37 : memref<?xf64> loc(#loc259)
                            scf.yield loc(#loc)
                          } loc(#loc)
                        } loc(#loc)
                      } loc(#loc247)
                      scf.yield loc(#loc)
                    } loc(#loc)
                  } loc(#loc)
                  scf.yield loc(#loc)
                } loc(#loc)
              } loc(#loc)
              scf.if %true {
                scf.execute_region {
                  %23 = polygeist.subindex %11[%arg0] () : memref<?xmemref<?xmemref<?xf64>>> -> memref<?xmemref<?xmemref<?xf64>>> loc(#loc260)
                  %24 = affine.load %23[0] : memref<?xmemref<?xmemref<?xf64>>> loc(#loc261)
                  memref.dealloc %24 : memref<?xmemref<?xf64>> loc(#loc261)
                  scf.yield loc(#loc)
                } loc(#loc)
              } loc(#loc)
              scf.if %true {
                scf.execute_region {
                  %23 = polygeist.subindex %12[%arg0] () : memref<?xmemref<?xmemref<?xf64>>> -> memref<?xmemref<?xmemref<?xf64>>> loc(#loc262)
                  %24 = affine.load %23[0] : memref<?xmemref<?xmemref<?xf64>>> loc(#loc263)
                  memref.dealloc %24 : memref<?xmemref<?xf64>> loc(#loc263)
                  scf.yield loc(#loc)
                } loc(#loc)
              } loc(#loc)
              scf.if %true {
                scf.execute_region {
                  %23 = polygeist.subindex %13[%arg0] () : memref<?xmemref<?xmemref<?xf64>>> -> memref<?xmemref<?xmemref<?xf64>>> loc(#loc264)
                  %24 = affine.load %23[0] : memref<?xmemref<?xmemref<?xf64>>> loc(#loc265)
                  memref.dealloc %24 : memref<?xmemref<?xf64>> loc(#loc265)
                  scf.yield loc(#loc)
                } loc(#loc)
              } loc(#loc)
              scf.if %true {
                scf.execute_region {
                  %23 = polygeist.subindex %14[%arg0] () : memref<?xmemref<?xmemref<?xf64>>> -> memref<?xmemref<?xmemref<?xf64>>> loc(#loc266)
                  %24 = affine.load %23[0] : memref<?xmemref<?xmemref<?xf64>>> loc(#loc267)
                  memref.dealloc %24 : memref<?xmemref<?xf64>> loc(#loc267)
                  scf.yield loc(#loc)
                } loc(#loc)
              } loc(#loc)
              scf.if %true {
                scf.execute_region {
                  %23 = polygeist.subindex %15[%arg0] () : memref<?xmemref<?xmemref<?xf64>>> -> memref<?xmemref<?xmemref<?xf64>>> loc(#loc268)
                  %24 = affine.load %23[0] : memref<?xmemref<?xmemref<?xf64>>> loc(#loc269)
                  memref.dealloc %24 : memref<?xmemref<?xf64>> loc(#loc269)
                  scf.yield loc(#loc)
                } loc(#loc)
              } loc(#loc)
              scf.if %true {
                scf.execute_region {
                  %23 = polygeist.subindex %16[%arg0] () : memref<?xmemref<?xmemref<?xf64>>> -> memref<?xmemref<?xmemref<?xf64>>> loc(#loc270)
                  %24 = affine.load %23[0] : memref<?xmemref<?xmemref<?xf64>>> loc(#loc271)
                  memref.dealloc %24 : memref<?xmemref<?xf64>> loc(#loc271)
                  scf.yield loc(#loc)
                } loc(#loc)
              } loc(#loc)
              scf.if %true {
                scf.execute_region {
                  %23 = polygeist.subindex %17[%arg0] () : memref<?xmemref<?xmemref<?xf64>>> -> memref<?xmemref<?xmemref<?xf64>>> loc(#loc272)
                  %24 = affine.load %23[0] : memref<?xmemref<?xmemref<?xf64>>> loc(#loc273)
                  memref.dealloc %24 : memref<?xmemref<?xf64>> loc(#loc273)
                  scf.yield loc(#loc)
                } loc(#loc)
              } loc(#loc)
              scf.if %true {
                scf.execute_region {
                  %23 = polygeist.subindex %18[%arg0] () : memref<?xmemref<?xmemref<?xf64>>> -> memref<?xmemref<?xmemref<?xf64>>> loc(#loc274)
                  %24 = affine.load %23[0] : memref<?xmemref<?xmemref<?xf64>>> loc(#loc275)
                  memref.dealloc %24 : memref<?xmemref<?xf64>> loc(#loc275)
                  scf.yield loc(#loc)
                } loc(#loc)
              } loc(#loc)
              scf.if %true {
                scf.execute_region {
                  %23 = polygeist.subindex %19[%arg0] () : memref<?xmemref<?xmemref<?xf64>>> -> memref<?xmemref<?xmemref<?xf64>>> loc(#loc276)
                  %24 = affine.load %23[0] : memref<?xmemref<?xmemref<?xf64>>> loc(#loc277)
                  memref.dealloc %24 : memref<?xmemref<?xf64>> loc(#loc277)
                  scf.yield loc(#loc)
                } loc(#loc)
              } loc(#loc)
              scf.if %true {
                scf.execute_region {
                  %23 = polygeist.subindex %20[%arg0] () : memref<?xmemref<?xmemref<?xf64>>> -> memref<?xmemref<?xmemref<?xf64>>> loc(#loc278)
                  %24 = affine.load %23[0] : memref<?xmemref<?xmemref<?xf64>>> loc(#loc279)
                  memref.dealloc %24 : memref<?xmemref<?xf64>> loc(#loc279)
                  scf.yield loc(#loc)
                } loc(#loc)
              } loc(#loc)
              scf.if %true {
                scf.execute_region {
                  %23 = polygeist.subindex %21[%arg0] () : memref<?xmemref<?xmemref<?xf64>>> -> memref<?xmemref<?xmemref<?xf64>>> loc(#loc280)
                  %24 = affine.load %23[0] : memref<?xmemref<?xmemref<?xf64>>> loc(#loc281)
                  memref.dealloc %24 : memref<?xmemref<?xf64>> loc(#loc281)
                  scf.yield loc(#loc)
                } loc(#loc)
              } loc(#loc)
              scf.if %true {
                scf.execute_region {
                  %23 = polygeist.subindex %22[%arg0] () : memref<?xmemref<?xmemref<?xf64>>> -> memref<?xmemref<?xmemref<?xf64>>> loc(#loc282)
                  %24 = affine.load %23[0] : memref<?xmemref<?xmemref<?xf64>>> loc(#loc283)
                  memref.dealloc %24 : memref<?xmemref<?xf64>> loc(#loc283)
                  scf.yield loc(#loc)
                } loc(#loc)
              } loc(#loc)
            } loc(#loc246)
            scf.yield loc(#loc)
          } loc(#loc)
        } loc(#loc)
        scf.yield loc(#loc)
      } loc(#loc)
    } loc(#loc)
    scf.if %true {
      scf.execute_region {
        %11 = affine.load %alloca_11[0] : memref<1xmemref<?xmemref<?xmemref<?xf64>>>> loc(#loc284)
        memref.dealloc %11 : memref<?xmemref<?xmemref<?xf64>>> loc(#loc284)
        scf.yield loc(#loc)
      } loc(#loc)
    } loc(#loc)
    scf.if %true {
      scf.execute_region {
        %11 = affine.load %alloca_10[0] : memref<1xmemref<?xmemref<?xmemref<?xf64>>>> loc(#loc285)
        memref.dealloc %11 : memref<?xmemref<?xmemref<?xf64>>> loc(#loc285)
        scf.yield loc(#loc)
      } loc(#loc)
    } loc(#loc)
    scf.if %true {
      scf.execute_region {
        %11 = affine.load %alloca_9[0] : memref<1xmemref<?xmemref<?xmemref<?xf64>>>> loc(#loc286)
        memref.dealloc %11 : memref<?xmemref<?xmemref<?xf64>>> loc(#loc286)
        scf.yield loc(#loc)
      } loc(#loc)
    } loc(#loc)
    scf.if %true {
      scf.execute_region {
        %11 = affine.load %alloca_8[0] : memref<1xmemref<?xmemref<?xmemref<?xf64>>>> loc(#loc287)
        memref.dealloc %11 : memref<?xmemref<?xmemref<?xf64>>> loc(#loc287)
        scf.yield loc(#loc)
      } loc(#loc)
    } loc(#loc)
    scf.if %true {
      scf.execute_region {
        %11 = affine.load %alloca_7[0] : memref<1xmemref<?xmemref<?xmemref<?xf64>>>> loc(#loc288)
        memref.dealloc %11 : memref<?xmemref<?xmemref<?xf64>>> loc(#loc288)
        scf.yield loc(#loc)
      } loc(#loc)
    } loc(#loc)
    scf.if %true {
      scf.execute_region {
        %11 = affine.load %alloca_6[0] : memref<1xmemref<?xmemref<?xmemref<?xf64>>>> loc(#loc289)
        memref.dealloc %11 : memref<?xmemref<?xmemref<?xf64>>> loc(#loc289)
        scf.yield loc(#loc)
      } loc(#loc)
    } loc(#loc)
    scf.if %true {
      scf.execute_region {
        %11 = affine.load %alloca_5[0] : memref<1xmemref<?xmemref<?xmemref<?xf64>>>> loc(#loc290)
        memref.dealloc %11 : memref<?xmemref<?xmemref<?xf64>>> loc(#loc290)
        scf.yield loc(#loc)
      } loc(#loc)
    } loc(#loc)
    scf.if %true {
      scf.execute_region {
        %11 = affine.load %alloca_4[0] : memref<1xmemref<?xmemref<?xmemref<?xf64>>>> loc(#loc291)
        memref.dealloc %11 : memref<?xmemref<?xmemref<?xf64>>> loc(#loc291)
        scf.yield loc(#loc)
      } loc(#loc)
    } loc(#loc)
    scf.if %true {
      scf.execute_region {
        %11 = affine.load %alloca_3[0] : memref<1xmemref<?xmemref<?xmemref<?xf64>>>> loc(#loc292)
        memref.dealloc %11 : memref<?xmemref<?xmemref<?xf64>>> loc(#loc292)
        scf.yield loc(#loc)
      } loc(#loc)
    } loc(#loc)
    scf.if %true {
      scf.execute_region {
        %11 = affine.load %alloca_2[0] : memref<1xmemref<?xmemref<?xmemref<?xf64>>>> loc(#loc293)
        memref.dealloc %11 : memref<?xmemref<?xmemref<?xf64>>> loc(#loc293)
        scf.yield loc(#loc)
      } loc(#loc)
    } loc(#loc)
    scf.if %true {
      scf.execute_region {
        %11 = affine.load %alloca_1[0] : memref<1xmemref<?xmemref<?xmemref<?xf64>>>> loc(#loc294)
        memref.dealloc %11 : memref<?xmemref<?xmemref<?xf64>>> loc(#loc294)
        scf.yield loc(#loc)
      } loc(#loc)
    } loc(#loc)
    scf.if %true {
      scf.execute_region {
        %11 = affine.load %alloca_0[0] : memref<1xmemref<?xmemref<?xmemref<?xf64>>>> loc(#loc295)
        memref.dealloc %11 : memref<?xmemref<?xmemref<?xf64>>> loc(#loc295)
        scf.yield loc(#loc)
      } loc(#loc)
    } loc(#loc)
    scf.if %true {
      scf.execute_region {
        %11 = polygeist.pointer2memref %0 : !llvm.ptr to memref<?xi8> loc(#loc296)
        func.call @carts_phase_timer_stop(%11) : (memref<?xi8>) -> () loc(#loc296)
        scf.yield loc(#loc)
      } loc(#loc)
    } loc(#loc)
    scf.if %true {
      scf.execute_region {
        func.call @carts_e2e_timer_stop() : () -> () loc(#loc297)
        scf.yield loc(#loc)
      } loc(#loc)
    } loc(#loc)
    %10 = scf.if %true -> (i32) {
      %11 = scf.execute_region -> i32 {
        %12 = scf.if %true -> (i32) {
          %13 = scf.execute_region -> i32 {
            scf.yield %c0_i32 : i32 loc(#loc)
          } loc(#loc)
          scf.yield %13 : i32 loc(#loc)
        } else {
          scf.yield %4 : i32 loc(#loc)
        } loc(#loc)
        scf.yield %12 : i32 loc(#loc)
      } loc(#loc)
      scf.yield %11 : i32 loc(#loc)
    } else {
      scf.yield %4 : i32 loc(#loc)
    } loc(#loc)
    return %10 : i32 loc(#loc298)
  } loc(#loc5)
  func.func private @carts_benchmarks_start() attributes {llvm.linkage = #llvm.linkage<external>} loc(#loc299)
  func.func private @carts_e2e_timer_start(memref<?xi8>) attributes {llvm.linkage = #llvm.linkage<external>} loc(#loc300)
  func.func private @carts_phase_timer_start(memref<?xi8>, memref<?xi8>) attributes {llvm.linkage = #llvm.linkage<external>} loc(#loc301)
  func.func private @init(%arg0: memref<?xmemref<?xmemref<?xf64>>> loc("/home/raherrer/projects/carts/external/carts-benchmarks/specfem3d/stress/stress_update.c":22:13), %arg1: memref<?xmemref<?xmemref<?xf64>>> loc("/home/raherrer/projects/carts/external/carts-benchmarks/specfem3d/stress/stress_update.c":22:13), %arg2: memref<?xmemref<?xmemref<?xf64>>> loc("/home/raherrer/projects/carts/external/carts-benchmarks/specfem3d/stress/stress_update.c":22:13), %arg3: memref<?xmemref<?xmemref<?xf64>>> loc("/home/raherrer/projects/carts/external/carts-benchmarks/specfem3d/stress/stress_update.c":22:13), %arg4: memref<?xmemref<?xmemref<?xf64>>> loc("/home/raherrer/projects/carts/external/carts-benchmarks/specfem3d/stress/stress_update.c":22:13), %arg5: memref<?xmemref<?xmemref<?xf64>>> loc("/home/raherrer/projects/carts/external/carts-benchmarks/specfem3d/stress/stress_update.c":22:13), %arg6: memref<?xmemref<?xmemref<?xf64>>> loc("/home/raherrer/projects/carts/external/carts-benchmarks/specfem3d/stress/stress_update.c":22:13), %arg7: memref<?xmemref<?xmemref<?xf64>>> loc("/home/raherrer/projects/carts/external/carts-benchmarks/specfem3d/stress/stress_update.c":22:13), %arg8: memref<?xmemref<?xmemref<?xf64>>> loc("/home/raherrer/projects/carts/external/carts-benchmarks/specfem3d/stress/stress_update.c":22:13), %arg9: memref<?xmemref<?xmemref<?xf64>>> loc("/home/raherrer/projects/carts/external/carts-benchmarks/specfem3d/stress/stress_update.c":22:13), %arg10: memref<?xmemref<?xmemref<?xf64>>> loc("/home/raherrer/projects/carts/external/carts-benchmarks/specfem3d/stress/stress_update.c":22:13), %arg11: memref<?xmemref<?xmemref<?xf64>>> loc("/home/raherrer/projects/carts/external/carts-benchmarks/specfem3d/stress/stress_update.c":22:13)) attributes {llvm.linkage = #llvm.linkage<internal>} {
    %c1 = arith.constant 1 : index loc(#loc)
    %c0 = arith.constant 0 : index loc(#loc)
    %c40 = arith.constant 40 : index loc(#loc)
    %c1_i32 = arith.constant 1 : i32 loc(#loc)
    %cst = arith.constant 0.000000e+00 : f64 loc(#loc)
    %c13_i32 = arith.constant 13 : i32 loc(#loc)
    %cst_0 = arith.constant 4.000000e-02 : f64 loc(#loc)
    %cst_1 = arith.constant 2.000000e+01 : f64 loc(#loc)
    %c11_i32 = arith.constant 11 : i32 loc(#loc)
    %cst_2 = arith.constant 5.000000e-02 : f64 loc(#loc)
    %cst_3 = arith.constant 3.000000e+01 : f64 loc(#loc)
    %c7_i32 = arith.constant 7 : i32 loc(#loc)
    %cst_4 = arith.constant 2.500000e+03 : f64 loc(#loc)
    %c23_i32 = arith.constant 23 : i32 loc(#loc)
    %c5_i32 = arith.constant 5 : i32 loc(#loc)
    %cst_5 = arith.constant 8.000000e-04 : f64 loc(#loc)
    %c19_i32 = arith.constant 19 : i32 loc(#loc)
    %c3_i32 = arith.constant 3 : i32 loc(#loc)
    %cst_6 = arith.constant 1.500000e-03 : f64 loc(#loc)
    %c17_i32 = arith.constant 17 : i32 loc(#loc)
    %cst_7 = arith.constant 1.000000e-03 : f64 loc(#loc)
    %c0_i32 = arith.constant 0 : i32 loc(#loc)
    %true = arith.constant true loc(#loc303)
    %0 = "polygeist.undef"() : () -> i32 loc(#loc304)
    %alloca = memref.alloca() : memref<1xi32> loc(#loc305)
    affine.store %0, %alloca[0] : memref<1xi32> loc(#loc305)
    scf.if %true {
      scf.execute_region {
        scf.if %true {
          scf.execute_region {
            affine.store %c0_i32, %alloca[0] : memref<1xi32> loc(#loc305)
            scf.yield loc(#loc)
          } loc(#loc)
        } loc(#loc)
        scf.yield loc(#loc)
      } loc(#loc)
    } loc(#loc)
    scf.if %true {
      scf.execute_region {
        scf.if %true {
          scf.execute_region {
            affine.for %arg12 loc("/home/raherrer/projects/carts/external/carts-benchmarks/specfem3d/stress/stress_update.c":26:3) = 0 to 40 {
              scf.if %true {
                scf.execute_region {
                  scf.if %true {
                    scf.execute_region {
                      %1 = polygeist.subindex %arg0[%arg12] () : memref<?xmemref<?xmemref<?xf64>>> -> memref<?xmemref<?xmemref<?xf64>>> loc(#loc307)
                      %2 = polygeist.subindex %arg1[%arg12] () : memref<?xmemref<?xmemref<?xf64>>> -> memref<?xmemref<?xmemref<?xf64>>> loc(#loc308)
                      %3 = polygeist.subindex %arg2[%arg12] () : memref<?xmemref<?xmemref<?xf64>>> -> memref<?xmemref<?xmemref<?xf64>>> loc(#loc309)
                      %4 = polygeist.subindex %arg3[%arg12] () : memref<?xmemref<?xmemref<?xf64>>> -> memref<?xmemref<?xmemref<?xf64>>> loc(#loc310)
                      %5 = polygeist.subindex %arg4[%arg12] () : memref<?xmemref<?xmemref<?xf64>>> -> memref<?xmemref<?xmemref<?xf64>>> loc(#loc311)
                      %6 = polygeist.subindex %arg5[%arg12] () : memref<?xmemref<?xmemref<?xf64>>> -> memref<?xmemref<?xmemref<?xf64>>> loc(#loc312)
                      %7 = polygeist.subindex %arg6[%arg12] () : memref<?xmemref<?xmemref<?xf64>>> -> memref<?xmemref<?xmemref<?xf64>>> loc(#loc313)
                      %8 = polygeist.subindex %arg7[%arg12] () : memref<?xmemref<?xmemref<?xf64>>> -> memref<?xmemref<?xmemref<?xf64>>> loc(#loc314)
                      %9 = polygeist.subindex %arg8[%arg12] () : memref<?xmemref<?xmemref<?xf64>>> -> memref<?xmemref<?xmemref<?xf64>>> loc(#loc315)
                      %10 = polygeist.subindex %arg9[%arg12] () : memref<?xmemref<?xmemref<?xf64>>> -> memref<?xmemref<?xmemref<?xf64>>> loc(#loc316)
                      %11 = polygeist.subindex %arg10[%arg12] () : memref<?xmemref<?xmemref<?xf64>>> -> memref<?xmemref<?xmemref<?xf64>>> loc(#loc317)
                      %12 = polygeist.subindex %arg11[%arg12] () : memref<?xmemref<?xmemref<?xf64>>> -> memref<?xmemref<?xmemref<?xf64>>> loc(#loc318)
                      affine.for %arg13 loc("/home/raherrer/projects/carts/external/carts-benchmarks/specfem3d/stress/stress_update.c":27:5) = 0 to 40 {
                        scf.if %true {
                          scf.execute_region {
                            scf.if %true {
                              scf.execute_region {
                                scf.for %arg14 = %c0 to %c40 step %c1 {
                                  scf.if %true {
                                    scf.execute_region {
                                      %13 = affine.load %1[0] : memref<?xmemref<?xmemref<?xf64>>> loc(#loc307)
                                      %14 = polygeist.subindex %13[%arg13] () : memref<?xmemref<?xf64>> -> memref<?xmemref<?xf64>> loc(#loc307)
                                      %15 = affine.load %14[0] : memref<?xmemref<?xf64>> loc(#loc307)
                                      %16 = polygeist.subindex %15[%arg14] () : memref<?xf64> -> memref<?xf64> loc(#loc307)
                                      %17 = affine.load %alloca[0] : memref<1xi32> loc(#loc321)
                                      %18 = arith.remsi %17, %c17_i32 : i32 loc(#loc322)
                                      %19 = arith.sitofp %18 : i32 to f64 loc(#loc323)
                                      %20 = arith.mulf %19, %cst_7 : f64 loc(#loc324)
                                      affine.store %20, %16[0] : memref<?xf64> loc(#loc325)
                                      scf.yield loc(#loc)
                                    } loc(#loc)
                                  } loc(#loc)
                                  scf.if %true {
                                    scf.execute_region {
                                      %13 = affine.load %2[0] : memref<?xmemref<?xmemref<?xf64>>> loc(#loc308)
                                      %14 = polygeist.subindex %13[%arg13] () : memref<?xmemref<?xf64>> -> memref<?xmemref<?xf64>> loc(#loc308)
                                      %15 = affine.load %14[0] : memref<?xmemref<?xf64>> loc(#loc308)
                                      %16 = polygeist.subindex %15[%arg14] () : memref<?xf64> -> memref<?xf64> loc(#loc308)
                                      %17 = affine.load %alloca[0] : memref<1xi32> loc(#loc326)
                                      %18 = arith.muli %17, %c3_i32 : i32 loc(#loc327)
                                      %19 = arith.remsi %18, %c19_i32 : i32 loc(#loc328)
                                      %20 = arith.sitofp %19 : i32 to f64 loc(#loc329)
                                      %21 = arith.mulf %20, %cst_6 : f64 loc(#loc330)
                                      affine.store %21, %16[0] : memref<?xf64> loc(#loc331)
                                      scf.yield loc(#loc)
                                    } loc(#loc)
                                  } loc(#loc)
                                  scf.if %true {
                                    scf.execute_region {
                                      %13 = affine.load %3[0] : memref<?xmemref<?xmemref<?xf64>>> loc(#loc309)
                                      %14 = polygeist.subindex %13[%arg13] () : memref<?xmemref<?xf64>> -> memref<?xmemref<?xf64>> loc(#loc309)
                                      %15 = affine.load %14[0] : memref<?xmemref<?xf64>> loc(#loc309)
                                      %16 = polygeist.subindex %15[%arg14] () : memref<?xf64> -> memref<?xf64> loc(#loc309)
                                      %17 = affine.load %alloca[0] : memref<1xi32> loc(#loc332)
                                      %18 = arith.muli %17, %c5_i32 : i32 loc(#loc333)
                                      %19 = arith.remsi %18, %c23_i32 : i32 loc(#loc334)
                                      %20 = arith.sitofp %19 : i32 to f64 loc(#loc335)
                                      %21 = arith.mulf %20, %cst_5 : f64 loc(#loc336)
                                      affine.store %21, %16[0] : memref<?xf64> loc(#loc337)
                                      scf.yield loc(#loc)
                                    } loc(#loc)
                                  } loc(#loc)
                                  scf.if %true {
                                    scf.execute_region {
                                      %13 = affine.load %4[0] : memref<?xmemref<?xmemref<?xf64>>> loc(#loc310)
                                      %14 = polygeist.subindex %13[%arg13] () : memref<?xmemref<?xf64>> -> memref<?xmemref<?xf64>> loc(#loc310)
                                      %15 = affine.load %14[0] : memref<?xmemref<?xf64>> loc(#loc310)
                                      %16 = polygeist.subindex %15[%arg14] () : memref<?xf64> -> memref<?xf64> loc(#loc310)
                                      %17 = affine.load %alloca[0] : memref<1xi32> loc(#loc338)
                                      %18 = arith.remsi %17, %c7_i32 : i32 loc(#loc339)
                                      %19 = arith.sitofp %18 : i32 to f64 loc(#loc340)
                                      %20 = arith.addf %19, %cst_4 : f64 loc(#loc341)
                                      affine.store %20, %16[0] : memref<?xf64> loc(#loc342)
                                      scf.yield loc(#loc)
                                    } loc(#loc)
                                  } loc(#loc)
                                  scf.if %true {
                                    scf.execute_region {
                                      %13 = affine.load %5[0] : memref<?xmemref<?xmemref<?xf64>>> loc(#loc311)
                                      %14 = polygeist.subindex %13[%arg13] () : memref<?xmemref<?xf64>> -> memref<?xmemref<?xf64>> loc(#loc311)
                                      %15 = affine.load %14[0] : memref<?xmemref<?xf64>> loc(#loc311)
                                      %16 = polygeist.subindex %15[%arg14] () : memref<?xf64> -> memref<?xf64> loc(#loc311)
                                      %17 = affine.load %alloca[0] : memref<1xi32> loc(#loc343)
                                      %18 = arith.remsi %17, %c11_i32 : i32 loc(#loc344)
                                      %19 = arith.sitofp %18 : i32 to f64 loc(#loc345)
                                      %20 = arith.mulf %19, %cst_2 : f64 loc(#loc346)
                                      %21 = arith.addf %20, %cst_3 : f64 loc(#loc347)
                                      affine.store %21, %16[0] : memref<?xf64> loc(#loc348)
                                      scf.yield loc(#loc)
                                    } loc(#loc)
                                  } loc(#loc)
                                  scf.if %true {
                                    scf.execute_region {
                                      %13 = affine.load %6[0] : memref<?xmemref<?xmemref<?xf64>>> loc(#loc312)
                                      %14 = polygeist.subindex %13[%arg13] () : memref<?xmemref<?xf64>> -> memref<?xmemref<?xf64>> loc(#loc312)
                                      %15 = affine.load %14[0] : memref<?xmemref<?xf64>> loc(#loc312)
                                      %16 = polygeist.subindex %15[%arg14] () : memref<?xf64> -> memref<?xf64> loc(#loc312)
                                      %17 = affine.load %alloca[0] : memref<1xi32> loc(#loc349)
                                      %18 = arith.remsi %17, %c13_i32 : i32 loc(#loc350)
                                      %19 = arith.sitofp %18 : i32 to f64 loc(#loc351)
                                      %20 = arith.mulf %19, %cst_0 : f64 loc(#loc352)
                                      %21 = arith.addf %20, %cst_1 : f64 loc(#loc353)
                                      affine.store %21, %16[0] : memref<?xf64> loc(#loc354)
                                      scf.yield loc(#loc)
                                    } loc(#loc)
                                  } loc(#loc)
                                  scf.if %true {
                                    scf.execute_region {
                                      %13 = affine.load %7[0] : memref<?xmemref<?xmemref<?xf64>>> loc(#loc313)
                                      %14 = polygeist.subindex %13[%arg13] () : memref<?xmemref<?xf64>> -> memref<?xmemref<?xf64>> loc(#loc313)
                                      %15 = affine.load %14[0] : memref<?xmemref<?xf64>> loc(#loc313)
                                      %16 = polygeist.subindex %15[%arg14] () : memref<?xf64> -> memref<?xf64> loc(#loc313)
                                      %17 = affine.load %8[0] : memref<?xmemref<?xmemref<?xf64>>> loc(#loc314)
                                      %18 = polygeist.subindex %17[%arg13] () : memref<?xmemref<?xf64>> -> memref<?xmemref<?xf64>> loc(#loc314)
                                      %19 = affine.load %18[0] : memref<?xmemref<?xf64>> loc(#loc314)
                                      %20 = polygeist.subindex %19[%arg14] () : memref<?xf64> -> memref<?xf64> loc(#loc314)
                                      %21 = affine.load %9[0] : memref<?xmemref<?xmemref<?xf64>>> loc(#loc315)
                                      %22 = polygeist.subindex %21[%arg13] () : memref<?xmemref<?xf64>> -> memref<?xmemref<?xf64>> loc(#loc315)
                                      %23 = affine.load %22[0] : memref<?xmemref<?xf64>> loc(#loc315)
                                      %24 = polygeist.subindex %23[%arg14] () : memref<?xf64> -> memref<?xf64> loc(#loc315)
                                      %25 = affine.load %10[0] : memref<?xmemref<?xmemref<?xf64>>> loc(#loc316)
                                      %26 = polygeist.subindex %25[%arg13] () : memref<?xmemref<?xf64>> -> memref<?xmemref<?xf64>> loc(#loc316)
                                      %27 = affine.load %26[0] : memref<?xmemref<?xf64>> loc(#loc316)
                                      %28 = polygeist.subindex %27[%arg14] () : memref<?xf64> -> memref<?xf64> loc(#loc316)
                                      %29 = affine.load %11[0] : memref<?xmemref<?xmemref<?xf64>>> loc(#loc317)
                                      %30 = polygeist.subindex %29[%arg13] () : memref<?xmemref<?xf64>> -> memref<?xmemref<?xf64>> loc(#loc317)
                                      %31 = affine.load %30[0] : memref<?xmemref<?xf64>> loc(#loc317)
                                      %32 = polygeist.subindex %31[%arg14] () : memref<?xf64> -> memref<?xf64> loc(#loc317)
                                      %33 = affine.load %12[0] : memref<?xmemref<?xmemref<?xf64>>> loc(#loc318)
                                      %34 = polygeist.subindex %33[%arg13] () : memref<?xmemref<?xf64>> -> memref<?xmemref<?xf64>> loc(#loc318)
                                      %35 = affine.load %34[0] : memref<?xmemref<?xf64>> loc(#loc318)
                                      %36 = polygeist.subindex %35[%arg14] () : memref<?xf64> -> memref<?xf64> loc(#loc318)
                                      affine.store %cst, %36[0] : memref<?xf64> loc(#loc355)
                                      affine.store %cst, %32[0] : memref<?xf64> loc(#loc356)
                                      affine.store %cst, %28[0] : memref<?xf64> loc(#loc357)
                                      affine.store %cst, %24[0] : memref<?xf64> loc(#loc358)
                                      affine.store %cst, %20[0] : memref<?xf64> loc(#loc359)
                                      affine.store %cst, %16[0] : memref<?xf64> loc(#loc360)
                                      scf.yield loc(#loc)
                                    } loc(#loc)
                                  } loc(#loc)
                                  scf.if %true {
                                    scf.execute_region {
                                      %13 = affine.load %alloca[0] : memref<1xi32> loc(#loc361)
                                      %14 = arith.addi %13, %c1_i32 : i32 loc(#loc361)
                                      affine.store %14, %alloca[0] : memref<1xi32> loc(#loc361)
                                      scf.yield loc(#loc)
                                    } loc(#loc)
                                  } loc(#loc)
                                } loc(#loc320)
                                scf.yield loc(#loc)
                              } loc(#loc)
                            } loc(#loc)
                            scf.yield loc(#loc)
                          } loc(#loc)
                        } loc(#loc)
                      } loc(#loc319)
                      scf.yield loc(#loc)
                    } loc(#loc)
                  } loc(#loc)
                  scf.yield loc(#loc)
                } loc(#loc)
              } loc(#loc)
            } loc(#loc306)
            scf.yield loc(#loc)
          } loc(#loc)
        } loc(#loc)
        scf.yield loc(#loc)
      } loc(#loc)
    } loc(#loc)
    return loc(#loc362)
  } loc(#loc302)
  func.func private @carts_phase_timer_stop(memref<?xi8>) attributes {llvm.linkage = #llvm.linkage<external>} loc(#loc363)
  func.func private @carts_kernel_timer_start(memref<?xi8>) attributes {llvm.linkage = #llvm.linkage<external>} loc(#loc364)
  func.func private @specfem3d_update_stress(%arg0: memref<?xmemref<?xmemref<?xf64>>> loc("/home/raherrer/projects/carts/external/carts-benchmarks/specfem3d/stress/stress_update.c":55:13), %arg1: memref<?xmemref<?xmemref<?xf64>>> loc("/home/raherrer/projects/carts/external/carts-benchmarks/specfem3d/stress/stress_update.c":55:13), %arg2: memref<?xmemref<?xmemref<?xf64>>> loc("/home/raherrer/projects/carts/external/carts-benchmarks/specfem3d/stress/stress_update.c":55:13), %arg3: memref<?xmemref<?xmemref<?xf64>>> loc("/home/raherrer/projects/carts/external/carts-benchmarks/specfem3d/stress/stress_update.c":55:13), %arg4: memref<?xmemref<?xmemref<?xf64>>> loc("/home/raherrer/projects/carts/external/carts-benchmarks/specfem3d/stress/stress_update.c":55:13), %arg5: memref<?xmemref<?xmemref<?xf64>>> loc("/home/raherrer/projects/carts/external/carts-benchmarks/specfem3d/stress/stress_update.c":55:13), %arg6: memref<?xmemref<?xmemref<?xf64>>> loc("/home/raherrer/projects/carts/external/carts-benchmarks/specfem3d/stress/stress_update.c":55:13), %arg7: memref<?xmemref<?xmemref<?xf64>>> loc("/home/raherrer/projects/carts/external/carts-benchmarks/specfem3d/stress/stress_update.c":55:13), %arg8: memref<?xmemref<?xmemref<?xf64>>> loc("/home/raherrer/projects/carts/external/carts-benchmarks/specfem3d/stress/stress_update.c":55:13), %arg9: memref<?xmemref<?xmemref<?xf64>>> loc("/home/raherrer/projects/carts/external/carts-benchmarks/specfem3d/stress/stress_update.c":55:13), %arg10: memref<?xmemref<?xmemref<?xf64>>> loc("/home/raherrer/projects/carts/external/carts-benchmarks/specfem3d/stress/stress_update.c":55:13)) attributes {llvm.linkage = #llvm.linkage<internal>} {
    %cst = arith.constant 1.000000e-03 : f64 loc(#loc)
    %cst_0 = arith.constant 2.000000e+00 : f64 loc(#loc)
    %true = arith.constant true loc(#loc366)
    %alloca = memref.alloca() : memref<1xf64> loc(#loc367)
    %0 = "polygeist.undef"() : () -> f64 loc(#loc367)
    affine.store %0, %alloca[0] : memref<1xf64> loc(#loc367)
    %alloca_1 = memref.alloca() : memref<1xf64> loc(#loc368)
    affine.store %0, %alloca_1[0] : memref<1xf64> loc(#loc368)
    %alloca_2 = memref.alloca() : memref<1xf64> loc(#loc369)
    affine.store %0, %alloca_2[0] : memref<1xf64> loc(#loc369)
    %alloca_3 = memref.alloca() : memref<1xf64> loc(#loc370)
    affine.store %0, %alloca_3[0] : memref<1xf64> loc(#loc370)
    %alloca_4 = memref.alloca() : memref<1xf64> loc(#loc371)
    affine.store %0, %alloca_4[0] : memref<1xf64> loc(#loc371)
    %alloca_5 = memref.alloca() : memref<1xf64> loc(#loc372)
    affine.store %0, %alloca_5[0] : memref<1xf64> loc(#loc372)
    %alloca_6 = memref.alloca() : memref<1xf64> loc(#loc373)
    affine.store %0, %alloca_6[0] : memref<1xf64> loc(#loc373)
    scf.if %true {
      scf.execute_region {
        scf.if %true {
          scf.execute_region {
            affine.for %arg11 loc("/home/raherrer/projects/carts/external/carts-benchmarks/specfem3d/stress/stress_update.c":61:3) = 2 to 38 {
              %1 = arith.index_cast %arg11 : index to i32 loc(#loc374)
              scf.if %true {
                scf.execute_region {
                  scf.if %true {
                    scf.execute_region {
                      affine.for %arg12 loc("/home/raherrer/projects/carts/external/carts-benchmarks/specfem3d/stress/stress_update.c":62:5) = 2 to 38 {
                        %2 = arith.index_cast %arg12 : index to i32 loc(#loc375)
                        scf.if %true {
                          scf.execute_region {
                            scf.if %true {
                              scf.execute_region {
                                affine.for %arg13 loc("/home/raherrer/projects/carts/external/carts-benchmarks/specfem3d/stress/stress_update.c":63:7) = 2 to 38 {
                                  %3 = arith.index_cast %arg13 : index to i32 loc(#loc376)
                                  scf.if %true {
                                    scf.execute_region {
                                      scf.if %true {
                                        %4 = scf.execute_region -> f64 {
                                          %5 = polygeist.subindex %arg9[%arg13] () : memref<?xmemref<?xmemref<?xf64>>> -> memref<?xmemref<?xmemref<?xf64>>> loc(#loc377)
                                          %6 = affine.load %5[0] : memref<?xmemref<?xmemref<?xf64>>> loc(#loc377)
                                          %7 = polygeist.subindex %6[%arg12] () : memref<?xmemref<?xf64>> -> memref<?xmemref<?xf64>> loc(#loc377)
                                          %8 = affine.load %7[0] : memref<?xmemref<?xf64>> loc(#loc377)
                                          %9 = polygeist.subindex %8[%arg11] () : memref<?xf64> -> memref<?xf64> loc(#loc377)
                                          %10 = affine.load %9[0] : memref<?xf64> loc(#loc377)
                                          affine.store %10, %alloca_6[0] : memref<1xf64> loc(#loc373)
                                          scf.yield %10 : f64 loc(#loc)
                                        } loc(#loc)
                                      } loc(#loc)
                                      scf.yield loc(#loc)
                                    } loc(#loc)
                                  } loc(#loc)
                                  scf.if %true {
                                    scf.execute_region {
                                      scf.if %true {
                                        %4 = scf.execute_region -> f64 {
                                          %5 = polygeist.subindex %arg10[%arg13] () : memref<?xmemref<?xmemref<?xf64>>> -> memref<?xmemref<?xmemref<?xf64>>> loc(#loc378)
                                          %6 = affine.load %5[0] : memref<?xmemref<?xmemref<?xf64>>> loc(#loc378)
                                          %7 = polygeist.subindex %6[%arg12] () : memref<?xmemref<?xf64>> -> memref<?xmemref<?xf64>> loc(#loc378)
                                          %8 = affine.load %7[0] : memref<?xmemref<?xf64>> loc(#loc378)
                                          %9 = polygeist.subindex %8[%arg11] () : memref<?xf64> -> memref<?xf64> loc(#loc378)
                                          %10 = affine.load %9[0] : memref<?xf64> loc(#loc378)
                                          affine.store %10, %alloca_5[0] : memref<1xf64> loc(#loc372)
                                          scf.yield %10 : f64 loc(#loc)
                                        } loc(#loc)
                                      } loc(#loc)
                                      scf.yield loc(#loc)
                                    } loc(#loc)
                                  } loc(#loc)
                                  scf.if %true {
                                    scf.execute_region {
                                      scf.if %true {
                                        %4 = scf.execute_region -> f64 {
                                          %5 = func.call @derivative_x(%arg6, %3, %2, %1) : (memref<?xmemref<?xmemref<?xf64>>>, i32, i32, i32) -> f64 loc(#loc379)
                                          affine.store %5, %alloca_4[0] : memref<1xf64> loc(#loc371)
                                          scf.yield %5 : f64 loc(#loc)
                                        } loc(#loc)
                                      } loc(#loc)
                                      scf.yield loc(#loc)
                                    } loc(#loc)
                                  } loc(#loc)
                                  scf.if %true {
                                    scf.execute_region {
                                      scf.if %true {
                                        %4 = scf.execute_region -> f64 {
                                          %5 = func.call @derivative_y(%arg7, %3, %2, %1) : (memref<?xmemref<?xmemref<?xf64>>>, i32, i32, i32) -> f64 loc(#loc380)
                                          affine.store %5, %alloca_3[0] : memref<1xf64> loc(#loc370)
                                          scf.yield %5 : f64 loc(#loc)
                                        } loc(#loc)
                                      } loc(#loc)
                                      scf.yield loc(#loc)
                                    } loc(#loc)
                                  } loc(#loc)
                                  scf.if %true {
                                    scf.execute_region {
                                      scf.if %true {
                                        %4 = scf.execute_region -> f64 {
                                          %5 = func.call @derivative_z(%arg8, %3, %2, %1) : (memref<?xmemref<?xmemref<?xf64>>>, i32, i32, i32) -> f64 loc(#loc381)
                                          affine.store %5, %alloca_2[0] : memref<1xf64> loc(#loc369)
                                          scf.yield %5 : f64 loc(#loc)
                                        } loc(#loc)
                                      } loc(#loc)
                                      scf.yield loc(#loc)
                                    } loc(#loc)
                                  } loc(#loc)
                                  scf.if %true {
                                    scf.execute_region {
                                      scf.if %true {
                                        %4 = scf.execute_region -> f64 {
                                          %5 = affine.load %alloca_4[0] : memref<1xf64> loc(#loc382)
                                          %6 = affine.load %alloca_3[0] : memref<1xf64> loc(#loc383)
                                          %7 = arith.addf %5, %6 : f64 loc(#loc384)
                                          %8 = affine.load %alloca_2[0] : memref<1xf64> loc(#loc385)
                                          %9 = arith.addf %7, %8 : f64 loc(#loc386)
                                          affine.store %9, %alloca_1[0] : memref<1xf64> loc(#loc368)
                                          scf.yield %9 : f64 loc(#loc)
                                        } loc(#loc)
                                      } loc(#loc)
                                      scf.yield loc(#loc)
                                    } loc(#loc)
                                  } loc(#loc)
                                  scf.if %true {
                                    scf.execute_region {
                                      scf.if %true {
                                        %4 = scf.execute_region -> f64 {
                                          %5 = affine.load %alloca_6[0] : memref<1xf64> loc(#loc387)
                                          %6 = arith.mulf %5, %cst_0 : f64 loc(#loc388)
                                          affine.store %6, %alloca[0] : memref<1xf64> loc(#loc367)
                                          scf.yield %6 : f64 loc(#loc)
                                        } loc(#loc)
                                      } loc(#loc)
                                      scf.yield loc(#loc)
                                    } loc(#loc)
                                  } loc(#loc)
                                  scf.if %true {
                                    scf.execute_region {
                                      %4 = polygeist.subindex %arg0[%arg13] () : memref<?xmemref<?xmemref<?xf64>>> -> memref<?xmemref<?xmemref<?xf64>>> loc(#loc389)
                                      %5 = affine.load %4[0] : memref<?xmemref<?xmemref<?xf64>>> loc(#loc389)
                                      %6 = polygeist.subindex %5[%arg12] () : memref<?xmemref<?xf64>> -> memref<?xmemref<?xf64>> loc(#loc389)
                                      %7 = affine.load %6[0] : memref<?xmemref<?xf64>> loc(#loc389)
                                      %8 = polygeist.subindex %7[%arg11] () : memref<?xf64> -> memref<?xf64> loc(#loc389)
                                      %9 = affine.load %alloca[0] : memref<1xf64> loc(#loc390)
                                      %10 = affine.load %alloca_4[0] : memref<1xf64> loc(#loc391)
                                      %11 = arith.mulf %9, %10 : f64 loc(#loc392)
                                      %12 = affine.load %alloca_5[0] : memref<1xf64> loc(#loc393)
                                      %13 = affine.load %alloca_1[0] : memref<1xf64> loc(#loc394)
                                      %14 = arith.mulf %12, %13 : f64 loc(#loc395)
                                      %15 = arith.addf %11, %14 : f64 loc(#loc396)
                                      %16 = arith.mulf %15, %cst : f64 loc(#loc397)
                                      %17 = affine.load %8[0] : memref<?xf64> loc(#loc398)
                                      %18 = arith.addf %17, %16 : f64 loc(#loc398)
                                      affine.store %18, %8[0] : memref<?xf64> loc(#loc398)
                                      scf.yield loc(#loc)
                                    } loc(#loc)
                                  } loc(#loc)
                                  scf.if %true {
                                    scf.execute_region {
                                      %4 = polygeist.subindex %arg1[%arg13] () : memref<?xmemref<?xmemref<?xf64>>> -> memref<?xmemref<?xmemref<?xf64>>> loc(#loc399)
                                      %5 = affine.load %4[0] : memref<?xmemref<?xmemref<?xf64>>> loc(#loc399)
                                      %6 = polygeist.subindex %5[%arg12] () : memref<?xmemref<?xf64>> -> memref<?xmemref<?xf64>> loc(#loc399)
                                      %7 = affine.load %6[0] : memref<?xmemref<?xf64>> loc(#loc399)
                                      %8 = polygeist.subindex %7[%arg11] () : memref<?xf64> -> memref<?xf64> loc(#loc399)
                                      %9 = affine.load %alloca[0] : memref<1xf64> loc(#loc400)
                                      %10 = affine.load %alloca_3[0] : memref<1xf64> loc(#loc401)
                                      %11 = arith.mulf %9, %10 : f64 loc(#loc402)
                                      %12 = affine.load %alloca_5[0] : memref<1xf64> loc(#loc403)
                                      %13 = affine.load %alloca_1[0] : memref<1xf64> loc(#loc404)
                                      %14 = arith.mulf %12, %13 : f64 loc(#loc405)
                                      %15 = arith.addf %11, %14 : f64 loc(#loc406)
                                      %16 = arith.mulf %15, %cst : f64 loc(#loc407)
                                      %17 = affine.load %8[0] : memref<?xf64> loc(#loc408)
                                      %18 = arith.addf %17, %16 : f64 loc(#loc408)
                                      affine.store %18, %8[0] : memref<?xf64> loc(#loc408)
                                      scf.yield loc(#loc)
                                    } loc(#loc)
                                  } loc(#loc)
                                  scf.if %true {
                                    scf.execute_region {
                                      %4 = polygeist.subindex %arg2[%arg13] () : memref<?xmemref<?xmemref<?xf64>>> -> memref<?xmemref<?xmemref<?xf64>>> loc(#loc409)
                                      %5 = affine.load %4[0] : memref<?xmemref<?xmemref<?xf64>>> loc(#loc409)
                                      %6 = polygeist.subindex %5[%arg12] () : memref<?xmemref<?xf64>> -> memref<?xmemref<?xf64>> loc(#loc409)
                                      %7 = affine.load %6[0] : memref<?xmemref<?xf64>> loc(#loc409)
                                      %8 = polygeist.subindex %7[%arg11] () : memref<?xf64> -> memref<?xf64> loc(#loc409)
                                      %9 = affine.load %alloca[0] : memref<1xf64> loc(#loc410)
                                      %10 = affine.load %alloca_2[0] : memref<1xf64> loc(#loc411)
                                      %11 = arith.mulf %9, %10 : f64 loc(#loc412)
                                      %12 = affine.load %alloca_5[0] : memref<1xf64> loc(#loc413)
                                      %13 = affine.load %alloca_1[0] : memref<1xf64> loc(#loc414)
                                      %14 = arith.mulf %12, %13 : f64 loc(#loc415)
                                      %15 = arith.addf %11, %14 : f64 loc(#loc416)
                                      %16 = arith.mulf %15, %cst : f64 loc(#loc417)
                                      %17 = affine.load %8[0] : memref<?xf64> loc(#loc418)
                                      %18 = arith.addf %17, %16 : f64 loc(#loc418)
                                      affine.store %18, %8[0] : memref<?xf64> loc(#loc418)
                                      scf.yield loc(#loc)
                                    } loc(#loc)
                                  } loc(#loc)
                                  scf.if %true {
                                    scf.execute_region {
                                      %4 = polygeist.subindex %arg3[%arg13] () : memref<?xmemref<?xmemref<?xf64>>> -> memref<?xmemref<?xmemref<?xf64>>> loc(#loc419)
                                      %5 = affine.load %4[0] : memref<?xmemref<?xmemref<?xf64>>> loc(#loc419)
                                      %6 = polygeist.subindex %5[%arg12] () : memref<?xmemref<?xf64>> -> memref<?xmemref<?xf64>> loc(#loc419)
                                      %7 = affine.load %6[0] : memref<?xmemref<?xf64>> loc(#loc419)
                                      %8 = polygeist.subindex %7[%arg11] () : memref<?xf64> -> memref<?xf64> loc(#loc419)
                                      %9 = affine.load %alloca_6[0] : memref<1xf64> loc(#loc420)
                                      %10 = arith.mulf %9, %cst : f64 loc(#loc421)
                                      %11 = func.call @derivative_y(%arg6, %3, %2, %1) : (memref<?xmemref<?xmemref<?xf64>>>, i32, i32, i32) -> f64 loc(#loc422)
                                      %12 = func.call @derivative_x(%arg7, %3, %2, %1) : (memref<?xmemref<?xmemref<?xf64>>>, i32, i32, i32) -> f64 loc(#loc423)
                                      %13 = arith.addf %11, %12 : f64 loc(#loc424)
                                      %14 = arith.mulf %10, %13 : f64 loc(#loc425)
                                      %15 = affine.load %8[0] : memref<?xf64> loc(#loc426)
                                      %16 = arith.addf %15, %14 : f64 loc(#loc426)
                                      affine.store %16, %8[0] : memref<?xf64> loc(#loc426)
                                      scf.yield loc(#loc)
                                    } loc(#loc)
                                  } loc(#loc)
                                  scf.if %true {
                                    scf.execute_region {
                                      %4 = polygeist.subindex %arg4[%arg13] () : memref<?xmemref<?xmemref<?xf64>>> -> memref<?xmemref<?xmemref<?xf64>>> loc(#loc427)
                                      %5 = affine.load %4[0] : memref<?xmemref<?xmemref<?xf64>>> loc(#loc427)
                                      %6 = polygeist.subindex %5[%arg12] () : memref<?xmemref<?xf64>> -> memref<?xmemref<?xf64>> loc(#loc427)
                                      %7 = affine.load %6[0] : memref<?xmemref<?xf64>> loc(#loc427)
                                      %8 = polygeist.subindex %7[%arg11] () : memref<?xf64> -> memref<?xf64> loc(#loc427)
                                      %9 = affine.load %alloca_6[0] : memref<1xf64> loc(#loc428)
                                      %10 = arith.mulf %9, %cst : f64 loc(#loc429)
                                      %11 = func.call @derivative_z(%arg6, %3, %2, %1) : (memref<?xmemref<?xmemref<?xf64>>>, i32, i32, i32) -> f64 loc(#loc430)
                                      %12 = func.call @derivative_x(%arg8, %3, %2, %1) : (memref<?xmemref<?xmemref<?xf64>>>, i32, i32, i32) -> f64 loc(#loc431)
                                      %13 = arith.addf %11, %12 : f64 loc(#loc432)
                                      %14 = arith.mulf %10, %13 : f64 loc(#loc433)
                                      %15 = affine.load %8[0] : memref<?xf64> loc(#loc434)
                                      %16 = arith.addf %15, %14 : f64 loc(#loc434)
                                      affine.store %16, %8[0] : memref<?xf64> loc(#loc434)
                                      scf.yield loc(#loc)
                                    } loc(#loc)
                                  } loc(#loc)
                                  scf.if %true {
                                    scf.execute_region {
                                      %4 = polygeist.subindex %arg5[%arg13] () : memref<?xmemref<?xmemref<?xf64>>> -> memref<?xmemref<?xmemref<?xf64>>> loc(#loc435)
                                      %5 = affine.load %4[0] : memref<?xmemref<?xmemref<?xf64>>> loc(#loc435)
                                      %6 = polygeist.subindex %5[%arg12] () : memref<?xmemref<?xf64>> -> memref<?xmemref<?xf64>> loc(#loc435)
                                      %7 = affine.load %6[0] : memref<?xmemref<?xf64>> loc(#loc435)
                                      %8 = polygeist.subindex %7[%arg11] () : memref<?xf64> -> memref<?xf64> loc(#loc435)
                                      %9 = affine.load %alloca_6[0] : memref<1xf64> loc(#loc436)
                                      %10 = arith.mulf %9, %cst : f64 loc(#loc437)
                                      %11 = func.call @derivative_z(%arg7, %3, %2, %1) : (memref<?xmemref<?xmemref<?xf64>>>, i32, i32, i32) -> f64 loc(#loc438)
                                      %12 = func.call @derivative_y(%arg8, %3, %2, %1) : (memref<?xmemref<?xmemref<?xf64>>>, i32, i32, i32) -> f64 loc(#loc439)
                                      %13 = arith.addf %11, %12 : f64 loc(#loc440)
                                      %14 = arith.mulf %10, %13 : f64 loc(#loc441)
                                      %15 = affine.load %8[0] : memref<?xf64> loc(#loc442)
                                      %16 = arith.addf %15, %14 : f64 loc(#loc442)
                                      affine.store %16, %8[0] : memref<?xf64> loc(#loc442)
                                      scf.yield loc(#loc)
                                    } loc(#loc)
                                  } loc(#loc)
                                } loc(#loc376)
                                scf.yield loc(#loc)
                              } loc(#loc)
                            } loc(#loc)
                            scf.yield loc(#loc)
                          } loc(#loc)
                        } loc(#loc)
                      } loc(#loc375)
                      scf.yield loc(#loc)
                    } loc(#loc)
                  } loc(#loc)
                  scf.yield loc(#loc)
                } loc(#loc)
              } loc(#loc)
            } loc(#loc374)
            scf.yield loc(#loc)
          } loc(#loc)
        } loc(#loc)
        scf.yield loc(#loc)
      } loc(#loc)
    } loc(#loc)
    return loc(#loc443)
  } loc(#loc365)
  func.func private @carts_kernel_timer_accum(memref<?xi8>) attributes {llvm.linkage = #llvm.linkage<external>} loc(#loc444)
  func.func private @carts_kernel_timer_print(memref<?xi8>) attributes {llvm.linkage = #llvm.linkage<external>} loc(#loc445)
  func.func private @carts_bench_checksum_d(f64) attributes {llvm.linkage = #llvm.linkage<external>} loc(#loc446)
  func.func private @carts_e2e_timer_stop() attributes {llvm.linkage = #llvm.linkage<external>} loc(#loc447)
  func.func private @derivative_x(%arg0: memref<?xmemref<?xmemref<?xf64>>> loc("/home/raherrer/projects/carts/external/carts-benchmarks/specfem3d/stress/stress_update.c":43:22), %arg1: i32 loc("/home/raherrer/projects/carts/external/carts-benchmarks/specfem3d/stress/stress_update.c":43:22), %arg2: i32 loc("/home/raherrer/projects/carts/external/carts-benchmarks/specfem3d/stress/stress_update.c":43:22), %arg3: i32 loc("/home/raherrer/projects/carts/external/carts-benchmarks/specfem3d/stress/stress_update.c":43:22)) -> f64 attributes {llvm.linkage = #llvm.linkage<internal>} {
    %c-1_i32 = arith.constant -1 : i32 loc(#loc)
    %c1_i32 = arith.constant 1 : i32 loc(#loc)
    %cst = arith.constant 5.000000e-01 : f64 loc(#loc)
    %true = arith.constant true loc(#loc449)
    %0 = "polygeist.undef"() : () -> f64 loc(#loc449)
    %1 = scf.if %true -> (f64) {
      %2 = scf.execute_region -> f64 {
        %3 = scf.if %true -> (f64) {
          %4 = scf.execute_region -> f64 {
            %5 = arith.addi %arg1, %c1_i32 : i32 loc(#loc450)
            %6 = arith.index_cast %5 : i32 to index loc(#loc451)
            %7 = polygeist.subindex %arg0[%6] () : memref<?xmemref<?xmemref<?xf64>>> -> memref<?xmemref<?xmemref<?xf64>>> loc(#loc452)
            %8 = affine.load %7[0] : memref<?xmemref<?xmemref<?xf64>>> loc(#loc452)
            %9 = arith.index_cast %arg2 : i32 to index loc(#loc453)
            %10 = polygeist.subindex %8[%9] () : memref<?xmemref<?xf64>> -> memref<?xmemref<?xf64>> loc(#loc452)
            %11 = affine.load %10[0] : memref<?xmemref<?xf64>> loc(#loc452)
            %12 = arith.index_cast %arg3 : i32 to index loc(#loc454)
            %13 = polygeist.subindex %11[%12] () : memref<?xf64> -> memref<?xf64> loc(#loc452)
            %14 = affine.load %13[0] : memref<?xf64> loc(#loc452)
            %15 = arith.addi %arg1, %c-1_i32 : i32 loc(#loc455)
            %16 = arith.index_cast %15 : i32 to index loc(#loc456)
            %17 = polygeist.subindex %arg0[%16] () : memref<?xmemref<?xmemref<?xf64>>> -> memref<?xmemref<?xmemref<?xf64>>> loc(#loc457)
            %18 = affine.load %17[0] : memref<?xmemref<?xmemref<?xf64>>> loc(#loc457)
            %19 = polygeist.subindex %18[%9] () : memref<?xmemref<?xf64>> -> memref<?xmemref<?xf64>> loc(#loc457)
            %20 = affine.load %19[0] : memref<?xmemref<?xf64>> loc(#loc457)
            %21 = polygeist.subindex %20[%12] () : memref<?xf64> -> memref<?xf64> loc(#loc457)
            %22 = affine.load %21[0] : memref<?xf64> loc(#loc457)
            %23 = arith.subf %14, %22 : f64 loc(#loc458)
            %24 = arith.mulf %23, %cst : f64 loc(#loc459)
            scf.yield %24 : f64 loc(#loc)
          } loc(#loc)
          scf.yield %4 : f64 loc(#loc)
        } else {
          scf.yield %0 : f64 loc(#loc)
        } loc(#loc)
        scf.yield %3 : f64 loc(#loc)
      } loc(#loc)
      scf.yield %2 : f64 loc(#loc)
    } else {
      scf.yield %0 : f64 loc(#loc)
    } loc(#loc)
    return %1 : f64 loc(#loc460)
  } loc(#loc448)
  func.func private @derivative_y(%arg0: memref<?xmemref<?xmemref<?xf64>>> loc("/home/raherrer/projects/carts/external/carts-benchmarks/specfem3d/stress/stress_update.c":47:22), %arg1: i32 loc("/home/raherrer/projects/carts/external/carts-benchmarks/specfem3d/stress/stress_update.c":47:22), %arg2: i32 loc("/home/raherrer/projects/carts/external/carts-benchmarks/specfem3d/stress/stress_update.c":47:22), %arg3: i32 loc("/home/raherrer/projects/carts/external/carts-benchmarks/specfem3d/stress/stress_update.c":47:22)) -> f64 attributes {llvm.linkage = #llvm.linkage<internal>} {
    %c-1_i32 = arith.constant -1 : i32 loc(#loc)
    %c1_i32 = arith.constant 1 : i32 loc(#loc)
    %cst = arith.constant 5.000000e-01 : f64 loc(#loc)
    %true = arith.constant true loc(#loc462)
    %0 = "polygeist.undef"() : () -> f64 loc(#loc462)
    %1 = scf.if %true -> (f64) {
      %2 = scf.execute_region -> f64 {
        %3 = scf.if %true -> (f64) {
          %4 = scf.execute_region -> f64 {
            %5 = arith.index_cast %arg1 : i32 to index loc(#loc463)
            %6 = polygeist.subindex %arg0[%5] () : memref<?xmemref<?xmemref<?xf64>>> -> memref<?xmemref<?xmemref<?xf64>>> loc(#loc464)
            %7 = affine.load %6[0] : memref<?xmemref<?xmemref<?xf64>>> loc(#loc464)
            %8 = arith.addi %arg2, %c1_i32 : i32 loc(#loc465)
            %9 = arith.index_cast %8 : i32 to index loc(#loc466)
            %10 = polygeist.subindex %7[%9] () : memref<?xmemref<?xf64>> -> memref<?xmemref<?xf64>> loc(#loc464)
            %11 = affine.load %10[0] : memref<?xmemref<?xf64>> loc(#loc464)
            %12 = arith.index_cast %arg3 : i32 to index loc(#loc467)
            %13 = polygeist.subindex %11[%12] () : memref<?xf64> -> memref<?xf64> loc(#loc464)
            %14 = affine.load %13[0] : memref<?xf64> loc(#loc464)
            %15 = arith.addi %arg2, %c-1_i32 : i32 loc(#loc468)
            %16 = arith.index_cast %15 : i32 to index loc(#loc469)
            %17 = polygeist.subindex %7[%16] () : memref<?xmemref<?xf64>> -> memref<?xmemref<?xf64>> loc(#loc470)
            %18 = affine.load %17[0] : memref<?xmemref<?xf64>> loc(#loc470)
            %19 = polygeist.subindex %18[%12] () : memref<?xf64> -> memref<?xf64> loc(#loc470)
            %20 = affine.load %19[0] : memref<?xf64> loc(#loc470)
            %21 = arith.subf %14, %20 : f64 loc(#loc471)
            %22 = arith.mulf %21, %cst : f64 loc(#loc472)
            scf.yield %22 : f64 loc(#loc)
          } loc(#loc)
          scf.yield %4 : f64 loc(#loc)
        } else {
          scf.yield %0 : f64 loc(#loc)
        } loc(#loc)
        scf.yield %3 : f64 loc(#loc)
      } loc(#loc)
      scf.yield %2 : f64 loc(#loc)
    } else {
      scf.yield %0 : f64 loc(#loc)
    } loc(#loc)
    return %1 : f64 loc(#loc473)
  } loc(#loc461)
  func.func private @derivative_z(%arg0: memref<?xmemref<?xmemref<?xf64>>> loc("/home/raherrer/projects/carts/external/carts-benchmarks/specfem3d/stress/stress_update.c":51:22), %arg1: i32 loc("/home/raherrer/projects/carts/external/carts-benchmarks/specfem3d/stress/stress_update.c":51:22), %arg2: i32 loc("/home/raherrer/projects/carts/external/carts-benchmarks/specfem3d/stress/stress_update.c":51:22), %arg3: i32 loc("/home/raherrer/projects/carts/external/carts-benchmarks/specfem3d/stress/stress_update.c":51:22)) -> f64 attributes {llvm.linkage = #llvm.linkage<internal>} {
    %c-1_i32 = arith.constant -1 : i32 loc(#loc)
    %c1_i32 = arith.constant 1 : i32 loc(#loc)
    %cst = arith.constant 5.000000e-01 : f64 loc(#loc)
    %true = arith.constant true loc(#loc475)
    %0 = "polygeist.undef"() : () -> f64 loc(#loc475)
    %1 = scf.if %true -> (f64) {
      %2 = scf.execute_region -> f64 {
        %3 = scf.if %true -> (f64) {
          %4 = scf.execute_region -> f64 {
            %5 = arith.index_cast %arg1 : i32 to index loc(#loc476)
            %6 = polygeist.subindex %arg0[%5] () : memref<?xmemref<?xmemref<?xf64>>> -> memref<?xmemref<?xmemref<?xf64>>> loc(#loc477)
            %7 = affine.load %6[0] : memref<?xmemref<?xmemref<?xf64>>> loc(#loc477)
            %8 = arith.index_cast %arg2 : i32 to index loc(#loc478)
            %9 = polygeist.subindex %7[%8] () : memref<?xmemref<?xf64>> -> memref<?xmemref<?xf64>> loc(#loc477)
            %10 = affine.load %9[0] : memref<?xmemref<?xf64>> loc(#loc477)
            %11 = arith.addi %arg3, %c1_i32 : i32 loc(#loc479)
            %12 = arith.index_cast %11 : i32 to index loc(#loc480)
            %13 = polygeist.subindex %10[%12] () : memref<?xf64> -> memref<?xf64> loc(#loc477)
            %14 = affine.load %13[0] : memref<?xf64> loc(#loc477)
            %15 = arith.addi %arg3, %c-1_i32 : i32 loc(#loc481)
            %16 = arith.index_cast %15 : i32 to index loc(#loc482)
            %17 = polygeist.subindex %10[%16] () : memref<?xf64> -> memref<?xf64> loc(#loc483)
            %18 = affine.load %17[0] : memref<?xf64> loc(#loc483)
            %19 = arith.subf %14, %18 : f64 loc(#loc484)
            %20 = arith.mulf %19, %cst : f64 loc(#loc485)
            scf.yield %20 : f64 loc(#loc)
          } loc(#loc)
          scf.yield %4 : f64 loc(#loc)
        } else {
          scf.yield %0 : f64 loc(#loc)
        } loc(#loc)
        scf.yield %3 : f64 loc(#loc)
      } loc(#loc)
      scf.yield %2 : f64 loc(#loc)
    } else {
      scf.yield %0 : f64 loc(#loc)
    } loc(#loc)
    return %1 : f64 loc(#loc486)
  } loc(#loc474)
} loc(#loc)
#loc = loc(unknown)
#loc1 = loc("/home/raherrer/projects/carts/.install/carts/include/arts/utils/benchmarks/CartsBenchmarks.h":100:65)
#loc2 = loc("/home/raherrer/projects/carts/.install/carts/include/arts/utils/benchmarks/CartsBenchmarks.h":98:27)
#loc3 = loc("/home/raherrer/projects/carts/.install/carts/include/arts/utils/benchmarks/CartsBenchmarks.h":95:65)
#loc4 = loc("/home/raherrer/projects/carts/external/carts-benchmarks/specfem3d/stress/stress_update.c":92:25)
#loc5 = loc("/home/raherrer/projects/carts/external/carts-benchmarks/specfem3d/stress/stress_update.c":89:5)
#loc6 = loc("/home/raherrer/projects/carts/external/carts-benchmarks/specfem3d/stress/stress_update.c":89:1)
#loc7 = loc("/home/raherrer/projects/carts/external/carts-benchmarks/specfem3d/stress/stress_update.c":169:10)
#loc8 = loc("/home/raherrer/projects/carts/external/carts-benchmarks/specfem3d/stress/stress_update.c":153:3)
#loc9 = loc("/home/raherrer/projects/carts/external/carts-benchmarks/specfem3d/stress/stress_update.c":108:3)
#loc10 = loc("/home/raherrer/projects/carts/external/carts-benchmarks/specfem3d/stress/stress_update.c":107:3)
#loc11 = loc("/home/raherrer/projects/carts/external/carts-benchmarks/specfem3d/stress/stress_update.c":106:3)
#loc12 = loc("/home/raherrer/projects/carts/external/carts-benchmarks/specfem3d/stress/stress_update.c":105:3)
#loc13 = loc("/home/raherrer/projects/carts/external/carts-benchmarks/specfem3d/stress/stress_update.c":104:3)
#loc14 = loc("/home/raherrer/projects/carts/external/carts-benchmarks/specfem3d/stress/stress_update.c":103:3)
#loc15 = loc("/home/raherrer/projects/carts/external/carts-benchmarks/specfem3d/stress/stress_update.c":102:3)
#loc16 = loc("/home/raherrer/projects/carts/external/carts-benchmarks/specfem3d/stress/stress_update.c":101:3)
#loc17 = loc("/home/raherrer/projects/carts/external/carts-benchmarks/specfem3d/stress/stress_update.c":100:3)
#loc18 = loc("/home/raherrer/projects/carts/external/carts-benchmarks/specfem3d/stress/stress_update.c":99:3)
#loc19 = loc("/home/raherrer/projects/carts/external/carts-benchmarks/specfem3d/stress/stress_update.c":98:3)
#loc20 = loc("/home/raherrer/projects/carts/external/carts-benchmarks/specfem3d/stress/stress_update.c":97:3)
#loc21 = loc("/home/raherrer/projects/carts/.install/carts/include/arts/utils/benchmarks/CartsBenchmarks.h":54:34)
#loc22 = loc("/home/raherrer/projects/carts/.install/carts/include/arts/utils/benchmarks/CartsBenchmarks.h":79:37)
#loc23 = loc("/home/raherrer/projects/carts/.install/carts/include/arts/utils/benchmarks/CartsBenchmarks.h":95:41)
#loc24 = loc("/home/raherrer/projects/carts/external/carts-benchmarks/specfem3d/stress/stress_update.c":97:18)
#loc25 = loc("/home/raherrer/projects/carts/external/carts-benchmarks/specfem3d/stress/stress_update.c":97:42)
#loc26 = loc("/home/raherrer/projects/carts/external/carts-benchmarks/specfem3d/stress/stress_update.c":97:40)
#loc27 = loc("/home/raherrer/projects/carts/external/carts-benchmarks/specfem3d/stress/stress_update.c":98:18)
#loc28 = loc("/home/raherrer/projects/carts/external/carts-benchmarks/specfem3d/stress/stress_update.c":98:42)
#loc29 = loc("/home/raherrer/projects/carts/external/carts-benchmarks/specfem3d/stress/stress_update.c":98:40)
#loc30 = loc("/home/raherrer/projects/carts/external/carts-benchmarks/specfem3d/stress/stress_update.c":99:18)
#loc31 = loc("/home/raherrer/projects/carts/external/carts-benchmarks/specfem3d/stress/stress_update.c":99:42)
#loc32 = loc("/home/raherrer/projects/carts/external/carts-benchmarks/specfem3d/stress/stress_update.c":99:40)
#loc33 = loc("/home/raherrer/projects/carts/external/carts-benchmarks/specfem3d/stress/stress_update.c":100:19)
#loc34 = loc("/home/raherrer/projects/carts/external/carts-benchmarks/specfem3d/stress/stress_update.c":100:43)
#loc35 = loc("/home/raherrer/projects/carts/external/carts-benchmarks/specfem3d/stress/stress_update.c":100:41)
#loc36 = loc("/home/raherrer/projects/carts/external/carts-benchmarks/specfem3d/stress/stress_update.c":101:18)
#loc37 = loc("/home/raherrer/projects/carts/external/carts-benchmarks/specfem3d/stress/stress_update.c":101:42)
#loc38 = loc("/home/raherrer/projects/carts/external/carts-benchmarks/specfem3d/stress/stress_update.c":101:40)
#loc39 = loc("/home/raherrer/projects/carts/external/carts-benchmarks/specfem3d/stress/stress_update.c":102:22)
#loc40 = loc("/home/raherrer/projects/carts/external/carts-benchmarks/specfem3d/stress/stress_update.c":102:46)
#loc41 = loc("/home/raherrer/projects/carts/external/carts-benchmarks/specfem3d/stress/stress_update.c":102:44)
#loc42 = loc("/home/raherrer/projects/carts/external/carts-benchmarks/specfem3d/stress/stress_update.c":103:19)
#loc43 = loc("/home/raherrer/projects/carts/external/carts-benchmarks/specfem3d/stress/stress_update.c":103:43)
#loc44 = loc("/home/raherrer/projects/carts/external/carts-benchmarks/specfem3d/stress/stress_update.c":103:41)
#loc45 = loc("/home/raherrer/projects/carts/external/carts-benchmarks/specfem3d/stress/stress_update.c":104:19)
#loc46 = loc("/home/raherrer/projects/carts/external/carts-benchmarks/specfem3d/stress/stress_update.c":104:43)
#loc47 = loc("/home/raherrer/projects/carts/external/carts-benchmarks/specfem3d/stress/stress_update.c":104:41)
#loc48 = loc("/home/raherrer/projects/carts/external/carts-benchmarks/specfem3d/stress/stress_update.c":105:19)
#loc49 = loc("/home/raherrer/projects/carts/external/carts-benchmarks/specfem3d/stress/stress_update.c":105:43)
#loc50 = loc("/home/raherrer/projects/carts/external/carts-benchmarks/specfem3d/stress/stress_update.c":105:41)
#loc51 = loc("/home/raherrer/projects/carts/external/carts-benchmarks/specfem3d/stress/stress_update.c":106:19)
#loc52 = loc("/home/raherrer/projects/carts/external/carts-benchmarks/specfem3d/stress/stress_update.c":106:43)
#loc53 = loc("/home/raherrer/projects/carts/external/carts-benchmarks/specfem3d/stress/stress_update.c":106:41)
#loc54 = loc("/home/raherrer/projects/carts/external/carts-benchmarks/specfem3d/stress/stress_update.c":107:19)
#loc55 = loc("/home/raherrer/projects/carts/external/carts-benchmarks/specfem3d/stress/stress_update.c":107:43)
#loc56 = loc("/home/raherrer/projects/carts/external/carts-benchmarks/specfem3d/stress/stress_update.c":107:41)
#loc57 = loc("/home/raherrer/projects/carts/external/carts-benchmarks/specfem3d/stress/stress_update.c":108:19)
#loc58 = loc("/home/raherrer/projects/carts/external/carts-benchmarks/specfem3d/stress/stress_update.c":108:43)
#loc59 = loc("/home/raherrer/projects/carts/external/carts-benchmarks/specfem3d/stress/stress_update.c":108:41)
#loc60 = loc("/home/raherrer/projects/carts/external/carts-benchmarks/specfem3d/stress/stress_update.c":111:5)
#loc61 = loc("/home/raherrer/projects/carts/external/carts-benchmarks/specfem3d/stress/stress_update.c":111:13)
#loc62 = loc("/home/raherrer/projects/carts/external/carts-benchmarks/specfem3d/stress/stress_update.c":111:36)
#loc63 = loc("/home/raherrer/projects/carts/external/carts-benchmarks/specfem3d/stress/stress_update.c":111:34)
#loc64 = loc("/home/raherrer/projects/carts/external/carts-benchmarks/specfem3d/stress/stress_update.c":112:5)
#loc65 = loc("/home/raherrer/projects/carts/external/carts-benchmarks/specfem3d/stress/stress_update.c":112:13)
#loc66 = loc("/home/raherrer/projects/carts/external/carts-benchmarks/specfem3d/stress/stress_update.c":112:36)
#loc67 = loc("/home/raherrer/projects/carts/external/carts-benchmarks/specfem3d/stress/stress_update.c":112:34)
#loc68 = loc("/home/raherrer/projects/carts/external/carts-benchmarks/specfem3d/stress/stress_update.c":113:5)
#loc69 = loc("/home/raherrer/projects/carts/external/carts-benchmarks/specfem3d/stress/stress_update.c":113:13)
#loc70 = loc("/home/raherrer/projects/carts/external/carts-benchmarks/specfem3d/stress/stress_update.c":113:36)
#loc71 = loc("/home/raherrer/projects/carts/external/carts-benchmarks/specfem3d/stress/stress_update.c":113:34)
#loc72 = loc("/home/raherrer/projects/carts/external/carts-benchmarks/specfem3d/stress/stress_update.c":114:5)
#loc73 = loc("/home/raherrer/projects/carts/external/carts-benchmarks/specfem3d/stress/stress_update.c":114:14)
#loc74 = loc("/home/raherrer/projects/carts/external/carts-benchmarks/specfem3d/stress/stress_update.c":114:37)
#loc75 = loc("/home/raherrer/projects/carts/external/carts-benchmarks/specfem3d/stress/stress_update.c":114:35)
#loc76 = loc("/home/raherrer/projects/carts/external/carts-benchmarks/specfem3d/stress/stress_update.c":115:5)
#loc77 = loc("/home/raherrer/projects/carts/external/carts-benchmarks/specfem3d/stress/stress_update.c":115:13)
#loc78 = loc("/home/raherrer/projects/carts/external/carts-benchmarks/specfem3d/stress/stress_update.c":115:36)
#loc79 = loc("/home/raherrer/projects/carts/external/carts-benchmarks/specfem3d/stress/stress_update.c":115:34)
#loc80 = loc("/home/raherrer/projects/carts/external/carts-benchmarks/specfem3d/stress/stress_update.c":116:5)
#loc81 = loc("/home/raherrer/projects/carts/external/carts-benchmarks/specfem3d/stress/stress_update.c":116:17)
#loc82 = loc("/home/raherrer/projects/carts/external/carts-benchmarks/specfem3d/stress/stress_update.c":116:40)
#loc83 = loc("/home/raherrer/projects/carts/external/carts-benchmarks/specfem3d/stress/stress_update.c":116:38)
#loc84 = loc("/home/raherrer/projects/carts/external/carts-benchmarks/specfem3d/stress/stress_update.c":117:5)
#loc85 = loc("/home/raherrer/projects/carts/external/carts-benchmarks/specfem3d/stress/stress_update.c":117:14)
#loc86 = loc("/home/raherrer/projects/carts/external/carts-benchmarks/specfem3d/stress/stress_update.c":117:37)
#loc87 = loc("/home/raherrer/projects/carts/external/carts-benchmarks/specfem3d/stress/stress_update.c":117:35)
#loc88 = loc("/home/raherrer/projects/carts/external/carts-benchmarks/specfem3d/stress/stress_update.c":118:5)
#loc89 = loc("/home/raherrer/projects/carts/external/carts-benchmarks/specfem3d/stress/stress_update.c":118:14)
#loc90 = loc("/home/raherrer/projects/carts/external/carts-benchmarks/specfem3d/stress/stress_update.c":118:37)
#loc91 = loc("/home/raherrer/projects/carts/external/carts-benchmarks/specfem3d/stress/stress_update.c":118:35)
#loc92 = loc("/home/raherrer/projects/carts/external/carts-benchmarks/specfem3d/stress/stress_update.c":119:5)
#loc93 = loc("/home/raherrer/projects/carts/external/carts-benchmarks/specfem3d/stress/stress_update.c":119:14)
#loc94 = loc("/home/raherrer/projects/carts/external/carts-benchmarks/specfem3d/stress/stress_update.c":119:37)
#loc95 = loc("/home/raherrer/projects/carts/external/carts-benchmarks/specfem3d/stress/stress_update.c":119:35)
#loc96 = loc("/home/raherrer/projects/carts/external/carts-benchmarks/specfem3d/stress/stress_update.c":120:5)
#loc97 = loc("/home/raherrer/projects/carts/external/carts-benchmarks/specfem3d/stress/stress_update.c":120:14)
#loc98 = loc("/home/raherrer/projects/carts/external/carts-benchmarks/specfem3d/stress/stress_update.c":120:37)
#loc99 = loc("/home/raherrer/projects/carts/external/carts-benchmarks/specfem3d/stress/stress_update.c":120:35)
#loc100 = loc("/home/raherrer/projects/carts/external/carts-benchmarks/specfem3d/stress/stress_update.c":121:5)
#loc101 = loc("/home/raherrer/projects/carts/external/carts-benchmarks/specfem3d/stress/stress_update.c":121:14)
#loc102 = loc("/home/raherrer/projects/carts/external/carts-benchmarks/specfem3d/stress/stress_update.c":121:37)
#loc103 = loc("/home/raherrer/projects/carts/external/carts-benchmarks/specfem3d/stress/stress_update.c":121:35)
#loc104 = loc("/home/raherrer/projects/carts/external/carts-benchmarks/specfem3d/stress/stress_update.c":122:5)
#loc105 = loc("/home/raherrer/projects/carts/external/carts-benchmarks/specfem3d/stress/stress_update.c":122:14)
#loc106 = loc("/home/raherrer/projects/carts/external/carts-benchmarks/specfem3d/stress/stress_update.c":122:37)
#loc107 = loc("/home/raherrer/projects/carts/external/carts-benchmarks/specfem3d/stress/stress_update.c":122:35)
#loc108 = loc("/home/raherrer/projects/carts/external/carts-benchmarks/specfem3d/stress/stress_update.c":124:18)
#loc109 = loc("/home/raherrer/projects/carts/external/carts-benchmarks/specfem3d/stress/stress_update.c":124:40)
#loc110 = loc("/home/raherrer/projects/carts/external/carts-benchmarks/specfem3d/stress/stress_update.c":124:38)
#loc111 = loc("/home/raherrer/projects/carts/external/carts-benchmarks/specfem3d/stress/stress_update.c":125:18)
#loc112 = loc("/home/raherrer/projects/carts/external/carts-benchmarks/specfem3d/stress/stress_update.c":125:40)
#loc113 = loc("/home/raherrer/projects/carts/external/carts-benchmarks/specfem3d/stress/stress_update.c":125:38)
#loc114 = loc("/home/raherrer/projects/carts/external/carts-benchmarks/specfem3d/stress/stress_update.c":126:18)
#loc115 = loc("/home/raherrer/projects/carts/external/carts-benchmarks/specfem3d/stress/stress_update.c":126:40)
#loc116 = loc("/home/raherrer/projects/carts/external/carts-benchmarks/specfem3d/stress/stress_update.c":126:38)
#loc117 = loc("/home/raherrer/projects/carts/external/carts-benchmarks/specfem3d/stress/stress_update.c":127:19)
#loc118 = loc("/home/raherrer/projects/carts/external/carts-benchmarks/specfem3d/stress/stress_update.c":127:41)
#loc119 = loc("/home/raherrer/projects/carts/external/carts-benchmarks/specfem3d/stress/stress_update.c":127:39)
#loc120 = loc("/home/raherrer/projects/carts/external/carts-benchmarks/specfem3d/stress/stress_update.c":128:18)
#loc121 = loc("/home/raherrer/projects/carts/external/carts-benchmarks/specfem3d/stress/stress_update.c":128:40)
#loc122 = loc("/home/raherrer/projects/carts/external/carts-benchmarks/specfem3d/stress/stress_update.c":128:38)
#loc123 = loc("/home/raherrer/projects/carts/external/carts-benchmarks/specfem3d/stress/stress_update.c":129:22)
#loc124 = loc("/home/raherrer/projects/carts/external/carts-benchmarks/specfem3d/stress/stress_update.c":129:44)
#loc125 = loc("/home/raherrer/projects/carts/external/carts-benchmarks/specfem3d/stress/stress_update.c":129:42)
#loc126 = loc("/home/raherrer/projects/carts/external/carts-benchmarks/specfem3d/stress/stress_update.c":130:19)
#loc127 = loc("/home/raherrer/projects/carts/external/carts-benchmarks/specfem3d/stress/stress_update.c":130:41)
#loc128 = loc("/home/raherrer/projects/carts/external/carts-benchmarks/specfem3d/stress/stress_update.c":130:39)
#loc129 = loc("/home/raherrer/projects/carts/external/carts-benchmarks/specfem3d/stress/stress_update.c":131:19)
#loc130 = loc("/home/raherrer/projects/carts/external/carts-benchmarks/specfem3d/stress/stress_update.c":131:41)
#loc131 = loc("/home/raherrer/projects/carts/external/carts-benchmarks/specfem3d/stress/stress_update.c":131:39)
#loc132 = loc("/home/raherrer/projects/carts/external/carts-benchmarks/specfem3d/stress/stress_update.c":132:19)
#loc133 = loc("/home/raherrer/projects/carts/external/carts-benchmarks/specfem3d/stress/stress_update.c":132:41)
#loc134 = loc("/home/raherrer/projects/carts/external/carts-benchmarks/specfem3d/stress/stress_update.c":132:39)
#loc135 = loc("/home/raherrer/projects/carts/external/carts-benchmarks/specfem3d/stress/stress_update.c":133:19)
#loc136 = loc("/home/raherrer/projects/carts/external/carts-benchmarks/specfem3d/stress/stress_update.c":133:41)
#loc137 = loc("/home/raherrer/projects/carts/external/carts-benchmarks/specfem3d/stress/stress_update.c":133:39)
#loc138 = loc("/home/raherrer/projects/carts/external/carts-benchmarks/specfem3d/stress/stress_update.c":134:19)
#loc139 = loc("/home/raherrer/projects/carts/external/carts-benchmarks/specfem3d/stress/stress_update.c":134:41)
#loc140 = loc("/home/raherrer/projects/carts/external/carts-benchmarks/specfem3d/stress/stress_update.c":134:39)
#loc141 = loc("/home/raherrer/projects/carts/external/carts-benchmarks/specfem3d/stress/stress_update.c":135:19)
#loc142 = loc("/home/raherrer/projects/carts/external/carts-benchmarks/specfem3d/stress/stress_update.c":135:41)
#loc143 = loc("/home/raherrer/projects/carts/external/carts-benchmarks/specfem3d/stress/stress_update.c":135:39)
#loc145 = loc("/home/raherrer/projects/carts/external/carts-benchmarks/specfem3d/stress/stress_update.c":111:11)
#loc146 = loc("/home/raherrer/projects/carts/external/carts-benchmarks/specfem3d/stress/stress_update.c":112:11)
#loc147 = loc("/home/raherrer/projects/carts/external/carts-benchmarks/specfem3d/stress/stress_update.c":113:11)
#loc148 = loc("/home/raherrer/projects/carts/external/carts-benchmarks/specfem3d/stress/stress_update.c":114:12)
#loc149 = loc("/home/raherrer/projects/carts/external/carts-benchmarks/specfem3d/stress/stress_update.c":115:11)
#loc150 = loc("/home/raherrer/projects/carts/external/carts-benchmarks/specfem3d/stress/stress_update.c":116:15)
#loc151 = loc("/home/raherrer/projects/carts/external/carts-benchmarks/specfem3d/stress/stress_update.c":117:12)
#loc152 = loc("/home/raherrer/projects/carts/external/carts-benchmarks/specfem3d/stress/stress_update.c":118:12)
#loc153 = loc("/home/raherrer/projects/carts/external/carts-benchmarks/specfem3d/stress/stress_update.c":119:12)
#loc154 = loc("/home/raherrer/projects/carts/external/carts-benchmarks/specfem3d/stress/stress_update.c":120:12)
#loc155 = loc("/home/raherrer/projects/carts/external/carts-benchmarks/specfem3d/stress/stress_update.c":121:12)
#loc156 = loc("/home/raherrer/projects/carts/external/carts-benchmarks/specfem3d/stress/stress_update.c":122:12)
#loc157 = loc("/home/raherrer/projects/carts/external/carts-benchmarks/specfem3d/stress/stress_update.c":124:7)
#loc158 = loc("/home/raherrer/projects/carts/external/carts-benchmarks/specfem3d/stress/stress_update.c":125:7)
#loc159 = loc("/home/raherrer/projects/carts/external/carts-benchmarks/specfem3d/stress/stress_update.c":126:7)
#loc160 = loc("/home/raherrer/projects/carts/external/carts-benchmarks/specfem3d/stress/stress_update.c":127:7)
#loc161 = loc("/home/raherrer/projects/carts/external/carts-benchmarks/specfem3d/stress/stress_update.c":128:7)
#loc162 = loc("/home/raherrer/projects/carts/external/carts-benchmarks/specfem3d/stress/stress_update.c":129:7)
#loc163 = loc("/home/raherrer/projects/carts/external/carts-benchmarks/specfem3d/stress/stress_update.c":130:7)
#loc164 = loc("/home/raherrer/projects/carts/external/carts-benchmarks/specfem3d/stress/stress_update.c":131:7)
#loc165 = loc("/home/raherrer/projects/carts/external/carts-benchmarks/specfem3d/stress/stress_update.c":132:7)
#loc166 = loc("/home/raherrer/projects/carts/external/carts-benchmarks/specfem3d/stress/stress_update.c":133:7)
#loc167 = loc("/home/raherrer/projects/carts/external/carts-benchmarks/specfem3d/stress/stress_update.c":134:7)
#loc168 = loc("/home/raherrer/projects/carts/external/carts-benchmarks/specfem3d/stress/stress_update.c":135:7)
#loc170 = loc("/home/raherrer/projects/carts/external/carts-benchmarks/specfem3d/stress/stress_update.c":124:16)
#loc171 = loc("/home/raherrer/projects/carts/external/carts-benchmarks/specfem3d/stress/stress_update.c":125:16)
#loc172 = loc("/home/raherrer/projects/carts/external/carts-benchmarks/specfem3d/stress/stress_update.c":126:16)
#loc173 = loc("/home/raherrer/projects/carts/external/carts-benchmarks/specfem3d/stress/stress_update.c":127:17)
#loc174 = loc("/home/raherrer/projects/carts/external/carts-benchmarks/specfem3d/stress/stress_update.c":128:16)
#loc175 = loc("/home/raherrer/projects/carts/external/carts-benchmarks/specfem3d/stress/stress_update.c":129:20)
#loc176 = loc("/home/raherrer/projects/carts/external/carts-benchmarks/specfem3d/stress/stress_update.c":130:17)
#loc177 = loc("/home/raherrer/projects/carts/external/carts-benchmarks/specfem3d/stress/stress_update.c":131:17)
#loc178 = loc("/home/raherrer/projects/carts/external/carts-benchmarks/specfem3d/stress/stress_update.c":132:17)
#loc179 = loc("/home/raherrer/projects/carts/external/carts-benchmarks/specfem3d/stress/stress_update.c":133:17)
#loc180 = loc("/home/raherrer/projects/carts/external/carts-benchmarks/specfem3d/stress/stress_update.c":134:17)
#loc181 = loc("/home/raherrer/projects/carts/external/carts-benchmarks/specfem3d/stress/stress_update.c":135:17)
#loc182 = loc("/home/raherrer/projects/carts/external/carts-benchmarks/specfem3d/stress/stress_update.c":139:8)
#loc183 = loc("/home/raherrer/projects/carts/external/carts-benchmarks/specfem3d/stress/stress_update.c":139:12)
#loc184 = loc("/home/raherrer/projects/carts/external/carts-benchmarks/specfem3d/stress/stress_update.c":139:16)
#loc185 = loc("/home/raherrer/projects/carts/external/carts-benchmarks/specfem3d/stress/stress_update.c":139:20)
#loc186 = loc("/home/raherrer/projects/carts/external/carts-benchmarks/specfem3d/stress/stress_update.c":139:25)
#loc187 = loc("/home/raherrer/projects/carts/external/carts-benchmarks/specfem3d/stress/stress_update.c":139:29)
#loc188 = loc("/home/raherrer/projects/carts/external/carts-benchmarks/specfem3d/stress/stress_update.c":139:37)
#loc189 = loc("/home/raherrer/projects/carts/external/carts-benchmarks/specfem3d/stress/stress_update.c":139:42)
#loc190 = loc("/home/raherrer/projects/carts/external/carts-benchmarks/specfem3d/stress/stress_update.c":139:47)
#loc191 = loc("/home/raherrer/projects/carts/external/carts-benchmarks/specfem3d/stress/stress_update.c":139:52)
#loc192 = loc("/home/raherrer/projects/carts/external/carts-benchmarks/specfem3d/stress/stress_update.c":139:57)
#loc193 = loc("/home/raherrer/projects/carts/external/carts-benchmarks/specfem3d/stress/stress_update.c":139:62)
#loc194 = loc("/home/raherrer/projects/carts/external/carts-benchmarks/specfem3d/stress/stress_update.c":139:3)
#loc195 = loc("/home/raherrer/projects/carts/.install/carts/include/arts/utils/benchmarks/CartsBenchmarks.h":96:36)
#loc196 = loc("/home/raherrer/projects/carts/.install/carts/include/arts/utils/benchmarks/CartsBenchmarks.h":139:40)
#loc197 = loc("/home/raherrer/projects/carts/.install/carts/include/arts/utils/benchmarks/CartsBenchmarks.h":141:40)
#loc199 = loc("/home/raherrer/projects/carts/external/carts-benchmarks/specfem3d/stress/stress_update.c":145:29)
#loc200 = loc("/home/raherrer/projects/carts/external/carts-benchmarks/specfem3d/stress/stress_update.c":145:34)
#loc201 = loc("/home/raherrer/projects/carts/external/carts-benchmarks/specfem3d/stress/stress_update.c":145:39)
#loc202 = loc("/home/raherrer/projects/carts/external/carts-benchmarks/specfem3d/stress/stress_update.c":145:44)
#loc203 = loc("/home/raherrer/projects/carts/external/carts-benchmarks/specfem3d/stress/stress_update.c":145:49)
#loc204 = loc("/home/raherrer/projects/carts/external/carts-benchmarks/specfem3d/stress/stress_update.c":145:54)
#loc205 = loc("/home/raherrer/projects/carts/external/carts-benchmarks/specfem3d/stress/stress_update.c":145:59)
#loc206 = loc("/home/raherrer/projects/carts/external/carts-benchmarks/specfem3d/stress/stress_update.c":145:63)
#loc207 = loc("/home/raherrer/projects/carts/external/carts-benchmarks/specfem3d/stress/stress_update.c":145:67)
#loc208 = loc("/home/raherrer/projects/carts/external/carts-benchmarks/specfem3d/stress/stress_update.c":145:71)
#loc209 = loc("/home/raherrer/projects/carts/external/carts-benchmarks/specfem3d/stress/stress_update.c":145:75)
#loc210 = loc("/home/raherrer/projects/carts/external/carts-benchmarks/specfem3d/stress/stress_update.c":145:5)
#loc211 = loc("/home/raherrer/projects/carts/.install/carts/include/arts/utils/benchmarks/CartsBenchmarks.h":142:40)
#loc212 = loc("/home/raherrer/projects/carts/.install/carts/include/arts/utils/benchmarks/CartsBenchmarks.h":98:3)
#loc213 = loc("/home/raherrer/projects/carts/external/carts-benchmarks/specfem3d/stress/stress_update.c":155:10)
#loc214 = loc("/home/raherrer/projects/carts/external/carts-benchmarks/specfem3d/stress/stress_update.c":155:3)
#loc215 = loc("/home/raherrer/projects/carts/external/carts-benchmarks/specfem3d/stress/stress_update.c":156:10)
#loc216 = loc("/home/raherrer/projects/carts/external/carts-benchmarks/specfem3d/stress/stress_update.c":156:3)
#loc217 = loc("/home/raherrer/projects/carts/external/carts-benchmarks/specfem3d/stress/stress_update.c":158:17)
#loc218 = loc("/home/raherrer/projects/carts/external/carts-benchmarks/specfem3d/stress/stress_update.c":158:32)
#loc219 = loc("/home/raherrer/projects/carts/external/carts-benchmarks/specfem3d/stress/stress_update.c":158:47)
#loc220 = loc("/home/raherrer/projects/carts/external/carts-benchmarks/specfem3d/stress/stress_update.c":159:17)
#loc221 = loc("/home/raherrer/projects/carts/external/carts-benchmarks/specfem3d/stress/stress_update.c":159:32)
#loc222 = loc("/home/raherrer/projects/carts/external/carts-benchmarks/specfem3d/stress/stress_update.c":159:47)
#loc224 = loc("/home/raherrer/projects/carts/external/carts-benchmarks/specfem3d/stress/stress_update.c":158:30)
#loc225 = loc("/home/raherrer/projects/carts/external/carts-benchmarks/specfem3d/stress/stress_update.c":158:45)
#loc226 = loc("/home/raherrer/projects/carts/external/carts-benchmarks/specfem3d/stress/stress_update.c":158:60)
#loc227 = loc("/home/raherrer/projects/carts/external/carts-benchmarks/specfem3d/stress/stress_update.c":159:30)
#loc228 = loc("/home/raherrer/projects/carts/external/carts-benchmarks/specfem3d/stress/stress_update.c":159:45)
#loc229 = loc("/home/raherrer/projects/carts/external/carts-benchmarks/specfem3d/stress/stress_update.c":158:14)
#loc230 = loc("/home/raherrer/projects/carts/external/carts-benchmarks/specfem3d/stress/stress_update.c":161:24)
#loc231 = loc("/home/raherrer/projects/carts/.install/carts/include/arts/utils/benchmarks/CartsBenchmarks.h":251:3)
#loc232 = loc("/home/raherrer/projects/carts/.install/carts/include/arts/utils/benchmarks/CartsBenchmarks.h":99:41)
#loc233 = loc("/home/raherrer/projects/carts/.install/carts/include/arts/utils/benchmarks/CartsBenchmarks.h":100:41)
#loc234 = loc("/home/raherrer/projects/carts/external/carts-benchmarks/specfem3d/stress/stress_update.c":170:12)
#loc235 = loc("/home/raherrer/projects/carts/external/carts-benchmarks/specfem3d/stress/stress_update.c":171:12)
#loc236 = loc("/home/raherrer/projects/carts/external/carts-benchmarks/specfem3d/stress/stress_update.c":172:12)
#loc237 = loc("/home/raherrer/projects/carts/external/carts-benchmarks/specfem3d/stress/stress_update.c":173:12)
#loc238 = loc("/home/raherrer/projects/carts/external/carts-benchmarks/specfem3d/stress/stress_update.c":174:12)
#loc239 = loc("/home/raherrer/projects/carts/external/carts-benchmarks/specfem3d/stress/stress_update.c":175:12)
#loc240 = loc("/home/raherrer/projects/carts/external/carts-benchmarks/specfem3d/stress/stress_update.c":176:12)
#loc241 = loc("/home/raherrer/projects/carts/external/carts-benchmarks/specfem3d/stress/stress_update.c":177:12)
#loc242 = loc("/home/raherrer/projects/carts/external/carts-benchmarks/specfem3d/stress/stress_update.c":178:12)
#loc243 = loc("/home/raherrer/projects/carts/external/carts-benchmarks/specfem3d/stress/stress_update.c":179:12)
#loc244 = loc("/home/raherrer/projects/carts/external/carts-benchmarks/specfem3d/stress/stress_update.c":180:12)
#loc245 = loc("/home/raherrer/projects/carts/external/carts-benchmarks/specfem3d/stress/stress_update.c":181:12)
#loc248 = loc("/home/raherrer/projects/carts/external/carts-benchmarks/specfem3d/stress/stress_update.c":170:7)
#loc249 = loc("/home/raherrer/projects/carts/external/carts-benchmarks/specfem3d/stress/stress_update.c":171:7)
#loc250 = loc("/home/raherrer/projects/carts/external/carts-benchmarks/specfem3d/stress/stress_update.c":172:7)
#loc251 = loc("/home/raherrer/projects/carts/external/carts-benchmarks/specfem3d/stress/stress_update.c":173:7)
#loc252 = loc("/home/raherrer/projects/carts/external/carts-benchmarks/specfem3d/stress/stress_update.c":174:7)
#loc253 = loc("/home/raherrer/projects/carts/external/carts-benchmarks/specfem3d/stress/stress_update.c":175:7)
#loc254 = loc("/home/raherrer/projects/carts/external/carts-benchmarks/specfem3d/stress/stress_update.c":176:7)
#loc255 = loc("/home/raherrer/projects/carts/external/carts-benchmarks/specfem3d/stress/stress_update.c":177:7)
#loc256 = loc("/home/raherrer/projects/carts/external/carts-benchmarks/specfem3d/stress/stress_update.c":178:7)
#loc257 = loc("/home/raherrer/projects/carts/external/carts-benchmarks/specfem3d/stress/stress_update.c":179:7)
#loc258 = loc("/home/raherrer/projects/carts/external/carts-benchmarks/specfem3d/stress/stress_update.c":180:7)
#loc259 = loc("/home/raherrer/projects/carts/external/carts-benchmarks/specfem3d/stress/stress_update.c":181:7)
#loc260 = loc("/home/raherrer/projects/carts/external/carts-benchmarks/specfem3d/stress/stress_update.c":183:10)
#loc261 = loc("/home/raherrer/projects/carts/external/carts-benchmarks/specfem3d/stress/stress_update.c":183:5)
#loc262 = loc("/home/raherrer/projects/carts/external/carts-benchmarks/specfem3d/stress/stress_update.c":184:10)
#loc263 = loc("/home/raherrer/projects/carts/external/carts-benchmarks/specfem3d/stress/stress_update.c":184:5)
#loc264 = loc("/home/raherrer/projects/carts/external/carts-benchmarks/specfem3d/stress/stress_update.c":185:10)
#loc265 = loc("/home/raherrer/projects/carts/external/carts-benchmarks/specfem3d/stress/stress_update.c":185:5)
#loc266 = loc("/home/raherrer/projects/carts/external/carts-benchmarks/specfem3d/stress/stress_update.c":186:10)
#loc267 = loc("/home/raherrer/projects/carts/external/carts-benchmarks/specfem3d/stress/stress_update.c":186:5)
#loc268 = loc("/home/raherrer/projects/carts/external/carts-benchmarks/specfem3d/stress/stress_update.c":187:10)
#loc269 = loc("/home/raherrer/projects/carts/external/carts-benchmarks/specfem3d/stress/stress_update.c":187:5)
#loc270 = loc("/home/raherrer/projects/carts/external/carts-benchmarks/specfem3d/stress/stress_update.c":188:10)
#loc271 = loc("/home/raherrer/projects/carts/external/carts-benchmarks/specfem3d/stress/stress_update.c":188:5)
#loc272 = loc("/home/raherrer/projects/carts/external/carts-benchmarks/specfem3d/stress/stress_update.c":189:10)
#loc273 = loc("/home/raherrer/projects/carts/external/carts-benchmarks/specfem3d/stress/stress_update.c":189:5)
#loc274 = loc("/home/raherrer/projects/carts/external/carts-benchmarks/specfem3d/stress/stress_update.c":190:10)
#loc275 = loc("/home/raherrer/projects/carts/external/carts-benchmarks/specfem3d/stress/stress_update.c":190:5)
#loc276 = loc("/home/raherrer/projects/carts/external/carts-benchmarks/specfem3d/stress/stress_update.c":191:10)
#loc277 = loc("/home/raherrer/projects/carts/external/carts-benchmarks/specfem3d/stress/stress_update.c":191:5)
#loc278 = loc("/home/raherrer/projects/carts/external/carts-benchmarks/specfem3d/stress/stress_update.c":192:10)
#loc279 = loc("/home/raherrer/projects/carts/external/carts-benchmarks/specfem3d/stress/stress_update.c":192:5)
#loc280 = loc("/home/raherrer/projects/carts/external/carts-benchmarks/specfem3d/stress/stress_update.c":193:10)
#loc281 = loc("/home/raherrer/projects/carts/external/carts-benchmarks/specfem3d/stress/stress_update.c":193:5)
#loc282 = loc("/home/raherrer/projects/carts/external/carts-benchmarks/specfem3d/stress/stress_update.c":194:10)
#loc283 = loc("/home/raherrer/projects/carts/external/carts-benchmarks/specfem3d/stress/stress_update.c":194:5)
#loc284 = loc("/home/raherrer/projects/carts/external/carts-benchmarks/specfem3d/stress/stress_update.c":196:3)
#loc285 = loc("/home/raherrer/projects/carts/external/carts-benchmarks/specfem3d/stress/stress_update.c":197:3)
#loc286 = loc("/home/raherrer/projects/carts/external/carts-benchmarks/specfem3d/stress/stress_update.c":198:3)
#loc287 = loc("/home/raherrer/projects/carts/external/carts-benchmarks/specfem3d/stress/stress_update.c":199:3)
#loc288 = loc("/home/raherrer/projects/carts/external/carts-benchmarks/specfem3d/stress/stress_update.c":200:3)
#loc289 = loc("/home/raherrer/projects/carts/external/carts-benchmarks/specfem3d/stress/stress_update.c":201:3)
#loc290 = loc("/home/raherrer/projects/carts/external/carts-benchmarks/specfem3d/stress/stress_update.c":202:3)
#loc291 = loc("/home/raherrer/projects/carts/external/carts-benchmarks/specfem3d/stress/stress_update.c":203:3)
#loc292 = loc("/home/raherrer/projects/carts/external/carts-benchmarks/specfem3d/stress/stress_update.c":204:3)
#loc293 = loc("/home/raherrer/projects/carts/external/carts-benchmarks/specfem3d/stress/stress_update.c":205:3)
#loc294 = loc("/home/raherrer/projects/carts/external/carts-benchmarks/specfem3d/stress/stress_update.c":206:3)
#loc295 = loc("/home/raherrer/projects/carts/external/carts-benchmarks/specfem3d/stress/stress_update.c":207:3)
#loc296 = loc("/home/raherrer/projects/carts/.install/carts/include/arts/utils/benchmarks/CartsBenchmarks.h":101:36)
#loc297 = loc("/home/raherrer/projects/carts/.install/carts/include/arts/utils/benchmarks/CartsBenchmarks.h":80:32)
#loc298 = loc("/home/raherrer/projects/carts/external/carts-benchmarks/specfem3d/stress/stress_update.c":214:1)
#loc299 = loc("/home/raherrer/projects/carts/.install/carts/include/arts/utils/benchmarks/CartsBenchmarks.h":50:6)
#loc300 = loc("/home/raherrer/projects/carts/.install/carts/include/arts/utils/benchmarks/CartsBenchmarks.h":74:6)
#loc301 = loc("/home/raherrer/projects/carts/.install/carts/include/arts/utils/benchmarks/CartsBenchmarks.h":90:6)
#loc303 = loc("/home/raherrer/projects/carts/external/carts-benchmarks/specfem3d/stress/stress_update.c":22:1)
#loc304 = loc("/home/raherrer/projects/carts/external/carts-benchmarks/specfem3d/stress/stress_update.c":28:12)
#loc305 = loc("/home/raherrer/projects/carts/external/carts-benchmarks/specfem3d/stress/stress_update.c":25:3)
#loc307 = loc("/home/raherrer/projects/carts/external/carts-benchmarks/specfem3d/stress/stress_update.c":29:9)
#loc308 = loc("/home/raherrer/projects/carts/external/carts-benchmarks/specfem3d/stress/stress_update.c":30:9)
#loc309 = loc("/home/raherrer/projects/carts/external/carts-benchmarks/specfem3d/stress/stress_update.c":31:9)
#loc310 = loc("/home/raherrer/projects/carts/external/carts-benchmarks/specfem3d/stress/stress_update.c":32:9)
#loc311 = loc("/home/raherrer/projects/carts/external/carts-benchmarks/specfem3d/stress/stress_update.c":33:9)
#loc312 = loc("/home/raherrer/projects/carts/external/carts-benchmarks/specfem3d/stress/stress_update.c":34:9)
#loc313 = loc("/home/raherrer/projects/carts/external/carts-benchmarks/specfem3d/stress/stress_update.c":35:9)
#loc314 = loc("/home/raherrer/projects/carts/external/carts-benchmarks/specfem3d/stress/stress_update.c":35:24)
#loc315 = loc("/home/raherrer/projects/carts/external/carts-benchmarks/specfem3d/stress/stress_update.c":35:39)
#loc316 = loc("/home/raherrer/projects/carts/external/carts-benchmarks/specfem3d/stress/stress_update.c":35:54)
#loc317 = loc("/home/raherrer/projects/carts/external/carts-benchmarks/specfem3d/stress/stress_update.c":36:13)
#loc318 = loc("/home/raherrer/projects/carts/external/carts-benchmarks/specfem3d/stress/stress_update.c":36:28)
#loc320 = loc("/home/raherrer/projects/carts/external/carts-benchmarks/specfem3d/stress/stress_update.c":28:7)
#loc321 = loc("/home/raherrer/projects/carts/external/carts-benchmarks/specfem3d/stress/stress_update.c":29:40)
#loc322 = loc("/home/raherrer/projects/carts/external/carts-benchmarks/specfem3d/stress/stress_update.c":29:44)
#loc323 = loc("/home/raherrer/projects/carts/external/carts-benchmarks/specfem3d/stress/stress_update.c":29:31)
#loc324 = loc("/home/raherrer/projects/carts/external/carts-benchmarks/specfem3d/stress/stress_update.c":29:29)
#loc325 = loc("/home/raherrer/projects/carts/external/carts-benchmarks/specfem3d/stress/stress_update.c":29:21)
#loc326 = loc("/home/raherrer/projects/carts/external/carts-benchmarks/specfem3d/stress/stress_update.c":30:42)
#loc327 = loc("/home/raherrer/projects/carts/external/carts-benchmarks/specfem3d/stress/stress_update.c":30:46)
#loc328 = loc("/home/raherrer/projects/carts/external/carts-benchmarks/specfem3d/stress/stress_update.c":30:51)
#loc329 = loc("/home/raherrer/projects/carts/external/carts-benchmarks/specfem3d/stress/stress_update.c":30:32)
#loc330 = loc("/home/raherrer/projects/carts/external/carts-benchmarks/specfem3d/stress/stress_update.c":30:30)
#loc331 = loc("/home/raherrer/projects/carts/external/carts-benchmarks/specfem3d/stress/stress_update.c":30:21)
#loc332 = loc("/home/raherrer/projects/carts/external/carts-benchmarks/specfem3d/stress/stress_update.c":31:42)
#loc333 = loc("/home/raherrer/projects/carts/external/carts-benchmarks/specfem3d/stress/stress_update.c":31:46)
#loc334 = loc("/home/raherrer/projects/carts/external/carts-benchmarks/specfem3d/stress/stress_update.c":31:51)
#loc335 = loc("/home/raherrer/projects/carts/external/carts-benchmarks/specfem3d/stress/stress_update.c":31:32)
#loc336 = loc("/home/raherrer/projects/carts/external/carts-benchmarks/specfem3d/stress/stress_update.c":31:30)
#loc337 = loc("/home/raherrer/projects/carts/external/carts-benchmarks/specfem3d/stress/stress_update.c":31:21)
#loc338 = loc("/home/raherrer/projects/carts/external/carts-benchmarks/specfem3d/stress/stress_update.c":32:42)
#loc339 = loc("/home/raherrer/projects/carts/external/carts-benchmarks/specfem3d/stress/stress_update.c":32:46)
#loc340 = loc("/home/raherrer/projects/carts/external/carts-benchmarks/specfem3d/stress/stress_update.c":32:33)
#loc341 = loc("/home/raherrer/projects/carts/external/carts-benchmarks/specfem3d/stress/stress_update.c":32:31)
#loc342 = loc("/home/raherrer/projects/carts/external/carts-benchmarks/specfem3d/stress/stress_update.c":32:22)
#loc343 = loc("/home/raherrer/projects/carts/external/carts-benchmarks/specfem3d/stress/stress_update.c":33:46)
#loc344 = loc("/home/raherrer/projects/carts/external/carts-benchmarks/specfem3d/stress/stress_update.c":33:50)
#loc345 = loc("/home/raherrer/projects/carts/external/carts-benchmarks/specfem3d/stress/stress_update.c":33:37)
#loc346 = loc("/home/raherrer/projects/carts/external/carts-benchmarks/specfem3d/stress/stress_update.c":33:35)
#loc347 = loc("/home/raherrer/projects/carts/external/carts-benchmarks/specfem3d/stress/stress_update.c":33:28)
#loc348 = loc("/home/raherrer/projects/carts/external/carts-benchmarks/specfem3d/stress/stress_update.c":33:21)
#loc349 = loc("/home/raherrer/projects/carts/external/carts-benchmarks/specfem3d/stress/stress_update.c":34:50)
#loc350 = loc("/home/raherrer/projects/carts/external/carts-benchmarks/specfem3d/stress/stress_update.c":34:54)
#loc351 = loc("/home/raherrer/projects/carts/external/carts-benchmarks/specfem3d/stress/stress_update.c":34:41)
#loc352 = loc("/home/raherrer/projects/carts/external/carts-benchmarks/specfem3d/stress/stress_update.c":34:39)
#loc353 = loc("/home/raherrer/projects/carts/external/carts-benchmarks/specfem3d/stress/stress_update.c":34:32)
#loc354 = loc("/home/raherrer/projects/carts/external/carts-benchmarks/specfem3d/stress/stress_update.c":34:25)
#loc355 = loc("/home/raherrer/projects/carts/external/carts-benchmarks/specfem3d/stress/stress_update.c":36:41)
#loc356 = loc("/home/raherrer/projects/carts/external/carts-benchmarks/specfem3d/stress/stress_update.c":36:26)
#loc357 = loc("/home/raherrer/projects/carts/external/carts-benchmarks/specfem3d/stress/stress_update.c":35:67)
#loc358 = loc("/home/raherrer/projects/carts/external/carts-benchmarks/specfem3d/stress/stress_update.c":35:52)
#loc359 = loc("/home/raherrer/projects/carts/external/carts-benchmarks/specfem3d/stress/stress_update.c":35:37)
#loc360 = loc("/home/raherrer/projects/carts/external/carts-benchmarks/specfem3d/stress/stress_update.c":35:22)
#loc361 = loc("/home/raherrer/projects/carts/external/carts-benchmarks/specfem3d/stress/stress_update.c":37:12)
#loc362 = loc("/home/raherrer/projects/carts/external/carts-benchmarks/specfem3d/stress/stress_update.c":41:1)
#loc363 = loc("/home/raherrer/projects/carts/.install/carts/include/arts/utils/benchmarks/CartsBenchmarks.h":93:6)
#loc364 = loc("/home/raherrer/projects/carts/.install/carts/include/arts/utils/benchmarks/CartsBenchmarks.h":128:6)
#loc366 = loc("/home/raherrer/projects/carts/external/carts-benchmarks/specfem3d/stress/stress_update.c":55:1)
#loc367 = loc("/home/raherrer/projects/carts/external/carts-benchmarks/specfem3d/stress/stress_update.c":72:9)
#loc368 = loc("/home/raherrer/projects/carts/external/carts-benchmarks/specfem3d/stress/stress_update.c":71:9)
#loc369 = loc("/home/raherrer/projects/carts/external/carts-benchmarks/specfem3d/stress/stress_update.c":69:9)
#loc370 = loc("/home/raherrer/projects/carts/external/carts-benchmarks/specfem3d/stress/stress_update.c":68:9)
#loc371 = loc("/home/raherrer/projects/carts/external/carts-benchmarks/specfem3d/stress/stress_update.c":67:9)
#loc372 = loc("/home/raherrer/projects/carts/external/carts-benchmarks/specfem3d/stress/stress_update.c":65:9)
#loc373 = loc("/home/raherrer/projects/carts/external/carts-benchmarks/specfem3d/stress/stress_update.c":64:9)
#loc377 = loc("/home/raherrer/projects/carts/external/carts-benchmarks/specfem3d/stress/stress_update.c":64:29)
#loc378 = loc("/home/raherrer/projects/carts/external/carts-benchmarks/specfem3d/stress/stress_update.c":65:29)
#loc379 = loc("/home/raherrer/projects/carts/external/carts-benchmarks/specfem3d/stress/stress_update.c":67:31)
#loc380 = loc("/home/raherrer/projects/carts/external/carts-benchmarks/specfem3d/stress/stress_update.c":68:31)
#loc381 = loc("/home/raherrer/projects/carts/external/carts-benchmarks/specfem3d/stress/stress_update.c":69:31)
#loc382 = loc("/home/raherrer/projects/carts/external/carts-benchmarks/specfem3d/stress/stress_update.c":71:30)
#loc383 = loc("/home/raherrer/projects/carts/external/carts-benchmarks/specfem3d/stress/stress_update.c":71:39)
#loc384 = loc("/home/raherrer/projects/carts/external/carts-benchmarks/specfem3d/stress/stress_update.c":71:37)
#loc385 = loc("/home/raherrer/projects/carts/external/carts-benchmarks/specfem3d/stress/stress_update.c":71:48)
#loc386 = loc("/home/raherrer/projects/carts/external/carts-benchmarks/specfem3d/stress/stress_update.c":71:46)
#loc387 = loc("/home/raherrer/projects/carts/external/carts-benchmarks/specfem3d/stress/stress_update.c":72:37)
#loc388 = loc("/home/raherrer/projects/carts/external/carts-benchmarks/specfem3d/stress/stress_update.c":72:35)
#loc389 = loc("/home/raherrer/projects/carts/external/carts-benchmarks/specfem3d/stress/stress_update.c":74:9)
#loc390 = loc("/home/raherrer/projects/carts/external/carts-benchmarks/specfem3d/stress/stress_update.c":74:31)
#loc391 = loc("/home/raherrer/projects/carts/external/carts-benchmarks/specfem3d/stress/stress_update.c":74:40)
#loc392 = loc("/home/raherrer/projects/carts/external/carts-benchmarks/specfem3d/stress/stress_update.c":74:38)
#loc393 = loc("/home/raherrer/projects/carts/external/carts-benchmarks/specfem3d/stress/stress_update.c":74:49)
#loc394 = loc("/home/raherrer/projects/carts/external/carts-benchmarks/specfem3d/stress/stress_update.c":74:56)
#loc395 = loc("/home/raherrer/projects/carts/external/carts-benchmarks/specfem3d/stress/stress_update.c":74:54)
#loc396 = loc("/home/raherrer/projects/carts/external/carts-benchmarks/specfem3d/stress/stress_update.c":74:47)
#loc397 = loc("/home/raherrer/projects/carts/external/carts-benchmarks/specfem3d/stress/stress_update.c":74:28)
#loc398 = loc("/home/raherrer/projects/carts/external/carts-benchmarks/specfem3d/stress/stress_update.c":74:22)
#loc399 = loc("/home/raherrer/projects/carts/external/carts-benchmarks/specfem3d/stress/stress_update.c":75:9)
#loc400 = loc("/home/raherrer/projects/carts/external/carts-benchmarks/specfem3d/stress/stress_update.c":75:31)
#loc401 = loc("/home/raherrer/projects/carts/external/carts-benchmarks/specfem3d/stress/stress_update.c":75:40)
#loc402 = loc("/home/raherrer/projects/carts/external/carts-benchmarks/specfem3d/stress/stress_update.c":75:38)
#loc403 = loc("/home/raherrer/projects/carts/external/carts-benchmarks/specfem3d/stress/stress_update.c":75:49)
#loc404 = loc("/home/raherrer/projects/carts/external/carts-benchmarks/specfem3d/stress/stress_update.c":75:56)
#loc405 = loc("/home/raherrer/projects/carts/external/carts-benchmarks/specfem3d/stress/stress_update.c":75:54)
#loc406 = loc("/home/raherrer/projects/carts/external/carts-benchmarks/specfem3d/stress/stress_update.c":75:47)
#loc407 = loc("/home/raherrer/projects/carts/external/carts-benchmarks/specfem3d/stress/stress_update.c":75:28)
#loc408 = loc("/home/raherrer/projects/carts/external/carts-benchmarks/specfem3d/stress/stress_update.c":75:22)
#loc409 = loc("/home/raherrer/projects/carts/external/carts-benchmarks/specfem3d/stress/stress_update.c":76:9)
#loc410 = loc("/home/raherrer/projects/carts/external/carts-benchmarks/specfem3d/stress/stress_update.c":76:31)
#loc411 = loc("/home/raherrer/projects/carts/external/carts-benchmarks/specfem3d/stress/stress_update.c":76:40)
#loc412 = loc("/home/raherrer/projects/carts/external/carts-benchmarks/specfem3d/stress/stress_update.c":76:38)
#loc413 = loc("/home/raherrer/projects/carts/external/carts-benchmarks/specfem3d/stress/stress_update.c":76:49)
#loc414 = loc("/home/raherrer/projects/carts/external/carts-benchmarks/specfem3d/stress/stress_update.c":76:56)
#loc415 = loc("/home/raherrer/projects/carts/external/carts-benchmarks/specfem3d/stress/stress_update.c":76:54)
#loc416 = loc("/home/raherrer/projects/carts/external/carts-benchmarks/specfem3d/stress/stress_update.c":76:47)
#loc417 = loc("/home/raherrer/projects/carts/external/carts-benchmarks/specfem3d/stress/stress_update.c":76:28)
#loc418 = loc("/home/raherrer/projects/carts/external/carts-benchmarks/specfem3d/stress/stress_update.c":76:22)
#loc419 = loc("/home/raherrer/projects/carts/external/carts-benchmarks/specfem3d/stress/stress_update.c":78:9)
#loc420 = loc("/home/raherrer/projects/carts/external/carts-benchmarks/specfem3d/stress/stress_update.c":79:18)
#loc421 = loc("/home/raherrer/projects/carts/external/carts-benchmarks/specfem3d/stress/stress_update.c":79:16)
#loc422 = loc("/home/raherrer/projects/carts/external/carts-benchmarks/specfem3d/stress/stress_update.c":79:26)
#loc423 = loc("/home/raherrer/projects/carts/external/carts-benchmarks/specfem3d/stress/stress_update.c":79:54)
#loc424 = loc("/home/raherrer/projects/carts/external/carts-benchmarks/specfem3d/stress/stress_update.c":79:52)
#loc425 = loc("/home/raherrer/projects/carts/external/carts-benchmarks/specfem3d/stress/stress_update.c":79:23)
#loc426 = loc("/home/raherrer/projects/carts/external/carts-benchmarks/specfem3d/stress/stress_update.c":78:22)
#loc427 = loc("/home/raherrer/projects/carts/external/carts-benchmarks/specfem3d/stress/stress_update.c":80:9)
#loc428 = loc("/home/raherrer/projects/carts/external/carts-benchmarks/specfem3d/stress/stress_update.c":81:18)
#loc429 = loc("/home/raherrer/projects/carts/external/carts-benchmarks/specfem3d/stress/stress_update.c":81:16)
#loc430 = loc("/home/raherrer/projects/carts/external/carts-benchmarks/specfem3d/stress/stress_update.c":81:26)
#loc431 = loc("/home/raherrer/projects/carts/external/carts-benchmarks/specfem3d/stress/stress_update.c":81:54)
#loc432 = loc("/home/raherrer/projects/carts/external/carts-benchmarks/specfem3d/stress/stress_update.c":81:52)
#loc433 = loc("/home/raherrer/projects/carts/external/carts-benchmarks/specfem3d/stress/stress_update.c":81:23)
#loc434 = loc("/home/raherrer/projects/carts/external/carts-benchmarks/specfem3d/stress/stress_update.c":80:22)
#loc435 = loc("/home/raherrer/projects/carts/external/carts-benchmarks/specfem3d/stress/stress_update.c":82:9)
#loc436 = loc("/home/raherrer/projects/carts/external/carts-benchmarks/specfem3d/stress/stress_update.c":83:18)
#loc437 = loc("/home/raherrer/projects/carts/external/carts-benchmarks/specfem3d/stress/stress_update.c":83:16)
#loc438 = loc("/home/raherrer/projects/carts/external/carts-benchmarks/specfem3d/stress/stress_update.c":83:26)
#loc439 = loc("/home/raherrer/projects/carts/external/carts-benchmarks/specfem3d/stress/stress_update.c":83:54)
#loc440 = loc("/home/raherrer/projects/carts/external/carts-benchmarks/specfem3d/stress/stress_update.c":83:52)
#loc441 = loc("/home/raherrer/projects/carts/external/carts-benchmarks/specfem3d/stress/stress_update.c":83:23)
#loc442 = loc("/home/raherrer/projects/carts/external/carts-benchmarks/specfem3d/stress/stress_update.c":82:22)
#loc443 = loc("/home/raherrer/projects/carts/external/carts-benchmarks/specfem3d/stress/stress_update.c":87:1)
#loc444 = loc("/home/raherrer/projects/carts/.install/carts/include/arts/utils/benchmarks/CartsBenchmarks.h":134:6)
#loc445 = loc("/home/raherrer/projects/carts/.install/carts/include/arts/utils/benchmarks/CartsBenchmarks.h":137:6)
#loc446 = loc("/home/raherrer/projects/carts/.install/carts/include/arts/utils/benchmarks/CartsBenchmarks.h":207:6)
#loc447 = loc("/home/raherrer/projects/carts/.install/carts/include/arts/utils/benchmarks/CartsBenchmarks.h":77:6)
#loc449 = loc("/home/raherrer/projects/carts/external/carts-benchmarks/specfem3d/stress/stress_update.c":43:1)
#loc450 = loc("/home/raherrer/projects/carts/external/carts-benchmarks/specfem3d/stress/stress_update.c":44:23)
#loc451 = loc("/home/raherrer/projects/carts/external/carts-benchmarks/specfem3d/stress/stress_update.c":44:26)
#loc452 = loc("/home/raherrer/projects/carts/external/carts-benchmarks/specfem3d/stress/stress_update.c":44:17)
#loc453 = loc("/home/raherrer/projects/carts/external/carts-benchmarks/specfem3d/stress/stress_update.c":44:29)
#loc454 = loc("/home/raherrer/projects/carts/external/carts-benchmarks/specfem3d/stress/stress_update.c":44:32)
#loc455 = loc("/home/raherrer/projects/carts/external/carts-benchmarks/specfem3d/stress/stress_update.c":44:42)
#loc456 = loc("/home/raherrer/projects/carts/external/carts-benchmarks/specfem3d/stress/stress_update.c":44:45)
#loc457 = loc("/home/raherrer/projects/carts/external/carts-benchmarks/specfem3d/stress/stress_update.c":44:36)
#loc458 = loc("/home/raherrer/projects/carts/external/carts-benchmarks/specfem3d/stress/stress_update.c":44:34)
#loc459 = loc("/home/raherrer/projects/carts/external/carts-benchmarks/specfem3d/stress/stress_update.c":44:14)
#loc460 = loc("/home/raherrer/projects/carts/external/carts-benchmarks/specfem3d/stress/stress_update.c":45:1)
#loc462 = loc("/home/raherrer/projects/carts/external/carts-benchmarks/specfem3d/stress/stress_update.c":47:1)
#loc463 = loc("/home/raherrer/projects/carts/external/carts-benchmarks/specfem3d/stress/stress_update.c":48:22)
#loc464 = loc("/home/raherrer/projects/carts/external/carts-benchmarks/specfem3d/stress/stress_update.c":48:17)
#loc465 = loc("/home/raherrer/projects/carts/external/carts-benchmarks/specfem3d/stress/stress_update.c":48:26)
#loc466 = loc("/home/raherrer/projects/carts/external/carts-benchmarks/specfem3d/stress/stress_update.c":48:29)
#loc467 = loc("/home/raherrer/projects/carts/external/carts-benchmarks/specfem3d/stress/stress_update.c":48:32)
#loc468 = loc("/home/raherrer/projects/carts/external/carts-benchmarks/specfem3d/stress/stress_update.c":48:45)
#loc469 = loc("/home/raherrer/projects/carts/external/carts-benchmarks/specfem3d/stress/stress_update.c":48:48)
#loc470 = loc("/home/raherrer/projects/carts/external/carts-benchmarks/specfem3d/stress/stress_update.c":48:36)
#loc471 = loc("/home/raherrer/projects/carts/external/carts-benchmarks/specfem3d/stress/stress_update.c":48:34)
#loc472 = loc("/home/raherrer/projects/carts/external/carts-benchmarks/specfem3d/stress/stress_update.c":48:14)
#loc473 = loc("/home/raherrer/projects/carts/external/carts-benchmarks/specfem3d/stress/stress_update.c":49:1)
#loc475 = loc("/home/raherrer/projects/carts/external/carts-benchmarks/specfem3d/stress/stress_update.c":51:1)
#loc476 = loc("/home/raherrer/projects/carts/external/carts-benchmarks/specfem3d/stress/stress_update.c":52:22)
#loc477 = loc("/home/raherrer/projects/carts/external/carts-benchmarks/specfem3d/stress/stress_update.c":52:17)
#loc478 = loc("/home/raherrer/projects/carts/external/carts-benchmarks/specfem3d/stress/stress_update.c":52:25)
#loc479 = loc("/home/raherrer/projects/carts/external/carts-benchmarks/specfem3d/stress/stress_update.c":52:29)
#loc480 = loc("/home/raherrer/projects/carts/external/carts-benchmarks/specfem3d/stress/stress_update.c":52:32)
#loc481 = loc("/home/raherrer/projects/carts/external/carts-benchmarks/specfem3d/stress/stress_update.c":52:48)
#loc482 = loc("/home/raherrer/projects/carts/external/carts-benchmarks/specfem3d/stress/stress_update.c":52:51)
#loc483 = loc("/home/raherrer/projects/carts/external/carts-benchmarks/specfem3d/stress/stress_update.c":52:36)
#loc484 = loc("/home/raherrer/projects/carts/external/carts-benchmarks/specfem3d/stress/stress_update.c":52:34)
#loc485 = loc("/home/raherrer/projects/carts/external/carts-benchmarks/specfem3d/stress/stress_update.c":52:14)
#loc486 = loc("/home/raherrer/projects/carts/external/carts-benchmarks/specfem3d/stress/stress_update.c":53:1)
