#loc5 = loc("/home/raherrer/projects/carts/external/carts-benchmarks/polybench/convolution-2d/convolution-2d.c":71:5)
#loc31 = loc("/home/raherrer/projects/carts/external/carts-benchmarks/polybench/convolution-2d/convolution-2d.c":85:3)
#loc37 = loc("/home/raherrer/projects/carts/external/carts-benchmarks/polybench/convolution-2d/convolution-2d.c":94:3)
#loc38 = loc("/home/raherrer/projects/carts/external/carts-benchmarks/polybench/convolution-2d/convolution-2d.c":95:5)
#loc43 = loc("/home/raherrer/projects/carts/external/carts-benchmarks/polybench/convolution-2d/convolution-2d.c":103:3)
#loc51 = loc("/home/raherrer/projects/carts/external/carts-benchmarks/polybench/convolution-2d/convolution-2d.c":113:3)
#loc59 = loc("/home/raherrer/projects/carts/external/carts-benchmarks/polybench/convolution-2d/convolution-2d.c":121:3)
#loc70 = loc("/home/raherrer/projects/carts/external/carts-benchmarks/polybench/convolution-2d/convolution-2d.c":28:13)
#loc73 = loc("/home/raherrer/projects/carts/external/carts-benchmarks/polybench/convolution-2d/convolution-2d.c":31:3)
#loc75 = loc("/home/raherrer/projects/carts/external/carts-benchmarks/polybench/convolution-2d/convolution-2d.c":32:5)
#loc83 = loc("/home/raherrer/projects/carts/external/carts-benchmarks/polybench/convolution-2d/convolution-2d.c":55:13)
#loc85 = loc("/home/raherrer/projects/carts/external/carts-benchmarks/polybench/convolution-2d/convolution-2d.c":60:3)
#loc94 = loc("/home/raherrer/projects/carts/external/carts-benchmarks/polybench/convolution-2d/convolution-2d.c":61:5)
#map = affine_map<()[s0] -> (s0 - 1)>
module attributes {dlti.dl_spec = #dlti.dl_spec<!llvm.ptr<270> = dense<32> : vector<4xi64>, !llvm.ptr<271> = dense<32> : vector<4xi64>, !llvm.ptr<272> = dense<64> : vector<4xi64>, i64 = dense<64> : vector<2xi64>, i128 = dense<128> : vector<2xi64>, f80 = dense<128> : vector<2xi64>, !llvm.ptr = dense<64> : vector<4xi64>, i1 = dense<8> : vector<2xi64>, i8 = dense<8> : vector<2xi64>, i16 = dense<16> : vector<2xi64>, i32 = dense<32> : vector<2xi64>, f16 = dense<16> : vector<2xi64>, f64 = dense<64> : vector<2xi64>, f128 = dense<128> : vector<2xi64>, "dlti.endianness" = "little", "dlti.mangling_mode" = "e", "dlti.legal_int_widths" = array<i32: 8, 16, 32, 64>, "dlti.stack_alignment" = 128 : i64>, llvm.data_layout = "e-m:e-p270:32:32-p271:32:32-p272:64:64-i64:64-i128:128-f80:128-n8:16:32:64-S128", llvm.target_triple = "x86_64-unknown-linux-gnu", "polygeist.target-cpu" = "x86-64", "polygeist.target-features" = "+cmov,+cx8,+fxsr,+mmx,+sse,+sse2,+x87", "polygeist.tune-cpu" = "generic"} {
  llvm.mlir.global internal constant @str3("cleanup\00") {addr_space = 0 : i32} loc(#loc1)
  llvm.mlir.global internal constant @str2("verification\00") {addr_space = 0 : i32} loc(#loc2)
  llvm.mlir.global internal constant @str1("startup\00") {addr_space = 0 : i32} loc(#loc3)
  llvm.mlir.global internal constant @str0("convolution-2d\00") {addr_space = 0 : i32} loc(#loc4)
  func.func @main(%arg0: i32 loc("/home/raherrer/projects/carts/external/carts-benchmarks/polybench/convolution-2d/convolution-2d.c":71:5), %arg1: memref<?xmemref<?xi8>> loc("/home/raherrer/projects/carts/external/carts-benchmarks/polybench/convolution-2d/convolution-2d.c":71:5)) -> i32 attributes {llvm.linkage = #llvm.linkage<external>} {
    %false = arith.constant false loc(#loc)
    %0 = llvm.mlir.addressof @str3 : !llvm.ptr loc(#loc)
    %cst = arith.constant 0.000000e+00 : f64 loc(#loc)
    %1 = llvm.mlir.addressof @str2 : !llvm.ptr loc(#loc)
    %cst_0 = arith.constant 0.000000e+00 : f32 loc(#loc)
    %c1024_i32 = arith.constant 1024 : i32 loc(#loc)
    %2 = llvm.mlir.addressof @str1 : !llvm.ptr loc(#loc)
    %c0_i32 = arith.constant 0 : i32 loc(#loc)
    %3 = llvm.mlir.addressof @str0 : !llvm.ptr loc(#loc)
    %true = arith.constant true loc(#loc6)
    %4 = "polygeist.undef"() : () -> i32 loc(#loc7)
    %alloca = memref.alloca() : memref<1xf64> loc(#loc8)
    %5 = "polygeist.undef"() : () -> f64 loc(#loc8)
    affine.store %5, %alloca[0] : memref<1xf64> loc(#loc8)
    %alloca_1 = memref.alloca() : memref<1xmemref<?xmemref<?xf32>>> loc(#loc9)
    %alloca_2 = memref.alloca() : memref<1xmemref<?xmemref<?xf32>>> loc(#loc9)
    scf.if %true {
      scf.execute_region {
        func.call @carts_benchmarks_start() : () -> () loc(#loc10)
        scf.yield loc(#loc)
      } loc(#loc)
    } loc(#loc)
    scf.if %true {
      scf.execute_region {
        %11 = polygeist.pointer2memref %3 : !llvm.ptr to memref<?xi8> loc(#loc11)
        func.call @carts_e2e_timer_start(%11) : (memref<?xi8>) -> () loc(#loc11)
        scf.yield loc(#loc)
      } loc(#loc)
    } loc(#loc)
    scf.if %true {
      scf.execute_region {
        %11 = polygeist.pointer2memref %2 : !llvm.ptr to memref<?xi8> loc(#loc12)
        %12 = polygeist.pointer2memref %3 : !llvm.ptr to memref<?xi8> loc(#loc12)
        func.call @carts_phase_timer_start(%11, %12) : (memref<?xi8>, memref<?xi8>) -> () loc(#loc12)
        scf.yield loc(#loc)
      } loc(#loc)
    } loc(#loc)
    %6 = scf.if %true -> (i32) {
      %11 = scf.execute_region -> i32 {
        %12 = scf.if %true -> (i32) {
          %13 = scf.execute_region -> i32 {
            scf.yield %c1024_i32 : i32 loc(#loc)
          } loc(#loc)
          scf.yield %13 : i32 loc(#loc)
        } else {
          scf.yield %4 : i32 loc(#loc)
        } loc(#loc)
        scf.yield %12 : i32 loc(#loc)
      } loc(#loc)
      scf.yield %11 : i32 loc(#loc)
    } else {
      scf.yield %4 : i32 loc(#loc)
    } loc(#loc)
    %7 = arith.index_cast %6 : i32 to index loc(#loc)
    scf.if %true {
      scf.execute_region {
        scf.if %true {
          %11 = scf.execute_region -> memref<?xmemref<?xf32>> {
            %12 = polygeist.typeSize memref<?xf32> : index loc(#loc13)
            %13 = arith.extsi %6 : i32 to i64 loc(#loc14)
            %14 = arith.index_cast %12 : index to i64 loc(#loc15)
            %15 = arith.muli %13, %14 : i64 loc(#loc16)
            %16 = arith.index_cast %15 : i64 to index loc(#loc13)
            %17 = arith.divui %16, %12 : index loc(#loc13)
            %alloc = memref.alloc(%17) : memref<?xmemref<?xf32>> loc(#loc13)
            affine.store %alloc, %alloca_2[0] : memref<1xmemref<?xmemref<?xf32>>> loc(#loc9)
            scf.yield %alloc : memref<?xmemref<?xf32>> loc(#loc)
          } loc(#loc)
        } loc(#loc)
        scf.yield loc(#loc)
      } loc(#loc)
    } loc(#loc)
    scf.if %true {
      scf.execute_region {
        scf.if %true {
          %11 = scf.execute_region -> memref<?xmemref<?xf32>> {
            %12 = polygeist.typeSize memref<?xf32> : index loc(#loc17)
            %13 = arith.extsi %6 : i32 to i64 loc(#loc18)
            %14 = arith.index_cast %12 : index to i64 loc(#loc19)
            %15 = arith.muli %13, %14 : i64 loc(#loc20)
            %16 = arith.index_cast %15 : i64 to index loc(#loc17)
            %17 = arith.divui %16, %12 : index loc(#loc17)
            %alloc = memref.alloc(%17) : memref<?xmemref<?xf32>> loc(#loc17)
            affine.store %alloc, %alloca_1[0] : memref<1xmemref<?xmemref<?xf32>>> loc(#loc9)
            scf.yield %alloc : memref<?xmemref<?xf32>> loc(#loc)
          } loc(#loc)
        } loc(#loc)
        scf.yield loc(#loc)
      } loc(#loc)
    } loc(#loc)
    scf.if %true {
      scf.execute_region {
        scf.if %true {
          scf.execute_region {
            %11 = affine.load %alloca_2[0] : memref<1xmemref<?xmemref<?xf32>>> loc(#loc21)
            %12 = polygeist.typeSize f32 : index loc(#loc22)
            %13 = arith.extsi %6 : i32 to i64 loc(#loc23)
            %14 = arith.index_cast %12 : index to i64 loc(#loc24)
            %15 = arith.muli %13, %14 : i64 loc(#loc25)
            %16 = arith.index_cast %15 : i64 to index loc(#loc22)
            %17 = arith.divui %16, %12 : index loc(#loc22)
            %18 = affine.load %alloca_1[0] : memref<1xmemref<?xmemref<?xf32>>> loc(#loc26)
            %19 = polygeist.typeSize f32 : index loc(#loc27)
            %20 = arith.extsi %6 : i32 to i64 loc(#loc28)
            %21 = arith.index_cast %19 : index to i64 loc(#loc29)
            %22 = arith.muli %20, %21 : i64 loc(#loc30)
            %23 = arith.index_cast %22 : i64 to index loc(#loc27)
            %24 = arith.divui %23, %19 : index loc(#loc27)
            affine.for %arg2 loc("/home/raherrer/projects/carts/external/carts-benchmarks/polybench/convolution-2d/convolution-2d.c":85:3) = 0 to %7 {
              scf.if %true {
                scf.execute_region {
                  %25 = polygeist.subindex %11[%arg2] () : memref<?xmemref<?xf32>> -> memref<?xmemref<?xf32>> loc(#loc21)
                  %alloc = memref.alloc(%17) : memref<?xf32> loc(#loc22)
                  affine.store %alloc, %25[0] : memref<?xmemref<?xf32>> loc(#loc32)
                  scf.yield loc(#loc)
                } loc(#loc)
              } loc(#loc)
              scf.if %true {
                scf.execute_region {
                  %25 = polygeist.subindex %18[%arg2] () : memref<?xmemref<?xf32>> -> memref<?xmemref<?xf32>> loc(#loc26)
                  %alloc = memref.alloc(%24) : memref<?xf32> loc(#loc27)
                  affine.store %alloc, %25[0] : memref<?xmemref<?xf32>> loc(#loc33)
                  scf.yield loc(#loc)
                } loc(#loc)
              } loc(#loc)
            } loc(#loc31)
            scf.yield loc(#loc)
          } loc(#loc)
        } loc(#loc)
        scf.yield loc(#loc)
      } loc(#loc)
    } loc(#loc)
    scf.if %true {
      scf.execute_region {
        %11 = affine.load %alloca_2[0] : memref<1xmemref<?xmemref<?xf32>>> loc(#loc34)
        func.call @init_array(%6, %6, %11) : (i32, i32, memref<?xmemref<?xf32>>) -> () loc(#loc35)
        scf.yield loc(#loc)
      } loc(#loc)
    } loc(#loc)
    scf.if %true {
      scf.execute_region {
        scf.if %true {
          scf.execute_region {
            %11 = affine.load %alloca_1[0] : memref<1xmemref<?xmemref<?xf32>>> loc(#loc36)
            affine.for %arg2 loc("/home/raherrer/projects/carts/external/carts-benchmarks/polybench/convolution-2d/convolution-2d.c":94:3) = 0 to %7 {
              scf.if %true {
                scf.execute_region {
                  scf.if %true {
                    scf.execute_region {
                      %12 = polygeist.subindex %11[%arg2] () : memref<?xmemref<?xf32>> -> memref<?xmemref<?xf32>> loc(#loc36)
                      affine.for %arg3 loc("/home/raherrer/projects/carts/external/carts-benchmarks/polybench/convolution-2d/convolution-2d.c":95:5) = 0 to %7 {
                        scf.if %true {
                          scf.execute_region {
                            %13 = affine.load %12[0] : memref<?xmemref<?xf32>> loc(#loc36)
                            %14 = polygeist.subindex %13[%arg3] () : memref<?xf32> -> memref<?xf32> loc(#loc36)
                            affine.store %cst_0, %14[0] : memref<?xf32> loc(#loc39)
                            scf.yield loc(#loc)
                          } loc(#loc)
                        } loc(#loc)
                      } loc(#loc38)
                      scf.yield loc(#loc)
                    } loc(#loc)
                  } loc(#loc)
                  scf.yield loc(#loc)
                } loc(#loc)
              } loc(#loc)
            } loc(#loc37)
            scf.yield loc(#loc)
          } loc(#loc)
        } loc(#loc)
        scf.yield loc(#loc)
      } loc(#loc)
    } loc(#loc)
    scf.if %true {
      scf.execute_region {
        %11 = polygeist.pointer2memref %2 : !llvm.ptr to memref<?xi8> loc(#loc40)
        func.call @carts_phase_timer_stop(%11) : (memref<?xi8>) -> () loc(#loc40)
        scf.yield loc(#loc)
      } loc(#loc)
    } loc(#loc)
    scf.if %true {
      scf.execute_region {
        %11 = polygeist.pointer2memref %3 : !llvm.ptr to memref<?xi8> loc(#loc41)
        func.call @carts_kernel_timer_start(%11) : (memref<?xi8>) -> () loc(#loc41)
        scf.yield loc(#loc)
      } loc(#loc)
    } loc(#loc)
    scf.if %true {
      scf.execute_region {
        scf.if %true {
          scf.execute_region {
            %11 = polygeist.pointer2memref %3 : !llvm.ptr to memref<?xi8> loc(#loc42)
            affine.for %arg2 loc("/home/raherrer/projects/carts/external/carts-benchmarks/polybench/convolution-2d/convolution-2d.c":103:3) = 0 to 1 {
              scf.if %true {
                scf.execute_region {
                  %12 = affine.load %alloca_2[0] : memref<1xmemref<?xmemref<?xf32>>> loc(#loc44)
                  %13 = affine.load %alloca_1[0] : memref<1xmemref<?xmemref<?xf32>>> loc(#loc45)
                  func.call @kernel_conv2d(%6, %6, %12, %13) : (i32, i32, memref<?xmemref<?xf32>>, memref<?xmemref<?xf32>>) -> () loc(#loc46)
                  scf.yield loc(#loc)
                } loc(#loc)
              } loc(#loc)
              scf.if %true {
                scf.execute_region {
                  func.call @carts_kernel_timer_accum(%11) : (memref<?xi8>) -> () loc(#loc42)
                  scf.yield loc(#loc)
                } loc(#loc)
              } loc(#loc)
            } loc(#loc43)
            scf.yield loc(#loc)
          } loc(#loc)
        } loc(#loc)
        scf.yield loc(#loc)
      } loc(#loc)
    } loc(#loc)
    scf.if %true {
      scf.execute_region {
        %11 = polygeist.pointer2memref %3 : !llvm.ptr to memref<?xi8> loc(#loc47)
        func.call @carts_kernel_timer_print(%11) : (memref<?xi8>) -> () loc(#loc47)
        scf.yield loc(#loc)
      } loc(#loc)
    } loc(#loc)
    scf.if %true {
      scf.execute_region {
        %11 = polygeist.pointer2memref %1 : !llvm.ptr to memref<?xi8> loc(#loc48)
        %12 = polygeist.pointer2memref %3 : !llvm.ptr to memref<?xi8> loc(#loc48)
        func.call @carts_phase_timer_start(%11, %12) : (memref<?xi8>, memref<?xi8>) -> () loc(#loc48)
        scf.yield loc(#loc)
      } loc(#loc)
    } loc(#loc)
    scf.if %true {
      scf.execute_region {
        scf.if %true {
          scf.execute_region {
            affine.store %cst, %alloca[0] : memref<1xf64> loc(#loc8)
            scf.yield loc(#loc)
          } loc(#loc)
        } loc(#loc)
        scf.yield loc(#loc)
      } loc(#loc)
    } loc(#loc)
    %8 = scf.if %true -> (i32) {
      %11 = scf.execute_region -> i32 {
        %12 = scf.if %true -> (i32) {
          %13 = scf.execute_region -> i32 {
            %14 = scf.if %false -> (i32) {
              scf.yield %6 : i32 loc(#loc49)
            } else {
              scf.yield %6 : i32 loc(#loc49)
            } loc(#loc49)
            scf.yield %14 : i32 loc(#loc)
          } loc(#loc)
          scf.yield %13 : i32 loc(#loc)
        } else {
          scf.yield %4 : i32 loc(#loc)
        } loc(#loc)
        scf.yield %12 : i32 loc(#loc)
      } loc(#loc)
      scf.yield %11 : i32 loc(#loc)
    } else {
      scf.yield %4 : i32 loc(#loc)
    } loc(#loc)
    %9 = arith.index_cast %8 : i32 to index loc(#loc)
    scf.if %true {
      scf.execute_region {
        scf.if %true {
          scf.execute_region {
            %11 = affine.load %alloca_1[0] : memref<1xmemref<?xmemref<?xf32>>> loc(#loc50)
            affine.for %arg2 loc("/home/raherrer/projects/carts/external/carts-benchmarks/polybench/convolution-2d/convolution-2d.c":113:3) = 0 to %9 {
              scf.if %true {
                scf.execute_region {
                  %12 = polygeist.subindex %11[%arg2] () : memref<?xmemref<?xf32>> -> memref<?xmemref<?xf32>> loc(#loc50)
                  %13 = affine.load %12[0] : memref<?xmemref<?xf32>> loc(#loc50)
                  %14 = polygeist.subindex %13[%arg2] () : memref<?xf32> -> memref<?xf32> loc(#loc50)
                  %15 = affine.load %14[0] : memref<?xf32> loc(#loc50)
                  %16 = arith.extf %15 : f32 to f64 loc(#loc50)
                  %17 = affine.load %alloca[0] : memref<1xf64> loc(#loc52)
                  %18 = arith.addf %17, %16 : f64 loc(#loc52)
                  affine.store %18, %alloca[0] : memref<1xf64> loc(#loc52)
                  scf.yield loc(#loc)
                } loc(#loc)
              } loc(#loc)
            } loc(#loc51)
            scf.yield loc(#loc)
          } loc(#loc)
        } loc(#loc)
        scf.yield loc(#loc)
      } loc(#loc)
    } loc(#loc)
    scf.if %true {
      scf.execute_region {
        %11 = affine.load %alloca[0] : memref<1xf64> loc(#loc53)
        func.call @carts_bench_checksum_d(%11) : (f64) -> () loc(#loc54)
        scf.yield loc(#loc)
      } loc(#loc)
    } loc(#loc)
    scf.if %true {
      scf.execute_region {
        %11 = polygeist.pointer2memref %1 : !llvm.ptr to memref<?xi8> loc(#loc55)
        func.call @carts_phase_timer_stop(%11) : (memref<?xi8>) -> () loc(#loc55)
        scf.yield loc(#loc)
      } loc(#loc)
    } loc(#loc)
    scf.if %true {
      scf.execute_region {
        %11 = polygeist.pointer2memref %0 : !llvm.ptr to memref<?xi8> loc(#loc56)
        %12 = polygeist.pointer2memref %3 : !llvm.ptr to memref<?xi8> loc(#loc56)
        func.call @carts_phase_timer_start(%11, %12) : (memref<?xi8>, memref<?xi8>) -> () loc(#loc56)
        scf.yield loc(#loc)
      } loc(#loc)
    } loc(#loc)
    scf.if %true {
      scf.execute_region {
        scf.if %true {
          scf.execute_region {
            %11 = affine.load %alloca_2[0] : memref<1xmemref<?xmemref<?xf32>>> loc(#loc57)
            %12 = affine.load %alloca_1[0] : memref<1xmemref<?xmemref<?xf32>>> loc(#loc58)
            affine.for %arg2 loc("/home/raherrer/projects/carts/external/carts-benchmarks/polybench/convolution-2d/convolution-2d.c":121:3) = 0 to %7 {
              scf.if %true {
                scf.execute_region {
                  %13 = polygeist.subindex %11[%arg2] () : memref<?xmemref<?xf32>> -> memref<?xmemref<?xf32>> loc(#loc57)
                  %14 = affine.load %13[0] : memref<?xmemref<?xf32>> loc(#loc60)
                  memref.dealloc %14 : memref<?xf32> loc(#loc60)
                  scf.yield loc(#loc)
                } loc(#loc)
              } loc(#loc)
              scf.if %true {
                scf.execute_region {
                  %13 = polygeist.subindex %12[%arg2] () : memref<?xmemref<?xf32>> -> memref<?xmemref<?xf32>> loc(#loc58)
                  %14 = affine.load %13[0] : memref<?xmemref<?xf32>> loc(#loc61)
                  memref.dealloc %14 : memref<?xf32> loc(#loc61)
                  scf.yield loc(#loc)
                } loc(#loc)
              } loc(#loc)
            } loc(#loc59)
            scf.yield loc(#loc)
          } loc(#loc)
        } loc(#loc)
        scf.yield loc(#loc)
      } loc(#loc)
    } loc(#loc)
    scf.if %true {
      scf.execute_region {
        %11 = affine.load %alloca_2[0] : memref<1xmemref<?xmemref<?xf32>>> loc(#loc62)
        memref.dealloc %11 : memref<?xmemref<?xf32>> loc(#loc62)
        scf.yield loc(#loc)
      } loc(#loc)
    } loc(#loc)
    scf.if %true {
      scf.execute_region {
        %11 = affine.load %alloca_1[0] : memref<1xmemref<?xmemref<?xf32>>> loc(#loc63)
        memref.dealloc %11 : memref<?xmemref<?xf32>> loc(#loc63)
        scf.yield loc(#loc)
      } loc(#loc)
    } loc(#loc)
    scf.if %true {
      scf.execute_region {
        %11 = polygeist.pointer2memref %0 : !llvm.ptr to memref<?xi8> loc(#loc64)
        func.call @carts_phase_timer_stop(%11) : (memref<?xi8>) -> () loc(#loc64)
        scf.yield loc(#loc)
      } loc(#loc)
    } loc(#loc)
    scf.if %true {
      scf.execute_region {
        func.call @carts_e2e_timer_stop() : () -> () loc(#loc65)
        scf.yield loc(#loc)
      } loc(#loc)
    } loc(#loc)
    %10 = scf.if %true -> (i32) {
      %11 = scf.execute_region -> i32 {
        %12 = scf.if %true -> (i32) {
          %13 = scf.execute_region -> i32 {
            scf.yield %c0_i32 : i32 loc(#loc)
          } loc(#loc)
          scf.yield %13 : i32 loc(#loc)
        } else {
          scf.yield %4 : i32 loc(#loc)
        } loc(#loc)
        scf.yield %12 : i32 loc(#loc)
      } loc(#loc)
      scf.yield %11 : i32 loc(#loc)
    } else {
      scf.yield %4 : i32 loc(#loc)
    } loc(#loc)
    return %10 : i32 loc(#loc66)
  } loc(#loc5)
  func.func private @carts_benchmarks_start() attributes {llvm.linkage = #llvm.linkage<external>} loc(#loc67)
  func.func private @carts_e2e_timer_start(memref<?xi8>) attributes {llvm.linkage = #llvm.linkage<external>} loc(#loc68)
  func.func private @carts_phase_timer_start(memref<?xi8>, memref<?xi8>) attributes {llvm.linkage = #llvm.linkage<external>} loc(#loc69)
  func.func private @init_array(%arg0: i32 loc("/home/raherrer/projects/carts/external/carts-benchmarks/polybench/convolution-2d/convolution-2d.c":28:13), %arg1: i32 loc("/home/raherrer/projects/carts/external/carts-benchmarks/polybench/convolution-2d/convolution-2d.c":28:13), %arg2: memref<?xmemref<?xf32>> loc("/home/raherrer/projects/carts/external/carts-benchmarks/polybench/convolution-2d/convolution-2d.c":28:13)) attributes {llvm.linkage = #llvm.linkage<internal>} {
    %true = arith.constant true loc(#loc71)
    %0 = arith.index_cast %arg0 : i32 to index loc(#loc70)
    %1 = arith.index_cast %arg1 : i32 to index loc(#loc70)
    scf.if %true {
      scf.execute_region {
        scf.if %true {
          scf.execute_region {
            %2 = arith.sitofp %arg1 : i32 to f32 loc(#loc72)
            affine.for %arg3 loc("/home/raherrer/projects/carts/external/carts-benchmarks/polybench/convolution-2d/convolution-2d.c":31:3) = 0 to %0 {
              %3 = arith.index_cast %arg3 : index to i32 loc(#loc73)
              scf.if %true {
                scf.execute_region {
                  %4 = polygeist.subindex %arg2[%arg3] () : memref<?xmemref<?xf32>> -> memref<?xmemref<?xf32>> loc(#loc74)
                  affine.for %arg4 loc("/home/raherrer/projects/carts/external/carts-benchmarks/polybench/convolution-2d/convolution-2d.c":32:5) = 0 to %1 {
                    %5 = arith.index_cast %arg4 : index to i32 loc(#loc75)
                    scf.if %true {
                      scf.execute_region {
                        %6 = affine.load %4[0] : memref<?xmemref<?xf32>> loc(#loc74)
                        %7 = polygeist.subindex %6[%arg4] () : memref<?xf32> -> memref<?xf32> loc(#loc74)
                        %8 = arith.addi %3, %5 : i32 loc(#loc76)
                        %9 = arith.sitofp %8 : i32 to f32 loc(#loc77)
                        %10 = arith.divf %9, %2 : f32 loc(#loc78)
                        affine.store %10, %7[0] : memref<?xf32> loc(#loc79)
                        scf.yield loc(#loc)
                      } loc(#loc)
                    } loc(#loc)
                  } loc(#loc75)
                  scf.yield loc(#loc)
                } loc(#loc)
              } loc(#loc)
            } loc(#loc73)
            scf.yield loc(#loc)
          } loc(#loc)
        } loc(#loc)
        scf.yield loc(#loc)
      } loc(#loc)
    } loc(#loc)
    return loc(#loc80)
  } loc(#loc70)
  func.func private @carts_phase_timer_stop(memref<?xi8>) attributes {llvm.linkage = #llvm.linkage<external>} loc(#loc81)
  func.func private @carts_kernel_timer_start(memref<?xi8>) attributes {llvm.linkage = #llvm.linkage<external>} loc(#loc82)
  func.func private @kernel_conv2d(%arg0: i32 loc("/home/raherrer/projects/carts/external/carts-benchmarks/polybench/convolution-2d/convolution-2d.c":55:13), %arg1: i32 loc("/home/raherrer/projects/carts/external/carts-benchmarks/polybench/convolution-2d/convolution-2d.c":55:13), %arg2: memref<?xmemref<?xf32>> loc("/home/raherrer/projects/carts/external/carts-benchmarks/polybench/convolution-2d/convolution-2d.c":55:13), %arg3: memref<?xmemref<?xf32>> loc("/home/raherrer/projects/carts/external/carts-benchmarks/polybench/convolution-2d/convolution-2d.c":55:13)) attributes {llvm.linkage = #llvm.linkage<internal>} {
    %c-1_i32 = arith.constant -1 : i32 loc(#loc)
    %true = arith.constant true loc(#loc84)
    %c1_i32 = arith.constant 1 : i32 loc(#loc)
    %cst = arith.constant 2.000000e-01 : f64 loc(#loc)
    %cst_0 = arith.constant 5.000000e-01 : f64 loc(#loc)
    %cst_1 = arith.constant -8.000000e-01 : f64 loc(#loc)
    %cst_2 = arith.constant -3.000000e-01 : f64 loc(#loc)
    %cst_3 = arith.constant 6.000000e-01 : f64 loc(#loc)
    %cst_4 = arith.constant -9.000000e-01 : f64 loc(#loc)
    %cst_5 = arith.constant 4.000000e-01 : f64 loc(#loc)
    %cst_6 = arith.constant 0.69999999999999996 : f64 loc(#loc)
    %cst_7 = arith.constant 1.000000e-01 : f64 loc(#loc)
    %0 = arith.index_cast %arg0 : i32 to index loc(#loc83)
    %1 = arith.index_cast %arg1 : i32 to index loc(#loc83)
    scf.if %true {
      scf.execute_region {
        scf.if %true {
          scf.execute_region {
            affine.for %arg4 loc("/home/raherrer/projects/carts/external/carts-benchmarks/polybench/convolution-2d/convolution-2d.c":60:3) = 1 to #map()[%0] {
              scf.execute_region {
                %2 = arith.index_cast %arg4 : index to i32 loc(#loc85)
                scf.if %true {
                  scf.execute_region {
                    scf.if %true {
                      scf.execute_region {
                        %3 = polygeist.subindex %arg3[%arg4] () : memref<?xmemref<?xf32>> -> memref<?xmemref<?xf32>> loc(#loc86)
                        %4 = arith.addi %2, %c-1_i32 : i32 loc(#loc87)
                        %5 = arith.index_cast %4 : i32 to index loc(#loc88)
                        %6 = polygeist.subindex %arg2[%5] () : memref<?xmemref<?xf32>> -> memref<?xmemref<?xf32>> loc(#loc89)
                        %7 = polygeist.subindex %arg2[%arg4] () : memref<?xmemref<?xf32>> -> memref<?xmemref<?xf32>> loc(#loc90)
                        %8 = arith.addi %2, %c1_i32 : i32 loc(#loc91)
                        %9 = arith.index_cast %8 : i32 to index loc(#loc92)
                        %10 = polygeist.subindex %arg2[%9] () : memref<?xmemref<?xf32>> -> memref<?xmemref<?xf32>> loc(#loc93)
                        affine.for %arg5 loc("/home/raherrer/projects/carts/external/carts-benchmarks/polybench/convolution-2d/convolution-2d.c":61:5) = 1 to #map()[%1] {
                          scf.execute_region {
                            %11 = arith.index_cast %arg5 : index to i32 loc(#loc94)
                            scf.if %true {
                              scf.execute_region {
                                %12 = affine.load %3[0] : memref<?xmemref<?xf32>> loc(#loc86)
                                %13 = polygeist.subindex %12[%arg5] () : memref<?xf32> -> memref<?xf32> loc(#loc86)
                                %14 = affine.load %6[0] : memref<?xmemref<?xf32>> loc(#loc89)
                                %15 = arith.addi %11, %c-1_i32 : i32 loc(#loc95)
                                %16 = arith.index_cast %15 : i32 to index loc(#loc96)
                                %17 = polygeist.subindex %14[%16] () : memref<?xf32> -> memref<?xf32> loc(#loc89)
                                %18 = affine.load %17[0] : memref<?xf32> loc(#loc89)
                                %19 = arith.extf %18 : f32 to f64 loc(#loc89)
                                %20 = arith.mulf %19, %cst : f64 loc(#loc97)
                                %21 = polygeist.subindex %14[%arg5] () : memref<?xf32> -> memref<?xf32> loc(#loc98)
                                %22 = affine.load %21[0] : memref<?xf32> loc(#loc98)
                                %23 = arith.extf %22 : f32 to f64 loc(#loc98)
                                %24 = arith.mulf %23, %cst_0 : f64 loc(#loc99)
                                %25 = arith.addf %20, %24 : f64 loc(#loc100)
                                %26 = arith.addi %11, %c1_i32 : i32 loc(#loc101)
                                %27 = arith.index_cast %26 : i32 to index loc(#loc102)
                                %28 = polygeist.subindex %14[%27] () : memref<?xf32> -> memref<?xf32> loc(#loc103)
                                %29 = affine.load %28[0] : memref<?xf32> loc(#loc103)
                                %30 = arith.extf %29 : f32 to f64 loc(#loc103)
                                %31 = arith.mulf %30, %cst_1 : f64 loc(#loc104)
                                %32 = arith.addf %25, %31 : f64 loc(#loc105)
                                %33 = affine.load %7[0] : memref<?xmemref<?xf32>> loc(#loc90)
                                %34 = polygeist.subindex %33[%16] () : memref<?xf32> -> memref<?xf32> loc(#loc90)
                                %35 = affine.load %34[0] : memref<?xf32> loc(#loc90)
                                %36 = arith.extf %35 : f32 to f64 loc(#loc90)
                                %37 = arith.mulf %36, %cst_2 : f64 loc(#loc106)
                                %38 = arith.addf %32, %37 : f64 loc(#loc107)
                                %39 = polygeist.subindex %33[%arg5] () : memref<?xf32> -> memref<?xf32> loc(#loc108)
                                %40 = affine.load %39[0] : memref<?xf32> loc(#loc108)
                                %41 = arith.extf %40 : f32 to f64 loc(#loc108)
                                %42 = arith.mulf %41, %cst_3 : f64 loc(#loc109)
                                %43 = arith.addf %38, %42 : f64 loc(#loc110)
                                %44 = polygeist.subindex %33[%27] () : memref<?xf32> -> memref<?xf32> loc(#loc111)
                                %45 = affine.load %44[0] : memref<?xf32> loc(#loc111)
                                %46 = arith.extf %45 : f32 to f64 loc(#loc111)
                                %47 = arith.mulf %46, %cst_4 : f64 loc(#loc112)
                                %48 = arith.addf %43, %47 : f64 loc(#loc113)
                                %49 = affine.load %10[0] : memref<?xmemref<?xf32>> loc(#loc93)
                                %50 = polygeist.subindex %49[%16] () : memref<?xf32> -> memref<?xf32> loc(#loc93)
                                %51 = affine.load %50[0] : memref<?xf32> loc(#loc93)
                                %52 = arith.extf %51 : f32 to f64 loc(#loc93)
                                %53 = arith.mulf %52, %cst_5 : f64 loc(#loc114)
                                %54 = arith.addf %48, %53 : f64 loc(#loc115)
                                %55 = polygeist.subindex %49[%arg5] () : memref<?xf32> -> memref<?xf32> loc(#loc116)
                                %56 = affine.load %55[0] : memref<?xf32> loc(#loc116)
                                %57 = arith.extf %56 : f32 to f64 loc(#loc116)
                                %58 = arith.mulf %57, %cst_6 : f64 loc(#loc117)
                                %59 = arith.addf %54, %58 : f64 loc(#loc118)
                                %60 = polygeist.subindex %49[%27] () : memref<?xf32> -> memref<?xf32> loc(#loc119)
                                %61 = affine.load %60[0] : memref<?xf32> loc(#loc119)
                                %62 = arith.extf %61 : f32 to f64 loc(#loc119)
                                %63 = arith.mulf %62, %cst_7 : f64 loc(#loc120)
                                %64 = arith.addf %59, %63 : f64 loc(#loc121)
                                %65 = arith.truncf %64 : f64 to f32 loc(#loc122)
                                affine.store %65, %13[0] : memref<?xf32> loc(#loc123)
                                scf.yield loc(#loc)
                              } loc(#loc)
                            } loc(#loc)
                            scf.yield loc(#loc94)
                          } loc(#loc94)
                        } loc(#loc94)
                        scf.yield loc(#loc)
                      } loc(#loc)
                    } loc(#loc)
                    scf.yield loc(#loc)
                  } loc(#loc)
                } loc(#loc)
                scf.yield loc(#loc85)
              } loc(#loc85)
            } loc(#loc85)
            scf.yield loc(#loc)
          } loc(#loc)
        } loc(#loc)
        scf.yield loc(#loc)
      } loc(#loc)
    } loc(#loc)
    return loc(#loc124)
  } loc(#loc83)
  func.func private @carts_kernel_timer_accum(memref<?xi8>) attributes {llvm.linkage = #llvm.linkage<external>} loc(#loc125)
  func.func private @carts_kernel_timer_print(memref<?xi8>) attributes {llvm.linkage = #llvm.linkage<external>} loc(#loc126)
  func.func private @carts_bench_checksum_d(f64) attributes {llvm.linkage = #llvm.linkage<external>} loc(#loc127)
  func.func private @carts_e2e_timer_stop() attributes {llvm.linkage = #llvm.linkage<external>} loc(#loc128)
} loc(#loc)
#loc = loc(unknown)
#loc1 = loc("/home/raherrer/projects/carts/.install/carts/include/arts/utils/benchmarks/CartsBenchmarks.h":100:65)
#loc2 = loc("/home/raherrer/projects/carts/.install/carts/include/arts/utils/benchmarks/CartsBenchmarks.h":98:27)
#loc3 = loc("/home/raherrer/projects/carts/.install/carts/include/arts/utils/benchmarks/CartsBenchmarks.h":95:65)
#loc4 = loc("/home/raherrer/projects/carts/external/carts-benchmarks/polybench/convolution-2d/convolution-2d.c":74:25)
#loc6 = loc("/home/raherrer/projects/carts/external/carts-benchmarks/polybench/convolution-2d/convolution-2d.c":71:1)
#loc7 = loc("/home/raherrer/projects/carts/external/carts-benchmarks/polybench/convolution-2d/convolution-2d.c":121:8)
#loc8 = loc("/home/raherrer/projects/carts/external/carts-benchmarks/polybench/convolution-2d/convolution-2d.c":111:3)
#loc9 = loc("/home/raherrer/projects/carts/external/carts-benchmarks/polybench/convolution-2d/convolution-2d.h":49:21)
#loc10 = loc("/home/raherrer/projects/carts/.install/carts/include/arts/utils/benchmarks/CartsBenchmarks.h":54:34)
#loc11 = loc("/home/raherrer/projects/carts/.install/carts/include/arts/utils/benchmarks/CartsBenchmarks.h":79:37)
#loc12 = loc("/home/raherrer/projects/carts/.install/carts/include/arts/utils/benchmarks/CartsBenchmarks.h":95:41)
#loc13 = loc("/home/raherrer/projects/carts/external/carts-benchmarks/polybench/convolution-2d/convolution-2d.c":82:19)
#loc14 = loc("/home/raherrer/projects/carts/external/carts-benchmarks/polybench/convolution-2d/convolution-2d.c":82:40)
#loc15 = loc("/home/raherrer/projects/carts/external/carts-benchmarks/polybench/convolution-2d/convolution-2d.c":82:45)
#loc16 = loc("/home/raherrer/projects/carts/external/carts-benchmarks/polybench/convolution-2d/convolution-2d.c":82:43)
#loc17 = loc("/home/raherrer/projects/carts/external/carts-benchmarks/polybench/convolution-2d/convolution-2d.c":83:19)
#loc18 = loc("/home/raherrer/projects/carts/external/carts-benchmarks/polybench/convolution-2d/convolution-2d.c":83:40)
#loc19 = loc("/home/raherrer/projects/carts/external/carts-benchmarks/polybench/convolution-2d/convolution-2d.c":83:45)
#loc20 = loc("/home/raherrer/projects/carts/external/carts-benchmarks/polybench/convolution-2d/convolution-2d.c":83:43)
#loc21 = loc("/home/raherrer/projects/carts/external/carts-benchmarks/polybench/convolution-2d/convolution-2d.c":86:5)
#loc22 = loc("/home/raherrer/projects/carts/external/carts-benchmarks/polybench/convolution-2d/convolution-2d.c":86:12)
#loc23 = loc("/home/raherrer/projects/carts/external/carts-benchmarks/polybench/convolution-2d/convolution-2d.c":86:32)
#loc24 = loc("/home/raherrer/projects/carts/external/carts-benchmarks/polybench/convolution-2d/convolution-2d.c":86:37)
#loc25 = loc("/home/raherrer/projects/carts/external/carts-benchmarks/polybench/convolution-2d/convolution-2d.c":86:35)
#loc26 = loc("/home/raherrer/projects/carts/external/carts-benchmarks/polybench/convolution-2d/convolution-2d.c":87:5)
#loc27 = loc("/home/raherrer/projects/carts/external/carts-benchmarks/polybench/convolution-2d/convolution-2d.c":87:12)
#loc28 = loc("/home/raherrer/projects/carts/external/carts-benchmarks/polybench/convolution-2d/convolution-2d.c":87:32)
#loc29 = loc("/home/raherrer/projects/carts/external/carts-benchmarks/polybench/convolution-2d/convolution-2d.c":87:37)
#loc30 = loc("/home/raherrer/projects/carts/external/carts-benchmarks/polybench/convolution-2d/convolution-2d.c":87:35)
#loc32 = loc("/home/raherrer/projects/carts/external/carts-benchmarks/polybench/convolution-2d/convolution-2d.c":86:10)
#loc33 = loc("/home/raherrer/projects/carts/external/carts-benchmarks/polybench/convolution-2d/convolution-2d.c":87:10)
#loc34 = loc("/home/raherrer/projects/carts/external/carts-benchmarks/polybench/convolution-2d/convolution-2d.c":91:22)
#loc35 = loc("/home/raherrer/projects/carts/external/carts-benchmarks/polybench/convolution-2d/convolution-2d.c":91:3)
#loc36 = loc("/home/raherrer/projects/carts/external/carts-benchmarks/polybench/convolution-2d/convolution-2d.c":96:7)
#loc39 = loc("/home/raherrer/projects/carts/external/carts-benchmarks/polybench/convolution-2d/convolution-2d.c":96:15)
#loc40 = loc("/home/raherrer/projects/carts/.install/carts/include/arts/utils/benchmarks/CartsBenchmarks.h":96:36)
#loc41 = loc("/home/raherrer/projects/carts/.install/carts/include/arts/utils/benchmarks/CartsBenchmarks.h":139:40)
#loc42 = loc("/home/raherrer/projects/carts/.install/carts/include/arts/utils/benchmarks/CartsBenchmarks.h":141:40)
#loc44 = loc("/home/raherrer/projects/carts/external/carts-benchmarks/polybench/convolution-2d/convolution-2d.c":104:27)
#loc45 = loc("/home/raherrer/projects/carts/external/carts-benchmarks/polybench/convolution-2d/convolution-2d.c":104:30)
#loc46 = loc("/home/raherrer/projects/carts/external/carts-benchmarks/polybench/convolution-2d/convolution-2d.c":104:5)
#loc47 = loc("/home/raherrer/projects/carts/.install/carts/include/arts/utils/benchmarks/CartsBenchmarks.h":142:40)
#loc48 = loc("/home/raherrer/projects/carts/.install/carts/include/arts/utils/benchmarks/CartsBenchmarks.h":98:3)
#loc49 = loc("/home/raherrer/projects/carts/external/carts-benchmarks/polybench/convolution-2d/convolution-2d.c":112:14)
#loc50 = loc("/home/raherrer/projects/carts/external/carts-benchmarks/polybench/convolution-2d/convolution-2d.c":114:17)
#loc52 = loc("/home/raherrer/projects/carts/external/carts-benchmarks/polybench/convolution-2d/convolution-2d.c":114:14)
#loc53 = loc("/home/raherrer/projects/carts/external/carts-benchmarks/polybench/convolution-2d/convolution-2d.c":116:24)
#loc54 = loc("/home/raherrer/projects/carts/.install/carts/include/arts/utils/benchmarks/CartsBenchmarks.h":251:3)
#loc55 = loc("/home/raherrer/projects/carts/.install/carts/include/arts/utils/benchmarks/CartsBenchmarks.h":99:41)
#loc56 = loc("/home/raherrer/projects/carts/.install/carts/include/arts/utils/benchmarks/CartsBenchmarks.h":100:41)
#loc57 = loc("/home/raherrer/projects/carts/external/carts-benchmarks/polybench/convolution-2d/convolution-2d.c":122:10)
#loc58 = loc("/home/raherrer/projects/carts/external/carts-benchmarks/polybench/convolution-2d/convolution-2d.c":123:10)
#loc60 = loc("/home/raherrer/projects/carts/external/carts-benchmarks/polybench/convolution-2d/convolution-2d.c":122:5)
#loc61 = loc("/home/raherrer/projects/carts/external/carts-benchmarks/polybench/convolution-2d/convolution-2d.c":123:5)
#loc62 = loc("/home/raherrer/projects/carts/external/carts-benchmarks/polybench/convolution-2d/convolution-2d.c":125:3)
#loc63 = loc("/home/raherrer/projects/carts/external/carts-benchmarks/polybench/convolution-2d/convolution-2d.c":126:3)
#loc64 = loc("/home/raherrer/projects/carts/.install/carts/include/arts/utils/benchmarks/CartsBenchmarks.h":101:36)
#loc65 = loc("/home/raherrer/projects/carts/.install/carts/include/arts/utils/benchmarks/CartsBenchmarks.h":80:32)
#loc66 = loc("/home/raherrer/projects/carts/external/carts-benchmarks/polybench/convolution-2d/convolution-2d.c":133:1)
#loc67 = loc("/home/raherrer/projects/carts/.install/carts/include/arts/utils/benchmarks/CartsBenchmarks.h":50:6)
#loc68 = loc("/home/raherrer/projects/carts/.install/carts/include/arts/utils/benchmarks/CartsBenchmarks.h":74:6)
#loc69 = loc("/home/raherrer/projects/carts/.install/carts/include/arts/utils/benchmarks/CartsBenchmarks.h":90:6)
#loc71 = loc("/home/raherrer/projects/carts/external/carts-benchmarks/polybench/convolution-2d/convolution-2d.c":28:1)
#loc72 = loc("/home/raherrer/projects/carts/external/carts-benchmarks/polybench/convolution-2d/convolution-2d.c":33:39)
#loc74 = loc("/home/raherrer/projects/carts/external/carts-benchmarks/polybench/convolution-2d/convolution-2d.c":33:7)
#loc76 = loc("/home/raherrer/projects/carts/external/carts-benchmarks/polybench/convolution-2d/convolution-2d.c":33:32)
#loc77 = loc("/home/raherrer/projects/carts/external/carts-benchmarks/polybench/convolution-2d/convolution-2d.c":33:18)
#loc78 = loc("/home/raherrer/projects/carts/external/carts-benchmarks/polybench/convolution-2d/convolution-2d.c":33:37)
#loc79 = loc("/home/raherrer/projects/carts/external/carts-benchmarks/polybench/convolution-2d/convolution-2d.c":33:15)
#loc80 = loc("/home/raherrer/projects/carts/external/carts-benchmarks/polybench/convolution-2d/convolution-2d.c":35:1)
#loc81 = loc("/home/raherrer/projects/carts/.install/carts/include/arts/utils/benchmarks/CartsBenchmarks.h":93:6)
#loc82 = loc("/home/raherrer/projects/carts/.install/carts/include/arts/utils/benchmarks/CartsBenchmarks.h":128:6)
#loc84 = loc("/home/raherrer/projects/carts/external/carts-benchmarks/polybench/convolution-2d/convolution-2d.c":55:1)
#loc86 = loc("/home/raherrer/projects/carts/external/carts-benchmarks/polybench/convolution-2d/convolution-2d.c":62:7)
#loc87 = loc("/home/raherrer/projects/carts/external/carts-benchmarks/polybench/convolution-2d/convolution-2d.c":62:27)
#loc88 = loc("/home/raherrer/projects/carts/external/carts-benchmarks/polybench/convolution-2d/convolution-2d.c":62:30)
#loc89 = loc("/home/raherrer/projects/carts/external/carts-benchmarks/polybench/convolution-2d/convolution-2d.c":62:23)
#loc90 = loc("/home/raherrer/projects/carts/external/carts-benchmarks/polybench/convolution-2d/convolution-2d.c":63:49)
#loc91 = loc("/home/raherrer/projects/carts/external/carts-benchmarks/polybench/convolution-2d/convolution-2d.c":64:48)
#loc92 = loc("/home/raherrer/projects/carts/external/carts-benchmarks/polybench/convolution-2d/convolution-2d.c":64:51)
#loc93 = loc("/home/raherrer/projects/carts/external/carts-benchmarks/polybench/convolution-2d/convolution-2d.c":64:44)
#loc95 = loc("/home/raherrer/projects/carts/external/carts-benchmarks/polybench/convolution-2d/convolution-2d.c":62:34)
#loc96 = loc("/home/raherrer/projects/carts/external/carts-benchmarks/polybench/convolution-2d/convolution-2d.c":62:37)
#loc97 = loc("/home/raherrer/projects/carts/external/carts-benchmarks/polybench/convolution-2d/convolution-2d.c":62:21)
#loc98 = loc("/home/raherrer/projects/carts/external/carts-benchmarks/polybench/convolution-2d/convolution-2d.c":62:47)
#loc99 = loc("/home/raherrer/projects/carts/external/carts-benchmarks/polybench/convolution-2d/convolution-2d.c":62:45)
#loc100 = loc("/home/raherrer/projects/carts/external/carts-benchmarks/polybench/convolution-2d/convolution-2d.c":62:39)
#loc101 = loc("/home/raherrer/projects/carts/external/carts-benchmarks/polybench/convolution-2d/convolution-2d.c":63:35)
#loc102 = loc("/home/raherrer/projects/carts/external/carts-benchmarks/polybench/convolution-2d/convolution-2d.c":63:38)
#loc103 = loc("/home/raherrer/projects/carts/external/carts-benchmarks/polybench/convolution-2d/convolution-2d.c":63:24)
#loc104 = loc("/home/raherrer/projects/carts/external/carts-benchmarks/polybench/convolution-2d/convolution-2d.c":63:22)
#loc105 = loc("/home/raherrer/projects/carts/external/carts-benchmarks/polybench/convolution-2d/convolution-2d.c":62:59)
#loc106 = loc("/home/raherrer/projects/carts/external/carts-benchmarks/polybench/convolution-2d/convolution-2d.c":63:47)
#loc107 = loc("/home/raherrer/projects/carts/external/carts-benchmarks/polybench/convolution-2d/convolution-2d.c":63:40)
#loc108 = loc("/home/raherrer/projects/carts/external/carts-benchmarks/polybench/convolution-2d/convolution-2d.c":63:69)
#loc109 = loc("/home/raherrer/projects/carts/external/carts-benchmarks/polybench/convolution-2d/convolution-2d.c":63:67)
#loc110 = loc("/home/raherrer/projects/carts/external/carts-benchmarks/polybench/convolution-2d/convolution-2d.c":63:61)
#loc111 = loc("/home/raherrer/projects/carts/external/carts-benchmarks/polybench/convolution-2d/convolution-2d.c":64:24)
#loc112 = loc("/home/raherrer/projects/carts/external/carts-benchmarks/polybench/convolution-2d/convolution-2d.c":64:22)
#loc113 = loc("/home/raherrer/projects/carts/external/carts-benchmarks/polybench/convolution-2d/convolution-2d.c":63:77)
#loc114 = loc("/home/raherrer/projects/carts/external/carts-benchmarks/polybench/convolution-2d/convolution-2d.c":64:42)
#loc115 = loc("/home/raherrer/projects/carts/external/carts-benchmarks/polybench/convolution-2d/convolution-2d.c":64:36)
#loc116 = loc("/home/raherrer/projects/carts/external/carts-benchmarks/polybench/convolution-2d/convolution-2d.c":64:68)
#loc117 = loc("/home/raherrer/projects/carts/external/carts-benchmarks/polybench/convolution-2d/convolution-2d.c":64:66)
#loc118 = loc("/home/raherrer/projects/carts/external/carts-benchmarks/polybench/convolution-2d/convolution-2d.c":64:60)
#loc119 = loc("/home/raherrer/projects/carts/external/carts-benchmarks/polybench/convolution-2d/convolution-2d.c":65:23)
#loc120 = loc("/home/raherrer/projects/carts/external/carts-benchmarks/polybench/convolution-2d/convolution-2d.c":65:21)
#loc121 = loc("/home/raherrer/projects/carts/external/carts-benchmarks/polybench/convolution-2d/convolution-2d.c":64:80)
#loc122 = loc("/home/raherrer/projects/carts/external/carts-benchmarks/polybench/convolution-2d/convolution-2d.c":62:17)
#loc123 = loc("/home/raherrer/projects/carts/external/carts-benchmarks/polybench/convolution-2d/convolution-2d.c":62:15)
#loc124 = loc("/home/raherrer/projects/carts/external/carts-benchmarks/polybench/convolution-2d/convolution-2d.c":69:1)
#loc125 = loc("/home/raherrer/projects/carts/.install/carts/include/arts/utils/benchmarks/CartsBenchmarks.h":134:6)
#loc126 = loc("/home/raherrer/projects/carts/.install/carts/include/arts/utils/benchmarks/CartsBenchmarks.h":137:6)
#loc127 = loc("/home/raherrer/projects/carts/.install/carts/include/arts/utils/benchmarks/CartsBenchmarks.h":207:6)
#loc128 = loc("/home/raherrer/projects/carts/.install/carts/include/arts/utils/benchmarks/CartsBenchmarks.h":77:6)
