#loc45 = loc("/home/raherrer/projects/carts/external/carts-benchmarks/kastors-jacobi/poisson-for/poisson-for.c":98:3)
#loc52 = loc("/home/raherrer/projects/carts/external/carts-benchmarks/kastors-jacobi/poisson-for/poisson-for.c":105:3)
#loc53 = loc("/home/raherrer/projects/carts/external/carts-benchmarks/kastors-jacobi/poisson-for/poisson-for.c":106:5)
#loc63 = loc("/home/raherrer/projects/carts/external/carts-benchmarks/kastors-jacobi/poisson-for/poisson-for.c":118:3)
#loc67 = loc("/home/raherrer/projects/carts/external/carts-benchmarks/kastors-jacobi/poisson-for/poisson-for.c":119:5)
#loc78 = loc("/home/raherrer/projects/carts/external/carts-benchmarks/kastors-jacobi/poisson-for/poisson-for.c":131:3)
#loc87 = loc("/home/raherrer/projects/carts/external/carts-benchmarks/kastors-jacobi/poisson-for/poisson-for.c":142:3)
#loc96 = loc("/home/raherrer/projects/carts/external/carts-benchmarks/kastors-jacobi/poisson-for/poisson-for.c":152:3)
#loc109 = loc("/home/raherrer/projects/carts/external/carts-benchmarks/kastors-jacobi/poisson-for/poisson-for.c":57:13)
#loc148 = loc("/home/raherrer/projects/carts/external/carts-benchmarks/kastors-jacobi/poisson-for/poisson-for.c":18:13)
#loc157 = loc("/home/raherrer/projects/carts/external/carts-benchmarks/kastors-jacobi/poisson-for/poisson-for.c":22:3)
#loc203 = loc("/home/raherrer/projects/carts/external/carts-benchmarks/kastors-jacobi/poisson-for/poisson-for.c":47:15)
#loc210 = loc("/home/raherrer/projects/carts/external/carts-benchmarks/kastors-jacobi/poisson-for/poisson-for.c":52:15)
#map = affine_map<()[s0] -> (s0 + 1)>
#set = affine_set<(d0) : (d0 == 0)>
module attributes {dlti.dl_spec = #dlti.dl_spec<!llvm.ptr<270> = dense<32> : vector<4xi64>, !llvm.ptr<271> = dense<32> : vector<4xi64>, !llvm.ptr<272> = dense<64> : vector<4xi64>, i64 = dense<64> : vector<2xi64>, i128 = dense<128> : vector<2xi64>, f80 = dense<128> : vector<2xi64>, !llvm.ptr = dense<64> : vector<4xi64>, i1 = dense<8> : vector<2xi64>, i8 = dense<8> : vector<2xi64>, i16 = dense<16> : vector<2xi64>, i32 = dense<32> : vector<2xi64>, f16 = dense<16> : vector<2xi64>, f64 = dense<64> : vector<2xi64>, f128 = dense<128> : vector<2xi64>, "dlti.endianness" = "little", "dlti.mangling_mode" = "e", "dlti.legal_int_widths" = array<i32: 8, 16, 32, 64>, "dlti.stack_alignment" = 128 : i64>, llvm.data_layout = "e-m:e-p270:32:32-p271:32:32-p272:64:64-i64:64-i128:128-f80:128-n8:16:32:64-S128", llvm.target_triple = "x86_64-unknown-linux-gnu", "polygeist.target-cpu" = "x86-64", "polygeist.target-features" = "+cmov,+cx8,+fxsr,+mmx,+sse,+sse2,+x87", "polygeist.tune-cpu" = "generic"} {
  llvm.mlir.global internal constant @str3("cleanup\00") {addr_space = 0 : i32} loc(#loc1)
  llvm.mlir.global internal constant @str2("verification\00") {addr_space = 0 : i32} loc(#loc2)
  llvm.mlir.global internal constant @str1("startup\00") {addr_space = 0 : i32} loc(#loc3)
  llvm.mlir.global internal constant @str0("poisson-for\00") {addr_space = 0 : i32} loc(#loc4)
  func.func @main() -> i32 attributes {llvm.linkage = #llvm.linkage<external>} {
    %c-1_i32 = arith.constant -1 : i32 loc(#loc)
    %false = arith.constant false loc(#loc)
    %0 = llvm.mlir.addressof @str3 : !llvm.ptr loc(#loc)
    %1 = llvm.mlir.addressof @str2 : !llvm.ptr loc(#loc)
    %cst = arith.constant 0.000000e+00 : f64 loc(#loc)
    %cst_0 = arith.constant 1.000000e+00 : f64 loc(#loc)
    %c10_i32 = arith.constant 10 : i32 loc(#loc)
    %c100_i32 = arith.constant 100 : i32 loc(#loc)
    %2 = llvm.mlir.addressof @str1 : !llvm.ptr loc(#loc)
    %c0_i32 = arith.constant 0 : i32 loc(#loc)
    %3 = llvm.mlir.addressof @str0 : !llvm.ptr loc(#loc)
    %true = arith.constant true loc(#loc6)
    %4 = "polygeist.undef"() : () -> i32 loc(#loc7)
    %alloca = memref.alloca() : memref<1xf64> loc(#loc8)
    %5 = "polygeist.undef"() : () -> f64 loc(#loc8)
    affine.store %5, %alloca[0] : memref<1xf64> loc(#loc8)
    %alloca_1 = memref.alloca() : memref<1xmemref<?xmemref<?xf64>>> loc(#loc9)
    %alloca_2 = memref.alloca() : memref<1xmemref<?xmemref<?xf64>>> loc(#loc10)
    %alloca_3 = memref.alloca() : memref<1xmemref<?xmemref<?xf64>>> loc(#loc11)
    scf.if %true {
      scf.execute_region {
        func.call @carts_benchmarks_start() : () -> () loc(#loc12)
        scf.yield loc(#loc)
      } loc(#loc)
    } loc(#loc)
    scf.if %true {
      scf.execute_region {
        %14 = polygeist.pointer2memref %3 : !llvm.ptr to memref<?xi8> loc(#loc13)
        func.call @carts_e2e_timer_start(%14) : (memref<?xi8>) -> () loc(#loc13)
        scf.yield loc(#loc)
      } loc(#loc)
    } loc(#loc)
    scf.if %true {
      scf.execute_region {
        %14 = polygeist.pointer2memref %2 : !llvm.ptr to memref<?xi8> loc(#loc14)
        %15 = polygeist.pointer2memref %3 : !llvm.ptr to memref<?xi8> loc(#loc14)
        func.call @carts_phase_timer_start(%14, %15) : (memref<?xi8>, memref<?xi8>) -> () loc(#loc14)
        scf.yield loc(#loc)
      } loc(#loc)
    } loc(#loc)
    %6 = scf.if %true -> (i32) {
      %14 = scf.execute_region -> i32 {
        %15 = scf.if %true -> (i32) {
          %16 = scf.execute_region -> i32 {
            scf.yield %c100_i32 : i32 loc(#loc)
          } loc(#loc)
          scf.yield %16 : i32 loc(#loc)
        } else {
          scf.yield %4 : i32 loc(#loc)
        } loc(#loc)
        scf.yield %15 : i32 loc(#loc)
      } loc(#loc)
      scf.yield %14 : i32 loc(#loc)
    } else {
      scf.yield %4 : i32 loc(#loc)
    } loc(#loc)
    %7 = arith.index_cast %6 : i32 to index loc(#loc)
    %8:2 = scf.if %true -> (i32, i32) {
      %14:2 = scf.execute_region -> (i32, i32) {
        %15:2 = scf.if %true -> (i32, i32) {
          %16:2 = scf.execute_region -> (i32, i32) {
            scf.yield %c10_i32, %c0_i32 : i32, i32 loc(#loc)
          } loc(#loc)
          scf.yield %16#0, %16#1 : i32, i32 loc(#loc)
        } else {
          scf.yield %4, %4 : i32, i32 loc(#loc)
        } loc(#loc)
        scf.yield %15#0, %15#1 : i32, i32 loc(#loc)
      } loc(#loc)
      scf.yield %14#0, %14#1 : i32, i32 loc(#loc)
    } else {
      scf.yield %4, %4 : i32, i32 loc(#loc)
    } loc(#loc)
    %9 = scf.if %true -> (i32) {
      %14 = scf.execute_region -> i32 {
        %15 = scf.if %true -> (i32) {
          %16 = scf.execute_region -> i32 {
            scf.yield %c10_i32 : i32 loc(#loc)
          } loc(#loc)
          scf.yield %16 : i32 loc(#loc)
        } else {
          scf.yield %4 : i32 loc(#loc)
        } loc(#loc)
        scf.yield %15 : i32 loc(#loc)
      } loc(#loc)
      scf.yield %14 : i32 loc(#loc)
    } else {
      scf.yield %4 : i32 loc(#loc)
    } loc(#loc)
    %10 = scf.if %true -> (f64) {
      %14 = scf.execute_region -> f64 {
        %15 = scf.if %true -> (f64) {
          %16 = scf.execute_region -> f64 {
            %17 = arith.addi %6, %c-1_i32 : i32 loc(#loc15)
            %18 = arith.sitofp %17 : i32 to f64 loc(#loc16)
            %19 = arith.divf %cst_0, %18 : f64 loc(#loc17)
            scf.yield %19 : f64 loc(#loc)
          } loc(#loc)
          scf.yield %16 : f64 loc(#loc)
        } else {
          scf.yield %5 : f64 loc(#loc)
        } loc(#loc)
        scf.yield %15 : f64 loc(#loc)
      } loc(#loc)
      scf.yield %14 : f64 loc(#loc)
    } else {
      scf.yield %5 : f64 loc(#loc)
    } loc(#loc)
    scf.if %true {
      scf.execute_region {
        scf.if %true {
          %14 = scf.execute_region -> memref<?xmemref<?xf64>> {
            %15 = polygeist.typeSize memref<?xf64> : index loc(#loc18)
            %16 = arith.extsi %6 : i32 to i64 loc(#loc19)
            %17 = arith.index_cast %15 : index to i64 loc(#loc20)
            %18 = arith.muli %16, %17 : i64 loc(#loc21)
            %19 = arith.index_cast %18 : i64 to index loc(#loc18)
            %20 = arith.divui %19, %15 : index loc(#loc18)
            %alloc = memref.alloc(%20) : memref<?xmemref<?xf64>> loc(#loc18)
            affine.store %alloc, %alloca_3[0] : memref<1xmemref<?xmemref<?xf64>>> loc(#loc11)
            scf.yield %alloc : memref<?xmemref<?xf64>> loc(#loc)
          } loc(#loc)
        } loc(#loc)
        scf.yield loc(#loc)
      } loc(#loc)
    } loc(#loc)
    scf.if %true {
      scf.execute_region {
        scf.if %true {
          %14 = scf.execute_region -> memref<?xmemref<?xf64>> {
            %15 = polygeist.typeSize memref<?xf64> : index loc(#loc22)
            %16 = arith.extsi %6 : i32 to i64 loc(#loc23)
            %17 = arith.index_cast %15 : index to i64 loc(#loc24)
            %18 = arith.muli %16, %17 : i64 loc(#loc25)
            %19 = arith.index_cast %18 : i64 to index loc(#loc22)
            %20 = arith.divui %19, %15 : index loc(#loc22)
            %alloc = memref.alloc(%20) : memref<?xmemref<?xf64>> loc(#loc22)
            affine.store %alloc, %alloca_2[0] : memref<1xmemref<?xmemref<?xf64>>> loc(#loc10)
            scf.yield %alloc : memref<?xmemref<?xf64>> loc(#loc)
          } loc(#loc)
        } loc(#loc)
        scf.yield loc(#loc)
      } loc(#loc)
    } loc(#loc)
    scf.if %true {
      scf.execute_region {
        scf.if %true {
          %14 = scf.execute_region -> memref<?xmemref<?xf64>> {
            %15 = polygeist.typeSize memref<?xf64> : index loc(#loc26)
            %16 = arith.extsi %6 : i32 to i64 loc(#loc27)
            %17 = arith.index_cast %15 : index to i64 loc(#loc28)
            %18 = arith.muli %16, %17 : i64 loc(#loc29)
            %19 = arith.index_cast %18 : i64 to index loc(#loc26)
            %20 = arith.divui %19, %15 : index loc(#loc26)
            %alloc = memref.alloc(%20) : memref<?xmemref<?xf64>> loc(#loc26)
            affine.store %alloc, %alloca_1[0] : memref<1xmemref<?xmemref<?xf64>>> loc(#loc9)
            scf.yield %alloc : memref<?xmemref<?xf64>> loc(#loc)
          } loc(#loc)
        } loc(#loc)
        scf.yield loc(#loc)
      } loc(#loc)
    } loc(#loc)
    scf.if %true {
      scf.execute_region {
        scf.if %true {
          scf.execute_region {
            %14 = affine.load %alloca_3[0] : memref<1xmemref<?xmemref<?xf64>>> loc(#loc30)
            %15 = polygeist.typeSize f64 : index loc(#loc31)
            %16 = arith.extsi %6 : i32 to i64 loc(#loc32)
            %17 = arith.index_cast %15 : index to i64 loc(#loc33)
            %18 = arith.muli %16, %17 : i64 loc(#loc34)
            %19 = arith.index_cast %18 : i64 to index loc(#loc31)
            %20 = arith.divui %19, %15 : index loc(#loc31)
            %21 = affine.load %alloca_2[0] : memref<1xmemref<?xmemref<?xf64>>> loc(#loc35)
            %22 = polygeist.typeSize f64 : index loc(#loc36)
            %23 = arith.extsi %6 : i32 to i64 loc(#loc37)
            %24 = arith.index_cast %22 : index to i64 loc(#loc38)
            %25 = arith.muli %23, %24 : i64 loc(#loc39)
            %26 = arith.index_cast %25 : i64 to index loc(#loc36)
            %27 = arith.divui %26, %22 : index loc(#loc36)
            %28 = affine.load %alloca_1[0] : memref<1xmemref<?xmemref<?xf64>>> loc(#loc40)
            %29 = polygeist.typeSize f64 : index loc(#loc41)
            %30 = arith.extsi %6 : i32 to i64 loc(#loc42)
            %31 = arith.index_cast %29 : index to i64 loc(#loc43)
            %32 = arith.muli %30, %31 : i64 loc(#loc44)
            %33 = arith.index_cast %32 : i64 to index loc(#loc41)
            %34 = arith.divui %33, %29 : index loc(#loc41)
            affine.for %arg0 loc("/home/raherrer/projects/carts/external/carts-benchmarks/kastors-jacobi/poisson-for/poisson-for.c":98:3) = 0 to %7 {
              scf.if %true {
                scf.execute_region {
                  %35 = polygeist.subindex %14[%arg0] () : memref<?xmemref<?xf64>> -> memref<?xmemref<?xf64>> loc(#loc30)
                  %alloc = memref.alloc(%20) : memref<?xf64> loc(#loc31)
                  affine.store %alloc, %35[0] : memref<?xmemref<?xf64>> loc(#loc46)
                  scf.yield loc(#loc)
                } loc(#loc)
              } loc(#loc)
              scf.if %true {
                scf.execute_region {
                  %35 = polygeist.subindex %21[%arg0] () : memref<?xmemref<?xf64>> -> memref<?xmemref<?xf64>> loc(#loc35)
                  %alloc = memref.alloc(%27) : memref<?xf64> loc(#loc36)
                  affine.store %alloc, %35[0] : memref<?xmemref<?xf64>> loc(#loc47)
                  scf.yield loc(#loc)
                } loc(#loc)
              } loc(#loc)
              scf.if %true {
                scf.execute_region {
                  %35 = polygeist.subindex %28[%arg0] () : memref<?xmemref<?xf64>> -> memref<?xmemref<?xf64>> loc(#loc40)
                  %alloc = memref.alloc(%34) : memref<?xf64> loc(#loc41)
                  affine.store %alloc, %35[0] : memref<?xmemref<?xf64>> loc(#loc48)
                  scf.yield loc(#loc)
                } loc(#loc)
              } loc(#loc)
            } loc(#loc45)
            scf.yield loc(#loc)
          } loc(#loc)
        } loc(#loc)
        scf.yield loc(#loc)
      } loc(#loc)
    } loc(#loc)
    scf.if %true {
      scf.execute_region {
        scf.if %true {
          scf.execute_region {
            %14 = affine.load %alloca_3[0] : memref<1xmemref<?xmemref<?xf64>>> loc(#loc49)
            %15 = affine.load %alloca_2[0] : memref<1xmemref<?xmemref<?xf64>>> loc(#loc50)
            %16 = affine.load %alloca_1[0] : memref<1xmemref<?xmemref<?xf64>>> loc(#loc51)
            affine.for %arg0 loc("/home/raherrer/projects/carts/external/carts-benchmarks/kastors-jacobi/poisson-for/poisson-for.c":105:3) = 0 to %7 {
              scf.if %true {
                scf.execute_region {
                  scf.if %true {
                    scf.execute_region {
                      %17 = polygeist.subindex %14[%arg0] () : memref<?xmemref<?xf64>> -> memref<?xmemref<?xf64>> loc(#loc49)
                      %18 = polygeist.subindex %15[%arg0] () : memref<?xmemref<?xf64>> -> memref<?xmemref<?xf64>> loc(#loc50)
                      %19 = polygeist.subindex %16[%arg0] () : memref<?xmemref<?xf64>> -> memref<?xmemref<?xf64>> loc(#loc51)
                      affine.for %arg1 loc("/home/raherrer/projects/carts/external/carts-benchmarks/kastors-jacobi/poisson-for/poisson-for.c":106:5) = 0 to %7 {
                        scf.if %true {
                          scf.execute_region {
                            %20 = affine.load %17[0] : memref<?xmemref<?xf64>> loc(#loc49)
                            %21 = polygeist.subindex %20[%arg1] () : memref<?xf64> -> memref<?xf64> loc(#loc49)
                            affine.store %cst, %21[0] : memref<?xf64> loc(#loc54)
                            scf.yield loc(#loc)
                          } loc(#loc)
                        } loc(#loc)
                        scf.if %true {
                          scf.execute_region {
                            %20 = affine.load %18[0] : memref<?xmemref<?xf64>> loc(#loc50)
                            %21 = polygeist.subindex %20[%arg1] () : memref<?xf64> -> memref<?xf64> loc(#loc50)
                            affine.store %cst, %21[0] : memref<?xf64> loc(#loc55)
                            scf.yield loc(#loc)
                          } loc(#loc)
                        } loc(#loc)
                        scf.if %true {
                          scf.execute_region {
                            %20 = affine.load %19[0] : memref<?xmemref<?xf64>> loc(#loc51)
                            %21 = polygeist.subindex %20[%arg1] () : memref<?xf64> -> memref<?xf64> loc(#loc51)
                            affine.store %cst, %21[0] : memref<?xf64> loc(#loc56)
                            scf.yield loc(#loc)
                          } loc(#loc)
                        } loc(#loc)
                      } loc(#loc53)
                      scf.yield loc(#loc)
                    } loc(#loc)
                  } loc(#loc)
                  scf.yield loc(#loc)
                } loc(#loc)
              } loc(#loc)
            } loc(#loc52)
            scf.yield loc(#loc)
          } loc(#loc)
        } loc(#loc)
        scf.yield loc(#loc)
      } loc(#loc)
    } loc(#loc)
    scf.if %true {
      scf.execute_region {
        %14 = affine.load %alloca_3[0] : memref<1xmemref<?xmemref<?xf64>>> loc(#loc57)
        func.call @rhs(%6, %6, %14, %9) : (i32, i32, memref<?xmemref<?xf64>>, i32) -> () loc(#loc58)
        scf.yield loc(#loc)
      } loc(#loc)
    } loc(#loc)
    scf.if %true {
      scf.execute_region {
        scf.if %true {
          scf.execute_region {
            %14 = arith.addi %6, %c-1_i32 : i32 loc(#loc59)
            %15 = arith.addi %6, %c-1_i32 : i32 loc(#loc60)
            %16 = affine.load %alloca_1[0] : memref<1xmemref<?xmemref<?xf64>>> loc(#loc61)
            %17 = affine.load %alloca_3[0] : memref<1xmemref<?xmemref<?xf64>>> loc(#loc62)
            affine.for %arg0 loc("/home/raherrer/projects/carts/external/carts-benchmarks/kastors-jacobi/poisson-for/poisson-for.c":118:3) = 0 to %7 {
              %18 = arith.index_cast %arg0 : index to i32 loc(#loc63)
              scf.if %true {
                scf.execute_region {
                  scf.if %true {
                    scf.execute_region {
                      %19 = affine.if #set(%arg0) -> i1 {
                        affine.yield %true : i1 loc(#loc64)
                      } else {
                        %23 = arith.cmpi eq, %18, %14 : i32 loc(#loc65)
                        affine.yield %23 : i1 loc(#loc64)
                      } loc(#loc64)
                      %20 = polygeist.subindex %16[%arg0] () : memref<?xmemref<?xf64>> -> memref<?xmemref<?xf64>> loc(#loc61)
                      %21 = polygeist.subindex %17[%arg0] () : memref<?xmemref<?xf64>> -> memref<?xmemref<?xf64>> loc(#loc62)
                      %22 = polygeist.subindex %16[%arg0] () : memref<?xmemref<?xf64>> -> memref<?xmemref<?xf64>> loc(#loc66)
                      affine.for %arg1 loc("/home/raherrer/projects/carts/external/carts-benchmarks/kastors-jacobi/poisson-for/poisson-for.c":119:5) = 0 to %7 {
                        %23 = arith.index_cast %arg1 : index to i32 loc(#loc67)
                        scf.if %true {
                          scf.execute_region {
                            scf.if %true {
                              scf.execute_region {
                                %24 = scf.if %19 -> (i1) {
                                  scf.yield %true : i1 loc(#loc68)
                                } else {
                                  %26 = arith.cmpi eq, %23, %c0_i32 : i32 loc(#loc69)
                                  scf.yield %26 : i1 loc(#loc68)
                                } loc(#loc68)
                                %25 = scf.if %24 -> (i1) {
                                  scf.yield %true : i1 loc(#loc70)
                                } else {
                                  %26 = arith.cmpi eq, %23, %15 : i32 loc(#loc71)
                                  scf.yield %26 : i1 loc(#loc70)
                                } loc(#loc70)
                                scf.if %25 {
                                  scf.if %true {
                                    scf.execute_region {
                                      %26 = affine.load %20[0] : memref<?xmemref<?xf64>> loc(#loc61)
                                      %27 = polygeist.subindex %26[%arg1] () : memref<?xf64> -> memref<?xf64> loc(#loc61)
                                      %28 = affine.load %21[0] : memref<?xmemref<?xf64>> loc(#loc62)
                                      %29 = polygeist.subindex %28[%arg1] () : memref<?xf64> -> memref<?xf64> loc(#loc62)
                                      %30 = affine.load %29[0] : memref<?xf64> loc(#loc62)
                                      affine.store %30, %27[0] : memref<?xf64> loc(#loc73)
                                      scf.yield loc(#loc)
                                    } loc(#loc)
                                  } loc(#loc)
                                } else {
                                  scf.if %true {
                                    scf.execute_region {
                                      %26 = affine.load %22[0] : memref<?xmemref<?xf64>> loc(#loc66)
                                      %27 = polygeist.subindex %26[%arg1] () : memref<?xf64> -> memref<?xf64> loc(#loc66)
                                      affine.store %cst, %27[0] : memref<?xf64> loc(#loc74)
                                      scf.yield loc(#loc)
                                    } loc(#loc)
                                  } loc(#loc)
                                } loc(#loc72)
                                scf.yield loc(#loc)
                              } loc(#loc)
                            } loc(#loc)
                            scf.yield loc(#loc)
                          } loc(#loc)
                        } loc(#loc)
                      } loc(#loc67)
                      scf.yield loc(#loc)
                    } loc(#loc)
                  } loc(#loc)
                  scf.yield loc(#loc)
                } loc(#loc)
              } loc(#loc)
            } loc(#loc63)
            scf.yield loc(#loc)
          } loc(#loc)
        } loc(#loc)
        scf.yield loc(#loc)
      } loc(#loc)
    } loc(#loc)
    scf.if %true {
      scf.execute_region {
        %14 = polygeist.pointer2memref %2 : !llvm.ptr to memref<?xi8> loc(#loc75)
        func.call @carts_phase_timer_stop(%14) : (memref<?xi8>) -> () loc(#loc75)
        scf.yield loc(#loc)
      } loc(#loc)
    } loc(#loc)
    scf.if %true {
      scf.execute_region {
        %14 = polygeist.pointer2memref %3 : !llvm.ptr to memref<?xi8> loc(#loc76)
        func.call @carts_kernel_timer_start(%14) : (memref<?xi8>) -> () loc(#loc76)
        scf.yield loc(#loc)
      } loc(#loc)
    } loc(#loc)
    scf.if %true {
      scf.execute_region {
        scf.if %true {
          scf.execute_region {
            %14 = polygeist.pointer2memref %3 : !llvm.ptr to memref<?xi8> loc(#loc77)
            affine.for %arg0 loc("/home/raherrer/projects/carts/external/carts-benchmarks/kastors-jacobi/poisson-for/poisson-for.c":131:3) = 0 to 1 {
              scf.if %true {
                scf.execute_region {
                  %15 = affine.load %alloca_3[0] : memref<1xmemref<?xmemref<?xf64>>> loc(#loc79)
                  %16 = affine.load %alloca_2[0] : memref<1xmemref<?xmemref<?xf64>>> loc(#loc80)
                  %17 = affine.load %alloca_1[0] : memref<1xmemref<?xmemref<?xf64>>> loc(#loc81)
                  func.call @sweep(%6, %6, %10, %10, %15, %8#1, %8#0, %16, %17, %9) : (i32, i32, f64, f64, memref<?xmemref<?xf64>>, i32, i32, memref<?xmemref<?xf64>>, memref<?xmemref<?xf64>>, i32) -> () loc(#loc82)
                  scf.yield loc(#loc)
                } loc(#loc)
              } loc(#loc)
              scf.if %true {
                scf.execute_region {
                  func.call @carts_kernel_timer_accum(%14) : (memref<?xi8>) -> () loc(#loc77)
                  scf.yield loc(#loc)
                } loc(#loc)
              } loc(#loc)
            } loc(#loc78)
            scf.yield loc(#loc)
          } loc(#loc)
        } loc(#loc)
        scf.yield loc(#loc)
      } loc(#loc)
    } loc(#loc)
    scf.if %true {
      scf.execute_region {
        %14 = polygeist.pointer2memref %3 : !llvm.ptr to memref<?xi8> loc(#loc83)
        func.call @carts_kernel_timer_print(%14) : (memref<?xi8>) -> () loc(#loc83)
        scf.yield loc(#loc)
      } loc(#loc)
    } loc(#loc)
    scf.if %true {
      scf.execute_region {
        %14 = polygeist.pointer2memref %1 : !llvm.ptr to memref<?xi8> loc(#loc84)
        %15 = polygeist.pointer2memref %3 : !llvm.ptr to memref<?xi8> loc(#loc84)
        func.call @carts_phase_timer_start(%14, %15) : (memref<?xi8>, memref<?xi8>) -> () loc(#loc84)
        scf.yield loc(#loc)
      } loc(#loc)
    } loc(#loc)
    scf.if %true {
      scf.execute_region {
        scf.if %true {
          scf.execute_region {
            affine.store %cst, %alloca[0] : memref<1xf64> loc(#loc8)
            scf.yield loc(#loc)
          } loc(#loc)
        } loc(#loc)
        scf.yield loc(#loc)
      } loc(#loc)
    } loc(#loc)
    %11 = scf.if %true -> (i32) {
      %14 = scf.execute_region -> i32 {
        %15 = scf.if %true -> (i32) {
          %16 = scf.execute_region -> i32 {
            %17 = scf.if %false -> (i32) {
              scf.yield %6 : i32 loc(#loc85)
            } else {
              scf.yield %6 : i32 loc(#loc85)
            } loc(#loc85)
            scf.yield %17 : i32 loc(#loc)
          } loc(#loc)
          scf.yield %16 : i32 loc(#loc)
        } else {
          scf.yield %4 : i32 loc(#loc)
        } loc(#loc)
        scf.yield %15 : i32 loc(#loc)
      } loc(#loc)
      scf.yield %14 : i32 loc(#loc)
    } else {
      scf.yield %4 : i32 loc(#loc)
    } loc(#loc)
    %12 = arith.index_cast %11 : i32 to index loc(#loc)
    scf.if %true {
      scf.execute_region {
        scf.if %true {
          scf.execute_region {
            %14 = affine.load %alloca_1[0] : memref<1xmemref<?xmemref<?xf64>>> loc(#loc86)
            affine.for %arg0 loc("/home/raherrer/projects/carts/external/carts-benchmarks/kastors-jacobi/poisson-for/poisson-for.c":142:3) = 0 to %12 {
              scf.if %true {
                scf.execute_region {
                  %15 = polygeist.subindex %14[%arg0] () : memref<?xmemref<?xf64>> -> memref<?xmemref<?xf64>> loc(#loc86)
                  %16 = affine.load %15[0] : memref<?xmemref<?xf64>> loc(#loc86)
                  %17 = polygeist.subindex %16[%arg0] () : memref<?xf64> -> memref<?xf64> loc(#loc86)
                  %18 = affine.load %17[0] : memref<?xf64> loc(#loc86)
                  %19 = affine.load %alloca[0] : memref<1xf64> loc(#loc88)
                  %20 = arith.addf %19, %18 : f64 loc(#loc88)
                  affine.store %20, %alloca[0] : memref<1xf64> loc(#loc88)
                  scf.yield loc(#loc)
                } loc(#loc)
              } loc(#loc)
            } loc(#loc87)
            scf.yield loc(#loc)
          } loc(#loc)
        } loc(#loc)
        scf.yield loc(#loc)
      } loc(#loc)
    } loc(#loc)
    scf.if %true {
      scf.execute_region {
        %14 = affine.load %alloca[0] : memref<1xf64> loc(#loc89)
        func.call @carts_bench_checksum_d(%14) : (f64) -> () loc(#loc90)
        scf.yield loc(#loc)
      } loc(#loc)
    } loc(#loc)
    scf.if %true {
      scf.execute_region {
        %14 = polygeist.pointer2memref %1 : !llvm.ptr to memref<?xi8> loc(#loc91)
        func.call @carts_phase_timer_stop(%14) : (memref<?xi8>) -> () loc(#loc91)
        scf.yield loc(#loc)
      } loc(#loc)
    } loc(#loc)
    scf.if %true {
      scf.execute_region {
        %14 = polygeist.pointer2memref %0 : !llvm.ptr to memref<?xi8> loc(#loc92)
        %15 = polygeist.pointer2memref %3 : !llvm.ptr to memref<?xi8> loc(#loc92)
        func.call @carts_phase_timer_start(%14, %15) : (memref<?xi8>, memref<?xi8>) -> () loc(#loc92)
        scf.yield loc(#loc)
      } loc(#loc)
    } loc(#loc)
    scf.if %true {
      scf.execute_region {
        scf.if %true {
          scf.execute_region {
            %14 = affine.load %alloca_3[0] : memref<1xmemref<?xmemref<?xf64>>> loc(#loc93)
            %15 = affine.load %alloca_2[0] : memref<1xmemref<?xmemref<?xf64>>> loc(#loc94)
            %16 = affine.load %alloca_1[0] : memref<1xmemref<?xmemref<?xf64>>> loc(#loc95)
            affine.for %arg0 loc("/home/raherrer/projects/carts/external/carts-benchmarks/kastors-jacobi/poisson-for/poisson-for.c":152:3) = 0 to %7 {
              scf.if %true {
                scf.execute_region {
                  %17 = polygeist.subindex %14[%arg0] () : memref<?xmemref<?xf64>> -> memref<?xmemref<?xf64>> loc(#loc93)
                  %18 = affine.load %17[0] : memref<?xmemref<?xf64>> loc(#loc97)
                  memref.dealloc %18 : memref<?xf64> loc(#loc97)
                  scf.yield loc(#loc)
                } loc(#loc)
              } loc(#loc)
              scf.if %true {
                scf.execute_region {
                  %17 = polygeist.subindex %15[%arg0] () : memref<?xmemref<?xf64>> -> memref<?xmemref<?xf64>> loc(#loc94)
                  %18 = affine.load %17[0] : memref<?xmemref<?xf64>> loc(#loc98)
                  memref.dealloc %18 : memref<?xf64> loc(#loc98)
                  scf.yield loc(#loc)
                } loc(#loc)
              } loc(#loc)
              scf.if %true {
                scf.execute_region {
                  %17 = polygeist.subindex %16[%arg0] () : memref<?xmemref<?xf64>> -> memref<?xmemref<?xf64>> loc(#loc95)
                  %18 = affine.load %17[0] : memref<?xmemref<?xf64>> loc(#loc99)
                  memref.dealloc %18 : memref<?xf64> loc(#loc99)
                  scf.yield loc(#loc)
                } loc(#loc)
              } loc(#loc)
            } loc(#loc96)
            scf.yield loc(#loc)
          } loc(#loc)
        } loc(#loc)
        scf.yield loc(#loc)
      } loc(#loc)
    } loc(#loc)
    scf.if %true {
      scf.execute_region {
        %14 = affine.load %alloca_3[0] : memref<1xmemref<?xmemref<?xf64>>> loc(#loc100)
        memref.dealloc %14 : memref<?xmemref<?xf64>> loc(#loc100)
        scf.yield loc(#loc)
      } loc(#loc)
    } loc(#loc)
    scf.if %true {
      scf.execute_region {
        %14 = affine.load %alloca_2[0] : memref<1xmemref<?xmemref<?xf64>>> loc(#loc101)
        memref.dealloc %14 : memref<?xmemref<?xf64>> loc(#loc101)
        scf.yield loc(#loc)
      } loc(#loc)
    } loc(#loc)
    scf.if %true {
      scf.execute_region {
        %14 = affine.load %alloca_1[0] : memref<1xmemref<?xmemref<?xf64>>> loc(#loc102)
        memref.dealloc %14 : memref<?xmemref<?xf64>> loc(#loc102)
        scf.yield loc(#loc)
      } loc(#loc)
    } loc(#loc)
    scf.if %true {
      scf.execute_region {
        %14 = polygeist.pointer2memref %0 : !llvm.ptr to memref<?xi8> loc(#loc103)
        func.call @carts_phase_timer_stop(%14) : (memref<?xi8>) -> () loc(#loc103)
        scf.yield loc(#loc)
      } loc(#loc)
    } loc(#loc)
    scf.if %true {
      scf.execute_region {
        func.call @carts_e2e_timer_stop() : () -> () loc(#loc104)
        scf.yield loc(#loc)
      } loc(#loc)
    } loc(#loc)
    %13 = scf.if %true -> (i32) {
      %14 = scf.execute_region -> i32 {
        %15 = scf.if %true -> (i32) {
          %16 = scf.execute_region -> i32 {
            scf.yield %c0_i32 : i32 loc(#loc)
          } loc(#loc)
          scf.yield %16 : i32 loc(#loc)
        } else {
          scf.yield %4 : i32 loc(#loc)
        } loc(#loc)
        scf.yield %15 : i32 loc(#loc)
      } loc(#loc)
      scf.yield %14 : i32 loc(#loc)
    } else {
      scf.yield %4 : i32 loc(#loc)
    } loc(#loc)
    return %13 : i32 loc(#loc105)
  } loc(#loc5)
  func.func private @carts_benchmarks_start() attributes {llvm.linkage = #llvm.linkage<external>} loc(#loc106)
  func.func private @carts_e2e_timer_start(memref<?xi8>) attributes {llvm.linkage = #llvm.linkage<external>} loc(#loc107)
  func.func private @carts_phase_timer_start(memref<?xi8>, memref<?xi8>) attributes {llvm.linkage = #llvm.linkage<external>} loc(#loc108)
  func.func private @rhs(%arg0: i32 loc("/home/raherrer/projects/carts/external/carts-benchmarks/kastors-jacobi/poisson-for/poisson-for.c":57:13), %arg1: i32 loc("/home/raherrer/projects/carts/external/carts-benchmarks/kastors-jacobi/poisson-for/poisson-for.c":57:13), %arg2: memref<?xmemref<?xf64>> loc("/home/raherrer/projects/carts/external/carts-benchmarks/kastors-jacobi/poisson-for/poisson-for.c":57:13), %arg3: i32 loc("/home/raherrer/projects/carts/external/carts-benchmarks/kastors-jacobi/poisson-for/poisson-for.c":57:13)) attributes {llvm.linkage = #llvm.linkage<internal>} {
    %c-1_i32 = arith.constant -1 : i32 loc(#loc)
    %c1 = arith.constant 1 : index loc(#loc)
    %c0 = arith.constant 0 : index loc(#loc)
    %c0_i32 = arith.constant 0 : i32 loc(#loc)
    %true = arith.constant true loc(#loc110)
    %0 = "polygeist.undef"() : () -> i32 loc(#loc111)
    %1 = "polygeist.undef"() : () -> f64 loc(#loc112)
    %2 = scf.if %true -> (i32) {
      %4 = scf.execute_region -> i32 {
        %5 = scf.if %true -> (i32) {
          %6 = scf.execute_region -> i32 {
            %7 = arith.addi %arg0, %c-1_i32 : i32 loc(#loc113)
            scf.yield %7 : i32 loc(#loc)
          } loc(#loc)
          scf.yield %6 : i32 loc(#loc)
        } else {
          scf.yield %0 : i32 loc(#loc)
        } loc(#loc)
        scf.yield %5 : i32 loc(#loc)
      } loc(#loc)
      scf.yield %4 : i32 loc(#loc)
    } else {
      scf.yield %0 : i32 loc(#loc)
    } loc(#loc)
    %3 = scf.if %true -> (i32) {
      %4 = scf.execute_region -> i32 {
        %5 = scf.if %true -> (i32) {
          %6 = scf.execute_region -> i32 {
            %7 = arith.addi %arg1, %c-1_i32 : i32 loc(#loc114)
            scf.yield %7 : i32 loc(#loc)
          } loc(#loc)
          scf.yield %6 : i32 loc(#loc)
        } else {
          scf.yield %0 : i32 loc(#loc)
        } loc(#loc)
        scf.yield %5 : i32 loc(#loc)
      } loc(#loc)
      scf.yield %4 : i32 loc(#loc)
    } else {
      scf.yield %0 : i32 loc(#loc)
    } loc(#loc)
    scf.if %true {
      scf.execute_region {
        scf.if %true {
          scf.execute_region {
            %4 = scf.if %true -> (i32) {
              %6 = scf.execute_region -> i32 {
                scf.yield %arg1 : i32 loc(#loc)
              } loc(#loc)
              scf.yield %6 : i32 loc(#loc)
            } else {
              scf.yield %0 : i32 loc(#loc)
            } loc(#loc)
            %5 = arith.index_cast %4 : i32 to index loc(#loc115)
            omp.parallel {
              scf.execute_region {
                %alloca = memref.alloca() : memref<1xf64> loc(#loc112)
                affine.store %1, %alloca[0] : memref<1xf64> loc(#loc112)
                %alloca_0 = memref.alloca() : memref<1xf64> loc(#loc112)
                affine.store %1, %alloca_0[0] : memref<1xf64> loc(#loc112)
                omp.wsloop {
                  omp.loop_nest (%arg4) : index = (%c0) to (%5) step (%c1) {
                    scf.execute_region {
                      %6 = arith.index_cast %arg4 : index to i32 loc(#loc115)
                      scf.if %true {
                        %7 = scf.execute_region -> f64 {
                          %8 = arith.sitofp %6 : i32 to f64 loc(#loc116)
                          %9 = arith.sitofp %3 : i32 to f64 loc(#loc117)
                          %10 = arith.divf %8, %9 : f64 loc(#loc118)
                          affine.store %10, %alloca[0] : memref<1xf64> loc(#loc119)
                          scf.yield %10 : f64 loc(#loc)
                        } loc(#loc)
                      } loc(#loc)
                      scf.if %true {
                        scf.execute_region {
                          scf.if %true {
                            scf.execute_region {
                              %7 = arith.index_cast %arg0 : i32 to index loc(#loc120)
                              %8 = arith.sitofp %2 : i32 to f64 loc(#loc121)
                              %9 = arith.cmpi eq, %6, %c0_i32 : i32 loc(#loc122)
                              %10 = arith.cmpi eq, %6, %3 : i32 loc(#loc123)
                              scf.for %arg5 = %c0 to %7 step %c1 {
                                %11 = arith.index_cast %arg5 : index to i32 loc(#loc124)
                                scf.if %true {
                                  %12 = scf.execute_region -> f64 {
                                    %13 = arith.sitofp %11 : i32 to f64 loc(#loc125)
                                    %14 = arith.divf %13, %8 : f64 loc(#loc126)
                                    affine.store %14, %alloca_0[0] : memref<1xf64> loc(#loc127)
                                    scf.yield %14 : f64 loc(#loc)
                                  } loc(#loc)
                                } loc(#loc)
                                scf.if %true {
                                  scf.execute_region {
                                    scf.if %true {
                                      scf.execute_region {
                                        %12 = arith.cmpi eq, %11, %c0_i32 : i32 loc(#loc128)
                                        %13 = scf.if %12 -> (i1) {
                                          scf.yield %true : i1 loc(#loc129)
                                        } else {
                                          %16 = arith.cmpi eq, %11, %2 : i32 loc(#loc130)
                                          scf.yield %16 : i1 loc(#loc129)
                                        } loc(#loc129)
                                        %14 = scf.if %13 -> (i1) {
                                          scf.yield %true : i1 loc(#loc131)
                                        } else {
                                          scf.yield %9 : i1 loc(#loc131)
                                        } loc(#loc131)
                                        %15 = scf.if %14 -> (i1) {
                                          scf.yield %true : i1 loc(#loc132)
                                        } else {
                                          scf.yield %10 : i1 loc(#loc132)
                                        } loc(#loc132)
                                        scf.if %15 {
                                          %16 = polygeist.subindex %arg2[%arg5] () : memref<?xmemref<?xf64>> -> memref<?xmemref<?xf64>> loc(#loc134)
                                          %17 = affine.load %16[0] : memref<?xmemref<?xf64>> loc(#loc134)
                                          %18 = polygeist.subindex %17[%arg4] () : memref<?xf64> -> memref<?xf64> loc(#loc134)
                                          %19 = affine.load %alloca_0[0] : memref<1xf64> loc(#loc135)
                                          %20 = affine.load %alloca[0] : memref<1xf64> loc(#loc136)
                                          %21 = func.call @u_exact(%19, %20) : (f64, f64) -> f64 loc(#loc137)
                                          affine.store %21, %18[0] : memref<?xf64> loc(#loc138)
                                        } else {
                                          %16 = polygeist.subindex %arg2[%arg5] () : memref<?xmemref<?xf64>> -> memref<?xmemref<?xf64>> loc(#loc139)
                                          %17 = affine.load %16[0] : memref<?xmemref<?xf64>> loc(#loc139)
                                          %18 = polygeist.subindex %17[%arg4] () : memref<?xf64> -> memref<?xf64> loc(#loc139)
                                          %19 = affine.load %alloca_0[0] : memref<1xf64> loc(#loc140)
                                          %20 = affine.load %alloca[0] : memref<1xf64> loc(#loc141)
                                          %21 = func.call @uxxyy_exact(%19, %20) : (f64, f64) -> f64 loc(#loc142)
                                          %22 = arith.negf %21 : f64 loc(#loc143)
                                          affine.store %22, %18[0] : memref<?xf64> loc(#loc144)
                                        } loc(#loc133)
                                        scf.yield loc(#loc)
                                      } loc(#loc)
                                    } loc(#loc)
                                    scf.yield loc(#loc)
                                  } loc(#loc)
                                } loc(#loc)
                              } loc(#loc124)
                              scf.yield loc(#loc)
                            } loc(#loc)
                          } loc(#loc)
                          scf.yield loc(#loc)
                        } loc(#loc)
                      } loc(#loc)
                      scf.yield loc(#loc115)
                    } loc(#loc115)
                    omp.yield loc(#loc115)
                  } loc(#loc115)
                } loc(#loc115)
                scf.yield loc(#loc115)
              } loc(#loc115)
              omp.terminator loc(#loc115)
            } loc(#loc115)
            scf.yield loc(#loc)
          } loc(#loc)
        } loc(#loc)
        scf.yield loc(#loc)
      } loc(#loc)
    } loc(#loc)
    return loc(#loc145)
  } loc(#loc109)
  func.func private @carts_phase_timer_stop(memref<?xi8>) attributes {llvm.linkage = #llvm.linkage<external>} loc(#loc146)
  func.func private @carts_kernel_timer_start(memref<?xi8>) attributes {llvm.linkage = #llvm.linkage<external>} loc(#loc147)
  func.func private @sweep(%arg0: i32 loc("/home/raherrer/projects/carts/external/carts-benchmarks/kastors-jacobi/poisson-for/poisson-for.c":18:13), %arg1: i32 loc("/home/raherrer/projects/carts/external/carts-benchmarks/kastors-jacobi/poisson-for/poisson-for.c":18:13), %arg2: f64 loc("/home/raherrer/projects/carts/external/carts-benchmarks/kastors-jacobi/poisson-for/poisson-for.c":18:13), %arg3: f64 loc("/home/raherrer/projects/carts/external/carts-benchmarks/kastors-jacobi/poisson-for/poisson-for.c":18:13), %arg4: memref<?xmemref<?xf64>> loc("/home/raherrer/projects/carts/external/carts-benchmarks/kastors-jacobi/poisson-for/poisson-for.c":18:13), %arg5: i32 loc("/home/raherrer/projects/carts/external/carts-benchmarks/kastors-jacobi/poisson-for/poisson-for.c":18:13), %arg6: i32 loc("/home/raherrer/projects/carts/external/carts-benchmarks/kastors-jacobi/poisson-for/poisson-for.c":18:13), %arg7: memref<?xmemref<?xf64>> loc("/home/raherrer/projects/carts/external/carts-benchmarks/kastors-jacobi/poisson-for/poisson-for.c":18:13), %arg8: memref<?xmemref<?xf64>> loc("/home/raherrer/projects/carts/external/carts-benchmarks/kastors-jacobi/poisson-for/poisson-for.c":18:13), %arg9: i32 loc("/home/raherrer/projects/carts/external/carts-benchmarks/kastors-jacobi/poisson-for/poisson-for.c":18:13)) attributes {llvm.linkage = #llvm.linkage<internal>} {
    %c1 = arith.constant 1 : index loc(#loc)
    %true = arith.constant true loc(#loc149)
    %c1_i32 = arith.constant 1 : i32 loc(#loc)
    %c0_i32 = arith.constant 0 : i32 loc(#loc)
    %cst = arith.constant 2.500000e-01 : f64 loc(#loc)
    %c0 = arith.constant 0 : index loc(#loc)
    %c-1_i32 = arith.constant -1 : i32 loc(#loc)
    %0 = arith.index_cast %arg6 : i32 to index loc(#loc148)
    %1 = arith.index_cast %arg5 : i32 to index loc(#loc148)
    %2 = "polygeist.undef"() : () -> i32 loc(#loc150)
    %alloca = memref.alloca() : memref<1xi32> loc(#loc151)
    affine.store %2, %alloca[0] : memref<1xi32> loc(#loc151)
    %alloca_0 = memref.alloca() : memref<1xi32> loc(#loc152)
    affine.store %2, %alloca_0[0] : memref<1xi32> loc(#loc152)
    %alloca_1 = memref.alloca() : memref<i1> loc(#loc149)
    affine.store %true, %alloca_1[] : memref<i1> loc(#loc149)
    scf.if %true {
      scf.execute_region {
        scf.if %true {
          scf.execute_region {
            %3 = arith.index_cast %arg1 : i32 to index loc(#loc153)
            %4 = arith.index_cast %arg1 : i32 to index loc(#loc154)
            %5 = arith.addi %arg0, %c-1_i32 : i32 loc(#loc155)
            %6 = arith.addi %arg1, %c-1_i32 : i32 loc(#loc156)
            affine.for %arg10 loc("/home/raherrer/projects/carts/external/carts-benchmarks/kastors-jacobi/poisson-for/poisson-for.c":22:3) = #map()[%1] to #map()[%0] {
              %7 = affine.load %alloca_1[] : memref<i1> loc(#loc)
              %8 = scf.if %7 -> (i1) {
                %9 = scf.execute_region -> i1 {
                  %10 = scf.if %7 -> (i1) {
                    scf.execute_region {
                      scf.if %7 {
                        %13 = scf.execute_region -> i32 {
                          affine.store %arg0, %alloca_0[0] : memref<1xi32> loc(#loc152)
                          scf.yield %arg0 : i32 loc(#loc)
                        } loc(#loc)
                      } loc(#loc)
                      %11 = affine.load %alloca_0[0] : memref<1xi32> loc(#loc152)
                      %12 = arith.index_cast %11 : i32 to index loc(#loc158)
                      omp.parallel {
                        scf.execute_region {
                          omp.wsloop {
                            omp.loop_nest (%arg11) : index = (%c0) to (%12) step (%c1) {
                              scf.execute_region {
                                affine.store %true, %alloca_1[] : memref<i1> loc(#loc158)
                                scf.if %true {
                                  scf.execute_region {
                                    scf.if %true {
                                      scf.execute_region {
                                        %13 = polygeist.subindex %arg7[%arg11] () : memref<?xmemref<?xf64>> -> memref<?xmemref<?xf64>> loc(#loc159)
                                        %14 = polygeist.subindex %arg8[%arg11] () : memref<?xmemref<?xf64>> -> memref<?xmemref<?xf64>> loc(#loc160)
                                        scf.for %arg12 = %c0 to %3 step %c1 {
                                          scf.if %true {
                                            scf.execute_region {
                                              %15 = affine.load %13[0] : memref<?xmemref<?xf64>> loc(#loc159)
                                              %16 = polygeist.subindex %15[%arg12] () : memref<?xf64> -> memref<?xf64> loc(#loc159)
                                              %17 = affine.load %14[0] : memref<?xmemref<?xf64>> loc(#loc160)
                                              %18 = polygeist.subindex %17[%arg12] () : memref<?xf64> -> memref<?xf64> loc(#loc160)
                                              %19 = affine.load %18[0] : memref<?xf64> loc(#loc160)
                                              affine.store %19, %16[0] : memref<?xf64> loc(#loc162)
                                              scf.yield loc(#loc)
                                            } loc(#loc)
                                          } loc(#loc)
                                        } loc(#loc161)
                                        scf.yield loc(#loc)
                                      } loc(#loc)
                                    } loc(#loc)
                                    scf.yield loc(#loc)
                                  } loc(#loc)
                                } loc(#loc)
                                scf.yield loc(#loc158)
                              } loc(#loc158)
                              omp.yield loc(#loc158)
                            } loc(#loc158)
                          } loc(#loc158)
                          scf.yield loc(#loc158)
                        } loc(#loc158)
                        omp.terminator loc(#loc158)
                      } loc(#loc158)
                      affine.store %true, %alloca_1[] : memref<i1> loc(#loc158)
                      scf.yield loc(#loc)
                    } loc(#loc)
                    scf.yield %true : i1 loc(#loc)
                  } else {
                    scf.yield %7 : i1 loc(#loc)
                  } loc(#loc)
                  scf.yield %10 : i1 loc(#loc)
                } loc(#loc)
                scf.yield %9 : i1 loc(#loc)
              } else {
                scf.yield %7 : i1 loc(#loc)
              } loc(#loc)
              scf.if %8 {
                scf.execute_region {
                  scf.if %8 {
                    scf.execute_region {
                      scf.if %8 {
                        %11 = scf.execute_region -> i32 {
                          affine.store %arg0, %alloca[0] : memref<1xi32> loc(#loc151)
                          scf.yield %arg0 : i32 loc(#loc)
                        } loc(#loc)
                      } loc(#loc)
                      %9 = affine.load %alloca[0] : memref<1xi32> loc(#loc151)
                      %10 = arith.index_cast %9 : i32 to index loc(#loc163)
                      omp.parallel {
                        scf.execute_region {
                          omp.wsloop {
                            omp.loop_nest (%arg11) : index = (%c0) to (%10) step (%c1) {
                              scf.execute_region {
                                %11 = arith.index_cast %arg11 : index to i32 loc(#loc163)
                                affine.store %true, %alloca_1[] : memref<i1> loc(#loc163)
                                scf.if %true {
                                  scf.execute_region {
                                    scf.if %true {
                                      scf.execute_region {
                                        %12 = arith.cmpi eq, %11, %c0_i32 : i32 loc(#loc164)
                                        %13 = arith.cmpi eq, %11, %5 : i32 loc(#loc165)
                                        %14 = polygeist.subindex %arg8[%arg11] () : memref<?xmemref<?xf64>> -> memref<?xmemref<?xf64>> loc(#loc166)
                                        %15 = polygeist.subindex %arg4[%arg11] () : memref<?xmemref<?xf64>> -> memref<?xmemref<?xf64>> loc(#loc167)
                                        %16 = polygeist.subindex %arg8[%arg11] () : memref<?xmemref<?xf64>> -> memref<?xmemref<?xf64>> loc(#loc168)
                                        %17 = arith.addi %11, %c-1_i32 : i32 loc(#loc169)
                                        %18 = arith.index_cast %17 : i32 to index loc(#loc170)
                                        %19 = polygeist.subindex %arg7[%18] () : memref<?xmemref<?xf64>> -> memref<?xmemref<?xf64>> loc(#loc171)
                                        %20 = polygeist.subindex %arg7[%arg11] () : memref<?xmemref<?xf64>> -> memref<?xmemref<?xf64>> loc(#loc172)
                                        %21 = arith.addi %11, %c1_i32 : i32 loc(#loc173)
                                        %22 = arith.index_cast %21 : i32 to index loc(#loc174)
                                        %23 = polygeist.subindex %arg7[%22] () : memref<?xmemref<?xf64>> -> memref<?xmemref<?xf64>> loc(#loc175)
                                        %24 = polygeist.subindex %arg4[%arg11] () : memref<?xmemref<?xf64>> -> memref<?xmemref<?xf64>> loc(#loc176)
                                        scf.for %arg12 = %c0 to %4 step %c1 {
                                          %25 = arith.index_cast %arg12 : index to i32 loc(#loc177)
                                          scf.if %true {
                                            scf.execute_region {
                                              scf.if %true {
                                                scf.execute_region {
                                                  %26 = scf.if %12 -> (i1) {
                                                    scf.yield %true : i1 loc(#loc178)
                                                  } else {
                                                    %29 = arith.cmpi eq, %25, %c0_i32 : i32 loc(#loc179)
                                                    scf.yield %29 : i1 loc(#loc178)
                                                  } loc(#loc178)
                                                  %27 = scf.if %26 -> (i1) {
                                                    scf.yield %true : i1 loc(#loc180)
                                                  } else {
                                                    scf.yield %13 : i1 loc(#loc180)
                                                  } loc(#loc180)
                                                  %28 = scf.if %27 -> (i1) {
                                                    scf.yield %true : i1 loc(#loc181)
                                                  } else {
                                                    %29 = arith.cmpi eq, %25, %6 : i32 loc(#loc182)
                                                    scf.yield %29 : i1 loc(#loc181)
                                                  } loc(#loc181)
                                                  scf.if %28 {
                                                    scf.if %true {
                                                      scf.execute_region {
                                                        %29 = affine.load %14[0] : memref<?xmemref<?xf64>> loc(#loc166)
                                                        %30 = polygeist.subindex %29[%arg12] () : memref<?xf64> -> memref<?xf64> loc(#loc166)
                                                        %31 = affine.load %15[0] : memref<?xmemref<?xf64>> loc(#loc167)
                                                        %32 = polygeist.subindex %31[%arg12] () : memref<?xf64> -> memref<?xf64> loc(#loc167)
                                                        %33 = affine.load %32[0] : memref<?xf64> loc(#loc167)
                                                        affine.store %33, %30[0] : memref<?xf64> loc(#loc184)
                                                        scf.yield loc(#loc)
                                                      } loc(#loc)
                                                    } loc(#loc)
                                                  } else {
                                                    scf.if %true {
                                                      scf.execute_region {
                                                        %29 = affine.load %16[0] : memref<?xmemref<?xf64>> loc(#loc168)
                                                        %30 = polygeist.subindex %29[%arg12] () : memref<?xf64> -> memref<?xf64> loc(#loc168)
                                                        %31 = affine.load %19[0] : memref<?xmemref<?xf64>> loc(#loc171)
                                                        %32 = polygeist.subindex %31[%arg12] () : memref<?xf64> -> memref<?xf64> loc(#loc171)
                                                        %33 = affine.load %32[0] : memref<?xf64> loc(#loc171)
                                                        %34 = affine.load %20[0] : memref<?xmemref<?xf64>> loc(#loc172)
                                                        %35 = arith.addi %25, %c1_i32 : i32 loc(#loc185)
                                                        %36 = arith.index_cast %35 : i32 to index loc(#loc186)
                                                        %37 = polygeist.subindex %34[%36] () : memref<?xf64> -> memref<?xf64> loc(#loc172)
                                                        %38 = affine.load %37[0] : memref<?xf64> loc(#loc172)
                                                        %39 = arith.addf %33, %38 : f64 loc(#loc187)
                                                        %40 = arith.addi %25, %c-1_i32 : i32 loc(#loc188)
                                                        %41 = arith.index_cast %40 : i32 to index loc(#loc189)
                                                        %42 = polygeist.subindex %34[%41] () : memref<?xf64> -> memref<?xf64> loc(#loc190)
                                                        %43 = affine.load %42[0] : memref<?xf64> loc(#loc190)
                                                        %44 = arith.addf %39, %43 : f64 loc(#loc191)
                                                        %45 = affine.load %23[0] : memref<?xmemref<?xf64>> loc(#loc175)
                                                        %46 = polygeist.subindex %45[%arg12] () : memref<?xf64> -> memref<?xf64> loc(#loc175)
                                                        %47 = affine.load %46[0] : memref<?xf64> loc(#loc175)
                                                        %48 = arith.addf %44, %47 : f64 loc(#loc192)
                                                        %49 = affine.load %24[0] : memref<?xmemref<?xf64>> loc(#loc176)
                                                        %50 = polygeist.subindex %49[%arg12] () : memref<?xf64> -> memref<?xf64> loc(#loc176)
                                                        %51 = affine.load %50[0] : memref<?xf64> loc(#loc176)
                                                        %52 = arith.mulf %51, %arg2 : f64 loc(#loc193)
                                                        %53 = arith.mulf %52, %arg3 : f64 loc(#loc194)
                                                        %54 = arith.addf %48, %53 : f64 loc(#loc195)
                                                        %55 = arith.mulf %54, %cst : f64 loc(#loc196)
                                                        affine.store %55, %30[0] : memref<?xf64> loc(#loc197)
                                                        scf.yield loc(#loc)
                                                      } loc(#loc)
                                                    } loc(#loc)
                                                  } loc(#loc183)
                                                  scf.yield loc(#loc)
                                                } loc(#loc)
                                              } loc(#loc)
                                              scf.yield loc(#loc)
                                            } loc(#loc)
                                          } loc(#loc)
                                        } loc(#loc177)
                                        scf.yield loc(#loc)
                                      } loc(#loc)
                                    } loc(#loc)
                                    scf.yield loc(#loc)
                                  } loc(#loc)
                                } loc(#loc)
                                scf.yield loc(#loc163)
                              } loc(#loc163)
                              omp.yield loc(#loc163)
                            } loc(#loc163)
                          } loc(#loc163)
                          scf.yield loc(#loc163)
                        } loc(#loc163)
                        omp.terminator loc(#loc163)
                      } loc(#loc163)
                      affine.store %true, %alloca_1[] : memref<i1> loc(#loc163)
                      scf.yield loc(#loc)
                    } loc(#loc)
                  } loc(#loc)
                  scf.yield loc(#loc)
                } loc(#loc)
              } loc(#loc)
            } loc(#loc157)
            scf.yield loc(#loc)
          } loc(#loc)
        } loc(#loc)
        scf.yield loc(#loc)
      } loc(#loc)
    } loc(#loc)
    return loc(#loc198)
  } loc(#loc148)
  func.func private @carts_kernel_timer_accum(memref<?xi8>) attributes {llvm.linkage = #llvm.linkage<external>} loc(#loc199)
  func.func private @carts_kernel_timer_print(memref<?xi8>) attributes {llvm.linkage = #llvm.linkage<external>} loc(#loc200)
  func.func private @carts_bench_checksum_d(f64) attributes {llvm.linkage = #llvm.linkage<external>} loc(#loc201)
  func.func private @carts_e2e_timer_stop() attributes {llvm.linkage = #llvm.linkage<external>} loc(#loc202)
  func.func private @u_exact(%arg0: f64 loc("/home/raherrer/projects/carts/external/carts-benchmarks/kastors-jacobi/poisson-for/poisson-for.c":47:15), %arg1: f64 loc("/home/raherrer/projects/carts/external/carts-benchmarks/kastors-jacobi/poisson-for/poisson-for.c":47:15)) -> f64 attributes {llvm.linkage = #llvm.linkage<internal>} {
    %cst = arith.constant 3.1415926535897931 : f64 loc(#loc)
    %true = arith.constant true loc(#loc204)
    %0 = "polygeist.undef"() : () -> f64 loc(#loc205)
    %1 = scf.if %true -> (f64) {
      %3 = scf.execute_region -> f64 {
        %4 = scf.if %true -> (f64) {
          %5 = scf.execute_region -> f64 {
            scf.yield %cst : f64 loc(#loc)
          } loc(#loc)
          scf.yield %5 : f64 loc(#loc)
        } else {
          scf.yield %0 : f64 loc(#loc)
        } loc(#loc)
        scf.yield %4 : f64 loc(#loc)
      } loc(#loc)
      scf.yield %3 : f64 loc(#loc)
    } else {
      scf.yield %0 : f64 loc(#loc)
    } loc(#loc)
    %2 = scf.if %true -> (f64) {
      %3 = scf.execute_region -> f64 {
        %4 = scf.if %true -> (f64) {
          %5 = scf.execute_region -> f64 {
            %6 = arith.mulf %1, %arg0 : f64 loc(#loc206)
            %7 = arith.mulf %6, %arg1 : f64 loc(#loc207)
            %8 = math.sin %7 : f64 loc(#loc208)
            scf.yield %8 : f64 loc(#loc)
          } loc(#loc)
          scf.yield %5 : f64 loc(#loc)
        } else {
          scf.yield %0 : f64 loc(#loc)
        } loc(#loc)
        scf.yield %4 : f64 loc(#loc)
      } loc(#loc)
      scf.yield %3 : f64 loc(#loc)
    } else {
      scf.yield %0 : f64 loc(#loc)
    } loc(#loc)
    return %2 : f64 loc(#loc209)
  } loc(#loc203)
  func.func private @uxxyy_exact(%arg0: f64 loc("/home/raherrer/projects/carts/external/carts-benchmarks/kastors-jacobi/poisson-for/poisson-for.c":52:15), %arg1: f64 loc("/home/raherrer/projects/carts/external/carts-benchmarks/kastors-jacobi/poisson-for/poisson-for.c":52:15)) -> f64 attributes {llvm.linkage = #llvm.linkage<internal>} {
    %cst = arith.constant 3.1415926535897931 : f64 loc(#loc)
    %true = arith.constant true loc(#loc211)
    %0 = "polygeist.undef"() : () -> f64 loc(#loc212)
    %1 = scf.if %true -> (f64) {
      %3 = scf.execute_region -> f64 {
        %4 = scf.if %true -> (f64) {
          %5 = scf.execute_region -> f64 {
            scf.yield %cst : f64 loc(#loc)
          } loc(#loc)
          scf.yield %5 : f64 loc(#loc)
        } else {
          scf.yield %0 : f64 loc(#loc)
        } loc(#loc)
        scf.yield %4 : f64 loc(#loc)
      } loc(#loc)
      scf.yield %3 : f64 loc(#loc)
    } else {
      scf.yield %0 : f64 loc(#loc)
    } loc(#loc)
    %2 = scf.if %true -> (f64) {
      %3 = scf.execute_region -> f64 {
        %4 = scf.if %true -> (f64) {
          %5 = scf.execute_region -> f64 {
            %6 = arith.negf %1 : f64 loc(#loc213)
            %7 = arith.mulf %6, %1 : f64 loc(#loc214)
            %8 = arith.mulf %arg0, %arg0 : f64 loc(#loc215)
            %9 = arith.mulf %arg1, %arg1 : f64 loc(#loc216)
            %10 = arith.addf %8, %9 : f64 loc(#loc217)
            %11 = arith.mulf %7, %10 : f64 loc(#loc218)
            %12 = arith.mulf %1, %arg0 : f64 loc(#loc219)
            %13 = arith.mulf %12, %arg1 : f64 loc(#loc220)
            %14 = math.sin %13 : f64 loc(#loc221)
            %15 = arith.mulf %11, %14 : f64 loc(#loc222)
            scf.yield %15 : f64 loc(#loc)
          } loc(#loc)
          scf.yield %5 : f64 loc(#loc)
        } else {
          scf.yield %0 : f64 loc(#loc)
        } loc(#loc)
        scf.yield %4 : f64 loc(#loc)
      } loc(#loc)
      scf.yield %3 : f64 loc(#loc)
    } else {
      scf.yield %0 : f64 loc(#loc)
    } loc(#loc)
    return %2 : f64 loc(#loc223)
  } loc(#loc210)
} loc(#loc)
#loc = loc(unknown)
#loc1 = loc("/home/raherrer/projects/carts/.install/carts/include/arts/utils/benchmarks/CartsBenchmarks.h":100:65)
#loc2 = loc("/home/raherrer/projects/carts/.install/carts/include/arts/utils/benchmarks/CartsBenchmarks.h":98:27)
#loc3 = loc("/home/raherrer/projects/carts/.install/carts/include/arts/utils/benchmarks/CartsBenchmarks.h":95:65)
#loc4 = loc("/home/raherrer/projects/carts/external/carts-benchmarks/kastors-jacobi/poisson-for/poisson-for.c":79:25)
#loc5 = loc("/home/raherrer/projects/carts/external/carts-benchmarks/kastors-jacobi/poisson-for/poisson-for.c":77:5)
#loc6 = loc("/home/raherrer/projects/carts/external/carts-benchmarks/kastors-jacobi/poisson-for/poisson-for.c":77:1)
#loc7 = loc("/home/raherrer/projects/carts/external/carts-benchmarks/kastors-jacobi/poisson-for/poisson-for.c":152:8)
#loc8 = loc("/home/raherrer/projects/carts/external/carts-benchmarks/kastors-jacobi/poisson-for/poisson-for.c":140:3)
#loc9 = loc("/home/raherrer/projects/carts/external/carts-benchmarks/kastors-jacobi/poisson-for/poisson-for.c":96:3)
#loc10 = loc("/home/raherrer/projects/carts/external/carts-benchmarks/kastors-jacobi/poisson-for/poisson-for.c":95:3)
#loc11 = loc("/home/raherrer/projects/carts/external/carts-benchmarks/kastors-jacobi/poisson-for/poisson-for.c":94:3)
#loc12 = loc("/home/raherrer/projects/carts/.install/carts/include/arts/utils/benchmarks/CartsBenchmarks.h":54:34)
#loc13 = loc("/home/raherrer/projects/carts/.install/carts/include/arts/utils/benchmarks/CartsBenchmarks.h":79:37)
#loc14 = loc("/home/raherrer/projects/carts/.install/carts/include/arts/utils/benchmarks/CartsBenchmarks.h":95:41)
#loc15 = loc("/home/raherrer/projects/carts/external/carts-benchmarks/kastors-jacobi/poisson-for/poisson-for.c":90:25)
#loc16 = loc("/home/raherrer/projects/carts/external/carts-benchmarks/kastors-jacobi/poisson-for/poisson-for.c":90:21)
#loc17 = loc("/home/raherrer/projects/carts/external/carts-benchmarks/kastors-jacobi/poisson-for/poisson-for.c":90:19)
#loc18 = loc("/home/raherrer/projects/carts/external/carts-benchmarks/kastors-jacobi/poisson-for/poisson-for.c":94:16)
#loc19 = loc("/home/raherrer/projects/carts/external/carts-benchmarks/kastors-jacobi/poisson-for/poisson-for.c":94:34)
#loc20 = loc("/home/raherrer/projects/carts/external/carts-benchmarks/kastors-jacobi/poisson-for/poisson-for.c":94:39)
#loc21 = loc("/home/raherrer/projects/carts/external/carts-benchmarks/kastors-jacobi/poisson-for/poisson-for.c":94:37)
#loc22 = loc("/home/raherrer/projects/carts/external/carts-benchmarks/kastors-jacobi/poisson-for/poisson-for.c":95:16)
#loc23 = loc("/home/raherrer/projects/carts/external/carts-benchmarks/kastors-jacobi/poisson-for/poisson-for.c":95:34)
#loc24 = loc("/home/raherrer/projects/carts/external/carts-benchmarks/kastors-jacobi/poisson-for/poisson-for.c":95:39)
#loc25 = loc("/home/raherrer/projects/carts/external/carts-benchmarks/kastors-jacobi/poisson-for/poisson-for.c":95:37)
#loc26 = loc("/home/raherrer/projects/carts/external/carts-benchmarks/kastors-jacobi/poisson-for/poisson-for.c":96:19)
#loc27 = loc("/home/raherrer/projects/carts/external/carts-benchmarks/kastors-jacobi/poisson-for/poisson-for.c":96:37)
#loc28 = loc("/home/raherrer/projects/carts/external/carts-benchmarks/kastors-jacobi/poisson-for/poisson-for.c":96:42)
#loc29 = loc("/home/raherrer/projects/carts/external/carts-benchmarks/kastors-jacobi/poisson-for/poisson-for.c":96:40)
#loc30 = loc("/home/raherrer/projects/carts/external/carts-benchmarks/kastors-jacobi/poisson-for/poisson-for.c":99:5)
#loc31 = loc("/home/raherrer/projects/carts/external/carts-benchmarks/kastors-jacobi/poisson-for/poisson-for.c":99:12)
#loc32 = loc("/home/raherrer/projects/carts/external/carts-benchmarks/kastors-jacobi/poisson-for/poisson-for.c":99:29)
#loc33 = loc("/home/raherrer/projects/carts/external/carts-benchmarks/kastors-jacobi/poisson-for/poisson-for.c":99:34)
#loc34 = loc("/home/raherrer/projects/carts/external/carts-benchmarks/kastors-jacobi/poisson-for/poisson-for.c":99:32)
#loc35 = loc("/home/raherrer/projects/carts/external/carts-benchmarks/kastors-jacobi/poisson-for/poisson-for.c":100:5)
#loc36 = loc("/home/raherrer/projects/carts/external/carts-benchmarks/kastors-jacobi/poisson-for/poisson-for.c":100:12)
#loc37 = loc("/home/raherrer/projects/carts/external/carts-benchmarks/kastors-jacobi/poisson-for/poisson-for.c":100:29)
#loc38 = loc("/home/raherrer/projects/carts/external/carts-benchmarks/kastors-jacobi/poisson-for/poisson-for.c":100:34)
#loc39 = loc("/home/raherrer/projects/carts/external/carts-benchmarks/kastors-jacobi/poisson-for/poisson-for.c":100:32)
#loc40 = loc("/home/raherrer/projects/carts/external/carts-benchmarks/kastors-jacobi/poisson-for/poisson-for.c":101:5)
#loc41 = loc("/home/raherrer/projects/carts/external/carts-benchmarks/kastors-jacobi/poisson-for/poisson-for.c":101:15)
#loc42 = loc("/home/raherrer/projects/carts/external/carts-benchmarks/kastors-jacobi/poisson-for/poisson-for.c":101:32)
#loc43 = loc("/home/raherrer/projects/carts/external/carts-benchmarks/kastors-jacobi/poisson-for/poisson-for.c":101:37)
#loc44 = loc("/home/raherrer/projects/carts/external/carts-benchmarks/kastors-jacobi/poisson-for/poisson-for.c":101:35)
#loc46 = loc("/home/raherrer/projects/carts/external/carts-benchmarks/kastors-jacobi/poisson-for/poisson-for.c":99:10)
#loc47 = loc("/home/raherrer/projects/carts/external/carts-benchmarks/kastors-jacobi/poisson-for/poisson-for.c":100:10)
#loc48 = loc("/home/raherrer/projects/carts/external/carts-benchmarks/kastors-jacobi/poisson-for/poisson-for.c":101:13)
#loc49 = loc("/home/raherrer/projects/carts/external/carts-benchmarks/kastors-jacobi/poisson-for/poisson-for.c":107:7)
#loc50 = loc("/home/raherrer/projects/carts/external/carts-benchmarks/kastors-jacobi/poisson-for/poisson-for.c":108:7)
#loc51 = loc("/home/raherrer/projects/carts/external/carts-benchmarks/kastors-jacobi/poisson-for/poisson-for.c":109:7)
#loc54 = loc("/home/raherrer/projects/carts/external/carts-benchmarks/kastors-jacobi/poisson-for/poisson-for.c":107:15)
#loc55 = loc("/home/raherrer/projects/carts/external/carts-benchmarks/kastors-jacobi/poisson-for/poisson-for.c":108:15)
#loc56 = loc("/home/raherrer/projects/carts/external/carts-benchmarks/kastors-jacobi/poisson-for/poisson-for.c":109:18)
#loc57 = loc("/home/raherrer/projects/carts/external/carts-benchmarks/kastors-jacobi/poisson-for/poisson-for.c":114:15)
#loc58 = loc("/home/raherrer/projects/carts/external/carts-benchmarks/kastors-jacobi/poisson-for/poisson-for.c":114:3)
#loc59 = loc("/home/raherrer/projects/carts/external/carts-benchmarks/kastors-jacobi/poisson-for/poisson-for.c":120:29)
#loc60 = loc("/home/raherrer/projects/carts/external/carts-benchmarks/kastors-jacobi/poisson-for/poisson-for.c":120:54)
#loc61 = loc("/home/raherrer/projects/carts/external/carts-benchmarks/kastors-jacobi/poisson-for/poisson-for.c":121:9)
#loc62 = loc("/home/raherrer/projects/carts/external/carts-benchmarks/kastors-jacobi/poisson-for/poisson-for.c":121:22)
#loc64 = loc("/home/raherrer/projects/carts/external/carts-benchmarks/kastors-jacobi/poisson-for/poisson-for.c":120:18)
#loc65 = loc("/home/raherrer/projects/carts/external/carts-benchmarks/kastors-jacobi/poisson-for/poisson-for.c":120:23)
#loc66 = loc("/home/raherrer/projects/carts/external/carts-benchmarks/kastors-jacobi/poisson-for/poisson-for.c":123:9)
#loc68 = loc("/home/raherrer/projects/carts/external/carts-benchmarks/kastors-jacobi/poisson-for/poisson-for.c":120:33)
#loc69 = loc("/home/raherrer/projects/carts/external/carts-benchmarks/kastors-jacobi/poisson-for/poisson-for.c":120:38)
#loc70 = loc("/home/raherrer/projects/carts/external/carts-benchmarks/kastors-jacobi/poisson-for/poisson-for.c":120:43)
#loc71 = loc("/home/raherrer/projects/carts/external/carts-benchmarks/kastors-jacobi/poisson-for/poisson-for.c":120:48)
#loc72 = loc("/home/raherrer/projects/carts/external/carts-benchmarks/kastors-jacobi/poisson-for/poisson-for.c":120:7)
#loc73 = loc("/home/raherrer/projects/carts/external/carts-benchmarks/kastors-jacobi/poisson-for/poisson-for.c":121:20)
#loc74 = loc("/home/raherrer/projects/carts/external/carts-benchmarks/kastors-jacobi/poisson-for/poisson-for.c":123:20)
#loc75 = loc("/home/raherrer/projects/carts/.install/carts/include/arts/utils/benchmarks/CartsBenchmarks.h":96:36)
#loc76 = loc("/home/raherrer/projects/carts/.install/carts/include/arts/utils/benchmarks/CartsBenchmarks.h":139:40)
#loc77 = loc("/home/raherrer/projects/carts/.install/carts/include/arts/utils/benchmarks/CartsBenchmarks.h":141:40)
#loc79 = loc("/home/raherrer/projects/carts/external/carts-benchmarks/kastors-jacobi/poisson-for/poisson-for.c":132:27)
#loc80 = loc("/home/raherrer/projects/carts/external/carts-benchmarks/kastors-jacobi/poisson-for/poisson-for.c":132:44)
#loc81 = loc("/home/raherrer/projects/carts/external/carts-benchmarks/kastors-jacobi/poisson-for/poisson-for.c":132:47)
#loc82 = loc("/home/raherrer/projects/carts/external/carts-benchmarks/kastors-jacobi/poisson-for/poisson-for.c":132:5)
#loc83 = loc("/home/raherrer/projects/carts/.install/carts/include/arts/utils/benchmarks/CartsBenchmarks.h":142:40)
#loc84 = loc("/home/raherrer/projects/carts/.install/carts/include/arts/utils/benchmarks/CartsBenchmarks.h":98:3)
#loc85 = loc("/home/raherrer/projects/carts/external/carts-benchmarks/kastors-jacobi/poisson-for/poisson-for.c":141:14)
#loc86 = loc("/home/raherrer/projects/carts/external/carts-benchmarks/kastors-jacobi/poisson-for/poisson-for.c":143:17)
#loc88 = loc("/home/raherrer/projects/carts/external/carts-benchmarks/kastors-jacobi/poisson-for/poisson-for.c":143:14)
#loc89 = loc("/home/raherrer/projects/carts/external/carts-benchmarks/kastors-jacobi/poisson-for/poisson-for.c":145:24)
#loc90 = loc("/home/raherrer/projects/carts/.install/carts/include/arts/utils/benchmarks/CartsBenchmarks.h":251:3)
#loc91 = loc("/home/raherrer/projects/carts/.install/carts/include/arts/utils/benchmarks/CartsBenchmarks.h":99:41)
#loc92 = loc("/home/raherrer/projects/carts/.install/carts/include/arts/utils/benchmarks/CartsBenchmarks.h":100:41)
#loc93 = loc("/home/raherrer/projects/carts/external/carts-benchmarks/kastors-jacobi/poisson-for/poisson-for.c":153:10)
#loc94 = loc("/home/raherrer/projects/carts/external/carts-benchmarks/kastors-jacobi/poisson-for/poisson-for.c":154:10)
#loc95 = loc("/home/raherrer/projects/carts/external/carts-benchmarks/kastors-jacobi/poisson-for/poisson-for.c":155:10)
#loc97 = loc("/home/raherrer/projects/carts/external/carts-benchmarks/kastors-jacobi/poisson-for/poisson-for.c":153:5)
#loc98 = loc("/home/raherrer/projects/carts/external/carts-benchmarks/kastors-jacobi/poisson-for/poisson-for.c":154:5)
#loc99 = loc("/home/raherrer/projects/carts/external/carts-benchmarks/kastors-jacobi/poisson-for/poisson-for.c":155:5)
#loc100 = loc("/home/raherrer/projects/carts/external/carts-benchmarks/kastors-jacobi/poisson-for/poisson-for.c":157:3)
#loc101 = loc("/home/raherrer/projects/carts/external/carts-benchmarks/kastors-jacobi/poisson-for/poisson-for.c":158:3)
#loc102 = loc("/home/raherrer/projects/carts/external/carts-benchmarks/kastors-jacobi/poisson-for/poisson-for.c":159:3)
#loc103 = loc("/home/raherrer/projects/carts/.install/carts/include/arts/utils/benchmarks/CartsBenchmarks.h":101:36)
#loc104 = loc("/home/raherrer/projects/carts/.install/carts/include/arts/utils/benchmarks/CartsBenchmarks.h":80:32)
#loc105 = loc("/home/raherrer/projects/carts/external/carts-benchmarks/kastors-jacobi/poisson-for/poisson-for.c":167:1)
#loc106 = loc("/home/raherrer/projects/carts/.install/carts/include/arts/utils/benchmarks/CartsBenchmarks.h":50:6)
#loc107 = loc("/home/raherrer/projects/carts/.install/carts/include/arts/utils/benchmarks/CartsBenchmarks.h":74:6)
#loc108 = loc("/home/raherrer/projects/carts/.install/carts/include/arts/utils/benchmarks/CartsBenchmarks.h":90:6)
#loc110 = loc("/home/raherrer/projects/carts/external/carts-benchmarks/kastors-jacobi/poisson-for/poisson-for.c":57:1)
#loc111 = loc("/home/raherrer/projects/carts/external/carts-benchmarks/kastors-jacobi/poisson-for/poisson-for.c":65:3)
#loc112 = loc("/home/raherrer/projects/carts/external/carts-benchmarks/kastors-jacobi/poisson-for/poisson-for.c":59:3)
#loc113 = loc("/home/raherrer/projects/carts/external/carts-benchmarks/kastors-jacobi/poisson-for/poisson-for.c":60:16)
#loc114 = loc("/home/raherrer/projects/carts/external/carts-benchmarks/kastors-jacobi/poisson-for/poisson-for.c":61:16)
#loc115 = loc("/home/raherrer/projects/carts/external/carts-benchmarks/kastors-jacobi/poisson-for/poisson-for.c":64:1)
#loc116 = loc("/home/raherrer/projects/carts/external/carts-benchmarks/kastors-jacobi/poisson-for/poisson-for.c":66:9)
#loc117 = loc("/home/raherrer/projects/carts/external/carts-benchmarks/kastors-jacobi/poisson-for/poisson-for.c":66:23)
#loc118 = loc("/home/raherrer/projects/carts/external/carts-benchmarks/kastors-jacobi/poisson-for/poisson-for.c":66:21)
#loc119 = loc("/home/raherrer/projects/carts/external/carts-benchmarks/kastors-jacobi/poisson-for/poisson-for.c":66:7)
#loc120 = loc("/home/raherrer/projects/carts/external/carts-benchmarks/kastors-jacobi/poisson-for/poisson-for.c":67:19)
#loc121 = loc("/home/raherrer/projects/carts/external/carts-benchmarks/kastors-jacobi/poisson-for/poisson-for.c":68:25)
#loc122 = loc("/home/raherrer/projects/carts/external/carts-benchmarks/kastors-jacobi/poisson-for/poisson-for.c":69:35)
#loc123 = loc("/home/raherrer/projects/carts/external/carts-benchmarks/kastors-jacobi/poisson-for/poisson-for.c":69:45)
#loc124 = loc("/home/raherrer/projects/carts/external/carts-benchmarks/kastors-jacobi/poisson-for/poisson-for.c":67:5)
#loc125 = loc("/home/raherrer/projects/carts/external/carts-benchmarks/kastors-jacobi/poisson-for/poisson-for.c":68:11)
#loc126 = loc("/home/raherrer/projects/carts/external/carts-benchmarks/kastors-jacobi/poisson-for/poisson-for.c":68:23)
#loc127 = loc("/home/raherrer/projects/carts/external/carts-benchmarks/kastors-jacobi/poisson-for/poisson-for.c":68:9)
#loc128 = loc("/home/raherrer/projects/carts/external/carts-benchmarks/kastors-jacobi/poisson-for/poisson-for.c":69:13)
#loc129 = loc("/home/raherrer/projects/carts/external/carts-benchmarks/kastors-jacobi/poisson-for/poisson-for.c":69:18)
#loc130 = loc("/home/raherrer/projects/carts/external/carts-benchmarks/kastors-jacobi/poisson-for/poisson-for.c":69:23)
#loc131 = loc("/home/raherrer/projects/carts/external/carts-benchmarks/kastors-jacobi/poisson-for/poisson-for.c":69:30)
#loc132 = loc("/home/raherrer/projects/carts/external/carts-benchmarks/kastors-jacobi/poisson-for/poisson-for.c":69:40)
#loc133 = loc("/home/raherrer/projects/carts/external/carts-benchmarks/kastors-jacobi/poisson-for/poisson-for.c":69:7)
#loc134 = loc("/home/raherrer/projects/carts/external/carts-benchmarks/kastors-jacobi/poisson-for/poisson-for.c":70:9)
#loc135 = loc("/home/raherrer/projects/carts/external/carts-benchmarks/kastors-jacobi/poisson-for/poisson-for.c":70:27)
#loc136 = loc("/home/raherrer/projects/carts/external/carts-benchmarks/kastors-jacobi/poisson-for/poisson-for.c":70:30)
#loc137 = loc("/home/raherrer/projects/carts/external/carts-benchmarks/kastors-jacobi/poisson-for/poisson-for.c":70:19)
#loc138 = loc("/home/raherrer/projects/carts/external/carts-benchmarks/kastors-jacobi/poisson-for/poisson-for.c":70:17)
#loc139 = loc("/home/raherrer/projects/carts/external/carts-benchmarks/kastors-jacobi/poisson-for/poisson-for.c":72:9)
#loc140 = loc("/home/raherrer/projects/carts/external/carts-benchmarks/kastors-jacobi/poisson-for/poisson-for.c":72:32)
#loc141 = loc("/home/raherrer/projects/carts/external/carts-benchmarks/kastors-jacobi/poisson-for/poisson-for.c":72:35)
#loc142 = loc("/home/raherrer/projects/carts/external/carts-benchmarks/kastors-jacobi/poisson-for/poisson-for.c":72:20)
#loc143 = loc("/home/raherrer/projects/carts/external/carts-benchmarks/kastors-jacobi/poisson-for/poisson-for.c":72:19)
#loc144 = loc("/home/raherrer/projects/carts/external/carts-benchmarks/kastors-jacobi/poisson-for/poisson-for.c":72:17)
#loc145 = loc("/home/raherrer/projects/carts/external/carts-benchmarks/kastors-jacobi/poisson-for/poisson-for.c":75:1)
#loc146 = loc("/home/raherrer/projects/carts/.install/carts/include/arts/utils/benchmarks/CartsBenchmarks.h":93:6)
#loc147 = loc("/home/raherrer/projects/carts/.install/carts/include/arts/utils/benchmarks/CartsBenchmarks.h":128:6)
#loc149 = loc("/home/raherrer/projects/carts/external/carts-benchmarks/kastors-jacobi/poisson-for/poisson-for.c":18:1)
#loc150 = loc("/home/raherrer/projects/carts/external/carts-benchmarks/kastors-jacobi/poisson-for/poisson-for.c":33:5)
#loc151 = loc("/home/raherrer/projects/carts/external/carts-benchmarks/kastors-jacobi/poisson-for/poisson-for.c":33:21)
#loc152 = loc("/home/raherrer/projects/carts/external/carts-benchmarks/kastors-jacobi/poisson-for/poisson-for.c":25:21)
#loc153 = loc("/home/raherrer/projects/carts/external/carts-benchmarks/kastors-jacobi/poisson-for/poisson-for.c":26:21)
#loc154 = loc("/home/raherrer/projects/carts/external/carts-benchmarks/kastors-jacobi/poisson-for/poisson-for.c":34:21)
#loc155 = loc("/home/raherrer/projects/carts/external/carts-benchmarks/kastors-jacobi/poisson-for/poisson-for.c":35:41)
#loc156 = loc("/home/raherrer/projects/carts/external/carts-benchmarks/kastors-jacobi/poisson-for/poisson-for.c":35:56)
#loc158 = loc("/home/raherrer/projects/carts/external/carts-benchmarks/kastors-jacobi/poisson-for/poisson-for.c":24:1)
#loc159 = loc("/home/raherrer/projects/carts/external/carts-benchmarks/kastors-jacobi/poisson-for/poisson-for.c":27:9)
#loc160 = loc("/home/raherrer/projects/carts/external/carts-benchmarks/kastors-jacobi/poisson-for/poisson-for.c":27:19)
#loc161 = loc("/home/raherrer/projects/carts/external/carts-benchmarks/kastors-jacobi/poisson-for/poisson-for.c":26:7)
#loc162 = loc("/home/raherrer/projects/carts/external/carts-benchmarks/kastors-jacobi/poisson-for/poisson-for.c":27:17)
#loc163 = loc("/home/raherrer/projects/carts/external/carts-benchmarks/kastors-jacobi/poisson-for/poisson-for.c":32:1)
#loc164 = loc("/home/raherrer/projects/carts/external/carts-benchmarks/kastors-jacobi/poisson-for/poisson-for.c":35:15)
#loc165 = loc("/home/raherrer/projects/carts/external/carts-benchmarks/kastors-jacobi/poisson-for/poisson-for.c":35:35)
#loc166 = loc("/home/raherrer/projects/carts/external/carts-benchmarks/kastors-jacobi/poisson-for/poisson-for.c":36:11)
#loc167 = loc("/home/raherrer/projects/carts/external/carts-benchmarks/kastors-jacobi/poisson-for/poisson-for.c":36:24)
#loc168 = loc("/home/raherrer/projects/carts/external/carts-benchmarks/kastors-jacobi/poisson-for/poisson-for.c":38:11)
#loc169 = loc("/home/raherrer/projects/carts/external/carts-benchmarks/kastors-jacobi/poisson-for/poisson-for.c":38:36)
#loc170 = loc("/home/raherrer/projects/carts/external/carts-benchmarks/kastors-jacobi/poisson-for/poisson-for.c":38:39)
#loc171 = loc("/home/raherrer/projects/carts/external/carts-benchmarks/kastors-jacobi/poisson-for/poisson-for.c":38:32)
#loc172 = loc("/home/raherrer/projects/carts/external/carts-benchmarks/kastors-jacobi/poisson-for/poisson-for.c":38:46)
#loc173 = loc("/home/raherrer/projects/carts/external/carts-benchmarks/kastors-jacobi/poisson-for/poisson-for.c":39:36)
#loc174 = loc("/home/raherrer/projects/carts/external/carts-benchmarks/kastors-jacobi/poisson-for/poisson-for.c":39:39)
#loc175 = loc("/home/raherrer/projects/carts/external/carts-benchmarks/kastors-jacobi/poisson-for/poisson-for.c":39:32)
#loc176 = loc("/home/raherrer/projects/carts/external/carts-benchmarks/kastors-jacobi/poisson-for/poisson-for.c":39:46)
#loc177 = loc("/home/raherrer/projects/carts/external/carts-benchmarks/kastors-jacobi/poisson-for/poisson-for.c":34:7)
#loc178 = loc("/home/raherrer/projects/carts/external/carts-benchmarks/kastors-jacobi/poisson-for/poisson-for.c":35:20)
#loc179 = loc("/home/raherrer/projects/carts/external/carts-benchmarks/kastors-jacobi/poisson-for/poisson-for.c":35:25)
#loc180 = loc("/home/raherrer/projects/carts/external/carts-benchmarks/kastors-jacobi/poisson-for/poisson-for.c":35:30)
#loc181 = loc("/home/raherrer/projects/carts/external/carts-benchmarks/kastors-jacobi/poisson-for/poisson-for.c":35:45)
#loc182 = loc("/home/raherrer/projects/carts/external/carts-benchmarks/kastors-jacobi/poisson-for/poisson-for.c":35:50)
#loc183 = loc("/home/raherrer/projects/carts/external/carts-benchmarks/kastors-jacobi/poisson-for/poisson-for.c":35:9)
#loc184 = loc("/home/raherrer/projects/carts/external/carts-benchmarks/kastors-jacobi/poisson-for/poisson-for.c":36:22)
#loc185 = loc("/home/raherrer/projects/carts/external/carts-benchmarks/kastors-jacobi/poisson-for/poisson-for.c":38:53)
#loc186 = loc("/home/raherrer/projects/carts/external/carts-benchmarks/kastors-jacobi/poisson-for/poisson-for.c":38:56)
#loc187 = loc("/home/raherrer/projects/carts/external/carts-benchmarks/kastors-jacobi/poisson-for/poisson-for.c":38:44)
#loc188 = loc("/home/raherrer/projects/carts/external/carts-benchmarks/kastors-jacobi/poisson-for/poisson-for.c":38:67)
#loc189 = loc("/home/raherrer/projects/carts/external/carts-benchmarks/kastors-jacobi/poisson-for/poisson-for.c":38:70)
#loc190 = loc("/home/raherrer/projects/carts/external/carts-benchmarks/kastors-jacobi/poisson-for/poisson-for.c":38:60)
#loc191 = loc("/home/raherrer/projects/carts/external/carts-benchmarks/kastors-jacobi/poisson-for/poisson-for.c":38:58)
#loc192 = loc("/home/raherrer/projects/carts/external/carts-benchmarks/kastors-jacobi/poisson-for/poisson-for.c":38:72)
#loc193 = loc("/home/raherrer/projects/carts/external/carts-benchmarks/kastors-jacobi/poisson-for/poisson-for.c":39:54)
#loc194 = loc("/home/raherrer/projects/carts/external/carts-benchmarks/kastors-jacobi/poisson-for/poisson-for.c":39:59)
#loc195 = loc("/home/raherrer/projects/carts/external/carts-benchmarks/kastors-jacobi/poisson-for/poisson-for.c":39:44)
#loc196 = loc("/home/raherrer/projects/carts/external/carts-benchmarks/kastors-jacobi/poisson-for/poisson-for.c":38:29)
#loc197 = loc("/home/raherrer/projects/carts/external/carts-benchmarks/kastors-jacobi/poisson-for/poisson-for.c":38:22)
#loc198 = loc("/home/raherrer/projects/carts/external/carts-benchmarks/kastors-jacobi/poisson-for/poisson-for.c":45:1)
#loc199 = loc("/home/raherrer/projects/carts/.install/carts/include/arts/utils/benchmarks/CartsBenchmarks.h":134:6)
#loc200 = loc("/home/raherrer/projects/carts/.install/carts/include/arts/utils/benchmarks/CartsBenchmarks.h":137:6)
#loc201 = loc("/home/raherrer/projects/carts/.install/carts/include/arts/utils/benchmarks/CartsBenchmarks.h":207:6)
#loc202 = loc("/home/raherrer/projects/carts/.install/carts/include/arts/utils/benchmarks/CartsBenchmarks.h":77:6)
#loc204 = loc("/home/raherrer/projects/carts/external/carts-benchmarks/kastors-jacobi/poisson-for/poisson-for.c":47:1)
#loc205 = loc("/home/raherrer/projects/carts/external/carts-benchmarks/kastors-jacobi/poisson-for/poisson-for.c":48:3)
#loc206 = loc("/home/raherrer/projects/carts/external/carts-benchmarks/kastors-jacobi/poisson-for/poisson-for.c":49:17)
#loc207 = loc("/home/raherrer/projects/carts/external/carts-benchmarks/kastors-jacobi/poisson-for/poisson-for.c":49:21)
#loc208 = loc("/home/raherrer/projects/carts/external/carts-benchmarks/kastors-jacobi/poisson-for/poisson-for.c":49:10)
#loc209 = loc("/home/raherrer/projects/carts/external/carts-benchmarks/kastors-jacobi/poisson-for/poisson-for.c":50:1)
#loc211 = loc("/home/raherrer/projects/carts/external/carts-benchmarks/kastors-jacobi/poisson-for/poisson-for.c":52:1)
#loc212 = loc("/home/raherrer/projects/carts/external/carts-benchmarks/kastors-jacobi/poisson-for/poisson-for.c":53:3)
#loc213 = loc("/home/raherrer/projects/carts/external/carts-benchmarks/kastors-jacobi/poisson-for/poisson-for.c":54:10)
#loc214 = loc("/home/raherrer/projects/carts/external/carts-benchmarks/kastors-jacobi/poisson-for/poisson-for.c":54:14)
#loc215 = loc("/home/raherrer/projects/carts/external/carts-benchmarks/kastors-jacobi/poisson-for/poisson-for.c":54:24)
#loc216 = loc("/home/raherrer/projects/carts/external/carts-benchmarks/kastors-jacobi/poisson-for/poisson-for.c":54:32)
#loc217 = loc("/home/raherrer/projects/carts/external/carts-benchmarks/kastors-jacobi/poisson-for/poisson-for.c":54:28)
#loc218 = loc("/home/raherrer/projects/carts/external/carts-benchmarks/kastors-jacobi/poisson-for/poisson-for.c":54:19)
#loc219 = loc("/home/raherrer/projects/carts/external/carts-benchmarks/kastors-jacobi/poisson-for/poisson-for.c":54:46)
#loc220 = loc("/home/raherrer/projects/carts/external/carts-benchmarks/kastors-jacobi/poisson-for/poisson-for.c":54:50)
#loc221 = loc("/home/raherrer/projects/carts/external/carts-benchmarks/kastors-jacobi/poisson-for/poisson-for.c":54:39)
#loc222 = loc("/home/raherrer/projects/carts/external/carts-benchmarks/kastors-jacobi/poisson-for/poisson-for.c":54:37)
#loc223 = loc("/home/raherrer/projects/carts/external/carts-benchmarks/kastors-jacobi/poisson-for/poisson-for.c":55:1)
