#loc122 = loc("benchmarks/sw4lite/vel4sg-base/vel4sg_base.c":110:3)
#loc143 = loc("benchmarks/sw4lite/vel4sg-base/vel4sg_base.c":121:5)
#loc168 = loc("benchmarks/sw4lite/vel4sg-base/vel4sg_base.c":140:3)
#loc189 = loc("benchmarks/sw4lite/vel4sg-base/vel4sg_base.c":153:3)
#loc210 = loc("benchmarks/sw4lite/vel4sg-base/vel4sg_base.c":163:3)
#loc211 = loc("benchmarks/sw4lite/vel4sg-base/vel4sg_base.c":164:5)
#loc258 = loc("benchmarks/sw4lite/vel4sg-base/vel4sg_base.c":24:13)
#loc262 = loc("benchmarks/sw4lite/vel4sg-base/vel4sg_base.c":27:3)
#loc273 = loc("benchmarks/sw4lite/vel4sg-base/vel4sg_base.c":28:5)
#loc323 = loc("benchmarks/sw4lite/vel4sg-base/vel4sg_base.c":58:13)
#loc372 = loc("benchmarks/sw4lite/vel4sg-base/vel4sg_base.c":46:21)
#loc385 = loc("benchmarks/sw4lite/vel4sg-base/vel4sg_base.c":50:21)
#loc398 = loc("benchmarks/sw4lite/vel4sg-base/vel4sg_base.c":54:21)
module attributes {dlti.dl_spec = #dlti.dl_spec<!llvm.ptr<270> = dense<32> : vector<4xi64>, !llvm.ptr<271> = dense<32> : vector<4xi64>, !llvm.ptr<272> = dense<64> : vector<4xi64>, i64 = dense<64> : vector<2xi64>, i128 = dense<128> : vector<2xi64>, f80 = dense<128> : vector<2xi64>, !llvm.ptr = dense<64> : vector<4xi64>, i1 = dense<8> : vector<2xi64>, i8 = dense<8> : vector<2xi64>, i16 = dense<16> : vector<2xi64>, i32 = dense<32> : vector<2xi64>, f16 = dense<16> : vector<2xi64>, f64 = dense<64> : vector<2xi64>, f128 = dense<128> : vector<2xi64>, "dlti.endianness" = "little", "dlti.mangling_mode" = "e", "dlti.legal_int_widths" = array<i32: 8, 16, 32, 64>, "dlti.stack_alignment" = 128 : i64>, llvm.data_layout = "e-m:e-p270:32:32-p271:32:32-p272:64:64-i64:64-i128:128-f80:128-n8:16:32:64-S128", llvm.target_triple = "x86_64-unknown-linux-gnu", "polygeist.target-cpu" = "x86-64", "polygeist.target-features" = "+cmov,+cx8,+fxsr,+mmx,+sse,+sse2,+x87", "polygeist.tune-cpu" = "generic"} {
  llvm.mlir.global internal constant @str3("cleanup\00") {addr_space = 0 : i32} loc(#loc1)
  llvm.mlir.global internal constant @str2("verification\00") {addr_space = 0 : i32} loc(#loc2)
  llvm.mlir.global internal constant @str1("startup\00") {addr_space = 0 : i32} loc(#loc3)
  llvm.mlir.global internal constant @str0("sw4lite_vel4sg_update\00") {addr_space = 0 : i32} loc(#loc4)
  func.func @main() -> i32 attributes {llvm.linkage = #llvm.linkage<external>} {
    %0 = llvm.mlir.addressof @str3 : !llvm.ptr loc(#loc)
    %cst = arith.constant 0.000000e+00 : f64 loc(#loc)
    %1 = llvm.mlir.addressof @str2 : !llvm.ptr loc(#loc)
    %c48_i32 = arith.constant 48 : i32 loc(#loc)
    %c48_i64 = arith.constant 48 : i64 loc(#loc)
    %2 = llvm.mlir.addressof @str1 : !llvm.ptr loc(#loc)
    %c0_i32 = arith.constant 0 : i32 loc(#loc)
    %3 = llvm.mlir.addressof @str0 : !llvm.ptr loc(#loc)
    %true = arith.constant true loc(#loc6)
    %4 = "polygeist.undef"() : () -> i32 loc(#loc7)
    %alloca = memref.alloca() : memref<1xf64> loc(#loc8)
    %5 = "polygeist.undef"() : () -> f64 loc(#loc8)
    affine.store %5, %alloca[0] : memref<1xf64> loc(#loc8)
    %alloca_0 = memref.alloca() : memref<1xmemref<?xmemref<?xmemref<?xf32>>>> loc(#loc9)
    %alloca_1 = memref.alloca() : memref<1xmemref<?xmemref<?xmemref<?xf32>>>> loc(#loc10)
    %alloca_2 = memref.alloca() : memref<1xmemref<?xmemref<?xmemref<?xf32>>>> loc(#loc11)
    %alloca_3 = memref.alloca() : memref<1xmemref<?xmemref<?xmemref<?xf32>>>> loc(#loc12)
    %alloca_4 = memref.alloca() : memref<1xmemref<?xmemref<?xmemref<?xf32>>>> loc(#loc13)
    %alloca_5 = memref.alloca() : memref<1xmemref<?xmemref<?xmemref<?xf32>>>> loc(#loc14)
    %alloca_6 = memref.alloca() : memref<1xmemref<?xmemref<?xmemref<?xf32>>>> loc(#loc15)
    %alloca_7 = memref.alloca() : memref<1xmemref<?xmemref<?xmemref<?xf32>>>> loc(#loc16)
    %alloca_8 = memref.alloca() : memref<1xmemref<?xmemref<?xmemref<?xf32>>>> loc(#loc17)
    %alloca_9 = memref.alloca() : memref<1xmemref<?xmemref<?xmemref<?xf32>>>> loc(#loc18)
    scf.if %true {
      scf.execute_region {
        func.call @carts_benchmarks_start() : () -> () loc(#loc19)
        scf.yield loc(#loc)
      } loc(#loc)
    } loc(#loc)
    scf.if %true {
      scf.execute_region {
        %11 = polygeist.pointer2memref %3 : !llvm.ptr to memref<?xi8> loc(#loc20)
        func.call @carts_e2e_timer_start(%11) : (memref<?xi8>) -> () loc(#loc20)
        scf.yield loc(#loc)
      } loc(#loc)
    } loc(#loc)
    scf.if %true {
      scf.execute_region {
        %11 = polygeist.pointer2memref %2 : !llvm.ptr to memref<?xi8> loc(#loc21)
        %12 = polygeist.pointer2memref %3 : !llvm.ptr to memref<?xi8> loc(#loc21)
        func.call @carts_phase_timer_start(%11, %12) : (memref<?xi8>, memref<?xi8>) -> () loc(#loc21)
        scf.yield loc(#loc)
      } loc(#loc)
    } loc(#loc)
    scf.if %true {
      scf.execute_region {
        scf.if %true {
          %11 = scf.execute_region -> memref<?xmemref<?xmemref<?xf32>>> {
            %12 = polygeist.typeSize memref<?xmemref<?xf32>> : index loc(#loc22)
            %13 = arith.index_cast %12 : index to i64 loc(#loc23)
            %14 = arith.muli %13, %c48_i64 : i64 loc(#loc24)
            %15 = arith.index_cast %14 : i64 to index loc(#loc22)
            %16 = arith.divui %15, %12 : index loc(#loc22)
            %alloc = memref.alloc(%16) : memref<?xmemref<?xmemref<?xf32>>> loc(#loc22)
            affine.store %alloc, %alloca_9[0] : memref<1xmemref<?xmemref<?xmemref<?xf32>>>> loc(#loc18)
            scf.yield %alloc : memref<?xmemref<?xmemref<?xf32>>> loc(#loc)
          } loc(#loc)
        } loc(#loc)
        scf.yield loc(#loc)
      } loc(#loc)
    } loc(#loc)
    scf.if %true {
      scf.execute_region {
        scf.if %true {
          %11 = scf.execute_region -> memref<?xmemref<?xmemref<?xf32>>> {
            %12 = polygeist.typeSize memref<?xmemref<?xf32>> : index loc(#loc25)
            %13 = arith.index_cast %12 : index to i64 loc(#loc26)
            %14 = arith.muli %13, %c48_i64 : i64 loc(#loc27)
            %15 = arith.index_cast %14 : i64 to index loc(#loc25)
            %16 = arith.divui %15, %12 : index loc(#loc25)
            %alloc = memref.alloc(%16) : memref<?xmemref<?xmemref<?xf32>>> loc(#loc25)
            affine.store %alloc, %alloca_8[0] : memref<1xmemref<?xmemref<?xmemref<?xf32>>>> loc(#loc17)
            scf.yield %alloc : memref<?xmemref<?xmemref<?xf32>>> loc(#loc)
          } loc(#loc)
        } loc(#loc)
        scf.yield loc(#loc)
      } loc(#loc)
    } loc(#loc)
    scf.if %true {
      scf.execute_region {
        scf.if %true {
          %11 = scf.execute_region -> memref<?xmemref<?xmemref<?xf32>>> {
            %12 = polygeist.typeSize memref<?xmemref<?xf32>> : index loc(#loc28)
            %13 = arith.index_cast %12 : index to i64 loc(#loc29)
            %14 = arith.muli %13, %c48_i64 : i64 loc(#loc30)
            %15 = arith.index_cast %14 : i64 to index loc(#loc28)
            %16 = arith.divui %15, %12 : index loc(#loc28)
            %alloc = memref.alloc(%16) : memref<?xmemref<?xmemref<?xf32>>> loc(#loc28)
            affine.store %alloc, %alloca_7[0] : memref<1xmemref<?xmemref<?xmemref<?xf32>>>> loc(#loc16)
            scf.yield %alloc : memref<?xmemref<?xmemref<?xf32>>> loc(#loc)
          } loc(#loc)
        } loc(#loc)
        scf.yield loc(#loc)
      } loc(#loc)
    } loc(#loc)
    scf.if %true {
      scf.execute_region {
        scf.if %true {
          %11 = scf.execute_region -> memref<?xmemref<?xmemref<?xf32>>> {
            %12 = polygeist.typeSize memref<?xmemref<?xf32>> : index loc(#loc31)
            %13 = arith.index_cast %12 : index to i64 loc(#loc32)
            %14 = arith.muli %13, %c48_i64 : i64 loc(#loc33)
            %15 = arith.index_cast %14 : i64 to index loc(#loc31)
            %16 = arith.divui %15, %12 : index loc(#loc31)
            %alloc = memref.alloc(%16) : memref<?xmemref<?xmemref<?xf32>>> loc(#loc31)
            affine.store %alloc, %alloca_6[0] : memref<1xmemref<?xmemref<?xmemref<?xf32>>>> loc(#loc15)
            scf.yield %alloc : memref<?xmemref<?xmemref<?xf32>>> loc(#loc)
          } loc(#loc)
        } loc(#loc)
        scf.yield loc(#loc)
      } loc(#loc)
    } loc(#loc)
    scf.if %true {
      scf.execute_region {
        scf.if %true {
          %11 = scf.execute_region -> memref<?xmemref<?xmemref<?xf32>>> {
            %12 = polygeist.typeSize memref<?xmemref<?xf32>> : index loc(#loc34)
            %13 = arith.index_cast %12 : index to i64 loc(#loc35)
            %14 = arith.muli %13, %c48_i64 : i64 loc(#loc36)
            %15 = arith.index_cast %14 : i64 to index loc(#loc34)
            %16 = arith.divui %15, %12 : index loc(#loc34)
            %alloc = memref.alloc(%16) : memref<?xmemref<?xmemref<?xf32>>> loc(#loc34)
            affine.store %alloc, %alloca_5[0] : memref<1xmemref<?xmemref<?xmemref<?xf32>>>> loc(#loc14)
            scf.yield %alloc : memref<?xmemref<?xmemref<?xf32>>> loc(#loc)
          } loc(#loc)
        } loc(#loc)
        scf.yield loc(#loc)
      } loc(#loc)
    } loc(#loc)
    scf.if %true {
      scf.execute_region {
        scf.if %true {
          %11 = scf.execute_region -> memref<?xmemref<?xmemref<?xf32>>> {
            %12 = polygeist.typeSize memref<?xmemref<?xf32>> : index loc(#loc37)
            %13 = arith.index_cast %12 : index to i64 loc(#loc38)
            %14 = arith.muli %13, %c48_i64 : i64 loc(#loc39)
            %15 = arith.index_cast %14 : i64 to index loc(#loc37)
            %16 = arith.divui %15, %12 : index loc(#loc37)
            %alloc = memref.alloc(%16) : memref<?xmemref<?xmemref<?xf32>>> loc(#loc37)
            affine.store %alloc, %alloca_4[0] : memref<1xmemref<?xmemref<?xmemref<?xf32>>>> loc(#loc13)
            scf.yield %alloc : memref<?xmemref<?xmemref<?xf32>>> loc(#loc)
          } loc(#loc)
        } loc(#loc)
        scf.yield loc(#loc)
      } loc(#loc)
    } loc(#loc)
    scf.if %true {
      scf.execute_region {
        scf.if %true {
          %11 = scf.execute_region -> memref<?xmemref<?xmemref<?xf32>>> {
            %12 = polygeist.typeSize memref<?xmemref<?xf32>> : index loc(#loc40)
            %13 = arith.index_cast %12 : index to i64 loc(#loc41)
            %14 = arith.muli %13, %c48_i64 : i64 loc(#loc42)
            %15 = arith.index_cast %14 : i64 to index loc(#loc40)
            %16 = arith.divui %15, %12 : index loc(#loc40)
            %alloc = memref.alloc(%16) : memref<?xmemref<?xmemref<?xf32>>> loc(#loc40)
            affine.store %alloc, %alloca_3[0] : memref<1xmemref<?xmemref<?xmemref<?xf32>>>> loc(#loc12)
            scf.yield %alloc : memref<?xmemref<?xmemref<?xf32>>> loc(#loc)
          } loc(#loc)
        } loc(#loc)
        scf.yield loc(#loc)
      } loc(#loc)
    } loc(#loc)
    scf.if %true {
      scf.execute_region {
        scf.if %true {
          %11 = scf.execute_region -> memref<?xmemref<?xmemref<?xf32>>> {
            %12 = polygeist.typeSize memref<?xmemref<?xf32>> : index loc(#loc43)
            %13 = arith.index_cast %12 : index to i64 loc(#loc44)
            %14 = arith.muli %13, %c48_i64 : i64 loc(#loc45)
            %15 = arith.index_cast %14 : i64 to index loc(#loc43)
            %16 = arith.divui %15, %12 : index loc(#loc43)
            %alloc = memref.alloc(%16) : memref<?xmemref<?xmemref<?xf32>>> loc(#loc43)
            affine.store %alloc, %alloca_2[0] : memref<1xmemref<?xmemref<?xmemref<?xf32>>>> loc(#loc11)
            scf.yield %alloc : memref<?xmemref<?xmemref<?xf32>>> loc(#loc)
          } loc(#loc)
        } loc(#loc)
        scf.yield loc(#loc)
      } loc(#loc)
    } loc(#loc)
    scf.if %true {
      scf.execute_region {
        scf.if %true {
          %11 = scf.execute_region -> memref<?xmemref<?xmemref<?xf32>>> {
            %12 = polygeist.typeSize memref<?xmemref<?xf32>> : index loc(#loc46)
            %13 = arith.index_cast %12 : index to i64 loc(#loc47)
            %14 = arith.muli %13, %c48_i64 : i64 loc(#loc48)
            %15 = arith.index_cast %14 : i64 to index loc(#loc46)
            %16 = arith.divui %15, %12 : index loc(#loc46)
            %alloc = memref.alloc(%16) : memref<?xmemref<?xmemref<?xf32>>> loc(#loc46)
            affine.store %alloc, %alloca_1[0] : memref<1xmemref<?xmemref<?xmemref<?xf32>>>> loc(#loc10)
            scf.yield %alloc : memref<?xmemref<?xmemref<?xf32>>> loc(#loc)
          } loc(#loc)
        } loc(#loc)
        scf.yield loc(#loc)
      } loc(#loc)
    } loc(#loc)
    scf.if %true {
      scf.execute_region {
        scf.if %true {
          %11 = scf.execute_region -> memref<?xmemref<?xmemref<?xf32>>> {
            %12 = polygeist.typeSize memref<?xmemref<?xf32>> : index loc(#loc49)
            %13 = arith.index_cast %12 : index to i64 loc(#loc50)
            %14 = arith.muli %13, %c48_i64 : i64 loc(#loc51)
            %15 = arith.index_cast %14 : i64 to index loc(#loc49)
            %16 = arith.divui %15, %12 : index loc(#loc49)
            %alloc = memref.alloc(%16) : memref<?xmemref<?xmemref<?xf32>>> loc(#loc49)
            affine.store %alloc, %alloca_0[0] : memref<1xmemref<?xmemref<?xmemref<?xf32>>>> loc(#loc9)
            scf.yield %alloc : memref<?xmemref<?xmemref<?xf32>>> loc(#loc)
          } loc(#loc)
        } loc(#loc)
        scf.yield loc(#loc)
      } loc(#loc)
    } loc(#loc)
    scf.if %true {
      scf.execute_region {
        scf.if %true {
          scf.execute_region {
            %11 = affine.load %alloca_9[0] : memref<1xmemref<?xmemref<?xmemref<?xf32>>>> loc(#loc52)
            %12 = polygeist.typeSize memref<?xf32> : index loc(#loc53)
            %13 = arith.index_cast %12 : index to i64 loc(#loc54)
            %14 = arith.muli %13, %c48_i64 : i64 loc(#loc55)
            %15 = arith.index_cast %14 : i64 to index loc(#loc53)
            %16 = arith.divui %15, %12 : index loc(#loc53)
            %17 = affine.load %alloca_8[0] : memref<1xmemref<?xmemref<?xmemref<?xf32>>>> loc(#loc56)
            %18 = polygeist.typeSize memref<?xf32> : index loc(#loc57)
            %19 = arith.index_cast %18 : index to i64 loc(#loc58)
            %20 = arith.muli %19, %c48_i64 : i64 loc(#loc59)
            %21 = arith.index_cast %20 : i64 to index loc(#loc57)
            %22 = arith.divui %21, %18 : index loc(#loc57)
            %23 = affine.load %alloca_7[0] : memref<1xmemref<?xmemref<?xmemref<?xf32>>>> loc(#loc60)
            %24 = polygeist.typeSize memref<?xf32> : index loc(#loc61)
            %25 = arith.index_cast %24 : index to i64 loc(#loc62)
            %26 = arith.muli %25, %c48_i64 : i64 loc(#loc63)
            %27 = arith.index_cast %26 : i64 to index loc(#loc61)
            %28 = arith.divui %27, %24 : index loc(#loc61)
            %29 = affine.load %alloca_6[0] : memref<1xmemref<?xmemref<?xmemref<?xf32>>>> loc(#loc64)
            %30 = polygeist.typeSize memref<?xf32> : index loc(#loc65)
            %31 = arith.index_cast %30 : index to i64 loc(#loc66)
            %32 = arith.muli %31, %c48_i64 : i64 loc(#loc67)
            %33 = arith.index_cast %32 : i64 to index loc(#loc65)
            %34 = arith.divui %33, %30 : index loc(#loc65)
            %35 = affine.load %alloca_5[0] : memref<1xmemref<?xmemref<?xmemref<?xf32>>>> loc(#loc68)
            %36 = polygeist.typeSize memref<?xf32> : index loc(#loc69)
            %37 = arith.index_cast %36 : index to i64 loc(#loc70)
            %38 = arith.muli %37, %c48_i64 : i64 loc(#loc71)
            %39 = arith.index_cast %38 : i64 to index loc(#loc69)
            %40 = arith.divui %39, %36 : index loc(#loc69)
            %41 = affine.load %alloca_4[0] : memref<1xmemref<?xmemref<?xmemref<?xf32>>>> loc(#loc72)
            %42 = polygeist.typeSize memref<?xf32> : index loc(#loc73)
            %43 = arith.index_cast %42 : index to i64 loc(#loc74)
            %44 = arith.muli %43, %c48_i64 : i64 loc(#loc75)
            %45 = arith.index_cast %44 : i64 to index loc(#loc73)
            %46 = arith.divui %45, %42 : index loc(#loc73)
            %47 = affine.load %alloca_3[0] : memref<1xmemref<?xmemref<?xmemref<?xf32>>>> loc(#loc76)
            %48 = polygeist.typeSize memref<?xf32> : index loc(#loc77)
            %49 = arith.index_cast %48 : index to i64 loc(#loc78)
            %50 = arith.muli %49, %c48_i64 : i64 loc(#loc79)
            %51 = arith.index_cast %50 : i64 to index loc(#loc77)
            %52 = arith.divui %51, %48 : index loc(#loc77)
            %53 = affine.load %alloca_2[0] : memref<1xmemref<?xmemref<?xmemref<?xf32>>>> loc(#loc80)
            %54 = polygeist.typeSize memref<?xf32> : index loc(#loc81)
            %55 = arith.index_cast %54 : index to i64 loc(#loc82)
            %56 = arith.muli %55, %c48_i64 : i64 loc(#loc83)
            %57 = arith.index_cast %56 : i64 to index loc(#loc81)
            %58 = arith.divui %57, %54 : index loc(#loc81)
            %59 = affine.load %alloca_1[0] : memref<1xmemref<?xmemref<?xmemref<?xf32>>>> loc(#loc84)
            %60 = polygeist.typeSize memref<?xf32> : index loc(#loc85)
            %61 = arith.index_cast %60 : index to i64 loc(#loc86)
            %62 = arith.muli %61, %c48_i64 : i64 loc(#loc87)
            %63 = arith.index_cast %62 : i64 to index loc(#loc85)
            %64 = arith.divui %63, %60 : index loc(#loc85)
            %65 = affine.load %alloca_0[0] : memref<1xmemref<?xmemref<?xmemref<?xf32>>>> loc(#loc88)
            %66 = polygeist.typeSize memref<?xf32> : index loc(#loc89)
            %67 = arith.index_cast %66 : index to i64 loc(#loc90)
            %68 = arith.muli %67, %c48_i64 : i64 loc(#loc91)
            %69 = arith.index_cast %68 : i64 to index loc(#loc89)
            %70 = arith.divui %69, %66 : index loc(#loc89)
            %71 = polygeist.typeSize f32 : index loc(#loc92)
            %72 = arith.index_cast %71 : index to i64 loc(#loc93)
            %73 = arith.muli %72, %c48_i64 : i64 loc(#loc94)
            %74 = arith.index_cast %73 : i64 to index loc(#loc92)
            %75 = arith.divui %74, %71 : index loc(#loc92)
            %76 = polygeist.typeSize f32 : index loc(#loc95)
            %77 = arith.index_cast %76 : index to i64 loc(#loc96)
            %78 = arith.muli %77, %c48_i64 : i64 loc(#loc97)
            %79 = arith.index_cast %78 : i64 to index loc(#loc95)
            %80 = arith.divui %79, %76 : index loc(#loc95)
            %81 = polygeist.typeSize f32 : index loc(#loc98)
            %82 = arith.index_cast %81 : index to i64 loc(#loc99)
            %83 = arith.muli %82, %c48_i64 : i64 loc(#loc100)
            %84 = arith.index_cast %83 : i64 to index loc(#loc98)
            %85 = arith.divui %84, %81 : index loc(#loc98)
            %86 = polygeist.typeSize f32 : index loc(#loc101)
            %87 = arith.index_cast %86 : index to i64 loc(#loc102)
            %88 = arith.muli %87, %c48_i64 : i64 loc(#loc103)
            %89 = arith.index_cast %88 : i64 to index loc(#loc101)
            %90 = arith.divui %89, %86 : index loc(#loc101)
            %91 = polygeist.typeSize f32 : index loc(#loc104)
            %92 = arith.index_cast %91 : index to i64 loc(#loc105)
            %93 = arith.muli %92, %c48_i64 : i64 loc(#loc106)
            %94 = arith.index_cast %93 : i64 to index loc(#loc104)
            %95 = arith.divui %94, %91 : index loc(#loc104)
            %96 = polygeist.typeSize f32 : index loc(#loc107)
            %97 = arith.index_cast %96 : index to i64 loc(#loc108)
            %98 = arith.muli %97, %c48_i64 : i64 loc(#loc109)
            %99 = arith.index_cast %98 : i64 to index loc(#loc107)
            %100 = arith.divui %99, %96 : index loc(#loc107)
            %101 = polygeist.typeSize f32 : index loc(#loc110)
            %102 = arith.index_cast %101 : index to i64 loc(#loc111)
            %103 = arith.muli %102, %c48_i64 : i64 loc(#loc112)
            %104 = arith.index_cast %103 : i64 to index loc(#loc110)
            %105 = arith.divui %104, %101 : index loc(#loc110)
            %106 = polygeist.typeSize f32 : index loc(#loc113)
            %107 = arith.index_cast %106 : index to i64 loc(#loc114)
            %108 = arith.muli %107, %c48_i64 : i64 loc(#loc115)
            %109 = arith.index_cast %108 : i64 to index loc(#loc113)
            %110 = arith.divui %109, %106 : index loc(#loc113)
            %111 = polygeist.typeSize f32 : index loc(#loc116)
            %112 = arith.index_cast %111 : index to i64 loc(#loc117)
            %113 = arith.muli %112, %c48_i64 : i64 loc(#loc118)
            %114 = arith.index_cast %113 : i64 to index loc(#loc116)
            %115 = arith.divui %114, %111 : index loc(#loc116)
            %116 = polygeist.typeSize f32 : index loc(#loc119)
            %117 = arith.index_cast %116 : index to i64 loc(#loc120)
            %118 = arith.muli %117, %c48_i64 : i64 loc(#loc121)
            %119 = arith.index_cast %118 : i64 to index loc(#loc119)
            %120 = arith.divui %119, %116 : index loc(#loc119)
            affine.for %arg0 loc("benchmarks/sw4lite/vel4sg-base/vel4sg_base.c":110:3) = 0 to 48 {
              scf.if %true {
                scf.execute_region {
                  %121 = polygeist.subindex %11[%arg0] () : memref<?xmemref<?xmemref<?xf32>>> -> memref<?xmemref<?xmemref<?xf32>>> loc(#loc52)
                  %alloc = memref.alloc(%16) : memref<?xmemref<?xf32>> loc(#loc53)
                  affine.store %alloc, %121[0] : memref<?xmemref<?xmemref<?xf32>>> loc(#loc123)
                  scf.yield loc(#loc)
                } loc(#loc)
              } loc(#loc)
              scf.if %true {
                scf.execute_region {
                  %121 = polygeist.subindex %17[%arg0] () : memref<?xmemref<?xmemref<?xf32>>> -> memref<?xmemref<?xmemref<?xf32>>> loc(#loc56)
                  %alloc = memref.alloc(%22) : memref<?xmemref<?xf32>> loc(#loc57)
                  affine.store %alloc, %121[0] : memref<?xmemref<?xmemref<?xf32>>> loc(#loc124)
                  scf.yield loc(#loc)
                } loc(#loc)
              } loc(#loc)
              scf.if %true {
                scf.execute_region {
                  %121 = polygeist.subindex %23[%arg0] () : memref<?xmemref<?xmemref<?xf32>>> -> memref<?xmemref<?xmemref<?xf32>>> loc(#loc60)
                  %alloc = memref.alloc(%28) : memref<?xmemref<?xf32>> loc(#loc61)
                  affine.store %alloc, %121[0] : memref<?xmemref<?xmemref<?xf32>>> loc(#loc125)
                  scf.yield loc(#loc)
                } loc(#loc)
              } loc(#loc)
              scf.if %true {
                scf.execute_region {
                  %121 = polygeist.subindex %29[%arg0] () : memref<?xmemref<?xmemref<?xf32>>> -> memref<?xmemref<?xmemref<?xf32>>> loc(#loc64)
                  %alloc = memref.alloc(%34) : memref<?xmemref<?xf32>> loc(#loc65)
                  affine.store %alloc, %121[0] : memref<?xmemref<?xmemref<?xf32>>> loc(#loc126)
                  scf.yield loc(#loc)
                } loc(#loc)
              } loc(#loc)
              scf.if %true {
                scf.execute_region {
                  %121 = polygeist.subindex %35[%arg0] () : memref<?xmemref<?xmemref<?xf32>>> -> memref<?xmemref<?xmemref<?xf32>>> loc(#loc68)
                  %alloc = memref.alloc(%40) : memref<?xmemref<?xf32>> loc(#loc69)
                  affine.store %alloc, %121[0] : memref<?xmemref<?xmemref<?xf32>>> loc(#loc127)
                  scf.yield loc(#loc)
                } loc(#loc)
              } loc(#loc)
              scf.if %true {
                scf.execute_region {
                  %121 = polygeist.subindex %41[%arg0] () : memref<?xmemref<?xmemref<?xf32>>> -> memref<?xmemref<?xmemref<?xf32>>> loc(#loc72)
                  %alloc = memref.alloc(%46) : memref<?xmemref<?xf32>> loc(#loc73)
                  affine.store %alloc, %121[0] : memref<?xmemref<?xmemref<?xf32>>> loc(#loc128)
                  scf.yield loc(#loc)
                } loc(#loc)
              } loc(#loc)
              scf.if %true {
                scf.execute_region {
                  %121 = polygeist.subindex %47[%arg0] () : memref<?xmemref<?xmemref<?xf32>>> -> memref<?xmemref<?xmemref<?xf32>>> loc(#loc76)
                  %alloc = memref.alloc(%52) : memref<?xmemref<?xf32>> loc(#loc77)
                  affine.store %alloc, %121[0] : memref<?xmemref<?xmemref<?xf32>>> loc(#loc129)
                  scf.yield loc(#loc)
                } loc(#loc)
              } loc(#loc)
              scf.if %true {
                scf.execute_region {
                  %121 = polygeist.subindex %53[%arg0] () : memref<?xmemref<?xmemref<?xf32>>> -> memref<?xmemref<?xmemref<?xf32>>> loc(#loc80)
                  %alloc = memref.alloc(%58) : memref<?xmemref<?xf32>> loc(#loc81)
                  affine.store %alloc, %121[0] : memref<?xmemref<?xmemref<?xf32>>> loc(#loc130)
                  scf.yield loc(#loc)
                } loc(#loc)
              } loc(#loc)
              scf.if %true {
                scf.execute_region {
                  %121 = polygeist.subindex %59[%arg0] () : memref<?xmemref<?xmemref<?xf32>>> -> memref<?xmemref<?xmemref<?xf32>>> loc(#loc84)
                  %alloc = memref.alloc(%64) : memref<?xmemref<?xf32>> loc(#loc85)
                  affine.store %alloc, %121[0] : memref<?xmemref<?xmemref<?xf32>>> loc(#loc131)
                  scf.yield loc(#loc)
                } loc(#loc)
              } loc(#loc)
              scf.if %true {
                scf.execute_region {
                  %121 = polygeist.subindex %65[%arg0] () : memref<?xmemref<?xmemref<?xf32>>> -> memref<?xmemref<?xmemref<?xf32>>> loc(#loc88)
                  %alloc = memref.alloc(%70) : memref<?xmemref<?xf32>> loc(#loc89)
                  affine.store %alloc, %121[0] : memref<?xmemref<?xmemref<?xf32>>> loc(#loc132)
                  scf.yield loc(#loc)
                } loc(#loc)
              } loc(#loc)
              scf.if %true {
                scf.execute_region {
                  scf.if %true {
                    scf.execute_region {
                      %121 = polygeist.subindex %11[%arg0] () : memref<?xmemref<?xmemref<?xf32>>> -> memref<?xmemref<?xmemref<?xf32>>> loc(#loc133)
                      %122 = polygeist.subindex %17[%arg0] () : memref<?xmemref<?xmemref<?xf32>>> -> memref<?xmemref<?xmemref<?xf32>>> loc(#loc134)
                      %123 = polygeist.subindex %23[%arg0] () : memref<?xmemref<?xmemref<?xf32>>> -> memref<?xmemref<?xmemref<?xf32>>> loc(#loc135)
                      %124 = polygeist.subindex %29[%arg0] () : memref<?xmemref<?xmemref<?xf32>>> -> memref<?xmemref<?xmemref<?xf32>>> loc(#loc136)
                      %125 = polygeist.subindex %35[%arg0] () : memref<?xmemref<?xmemref<?xf32>>> -> memref<?xmemref<?xmemref<?xf32>>> loc(#loc137)
                      %126 = polygeist.subindex %41[%arg0] () : memref<?xmemref<?xmemref<?xf32>>> -> memref<?xmemref<?xmemref<?xf32>>> loc(#loc138)
                      %127 = polygeist.subindex %47[%arg0] () : memref<?xmemref<?xmemref<?xf32>>> -> memref<?xmemref<?xmemref<?xf32>>> loc(#loc139)
                      %128 = polygeist.subindex %53[%arg0] () : memref<?xmemref<?xmemref<?xf32>>> -> memref<?xmemref<?xmemref<?xf32>>> loc(#loc140)
                      %129 = polygeist.subindex %59[%arg0] () : memref<?xmemref<?xmemref<?xf32>>> -> memref<?xmemref<?xmemref<?xf32>>> loc(#loc141)
                      %130 = polygeist.subindex %65[%arg0] () : memref<?xmemref<?xmemref<?xf32>>> -> memref<?xmemref<?xmemref<?xf32>>> loc(#loc142)
                      affine.for %arg1 loc("benchmarks/sw4lite/vel4sg-base/vel4sg_base.c":121:5) = 0 to 48 {
                        scf.if %true {
                          scf.execute_region {
                            %131 = affine.load %121[0] : memref<?xmemref<?xmemref<?xf32>>> loc(#loc133)
                            %132 = polygeist.subindex %131[%arg1] () : memref<?xmemref<?xf32>> -> memref<?xmemref<?xf32>> loc(#loc133)
                            %alloc = memref.alloc(%75) : memref<?xf32> loc(#loc92)
                            affine.store %alloc, %132[0] : memref<?xmemref<?xf32>> loc(#loc144)
                            scf.yield loc(#loc)
                          } loc(#loc)
                        } loc(#loc)
                        scf.if %true {
                          scf.execute_region {
                            %131 = affine.load %122[0] : memref<?xmemref<?xmemref<?xf32>>> loc(#loc134)
                            %132 = polygeist.subindex %131[%arg1] () : memref<?xmemref<?xf32>> -> memref<?xmemref<?xf32>> loc(#loc134)
                            %alloc = memref.alloc(%80) : memref<?xf32> loc(#loc95)
                            affine.store %alloc, %132[0] : memref<?xmemref<?xf32>> loc(#loc145)
                            scf.yield loc(#loc)
                          } loc(#loc)
                        } loc(#loc)
                        scf.if %true {
                          scf.execute_region {
                            %131 = affine.load %123[0] : memref<?xmemref<?xmemref<?xf32>>> loc(#loc135)
                            %132 = polygeist.subindex %131[%arg1] () : memref<?xmemref<?xf32>> -> memref<?xmemref<?xf32>> loc(#loc135)
                            %alloc = memref.alloc(%85) : memref<?xf32> loc(#loc98)
                            affine.store %alloc, %132[0] : memref<?xmemref<?xf32>> loc(#loc146)
                            scf.yield loc(#loc)
                          } loc(#loc)
                        } loc(#loc)
                        scf.if %true {
                          scf.execute_region {
                            %131 = affine.load %124[0] : memref<?xmemref<?xmemref<?xf32>>> loc(#loc136)
                            %132 = polygeist.subindex %131[%arg1] () : memref<?xmemref<?xf32>> -> memref<?xmemref<?xf32>> loc(#loc136)
                            %alloc = memref.alloc(%90) : memref<?xf32> loc(#loc101)
                            affine.store %alloc, %132[0] : memref<?xmemref<?xf32>> loc(#loc147)
                            scf.yield loc(#loc)
                          } loc(#loc)
                        } loc(#loc)
                        scf.if %true {
                          scf.execute_region {
                            %131 = affine.load %125[0] : memref<?xmemref<?xmemref<?xf32>>> loc(#loc137)
                            %132 = polygeist.subindex %131[%arg1] () : memref<?xmemref<?xf32>> -> memref<?xmemref<?xf32>> loc(#loc137)
                            %alloc = memref.alloc(%95) : memref<?xf32> loc(#loc104)
                            affine.store %alloc, %132[0] : memref<?xmemref<?xf32>> loc(#loc148)
                            scf.yield loc(#loc)
                          } loc(#loc)
                        } loc(#loc)
                        scf.if %true {
                          scf.execute_region {
                            %131 = affine.load %126[0] : memref<?xmemref<?xmemref<?xf32>>> loc(#loc138)
                            %132 = polygeist.subindex %131[%arg1] () : memref<?xmemref<?xf32>> -> memref<?xmemref<?xf32>> loc(#loc138)
                            %alloc = memref.alloc(%100) : memref<?xf32> loc(#loc107)
                            affine.store %alloc, %132[0] : memref<?xmemref<?xf32>> loc(#loc149)
                            scf.yield loc(#loc)
                          } loc(#loc)
                        } loc(#loc)
                        scf.if %true {
                          scf.execute_region {
                            %131 = affine.load %127[0] : memref<?xmemref<?xmemref<?xf32>>> loc(#loc139)
                            %132 = polygeist.subindex %131[%arg1] () : memref<?xmemref<?xf32>> -> memref<?xmemref<?xf32>> loc(#loc139)
                            %alloc = memref.alloc(%105) : memref<?xf32> loc(#loc110)
                            affine.store %alloc, %132[0] : memref<?xmemref<?xf32>> loc(#loc150)
                            scf.yield loc(#loc)
                          } loc(#loc)
                        } loc(#loc)
                        scf.if %true {
                          scf.execute_region {
                            %131 = affine.load %128[0] : memref<?xmemref<?xmemref<?xf32>>> loc(#loc140)
                            %132 = polygeist.subindex %131[%arg1] () : memref<?xmemref<?xf32>> -> memref<?xmemref<?xf32>> loc(#loc140)
                            %alloc = memref.alloc(%110) : memref<?xf32> loc(#loc113)
                            affine.store %alloc, %132[0] : memref<?xmemref<?xf32>> loc(#loc151)
                            scf.yield loc(#loc)
                          } loc(#loc)
                        } loc(#loc)
                        scf.if %true {
                          scf.execute_region {
                            %131 = affine.load %129[0] : memref<?xmemref<?xmemref<?xf32>>> loc(#loc141)
                            %132 = polygeist.subindex %131[%arg1] () : memref<?xmemref<?xf32>> -> memref<?xmemref<?xf32>> loc(#loc141)
                            %alloc = memref.alloc(%115) : memref<?xf32> loc(#loc116)
                            affine.store %alloc, %132[0] : memref<?xmemref<?xf32>> loc(#loc152)
                            scf.yield loc(#loc)
                          } loc(#loc)
                        } loc(#loc)
                        scf.if %true {
                          scf.execute_region {
                            %131 = affine.load %130[0] : memref<?xmemref<?xmemref<?xf32>>> loc(#loc142)
                            %132 = polygeist.subindex %131[%arg1] () : memref<?xmemref<?xf32>> -> memref<?xmemref<?xf32>> loc(#loc142)
                            %alloc = memref.alloc(%120) : memref<?xf32> loc(#loc119)
                            affine.store %alloc, %132[0] : memref<?xmemref<?xf32>> loc(#loc153)
                            scf.yield loc(#loc)
                          } loc(#loc)
                        } loc(#loc)
                      } loc(#loc143)
                      scf.yield loc(#loc)
                    } loc(#loc)
                  } loc(#loc)
                  scf.yield loc(#loc)
                } loc(#loc)
              } loc(#loc)
            } loc(#loc122)
            scf.yield loc(#loc)
          } loc(#loc)
        } loc(#loc)
        scf.yield loc(#loc)
      } loc(#loc)
    } loc(#loc)
    scf.if %true {
      scf.execute_region {
        %11 = affine.load %alloca_9[0] : memref<1xmemref<?xmemref<?xmemref<?xf32>>>> loc(#loc154)
        %12 = affine.load %alloca_8[0] : memref<1xmemref<?xmemref<?xmemref<?xf32>>>> loc(#loc155)
        %13 = affine.load %alloca_7[0] : memref<1xmemref<?xmemref<?xmemref<?xf32>>>> loc(#loc156)
        %14 = affine.load %alloca_6[0] : memref<1xmemref<?xmemref<?xmemref<?xf32>>>> loc(#loc157)
        %15 = affine.load %alloca_5[0] : memref<1xmemref<?xmemref<?xmemref<?xf32>>>> loc(#loc158)
        %16 = affine.load %alloca_4[0] : memref<1xmemref<?xmemref<?xmemref<?xf32>>>> loc(#loc159)
        %17 = affine.load %alloca_3[0] : memref<1xmemref<?xmemref<?xmemref<?xf32>>>> loc(#loc160)
        %18 = affine.load %alloca_2[0] : memref<1xmemref<?xmemref<?xmemref<?xf32>>>> loc(#loc161)
        %19 = affine.load %alloca_1[0] : memref<1xmemref<?xmemref<?xmemref<?xf32>>>> loc(#loc162)
        %20 = affine.load %alloca_0[0] : memref<1xmemref<?xmemref<?xmemref<?xf32>>>> loc(#loc163)
        func.call @init(%11, %12, %13, %14, %15, %16, %17, %18, %19, %20) : (memref<?xmemref<?xmemref<?xf32>>>, memref<?xmemref<?xmemref<?xf32>>>, memref<?xmemref<?xmemref<?xf32>>>, memref<?xmemref<?xmemref<?xf32>>>, memref<?xmemref<?xmemref<?xf32>>>, memref<?xmemref<?xmemref<?xf32>>>, memref<?xmemref<?xmemref<?xf32>>>, memref<?xmemref<?xmemref<?xf32>>>, memref<?xmemref<?xmemref<?xf32>>>, memref<?xmemref<?xmemref<?xf32>>>) -> () loc(#loc164)
        scf.yield loc(#loc)
      } loc(#loc)
    } loc(#loc)
    scf.if %true {
      scf.execute_region {
        %11 = polygeist.pointer2memref %2 : !llvm.ptr to memref<?xi8> loc(#loc165)
        func.call @carts_phase_timer_stop(%11) : (memref<?xi8>) -> () loc(#loc165)
        scf.yield loc(#loc)
      } loc(#loc)
    } loc(#loc)
    scf.if %true {
      scf.execute_region {
        %11 = polygeist.pointer2memref %3 : !llvm.ptr to memref<?xi8> loc(#loc166)
        func.call @carts_kernel_timer_start(%11) : (memref<?xi8>) -> () loc(#loc166)
        scf.yield loc(#loc)
      } loc(#loc)
    } loc(#loc)
    scf.if %true {
      scf.execute_region {
        scf.if %true {
          scf.execute_region {
            %11 = polygeist.pointer2memref %3 : !llvm.ptr to memref<?xi8> loc(#loc167)
            affine.for %arg0 loc("benchmarks/sw4lite/vel4sg-base/vel4sg_base.c":140:3) = 0 to 1 {
              scf.if %true {
                scf.execute_region {
                  %12 = affine.load %alloca_9[0] : memref<1xmemref<?xmemref<?xmemref<?xf32>>>> loc(#loc169)
                  %13 = affine.load %alloca_8[0] : memref<1xmemref<?xmemref<?xmemref<?xf32>>>> loc(#loc170)
                  %14 = affine.load %alloca_7[0] : memref<1xmemref<?xmemref<?xmemref<?xf32>>>> loc(#loc171)
                  %15 = affine.load %alloca_6[0] : memref<1xmemref<?xmemref<?xmemref<?xf32>>>> loc(#loc172)
                  %16 = affine.load %alloca_5[0] : memref<1xmemref<?xmemref<?xmemref<?xf32>>>> loc(#loc173)
                  %17 = affine.load %alloca_4[0] : memref<1xmemref<?xmemref<?xmemref<?xf32>>>> loc(#loc174)
                  %18 = affine.load %alloca_3[0] : memref<1xmemref<?xmemref<?xmemref<?xf32>>>> loc(#loc175)
                  %19 = affine.load %alloca_2[0] : memref<1xmemref<?xmemref<?xmemref<?xf32>>>> loc(#loc176)
                  %20 = affine.load %alloca_1[0] : memref<1xmemref<?xmemref<?xmemref<?xf32>>>> loc(#loc177)
                  %21 = affine.load %alloca_0[0] : memref<1xmemref<?xmemref<?xmemref<?xf32>>>> loc(#loc178)
                  func.call @sw4lite_vel4sg_update(%12, %13, %14, %15, %16, %17, %18, %19, %20, %21) : (memref<?xmemref<?xmemref<?xf32>>>, memref<?xmemref<?xmemref<?xf32>>>, memref<?xmemref<?xmemref<?xf32>>>, memref<?xmemref<?xmemref<?xf32>>>, memref<?xmemref<?xmemref<?xf32>>>, memref<?xmemref<?xmemref<?xf32>>>, memref<?xmemref<?xmemref<?xf32>>>, memref<?xmemref<?xmemref<?xf32>>>, memref<?xmemref<?xmemref<?xf32>>>, memref<?xmemref<?xmemref<?xf32>>>) -> () loc(#loc179)
                  scf.yield loc(#loc)
                } loc(#loc)
              } loc(#loc)
              scf.if %true {
                scf.execute_region {
                  func.call @carts_kernel_timer_accum(%11) : (memref<?xi8>) -> () loc(#loc167)
                  scf.yield loc(#loc)
                } loc(#loc)
              } loc(#loc)
            } loc(#loc168)
            scf.yield loc(#loc)
          } loc(#loc)
        } loc(#loc)
        scf.yield loc(#loc)
      } loc(#loc)
    } loc(#loc)
    scf.if %true {
      scf.execute_region {
        %11 = polygeist.pointer2memref %3 : !llvm.ptr to memref<?xi8> loc(#loc180)
        func.call @carts_kernel_timer_print(%11) : (memref<?xi8>) -> () loc(#loc180)
        scf.yield loc(#loc)
      } loc(#loc)
    } loc(#loc)
    scf.if %true {
      scf.execute_region {
        %11 = polygeist.pointer2memref %1 : !llvm.ptr to memref<?xi8> loc(#loc181)
        %12 = polygeist.pointer2memref %3 : !llvm.ptr to memref<?xi8> loc(#loc181)
        func.call @carts_phase_timer_start(%11, %12) : (memref<?xi8>, memref<?xi8>) -> () loc(#loc181)
        scf.yield loc(#loc)
      } loc(#loc)
    } loc(#loc)
    scf.if %true {
      scf.execute_region {
        scf.if %true {
          scf.execute_region {
            affine.store %cst, %alloca[0] : memref<1xf64> loc(#loc8)
            scf.yield loc(#loc)
          } loc(#loc)
        } loc(#loc)
        scf.yield loc(#loc)
      } loc(#loc)
    } loc(#loc)
    %6 = scf.if %true -> (i32) {
      %11 = scf.execute_region -> i32 {
        %12 = scf.if %true -> (i32) {
          %13 = scf.execute_region -> i32 {
            scf.yield %c48_i32 : i32 loc(#loc)
          } loc(#loc)
          scf.yield %13 : i32 loc(#loc)
        } else {
          scf.yield %4 : i32 loc(#loc)
        } loc(#loc)
        scf.yield %12 : i32 loc(#loc)
      } loc(#loc)
      scf.yield %11 : i32 loc(#loc)
    } else {
      scf.yield %4 : i32 loc(#loc)
    } loc(#loc)
    %7 = scf.if %true -> (i32) {
      %11 = scf.execute_region -> i32 {
        %12 = scf.if %true -> (i32) {
          %13 = scf.execute_region -> i32 {
            %14 = arith.cmpi sgt, %6, %c48_i32 : i32 loc(#loc182)
            %15 = scf.if %14 -> (i32) {
              scf.yield %c48_i32 : i32 loc(#loc183)
            } else {
              scf.yield %6 : i32 loc(#loc183)
            } loc(#loc183)
            scf.yield %15 : i32 loc(#loc)
          } loc(#loc)
          scf.yield %13 : i32 loc(#loc)
        } else {
          scf.yield %6 : i32 loc(#loc)
        } loc(#loc)
        scf.yield %12 : i32 loc(#loc)
      } loc(#loc)
      scf.yield %11 : i32 loc(#loc)
    } else {
      scf.yield %6 : i32 loc(#loc)
    } loc(#loc)
    %8 = scf.if %true -> (i32) {
      %11 = scf.execute_region -> i32 {
        %12 = scf.if %true -> (i32) {
          %13 = scf.execute_region -> i32 {
            %14 = arith.cmpi sgt, %7, %c48_i32 : i32 loc(#loc184)
            %15 = scf.if %14 -> (i32) {
              scf.yield %c48_i32 : i32 loc(#loc185)
            } else {
              scf.yield %7 : i32 loc(#loc185)
            } loc(#loc185)
            scf.yield %15 : i32 loc(#loc)
          } loc(#loc)
          scf.yield %13 : i32 loc(#loc)
        } else {
          scf.yield %7 : i32 loc(#loc)
        } loc(#loc)
        scf.yield %12 : i32 loc(#loc)
      } loc(#loc)
      scf.yield %11 : i32 loc(#loc)
    } else {
      scf.yield %7 : i32 loc(#loc)
    } loc(#loc)
    %9 = arith.index_cast %8 : i32 to index loc(#loc)
    scf.if %true {
      scf.execute_region {
        scf.if %true {
          scf.execute_region {
            %11 = affine.load %alloca_9[0] : memref<1xmemref<?xmemref<?xmemref<?xf32>>>> loc(#loc186)
            %12 = affine.load %alloca_8[0] : memref<1xmemref<?xmemref<?xmemref<?xf32>>>> loc(#loc187)
            %13 = affine.load %alloca_7[0] : memref<1xmemref<?xmemref<?xmemref<?xf32>>>> loc(#loc188)
            affine.for %arg0 loc("benchmarks/sw4lite/vel4sg-base/vel4sg_base.c":153:3) = 0 to %9 {
              scf.if %true {
                scf.execute_region {
                  %14 = polygeist.subindex %11[%arg0] () : memref<?xmemref<?xmemref<?xf32>>> -> memref<?xmemref<?xmemref<?xf32>>> loc(#loc186)
                  %15 = affine.load %14[0] : memref<?xmemref<?xmemref<?xf32>>> loc(#loc186)
                  %16 = polygeist.subindex %15[%arg0] () : memref<?xmemref<?xf32>> -> memref<?xmemref<?xf32>> loc(#loc186)
                  %17 = affine.load %16[0] : memref<?xmemref<?xf32>> loc(#loc186)
                  %18 = polygeist.subindex %17[%arg0] () : memref<?xf32> -> memref<?xf32> loc(#loc186)
                  %19 = affine.load %18[0] : memref<?xf32> loc(#loc186)
                  %20 = arith.extf %19 : f32 to f64 loc(#loc186)
                  %21 = math.absf %20 : f64 loc(#loc190)
                  %22 = polygeist.subindex %12[%arg0] () : memref<?xmemref<?xmemref<?xf32>>> -> memref<?xmemref<?xmemref<?xf32>>> loc(#loc187)
                  %23 = affine.load %22[0] : memref<?xmemref<?xmemref<?xf32>>> loc(#loc187)
                  %24 = polygeist.subindex %23[%arg0] () : memref<?xmemref<?xf32>> -> memref<?xmemref<?xf32>> loc(#loc187)
                  %25 = affine.load %24[0] : memref<?xmemref<?xf32>> loc(#loc187)
                  %26 = polygeist.subindex %25[%arg0] () : memref<?xf32> -> memref<?xf32> loc(#loc187)
                  %27 = affine.load %26[0] : memref<?xf32> loc(#loc187)
                  %28 = arith.extf %27 : f32 to f64 loc(#loc187)
                  %29 = math.absf %28 : f64 loc(#loc191)
                  %30 = arith.addf %21, %29 : f64 loc(#loc192)
                  %31 = polygeist.subindex %13[%arg0] () : memref<?xmemref<?xmemref<?xf32>>> -> memref<?xmemref<?xmemref<?xf32>>> loc(#loc188)
                  %32 = affine.load %31[0] : memref<?xmemref<?xmemref<?xf32>>> loc(#loc188)
                  %33 = polygeist.subindex %32[%arg0] () : memref<?xmemref<?xf32>> -> memref<?xmemref<?xf32>> loc(#loc188)
                  %34 = affine.load %33[0] : memref<?xmemref<?xf32>> loc(#loc188)
                  %35 = polygeist.subindex %34[%arg0] () : memref<?xf32> -> memref<?xf32> loc(#loc188)
                  %36 = affine.load %35[0] : memref<?xf32> loc(#loc188)
                  %37 = arith.extf %36 : f32 to f64 loc(#loc188)
                  %38 = math.absf %37 : f64 loc(#loc193)
                  %39 = arith.addf %30, %38 : f64 loc(#loc194)
                  %40 = affine.load %alloca[0] : memref<1xf64> loc(#loc195)
                  %41 = arith.addf %40, %39 : f64 loc(#loc195)
                  affine.store %41, %alloca[0] : memref<1xf64> loc(#loc195)
                  scf.yield loc(#loc)
                } loc(#loc)
              } loc(#loc)
            } loc(#loc189)
            scf.yield loc(#loc)
          } loc(#loc)
        } loc(#loc)
        scf.yield loc(#loc)
      } loc(#loc)
    } loc(#loc)
    scf.if %true {
      scf.execute_region {
        %11 = affine.load %alloca[0] : memref<1xf64> loc(#loc196)
        func.call @carts_bench_checksum_d(%11) : (f64) -> () loc(#loc197)
        scf.yield loc(#loc)
      } loc(#loc)
    } loc(#loc)
    scf.if %true {
      scf.execute_region {
        %11 = polygeist.pointer2memref %1 : !llvm.ptr to memref<?xi8> loc(#loc198)
        func.call @carts_phase_timer_stop(%11) : (memref<?xi8>) -> () loc(#loc198)
        scf.yield loc(#loc)
      } loc(#loc)
    } loc(#loc)
    scf.if %true {
      scf.execute_region {
        %11 = polygeist.pointer2memref %0 : !llvm.ptr to memref<?xi8> loc(#loc199)
        %12 = polygeist.pointer2memref %3 : !llvm.ptr to memref<?xi8> loc(#loc199)
        func.call @carts_phase_timer_start(%11, %12) : (memref<?xi8>, memref<?xi8>) -> () loc(#loc199)
        scf.yield loc(#loc)
      } loc(#loc)
    } loc(#loc)
    scf.if %true {
      scf.execute_region {
        scf.if %true {
          scf.execute_region {
            %11 = affine.load %alloca_9[0] : memref<1xmemref<?xmemref<?xmemref<?xf32>>>> loc(#loc200)
            %12 = affine.load %alloca_8[0] : memref<1xmemref<?xmemref<?xmemref<?xf32>>>> loc(#loc201)
            %13 = affine.load %alloca_7[0] : memref<1xmemref<?xmemref<?xmemref<?xf32>>>> loc(#loc202)
            %14 = affine.load %alloca_6[0] : memref<1xmemref<?xmemref<?xmemref<?xf32>>>> loc(#loc203)
            %15 = affine.load %alloca_5[0] : memref<1xmemref<?xmemref<?xmemref<?xf32>>>> loc(#loc204)
            %16 = affine.load %alloca_4[0] : memref<1xmemref<?xmemref<?xmemref<?xf32>>>> loc(#loc205)
            %17 = affine.load %alloca_3[0] : memref<1xmemref<?xmemref<?xmemref<?xf32>>>> loc(#loc206)
            %18 = affine.load %alloca_2[0] : memref<1xmemref<?xmemref<?xmemref<?xf32>>>> loc(#loc207)
            %19 = affine.load %alloca_1[0] : memref<1xmemref<?xmemref<?xmemref<?xf32>>>> loc(#loc208)
            %20 = affine.load %alloca_0[0] : memref<1xmemref<?xmemref<?xmemref<?xf32>>>> loc(#loc209)
            affine.for %arg0 loc("benchmarks/sw4lite/vel4sg-base/vel4sg_base.c":163:3) = 0 to 48 {
              scf.if %true {
                scf.execute_region {
                  scf.if %true {
                    scf.execute_region {
                      %21 = polygeist.subindex %11[%arg0] () : memref<?xmemref<?xmemref<?xf32>>> -> memref<?xmemref<?xmemref<?xf32>>> loc(#loc200)
                      %22 = polygeist.subindex %12[%arg0] () : memref<?xmemref<?xmemref<?xf32>>> -> memref<?xmemref<?xmemref<?xf32>>> loc(#loc201)
                      %23 = polygeist.subindex %13[%arg0] () : memref<?xmemref<?xmemref<?xf32>>> -> memref<?xmemref<?xmemref<?xf32>>> loc(#loc202)
                      %24 = polygeist.subindex %14[%arg0] () : memref<?xmemref<?xmemref<?xf32>>> -> memref<?xmemref<?xmemref<?xf32>>> loc(#loc203)
                      %25 = polygeist.subindex %15[%arg0] () : memref<?xmemref<?xmemref<?xf32>>> -> memref<?xmemref<?xmemref<?xf32>>> loc(#loc204)
                      %26 = polygeist.subindex %16[%arg0] () : memref<?xmemref<?xmemref<?xf32>>> -> memref<?xmemref<?xmemref<?xf32>>> loc(#loc205)
                      %27 = polygeist.subindex %17[%arg0] () : memref<?xmemref<?xmemref<?xf32>>> -> memref<?xmemref<?xmemref<?xf32>>> loc(#loc206)
                      %28 = polygeist.subindex %18[%arg0] () : memref<?xmemref<?xmemref<?xf32>>> -> memref<?xmemref<?xmemref<?xf32>>> loc(#loc207)
                      %29 = polygeist.subindex %19[%arg0] () : memref<?xmemref<?xmemref<?xf32>>> -> memref<?xmemref<?xmemref<?xf32>>> loc(#loc208)
                      %30 = polygeist.subindex %20[%arg0] () : memref<?xmemref<?xmemref<?xf32>>> -> memref<?xmemref<?xmemref<?xf32>>> loc(#loc209)
                      affine.for %arg1 loc("benchmarks/sw4lite/vel4sg-base/vel4sg_base.c":164:5) = 0 to 48 {
                        scf.if %true {
                          scf.execute_region {
                            %31 = affine.load %21[0] : memref<?xmemref<?xmemref<?xf32>>> loc(#loc200)
                            %32 = polygeist.subindex %31[%arg1] () : memref<?xmemref<?xf32>> -> memref<?xmemref<?xf32>> loc(#loc200)
                            %33 = affine.load %32[0] : memref<?xmemref<?xf32>> loc(#loc212)
                            memref.dealloc %33 : memref<?xf32> loc(#loc212)
                            scf.yield loc(#loc)
                          } loc(#loc)
                        } loc(#loc)
                        scf.if %true {
                          scf.execute_region {
                            %31 = affine.load %22[0] : memref<?xmemref<?xmemref<?xf32>>> loc(#loc201)
                            %32 = polygeist.subindex %31[%arg1] () : memref<?xmemref<?xf32>> -> memref<?xmemref<?xf32>> loc(#loc201)
                            %33 = affine.load %32[0] : memref<?xmemref<?xf32>> loc(#loc213)
                            memref.dealloc %33 : memref<?xf32> loc(#loc213)
                            scf.yield loc(#loc)
                          } loc(#loc)
                        } loc(#loc)
                        scf.if %true {
                          scf.execute_region {
                            %31 = affine.load %23[0] : memref<?xmemref<?xmemref<?xf32>>> loc(#loc202)
                            %32 = polygeist.subindex %31[%arg1] () : memref<?xmemref<?xf32>> -> memref<?xmemref<?xf32>> loc(#loc202)
                            %33 = affine.load %32[0] : memref<?xmemref<?xf32>> loc(#loc214)
                            memref.dealloc %33 : memref<?xf32> loc(#loc214)
                            scf.yield loc(#loc)
                          } loc(#loc)
                        } loc(#loc)
                        scf.if %true {
                          scf.execute_region {
                            %31 = affine.load %24[0] : memref<?xmemref<?xmemref<?xf32>>> loc(#loc203)
                            %32 = polygeist.subindex %31[%arg1] () : memref<?xmemref<?xf32>> -> memref<?xmemref<?xf32>> loc(#loc203)
                            %33 = affine.load %32[0] : memref<?xmemref<?xf32>> loc(#loc215)
                            memref.dealloc %33 : memref<?xf32> loc(#loc215)
                            scf.yield loc(#loc)
                          } loc(#loc)
                        } loc(#loc)
                        scf.if %true {
                          scf.execute_region {
                            %31 = affine.load %25[0] : memref<?xmemref<?xmemref<?xf32>>> loc(#loc204)
                            %32 = polygeist.subindex %31[%arg1] () : memref<?xmemref<?xf32>> -> memref<?xmemref<?xf32>> loc(#loc204)
                            %33 = affine.load %32[0] : memref<?xmemref<?xf32>> loc(#loc216)
                            memref.dealloc %33 : memref<?xf32> loc(#loc216)
                            scf.yield loc(#loc)
                          } loc(#loc)
                        } loc(#loc)
                        scf.if %true {
                          scf.execute_region {
                            %31 = affine.load %26[0] : memref<?xmemref<?xmemref<?xf32>>> loc(#loc205)
                            %32 = polygeist.subindex %31[%arg1] () : memref<?xmemref<?xf32>> -> memref<?xmemref<?xf32>> loc(#loc205)
                            %33 = affine.load %32[0] : memref<?xmemref<?xf32>> loc(#loc217)
                            memref.dealloc %33 : memref<?xf32> loc(#loc217)
                            scf.yield loc(#loc)
                          } loc(#loc)
                        } loc(#loc)
                        scf.if %true {
                          scf.execute_region {
                            %31 = affine.load %27[0] : memref<?xmemref<?xmemref<?xf32>>> loc(#loc206)
                            %32 = polygeist.subindex %31[%arg1] () : memref<?xmemref<?xf32>> -> memref<?xmemref<?xf32>> loc(#loc206)
                            %33 = affine.load %32[0] : memref<?xmemref<?xf32>> loc(#loc218)
                            memref.dealloc %33 : memref<?xf32> loc(#loc218)
                            scf.yield loc(#loc)
                          } loc(#loc)
                        } loc(#loc)
                        scf.if %true {
                          scf.execute_region {
                            %31 = affine.load %28[0] : memref<?xmemref<?xmemref<?xf32>>> loc(#loc207)
                            %32 = polygeist.subindex %31[%arg1] () : memref<?xmemref<?xf32>> -> memref<?xmemref<?xf32>> loc(#loc207)
                            %33 = affine.load %32[0] : memref<?xmemref<?xf32>> loc(#loc219)
                            memref.dealloc %33 : memref<?xf32> loc(#loc219)
                            scf.yield loc(#loc)
                          } loc(#loc)
                        } loc(#loc)
                        scf.if %true {
                          scf.execute_region {
                            %31 = affine.load %29[0] : memref<?xmemref<?xmemref<?xf32>>> loc(#loc208)
                            %32 = polygeist.subindex %31[%arg1] () : memref<?xmemref<?xf32>> -> memref<?xmemref<?xf32>> loc(#loc208)
                            %33 = affine.load %32[0] : memref<?xmemref<?xf32>> loc(#loc220)
                            memref.dealloc %33 : memref<?xf32> loc(#loc220)
                            scf.yield loc(#loc)
                          } loc(#loc)
                        } loc(#loc)
                        scf.if %true {
                          scf.execute_region {
                            %31 = affine.load %30[0] : memref<?xmemref<?xmemref<?xf32>>> loc(#loc209)
                            %32 = polygeist.subindex %31[%arg1] () : memref<?xmemref<?xf32>> -> memref<?xmemref<?xf32>> loc(#loc209)
                            %33 = affine.load %32[0] : memref<?xmemref<?xf32>> loc(#loc221)
                            memref.dealloc %33 : memref<?xf32> loc(#loc221)
                            scf.yield loc(#loc)
                          } loc(#loc)
                        } loc(#loc)
                      } loc(#loc211)
                      scf.yield loc(#loc)
                    } loc(#loc)
                  } loc(#loc)
                  scf.yield loc(#loc)
                } loc(#loc)
              } loc(#loc)
              scf.if %true {
                scf.execute_region {
                  %21 = polygeist.subindex %11[%arg0] () : memref<?xmemref<?xmemref<?xf32>>> -> memref<?xmemref<?xmemref<?xf32>>> loc(#loc222)
                  %22 = affine.load %21[0] : memref<?xmemref<?xmemref<?xf32>>> loc(#loc223)
                  memref.dealloc %22 : memref<?xmemref<?xf32>> loc(#loc223)
                  scf.yield loc(#loc)
                } loc(#loc)
              } loc(#loc)
              scf.if %true {
                scf.execute_region {
                  %21 = polygeist.subindex %12[%arg0] () : memref<?xmemref<?xmemref<?xf32>>> -> memref<?xmemref<?xmemref<?xf32>>> loc(#loc224)
                  %22 = affine.load %21[0] : memref<?xmemref<?xmemref<?xf32>>> loc(#loc225)
                  memref.dealloc %22 : memref<?xmemref<?xf32>> loc(#loc225)
                  scf.yield loc(#loc)
                } loc(#loc)
              } loc(#loc)
              scf.if %true {
                scf.execute_region {
                  %21 = polygeist.subindex %13[%arg0] () : memref<?xmemref<?xmemref<?xf32>>> -> memref<?xmemref<?xmemref<?xf32>>> loc(#loc226)
                  %22 = affine.load %21[0] : memref<?xmemref<?xmemref<?xf32>>> loc(#loc227)
                  memref.dealloc %22 : memref<?xmemref<?xf32>> loc(#loc227)
                  scf.yield loc(#loc)
                } loc(#loc)
              } loc(#loc)
              scf.if %true {
                scf.execute_region {
                  %21 = polygeist.subindex %14[%arg0] () : memref<?xmemref<?xmemref<?xf32>>> -> memref<?xmemref<?xmemref<?xf32>>> loc(#loc228)
                  %22 = affine.load %21[0] : memref<?xmemref<?xmemref<?xf32>>> loc(#loc229)
                  memref.dealloc %22 : memref<?xmemref<?xf32>> loc(#loc229)
                  scf.yield loc(#loc)
                } loc(#loc)
              } loc(#loc)
              scf.if %true {
                scf.execute_region {
                  %21 = polygeist.subindex %15[%arg0] () : memref<?xmemref<?xmemref<?xf32>>> -> memref<?xmemref<?xmemref<?xf32>>> loc(#loc230)
                  %22 = affine.load %21[0] : memref<?xmemref<?xmemref<?xf32>>> loc(#loc231)
                  memref.dealloc %22 : memref<?xmemref<?xf32>> loc(#loc231)
                  scf.yield loc(#loc)
                } loc(#loc)
              } loc(#loc)
              scf.if %true {
                scf.execute_region {
                  %21 = polygeist.subindex %16[%arg0] () : memref<?xmemref<?xmemref<?xf32>>> -> memref<?xmemref<?xmemref<?xf32>>> loc(#loc232)
                  %22 = affine.load %21[0] : memref<?xmemref<?xmemref<?xf32>>> loc(#loc233)
                  memref.dealloc %22 : memref<?xmemref<?xf32>> loc(#loc233)
                  scf.yield loc(#loc)
                } loc(#loc)
              } loc(#loc)
              scf.if %true {
                scf.execute_region {
                  %21 = polygeist.subindex %17[%arg0] () : memref<?xmemref<?xmemref<?xf32>>> -> memref<?xmemref<?xmemref<?xf32>>> loc(#loc234)
                  %22 = affine.load %21[0] : memref<?xmemref<?xmemref<?xf32>>> loc(#loc235)
                  memref.dealloc %22 : memref<?xmemref<?xf32>> loc(#loc235)
                  scf.yield loc(#loc)
                } loc(#loc)
              } loc(#loc)
              scf.if %true {
                scf.execute_region {
                  %21 = polygeist.subindex %18[%arg0] () : memref<?xmemref<?xmemref<?xf32>>> -> memref<?xmemref<?xmemref<?xf32>>> loc(#loc236)
                  %22 = affine.load %21[0] : memref<?xmemref<?xmemref<?xf32>>> loc(#loc237)
                  memref.dealloc %22 : memref<?xmemref<?xf32>> loc(#loc237)
                  scf.yield loc(#loc)
                } loc(#loc)
              } loc(#loc)
              scf.if %true {
                scf.execute_region {
                  %21 = polygeist.subindex %19[%arg0] () : memref<?xmemref<?xmemref<?xf32>>> -> memref<?xmemref<?xmemref<?xf32>>> loc(#loc238)
                  %22 = affine.load %21[0] : memref<?xmemref<?xmemref<?xf32>>> loc(#loc239)
                  memref.dealloc %22 : memref<?xmemref<?xf32>> loc(#loc239)
                  scf.yield loc(#loc)
                } loc(#loc)
              } loc(#loc)
              scf.if %true {
                scf.execute_region {
                  %21 = polygeist.subindex %20[%arg0] () : memref<?xmemref<?xmemref<?xf32>>> -> memref<?xmemref<?xmemref<?xf32>>> loc(#loc240)
                  %22 = affine.load %21[0] : memref<?xmemref<?xmemref<?xf32>>> loc(#loc241)
                  memref.dealloc %22 : memref<?xmemref<?xf32>> loc(#loc241)
                  scf.yield loc(#loc)
                } loc(#loc)
              } loc(#loc)
            } loc(#loc210)
            scf.yield loc(#loc)
          } loc(#loc)
        } loc(#loc)
        scf.yield loc(#loc)
      } loc(#loc)
    } loc(#loc)
    scf.if %true {
      scf.execute_region {
        %11 = affine.load %alloca_9[0] : memref<1xmemref<?xmemref<?xmemref<?xf32>>>> loc(#loc242)
        memref.dealloc %11 : memref<?xmemref<?xmemref<?xf32>>> loc(#loc242)
        scf.yield loc(#loc)
      } loc(#loc)
    } loc(#loc)
    scf.if %true {
      scf.execute_region {
        %11 = affine.load %alloca_8[0] : memref<1xmemref<?xmemref<?xmemref<?xf32>>>> loc(#loc243)
        memref.dealloc %11 : memref<?xmemref<?xmemref<?xf32>>> loc(#loc243)
        scf.yield loc(#loc)
      } loc(#loc)
    } loc(#loc)
    scf.if %true {
      scf.execute_region {
        %11 = affine.load %alloca_7[0] : memref<1xmemref<?xmemref<?xmemref<?xf32>>>> loc(#loc244)
        memref.dealloc %11 : memref<?xmemref<?xmemref<?xf32>>> loc(#loc244)
        scf.yield loc(#loc)
      } loc(#loc)
    } loc(#loc)
    scf.if %true {
      scf.execute_region {
        %11 = affine.load %alloca_6[0] : memref<1xmemref<?xmemref<?xmemref<?xf32>>>> loc(#loc245)
        memref.dealloc %11 : memref<?xmemref<?xmemref<?xf32>>> loc(#loc245)
        scf.yield loc(#loc)
      } loc(#loc)
    } loc(#loc)
    scf.if %true {
      scf.execute_region {
        %11 = affine.load %alloca_5[0] : memref<1xmemref<?xmemref<?xmemref<?xf32>>>> loc(#loc246)
        memref.dealloc %11 : memref<?xmemref<?xmemref<?xf32>>> loc(#loc246)
        scf.yield loc(#loc)
      } loc(#loc)
    } loc(#loc)
    scf.if %true {
      scf.execute_region {
        %11 = affine.load %alloca_4[0] : memref<1xmemref<?xmemref<?xmemref<?xf32>>>> loc(#loc247)
        memref.dealloc %11 : memref<?xmemref<?xmemref<?xf32>>> loc(#loc247)
        scf.yield loc(#loc)
      } loc(#loc)
    } loc(#loc)
    scf.if %true {
      scf.execute_region {
        %11 = affine.load %alloca_3[0] : memref<1xmemref<?xmemref<?xmemref<?xf32>>>> loc(#loc248)
        memref.dealloc %11 : memref<?xmemref<?xmemref<?xf32>>> loc(#loc248)
        scf.yield loc(#loc)
      } loc(#loc)
    } loc(#loc)
    scf.if %true {
      scf.execute_region {
        %11 = affine.load %alloca_2[0] : memref<1xmemref<?xmemref<?xmemref<?xf32>>>> loc(#loc249)
        memref.dealloc %11 : memref<?xmemref<?xmemref<?xf32>>> loc(#loc249)
        scf.yield loc(#loc)
      } loc(#loc)
    } loc(#loc)
    scf.if %true {
      scf.execute_region {
        %11 = affine.load %alloca_1[0] : memref<1xmemref<?xmemref<?xmemref<?xf32>>>> loc(#loc250)
        memref.dealloc %11 : memref<?xmemref<?xmemref<?xf32>>> loc(#loc250)
        scf.yield loc(#loc)
      } loc(#loc)
    } loc(#loc)
    scf.if %true {
      scf.execute_region {
        %11 = affine.load %alloca_0[0] : memref<1xmemref<?xmemref<?xmemref<?xf32>>>> loc(#loc251)
        memref.dealloc %11 : memref<?xmemref<?xmemref<?xf32>>> loc(#loc251)
        scf.yield loc(#loc)
      } loc(#loc)
    } loc(#loc)
    scf.if %true {
      scf.execute_region {
        %11 = polygeist.pointer2memref %0 : !llvm.ptr to memref<?xi8> loc(#loc252)
        func.call @carts_phase_timer_stop(%11) : (memref<?xi8>) -> () loc(#loc252)
        scf.yield loc(#loc)
      } loc(#loc)
    } loc(#loc)
    scf.if %true {
      scf.execute_region {
        func.call @carts_e2e_timer_stop() : () -> () loc(#loc253)
        scf.yield loc(#loc)
      } loc(#loc)
    } loc(#loc)
    %10 = scf.if %true -> (i32) {
      %11 = scf.execute_region -> i32 {
        %12 = scf.if %true -> (i32) {
          %13 = scf.execute_region -> i32 {
            scf.yield %c0_i32 : i32 loc(#loc)
          } loc(#loc)
          scf.yield %13 : i32 loc(#loc)
        } else {
          scf.yield %4 : i32 loc(#loc)
        } loc(#loc)
        scf.yield %12 : i32 loc(#loc)
      } loc(#loc)
      scf.yield %11 : i32 loc(#loc)
    } else {
      scf.yield %4 : i32 loc(#loc)
    } loc(#loc)
    return %10 : i32 loc(#loc254)
  } loc(#loc5)
  func.func private @carts_benchmarks_start() attributes {llvm.linkage = #llvm.linkage<external>} loc(#loc255)
  func.func private @carts_e2e_timer_start(memref<?xi8>) attributes {llvm.linkage = #llvm.linkage<external>} loc(#loc256)
  func.func private @carts_phase_timer_start(memref<?xi8>, memref<?xi8>) attributes {llvm.linkage = #llvm.linkage<external>} loc(#loc257)
  func.func private @init(%arg0: memref<?xmemref<?xmemref<?xf32>>> loc("benchmarks/sw4lite/vel4sg-base/vel4sg_base.c":24:13), %arg1: memref<?xmemref<?xmemref<?xf32>>> loc("benchmarks/sw4lite/vel4sg-base/vel4sg_base.c":24:13), %arg2: memref<?xmemref<?xmemref<?xf32>>> loc("benchmarks/sw4lite/vel4sg-base/vel4sg_base.c":24:13), %arg3: memref<?xmemref<?xmemref<?xf32>>> loc("benchmarks/sw4lite/vel4sg-base/vel4sg_base.c":24:13), %arg4: memref<?xmemref<?xmemref<?xf32>>> loc("benchmarks/sw4lite/vel4sg-base/vel4sg_base.c":24:13), %arg5: memref<?xmemref<?xmemref<?xf32>>> loc("benchmarks/sw4lite/vel4sg-base/vel4sg_base.c":24:13), %arg6: memref<?xmemref<?xmemref<?xf32>>> loc("benchmarks/sw4lite/vel4sg-base/vel4sg_base.c":24:13), %arg7: memref<?xmemref<?xmemref<?xf32>>> loc("benchmarks/sw4lite/vel4sg-base/vel4sg_base.c":24:13), %arg8: memref<?xmemref<?xmemref<?xf32>>> loc("benchmarks/sw4lite/vel4sg-base/vel4sg_base.c":24:13), %arg9: memref<?xmemref<?xmemref<?xf32>>> loc("benchmarks/sw4lite/vel4sg-base/vel4sg_base.c":24:13)) attributes {llvm.linkage = #llvm.linkage<internal>} {
    %c1 = arith.constant 1 : index loc(#loc)
    %c0 = arith.constant 0 : index loc(#loc)
    %c48 = arith.constant 48 : index loc(#loc)
    %c1_i32 = arith.constant 1 : i32 loc(#loc)
    %c37_i32 = arith.constant 37 : i32 loc(#loc)
    %c2_i32 = arith.constant 2 : i32 loc(#loc)
    %cst = arith.constant 6.000000e-03 : f32 loc(#loc)
    %c31_i32 = arith.constant 31 : i32 loc(#loc)
    %c3_i32 = arith.constant 3 : i32 loc(#loc)
    %cst_0 = arith.constant 4.000000e-03 : f32 loc(#loc)
    %c29_i32 = arith.constant 29 : i32 loc(#loc)
    %c5_i32 = arith.constant 5 : i32 loc(#loc)
    %cst_1 = arith.constant 5.000000e-03 : f32 loc(#loc)
    %c17_i32 = arith.constant 17 : i32 loc(#loc)
    %c23_i32 = arith.constant 23 : i32 loc(#loc)
    %c11_i32 = arith.constant 11 : i32 loc(#loc)
    %c19_i32 = arith.constant 19 : i32 loc(#loc)
    %c7_i32 = arith.constant 7 : i32 loc(#loc)
    %cst_2 = arith.constant 0.00999999977 : f32 loc(#loc)
    %c13_i32 = arith.constant 13 : i32 loc(#loc)
    %cst_3 = arith.constant 2.500000e+03 : f32 loc(#loc)
    %cst_4 = arith.constant 0.000000e+00 : f32 loc(#loc)
    %c0_i32 = arith.constant 0 : i32 loc(#loc)
    %true = arith.constant true loc(#loc259)
    %0 = "polygeist.undef"() : () -> i32 loc(#loc260)
    %alloca = memref.alloca() : memref<1xi32> loc(#loc261)
    affine.store %0, %alloca[0] : memref<1xi32> loc(#loc261)
    scf.if %true {
      scf.execute_region {
        scf.if %true {
          scf.execute_region {
            affine.store %c0_i32, %alloca[0] : memref<1xi32> loc(#loc261)
            scf.yield loc(#loc)
          } loc(#loc)
        } loc(#loc)
        scf.yield loc(#loc)
      } loc(#loc)
    } loc(#loc)
    scf.if %true {
      scf.execute_region {
        scf.if %true {
          scf.execute_region {
            affine.for %arg10 loc("benchmarks/sw4lite/vel4sg-base/vel4sg_base.c":27:3) = 0 to 48 {
              scf.if %true {
                scf.execute_region {
                  scf.if %true {
                    scf.execute_region {
                      %1 = polygeist.subindex %arg0[%arg10] () : memref<?xmemref<?xmemref<?xf32>>> -> memref<?xmemref<?xmemref<?xf32>>> loc(#loc263)
                      %2 = polygeist.subindex %arg1[%arg10] () : memref<?xmemref<?xmemref<?xf32>>> -> memref<?xmemref<?xmemref<?xf32>>> loc(#loc264)
                      %3 = polygeist.subindex %arg2[%arg10] () : memref<?xmemref<?xmemref<?xf32>>> -> memref<?xmemref<?xmemref<?xf32>>> loc(#loc265)
                      %4 = polygeist.subindex %arg3[%arg10] () : memref<?xmemref<?xmemref<?xf32>>> -> memref<?xmemref<?xmemref<?xf32>>> loc(#loc266)
                      %5 = polygeist.subindex %arg4[%arg10] () : memref<?xmemref<?xmemref<?xf32>>> -> memref<?xmemref<?xmemref<?xf32>>> loc(#loc267)
                      %6 = polygeist.subindex %arg5[%arg10] () : memref<?xmemref<?xmemref<?xf32>>> -> memref<?xmemref<?xmemref<?xf32>>> loc(#loc268)
                      %7 = polygeist.subindex %arg6[%arg10] () : memref<?xmemref<?xmemref<?xf32>>> -> memref<?xmemref<?xmemref<?xf32>>> loc(#loc269)
                      %8 = polygeist.subindex %arg7[%arg10] () : memref<?xmemref<?xmemref<?xf32>>> -> memref<?xmemref<?xmemref<?xf32>>> loc(#loc270)
                      %9 = polygeist.subindex %arg8[%arg10] () : memref<?xmemref<?xmemref<?xf32>>> -> memref<?xmemref<?xmemref<?xf32>>> loc(#loc271)
                      %10 = polygeist.subindex %arg9[%arg10] () : memref<?xmemref<?xmemref<?xf32>>> -> memref<?xmemref<?xmemref<?xf32>>> loc(#loc272)
                      affine.for %arg11 loc("benchmarks/sw4lite/vel4sg-base/vel4sg_base.c":28:5) = 0 to 48 {
                        scf.if %true {
                          scf.execute_region {
                            scf.if %true {
                              scf.execute_region {
                                scf.for %arg12 = %c0 to %c48 step %c1 {
                                  scf.if %true {
                                    scf.execute_region {
                                      %11 = affine.load %1[0] : memref<?xmemref<?xmemref<?xf32>>> loc(#loc263)
                                      %12 = polygeist.subindex %11[%arg11] () : memref<?xmemref<?xf32>> -> memref<?xmemref<?xf32>> loc(#loc263)
                                      %13 = affine.load %12[0] : memref<?xmemref<?xf32>> loc(#loc263)
                                      %14 = polygeist.subindex %13[%arg12] () : memref<?xf32> -> memref<?xf32> loc(#loc263)
                                      affine.store %cst_4, %14[0] : memref<?xf32> loc(#loc275)
                                      scf.yield loc(#loc)
                                    } loc(#loc)
                                  } loc(#loc)
                                  scf.if %true {
                                    scf.execute_region {
                                      %11 = affine.load %2[0] : memref<?xmemref<?xmemref<?xf32>>> loc(#loc264)
                                      %12 = polygeist.subindex %11[%arg11] () : memref<?xmemref<?xf32>> -> memref<?xmemref<?xf32>> loc(#loc264)
                                      %13 = affine.load %12[0] : memref<?xmemref<?xf32>> loc(#loc264)
                                      %14 = polygeist.subindex %13[%arg12] () : memref<?xf32> -> memref<?xf32> loc(#loc264)
                                      affine.store %cst_4, %14[0] : memref<?xf32> loc(#loc276)
                                      scf.yield loc(#loc)
                                    } loc(#loc)
                                  } loc(#loc)
                                  scf.if %true {
                                    scf.execute_region {
                                      %11 = affine.load %3[0] : memref<?xmemref<?xmemref<?xf32>>> loc(#loc265)
                                      %12 = polygeist.subindex %11[%arg11] () : memref<?xmemref<?xf32>> -> memref<?xmemref<?xf32>> loc(#loc265)
                                      %13 = affine.load %12[0] : memref<?xmemref<?xf32>> loc(#loc265)
                                      %14 = polygeist.subindex %13[%arg12] () : memref<?xf32> -> memref<?xf32> loc(#loc265)
                                      affine.store %cst_4, %14[0] : memref<?xf32> loc(#loc277)
                                      scf.yield loc(#loc)
                                    } loc(#loc)
                                  } loc(#loc)
                                  scf.if %true {
                                    scf.execute_region {
                                      %11 = affine.load %4[0] : memref<?xmemref<?xmemref<?xf32>>> loc(#loc266)
                                      %12 = polygeist.subindex %11[%arg11] () : memref<?xmemref<?xf32>> -> memref<?xmemref<?xf32>> loc(#loc266)
                                      %13 = affine.load %12[0] : memref<?xmemref<?xf32>> loc(#loc266)
                                      %14 = polygeist.subindex %13[%arg12] () : memref<?xf32> -> memref<?xf32> loc(#loc266)
                                      %15 = affine.load %alloca[0] : memref<1xi32> loc(#loc278)
                                      %16 = arith.remsi %15, %c13_i32 : i32 loc(#loc279)
                                      %17 = arith.sitofp %16 : i32 to f32 loc(#loc280)
                                      %18 = arith.addf %17, %cst_3 : f32 loc(#loc281)
                                      affine.store %18, %14[0] : memref<?xf32> loc(#loc282)
                                      scf.yield loc(#loc)
                                    } loc(#loc)
                                  } loc(#loc)
                                  scf.if %true {
                                    scf.execute_region {
                                      %11 = affine.load %5[0] : memref<?xmemref<?xmemref<?xf32>>> loc(#loc267)
                                      %12 = polygeist.subindex %11[%arg11] () : memref<?xmemref<?xf32>> -> memref<?xmemref<?xf32>> loc(#loc267)
                                      %13 = affine.load %12[0] : memref<?xmemref<?xf32>> loc(#loc267)
                                      %14 = polygeist.subindex %13[%arg12] () : memref<?xf32> -> memref<?xf32> loc(#loc267)
                                      %15 = affine.load %alloca[0] : memref<1xi32> loc(#loc283)
                                      %16 = arith.muli %15, %c7_i32 : i32 loc(#loc284)
                                      %17 = arith.remsi %16, %c19_i32 : i32 loc(#loc285)
                                      %18 = arith.sitofp %17 : i32 to f32 loc(#loc286)
                                      %19 = arith.mulf %18, %cst_2 : f32 loc(#loc287)
                                      affine.store %19, %14[0] : memref<?xf32> loc(#loc288)
                                      scf.yield loc(#loc)
                                    } loc(#loc)
                                  } loc(#loc)
                                  scf.if %true {
                                    scf.execute_region {
                                      %11 = affine.load %6[0] : memref<?xmemref<?xmemref<?xf32>>> loc(#loc268)
                                      %12 = polygeist.subindex %11[%arg11] () : memref<?xmemref<?xf32>> -> memref<?xmemref<?xf32>> loc(#loc268)
                                      %13 = affine.load %12[0] : memref<?xmemref<?xf32>> loc(#loc268)
                                      %14 = polygeist.subindex %13[%arg12] () : memref<?xf32> -> memref<?xf32> loc(#loc268)
                                      %15 = affine.load %alloca[0] : memref<1xi32> loc(#loc289)
                                      %16 = arith.muli %15, %c11_i32 : i32 loc(#loc290)
                                      %17 = arith.remsi %16, %c23_i32 : i32 loc(#loc291)
                                      %18 = arith.sitofp %17 : i32 to f32 loc(#loc292)
                                      %19 = arith.mulf %18, %cst_2 : f32 loc(#loc293)
                                      affine.store %19, %14[0] : memref<?xf32> loc(#loc294)
                                      scf.yield loc(#loc)
                                    } loc(#loc)
                                  } loc(#loc)
                                  scf.if %true {
                                    scf.execute_region {
                                      %11 = affine.load %7[0] : memref<?xmemref<?xmemref<?xf32>>> loc(#loc269)
                                      %12 = polygeist.subindex %11[%arg11] () : memref<?xmemref<?xf32>> -> memref<?xmemref<?xf32>> loc(#loc269)
                                      %13 = affine.load %12[0] : memref<?xmemref<?xf32>> loc(#loc269)
                                      %14 = polygeist.subindex %13[%arg12] () : memref<?xf32> -> memref<?xf32> loc(#loc269)
                                      %15 = affine.load %alloca[0] : memref<1xi32> loc(#loc295)
                                      %16 = arith.muli %15, %c13_i32 : i32 loc(#loc296)
                                      %17 = arith.remsi %16, %c17_i32 : i32 loc(#loc297)
                                      %18 = arith.sitofp %17 : i32 to f32 loc(#loc298)
                                      %19 = arith.mulf %18, %cst_2 : f32 loc(#loc299)
                                      affine.store %19, %14[0] : memref<?xf32> loc(#loc300)
                                      scf.yield loc(#loc)
                                    } loc(#loc)
                                  } loc(#loc)
                                  scf.if %true {
                                    scf.execute_region {
                                      %11 = affine.load %8[0] : memref<?xmemref<?xmemref<?xf32>>> loc(#loc270)
                                      %12 = polygeist.subindex %11[%arg11] () : memref<?xmemref<?xf32>> -> memref<?xmemref<?xf32>> loc(#loc270)
                                      %13 = affine.load %12[0] : memref<?xmemref<?xf32>> loc(#loc270)
                                      %14 = polygeist.subindex %13[%arg12] () : memref<?xf32> -> memref<?xf32> loc(#loc270)
                                      %15 = affine.load %alloca[0] : memref<1xi32> loc(#loc301)
                                      %16 = arith.muli %15, %c5_i32 : i32 loc(#loc302)
                                      %17 = arith.remsi %16, %c29_i32 : i32 loc(#loc303)
                                      %18 = arith.sitofp %17 : i32 to f32 loc(#loc304)
                                      %19 = arith.mulf %18, %cst_1 : f32 loc(#loc305)
                                      affine.store %19, %14[0] : memref<?xf32> loc(#loc306)
                                      scf.yield loc(#loc)
                                    } loc(#loc)
                                  } loc(#loc)
                                  scf.if %true {
                                    scf.execute_region {
                                      %11 = affine.load %9[0] : memref<?xmemref<?xmemref<?xf32>>> loc(#loc271)
                                      %12 = polygeist.subindex %11[%arg11] () : memref<?xmemref<?xf32>> -> memref<?xmemref<?xf32>> loc(#loc271)
                                      %13 = affine.load %12[0] : memref<?xmemref<?xf32>> loc(#loc271)
                                      %14 = polygeist.subindex %13[%arg12] () : memref<?xf32> -> memref<?xf32> loc(#loc271)
                                      %15 = affine.load %alloca[0] : memref<1xi32> loc(#loc307)
                                      %16 = arith.muli %15, %c3_i32 : i32 loc(#loc308)
                                      %17 = arith.remsi %16, %c31_i32 : i32 loc(#loc309)
                                      %18 = arith.sitofp %17 : i32 to f32 loc(#loc310)
                                      %19 = arith.mulf %18, %cst_0 : f32 loc(#loc311)
                                      affine.store %19, %14[0] : memref<?xf32> loc(#loc312)
                                      scf.yield loc(#loc)
                                    } loc(#loc)
                                  } loc(#loc)
                                  scf.if %true {
                                    scf.execute_region {
                                      %11 = affine.load %10[0] : memref<?xmemref<?xmemref<?xf32>>> loc(#loc272)
                                      %12 = polygeist.subindex %11[%arg11] () : memref<?xmemref<?xf32>> -> memref<?xmemref<?xf32>> loc(#loc272)
                                      %13 = affine.load %12[0] : memref<?xmemref<?xf32>> loc(#loc272)
                                      %14 = polygeist.subindex %13[%arg12] () : memref<?xf32> -> memref<?xf32> loc(#loc272)
                                      %15 = affine.load %alloca[0] : memref<1xi32> loc(#loc313)
                                      %16 = arith.muli %15, %c2_i32 : i32 loc(#loc314)
                                      %17 = arith.remsi %16, %c37_i32 : i32 loc(#loc315)
                                      %18 = arith.sitofp %17 : i32 to f32 loc(#loc316)
                                      %19 = arith.mulf %18, %cst : f32 loc(#loc317)
                                      affine.store %19, %14[0] : memref<?xf32> loc(#loc318)
                                      scf.yield loc(#loc)
                                    } loc(#loc)
                                  } loc(#loc)
                                  scf.if %true {
                                    scf.execute_region {
                                      %11 = affine.load %alloca[0] : memref<1xi32> loc(#loc319)
                                      %12 = arith.addi %11, %c1_i32 : i32 loc(#loc319)
                                      affine.store %12, %alloca[0] : memref<1xi32> loc(#loc319)
                                      scf.yield loc(#loc)
                                    } loc(#loc)
                                  } loc(#loc)
                                } loc(#loc274)
                                scf.yield loc(#loc)
                              } loc(#loc)
                            } loc(#loc)
                            scf.yield loc(#loc)
                          } loc(#loc)
                        } loc(#loc)
                      } loc(#loc273)
                      scf.yield loc(#loc)
                    } loc(#loc)
                  } loc(#loc)
                  scf.yield loc(#loc)
                } loc(#loc)
              } loc(#loc)
            } loc(#loc262)
            scf.yield loc(#loc)
          } loc(#loc)
        } loc(#loc)
        scf.yield loc(#loc)
      } loc(#loc)
    } loc(#loc)
    return loc(#loc320)
  } loc(#loc258)
  func.func private @carts_phase_timer_stop(memref<?xi8>) attributes {llvm.linkage = #llvm.linkage<external>} loc(#loc321)
  func.func private @carts_kernel_timer_start(memref<?xi8>) attributes {llvm.linkage = #llvm.linkage<external>} loc(#loc322)
  func.func private @sw4lite_vel4sg_update(%arg0: memref<?xmemref<?xmemref<?xf32>>> loc("benchmarks/sw4lite/vel4sg-base/vel4sg_base.c":58:13), %arg1: memref<?xmemref<?xmemref<?xf32>>> loc("benchmarks/sw4lite/vel4sg-base/vel4sg_base.c":58:13), %arg2: memref<?xmemref<?xmemref<?xf32>>> loc("benchmarks/sw4lite/vel4sg-base/vel4sg_base.c":58:13), %arg3: memref<?xmemref<?xmemref<?xf32>>> loc("benchmarks/sw4lite/vel4sg-base/vel4sg_base.c":58:13), %arg4: memref<?xmemref<?xmemref<?xf32>>> loc("benchmarks/sw4lite/vel4sg-base/vel4sg_base.c":58:13), %arg5: memref<?xmemref<?xmemref<?xf32>>> loc("benchmarks/sw4lite/vel4sg-base/vel4sg_base.c":58:13), %arg6: memref<?xmemref<?xmemref<?xf32>>> loc("benchmarks/sw4lite/vel4sg-base/vel4sg_base.c":58:13), %arg7: memref<?xmemref<?xmemref<?xf32>>> loc("benchmarks/sw4lite/vel4sg-base/vel4sg_base.c":58:13), %arg8: memref<?xmemref<?xmemref<?xf32>>> loc("benchmarks/sw4lite/vel4sg-base/vel4sg_base.c":58:13), %arg9: memref<?xmemref<?xmemref<?xf32>>> loc("benchmarks/sw4lite/vel4sg-base/vel4sg_base.c":58:13)) attributes {llvm.linkage = #llvm.linkage<internal>} {
    %c1 = arith.constant 1 : index loc(#loc)
    %c46 = arith.constant 46 : index loc(#loc)
    %c2 = arith.constant 2 : index loc(#loc)
    %cst = arith.constant 5.000000e-04 : f32 loc(#loc)
    %cst_0 = arith.constant 1.000000e+00 : f32 loc(#loc)
    %true = arith.constant true loc(#loc324)
    scf.if %true {
      scf.execute_region {
        scf.if %true {
          scf.execute_region {
            omp.parallel {
              scf.execute_region {
                omp.wsloop schedule(static) {
                  omp.loop_nest (%arg10) : index = (%c2) to (%c46) step (%c1) {
                    scf.execute_region {
                      %alloca = memref.alloca() : memref<1xf32> loc(#loc326)
                      %0 = "polygeist.undef"() : () -> f32 loc(#loc326)
                      affine.store %0, %alloca[0] : memref<1xf32> loc(#loc326)
                      %alloca_1 = memref.alloca() : memref<1xf32> loc(#loc327)
                      affine.store %0, %alloca_1[0] : memref<1xf32> loc(#loc327)
                      %alloca_2 = memref.alloca() : memref<1xf32> loc(#loc328)
                      affine.store %0, %alloca_2[0] : memref<1xf32> loc(#loc328)
                      %alloca_3 = memref.alloca() : memref<1xf32> loc(#loc329)
                      affine.store %0, %alloca_3[0] : memref<1xf32> loc(#loc329)
                      %1 = arith.index_cast %arg10 : index to i32 loc(#loc325)
                      scf.if %true {
                        scf.execute_region {
                          scf.if %true {
                            scf.execute_region {
                              scf.for %arg11 = %c2 to %c46 step %c1 {
                                %2 = arith.index_cast %arg11 : index to i32 loc(#loc330)
                                scf.if %true {
                                  scf.execute_region {
                                    scf.if %true {
                                      scf.execute_region {
                                        scf.for %arg12 = %c2 to %c46 step %c1 {
                                          %3 = arith.index_cast %arg12 : index to i32 loc(#loc331)
                                          scf.if %true {
                                            scf.execute_region {
                                              scf.if %true {
                                                %4 = scf.execute_region -> f32 {
                                                  %5 = polygeist.subindex %arg3[%arg12] () : memref<?xmemref<?xmemref<?xf32>>> -> memref<?xmemref<?xmemref<?xf32>>> loc(#loc332)
                                                  %6 = affine.load %5[0] : memref<?xmemref<?xmemref<?xf32>>> loc(#loc332)
                                                  %7 = polygeist.subindex %6[%arg11] () : memref<?xmemref<?xf32>> -> memref<?xmemref<?xf32>> loc(#loc332)
                                                  %8 = affine.load %7[0] : memref<?xmemref<?xf32>> loc(#loc332)
                                                  %9 = polygeist.subindex %8[%arg10] () : memref<?xf32> -> memref<?xf32> loc(#loc332)
                                                  %10 = affine.load %9[0] : memref<?xf32> loc(#loc332)
                                                  %11 = arith.divf %cst_0, %10 : f32 loc(#loc333)
                                                  affine.store %11, %alloca_3[0] : memref<1xf32> loc(#loc329)
                                                  scf.yield %11 : f32 loc(#loc)
                                                } loc(#loc)
                                              } loc(#loc)
                                              scf.yield loc(#loc)
                                            } loc(#loc)
                                          } loc(#loc)
                                          scf.if %true {
                                            scf.execute_region {
                                              scf.if %true {
                                                %4 = scf.execute_region -> f32 {
                                                  %5 = func.call @derivative_x(%arg4, %3, %2, %1) : (memref<?xmemref<?xmemref<?xf32>>>, i32, i32, i32) -> f32 loc(#loc334)
                                                  %6 = func.call @derivative_y(%arg7, %3, %2, %1) : (memref<?xmemref<?xmemref<?xf32>>>, i32, i32, i32) -> f32 loc(#loc335)
                                                  %7 = arith.addf %5, %6 : f32 loc(#loc336)
                                                  %8 = func.call @derivative_z(%arg8, %3, %2, %1) : (memref<?xmemref<?xmemref<?xf32>>>, i32, i32, i32) -> f32 loc(#loc337)
                                                  %9 = arith.addf %7, %8 : f32 loc(#loc338)
                                                  affine.store %9, %alloca_2[0] : memref<1xf32> loc(#loc328)
                                                  scf.yield %9 : f32 loc(#loc)
                                                } loc(#loc)
                                              } loc(#loc)
                                              scf.yield loc(#loc)
                                            } loc(#loc)
                                          } loc(#loc)
                                          scf.if %true {
                                            scf.execute_region {
                                              scf.if %true {
                                                %4 = scf.execute_region -> f32 {
                                                  %5 = func.call @derivative_x(%arg7, %3, %2, %1) : (memref<?xmemref<?xmemref<?xf32>>>, i32, i32, i32) -> f32 loc(#loc339)
                                                  %6 = func.call @derivative_y(%arg5, %3, %2, %1) : (memref<?xmemref<?xmemref<?xf32>>>, i32, i32, i32) -> f32 loc(#loc340)
                                                  %7 = arith.addf %5, %6 : f32 loc(#loc341)
                                                  %8 = func.call @derivative_z(%arg9, %3, %2, %1) : (memref<?xmemref<?xmemref<?xf32>>>, i32, i32, i32) -> f32 loc(#loc342)
                                                  %9 = arith.addf %7, %8 : f32 loc(#loc343)
                                                  affine.store %9, %alloca_1[0] : memref<1xf32> loc(#loc327)
                                                  scf.yield %9 : f32 loc(#loc)
                                                } loc(#loc)
                                              } loc(#loc)
                                              scf.yield loc(#loc)
                                            } loc(#loc)
                                          } loc(#loc)
                                          scf.if %true {
                                            scf.execute_region {
                                              scf.if %true {
                                                %4 = scf.execute_region -> f32 {
                                                  %5 = func.call @derivative_x(%arg8, %3, %2, %1) : (memref<?xmemref<?xmemref<?xf32>>>, i32, i32, i32) -> f32 loc(#loc344)
                                                  %6 = func.call @derivative_y(%arg9, %3, %2, %1) : (memref<?xmemref<?xmemref<?xf32>>>, i32, i32, i32) -> f32 loc(#loc345)
                                                  %7 = arith.addf %5, %6 : f32 loc(#loc346)
                                                  %8 = func.call @derivative_z(%arg6, %3, %2, %1) : (memref<?xmemref<?xmemref<?xf32>>>, i32, i32, i32) -> f32 loc(#loc347)
                                                  %9 = arith.addf %7, %8 : f32 loc(#loc348)
                                                  affine.store %9, %alloca[0] : memref<1xf32> loc(#loc326)
                                                  scf.yield %9 : f32 loc(#loc)
                                                } loc(#loc)
                                              } loc(#loc)
                                              scf.yield loc(#loc)
                                            } loc(#loc)
                                          } loc(#loc)
                                          scf.if %true {
                                            scf.execute_region {
                                              %4 = polygeist.subindex %arg0[%arg12] () : memref<?xmemref<?xmemref<?xf32>>> -> memref<?xmemref<?xmemref<?xf32>>> loc(#loc349)
                                              %5 = affine.load %4[0] : memref<?xmemref<?xmemref<?xf32>>> loc(#loc349)
                                              %6 = polygeist.subindex %5[%arg11] () : memref<?xmemref<?xf32>> -> memref<?xmemref<?xf32>> loc(#loc349)
                                              %7 = affine.load %6[0] : memref<?xmemref<?xf32>> loc(#loc349)
                                              %8 = polygeist.subindex %7[%arg10] () : memref<?xf32> -> memref<?xf32> loc(#loc349)
                                              %9 = affine.load %alloca_3[0] : memref<1xf32> loc(#loc350)
                                              %10 = arith.mulf %9, %cst : f32 loc(#loc351)
                                              %11 = affine.load %alloca_2[0] : memref<1xf32> loc(#loc352)
                                              %12 = arith.mulf %10, %11 : f32 loc(#loc353)
                                              %13 = affine.load %8[0] : memref<?xf32> loc(#loc354)
                                              %14 = arith.addf %13, %12 : f32 loc(#loc354)
                                              affine.store %14, %8[0] : memref<?xf32> loc(#loc354)
                                              scf.yield loc(#loc)
                                            } loc(#loc)
                                          } loc(#loc)
                                          scf.if %true {
                                            scf.execute_region {
                                              %4 = polygeist.subindex %arg1[%arg12] () : memref<?xmemref<?xmemref<?xf32>>> -> memref<?xmemref<?xmemref<?xf32>>> loc(#loc355)
                                              %5 = affine.load %4[0] : memref<?xmemref<?xmemref<?xf32>>> loc(#loc355)
                                              %6 = polygeist.subindex %5[%arg11] () : memref<?xmemref<?xf32>> -> memref<?xmemref<?xf32>> loc(#loc355)
                                              %7 = affine.load %6[0] : memref<?xmemref<?xf32>> loc(#loc355)
                                              %8 = polygeist.subindex %7[%arg10] () : memref<?xf32> -> memref<?xf32> loc(#loc355)
                                              %9 = affine.load %alloca_3[0] : memref<1xf32> loc(#loc356)
                                              %10 = arith.mulf %9, %cst : f32 loc(#loc357)
                                              %11 = affine.load %alloca_1[0] : memref<1xf32> loc(#loc358)
                                              %12 = arith.mulf %10, %11 : f32 loc(#loc359)
                                              %13 = affine.load %8[0] : memref<?xf32> loc(#loc360)
                                              %14 = arith.addf %13, %12 : f32 loc(#loc360)
                                              affine.store %14, %8[0] : memref<?xf32> loc(#loc360)
                                              scf.yield loc(#loc)
                                            } loc(#loc)
                                          } loc(#loc)
                                          scf.if %true {
                                            scf.execute_region {
                                              %4 = polygeist.subindex %arg2[%arg12] () : memref<?xmemref<?xmemref<?xf32>>> -> memref<?xmemref<?xmemref<?xf32>>> loc(#loc361)
                                              %5 = affine.load %4[0] : memref<?xmemref<?xmemref<?xf32>>> loc(#loc361)
                                              %6 = polygeist.subindex %5[%arg11] () : memref<?xmemref<?xf32>> -> memref<?xmemref<?xf32>> loc(#loc361)
                                              %7 = affine.load %6[0] : memref<?xmemref<?xf32>> loc(#loc361)
                                              %8 = polygeist.subindex %7[%arg10] () : memref<?xf32> -> memref<?xf32> loc(#loc361)
                                              %9 = affine.load %alloca_3[0] : memref<1xf32> loc(#loc362)
                                              %10 = arith.mulf %9, %cst : f32 loc(#loc363)
                                              %11 = affine.load %alloca[0] : memref<1xf32> loc(#loc364)
                                              %12 = arith.mulf %10, %11 : f32 loc(#loc365)
                                              %13 = affine.load %8[0] : memref<?xf32> loc(#loc366)
                                              %14 = arith.addf %13, %12 : f32 loc(#loc366)
                                              affine.store %14, %8[0] : memref<?xf32> loc(#loc366)
                                              scf.yield loc(#loc)
                                            } loc(#loc)
                                          } loc(#loc)
                                        } loc(#loc331)
                                        scf.yield loc(#loc)
                                      } loc(#loc)
                                    } loc(#loc)
                                    scf.yield loc(#loc)
                                  } loc(#loc)
                                } loc(#loc)
                              } loc(#loc330)
                              scf.yield loc(#loc)
                            } loc(#loc)
                          } loc(#loc)
                          scf.yield loc(#loc)
                        } loc(#loc)
                      } loc(#loc)
                      scf.yield loc(#loc325)
                    } loc(#loc325)
                    omp.yield loc(#loc325)
                  } loc(#loc325)
                } loc(#loc325)
                scf.yield loc(#loc325)
              } loc(#loc325)
              omp.terminator loc(#loc325)
            } loc(#loc325)
            scf.yield loc(#loc)
          } loc(#loc)
        } loc(#loc)
        scf.yield loc(#loc)
      } loc(#loc)
    } loc(#loc)
    return loc(#loc367)
  } loc(#loc323)
  func.func private @carts_kernel_timer_accum(memref<?xi8>) attributes {llvm.linkage = #llvm.linkage<external>} loc(#loc368)
  func.func private @carts_kernel_timer_print(memref<?xi8>) attributes {llvm.linkage = #llvm.linkage<external>} loc(#loc369)
  func.func private @carts_bench_checksum_d(f64) attributes {llvm.linkage = #llvm.linkage<external>} loc(#loc370)
  func.func private @carts_e2e_timer_stop() attributes {llvm.linkage = #llvm.linkage<external>} loc(#loc371)
  func.func private @derivative_x(%arg0: memref<?xmemref<?xmemref<?xf32>>> loc("benchmarks/sw4lite/vel4sg-base/vel4sg_base.c":46:21), %arg1: i32 loc("benchmarks/sw4lite/vel4sg-base/vel4sg_base.c":46:21), %arg2: i32 loc("benchmarks/sw4lite/vel4sg-base/vel4sg_base.c":46:21), %arg3: i32 loc("benchmarks/sw4lite/vel4sg-base/vel4sg_base.c":46:21)) -> f32 attributes {llvm.linkage = #llvm.linkage<internal>} {
    %c-1_i32 = arith.constant -1 : i32 loc(#loc)
    %c1_i32 = arith.constant 1 : i32 loc(#loc)
    %cst = arith.constant 5.000000e-01 : f32 loc(#loc)
    %true = arith.constant true loc(#loc373)
    %0 = "polygeist.undef"() : () -> f32 loc(#loc373)
    %1 = scf.if %true -> (f32) {
      %2 = scf.execute_region -> f32 {
        %3 = scf.if %true -> (f32) {
          %4 = scf.execute_region -> f32 {
            %5 = arith.addi %arg1, %c1_i32 : i32 loc(#loc374)
            %6 = arith.index_cast %5 : i32 to index loc(#loc375)
            %7 = polygeist.subindex %arg0[%6] () : memref<?xmemref<?xmemref<?xf32>>> -> memref<?xmemref<?xmemref<?xf32>>> loc(#loc376)
            %8 = affine.load %7[0] : memref<?xmemref<?xmemref<?xf32>>> loc(#loc376)
            %9 = arith.index_cast %arg2 : i32 to index loc(#loc377)
            %10 = polygeist.subindex %8[%9] () : memref<?xmemref<?xf32>> -> memref<?xmemref<?xf32>> loc(#loc376)
            %11 = affine.load %10[0] : memref<?xmemref<?xf32>> loc(#loc376)
            %12 = arith.index_cast %arg3 : i32 to index loc(#loc378)
            %13 = polygeist.subindex %11[%12] () : memref<?xf32> -> memref<?xf32> loc(#loc376)
            %14 = affine.load %13[0] : memref<?xf32> loc(#loc376)
            %15 = arith.addi %arg1, %c-1_i32 : i32 loc(#loc379)
            %16 = arith.index_cast %15 : i32 to index loc(#loc380)
            %17 = polygeist.subindex %arg0[%16] () : memref<?xmemref<?xmemref<?xf32>>> -> memref<?xmemref<?xmemref<?xf32>>> loc(#loc381)
            %18 = affine.load %17[0] : memref<?xmemref<?xmemref<?xf32>>> loc(#loc381)
            %19 = polygeist.subindex %18[%9] () : memref<?xmemref<?xf32>> -> memref<?xmemref<?xf32>> loc(#loc381)
            %20 = affine.load %19[0] : memref<?xmemref<?xf32>> loc(#loc381)
            %21 = polygeist.subindex %20[%12] () : memref<?xf32> -> memref<?xf32> loc(#loc381)
            %22 = affine.load %21[0] : memref<?xf32> loc(#loc381)
            %23 = arith.subf %14, %22 : f32 loc(#loc382)
            %24 = arith.mulf %23, %cst : f32 loc(#loc383)
            scf.yield %24 : f32 loc(#loc)
          } loc(#loc)
          scf.yield %4 : f32 loc(#loc)
        } else {
          scf.yield %0 : f32 loc(#loc)
        } loc(#loc)
        scf.yield %3 : f32 loc(#loc)
      } loc(#loc)
      scf.yield %2 : f32 loc(#loc)
    } else {
      scf.yield %0 : f32 loc(#loc)
    } loc(#loc)
    return %1 : f32 loc(#loc384)
  } loc(#loc372)
  func.func private @derivative_y(%arg0: memref<?xmemref<?xmemref<?xf32>>> loc("benchmarks/sw4lite/vel4sg-base/vel4sg_base.c":50:21), %arg1: i32 loc("benchmarks/sw4lite/vel4sg-base/vel4sg_base.c":50:21), %arg2: i32 loc("benchmarks/sw4lite/vel4sg-base/vel4sg_base.c":50:21), %arg3: i32 loc("benchmarks/sw4lite/vel4sg-base/vel4sg_base.c":50:21)) -> f32 attributes {llvm.linkage = #llvm.linkage<internal>} {
    %c-1_i32 = arith.constant -1 : i32 loc(#loc)
    %c1_i32 = arith.constant 1 : i32 loc(#loc)
    %cst = arith.constant 5.000000e-01 : f32 loc(#loc)
    %true = arith.constant true loc(#loc386)
    %0 = "polygeist.undef"() : () -> f32 loc(#loc386)
    %1 = scf.if %true -> (f32) {
      %2 = scf.execute_region -> f32 {
        %3 = scf.if %true -> (f32) {
          %4 = scf.execute_region -> f32 {
            %5 = arith.index_cast %arg1 : i32 to index loc(#loc387)
            %6 = polygeist.subindex %arg0[%5] () : memref<?xmemref<?xmemref<?xf32>>> -> memref<?xmemref<?xmemref<?xf32>>> loc(#loc388)
            %7 = affine.load %6[0] : memref<?xmemref<?xmemref<?xf32>>> loc(#loc388)
            %8 = arith.addi %arg2, %c1_i32 : i32 loc(#loc389)
            %9 = arith.index_cast %8 : i32 to index loc(#loc390)
            %10 = polygeist.subindex %7[%9] () : memref<?xmemref<?xf32>> -> memref<?xmemref<?xf32>> loc(#loc388)
            %11 = affine.load %10[0] : memref<?xmemref<?xf32>> loc(#loc388)
            %12 = arith.index_cast %arg3 : i32 to index loc(#loc391)
            %13 = polygeist.subindex %11[%12] () : memref<?xf32> -> memref<?xf32> loc(#loc388)
            %14 = affine.load %13[0] : memref<?xf32> loc(#loc388)
            %15 = arith.addi %arg2, %c-1_i32 : i32 loc(#loc392)
            %16 = arith.index_cast %15 : i32 to index loc(#loc393)
            %17 = polygeist.subindex %7[%16] () : memref<?xmemref<?xf32>> -> memref<?xmemref<?xf32>> loc(#loc394)
            %18 = affine.load %17[0] : memref<?xmemref<?xf32>> loc(#loc394)
            %19 = polygeist.subindex %18[%12] () : memref<?xf32> -> memref<?xf32> loc(#loc394)
            %20 = affine.load %19[0] : memref<?xf32> loc(#loc394)
            %21 = arith.subf %14, %20 : f32 loc(#loc395)
            %22 = arith.mulf %21, %cst : f32 loc(#loc396)
            scf.yield %22 : f32 loc(#loc)
          } loc(#loc)
          scf.yield %4 : f32 loc(#loc)
        } else {
          scf.yield %0 : f32 loc(#loc)
        } loc(#loc)
        scf.yield %3 : f32 loc(#loc)
      } loc(#loc)
      scf.yield %2 : f32 loc(#loc)
    } else {
      scf.yield %0 : f32 loc(#loc)
    } loc(#loc)
    return %1 : f32 loc(#loc397)
  } loc(#loc385)
  func.func private @derivative_z(%arg0: memref<?xmemref<?xmemref<?xf32>>> loc("benchmarks/sw4lite/vel4sg-base/vel4sg_base.c":54:21), %arg1: i32 loc("benchmarks/sw4lite/vel4sg-base/vel4sg_base.c":54:21), %arg2: i32 loc("benchmarks/sw4lite/vel4sg-base/vel4sg_base.c":54:21), %arg3: i32 loc("benchmarks/sw4lite/vel4sg-base/vel4sg_base.c":54:21)) -> f32 attributes {llvm.linkage = #llvm.linkage<internal>} {
    %c-1_i32 = arith.constant -1 : i32 loc(#loc)
    %c1_i32 = arith.constant 1 : i32 loc(#loc)
    %cst = arith.constant 5.000000e-01 : f32 loc(#loc)
    %true = arith.constant true loc(#loc399)
    %0 = "polygeist.undef"() : () -> f32 loc(#loc399)
    %1 = scf.if %true -> (f32) {
      %2 = scf.execute_region -> f32 {
        %3 = scf.if %true -> (f32) {
          %4 = scf.execute_region -> f32 {
            %5 = arith.index_cast %arg1 : i32 to index loc(#loc400)
            %6 = polygeist.subindex %arg0[%5] () : memref<?xmemref<?xmemref<?xf32>>> -> memref<?xmemref<?xmemref<?xf32>>> loc(#loc401)
            %7 = affine.load %6[0] : memref<?xmemref<?xmemref<?xf32>>> loc(#loc401)
            %8 = arith.index_cast %arg2 : i32 to index loc(#loc402)
            %9 = polygeist.subindex %7[%8] () : memref<?xmemref<?xf32>> -> memref<?xmemref<?xf32>> loc(#loc401)
            %10 = affine.load %9[0] : memref<?xmemref<?xf32>> loc(#loc401)
            %11 = arith.addi %arg3, %c1_i32 : i32 loc(#loc403)
            %12 = arith.index_cast %11 : i32 to index loc(#loc404)
            %13 = polygeist.subindex %10[%12] () : memref<?xf32> -> memref<?xf32> loc(#loc401)
            %14 = affine.load %13[0] : memref<?xf32> loc(#loc401)
            %15 = arith.addi %arg3, %c-1_i32 : i32 loc(#loc405)
            %16 = arith.index_cast %15 : i32 to index loc(#loc406)
            %17 = polygeist.subindex %10[%16] () : memref<?xf32> -> memref<?xf32> loc(#loc407)
            %18 = affine.load %17[0] : memref<?xf32> loc(#loc407)
            %19 = arith.subf %14, %18 : f32 loc(#loc408)
            %20 = arith.mulf %19, %cst : f32 loc(#loc409)
            scf.yield %20 : f32 loc(#loc)
          } loc(#loc)
          scf.yield %4 : f32 loc(#loc)
        } else {
          scf.yield %0 : f32 loc(#loc)
        } loc(#loc)
        scf.yield %3 : f32 loc(#loc)
      } loc(#loc)
      scf.yield %2 : f32 loc(#loc)
    } else {
      scf.yield %0 : f32 loc(#loc)
    } loc(#loc)
    return %1 : f32 loc(#loc410)
  } loc(#loc398)
} loc(#loc)
#loc = loc(unknown)
#loc1 = loc("carts/.install/carts/include/arts/utils/benchmarks/CartsBenchmarks.h":100:65)
#loc2 = loc("carts/.install/carts/include/arts/utils/benchmarks/CartsBenchmarks.h":98:27)
#loc3 = loc("carts/.install/carts/include/arts/utils/benchmarks/CartsBenchmarks.h":95:65)
#loc4 = loc("benchmarks/sw4lite/vel4sg-base/vel4sg_base.c":94:25)
#loc5 = loc("benchmarks/sw4lite/vel4sg-base/vel4sg_base.c":91:5)
#loc6 = loc("benchmarks/sw4lite/vel4sg-base/vel4sg_base.c":91:1)
#loc7 = loc("benchmarks/sw4lite/vel4sg-base/vel4sg_base.c":164:10)
#loc8 = loc("benchmarks/sw4lite/vel4sg-base/vel4sg_base.c":149:3)
#loc9 = loc("benchmarks/sw4lite/vel4sg-base/vel4sg_base.c":108:3)
#loc10 = loc("benchmarks/sw4lite/vel4sg-base/vel4sg_base.c":107:3)
#loc11 = loc("benchmarks/sw4lite/vel4sg-base/vel4sg_base.c":106:3)
#loc12 = loc("benchmarks/sw4lite/vel4sg-base/vel4sg_base.c":105:3)
#loc13 = loc("benchmarks/sw4lite/vel4sg-base/vel4sg_base.c":104:3)
#loc14 = loc("benchmarks/sw4lite/vel4sg-base/vel4sg_base.c":103:3)
#loc15 = loc("benchmarks/sw4lite/vel4sg-base/vel4sg_base.c":102:3)
#loc16 = loc("benchmarks/sw4lite/vel4sg-base/vel4sg_base.c":101:3)
#loc17 = loc("benchmarks/sw4lite/vel4sg-base/vel4sg_base.c":100:3)
#loc18 = loc("benchmarks/sw4lite/vel4sg-base/vel4sg_base.c":99:3)
#loc19 = loc("carts/.install/carts/include/arts/utils/benchmarks/CartsBenchmarks.h":54:34)
#loc20 = loc("carts/.install/carts/include/arts/utils/benchmarks/CartsBenchmarks.h":79:37)
#loc21 = loc("carts/.install/carts/include/arts/utils/benchmarks/CartsBenchmarks.h":95:41)
#loc22 = loc("benchmarks/sw4lite/vel4sg-base/vel4sg_base.c":99:17)
#loc23 = loc("benchmarks/sw4lite/vel4sg-base/vel4sg_base.c":99:40)
#loc24 = loc("benchmarks/sw4lite/vel4sg-base/vel4sg_base.c":99:38)
#loc25 = loc("benchmarks/sw4lite/vel4sg-base/vel4sg_base.c":100:17)
#loc26 = loc("benchmarks/sw4lite/vel4sg-base/vel4sg_base.c":100:40)
#loc27 = loc("benchmarks/sw4lite/vel4sg-base/vel4sg_base.c":100:38)
#loc28 = loc("benchmarks/sw4lite/vel4sg-base/vel4sg_base.c":101:17)
#loc29 = loc("benchmarks/sw4lite/vel4sg-base/vel4sg_base.c":101:40)
#loc30 = loc("benchmarks/sw4lite/vel4sg-base/vel4sg_base.c":101:38)
#loc31 = loc("benchmarks/sw4lite/vel4sg-base/vel4sg_base.c":102:18)
#loc32 = loc("benchmarks/sw4lite/vel4sg-base/vel4sg_base.c":102:41)
#loc33 = loc("benchmarks/sw4lite/vel4sg-base/vel4sg_base.c":102:39)
#loc34 = loc("benchmarks/sw4lite/vel4sg-base/vel4sg_base.c":103:18)
#loc35 = loc("benchmarks/sw4lite/vel4sg-base/vel4sg_base.c":103:41)
#loc36 = loc("benchmarks/sw4lite/vel4sg-base/vel4sg_base.c":103:39)
#loc37 = loc("benchmarks/sw4lite/vel4sg-base/vel4sg_base.c":104:18)
#loc38 = loc("benchmarks/sw4lite/vel4sg-base/vel4sg_base.c":104:41)
#loc39 = loc("benchmarks/sw4lite/vel4sg-base/vel4sg_base.c":104:39)
#loc40 = loc("benchmarks/sw4lite/vel4sg-base/vel4sg_base.c":105:18)
#loc41 = loc("benchmarks/sw4lite/vel4sg-base/vel4sg_base.c":105:41)
#loc42 = loc("benchmarks/sw4lite/vel4sg-base/vel4sg_base.c":105:39)
#loc43 = loc("benchmarks/sw4lite/vel4sg-base/vel4sg_base.c":106:18)
#loc44 = loc("benchmarks/sw4lite/vel4sg-base/vel4sg_base.c":106:41)
#loc45 = loc("benchmarks/sw4lite/vel4sg-base/vel4sg_base.c":106:39)
#loc46 = loc("benchmarks/sw4lite/vel4sg-base/vel4sg_base.c":107:18)
#loc47 = loc("benchmarks/sw4lite/vel4sg-base/vel4sg_base.c":107:41)
#loc48 = loc("benchmarks/sw4lite/vel4sg-base/vel4sg_base.c":107:39)
#loc49 = loc("benchmarks/sw4lite/vel4sg-base/vel4sg_base.c":108:18)
#loc50 = loc("benchmarks/sw4lite/vel4sg-base/vel4sg_base.c":108:41)
#loc51 = loc("benchmarks/sw4lite/vel4sg-base/vel4sg_base.c":108:39)
#loc52 = loc("benchmarks/sw4lite/vel4sg-base/vel4sg_base.c":111:5)
#loc53 = loc("benchmarks/sw4lite/vel4sg-base/vel4sg_base.c":111:13)
#loc54 = loc("benchmarks/sw4lite/vel4sg-base/vel4sg_base.c":111:35)
#loc55 = loc("benchmarks/sw4lite/vel4sg-base/vel4sg_base.c":111:33)
#loc56 = loc("benchmarks/sw4lite/vel4sg-base/vel4sg_base.c":112:5)
#loc57 = loc("benchmarks/sw4lite/vel4sg-base/vel4sg_base.c":112:13)
#loc58 = loc("benchmarks/sw4lite/vel4sg-base/vel4sg_base.c":112:35)
#loc59 = loc("benchmarks/sw4lite/vel4sg-base/vel4sg_base.c":112:33)
#loc60 = loc("benchmarks/sw4lite/vel4sg-base/vel4sg_base.c":113:5)
#loc61 = loc("benchmarks/sw4lite/vel4sg-base/vel4sg_base.c":113:13)
#loc62 = loc("benchmarks/sw4lite/vel4sg-base/vel4sg_base.c":113:35)
#loc63 = loc("benchmarks/sw4lite/vel4sg-base/vel4sg_base.c":113:33)
#loc64 = loc("benchmarks/sw4lite/vel4sg-base/vel4sg_base.c":114:5)
#loc65 = loc("benchmarks/sw4lite/vel4sg-base/vel4sg_base.c":114:14)
#loc66 = loc("benchmarks/sw4lite/vel4sg-base/vel4sg_base.c":114:36)
#loc67 = loc("benchmarks/sw4lite/vel4sg-base/vel4sg_base.c":114:34)
#loc68 = loc("benchmarks/sw4lite/vel4sg-base/vel4sg_base.c":115:5)
#loc69 = loc("benchmarks/sw4lite/vel4sg-base/vel4sg_base.c":115:14)
#loc70 = loc("benchmarks/sw4lite/vel4sg-base/vel4sg_base.c":115:36)
#loc71 = loc("benchmarks/sw4lite/vel4sg-base/vel4sg_base.c":115:34)
#loc72 = loc("benchmarks/sw4lite/vel4sg-base/vel4sg_base.c":116:5)
#loc73 = loc("benchmarks/sw4lite/vel4sg-base/vel4sg_base.c":116:14)
#loc74 = loc("benchmarks/sw4lite/vel4sg-base/vel4sg_base.c":116:36)
#loc75 = loc("benchmarks/sw4lite/vel4sg-base/vel4sg_base.c":116:34)
#loc76 = loc("benchmarks/sw4lite/vel4sg-base/vel4sg_base.c":117:5)
#loc77 = loc("benchmarks/sw4lite/vel4sg-base/vel4sg_base.c":117:14)
#loc78 = loc("benchmarks/sw4lite/vel4sg-base/vel4sg_base.c":117:36)
#loc79 = loc("benchmarks/sw4lite/vel4sg-base/vel4sg_base.c":117:34)
#loc80 = loc("benchmarks/sw4lite/vel4sg-base/vel4sg_base.c":118:5)
#loc81 = loc("benchmarks/sw4lite/vel4sg-base/vel4sg_base.c":118:14)
#loc82 = loc("benchmarks/sw4lite/vel4sg-base/vel4sg_base.c":118:36)
#loc83 = loc("benchmarks/sw4lite/vel4sg-base/vel4sg_base.c":118:34)
#loc84 = loc("benchmarks/sw4lite/vel4sg-base/vel4sg_base.c":119:5)
#loc85 = loc("benchmarks/sw4lite/vel4sg-base/vel4sg_base.c":119:14)
#loc86 = loc("benchmarks/sw4lite/vel4sg-base/vel4sg_base.c":119:36)
#loc87 = loc("benchmarks/sw4lite/vel4sg-base/vel4sg_base.c":119:34)
#loc88 = loc("benchmarks/sw4lite/vel4sg-base/vel4sg_base.c":120:5)
#loc89 = loc("benchmarks/sw4lite/vel4sg-base/vel4sg_base.c":120:14)
#loc90 = loc("benchmarks/sw4lite/vel4sg-base/vel4sg_base.c":120:36)
#loc91 = loc("benchmarks/sw4lite/vel4sg-base/vel4sg_base.c":120:34)
#loc92 = loc("benchmarks/sw4lite/vel4sg-base/vel4sg_base.c":122:18)
#loc93 = loc("benchmarks/sw4lite/vel4sg-base/vel4sg_base.c":122:39)
#loc94 = loc("benchmarks/sw4lite/vel4sg-base/vel4sg_base.c":122:37)
#loc95 = loc("benchmarks/sw4lite/vel4sg-base/vel4sg_base.c":123:18)
#loc96 = loc("benchmarks/sw4lite/vel4sg-base/vel4sg_base.c":123:39)
#loc97 = loc("benchmarks/sw4lite/vel4sg-base/vel4sg_base.c":123:37)
#loc98 = loc("benchmarks/sw4lite/vel4sg-base/vel4sg_base.c":124:18)
#loc99 = loc("benchmarks/sw4lite/vel4sg-base/vel4sg_base.c":124:39)
#loc100 = loc("benchmarks/sw4lite/vel4sg-base/vel4sg_base.c":124:37)
#loc101 = loc("benchmarks/sw4lite/vel4sg-base/vel4sg_base.c":125:19)
#loc102 = loc("benchmarks/sw4lite/vel4sg-base/vel4sg_base.c":125:40)
#loc103 = loc("benchmarks/sw4lite/vel4sg-base/vel4sg_base.c":125:38)
#loc104 = loc("benchmarks/sw4lite/vel4sg-base/vel4sg_base.c":126:19)
#loc105 = loc("benchmarks/sw4lite/vel4sg-base/vel4sg_base.c":126:40)
#loc106 = loc("benchmarks/sw4lite/vel4sg-base/vel4sg_base.c":126:38)
#loc107 = loc("benchmarks/sw4lite/vel4sg-base/vel4sg_base.c":127:19)
#loc108 = loc("benchmarks/sw4lite/vel4sg-base/vel4sg_base.c":127:40)
#loc109 = loc("benchmarks/sw4lite/vel4sg-base/vel4sg_base.c":127:38)
#loc110 = loc("benchmarks/sw4lite/vel4sg-base/vel4sg_base.c":128:19)
#loc111 = loc("benchmarks/sw4lite/vel4sg-base/vel4sg_base.c":128:40)
#loc112 = loc("benchmarks/sw4lite/vel4sg-base/vel4sg_base.c":128:38)
#loc113 = loc("benchmarks/sw4lite/vel4sg-base/vel4sg_base.c":129:19)
#loc114 = loc("benchmarks/sw4lite/vel4sg-base/vel4sg_base.c":129:40)
#loc115 = loc("benchmarks/sw4lite/vel4sg-base/vel4sg_base.c":129:38)
#loc116 = loc("benchmarks/sw4lite/vel4sg-base/vel4sg_base.c":130:19)
#loc117 = loc("benchmarks/sw4lite/vel4sg-base/vel4sg_base.c":130:40)
#loc118 = loc("benchmarks/sw4lite/vel4sg-base/vel4sg_base.c":130:38)
#loc119 = loc("benchmarks/sw4lite/vel4sg-base/vel4sg_base.c":131:19)
#loc120 = loc("benchmarks/sw4lite/vel4sg-base/vel4sg_base.c":131:40)
#loc121 = loc("benchmarks/sw4lite/vel4sg-base/vel4sg_base.c":131:38)
#loc123 = loc("benchmarks/sw4lite/vel4sg-base/vel4sg_base.c":111:11)
#loc124 = loc("benchmarks/sw4lite/vel4sg-base/vel4sg_base.c":112:11)
#loc125 = loc("benchmarks/sw4lite/vel4sg-base/vel4sg_base.c":113:11)
#loc126 = loc("benchmarks/sw4lite/vel4sg-base/vel4sg_base.c":114:12)
#loc127 = loc("benchmarks/sw4lite/vel4sg-base/vel4sg_base.c":115:12)
#loc128 = loc("benchmarks/sw4lite/vel4sg-base/vel4sg_base.c":116:12)
#loc129 = loc("benchmarks/sw4lite/vel4sg-base/vel4sg_base.c":117:12)
#loc130 = loc("benchmarks/sw4lite/vel4sg-base/vel4sg_base.c":118:12)
#loc131 = loc("benchmarks/sw4lite/vel4sg-base/vel4sg_base.c":119:12)
#loc132 = loc("benchmarks/sw4lite/vel4sg-base/vel4sg_base.c":120:12)
#loc133 = loc("benchmarks/sw4lite/vel4sg-base/vel4sg_base.c":122:7)
#loc134 = loc("benchmarks/sw4lite/vel4sg-base/vel4sg_base.c":123:7)
#loc135 = loc("benchmarks/sw4lite/vel4sg-base/vel4sg_base.c":124:7)
#loc136 = loc("benchmarks/sw4lite/vel4sg-base/vel4sg_base.c":125:7)
#loc137 = loc("benchmarks/sw4lite/vel4sg-base/vel4sg_base.c":126:7)
#loc138 = loc("benchmarks/sw4lite/vel4sg-base/vel4sg_base.c":127:7)
#loc139 = loc("benchmarks/sw4lite/vel4sg-base/vel4sg_base.c":128:7)
#loc140 = loc("benchmarks/sw4lite/vel4sg-base/vel4sg_base.c":129:7)
#loc141 = loc("benchmarks/sw4lite/vel4sg-base/vel4sg_base.c":130:7)
#loc142 = loc("benchmarks/sw4lite/vel4sg-base/vel4sg_base.c":131:7)
#loc144 = loc("benchmarks/sw4lite/vel4sg-base/vel4sg_base.c":122:16)
#loc145 = loc("benchmarks/sw4lite/vel4sg-base/vel4sg_base.c":123:16)
#loc146 = loc("benchmarks/sw4lite/vel4sg-base/vel4sg_base.c":124:16)
#loc147 = loc("benchmarks/sw4lite/vel4sg-base/vel4sg_base.c":125:17)
#loc148 = loc("benchmarks/sw4lite/vel4sg-base/vel4sg_base.c":126:17)
#loc149 = loc("benchmarks/sw4lite/vel4sg-base/vel4sg_base.c":127:17)
#loc150 = loc("benchmarks/sw4lite/vel4sg-base/vel4sg_base.c":128:17)
#loc151 = loc("benchmarks/sw4lite/vel4sg-base/vel4sg_base.c":129:17)
#loc152 = loc("benchmarks/sw4lite/vel4sg-base/vel4sg_base.c":130:17)
#loc153 = loc("benchmarks/sw4lite/vel4sg-base/vel4sg_base.c":131:17)
#loc154 = loc("benchmarks/sw4lite/vel4sg-base/vel4sg_base.c":135:8)
#loc155 = loc("benchmarks/sw4lite/vel4sg-base/vel4sg_base.c":135:12)
#loc156 = loc("benchmarks/sw4lite/vel4sg-base/vel4sg_base.c":135:16)
#loc157 = loc("benchmarks/sw4lite/vel4sg-base/vel4sg_base.c":135:20)
#loc158 = loc("benchmarks/sw4lite/vel4sg-base/vel4sg_base.c":135:25)
#loc159 = loc("benchmarks/sw4lite/vel4sg-base/vel4sg_base.c":135:30)
#loc160 = loc("benchmarks/sw4lite/vel4sg-base/vel4sg_base.c":135:35)
#loc161 = loc("benchmarks/sw4lite/vel4sg-base/vel4sg_base.c":135:40)
#loc162 = loc("benchmarks/sw4lite/vel4sg-base/vel4sg_base.c":135:45)
#loc163 = loc("benchmarks/sw4lite/vel4sg-base/vel4sg_base.c":135:50)
#loc164 = loc("benchmarks/sw4lite/vel4sg-base/vel4sg_base.c":135:3)
#loc165 = loc("carts/.install/carts/include/arts/utils/benchmarks/CartsBenchmarks.h":96:36)
#loc166 = loc("carts/.install/carts/include/arts/utils/benchmarks/CartsBenchmarks.h":139:40)
#loc167 = loc("carts/.install/carts/include/arts/utils/benchmarks/CartsBenchmarks.h":141:40)
#loc169 = loc("benchmarks/sw4lite/vel4sg-base/vel4sg_base.c":141:27)
#loc170 = loc("benchmarks/sw4lite/vel4sg-base/vel4sg_base.c":141:31)
#loc171 = loc("benchmarks/sw4lite/vel4sg-base/vel4sg_base.c":141:35)
#loc172 = loc("benchmarks/sw4lite/vel4sg-base/vel4sg_base.c":141:39)
#loc173 = loc("benchmarks/sw4lite/vel4sg-base/vel4sg_base.c":141:44)
#loc174 = loc("benchmarks/sw4lite/vel4sg-base/vel4sg_base.c":141:49)
#loc175 = loc("benchmarks/sw4lite/vel4sg-base/vel4sg_base.c":141:54)
#loc176 = loc("benchmarks/sw4lite/vel4sg-base/vel4sg_base.c":141:59)
#loc177 = loc("benchmarks/sw4lite/vel4sg-base/vel4sg_base.c":141:64)
#loc178 = loc("benchmarks/sw4lite/vel4sg-base/vel4sg_base.c":141:69)
#loc179 = loc("benchmarks/sw4lite/vel4sg-base/vel4sg_base.c":141:5)
#loc180 = loc("carts/.install/carts/include/arts/utils/benchmarks/CartsBenchmarks.h":142:40)
#loc181 = loc("carts/.install/carts/include/arts/utils/benchmarks/CartsBenchmarks.h":98:3)
#loc182 = loc("benchmarks/sw4lite/vel4sg-base/vel4sg_base.c":151:10)
#loc183 = loc("benchmarks/sw4lite/vel4sg-base/vel4sg_base.c":151:3)
#loc184 = loc("benchmarks/sw4lite/vel4sg-base/vel4sg_base.c":152:10)
#loc185 = loc("benchmarks/sw4lite/vel4sg-base/vel4sg_base.c":152:3)
#loc186 = loc("benchmarks/sw4lite/vel4sg-base/vel4sg_base.c":154:22)
#loc187 = loc("benchmarks/sw4lite/vel4sg-base/vel4sg_base.c":154:42)
#loc188 = loc("benchmarks/sw4lite/vel4sg-base/vel4sg_base.c":154:62)
#loc190 = loc("benchmarks/sw4lite/vel4sg-base/vel4sg_base.c":154:17)
#loc191 = loc("benchmarks/sw4lite/vel4sg-base/vel4sg_base.c":154:37)
#loc192 = loc("benchmarks/sw4lite/vel4sg-base/vel4sg_base.c":154:35)
#loc193 = loc("benchmarks/sw4lite/vel4sg-base/vel4sg_base.c":154:57)
#loc194 = loc("benchmarks/sw4lite/vel4sg-base/vel4sg_base.c":154:55)
#loc195 = loc("benchmarks/sw4lite/vel4sg-base/vel4sg_base.c":154:14)
#loc196 = loc("benchmarks/sw4lite/vel4sg-base/vel4sg_base.c":156:24)
#loc197 = loc("carts/.install/carts/include/arts/utils/benchmarks/CartsBenchmarks.h":251:3)
#loc198 = loc("carts/.install/carts/include/arts/utils/benchmarks/CartsBenchmarks.h":99:41)
#loc199 = loc("carts/.install/carts/include/arts/utils/benchmarks/CartsBenchmarks.h":100:41)
#loc200 = loc("benchmarks/sw4lite/vel4sg-base/vel4sg_base.c":165:12)
#loc201 = loc("benchmarks/sw4lite/vel4sg-base/vel4sg_base.c":166:12)
#loc202 = loc("benchmarks/sw4lite/vel4sg-base/vel4sg_base.c":167:12)
#loc203 = loc("benchmarks/sw4lite/vel4sg-base/vel4sg_base.c":168:12)
#loc204 = loc("benchmarks/sw4lite/vel4sg-base/vel4sg_base.c":169:12)
#loc205 = loc("benchmarks/sw4lite/vel4sg-base/vel4sg_base.c":170:12)
#loc206 = loc("benchmarks/sw4lite/vel4sg-base/vel4sg_base.c":171:12)
#loc207 = loc("benchmarks/sw4lite/vel4sg-base/vel4sg_base.c":172:12)
#loc208 = loc("benchmarks/sw4lite/vel4sg-base/vel4sg_base.c":173:12)
#loc209 = loc("benchmarks/sw4lite/vel4sg-base/vel4sg_base.c":174:12)
#loc212 = loc("benchmarks/sw4lite/vel4sg-base/vel4sg_base.c":165:7)
#loc213 = loc("benchmarks/sw4lite/vel4sg-base/vel4sg_base.c":166:7)
#loc214 = loc("benchmarks/sw4lite/vel4sg-base/vel4sg_base.c":167:7)
#loc215 = loc("benchmarks/sw4lite/vel4sg-base/vel4sg_base.c":168:7)
#loc216 = loc("benchmarks/sw4lite/vel4sg-base/vel4sg_base.c":169:7)
#loc217 = loc("benchmarks/sw4lite/vel4sg-base/vel4sg_base.c":170:7)
#loc218 = loc("benchmarks/sw4lite/vel4sg-base/vel4sg_base.c":171:7)
#loc219 = loc("benchmarks/sw4lite/vel4sg-base/vel4sg_base.c":172:7)
#loc220 = loc("benchmarks/sw4lite/vel4sg-base/vel4sg_base.c":173:7)
#loc221 = loc("benchmarks/sw4lite/vel4sg-base/vel4sg_base.c":174:7)
#loc222 = loc("benchmarks/sw4lite/vel4sg-base/vel4sg_base.c":176:10)
#loc223 = loc("benchmarks/sw4lite/vel4sg-base/vel4sg_base.c":176:5)
#loc224 = loc("benchmarks/sw4lite/vel4sg-base/vel4sg_base.c":177:10)
#loc225 = loc("benchmarks/sw4lite/vel4sg-base/vel4sg_base.c":177:5)
#loc226 = loc("benchmarks/sw4lite/vel4sg-base/vel4sg_base.c":178:10)
#loc227 = loc("benchmarks/sw4lite/vel4sg-base/vel4sg_base.c":178:5)
#loc228 = loc("benchmarks/sw4lite/vel4sg-base/vel4sg_base.c":179:10)
#loc229 = loc("benchmarks/sw4lite/vel4sg-base/vel4sg_base.c":179:5)
#loc230 = loc("benchmarks/sw4lite/vel4sg-base/vel4sg_base.c":180:10)
#loc231 = loc("benchmarks/sw4lite/vel4sg-base/vel4sg_base.c":180:5)
#loc232 = loc("benchmarks/sw4lite/vel4sg-base/vel4sg_base.c":181:10)
#loc233 = loc("benchmarks/sw4lite/vel4sg-base/vel4sg_base.c":181:5)
#loc234 = loc("benchmarks/sw4lite/vel4sg-base/vel4sg_base.c":182:10)
#loc235 = loc("benchmarks/sw4lite/vel4sg-base/vel4sg_base.c":182:5)
#loc236 = loc("benchmarks/sw4lite/vel4sg-base/vel4sg_base.c":183:10)
#loc237 = loc("benchmarks/sw4lite/vel4sg-base/vel4sg_base.c":183:5)
#loc238 = loc("benchmarks/sw4lite/vel4sg-base/vel4sg_base.c":184:10)
#loc239 = loc("benchmarks/sw4lite/vel4sg-base/vel4sg_base.c":184:5)
#loc240 = loc("benchmarks/sw4lite/vel4sg-base/vel4sg_base.c":185:10)
#loc241 = loc("benchmarks/sw4lite/vel4sg-base/vel4sg_base.c":185:5)
#loc242 = loc("benchmarks/sw4lite/vel4sg-base/vel4sg_base.c":187:3)
#loc243 = loc("benchmarks/sw4lite/vel4sg-base/vel4sg_base.c":188:3)
#loc244 = loc("benchmarks/sw4lite/vel4sg-base/vel4sg_base.c":189:3)
#loc245 = loc("benchmarks/sw4lite/vel4sg-base/vel4sg_base.c":190:3)
#loc246 = loc("benchmarks/sw4lite/vel4sg-base/vel4sg_base.c":191:3)
#loc247 = loc("benchmarks/sw4lite/vel4sg-base/vel4sg_base.c":192:3)
#loc248 = loc("benchmarks/sw4lite/vel4sg-base/vel4sg_base.c":193:3)
#loc249 = loc("benchmarks/sw4lite/vel4sg-base/vel4sg_base.c":194:3)
#loc250 = loc("benchmarks/sw4lite/vel4sg-base/vel4sg_base.c":195:3)
#loc251 = loc("benchmarks/sw4lite/vel4sg-base/vel4sg_base.c":196:3)
#loc252 = loc("carts/.install/carts/include/arts/utils/benchmarks/CartsBenchmarks.h":101:36)
#loc253 = loc("carts/.install/carts/include/arts/utils/benchmarks/CartsBenchmarks.h":80:32)
#loc254 = loc("benchmarks/sw4lite/vel4sg-base/vel4sg_base.c":203:1)
#loc255 = loc("carts/.install/carts/include/arts/utils/benchmarks/CartsBenchmarks.h":50:6)
#loc256 = loc("carts/.install/carts/include/arts/utils/benchmarks/CartsBenchmarks.h":74:6)
#loc257 = loc("carts/.install/carts/include/arts/utils/benchmarks/CartsBenchmarks.h":90:6)
#loc259 = loc("benchmarks/sw4lite/vel4sg-base/vel4sg_base.c":24:1)
#loc260 = loc("benchmarks/sw4lite/vel4sg-base/vel4sg_base.c":29:12)
#loc261 = loc("benchmarks/sw4lite/vel4sg-base/vel4sg_base.c":26:3)
#loc263 = loc("benchmarks/sw4lite/vel4sg-base/vel4sg_base.c":30:9)
#loc264 = loc("benchmarks/sw4lite/vel4sg-base/vel4sg_base.c":31:9)
#loc265 = loc("benchmarks/sw4lite/vel4sg-base/vel4sg_base.c":32:9)
#loc266 = loc("benchmarks/sw4lite/vel4sg-base/vel4sg_base.c":33:9)
#loc267 = loc("benchmarks/sw4lite/vel4sg-base/vel4sg_base.c":34:9)
#loc268 = loc("benchmarks/sw4lite/vel4sg-base/vel4sg_base.c":35:9)
#loc269 = loc("benchmarks/sw4lite/vel4sg-base/vel4sg_base.c":36:9)
#loc270 = loc("benchmarks/sw4lite/vel4sg-base/vel4sg_base.c":37:9)
#loc271 = loc("benchmarks/sw4lite/vel4sg-base/vel4sg_base.c":38:9)
#loc272 = loc("benchmarks/sw4lite/vel4sg-base/vel4sg_base.c":39:9)
#loc274 = loc("benchmarks/sw4lite/vel4sg-base/vel4sg_base.c":29:7)
#loc275 = loc("benchmarks/sw4lite/vel4sg-base/vel4sg_base.c":30:21)
#loc276 = loc("benchmarks/sw4lite/vel4sg-base/vel4sg_base.c":31:21)
#loc277 = loc("benchmarks/sw4lite/vel4sg-base/vel4sg_base.c":32:21)
#loc278 = loc("benchmarks/sw4lite/vel4sg-base/vel4sg_base.c":33:42)
#loc279 = loc("benchmarks/sw4lite/vel4sg-base/vel4sg_base.c":33:46)
#loc280 = loc("benchmarks/sw4lite/vel4sg-base/vel4sg_base.c":33:34)
#loc281 = loc("benchmarks/sw4lite/vel4sg-base/vel4sg_base.c":33:32)
#loc282 = loc("benchmarks/sw4lite/vel4sg-base/vel4sg_base.c":33:22)
#loc283 = loc("benchmarks/sw4lite/vel4sg-base/vel4sg_base.c":34:41)
#loc284 = loc("benchmarks/sw4lite/vel4sg-base/vel4sg_base.c":34:45)
#loc285 = loc("benchmarks/sw4lite/vel4sg-base/vel4sg_base.c":34:50)
#loc286 = loc("benchmarks/sw4lite/vel4sg-base/vel4sg_base.c":34:32)
#loc287 = loc("benchmarks/sw4lite/vel4sg-base/vel4sg_base.c":34:30)
#loc288 = loc("benchmarks/sw4lite/vel4sg-base/vel4sg_base.c":34:22)
#loc289 = loc("benchmarks/sw4lite/vel4sg-base/vel4sg_base.c":35:41)
#loc290 = loc("benchmarks/sw4lite/vel4sg-base/vel4sg_base.c":35:45)
#loc291 = loc("benchmarks/sw4lite/vel4sg-base/vel4sg_base.c":35:51)
#loc292 = loc("benchmarks/sw4lite/vel4sg-base/vel4sg_base.c":35:32)
#loc293 = loc("benchmarks/sw4lite/vel4sg-base/vel4sg_base.c":35:30)
#loc294 = loc("benchmarks/sw4lite/vel4sg-base/vel4sg_base.c":35:22)
#loc295 = loc("benchmarks/sw4lite/vel4sg-base/vel4sg_base.c":36:41)
#loc296 = loc("benchmarks/sw4lite/vel4sg-base/vel4sg_base.c":36:45)
#loc297 = loc("benchmarks/sw4lite/vel4sg-base/vel4sg_base.c":36:51)
#loc298 = loc("benchmarks/sw4lite/vel4sg-base/vel4sg_base.c":36:32)
#loc299 = loc("benchmarks/sw4lite/vel4sg-base/vel4sg_base.c":36:30)
#loc300 = loc("benchmarks/sw4lite/vel4sg-base/vel4sg_base.c":36:22)
#loc301 = loc("benchmarks/sw4lite/vel4sg-base/vel4sg_base.c":37:42)
#loc302 = loc("benchmarks/sw4lite/vel4sg-base/vel4sg_base.c":37:46)
#loc303 = loc("benchmarks/sw4lite/vel4sg-base/vel4sg_base.c":37:51)
#loc304 = loc("benchmarks/sw4lite/vel4sg-base/vel4sg_base.c":37:33)
#loc305 = loc("benchmarks/sw4lite/vel4sg-base/vel4sg_base.c":37:31)
#loc306 = loc("benchmarks/sw4lite/vel4sg-base/vel4sg_base.c":37:22)
#loc307 = loc("benchmarks/sw4lite/vel4sg-base/vel4sg_base.c":38:42)
#loc308 = loc("benchmarks/sw4lite/vel4sg-base/vel4sg_base.c":38:46)
#loc309 = loc("benchmarks/sw4lite/vel4sg-base/vel4sg_base.c":38:51)
#loc310 = loc("benchmarks/sw4lite/vel4sg-base/vel4sg_base.c":38:33)
#loc311 = loc("benchmarks/sw4lite/vel4sg-base/vel4sg_base.c":38:31)
#loc312 = loc("benchmarks/sw4lite/vel4sg-base/vel4sg_base.c":38:22)
#loc313 = loc("benchmarks/sw4lite/vel4sg-base/vel4sg_base.c":39:42)
#loc314 = loc("benchmarks/sw4lite/vel4sg-base/vel4sg_base.c":39:46)
#loc315 = loc("benchmarks/sw4lite/vel4sg-base/vel4sg_base.c":39:51)
#loc316 = loc("benchmarks/sw4lite/vel4sg-base/vel4sg_base.c":39:33)
#loc317 = loc("benchmarks/sw4lite/vel4sg-base/vel4sg_base.c":39:31)
#loc318 = loc("benchmarks/sw4lite/vel4sg-base/vel4sg_base.c":39:22)
#loc319 = loc("benchmarks/sw4lite/vel4sg-base/vel4sg_base.c":40:12)
#loc320 = loc("benchmarks/sw4lite/vel4sg-base/vel4sg_base.c":44:1)
#loc321 = loc("carts/.install/carts/include/arts/utils/benchmarks/CartsBenchmarks.h":93:6)
#loc322 = loc("carts/.install/carts/include/arts/utils/benchmarks/CartsBenchmarks.h":128:6)
#loc324 = loc("benchmarks/sw4lite/vel4sg-base/vel4sg_base.c":58:1)
#loc325 = loc("benchmarks/sw4lite/vel4sg-base/vel4sg_base.c":67:1)
#loc326 = loc("benchmarks/sw4lite/vel4sg-base/vel4sg_base.c":79:9)
#loc327 = loc("benchmarks/sw4lite/vel4sg-base/vel4sg_base.c":76:9)
#loc328 = loc("benchmarks/sw4lite/vel4sg-base/vel4sg_base.c":73:9)
#loc329 = loc("benchmarks/sw4lite/vel4sg-base/vel4sg_base.c":71:9)
#loc330 = loc("benchmarks/sw4lite/vel4sg-base/vel4sg_base.c":69:5)
#loc331 = loc("benchmarks/sw4lite/vel4sg-base/vel4sg_base.c":70:7)
#loc332 = loc("benchmarks/sw4lite/vel4sg-base/vel4sg_base.c":71:38)
#loc333 = loc("benchmarks/sw4lite/vel4sg-base/vel4sg_base.c":71:36)
#loc334 = loc("benchmarks/sw4lite/vel4sg-base/vel4sg_base.c":73:30)
#loc335 = loc("benchmarks/sw4lite/vel4sg-base/vel4sg_base.c":74:30)
#loc336 = loc("benchmarks/sw4lite/vel4sg-base/vel4sg_base.c":73:57)
#loc337 = loc("benchmarks/sw4lite/vel4sg-base/vel4sg_base.c":75:30)
#loc338 = loc("benchmarks/sw4lite/vel4sg-base/vel4sg_base.c":74:57)
#loc339 = loc("benchmarks/sw4lite/vel4sg-base/vel4sg_base.c":76:30)
#loc340 = loc("benchmarks/sw4lite/vel4sg-base/vel4sg_base.c":77:30)
#loc341 = loc("benchmarks/sw4lite/vel4sg-base/vel4sg_base.c":76:57)
#loc342 = loc("benchmarks/sw4lite/vel4sg-base/vel4sg_base.c":78:30)
#loc343 = loc("benchmarks/sw4lite/vel4sg-base/vel4sg_base.c":77:57)
#loc344 = loc("benchmarks/sw4lite/vel4sg-base/vel4sg_base.c":79:30)
#loc345 = loc("benchmarks/sw4lite/vel4sg-base/vel4sg_base.c":80:30)
#loc346 = loc("benchmarks/sw4lite/vel4sg-base/vel4sg_base.c":79:57)
#loc347 = loc("benchmarks/sw4lite/vel4sg-base/vel4sg_base.c":81:30)
#loc348 = loc("benchmarks/sw4lite/vel4sg-base/vel4sg_base.c":80:57)
#loc349 = loc("benchmarks/sw4lite/vel4sg-base/vel4sg_base.c":83:9)
#loc350 = loc("benchmarks/sw4lite/vel4sg-base/vel4sg_base.c":83:29)
#loc351 = loc("benchmarks/sw4lite/vel4sg-base/vel4sg_base.c":83:27)
#loc352 = loc("benchmarks/sw4lite/vel4sg-base/vel4sg_base.c":83:39)
#loc353 = loc("benchmarks/sw4lite/vel4sg-base/vel4sg_base.c":83:37)
#loc354 = loc("benchmarks/sw4lite/vel4sg-base/vel4sg_base.c":83:21)
#loc355 = loc("benchmarks/sw4lite/vel4sg-base/vel4sg_base.c":84:9)
#loc356 = loc("benchmarks/sw4lite/vel4sg-base/vel4sg_base.c":84:29)
#loc357 = loc("benchmarks/sw4lite/vel4sg-base/vel4sg_base.c":84:27)
#loc358 = loc("benchmarks/sw4lite/vel4sg-base/vel4sg_base.c":84:39)
#loc359 = loc("benchmarks/sw4lite/vel4sg-base/vel4sg_base.c":84:37)
#loc360 = loc("benchmarks/sw4lite/vel4sg-base/vel4sg_base.c":84:21)
#loc361 = loc("benchmarks/sw4lite/vel4sg-base/vel4sg_base.c":85:9)
#loc362 = loc("benchmarks/sw4lite/vel4sg-base/vel4sg_base.c":85:29)
#loc363 = loc("benchmarks/sw4lite/vel4sg-base/vel4sg_base.c":85:27)
#loc364 = loc("benchmarks/sw4lite/vel4sg-base/vel4sg_base.c":85:39)
#loc365 = loc("benchmarks/sw4lite/vel4sg-base/vel4sg_base.c":85:37)
#loc366 = loc("benchmarks/sw4lite/vel4sg-base/vel4sg_base.c":85:21)
#loc367 = loc("benchmarks/sw4lite/vel4sg-base/vel4sg_base.c":89:1)
#loc368 = loc("carts/.install/carts/include/arts/utils/benchmarks/CartsBenchmarks.h":134:6)
#loc369 = loc("carts/.install/carts/include/arts/utils/benchmarks/CartsBenchmarks.h":137:6)
#loc370 = loc("carts/.install/carts/include/arts/utils/benchmarks/CartsBenchmarks.h":207:6)
#loc371 = loc("carts/.install/carts/include/arts/utils/benchmarks/CartsBenchmarks.h":77:6)
#loc373 = loc("benchmarks/sw4lite/vel4sg-base/vel4sg_base.c":46:1)
#loc374 = loc("benchmarks/sw4lite/vel4sg-base/vel4sg_base.c":47:24)
#loc375 = loc("benchmarks/sw4lite/vel4sg-base/vel4sg_base.c":47:27)
#loc376 = loc("benchmarks/sw4lite/vel4sg-base/vel4sg_base.c":47:18)
#loc377 = loc("benchmarks/sw4lite/vel4sg-base/vel4sg_base.c":47:30)
#loc378 = loc("benchmarks/sw4lite/vel4sg-base/vel4sg_base.c":47:33)
#loc379 = loc("benchmarks/sw4lite/vel4sg-base/vel4sg_base.c":47:43)
#loc380 = loc("benchmarks/sw4lite/vel4sg-base/vel4sg_base.c":47:46)
#loc381 = loc("benchmarks/sw4lite/vel4sg-base/vel4sg_base.c":47:37)
#loc382 = loc("benchmarks/sw4lite/vel4sg-base/vel4sg_base.c":47:35)
#loc383 = loc("benchmarks/sw4lite/vel4sg-base/vel4sg_base.c":47:15)
#loc384 = loc("benchmarks/sw4lite/vel4sg-base/vel4sg_base.c":48:1)
#loc386 = loc("benchmarks/sw4lite/vel4sg-base/vel4sg_base.c":50:1)
#loc387 = loc("benchmarks/sw4lite/vel4sg-base/vel4sg_base.c":51:23)
#loc388 = loc("benchmarks/sw4lite/vel4sg-base/vel4sg_base.c":51:18)
#loc389 = loc("benchmarks/sw4lite/vel4sg-base/vel4sg_base.c":51:27)
#loc390 = loc("benchmarks/sw4lite/vel4sg-base/vel4sg_base.c":51:30)
#loc391 = loc("benchmarks/sw4lite/vel4sg-base/vel4sg_base.c":51:33)
#loc392 = loc("benchmarks/sw4lite/vel4sg-base/vel4sg_base.c":51:46)
#loc393 = loc("benchmarks/sw4lite/vel4sg-base/vel4sg_base.c":51:49)
#loc394 = loc("benchmarks/sw4lite/vel4sg-base/vel4sg_base.c":51:37)
#loc395 = loc("benchmarks/sw4lite/vel4sg-base/vel4sg_base.c":51:35)
#loc396 = loc("benchmarks/sw4lite/vel4sg-base/vel4sg_base.c":51:15)
#loc397 = loc("benchmarks/sw4lite/vel4sg-base/vel4sg_base.c":52:1)
#loc399 = loc("benchmarks/sw4lite/vel4sg-base/vel4sg_base.c":54:1)
#loc400 = loc("benchmarks/sw4lite/vel4sg-base/vel4sg_base.c":55:23)
#loc401 = loc("benchmarks/sw4lite/vel4sg-base/vel4sg_base.c":55:18)
#loc402 = loc("benchmarks/sw4lite/vel4sg-base/vel4sg_base.c":55:26)
#loc403 = loc("benchmarks/sw4lite/vel4sg-base/vel4sg_base.c":55:30)
#loc404 = loc("benchmarks/sw4lite/vel4sg-base/vel4sg_base.c":55:33)
#loc405 = loc("benchmarks/sw4lite/vel4sg-base/vel4sg_base.c":55:49)
#loc406 = loc("benchmarks/sw4lite/vel4sg-base/vel4sg_base.c":55:52)
#loc407 = loc("benchmarks/sw4lite/vel4sg-base/vel4sg_base.c":55:37)
#loc408 = loc("benchmarks/sw4lite/vel4sg-base/vel4sg_base.c":55:35)
#loc409 = loc("benchmarks/sw4lite/vel4sg-base/vel4sg_base.c":55:15)
#loc410 = loc("benchmarks/sw4lite/vel4sg-base/vel4sg_base.c":56:1)
