cgeist smith-waterman.c -fopenmp -O0 -S -I//usr/lib/llvm-14/lib/clang/14.0.0/include > smith-waterman.mlir
VariableArrayType 0x55d354b9e7c0 'int[len2 + 1]' variably_modified  
|-BuiltinType 0x55d354a5ade0 'int'
`-BinaryOperator 0x55d354b9e780 'int' '+'
  |-ImplicitCastExpr 0x55d354b9e768 'int' <LValueToRValue>
  | `-DeclRefExpr 0x55d354b9e728 'int' lvalue Var 0x55d354b9e530 'len2' 'int'
  `-IntegerLiteral 0x55d354b9e748 'int' 1
VariableArrayType 0x55d354b9ea10 'int[len2 + 1]' variably_modified  
|-BuiltinType 0x55d354a5ade0 'int'
`-BinaryOperator 0x55d354b9e9d0 'int' '+'
  |-ImplicitCastExpr 0x55d354b9e9b8 'int' <LValueToRValue>
  | `-DeclRefExpr 0x55d354b9e978 'int' lvalue Var 0x55d354b9e530 'len2' 'int'
  `-IntegerLiteral 0x55d354b9e998 'int' 1
carts smith-waterman.mlir -O3 -emit-llvm -o smith-waterman.ll
error: 'memref.load' op incorrect number of indices for load
Error when running ARTS Passes"builtin.module"() ({
  "func.func"() <{function_type = (i32, memref<?xmemref<?xi8>>) -> i32, sym_name = "artsRT", sym_visibility = "private"}> ({
  }) {llvm.linkage = #llvm.linkage<external>} : () -> ()
  "func.func"() <{function_type = () -> (), sym_name = "artsShutdown", sym_visibility = "private"}> ({
  }) {llvm.linkage = #llvm.linkage<external>} : () -> ()
  "func.func"() <{function_type = (i64, i64) -> (), sym_name = "artsPersistentEventIncrementLatch", sym_visibility = "private"}> ({
  }) {llvm.linkage = #llvm.linkage<external>} : () -> ()
  "func.func"() <{function_type = (i64, i64) -> (), sym_name = "artsPersistentEventDecrementLatch", sym_visibility = "private"}> ({
  }) {llvm.linkage = #llvm.linkage<external>} : () -> ()
  "func.func"() <{function_type = () -> i64, sym_name = "artsGetCurrentEpochGuid", sym_visibility = "private"}> ({
  }) {llvm.linkage = #llvm.linkage<external>} : () -> ()
  "func.func"() <{function_type = (i64, i64, i32, i64) -> (), sym_name = "artsAddDependenceToPersistentEvent", sym_visibility = "private"}> ({
  }) {llvm.linkage = #llvm.linkage<external>} : () -> ()
  "func.func"() <{function_type = () -> i64, sym_name = "artsGetCurrentGuid", sym_visibility = "private"}> ({
  }) {llvm.linkage = #llvm.linkage<external>, llvm.nounwind, llvm.readnone} : () -> ()
  "func.func"() <{function_type = (memref<?x!llvm.func<void (i32, memref<?xi64>, i32, memref<?x!llvm.struct<(i64, i32, ptr)>>)>>, i32, i32, memref<?xi64>, i32, i64) -> i64, sym_name = "artsEdtCreateWithEpoch", sym_visibility = "private"}> ({
  }) {llvm.linkage = #llvm.linkage<external>} : () -> ()
  "func.func"() <{function_type = (i32, i32, i64) -> i64, sym_name = "artsPersistentEventCreate", sym_visibility = "private"}> ({
  }) {llvm.linkage = #llvm.linkage<external>} : () -> ()
  "func.func"() <{function_type = (i64) -> i1, sym_name = "artsWaitOnHandle", sym_visibility = "private"}> ({
  }) {llvm.linkage = #llvm.linkage<external>} : () -> ()
  "func.func"() <{function_type = (i64, i32) -> i64, sym_name = "artsInitializeAndStartEpoch", sym_visibility = "private"}> ({
  }) {llvm.linkage = #llvm.linkage<external>} : () -> ()
  "func.func"() <{function_type = (memref<?x!llvm.func<void (i32, memref<?xi64>, i32, memref<?x!llvm.struct<(i64, i32, ptr)>>)>>, i32, i32, memref<?xi64>, i32) -> i64, sym_name = "artsEdtCreate", sym_visibility = "private"}> ({
  }) {llvm.linkage = #llvm.linkage<external>} : () -> ()
  "func.func"() <{function_type = (i64, i64) -> memref<?xi8>, sym_name = "artsDbCreateWithGuid", sym_visibility = "private"}> ({
  }) {llvm.linkage = #llvm.linkage<external>} : () -> ()
  "func.func"() <{function_type = (i32, i32) -> i64, sym_name = "artsReserveGuidRoute", sym_visibility = "private"}> ({
  }) {llvm.linkage = #llvm.linkage<external>} : () -> ()
  "func.func"() <{function_type = () -> i32, sym_name = "artsGetCurrentNode", sym_visibility = "private"}> ({
  }) {llvm.linkage = #llvm.linkage<external>, llvm.nounwind, llvm.readnone} : () -> ()
  "llvm.mlir.global"() <{addr_space = 0 : i32, constant, global_type = !llvm.array<23 x i8>, linkage = #llvm.linkage<internal>, sym_name = "str12", unnamed_addr = 0 : i64, value = "Results DO NOT match!\0A\00", visibility_ = 0 : i64}> ({
  }) : () -> ()
  "llvm.mlir.global"() <{addr_space = 0 : i32, constant, global_type = !llvm.array<16 x i8>, linkage = #llvm.linkage<internal>, sym_name = "str11", unnamed_addr = 0 : i64, value = "Results match!\0A\00", visibility_ = 0 : i64}> ({
  }) : () -> ()
  "llvm.mlir.global"() <{addr_space = 0 : i32, constant, global_type = !llvm.array<50 x i8>, linkage = #llvm.linkage<internal>, sym_name = "str10", unnamed_addr = 0 : i64, value = "Mismatch at (%d, %d): Parallel=%d, Sequential=%d\0A\00", visibility_ = 0 : i64}> ({
  }) : () -> ()
  "llvm.mlir.global"() <{addr_space = 0 : i32, constant, global_type = !llvm.array<26 x i8>, linkage = #llvm.linkage<internal>, sym_name = "str9", unnamed_addr = 0 : i64, value = "Sequential Score Matrix:\0A\00", visibility_ = 0 : i64}> ({
  }) : () -> ()
  "llvm.mlir.global"() <{addr_space = 0 : i32, constant, global_type = !llvm.array<2 x i8>, linkage = #llvm.linkage<internal>, sym_name = "str8", unnamed_addr = 0 : i64, value = "\0A\00", visibility_ = 0 : i64}> ({
  }) : () -> ()
  "llvm.mlir.global"() <{addr_space = 0 : i32, constant, global_type = !llvm.array<4 x i8>, linkage = #llvm.linkage<internal>, sym_name = "str7", unnamed_addr = 0 : i64, value = "%d \00", visibility_ = 0 : i64}> ({
  }) : () -> ()
  "llvm.mlir.global"() <{addr_space = 0 : i32, constant, global_type = !llvm.array<24 x i8>, linkage = #llvm.linkage<internal>, sym_name = "str6", unnamed_addr = 0 : i64, value = "Parallel Score Matrix:\0A\00", visibility_ = 0 : i64}> ({
  }) : () -> ()
  "llvm.mlir.global"() <{addr_space = 0 : i32, constant, global_type = !llvm.array<22 x i8>, linkage = #llvm.linkage<internal>, sym_name = "str5", unnamed_addr = 0 : i64, value = "Process has finished\0A\00", visibility_ = 0 : i64}> ({
  }) : () -> ()
  "llvm.mlir.global"() <{addr_space = 0 : i32, constant, global_type = !llvm.array<29 x i8>, linkage = #llvm.linkage<internal>, sym_name = "str4", unnamed_addr = 0 : i64, value = "Running task for i=%d, j=%d\0A\00", visibility_ = 0 : i64}> ({
  }) : () -> ()
  "llvm.mlir.global"() <{addr_space = 0 : i32, constant, global_type = !llvm.array<10 x i8>, linkage = #llvm.linkage<internal>, sym_name = "str3", unnamed_addr = 0 : i64, value = "seq2: %s\0A\00", visibility_ = 0 : i64}> ({
  }) : () -> ()
  "llvm.mlir.global"() <{addr_space = 0 : i32, constant, global_type = !llvm.array<10 x i8>, linkage = #llvm.linkage<internal>, sym_name = "str2", unnamed_addr = 0 : i64, value = "seq1: %s\0A\00", visibility_ = 0 : i64}> ({
  }) : () -> ()
  "llvm.func"() <{CConv = #llvm.cconv<ccc>, function_type = !llvm.func<i32 (ptr, ...)>, linkage = #llvm.linkage<external>, sym_name = "printf", unnamed_addr = 0 : i64, visibility_ = 0 : i64}> ({
  }) : () -> ()
  "llvm.mlir.global"() <{addr_space = 0 : i32, constant, global_type = !llvm.array<8 x i8>, linkage = #llvm.linkage<internal>, sym_name = "str1", unnamed_addr = 0 : i64, value = "TATGCGC\00", visibility_ = 0 : i64}> ({
  }) : () -> ()
  "llvm.mlir.global"() <{addr_space = 0 : i32, constant, global_type = !llvm.array<9 x i8>, linkage = #llvm.linkage<internal>, sym_name = "str0", unnamed_addr = 0 : i64, value = "AGTACGCA\00", visibility_ = 0 : i64}> ({
  }) : () -> ()
  "func.func"() <{function_type = () -> i32, sym_name = "mainBody"}> ({
    %0 = "arith.constant"() <{value = 4 : index}> : () -> index
    %1 = "arith.constant"() <{value = 9 : index}> : () -> index
    %2 = "arith.constant"() <{value = 1 : index}> : () -> index
    %3 = "arith.constant"() <{value = 8 : index}> : () -> index
    %4 = "arith.constant"() <{value = 7 : index}> : () -> index
    %5 = "arith.constant"() <{value = 6 : index}> : () -> index
    %6 = "arith.constant"() <{value = 5 : index}> : () -> index
    %7 = "arith.constant"() <{value = 3 : index}> : () -> index
    %8 = "arith.constant"() <{value = 2 : index}> : () -> index
    %9 = "arith.constant"() <{value = 0 : index}> : () -> index
    %10 = "arith.constant"() <{value = 1 : i32}> : () -> i32
    %11 = "arith.constant"() <{value = 0 : i32}> : () -> i32
    %12 = "arith.constant"() <{value = -2 : i32}> : () -> i32
    %13 = "arith.constant"() <{value = -1 : i32}> : () -> i32
    %14 = "arith.constant"() <{value = 2 : i32}> : () -> i32
    %15 = "func.call"() <{callee = @artsGetCurrentNode}> : () -> i32
    %16 = "memref.alloca"() <{operandSegmentSizes = array<i32: 0, 0>}> : () -> memref<i64>
    %17 = "arith.constant"() <{value = 0 : i32}> : () -> i32
    %18 = "arith.constant"() <{value = 0 : i64}> : () -> i64
    %19 = "func.call"(%15, %17, %18) <{callee = @artsPersistentEventCreate}> : (i32, i32, i64) -> i64
    "memref.store"(%19, %16) <{nontemporal = false}> : (i64, memref<i64>) -> ()
    %20 = "func.call"() <{callee = @artsGetCurrentNode}> : () -> i32
    %21 = "arith.index_cast"(%3) : (index) -> i64
    %22 = "arith.constant"() <{value = 8 : i32}> : () -> i32
    %23 = "func.call"(%22, %20) <{callee = @artsReserveGuidRoute}> : (i32, i32) -> i64
    %24 = "func.call"(%23, %21) <{callee = @artsDbCreateWithGuid}> : (i64, i64) -> memref<?xi8>
    %25 = "func.call"() <{callee = @artsGetCurrentNode}> : () -> i32
    %26 = "memref.alloca"() <{operandSegmentSizes = array<i32: 0, 0>}> : () -> memref<i64>
    %27 = "arith.constant"() <{value = 0 : i32}> : () -> i32
    %28 = "arith.constant"() <{value = 0 : i64}> : () -> i64
    %29 = "func.call"(%25, %27, %28) <{callee = @artsPersistentEventCreate}> : (i32, i32, i64) -> i64
    "memref.store"(%29, %26) <{nontemporal = false}> : (i64, memref<i64>) -> ()
    %30 = "func.call"() <{callee = @artsGetCurrentNode}> : () -> i32
    %31 = "arith.index_cast"(%1) : (index) -> i64
    %32 = "arith.constant"() <{value = 8 : i32}> : () -> i32
    %33 = "func.call"(%32, %30) <{callee = @artsReserveGuidRoute}> : (i32, i32) -> i64
    %34 = "func.call"(%33, %31) <{callee = @artsDbCreateWithGuid}> : (i64, i64) -> memref<?xi8>
    %35 = "llvm.mlir.addressof"() <{global_name = @str0}> : () -> !llvm.ptr
    %36 = "llvm.getelementptr"(%35) <{elem_type = !llvm.array<9 x i8>, rawConstantIndices = array<i32: 0, 0>}> : (!llvm.ptr) -> !llvm.ptr
    %37 = "llvm.load"(%36) <{ordering = 0 : i64}> : (!llvm.ptr) -> i8
    %38 = "polygeist.subindex"(%34, %9) : (memref<?xi8>, index) -> memref<memref<?xi8>>
    %39 = "polygeist.memref2pointer"(%38) : (memref<memref<?xi8>>) -> !llvm.ptr
    "llvm.store"(%37, %39) <{ordering = 0 : i64}> : (i8, !llvm.ptr) -> ()
    %40 = "llvm.getelementptr"(%35) <{elem_type = !llvm.array<9 x i8>, rawConstantIndices = array<i32: 0, 1>}> : (!llvm.ptr) -> !llvm.ptr
    %41 = "llvm.load"(%40) <{ordering = 0 : i64}> : (!llvm.ptr) -> i8
    %42 = "polygeist.subindex"(%34, %2) : (memref<?xi8>, index) -> memref<memref<?xi8>>
    %43 = "polygeist.memref2pointer"(%42) : (memref<memref<?xi8>>) -> !llvm.ptr
    "llvm.store"(%41, %43) <{ordering = 0 : i64}> : (i8, !llvm.ptr) -> ()
    %44 = "llvm.getelementptr"(%35) <{elem_type = !llvm.array<9 x i8>, rawConstantIndices = array<i32: 0, 2>}> : (!llvm.ptr) -> !llvm.ptr
    %45 = "llvm.load"(%44) <{ordering = 0 : i64}> : (!llvm.ptr) -> i8
    %46 = "polygeist.subindex"(%34, %8) : (memref<?xi8>, index) -> memref<memref<?xi8>>
    %47 = "polygeist.memref2pointer"(%46) : (memref<memref<?xi8>>) -> !llvm.ptr
    "llvm.store"(%45, %47) <{ordering = 0 : i64}> : (i8, !llvm.ptr) -> ()
    %48 = "llvm.getelementptr"(%35) <{elem_type = !llvm.array<9 x i8>, rawConstantIndices = array<i32: 0, 3>}> : (!llvm.ptr) -> !llvm.ptr
    %49 = "llvm.load"(%48) <{ordering = 0 : i64}> : (!llvm.ptr) -> i8
    %50 = "polygeist.subindex"(%34, %7) : (memref<?xi8>, index) -> memref<memref<?xi8>>
    %51 = "polygeist.memref2pointer"(%50) : (memref<memref<?xi8>>) -> !llvm.ptr
    "llvm.store"(%49, %51) <{ordering = 0 : i64}> : (i8, !llvm.ptr) -> ()
    %52 = "llvm.getelementptr"(%35) <{elem_type = !llvm.array<9 x i8>, rawConstantIndices = array<i32: 0, 4>}> : (!llvm.ptr) -> !llvm.ptr
    %53 = "llvm.load"(%52) <{ordering = 0 : i64}> : (!llvm.ptr) -> i8
    %54 = "polygeist.subindex"(%34, %0) : (memref<?xi8>, index) -> memref<memref<?xi8>>
    %55 = "polygeist.memref2pointer"(%54) : (memref<memref<?xi8>>) -> !llvm.ptr
    "llvm.store"(%53, %55) <{ordering = 0 : i64}> : (i8, !llvm.ptr) -> ()
    %56 = "llvm.getelementptr"(%35) <{elem_type = !llvm.array<9 x i8>, rawConstantIndices = array<i32: 0, 5>}> : (!llvm.ptr) -> !llvm.ptr
    %57 = "llvm.load"(%56) <{ordering = 0 : i64}> : (!llvm.ptr) -> i8
    %58 = "polygeist.subindex"(%34, %6) : (memref<?xi8>, index) -> memref<memref<?xi8>>
    %59 = "polygeist.memref2pointer"(%58) : (memref<memref<?xi8>>) -> !llvm.ptr
    "llvm.store"(%57, %59) <{ordering = 0 : i64}> : (i8, !llvm.ptr) -> ()
    %60 = "llvm.getelementptr"(%35) <{elem_type = !llvm.array<9 x i8>, rawConstantIndices = array<i32: 0, 6>}> : (!llvm.ptr) -> !llvm.ptr
    %61 = "llvm.load"(%60) <{ordering = 0 : i64}> : (!llvm.ptr) -> i8
    %62 = "polygeist.subindex"(%34, %5) : (memref<?xi8>, index) -> memref<memref<?xi8>>
    %63 = "polygeist.memref2pointer"(%62) : (memref<memref<?xi8>>) -> !llvm.ptr
    "llvm.store"(%61, %63) <{ordering = 0 : i64}> : (i8, !llvm.ptr) -> ()
    %64 = "llvm.getelementptr"(%35) <{elem_type = !llvm.array<9 x i8>, rawConstantIndices = array<i32: 0, 7>}> : (!llvm.ptr) -> !llvm.ptr
    %65 = "llvm.load"(%64) <{ordering = 0 : i64}> : (!llvm.ptr) -> i8
    %66 = "polygeist.subindex"(%34, %4) : (memref<?xi8>, index) -> memref<memref<?xi8>>
    %67 = "polygeist.memref2pointer"(%66) : (memref<memref<?xi8>>) -> !llvm.ptr
    "llvm.store"(%65, %67) <{ordering = 0 : i64}> : (i8, !llvm.ptr) -> ()
    %68 = "llvm.getelementptr"(%35) <{elem_type = !llvm.array<9 x i8>, rawConstantIndices = array<i32: 0, 8>}> : (!llvm.ptr) -> !llvm.ptr
    %69 = "llvm.load"(%68) <{ordering = 0 : i64}> : (!llvm.ptr) -> i8
    %70 = "polygeist.subindex"(%34, %3) : (memref<?xi8>, index) -> memref<memref<?xi8>>
    %71 = "polygeist.memref2pointer"(%70) : (memref<memref<?xi8>>) -> !llvm.ptr
    "llvm.store"(%69, %71) <{ordering = 0 : i64}> : (i8, !llvm.ptr) -> ()
    %72 = "llvm.mlir.addressof"() <{global_name = @str1}> : () -> !llvm.ptr
    %73 = "llvm.getelementptr"(%72) <{elem_type = !llvm.array<8 x i8>, rawConstantIndices = array<i32: 0, 0>}> : (!llvm.ptr) -> !llvm.ptr
    %74 = "llvm.load"(%73) <{ordering = 0 : i64}> : (!llvm.ptr) -> i8
    %75 = "polygeist.subindex"(%24, %9) : (memref<?xi8>, index) -> memref<memref<?xi8>>
    %76 = "polygeist.memref2pointer"(%75) : (memref<memref<?xi8>>) -> !llvm.ptr
    "llvm.store"(%74, %76) <{ordering = 0 : i64}> : (i8, !llvm.ptr) -> ()
    %77 = "llvm.getelementptr"(%72) <{elem_type = !llvm.array<8 x i8>, rawConstantIndices = array<i32: 0, 1>}> : (!llvm.ptr) -> !llvm.ptr
    %78 = "llvm.load"(%77) <{ordering = 0 : i64}> : (!llvm.ptr) -> i8
    %79 = "polygeist.subindex"(%24, %2) : (memref<?xi8>, index) -> memref<memref<?xi8>>
    %80 = "polygeist.memref2pointer"(%79) : (memref<memref<?xi8>>) -> !llvm.ptr
    "llvm.store"(%78, %80) <{ordering = 0 : i64}> : (i8, !llvm.ptr) -> ()
    %81 = "llvm.getelementptr"(%72) <{elem_type = !llvm.array<8 x i8>, rawConstantIndices = array<i32: 0, 2>}> : (!llvm.ptr) -> !llvm.ptr
    %82 = "llvm.load"(%81) <{ordering = 0 : i64}> : (!llvm.ptr) -> i8
    %83 = "polygeist.subindex"(%24, %8) : (memref<?xi8>, index) -> memref<memref<?xi8>>
    %84 = "polygeist.memref2pointer"(%83) : (memref<memref<?xi8>>) -> !llvm.ptr
    "llvm.store"(%82, %84) <{ordering = 0 : i64}> : (i8, !llvm.ptr) -> ()
    %85 = "llvm.getelementptr"(%72) <{elem_type = !llvm.array<8 x i8>, rawConstantIndices = array<i32: 0, 3>}> : (!llvm.ptr) -> !llvm.ptr
    %86 = "llvm.load"(%85) <{ordering = 0 : i64}> : (!llvm.ptr) -> i8
    %87 = "polygeist.subindex"(%24, %7) : (memref<?xi8>, index) -> memref<memref<?xi8>>
    %88 = "polygeist.memref2pointer"(%87) : (memref<memref<?xi8>>) -> !llvm.ptr
    "llvm.store"(%86, %88) <{ordering = 0 : i64}> : (i8, !llvm.ptr) -> ()
    %89 = "llvm.getelementptr"(%72) <{elem_type = !llvm.array<8 x i8>, rawConstantIndices = array<i32: 0, 4>}> : (!llvm.ptr) -> !llvm.ptr
    %90 = "llvm.load"(%89) <{ordering = 0 : i64}> : (!llvm.ptr) -> i8
    %91 = "polygeist.subindex"(%24, %0) : (memref<?xi8>, index) -> memref<memref<?xi8>>
    %92 = "polygeist.memref2pointer"(%91) : (memref<memref<?xi8>>) -> !llvm.ptr
    "llvm.store"(%90, %92) <{ordering = 0 : i64}> : (i8, !llvm.ptr) -> ()
    %93 = "llvm.getelementptr"(%72) <{elem_type = !llvm.array<8 x i8>, rawConstantIndices = array<i32: 0, 5>}> : (!llvm.ptr) -> !llvm.ptr
    %94 = "llvm.load"(%93) <{ordering = 0 : i64}> : (!llvm.ptr) -> i8
    %95 = "polygeist.subindex"(%24, %6) : (memref<?xi8>, index) -> memref<memref<?xi8>>
    %96 = "polygeist.memref2pointer"(%95) : (memref<memref<?xi8>>) -> !llvm.ptr
    "llvm.store"(%94, %96) <{ordering = 0 : i64}> : (i8, !llvm.ptr) -> ()
    %97 = "llvm.getelementptr"(%72) <{elem_type = !llvm.array<8 x i8>, rawConstantIndices = array<i32: 0, 6>}> : (!llvm.ptr) -> !llvm.ptr
    %98 = "llvm.load"(%97) <{ordering = 0 : i64}> : (!llvm.ptr) -> i8
    %99 = "polygeist.subindex"(%24, %5) : (memref<?xi8>, index) -> memref<memref<?xi8>>
    %100 = "polygeist.memref2pointer"(%99) : (memref<memref<?xi8>>) -> !llvm.ptr
    "llvm.store"(%98, %100) <{ordering = 0 : i64}> : (i8, !llvm.ptr) -> ()
    %101 = "llvm.getelementptr"(%72) <{elem_type = !llvm.array<8 x i8>, rawConstantIndices = array<i32: 0, 7>}> : (!llvm.ptr) -> !llvm.ptr
    %102 = "llvm.load"(%101) <{ordering = 0 : i64}> : (!llvm.ptr) -> i8
    %103 = "polygeist.subindex"(%24, %4) : (memref<?xi8>, index) -> memref<memref<?xi8>>
    %104 = "polygeist.memref2pointer"(%103) : (memref<memref<?xi8>>) -> !llvm.ptr
    "llvm.store"(%102, %104) <{ordering = 0 : i64}> : (i8, !llvm.ptr) -> ()
    %105 = "polygeist.memref2pointer"(%34) : (memref<?xi8>) -> !llvm.ptr
    %106 = "func.call"(%105) <{callee = @strlen}> : (!llvm.ptr) -> i64
    %107 = "arith.trunci"(%106) : (i64) -> i32
    %108 = "polygeist.memref2pointer"(%24) : (memref<?xi8>) -> !llvm.ptr
    %109 = "func.call"(%108) <{callee = @strlen}> : (!llvm.ptr) -> i64
    %110 = "arith.trunci"(%109) : (i64) -> i32
    %111 = "arith.addi"(%107, %10) : (i32, i32) -> i32
    %112 = "arith.index_cast"(%111) : (i32) -> index
    %113 = "arith.addi"(%110, %10) : (i32, i32) -> i32
    %114 = "arith.index_cast"(%113) : (i32) -> index
    %115 = "func.call"() <{callee = @artsGetCurrentNode}> : () -> i32
    %116 = "memref.alloca"(%112, %114) <{operandSegmentSizes = array<i32: 2, 0>}> : (index, index) -> memref<?x?xi64>
    %117 = "arith.constant"() <{value = 0 : index}> : () -> index
    %118 = "arith.constant"() <{value = 1 : index}> : () -> index
    "scf.for"(%117, %112, %118) ({
    ^bb0(%arg0: index):
      %199 = "arith.constant"() <{value = 0 : index}> : () -> index
      %200 = "arith.constant"() <{value = 1 : index}> : () -> index
      "scf.for"(%199, %114, %200) ({
      ^bb0(%arg1: index):
        %201 = "arith.constant"() <{value = 0 : i32}> : () -> i32
        %202 = "arith.constant"() <{value = 0 : i64}> : () -> i64
        %203 = "func.call"(%115, %201, %202) <{callee = @artsPersistentEventCreate}> : (i32, i32, i64) -> i64
        "memref.store"(%203, %116, %arg0, %arg1) <{nontemporal = false}> : (i64, memref<?x?xi64>, index, index) -> ()
        "scf.yield"() : () -> ()
      }) : (index, index, index) -> ()
      "scf.yield"() : () -> ()
    }) : (index, index, index) -> ()
    %119 = "func.call"() <{callee = @artsGetCurrentNode}> : () -> i32
    %120 = "arith.index_cast"(%0) : (index) -> i64
    %121 = "arith.constant"() <{value = 10 : i32}> : () -> i32
    %122 = "memref.alloca"(%112, %114) <{operandSegmentSizes = array<i32: 2, 0>}> : (index, index) -> memref<?x?xi64>
    %123 = "memref.alloca"(%112, %114) <{operandSegmentSizes = array<i32: 2, 0>}> : (index, index) -> memref<?x?xmemref<?xi8>>
    %124 = "arith.constant"() <{value = 0 : index}> : () -> index
    %125 = "arith.constant"() <{value = 1 : index}> : () -> index
    "scf.for"(%124, %112, %125) ({
    ^bb0(%arg0: index):
      %199 = "arith.constant"() <{value = 0 : index}> : () -> index
      %200 = "arith.constant"() <{value = 1 : index}> : () -> index
      "scf.for"(%199, %114, %200) ({
      ^bb0(%arg1: index):
        %201 = "func.call"(%121, %119) <{callee = @artsReserveGuidRoute}> : (i32, i32) -> i64
        %202 = "func.call"(%201, %120) <{callee = @artsDbCreateWithGuid}> : (i64, i64) -> memref<?xi8>
        "memref.store"(%201, %122, %arg0, %arg1) <{nontemporal = false}> : (i64, memref<?x?xi64>, index, index) -> ()
        "memref.store"(%202, %123, %arg0, %arg1) <{nontemporal = false}> : (memref<?xi8>, memref<?x?xmemref<?xi8>>, index, index) -> ()
        "scf.yield"() : () -> ()
      }) : (index, index, index) -> ()
      "scf.yield"() : () -> ()
    }) : (index, index, index) -> ()
    %126 = "memref.alloca"(%112, %114) <{operandSegmentSizes = array<i32: 2, 0>}> : (index, index) -> memref<?x?xi32>
    "scf.for"(%9, %112, %2) ({
    ^bb0(%arg0: index):
      "scf.for"(%9, %114, %2) ({
      ^bb0(%arg1: index):
        %199 = "polygeist.subindex"(%123, %arg0) : (memref<?x?xmemref<?xi8>>, index) -> memref<?xmemref<?xi8>>
        %200 = "polygeist.subindex"(%199, %arg1) : (memref<?xmemref<?xi8>>, index) -> memref<memref<?xi8>>
        %201 = "polygeist.memref2pointer"(%200) : (memref<memref<?xi8>>) -> !llvm.ptr
        %202 = "llvm.load"(%201) <{ordering = 0 : i64}> : (!llvm.ptr) -> !llvm.ptr
        "llvm.store"(%11, %202) <{ordering = 0 : i64}> : (i32, !llvm.ptr) -> ()
        "memref.store"(%11, %126, %arg0, %arg1) : (i32, memref<?x?xi32>, index, index) -> ()
        "scf.yield"() : () -> ()
      }) : (index, index, index) -> ()
      "scf.yield"() : () -> ()
    }) : (index, index, index) -> ()
    %127 = "func.call"() <{callee = @artsGetCurrentNode}> : () -> i32
    %128 = "arith.constant"() <{value = 0 : index}> : () -> index
    %129 = "memref.alloca"() <{operandSegmentSizes = array<i32: 0, 0>}> : () -> memref<index>
    "memref.store"(%128, %129) : (index, memref<index>) -> ()
    %130 = "memref.alloca"() <{operandSegmentSizes = array<i32: 0, 0>}> : () -> memref<index>
    "memref.store"(%128, %130) : (index, memref<index>) -> ()
    %131 = "memref.load"(%130) : (memref<index>) -> index
    %132 = "arith.index_cast"(%131) : (index) -> i32
    %133 = "memref.alloca"() <{operandSegmentSizes = array<i32: 0, 0>}> : () -> memref<index>
    %134 = "arith.constant"() <{value = 0 : index}> : () -> index
    "memref.store"(%134, %133) : (index, memref<index>) -> ()
    %135 = "memref.load"(%133) : (memref<index>) -> index
    %136 = "arith.index_cast"(%135) : (index) -> i32
    %137 = "memref.alloca"(%135) <{operandSegmentSizes = array<i32: 1, 0>}> : (index) -> memref<?xi64>
    %138 = "arith.constant"() <{value = 1 : i32}> : () -> i32
    %139 = "polygeist.get_func"() <{name = @__arts_edt_1}> : () -> !llvm.ptr<!llvm.func<void (i32, memref<?xi64>, i32, memref<?x!llvm.struct<(i64, i32, ptr)>>)>>
    %140 = "polygeist.pointer2memref"(%139) : (!llvm.ptr<!llvm.func<void (i32, memref<?xi64>, i32, memref<?x!llvm.struct<(i64, i32, ptr)>>)>>) -> memref<?x!llvm.func<void (i32, memref<?xi64>, i32, memref<?x!llvm.struct<(i64, i32, ptr)>>)>>
    %141 = "func.call"(%140, %127, %136, %137, %138) <{callee = @artsEdtCreate}> : (memref<?x!llvm.func<void (i32, memref<?xi64>, i32, memref<?x!llvm.struct<(i64, i32, ptr)>>)>>, i32, i32, memref<?xi64>, i32) -> i64
    %142 = "arith.constant"() <{value = 0 : i32}> : () -> i32
    %143 = "func.call"(%141, %142) <{callee = @artsInitializeAndStartEpoch}> : (i64, i32) -> i64
    %144 = "func.call"() <{callee = @artsGetCurrentNode}> : () -> i32
    %145 = "arith.constant"() <{value = 0 : index}> : () -> index
    %146 = "memref.alloca"() <{operandSegmentSizes = array<i32: 0, 0>}> : () -> memref<index>
    "memref.store"(%145, %146) : (index, memref<index>) -> ()
    %147 = "memref.alloca"() <{operandSegmentSizes = array<i32: 0, 0>}> : () -> memref<index>
    "memref.store"(%145, %147) : (index, memref<index>) -> ()
    %148 = "memref.load"(%147) : (memref<index>) -> index
    %149 = "arith.constant"() <{value = 1 : index}> : () -> index
    %150 = "memref.load"(%147) : (memref<index>) -> index
    %151 = "arith.addi"(%150, %149) : (index, index) -> index
    "memref.store"(%151, %147) : (index, memref<index>) -> ()
    %152 = "memref.load"(%147) : (memref<index>) -> index
    %153 = "arith.constant"() <{value = 1 : index}> : () -> index
    %154 = "memref.load"(%147) : (memref<index>) -> index
    %155 = "arith.addi"(%154, %153) : (index, index) -> index
    "memref.store"(%155, %147) : (index, memref<index>) -> ()
    %156 = "memref.load"(%147) : (memref<index>) -> index
    %157 = "arith.constant"() <{value = 1 : index}> : () -> index
    %158 = "arith.muli"(%157, %112) : (index, index) -> index
    %159 = "arith.muli"(%158, %114) : (index, index) -> index
    %160 = "memref.load"(%147) : (memref<index>) -> index
    %161 = "arith.addi"(%160, %159) : (index, index) -> index
    "memref.store"(%161, %147) : (index, memref<index>) -> ()
    %162 = "memref.load"(%147) : (memref<index>) -> index
    %163 = "arith.index_cast"(%162) : (index) -> i32
    %164 = "memref.alloca"() <{operandSegmentSizes = array<i32: 0, 0>}> : () -> memref<index>
    %165 = "arith.constant"() <{value = 2 : index}> : () -> index
    "memref.store"(%165, %164) : (index, memref<index>) -> ()
    %166 = "memref.load"(%164) : (memref<index>) -> index
    %167 = "arith.index_cast"(%166) : (index) -> i32
    %168 = "memref.alloca"(%166) <{operandSegmentSizes = array<i32: 1, 0>}> : (index) -> memref<?xi64>
    %169 = "arith.constant"() <{value = 0 : index}> : () -> index
    %170 = "arith.index_cast"(%112) : (index) -> i64
    "memref.store"(%170, %168, %169) <{nontemporal = false}> : (i64, memref<?xi64>, index) -> ()
    %171 = "arith.constant"() <{value = 1 : index}> : () -> index
    %172 = "arith.index_cast"(%114) : (index) -> i64
    "memref.store"(%172, %168, %171) <{nontemporal = false}> : (i64, memref<?xi64>, index) -> ()
    %173 = "polygeist.get_func"() <{name = @__arts_edt_2}> : () -> !llvm.ptr<!llvm.func<void (i32, memref<?xi64>, i32, memref<?x!llvm.struct<(i64, i32, ptr)>>)>>
    %174 = "polygeist.pointer2memref"(%173) : (!llvm.ptr<!llvm.func<void (i32, memref<?xi64>, i32, memref<?x!llvm.struct<(i64, i32, ptr)>>)>>) -> memref<?x!llvm.func<void (i32, memref<?xi64>, i32, memref<?x!llvm.struct<(i64, i32, ptr)>>)>>
    %175 = "func.call"(%174, %144, %167, %168, %163, %143) <{callee = @artsEdtCreateWithEpoch}> : (memref<?x!llvm.func<void (i32, memref<?xi64>, i32, memref<?x!llvm.struct<(i64, i32, ptr)>>)>>, i32, i32, memref<?xi64>, i32, i64) -> i64
    %176 = "memref.load"(%26) <{nontemporal = false}> : (memref<i64>) -> i64
    %177 = "arith.index_cast"(%148) : (index) -> i32
    "func.call"(%176, %175, %177, %33) <{callee = @artsAddDependenceToPersistentEvent}> : (i64, i64, i32, i64) -> ()
    %178 = "memref.load"(%16) <{nontemporal = false}> : (memref<i64>) -> i64
    %179 = "arith.index_cast"(%152) : (index) -> i32
    "func.call"(%178, %175, %179, %23) <{callee = @artsAddDependenceToPersistentEvent}> : (i64, i64, i32, i64) -> ()
    %180 = "memref.alloc"() <{operandSegmentSizes = array<i32: 0, 0>}> : () -> memref<index>
    "memref.store"(%156, %180) : (index, memref<index>) -> ()
    %181 = "arith.addi"(%9, %112) : (index, index) -> index
    %182 = "arith.constant"() <{value = 1 : index}> : () -> index
    "scf.for"(%9, %181, %182) ({
    ^bb0(%arg0: index):
      %199 = "arith.addi"(%9, %114) : (index, index) -> index
      %200 = "arith.constant"() <{value = 1 : index}> : () -> index
      "scf.for"(%9, %199, %200) ({
      ^bb0(%arg1: index):
        %201 = "memref.load"(%116, %arg0, %arg1) <{nontemporal = false}> : (memref<?x?xi64>, index, index) -> i64
        %202 = "memref.load"(%180) : (memref<index>) -> index
        %203 = "memref.load"(%122, %arg0, %arg1) <{nontemporal = false}> : (memref<?x?xi64>, index, index) -> i64
        %204 = "arith.index_cast"(%202) : (index) -> i32
        "func.call"(%201, %175, %204, %203) <{callee = @artsAddDependenceToPersistentEvent}> : (i64, i64, i32, i64) -> ()
        %205 = "arith.constant"() <{value = 1 : index}> : () -> index
        %206 = "arith.addi"(%202, %205) : (index, index) -> index
        "memref.store"(%206, %180) : (index, memref<index>) -> ()
        "scf.yield"() : () -> ()
      }) : (index, index, index) -> ()
      "scf.yield"() : () -> ()
    }) : (index, index, index) -> ()
    %183 = "func.call"(%143) <{callee = @artsWaitOnHandle}> : (i64) -> i1
    %184 = "llvm.mlir.addressof"() <{global_name = @str5}> : () -> !llvm.ptr
    %185 = "llvm.getelementptr"(%184) <{elem_type = !llvm.array<22 x i8>, rawConstantIndices = array<i32: 0, 0>}> : (!llvm.ptr) -> !llvm.ptr
    %186 = "llvm.call"(%185) <{callee = @printf, callee_type = !llvm.func<i32 (ptr, ...)>, fastmathFlags = #llvm.fastmath<none>}> : (!llvm.ptr) -> i32
    %187 = "llvm.mlir.addressof"() <{global_name = @str6}> : () -> !llvm.ptr
    %188 = "llvm.getelementptr"(%187) <{elem_type = !llvm.array<24 x i8>, rawConstantIndices = array<i32: 0, 0>}> : (!llvm.ptr) -> !llvm.ptr
    %189 = "llvm.call"(%188) <{callee = @printf, callee_type = !llvm.func<i32 (ptr, ...)>, fastmathFlags = #llvm.fastmath<none>}> : (!llvm.ptr) -> i32
    %190 = "llvm.mlir.addressof"() <{global_name = @str7}> : () -> !llvm.ptr
    %191 = "llvm.getelementptr"(%190) <{elem_type = !llvm.array<4 x i8>, rawConstantIndices = array<i32: 0, 0>}> : (!llvm.ptr) -> !llvm.ptr
    %192 = "llvm.mlir.addressof"() <{global_name = @str8}> : () -> !llvm.ptr
    %193 = "llvm.getelementptr"(%192) <{elem_type = !llvm.array<2 x i8>, rawConstantIndices = array<i32: 0, 0>}> : (!llvm.ptr) -> !llvm.ptr
    "scf.for"(%9, %112, %2) ({
    ^bb0(%arg0: index):
      "scf.for"(%9, %114, %2) ({
      ^bb0(%arg1: index):
        %200 = "polygeist.subindex"(%123, %arg0) : (memref<?x?xmemref<?xi8>>, index) -> memref<?xmemref<?xi8>>
        %201 = "polygeist.subindex"(%200, %arg1) : (memref<?xmemref<?xi8>>, index) -> memref<memref<?xi8>>
        %202 = "polygeist.memref2pointer"(%201) : (memref<memref<?xi8>>) -> !llvm.ptr
        %203 = "llvm.load"(%202) <{ordering = 0 : i64}> : (!llvm.ptr) -> !llvm.ptr
        %204 = "llvm.load"(%203) <{ordering = 0 : i64}> : (!llvm.ptr) -> i32
        %205 = "llvm.call"(%191, %204) <{callee = @printf, callee_type = !llvm.func<i32 (ptr, ...)>, fastmathFlags = #llvm.fastmath<none>}> : (!llvm.ptr, i32) -> i32
        "scf.yield"() : () -> ()
      }) : (index, index, index) -> ()
      %199 = "llvm.call"(%193) <{callee = @printf, callee_type = !llvm.func<i32 (ptr, ...)>, fastmathFlags = #llvm.fastmath<none>}> : (!llvm.ptr) -> i32
      "scf.yield"() : () -> ()
    }) : (index, index, index) -> ()
    "scf.for"(%2, %112, %2) ({
    ^bb0(%arg0: index):
      %199 = "arith.index_cast"(%arg0) : (index) -> i32
      %200 = "arith.addi"(%199, %13) : (i32, i32) -> i32
      %201 = "arith.index_cast"(%200) : (i32) -> index
      "scf.for"(%2, %114, %2) ({
      ^bb0(%arg1: index):
        %202 = "arith.index_cast"(%arg1) : (index) -> i32
        %203 = "arith.addi"(%202, %13) : (i32, i32) -> i32
        %204 = "arith.index_cast"(%203) : (i32) -> index
        %205 = "memref.load"(%126, %201, %204) : (memref<?x?xi32>, index, index) -> i32
        %206 = "polygeist.subindex"(%34, %201) : (memref<?xi8>, index) -> memref<memref<?xi8>>
        %207 = "polygeist.memref2pointer"(%206) : (memref<memref<?xi8>>) -> !llvm.ptr
        %208 = "llvm.load"(%207) <{ordering = 0 : i64}> : (!llvm.ptr) -> i8
        %209 = "polygeist.subindex"(%24, %204) : (memref<?xi8>, index) -> memref<memref<?xi8>>
        %210 = "polygeist.memref2pointer"(%209) : (memref<memref<?xi8>>) -> !llvm.ptr
        %211 = "llvm.load"(%210) <{ordering = 0 : i64}> : (!llvm.ptr) -> i8
        %212 = "arith.cmpi"(%208, %211) <{predicate = 0 : i64}> : (i8, i8) -> i1
        %213 = "arith.select"(%212, %14, %13) : (i1, i32, i32) -> i32
        %214 = "arith.addi"(%205, %213) : (i32, i32) -> i32
        %215 = "memref.load"(%126, %201, %arg1) : (memref<?x?xi32>, index, index) -> i32
        %216 = "arith.addi"(%215, %12) : (i32, i32) -> i32
        %217 = "memref.load"(%126, %arg0, %204) : (memref<?x?xi32>, index, index) -> i32
        %218 = "arith.addi"(%217, %12) : (i32, i32) -> i32
        %219 = "arith.cmpi"(%214, %216) <{predicate = 4 : i64}> : (i32, i32) -> i1
        %220 = "scf.if"(%219) ({
          %222 = "arith.cmpi"(%214, %218) <{predicate = 4 : i64}> : (i32, i32) -> i1
          %223 = "arith.select"(%222, %214, %218) : (i1, i32, i32) -> i32
          "scf.yield"(%223) : (i32) -> ()
        }, {
          %222 = "arith.cmpi"(%216, %218) <{predicate = 4 : i64}> : (i32, i32) -> i1
          %223 = "arith.select"(%222, %216, %218) : (i1, i32, i32) -> i32
          "scf.yield"(%223) : (i32) -> ()
        }) : (i1) -> i32
        "memref.store"(%220, %126, %arg0, %arg1) : (i32, memref<?x?xi32>, index, index) -> ()
        %221 = "arith.cmpi"(%220, %11) <{predicate = 2 : i64}> : (i32, i32) -> i1
        "scf.if"(%221) ({
          "memref.store"(%11, %126, %arg0, %arg1) : (i32, memref<?x?xi32>, index, index) -> ()
          "scf.yield"() : () -> ()
        }, {
        }) : (i1) -> ()
        "scf.yield"() : () -> ()
      }) : (index, index, index) -> ()
      "scf.yield"() : () -> ()
    }) : (index, index, index) -> ()
    %194 = "llvm.mlir.addressof"() <{global_name = @str9}> : () -> !llvm.ptr
    %195 = "llvm.getelementptr"(%194) <{elem_type = !llvm.array<26 x i8>, rawConstantIndices = array<i32: 0, 0>}> : (!llvm.ptr) -> !llvm.ptr
    %196 = "llvm.call"(%195) <{callee = @printf, callee_type = !llvm.func<i32 (ptr, ...)>, fastmathFlags = #llvm.fastmath<none>}> : (!llvm.ptr) -> i32
    "scf.for"(%9, %112, %2) ({
    ^bb0(%arg0: index):
      "scf.for"(%9, %114, %2) ({
      ^bb0(%arg1: index):
        %200 = "memref.load"(%126, %arg0, %arg1) : (memref<?x?xi32>, index, index) -> i32
        %201 = "llvm.call"(%191, %200) <{callee = @printf, callee_type = !llvm.func<i32 (ptr, ...)>, fastmathFlags = #llvm.fastmath<none>}> : (!llvm.ptr, i32) -> i32
        "scf.yield"() : () -> ()
      }) : (index, index, index) -> ()
      %199 = "llvm.call"(%193) <{callee = @printf, callee_type = !llvm.func<i32 (ptr, ...)>, fastmathFlags = #llvm.fastmath<none>}> : (!llvm.ptr) -> i32
      "scf.yield"() : () -> ()
    }) : (index, index, index) -> ()
    %197 = "scf.for"(%9, %112, %2, %10) ({
    ^bb0(%arg0: index, %arg1: i32):
      %199 = "arith.index_cast"(%arg0) : (index) -> i32
      %200 = "scf.for"(%9, %114, %2, %arg1) ({
      ^bb0(%arg2: index, %arg3: i32):
        %201 = "arith.index_cast"(%arg2) : (index) -> i32
        %202 = "polygeist.subindex"(%123, %arg0) : (memref<?x?xmemref<?xi8>>, index) -> memref<?xmemref<?xi8>>
        %203 = "polygeist.subindex"(%202, %arg2) : (memref<?xmemref<?xi8>>, index) -> memref<memref<?xi8>>
        %204 = "polygeist.memref2pointer"(%203) : (memref<memref<?xi8>>) -> !llvm.ptr
        %205 = "llvm.load"(%204) <{ordering = 0 : i64}> : (!llvm.ptr) -> !llvm.ptr
        %206 = "llvm.load"(%205) <{ordering = 0 : i64}> : (!llvm.ptr) -> i32
        %207 = "memref.load"(%126, %arg0, %arg2) : (memref<?x?xi32>, index, index) -> i32
        %208 = "arith.cmpi"(%206, %207) <{predicate = 1 : i64}> : (i32, i32) -> i1
        %209 = "arith.select"(%208, %11, %arg3) : (i1, i32, i32) -> i32
        "scf.if"(%208) ({
          %210 = "llvm.mlir.addressof"() <{global_name = @str10}> : () -> !llvm.ptr
          %211 = "llvm.getelementptr"(%210) <{elem_type = !llvm.array<50 x i8>, rawConstantIndices = array<i32: 0, 0>}> : (!llvm.ptr) -> !llvm.ptr
          %212 = "llvm.call"(%211, %199, %201, %206, %207) <{callee = @printf, callee_type = !llvm.func<i32 (ptr, ...)>, fastmathFlags = #llvm.fastmath<none>}> : (!llvm.ptr, i32, i32, i32, i32) -> i32
          "scf.yield"() : () -> ()
        }, {
        }) : (i1) -> ()
        "scf.yield"(%209) : (i32) -> ()
      }) : (index, index, index, i32) -> i32
      "scf.yield"(%200) : (i32) -> ()
    }) : (index, index, index, i32) -> i32
    %198 = "arith.cmpi"(%197, %11) <{predicate = 1 : i64}> : (i32, i32) -> i1
    "scf.if"(%198) ({
      %199 = "llvm.mlir.addressof"() <{global_name = @str11}> : () -> !llvm.ptr
      %200 = "llvm.getelementptr"(%199) <{elem_type = !llvm.array<16 x i8>, rawConstantIndices = array<i32: 0, 0>}> : (!llvm.ptr) -> !llvm.ptr
      %201 = "llvm.call"(%200) <{callee = @printf, callee_type = !llvm.func<i32 (ptr, ...)>, fastmathFlags = #llvm.fastmath<none>}> : (!llvm.ptr) -> i32
      "scf.yield"() : () -> ()
    }, {
      %199 = "llvm.mlir.addressof"() <{global_name = @str12}> : () -> !llvm.ptr
      %200 = "llvm.getelementptr"(%199) <{elem_type = !llvm.array<23 x i8>, rawConstantIndices = array<i32: 0, 0>}> : (!llvm.ptr) -> !llvm.ptr
      %201 = "llvm.call"(%200) <{callee = @printf, callee_type = !llvm.func<i32 (ptr, ...)>, fastmathFlags = #llvm.fastmath<none>}> : (!llvm.ptr) -> i32
      "scf.yield"() : () -> ()
    }) : (i1) -> ()
    "func.return"(%11) : (i32) -> ()
  }) {llvm.linkage = #llvm.linkage<external>} : () -> ()
  "func.func"() <{function_type = (!llvm.ptr) -> i64, sym_name = "strlen", sym_visibility = "private"}> ({
  }) : () -> ()
  "func.func"() <{function_type = (i32, memref<?xi64>, i32, memref<?x!llvm.struct<(i64, i32, ptr)>>) -> (), sym_name = "__arts_edt_1", sym_visibility = "private"}> ({
  ^bb0(%arg0: i32, %arg1: memref<?xi64>, %arg2: i32, %arg3: memref<?x!llvm.struct<(i64, i32, ptr)>>):
    "func.return"() : () -> ()
  }) : () -> ()
  "func.func"() <{function_type = (i32, memref<?xi64>, i32, memref<?x!llvm.struct<(i64, i32, ptr)>>) -> (), sym_name = "__arts_edt_2", sym_visibility = "private"}> ({
  ^bb0(%arg0: i32, %arg1: memref<?xi64>, %arg2: i32, %arg3: memref<?x!llvm.struct<(i64, i32, ptr)>>):
    %0 = "func.call"() <{callee = @artsGetCurrentGuid}> : () -> i64
    %1 = "arith.constant"() <{value = -1 : i32}> : () -> i32
    %2 = "arith.constant"() <{value = 4 : index}> : () -> index
    %3 = "arith.constant"() <{value = 2 : i32}> : () -> i32
    %4 = "arith.constant"() <{value = -2 : i32}> : () -> i32
    %5 = "arith.constant"() <{value = 0 : i32}> : () -> i32
    %6 = "arith.constant"() <{value = 1 : index}> : () -> index
    %7 = "arith.constant"() <{value = 0 : index}> : () -> index
    %8 = "memref.load"(%arg1, %7) <{nontemporal = false}> : (memref<?xi64>, index) -> i64
    %9 = "arith.index_cast"(%8) : (i64) -> index
    %10 = "arith.constant"() <{value = 1 : index}> : () -> index
    %11 = "memref.load"(%arg1, %10) <{nontemporal = false}> : (memref<?xi64>, index) -> i64
    %12 = "arith.index_cast"(%11) : (i64) -> index
    %13 = "arith.constant"() <{value = 0 : index}> : () -> index
    %14 = "arith.constant"() <{value = 1 : index}> : () -> index
    %15 = "memref.alloca"() <{operandSegmentSizes = array<i32: 0, 0>}> : () -> memref<index>
    "memref.store"(%13, %15) : (index, memref<index>) -> ()
    %16 = "polygeist.typeSize"() <{source = !llvm.struct<(i64, i32, ptr)>}> : () -> index
    %17 = "polygeist.memref2pointer"(%arg3) : (memref<?x!llvm.struct<(i64, i32, ptr)>>) -> !llvm.ptr
    %18 = "memref.load"(%15) : (memref<index>) -> index
    %19 = "arith.muli"(%18, %16) : (index, index) -> index
    %20 = "arith.index_cast"(%19) : (index) -> i32
    %21 = "llvm.getelementptr"(%17, %20) <{elem_type = i8, rawConstantIndices = array<i32: -2147483648>}> : (!llvm.ptr, i32) -> !llvm.ptr
    %22 = "arith.constant"() <{value = 0 : i32}> : () -> i32
    %23 = "llvm.getelementptr"(%21, %22) <{elem_type = !llvm.struct<(i64, i32, ptr)>, rawConstantIndices = array<i32: -2147483648, 0>}> : (!llvm.ptr, i32) -> !llvm.ptr
    %24 = "llvm.load"(%23) <{ordering = 0 : i64}> : (!llvm.ptr) -> i64
    %25 = "arith.constant"() <{value = 0 : i32}> : () -> i32
    %26 = "arith.constant"() <{value = 2 : i32}> : () -> i32
    %27 = "llvm.getelementptr"(%21, %25) <{elem_type = !llvm.struct<(i64, i32, ptr)>, rawConstantIndices = array<i32: -2147483648, 2>}> : (!llvm.ptr, i32) -> !llvm.ptr
    %28 = "llvm.load"(%27) <{ordering = 0 : i64}> : (!llvm.ptr) -> memref<?xi8>
    %29 = "arith.addi"(%18, %14) : (index, index) -> index
    "memref.store"(%29, %15) : (index, memref<index>) -> ()
    %30 = "memref.load"(%15) : (memref<index>) -> index
    %31 = "arith.muli"(%30, %16) : (index, index) -> index
    %32 = "arith.index_cast"(%31) : (index) -> i32
    %33 = "llvm.getelementptr"(%17, %32) <{elem_type = i8, rawConstantIndices = array<i32: -2147483648>}> : (!llvm.ptr, i32) -> !llvm.ptr
    %34 = "arith.constant"() <{value = 0 : i32}> : () -> i32
    %35 = "llvm.getelementptr"(%33, %34) <{elem_type = !llvm.struct<(i64, i32, ptr)>, rawConstantIndices = array<i32: -2147483648, 0>}> : (!llvm.ptr, i32) -> !llvm.ptr
    %36 = "llvm.load"(%35) <{ordering = 0 : i64}> : (!llvm.ptr) -> i64
    %37 = "arith.constant"() <{value = 0 : i32}> : () -> i32
    %38 = "arith.constant"() <{value = 2 : i32}> : () -> i32
    %39 = "llvm.getelementptr"(%33, %37) <{elem_type = !llvm.struct<(i64, i32, ptr)>, rawConstantIndices = array<i32: -2147483648, 2>}> : (!llvm.ptr, i32) -> !llvm.ptr
    %40 = "llvm.load"(%39) <{ordering = 0 : i64}> : (!llvm.ptr) -> memref<?xi8>
    %41 = "arith.addi"(%30, %14) : (index, index) -> index
    "memref.store"(%41, %15) : (index, memref<index>) -> ()
    %42 = "arith.constant"() <{value = 0 : index}> : () -> index
    %43 = "arith.constant"() <{value = 0 : index}> : () -> index
    %44 = "memref.alloca"(%9, %12) <{operandSegmentSizes = array<i32: 2, 0>}> : (index, index) -> memref<?x?xi64>
    %45 = "memref.alloca"(%9, %12) <{operandSegmentSizes = array<i32: 2, 0>}> : (index, index) -> memref<?x?xmemref<?xi8>>
    %46 = "arith.constant"() <{value = 0 : index}> : () -> index
    "scf.for"(%46, %9, %14) ({
    ^bb0(%arg4: index):
      %59 = "arith.constant"() <{value = 0 : index}> : () -> index
      "scf.for"(%59, %12, %14) ({
      ^bb0(%arg5: index):
        %60 = "memref.load"(%15) : (memref<index>) -> index
        %61 = "arith.muli"(%60, %16) : (index, index) -> index
        %62 = "arith.index_cast"(%61) : (index) -> i32
        %63 = "llvm.getelementptr"(%17, %62) <{elem_type = i8, rawConstantIndices = array<i32: -2147483648>}> : (!llvm.ptr, i32) -> !llvm.ptr
        %64 = "arith.constant"() <{value = 0 : i32}> : () -> i32
        %65 = "llvm.getelementptr"(%63, %64) <{elem_type = !llvm.struct<(i64, i32, ptr)>, rawConstantIndices = array<i32: -2147483648, 0>}> : (!llvm.ptr, i32) -> !llvm.ptr
        %66 = "llvm.load"(%65) <{ordering = 0 : i64}> : (!llvm.ptr) -> i64
        %67 = "arith.constant"() <{value = 0 : i32}> : () -> i32
        %68 = "arith.constant"() <{value = 2 : i32}> : () -> i32
        %69 = "llvm.getelementptr"(%63, %67) <{elem_type = !llvm.struct<(i64, i32, ptr)>, rawConstantIndices = array<i32: -2147483648, 2>}> : (!llvm.ptr, i32) -> !llvm.ptr
        %70 = "llvm.load"(%69) <{ordering = 0 : i64}> : (!llvm.ptr) -> memref<?xi8>
        "memref.store"(%66, %44, %arg4, %arg5) <{nontemporal = false}> : (i64, memref<?x?xi64>, index, index) -> ()
        "memref.store"(%70, %45, %arg4, %arg5) <{nontemporal = false}> : (memref<?xi8>, memref<?x?xmemref<?xi8>>, index, index) -> ()
        %71 = "arith.addi"(%60, %14) : (index, index) -> index
        "memref.store"(%71, %15) : (index, memref<index>) -> ()
        "scf.yield"() : () -> ()
      }) : (index, index, index) -> ()
      "scf.yield"() : () -> ()
    }) : (index, index, index) -> ()
    %47 = "func.call"() <{callee = @artsGetCurrentNode}> : () -> i32
    %48 = "memref.alloca"(%9, %12) <{operandSegmentSizes = array<i32: 2, 0>}> : (index, index) -> memref<?x?xi64>
    %49 = "arith.constant"() <{value = 0 : index}> : () -> index
    %50 = "arith.constant"() <{value = 1 : index}> : () -> index
    "scf.for"(%49, %9, %50) ({
    ^bb0(%arg4: index):
      %59 = "arith.constant"() <{value = 0 : index}> : () -> index
      %60 = "arith.constant"() <{value = 1 : index}> : () -> index
      "scf.for"(%59, %12, %60) ({
      ^bb0(%arg5: index):
        %61 = "arith.constant"() <{value = 0 : i32}> : () -> i32
        %62 = "arith.constant"() <{value = 0 : i64}> : () -> i64
        %63 = "func.call"(%47, %61, %62) <{callee = @artsPersistentEventCreate}> : (i32, i32, i64) -> i64
        "memref.store"(%63, %48, %arg4, %arg5) <{nontemporal = false}> : (i64, memref<?x?xi64>, index, index) -> ()
        "scf.yield"() : () -> ()
      }) : (index, index, index) -> ()
      "scf.yield"() : () -> ()
    }) : (index, index, index) -> ()
    %51 = "polygeist.memref2pointer"(%40) : (memref<?xi8>) -> !llvm.ptr
    %52 = "polygeist.memref2pointer"(%28) : (memref<?xi8>) -> !llvm.ptr
    %53 = "llvm.mlir.addressof"() <{global_name = @str2}> : () -> !llvm.ptr
    %54 = "llvm.getelementptr"(%53) <{elem_type = !llvm.array<10 x i8>, rawConstantIndices = array<i32: 0, 0>}> : (!llvm.ptr) -> !llvm.ptr
    %55 = "llvm.call"(%54, %52) <{callee = @printf, callee_type = !llvm.func<i32 (ptr, ...)>, fastmathFlags = #llvm.fastmath<none>}> : (!llvm.ptr, !llvm.ptr) -> i32
    %56 = "llvm.mlir.addressof"() <{global_name = @str3}> : () -> !llvm.ptr
    %57 = "llvm.getelementptr"(%56) <{elem_type = !llvm.array<10 x i8>, rawConstantIndices = array<i32: 0, 0>}> : (!llvm.ptr) -> !llvm.ptr
    %58 = "llvm.call"(%57, %51) <{callee = @printf, callee_type = !llvm.func<i32 (ptr, ...)>, fastmathFlags = #llvm.fastmath<none>}> : (!llvm.ptr, !llvm.ptr) -> i32
    "scf.for"(%6, %9, %6) ({
    ^bb0(%arg4: index):
      %59 = "arith.index_cast"(%arg4) : (index) -> i32
      "scf.for"(%6, %12, %6) ({
      ^bb0(%arg5: index):
        %60 = "arith.index_cast"(%arg5) : (index) -> i32
        %61 = "arith.addi"(%59, %1) : (i32, i32) -> i32
        %62 = "arith.index_cast"(%61) : (i32) -> index
        %63 = "arith.addi"(%60, %1) : (i32, i32) -> i32
        %64 = "arith.index_cast"(%63) : (i32) -> index
        %65 = "polygeist.subindex"(%28, %62) : (memref<?xi8>, index) -> memref<memref<?xi8>>
        %66 = "polygeist.memref2pointer"(%65) : (memref<memref<?xi8>>) -> !llvm.ptr
        %67 = "llvm.load"(%66) <{ordering = 0 : i64}> : (!llvm.ptr) -> i8
        %68 = "polygeist.subindex"(%40, %64) : (memref<?xi8>, index) -> memref<memref<?xi8>>
        %69 = "polygeist.memref2pointer"(%68) : (memref<memref<?xi8>>) -> !llvm.ptr
        %70 = "llvm.load"(%69) <{ordering = 0 : i64}> : (!llvm.ptr) -> i8
        %71 = "func.call"() <{callee = @artsGetCurrentEpochGuid}> : () -> i64
        %72 = "func.call"() <{callee = @artsGetCurrentNode}> : () -> i32
        %73 = "arith.constant"() <{value = 0 : index}> : () -> index
        %74 = "memref.alloca"() <{operandSegmentSizes = array<i32: 0, 0>}> : () -> memref<index>
        "memref.store"(%73, %74) : (index, memref<index>) -> ()
        %75 = "memref.alloca"() <{operandSegmentSizes = array<i32: 0, 0>}> : () -> memref<index>
        "memref.store"(%73, %75) : (index, memref<index>) -> ()
        %76 = "memref.load"(%75) : (memref<index>) -> index
        %77 = "arith.constant"() <{value = 1 : index}> : () -> index
        %78 = "memref.load"(%75) : (memref<index>) -> index
        %79 = "arith.addi"(%78, %77) : (index, index) -> index
        "memref.store"(%79, %75) : (index, memref<index>) -> ()
        %80 = "memref.load"(%75) : (memref<index>) -> index
        %81 = "arith.constant"() <{value = 1 : index}> : () -> index
        %82 = "memref.load"(%75) : (memref<index>) -> index
        %83 = "arith.addi"(%82, %81) : (index, index) -> index
        "memref.store"(%83, %75) : (index, memref<index>) -> ()
        %84 = "memref.load"(%75) : (memref<index>) -> index
        %85 = "arith.constant"() <{value = 1 : index}> : () -> index
        %86 = "memref.load"(%75) : (memref<index>) -> index
        %87 = "arith.addi"(%86, %85) : (index, index) -> index
        "memref.store"(%87, %75) : (index, memref<index>) -> ()
        %88 = "memref.load"(%75) : (memref<index>) -> index
        %89 = "arith.constant"() <{value = 1 : index}> : () -> index
        %90 = "memref.load"(%75) : (memref<index>) -> index
        %91 = "arith.addi"(%90, %89) : (index, index) -> index
        "memref.store"(%91, %75) : (index, memref<index>) -> ()
        %92 = "memref.load"(%74) : (memref<index>) -> index
        %93 = "arith.addi"(%92, %89) : (index, index) -> index
        "memref.store"(%93, %74) : (index, memref<index>) -> ()
        %94 = "memref.load"(%75) : (memref<index>) -> index
        %95 = "arith.index_cast"(%94) : (index) -> i32
        %96 = "memref.alloca"() <{operandSegmentSizes = array<i32: 0, 0>}> : () -> memref<index>
        %97 = "arith.constant"() <{value = 4 : index}> : () -> index
        "memref.store"(%97, %96) : (index, memref<index>) -> ()
        %98 = "memref.load"(%96) : (memref<index>) -> index
        %99 = "memref.load"(%74) : (memref<index>) -> index
        %100 = "arith.addi"(%98, %99) : (index, index) -> index
        "memref.store"(%100, %96) : (index, memref<index>) -> ()
        %101 = "memref.load"(%96) : (memref<index>) -> index
        %102 = "arith.index_cast"(%101) : (index) -> i32
        %103 = "memref.alloca"(%101) <{operandSegmentSizes = array<i32: 1, 0>}> : (index) -> memref<?xi64>
        %104 = "arith.constant"() <{value = 0 : index}> : () -> index
        %105 = "arith.extsi"(%59) : (i32) -> i64
        "memref.store"(%105, %103, %104) <{nontemporal = false}> : (i64, memref<?xi64>, index) -> ()
        %106 = "arith.constant"() <{value = 1 : index}> : () -> index
        %107 = "arith.extsi"(%60) : (i32) -> i64
        "memref.store"(%107, %103, %106) <{nontemporal = false}> : (i64, memref<?xi64>, index) -> ()
        %108 = "arith.constant"() <{value = 2 : index}> : () -> index
        %109 = "arith.extsi"(%67) : (i8) -> i64
        "memref.store"(%109, %103, %108) <{nontemporal = false}> : (i64, memref<?xi64>, index) -> ()
        %110 = "arith.constant"() <{value = 3 : index}> : () -> index
        %111 = "arith.extsi"(%70) : (i8) -> i64
        "memref.store"(%111, %103, %110) <{nontemporal = false}> : (i64, memref<?xi64>, index) -> ()
        %112 = "memref.alloca"() <{operandSegmentSizes = array<i32: 0, 0>}> : () -> memref<index>
        %113 = "arith.constant"() <{value = 4 : index}> : () -> index
        "memref.store"(%113, %112) : (index, memref<index>) -> ()
        %114 = "memref.load"(%48) <{nontemporal = false}> : (memref<?x?xi64>) -> i64
        %115 = "memref.load"(%112) : (memref<index>) -> index
        "memref.store"(%114, %103, %115) <{nontemporal = false}> : (i64, memref<?xi64>, index) -> ()
        %116 = "arith.constant"() <{value = 1 : index}> : () -> index
        %117 = "arith.addi"(%115, %116) : (index, index) -> index
        "memref.store"(%117, %112) : (index, memref<index>) -> ()
        %118 = "polygeist.get_func"() <{name = @__arts_edt_3}> : () -> !llvm.ptr<!llvm.func<void (i32, memref<?xi64>, i32, memref<?x!llvm.struct<(i64, i32, ptr)>>)>>
        %119 = "polygeist.pointer2memref"(%118) : (!llvm.ptr<!llvm.func<void (i32, memref<?xi64>, i32, memref<?x!llvm.struct<(i64, i32, ptr)>>)>>) -> memref<?x!llvm.func<void (i32, memref<?xi64>, i32, memref<?x!llvm.struct<(i64, i32, ptr)>>)>>
        %120 = "func.call"(%119, %72, %102, %103, %95, %71) <{callee = @artsEdtCreateWithEpoch}> : (memref<?x!llvm.func<void (i32, memref<?xi64>, i32, memref<?x!llvm.struct<(i64, i32, ptr)>>)>>, i32, i32, memref<?xi64>, i32, i64) -> i64
        %121 = "memref.load"(%48, %arg4, %64) <{nontemporal = false}> : (memref<?x?xi64>, index, index) -> i64
        %122 = "memref.load"(%44, %arg4, %64) <{nontemporal = false}> : (memref<?x?xi64>, index, index) -> i64
        %123 = "arith.index_cast"(%76) : (index) -> i32
        "func.call"(%121, %120, %123, %122) <{callee = @artsAddDependenceToPersistentEvent}> : (i64, i64, i32, i64) -> ()
        %124 = "memref.load"(%48, %62, %64) <{nontemporal = false}> : (memref<?x?xi64>, index, index) -> i64
        %125 = "memref.load"(%44, %62, %64) <{nontemporal = false}> : (memref<?x?xi64>, index, index) -> i64
        %126 = "arith.index_cast"(%80) : (index) -> i32
        "func.call"(%124, %120, %126, %125) <{callee = @artsAddDependenceToPersistentEvent}> : (i64, i64, i32, i64) -> ()
        %127 = "memref.load"(%48, %62, %arg5) <{nontemporal = false}> : (memref<?x?xi64>, index, index) -> i64
        %128 = "memref.load"(%44, %62, %arg5) <{nontemporal = false}> : (memref<?x?xi64>, index, index) -> i64
        %129 = "arith.index_cast"(%84) : (index) -> i32
        "func.call"(%127, %120, %129, %128) <{callee = @artsAddDependenceToPersistentEvent}> : (i64, i64, i32, i64) -> ()
        %130 = "memref.load"(%48, %arg4, %arg5) <{nontemporal = false}> : (memref<?x?xi64>, index, index) -> i64
        %131 = "memref.load"(%44, %arg4, %arg5) <{nontemporal = false}> : (memref<?x?xi64>, index, index) -> i64
        %132 = "arith.index_cast"(%88) : (index) -> i32
        "func.call"(%130, %120, %132, %131) <{callee = @artsAddDependenceToPersistentEvent}> : (i64, i64, i32, i64) -> ()
        %133 = "memref.load"(%48, %arg4, %arg5) <{nontemporal = false}> : (memref<?x?xi64>, index, index) -> i64
        %134 = "memref.load"(%44, %arg4, %arg5) <{nontemporal = false}> : (memref<?x?xi64>, index, index) -> i64
        "func.call"(%133, %134) <{callee = @artsPersistentEventIncrementLatch}> : (i64, i64) -> ()
        "scf.yield"() : () -> ()
      }) : (index, index, index) -> ()
      "scf.yield"() : () -> ()
    }) : (index, index, index) -> ()
    "func.return"() : () -> ()
  }) : () -> ()
  "func.func"() <{function_type = (i32, memref<?xi64>, i32, memref<?x!llvm.struct<(i64, i32, ptr)>>) -> (), sym_name = "__arts_edt_3", sym_visibility = "private"}> ({
  ^bb0(%arg0: i32, %arg1: memref<?xi64>, %arg2: i32, %arg3: memref<?x!llvm.struct<(i64, i32, ptr)>>):
    %0 = "func.call"() <{callee = @artsGetCurrentGuid}> : () -> i64
    %1 = "arith.constant"() <{value = 2 : i32}> : () -> i32
    %2 = "arith.constant"() <{value = -1 : i32}> : () -> i32
    %3 = "arith.constant"() <{value = -2 : i32}> : () -> i32
    %4 = "arith.constant"() <{value = 0 : i32}> : () -> i32
    %5 = "arith.constant"() <{value = 0 : index}> : () -> index
    %6 = "memref.load"(%arg1, %5) <{nontemporal = false}> : (memref<?xi64>, index) -> i64
    %7 = "arith.trunci"(%6) : (i64) -> i32
    %8 = "arith.constant"() <{value = 1 : index}> : () -> index
    %9 = "memref.load"(%arg1, %8) <{nontemporal = false}> : (memref<?xi64>, index) -> i64
    %10 = "arith.trunci"(%9) : (i64) -> i32
    %11 = "arith.constant"() <{value = 2 : index}> : () -> index
    %12 = "memref.load"(%arg1, %11) <{nontemporal = false}> : (memref<?xi64>, index) -> i64
    %13 = "arith.trunci"(%12) : (i64) -> i8
    %14 = "arith.constant"() <{value = 3 : index}> : () -> index
    %15 = "memref.load"(%arg1, %14) <{nontemporal = false}> : (memref<?xi64>, index) -> i64
    %16 = "arith.trunci"(%15) : (i64) -> i8
    %17 = "arith.constant"() <{value = 0 : index}> : () -> index
    %18 = "arith.constant"() <{value = 1 : index}> : () -> index
    %19 = "memref.alloca"() <{operandSegmentSizes = array<i32: 0, 0>}> : () -> memref<index>
    "memref.store"(%17, %19) : (index, memref<index>) -> ()
    %20 = "polygeist.typeSize"() <{source = !llvm.struct<(i64, i32, ptr)>}> : () -> index
    %21 = "polygeist.memref2pointer"(%arg3) : (memref<?x!llvm.struct<(i64, i32, ptr)>>) -> !llvm.ptr
    %22 = "memref.load"(%19) : (memref<index>) -> index
    %23 = "arith.muli"(%22, %20) : (index, index) -> index
    %24 = "arith.index_cast"(%23) : (index) -> i32
    %25 = "llvm.getelementptr"(%21, %24) <{elem_type = i8, rawConstantIndices = array<i32: -2147483648>}> : (!llvm.ptr, i32) -> !llvm.ptr
    %26 = "arith.constant"() <{value = 0 : i32}> : () -> i32
    %27 = "llvm.getelementptr"(%25, %26) <{elem_type = !llvm.struct<(i64, i32, ptr)>, rawConstantIndices = array<i32: -2147483648, 0>}> : (!llvm.ptr, i32) -> !llvm.ptr
    %28 = "llvm.load"(%27) <{ordering = 0 : i64}> : (!llvm.ptr) -> i64
    %29 = "arith.constant"() <{value = 0 : i32}> : () -> i32
    %30 = "arith.constant"() <{value = 2 : i32}> : () -> i32
    %31 = "llvm.getelementptr"(%25, %29) <{elem_type = !llvm.struct<(i64, i32, ptr)>, rawConstantIndices = array<i32: -2147483648, 2>}> : (!llvm.ptr, i32) -> !llvm.ptr
    %32 = "llvm.load"(%31) <{ordering = 0 : i64}> : (!llvm.ptr) -> memref<?xi8>
    %33 = "arith.addi"(%22, %18) : (index, index) -> index
    "memref.store"(%33, %19) : (index, memref<index>) -> ()
    %34 = "memref.load"(%19) : (memref<index>) -> index
    %35 = "arith.muli"(%34, %20) : (index, index) -> index
    %36 = "arith.index_cast"(%35) : (index) -> i32
    %37 = "llvm.getelementptr"(%21, %36) <{elem_type = i8, rawConstantIndices = array<i32: -2147483648>}> : (!llvm.ptr, i32) -> !llvm.ptr
    %38 = "arith.constant"() <{value = 0 : i32}> : () -> i32
    %39 = "llvm.getelementptr"(%37, %38) <{elem_type = !llvm.struct<(i64, i32, ptr)>, rawConstantIndices = array<i32: -2147483648, 0>}> : (!llvm.ptr, i32) -> !llvm.ptr
    %40 = "llvm.load"(%39) <{ordering = 0 : i64}> : (!llvm.ptr) -> i64
    %41 = "arith.constant"() <{value = 0 : i32}> : () -> i32
    %42 = "arith.constant"() <{value = 2 : i32}> : () -> i32
    %43 = "llvm.getelementptr"(%37, %41) <{elem_type = !llvm.struct<(i64, i32, ptr)>, rawConstantIndices = array<i32: -2147483648, 2>}> : (!llvm.ptr, i32) -> !llvm.ptr
    %44 = "llvm.load"(%43) <{ordering = 0 : i64}> : (!llvm.ptr) -> memref<?xi8>
    %45 = "arith.addi"(%34, %18) : (index, index) -> index
    "memref.store"(%45, %19) : (index, memref<index>) -> ()
    %46 = "memref.load"(%19) : (memref<index>) -> index
    %47 = "arith.muli"(%46, %20) : (index, index) -> index
    %48 = "arith.index_cast"(%47) : (index) -> i32
    %49 = "llvm.getelementptr"(%21, %48) <{elem_type = i8, rawConstantIndices = array<i32: -2147483648>}> : (!llvm.ptr, i32) -> !llvm.ptr
    %50 = "arith.constant"() <{value = 0 : i32}> : () -> i32
    %51 = "llvm.getelementptr"(%49, %50) <{elem_type = !llvm.struct<(i64, i32, ptr)>, rawConstantIndices = array<i32: -2147483648, 0>}> : (!llvm.ptr, i32) -> !llvm.ptr
    %52 = "llvm.load"(%51) <{ordering = 0 : i64}> : (!llvm.ptr) -> i64
    %53 = "arith.constant"() <{value = 0 : i32}> : () -> i32
    %54 = "arith.constant"() <{value = 2 : i32}> : () -> i32
    %55 = "llvm.getelementptr"(%49, %53) <{elem_type = !llvm.struct<(i64, i32, ptr)>, rawConstantIndices = array<i32: -2147483648, 2>}> : (!llvm.ptr, i32) -> !llvm.ptr
    %56 = "llvm.load"(%55) <{ordering = 0 : i64}> : (!llvm.ptr) -> memref<?xi8>
    %57 = "arith.addi"(%46, %18) : (index, index) -> index
    "memref.store"(%57, %19) : (index, memref<index>) -> ()
    %58 = "memref.load"(%19) : (memref<index>) -> index
    %59 = "arith.muli"(%58, %20) : (index, index) -> index
    %60 = "arith.index_cast"(%59) : (index) -> i32
    %61 = "llvm.getelementptr"(%21, %60) <{elem_type = i8, rawConstantIndices = array<i32: -2147483648>}> : (!llvm.ptr, i32) -> !llvm.ptr
    %62 = "arith.constant"() <{value = 0 : i32}> : () -> i32
    %63 = "llvm.getelementptr"(%61, %62) <{elem_type = !llvm.struct<(i64, i32, ptr)>, rawConstantIndices = array<i32: -2147483648, 0>}> : (!llvm.ptr, i32) -> !llvm.ptr
    %64 = "llvm.load"(%63) <{ordering = 0 : i64}> : (!llvm.ptr) -> i64
    %65 = "arith.constant"() <{value = 0 : i32}> : () -> i32
    %66 = "arith.constant"() <{value = 2 : i32}> : () -> i32
    %67 = "llvm.getelementptr"(%61, %65) <{elem_type = !llvm.struct<(i64, i32, ptr)>, rawConstantIndices = array<i32: -2147483648, 2>}> : (!llvm.ptr, i32) -> !llvm.ptr
    %68 = "llvm.load"(%67) <{ordering = 0 : i64}> : (!llvm.ptr) -> memref<?xi8>
    %69 = "arith.addi"(%58, %18) : (index, index) -> index
    "memref.store"(%69, %19) : (index, memref<index>) -> ()
    %70 = "llvm.mlir.addressof"() <{global_name = @str4}> : () -> !llvm.ptr
    %71 = "llvm.getelementptr"(%70) <{elem_type = !llvm.array<29 x i8>, rawConstantIndices = array<i32: 0, 0>}> : (!llvm.ptr) -> !llvm.ptr
    %72 = "llvm.call"(%71, %7, %10) <{callee = @printf, callee_type = !llvm.func<i32 (ptr, ...)>, fastmathFlags = #llvm.fastmath<none>}> : (!llvm.ptr, i32, i32) -> i32
    %73 = "polygeist.memref2pointer"(%44) : (memref<?xi8>) -> !llvm.ptr
    %74 = "llvm.load"(%73) <{ordering = 0 : i64}> : (!llvm.ptr) -> i32
    %75 = "arith.cmpi"(%13, %16) <{predicate = 0 : i64}> : (i8, i8) -> i1
    %76 = "arith.select"(%75, %1, %2) : (i1, i32, i32) -> i32
    %77 = "arith.addi"(%74, %76) : (i32, i32) -> i32
    %78 = "polygeist.memref2pointer"(%56) : (memref<?xi8>) -> !llvm.ptr
    %79 = "llvm.load"(%78) <{ordering = 0 : i64}> : (!llvm.ptr) -> i32
    %80 = "arith.addi"(%79, %3) : (i32, i32) -> i32
    %81 = "polygeist.memref2pointer"(%32) : (memref<?xi8>) -> !llvm.ptr
    %82 = "llvm.load"(%81) <{ordering = 0 : i64}> : (!llvm.ptr) -> i32
    %83 = "arith.addi"(%82, %3) : (i32, i32) -> i32
    %84 = "arith.cmpi"(%77, %80) <{predicate = 4 : i64}> : (i32, i32) -> i1
    %85 = "scf.if"(%84) ({
      %98 = "arith.cmpi"(%77, %83) <{predicate = 4 : i64}> : (i32, i32) -> i1
      %99 = "arith.select"(%98, %77, %83) : (i1, i32, i32) -> i32
      "scf.yield"(%99) : (i32) -> ()
    }, {
      %98 = "arith.cmpi"(%80, %83) <{predicate = 4 : i64}> : (i32, i32) -> i1
      %99 = "arith.select"(%98, %80, %83) : (i1, i32, i32) -> i32
      "scf.yield"(%99) : (i32) -> ()
    }) : (i1) -> i32
    %86 = "polygeist.memref2pointer"(%68) : (memref<?xi8>) -> !llvm.ptr
    "llvm.store"(%85, %86) <{ordering = 0 : i64}> : (i32, !llvm.ptr) -> ()
    %87 = "polygeist.memref2pointer"(%68) : (memref<?xi8>) -> !llvm.ptr
    %88 = "llvm.load"(%87) <{ordering = 0 : i64}> : (!llvm.ptr) -> i32
    %89 = "arith.cmpi"(%88, %4) <{predicate = 2 : i64}> : (i32, i32) -> i1
    "scf.if"(%89) ({
      %98 = "polygeist.memref2pointer"(%68) : (memref<?xi8>) -> !llvm.ptr
      "llvm.store"(%4, %98) <{ordering = 0 : i64}> : (i32, !llvm.ptr) -> ()
      "scf.yield"() : () -> ()
    }, {
    }) : (i1) -> ()
    %90 = "memref.alloca"() <{operandSegmentSizes = array<i32: 0, 0>}> : () -> memref<index>
    %91 = "arith.constant"() <{value = 4 : index}> : () -> index
    "memref.store"(%91, %90) : (index, memref<index>) -> ()
    %92 = "polygeist.memref2pointer"(%arg1) : (memref<?xi64>) -> !llvm.ptr
    %93 = "memref.load"(%90) : (memref<index>) -> index
    %94 = "polygeist.subindex"(%arg1, %93) : (memref<?xi64>, index) -> memref<i64>
    %95 = "memref.load"(%94) : (memref<i64>) -> i64
    "func.call"(%95, %64) <{callee = @artsPersistentEventDecrementLatch}> : (i64, i64) -> ()
    %96 = "arith.constant"() <{value = 1 : index}> : () -> index
    %97 = "arith.addi"(%93, %96) : (index, index) -> index
    "memref.store"(%97, %90) : (index, memref<index>) -> ()
    "func.return"() : () -> ()
  }) : () -> ()
  "func.func"() <{function_type = (i32, memref<?xmemref<?xi8>>) -> (), sym_name = "artsMain"}> ({
  ^bb0(%arg0: i32, %arg1: memref<?xmemref<?xi8>>):
    %0 = "func.call"() <{callee = @mainBody}> : () -> i32
    "func.call"() <{callee = @artsShutdown}> : () -> ()
    "func.return"() : () -> ()
  }) : () -> ()
  "func.func"() <{function_type = (i32, memref<?xmemref<?xi8>>) -> i32, sym_name = "main"}> ({
  ^bb0(%arg0: i32, %arg1: memref<?xmemref<?xi8>>):
    %0 = "func.call"(%arg0, %arg1) <{callee = @artsRT}> : (i32, memref<?xmemref<?xi8>>) -> i32
    %1 = "arith.constant"() <{value = 0 : i32}> : () -> i32
    "func.return"(%1) : (i32) -> ()
  }) : () -> ()
}) {dlti.dl_spec = #dlti.dl_spec<#dlti.dl_entry<i8, dense<8> : vector<2xi32>>, #dlti.dl_entry<i16, dense<16> : vector<2xi32>>, #dlti.dl_entry<f16, dense<16> : vector<2xi32>>, #dlti.dl_entry<i32, dense<32> : vector<2xi32>>, #dlti.dl_entry<f128, dense<128> : vector<2xi32>>, #dlti.dl_entry<!llvm.ptr<270>, dense<32> : vector<4xi32>>, #dlti.dl_entry<f64, dense<64> : vector<2xi32>>, #dlti.dl_entry<!llvm.ptr<272>, dense<64> : vector<4xi32>>, #dlti.dl_entry<!llvm.ptr<271>, dense<32> : vector<4xi32>>, #dlti.dl_entry<i64, dense<64> : vector<2xi32>>, #dlti.dl_entry<f80, dense<128> : vector<2xi32>>, #dlti.dl_entry<i1, dense<8> : vector<2xi32>>, #dlti.dl_entry<!llvm.ptr, dense<64> : vector<4xi32>>, #dlti.dl_entry<"dlti.endianness", "little">, #dlti.dl_entry<"dlti.stack_alignment", 128 : i32>>, llvm.data_layout = "e-m:e-p270:32:32-p271:32:32-p272:64:64-i64:64-f80:128-n8:16:32:64-S128", llvm.target_triple = "x86_64-unknown-linux-gnu", "polygeist.target-cpu" = "x86-64", "polygeist.target-features" = "+cmov,+cx8,+fxsr,+mmx,+sse,+sse2,+x87", "polygeist.tune-cpu" = "generic"} : () -> ()
error: cannot be converted to LLVM IR: missing `LLVMTranslationDialectInterface` registration for dialect for op: func.func
"builtin.module"() ({
  "func.func"() <{function_type = (i32, memref<?xmemref<?xi8>>) -> i32, sym_name = "artsRT", sym_visibility = "private"}> ({
  }) {llvm.linkage = #llvm.linkage<external>} : () -> ()
  "func.func"() <{function_type = () -> (), sym_name = "artsShutdown", sym_visibility = "private"}> ({
  }) {llvm.linkage = #llvm.linkage<external>} : () -> ()
  "func.func"() <{function_type = (i64, i64) -> (), sym_name = "artsPersistentEventIncrementLatch", sym_visibility = "private"}> ({
  }) {llvm.linkage = #llvm.linkage<external>} : () -> ()
  "func.func"() <{function_type = (i64, i64) -> (), sym_name = "artsPersistentEventDecrementLatch", sym_visibility = "private"}> ({
  }) {llvm.linkage = #llvm.linkage<external>} : () -> ()
  "func.func"() <{function_type = () -> i64, sym_name = "artsGetCurrentEpochGuid", sym_visibility = "private"}> ({
  }) {llvm.linkage = #llvm.linkage<external>} : () -> ()
  "func.func"() <{function_type = (i64, i64, i32, i64) -> (), sym_name = "artsAddDependenceToPersistentEvent", sym_visibility = "private"}> ({
  }) {llvm.linkage = #llvm.linkage<external>} : () -> ()
  "func.func"() <{function_type = () -> i64, sym_name = "artsGetCurrentGuid", sym_visibility = "private"}> ({
  }) {llvm.linkage = #llvm.linkage<external>, llvm.nounwind, llvm.readnone} : () -> ()
  "func.func"() <{function_type = (memref<?x!llvm.func<void (i32, memref<?xi64>, i32, memref<?x!llvm.struct<(i64, i32, ptr)>>)>>, i32, i32, memref<?xi64>, i32, i64) -> i64, sym_name = "artsEdtCreateWithEpoch", sym_visibility = "private"}> ({
  }) {llvm.linkage = #llvm.linkage<external>} : () -> ()
  "func.func"() <{function_type = (i32, i32, i64) -> i64, sym_name = "artsPersistentEventCreate", sym_visibility = "private"}> ({
  }) {llvm.linkage = #llvm.linkage<external>} : () -> ()
  "func.func"() <{function_type = (i64) -> i1, sym_name = "artsWaitOnHandle", sym_visibility = "private"}> ({
  }) {llvm.linkage = #llvm.linkage<external>} : () -> ()
  "func.func"() <{function_type = (i64, i32) -> i64, sym_name = "artsInitializeAndStartEpoch", sym_visibility = "private"}> ({
  }) {llvm.linkage = #llvm.linkage<external>} : () -> ()
  "func.func"() <{function_type = (memref<?x!llvm.func<void (i32, memref<?xi64>, i32, memref<?x!llvm.struct<(i64, i32, ptr)>>)>>, i32, i32, memref<?xi64>, i32) -> i64, sym_name = "artsEdtCreate", sym_visibility = "private"}> ({
  }) {llvm.linkage = #llvm.linkage<external>} : () -> ()
  "func.func"() <{function_type = (i64, i64) -> memref<?xi8>, sym_name = "artsDbCreateWithGuid", sym_visibility = "private"}> ({
  }) {llvm.linkage = #llvm.linkage<external>} : () -> ()
  "func.func"() <{function_type = (i32, i32) -> i64, sym_name = "artsReserveGuidRoute", sym_visibility = "private"}> ({
  }) {llvm.linkage = #llvm.linkage<external>} : () -> ()
  "func.func"() <{function_type = () -> i32, sym_name = "artsGetCurrentNode", sym_visibility = "private"}> ({
  }) {llvm.linkage = #llvm.linkage<external>, llvm.nounwind, llvm.readnone} : () -> ()
  "llvm.mlir.global"() <{addr_space = 0 : i32, constant, global_type = !llvm.array<23 x i8>, linkage = #llvm.linkage<internal>, sym_name = "str12", unnamed_addr = 0 : i64, value = "Results DO NOT match!\0A\00", visibility_ = 0 : i64}> ({
  }) : () -> ()
  "llvm.mlir.global"() <{addr_space = 0 : i32, constant, global_type = !llvm.array<16 x i8>, linkage = #llvm.linkage<internal>, sym_name = "str11", unnamed_addr = 0 : i64, value = "Results match!\0A\00", visibility_ = 0 : i64}> ({
  }) : () -> ()
  "llvm.mlir.global"() <{addr_space = 0 : i32, constant, global_type = !llvm.array<50 x i8>, linkage = #llvm.linkage<internal>, sym_name = "str10", unnamed_addr = 0 : i64, value = "Mismatch at (%d, %d): Parallel=%d, Sequential=%d\0A\00", visibility_ = 0 : i64}> ({
  }) : () -> ()
  "llvm.mlir.global"() <{addr_space = 0 : i32, constant, global_type = !llvm.array<26 x i8>, linkage = #llvm.linkage<internal>, sym_name = "str9", unnamed_addr = 0 : i64, value = "Sequential Score Matrix:\0A\00", visibility_ = 0 : i64}> ({
  }) : () -> ()
  "llvm.mlir.global"() <{addr_space = 0 : i32, constant, global_type = !llvm.array<2 x i8>, linkage = #llvm.linkage<internal>, sym_name = "str8", unnamed_addr = 0 : i64, value = "\0A\00", visibility_ = 0 : i64}> ({
  }) : () -> ()
  "llvm.mlir.global"() <{addr_space = 0 : i32, constant, global_type = !llvm.array<4 x i8>, linkage = #llvm.linkage<internal>, sym_name = "str7", unnamed_addr = 0 : i64, value = "%d \00", visibility_ = 0 : i64}> ({
  }) : () -> ()
  "llvm.mlir.global"() <{addr_space = 0 : i32, constant, global_type = !llvm.array<24 x i8>, linkage = #llvm.linkage<internal>, sym_name = "str6", unnamed_addr = 0 : i64, value = "Parallel Score Matrix:\0A\00", visibility_ = 0 : i64}> ({
  }) : () -> ()
  "llvm.mlir.global"() <{addr_space = 0 : i32, constant, global_type = !llvm.array<22 x i8>, linkage = #llvm.linkage<internal>, sym_name = "str5", unnamed_addr = 0 : i64, value = "Process has finished\0A\00", visibility_ = 0 : i64}> ({
  }) : () -> ()
  "llvm.mlir.global"() <{addr_space = 0 : i32, constant, global_type = !llvm.array<29 x i8>, linkage = #llvm.linkage<internal>, sym_name = "str4", unnamed_addr = 0 : i64, value = "Running task for i=%d, j=%d\0A\00", visibility_ = 0 : i64}> ({
  }) : () -> ()
  "llvm.mlir.global"() <{addr_space = 0 : i32, constant, global_type = !llvm.array<10 x i8>, linkage = #llvm.linkage<internal>, sym_name = "str3", unnamed_addr = 0 : i64, value = "seq2: %s\0A\00", visibility_ = 0 : i64}> ({
  }) : () -> ()
  "llvm.mlir.global"() <{addr_space = 0 : i32, constant, global_type = !llvm.array<10 x i8>, linkage = #llvm.linkage<internal>, sym_name = "str2", unnamed_addr = 0 : i64, value = "seq1: %s\0A\00", visibility_ = 0 : i64}> ({
  }) : () -> ()
  "llvm.func"() <{CConv = #llvm.cconv<ccc>, function_type = !llvm.func<i32 (ptr, ...)>, linkage = #llvm.linkage<external>, sym_name = "printf", unnamed_addr = 0 : i64, visibility_ = 0 : i64}> ({
  }) : () -> ()
  "llvm.mlir.global"() <{addr_space = 0 : i32, constant, global_type = !llvm.array<8 x i8>, linkage = #llvm.linkage<internal>, sym_name = "str1", unnamed_addr = 0 : i64, value = "TATGCGC\00", visibility_ = 0 : i64}> ({
  }) : () -> ()
  "llvm.mlir.global"() <{addr_space = 0 : i32, constant, global_type = !llvm.array<9 x i8>, linkage = #llvm.linkage<internal>, sym_name = "str0", unnamed_addr = 0 : i64, value = "AGTACGCA\00", visibility_ = 0 : i64}> ({
  }) : () -> ()
  "func.func"() <{function_type = () -> i32, sym_name = "mainBody"}> ({
    %0 = "arith.constant"() <{value = 4 : index}> : () -> index
    %1 = "arith.constant"() <{value = 9 : index}> : () -> index
    %2 = "arith.constant"() <{value = 1 : index}> : () -> index
    %3 = "arith.constant"() <{value = 8 : index}> : () -> index
    %4 = "arith.constant"() <{value = 7 : index}> : () -> index
    %5 = "arith.constant"() <{value = 6 : index}> : () -> index
    %6 = "arith.constant"() <{value = 5 : index}> : () -> index
    %7 = "arith.constant"() <{value = 3 : index}> : () -> index
    %8 = "arith.constant"() <{value = 2 : index}> : () -> index
    %9 = "arith.constant"() <{value = 0 : index}> : () -> index
    %10 = "arith.constant"() <{value = 1 : i32}> : () -> i32
    %11 = "arith.constant"() <{value = 0 : i32}> : () -> i32
    %12 = "arith.constant"() <{value = -2 : i32}> : () -> i32
    %13 = "arith.constant"() <{value = -1 : i32}> : () -> i32
    %14 = "arith.constant"() <{value = 2 : i32}> : () -> i32
    %15 = "func.call"() <{callee = @artsGetCurrentNode}> : () -> i32
    %16 = "memref.alloca"() <{operandSegmentSizes = array<i32: 0, 0>}> : () -> memref<i64>
    %17 = "arith.constant"() <{value = 0 : i32}> : () -> i32
    %18 = "arith.constant"() <{value = 0 : i64}> : () -> i64
    %19 = "func.call"(%15, %17, %18) <{callee = @artsPersistentEventCreate}> : (i32, i32, i64) -> i64
    "memref.store"(%19, %16) <{nontemporal = false}> : (i64, memref<i64>) -> ()
    %20 = "func.call"() <{callee = @artsGetCurrentNode}> : () -> i32
    %21 = "arith.index_cast"(%3) : (index) -> i64
    %22 = "arith.constant"() <{value = 8 : i32}> : () -> i32
    %23 = "func.call"(%22, %20) <{callee = @artsReserveGuidRoute}> : (i32, i32) -> i64
    %24 = "func.call"(%23, %21) <{callee = @artsDbCreateWithGuid}> : (i64, i64) -> memref<?xi8>
    %25 = "func.call"() <{callee = @artsGetCurrentNode}> : () -> i32
    %26 = "memref.alloca"() <{operandSegmentSizes = array<i32: 0, 0>}> : () -> memref<i64>
    %27 = "arith.constant"() <{value = 0 : i32}> : () -> i32
    %28 = "arith.constant"() <{value = 0 : i64}> : () -> i64
    %29 = "func.call"(%25, %27, %28) <{callee = @artsPersistentEventCreate}> : (i32, i32, i64) -> i64
    "memref.store"(%29, %26) <{nontemporal = false}> : (i64, memref<i64>) -> ()
    %30 = "func.call"() <{callee = @artsGetCurrentNode}> : () -> i32
    %31 = "arith.index_cast"(%1) : (index) -> i64
    %32 = "arith.constant"() <{value = 8 : i32}> : () -> i32
    %33 = "func.call"(%32, %30) <{callee = @artsReserveGuidRoute}> : (i32, i32) -> i64
    %34 = "func.call"(%33, %31) <{callee = @artsDbCreateWithGuid}> : (i64, i64) -> memref<?xi8>
    %35 = "llvm.mlir.addressof"() <{global_name = @str0}> : () -> !llvm.ptr
    %36 = "llvm.getelementptr"(%35) <{elem_type = !llvm.array<9 x i8>, rawConstantIndices = array<i32: 0, 0>}> : (!llvm.ptr) -> !llvm.ptr
    %37 = "llvm.load"(%36) <{ordering = 0 : i64}> : (!llvm.ptr) -> i8
    %38 = "polygeist.subindex"(%34, %9) : (memref<?xi8>, index) -> memref<memref<?xi8>>
    %39 = "polygeist.memref2pointer"(%38) : (memref<memref<?xi8>>) -> !llvm.ptr
    "llvm.store"(%37, %39) <{ordering = 0 : i64}> : (i8, !llvm.ptr) -> ()
    %40 = "llvm.getelementptr"(%35) <{elem_type = !llvm.array<9 x i8>, rawConstantIndices = array<i32: 0, 1>}> : (!llvm.ptr) -> !llvm.ptr
    %41 = "llvm.load"(%40) <{ordering = 0 : i64}> : (!llvm.ptr) -> i8
    %42 = "polygeist.subindex"(%34, %2) : (memref<?xi8>, index) -> memref<memref<?xi8>>
    %43 = "polygeist.memref2pointer"(%42) : (memref<memref<?xi8>>) -> !llvm.ptr
    "llvm.store"(%41, %43) <{ordering = 0 : i64}> : (i8, !llvm.ptr) -> ()
    %44 = "llvm.getelementptr"(%35) <{elem_type = !llvm.array<9 x i8>, rawConstantIndices = array<i32: 0, 2>}> : (!llvm.ptr) -> !llvm.ptr
    %45 = "llvm.load"(%44) <{ordering = 0 : i64}> : (!llvm.ptr) -> i8
    %46 = "polygeist.subindex"(%34, %8) : (memref<?xi8>, index) -> memref<memref<?xi8>>
    %47 = "polygeist.memref2pointer"(%46) : (memref<memref<?xi8>>) -> !llvm.ptr
    "llvm.store"(%45, %47) <{ordering = 0 : i64}> : (i8, !llvm.ptr) -> ()
    %48 = "llvm.getelementptr"(%35) <{elem_type = !llvm.array<9 x i8>, rawConstantIndices = array<i32: 0, 3>}> : (!llvm.ptr) -> !llvm.ptr
    %49 = "llvm.load"(%48) <{ordering = 0 : i64}> : (!llvm.ptr) -> i8
    %50 = "polygeist.subindex"(%34, %7) : (memref<?xi8>, index) -> memref<memref<?xi8>>
    %51 = "polygeist.memref2pointer"(%50) : (memref<memref<?xi8>>) -> !llvm.ptr
    "llvm.store"(%49, %51) <{ordering = 0 : i64}> : (i8, !llvm.ptr) -> ()
    %52 = "llvm.getelementptr"(%35) <{elem_type = !llvm.array<9 x i8>, rawConstantIndices = array<i32: 0, 4>}> : (!llvm.ptr) -> !llvm.ptr
    %53 = "llvm.load"(%52) <{ordering = 0 : i64}> : (!llvm.ptr) -> i8
    %54 = "polygeist.subindex"(%34, %0) : (memref<?xi8>, index) -> memref<memref<?xi8>>
    %55 = "polygeist.memref2pointer"(%54) : (memref<memref<?xi8>>) -> !llvm.ptr
    "llvm.store"(%53, %55) <{ordering = 0 : i64}> : (i8, !llvm.ptr) -> ()
    %56 = "llvm.getelementptr"(%35) <{elem_type = !llvm.array<9 x i8>, rawConstantIndices = array<i32: 0, 5>}> : (!llvm.ptr) -> !llvm.ptr
    %57 = "llvm.load"(%56) <{ordering = 0 : i64}> : (!llvm.ptr) -> i8
    %58 = "polygeist.subindex"(%34, %6) : (memref<?xi8>, index) -> memref<memref<?xi8>>
    %59 = "polygeist.memref2pointer"(%58) : (memref<memref<?xi8>>) -> !llvm.ptr
    "llvm.store"(%57, %59) <{ordering = 0 : i64}> : (i8, !llvm.ptr) -> ()
    %60 = "llvm.getelementptr"(%35) <{elem_type = !llvm.array<9 x i8>, rawConstantIndices = array<i32: 0, 6>}> : (!llvm.ptr) -> !llvm.ptr
    %61 = "llvm.load"(%60) <{ordering = 0 : i64}> : (!llvm.ptr) -> i8
    %62 = "polygeist.subindex"(%34, %5) : (memref<?xi8>, index) -> memref<memref<?xi8>>
    %63 = "polygeist.memref2pointer"(%62) : (memref<memref<?xi8>>) -> !llvm.ptr
    "llvm.store"(%61, %63) <{ordering = 0 : i64}> : (i8, !llvm.ptr) -> ()
    %64 = "llvm.getelementptr"(%35) <{elem_type = !llvm.array<9 x i8>, rawConstantIndices = array<i32: 0, 7>}> : (!llvm.ptr) -> !llvm.ptr
    %65 = "llvm.load"(%64) <{ordering = 0 : i64}> : (!llvm.ptr) -> i8
    %66 = "polygeist.subindex"(%34, %4) : (memref<?xi8>, index) -> memref<memref<?xi8>>
    %67 = "polygeist.memref2pointer"(%66) : (memref<memref<?xi8>>) -> !llvm.ptr
    "llvm.store"(%65, %67) <{ordering = 0 : i64}> : (i8, !llvm.ptr) -> ()
    %68 = "llvm.getelementptr"(%35) <{elem_type = !llvm.array<9 x i8>, rawConstantIndices = array<i32: 0, 8>}> : (!llvm.ptr) -> !llvm.ptr
    %69 = "llvm.load"(%68) <{ordering = 0 : i64}> : (!llvm.ptr) -> i8
    %70 = "polygeist.subindex"(%34, %3) : (memref<?xi8>, index) -> memref<memref<?xi8>>
    %71 = "polygeist.memref2pointer"(%70) : (memref<memref<?xi8>>) -> !llvm.ptr
    "llvm.store"(%69, %71) <{ordering = 0 : i64}> : (i8, !llvm.ptr) -> ()
    %72 = "llvm.mlir.addressof"() <{global_name = @str1}> : () -> !llvm.ptr
    %73 = "llvm.getelementptr"(%72) <{elem_type = !llvm.array<8 x i8>, rawConstantIndices = array<i32: 0, 0>}> : (!llvm.ptr) -> !llvm.ptr
    %74 = "llvm.load"(%73) <{ordering = 0 : i64}> : (!llvm.ptr) -> i8
    %75 = "polygeist.subindex"(%24, %9) : (memref<?xi8>, index) -> memref<memref<?xi8>>
    %76 = "polygeist.memref2pointer"(%75) : (memref<memref<?xi8>>) -> !llvm.ptr
    "llvm.store"(%74, %76) <{ordering = 0 : i64}> : (i8, !llvm.ptr) -> ()
    %77 = "llvm.getelementptr"(%72) <{elem_type = !llvm.array<8 x i8>, rawConstantIndices = array<i32: 0, 1>}> : (!llvm.ptr) -> !llvm.ptr
    %78 = "llvm.load"(%77) <{ordering = 0 : i64}> : (!llvm.ptr) -> i8
    %79 = "polygeist.subindex"(%24, %2) : (memref<?xi8>, index) -> memref<memref<?xi8>>
    %80 = "polygeist.memref2pointer"(%79) : (memref<memref<?xi8>>) -> !llvm.ptr
    "llvm.store"(%78, %80) <{ordering = 0 : i64}> : (i8, !llvm.ptr) -> ()
    %81 = "llvm.getelementptr"(%72) <{elem_type = !llvm.array<8 x i8>, rawConstantIndices = array<i32: 0, 2>}> : (!llvm.ptr) -> !llvm.ptr
    %82 = "llvm.load"(%81) <{ordering = 0 : i64}> : (!llvm.ptr) -> i8
    %83 = "polygeist.subindex"(%24, %8) : (memref<?xi8>, index) -> memref<memref<?xi8>>
    %84 = "polygeist.memref2pointer"(%83) : (memref<memref<?xi8>>) -> !llvm.ptr
    "llvm.store"(%82, %84) <{ordering = 0 : i64}> : (i8, !llvm.ptr) -> ()
    %85 = "llvm.getelementptr"(%72) <{elem_type = !llvm.array<8 x i8>, rawConstantIndices = array<i32: 0, 3>}> : (!llvm.ptr) -> !llvm.ptr
    %86 = "llvm.load"(%85) <{ordering = 0 : i64}> : (!llvm.ptr) -> i8
    %87 = "polygeist.subindex"(%24, %7) : (memref<?xi8>, index) -> memref<memref<?xi8>>
    %88 = "polygeist.memref2pointer"(%87) : (memref<memref<?xi8>>) -> !llvm.ptr
    "llvm.store"(%86, %88) <{ordering = 0 : i64}> : (i8, !llvm.ptr) -> ()
    %89 = "llvm.getelementptr"(%72) <{elem_type = !llvm.array<8 x i8>, rawConstantIndices = array<i32: 0, 4>}> : (!llvm.ptr) -> !llvm.ptr
    %90 = "llvm.load"(%89) <{ordering = 0 : i64}> : (!llvm.ptr) -> i8
    %91 = "polygeist.subindex"(%24, %0) : (memref<?xi8>, index) -> memref<memref<?xi8>>
    %92 = "polygeist.memref2pointer"(%91) : (memref<memref<?xi8>>) -> !llvm.ptr
    "llvm.store"(%90, %92) <{ordering = 0 : i64}> : (i8, !llvm.ptr) -> ()
    %93 = "llvm.getelementptr"(%72) <{elem_type = !llvm.array<8 x i8>, rawConstantIndices = array<i32: 0, 5>}> : (!llvm.ptr) -> !llvm.ptr
    %94 = "llvm.load"(%93) <{ordering = 0 : i64}> : (!llvm.ptr) -> i8
    %95 = "polygeist.subindex"(%24, %6) : (memref<?xi8>, index) -> memref<memref<?xi8>>
    %96 = "polygeist.memref2pointer"(%95) : (memref<memref<?xi8>>) -> !llvm.ptr
    "llvm.store"(%94, %96) <{ordering = 0 : i64}> : (i8, !llvm.ptr) -> ()
    %97 = "llvm.getelementptr"(%72) <{elem_type = !llvm.array<8 x i8>, rawConstantIndices = array<i32: 0, 6>}> : (!llvm.ptr) -> !llvm.ptr
    %98 = "llvm.load"(%97) <{ordering = 0 : i64}> : (!llvm.ptr) -> i8
    %99 = "polygeist.subindex"(%24, %5) : (memref<?xi8>, index) -> memref<memref<?xi8>>
    %100 = "polygeist.memref2pointer"(%99) : (memref<memref<?xi8>>) -> !llvm.ptr
    "llvm.store"(%98, %100) <{ordering = 0 : i64}> : (i8, !llvm.ptr) -> ()
    %101 = "llvm.getelementptr"(%72) <{elem_type = !llvm.array<8 x i8>, rawConstantIndices = array<i32: 0, 7>}> : (!llvm.ptr) -> !llvm.ptr
    %102 = "llvm.load"(%101) <{ordering = 0 : i64}> : (!llvm.ptr) -> i8
    %103 = "polygeist.subindex"(%24, %4) : (memref<?xi8>, index) -> memref<memref<?xi8>>
    %104 = "polygeist.memref2pointer"(%103) : (memref<memref<?xi8>>) -> !llvm.ptr
    "llvm.store"(%102, %104) <{ordering = 0 : i64}> : (i8, !llvm.ptr) -> ()
    %105 = "polygeist.memref2pointer"(%34) : (memref<?xi8>) -> !llvm.ptr
    %106 = "func.call"(%105) <{callee = @strlen}> : (!llvm.ptr) -> i64
    %107 = "arith.trunci"(%106) : (i64) -> i32
    %108 = "polygeist.memref2pointer"(%24) : (memref<?xi8>) -> !llvm.ptr
    %109 = "func.call"(%108) <{callee = @strlen}> : (!llvm.ptr) -> i64
    %110 = "arith.trunci"(%109) : (i64) -> i32
    %111 = "arith.addi"(%107, %10) : (i32, i32) -> i32
    %112 = "arith.index_cast"(%111) : (i32) -> index
    %113 = "arith.addi"(%110, %10) : (i32, i32) -> i32
    %114 = "arith.index_cast"(%113) : (i32) -> index
    %115 = "func.call"() <{callee = @artsGetCurrentNode}> : () -> i32
    %116 = "memref.alloca"(%112, %114) <{operandSegmentSizes = array<i32: 2, 0>}> : (index, index) -> memref<?x?xi64>
    %117 = "arith.constant"() <{value = 0 : index}> : () -> index
    %118 = "arith.constant"() <{value = 1 : index}> : () -> index
    "scf.for"(%117, %112, %118) ({
    ^bb0(%arg0: index):
      %199 = "arith.constant"() <{value = 0 : index}> : () -> index
      %200 = "arith.constant"() <{value = 1 : index}> : () -> index
      "scf.for"(%199, %114, %200) ({
      ^bb0(%arg1: index):
        %201 = "arith.constant"() <{value = 0 : i32}> : () -> i32
        %202 = "arith.constant"() <{value = 0 : i64}> : () -> i64
        %203 = "func.call"(%115, %201, %202) <{callee = @artsPersistentEventCreate}> : (i32, i32, i64) -> i64
        "memref.store"(%203, %116, %arg0, %arg1) <{nontemporal = false}> : (i64, memref<?x?xi64>, index, index) -> ()
        "scf.yield"() : () -> ()
      }) : (index, index, index) -> ()
      "scf.yield"() : () -> ()
    }) : (index, index, index) -> ()
    %119 = "func.call"() <{callee = @artsGetCurrentNode}> : () -> i32
    %120 = "arith.index_cast"(%0) : (index) -> i64
    %121 = "arith.constant"() <{value = 10 : i32}> : () -> i32
    %122 = "memref.alloca"(%112, %114) <{operandSegmentSizes = array<i32: 2, 0>}> : (index, index) -> memref<?x?xi64>
    %123 = "memref.alloca"(%112, %114) <{operandSegmentSizes = array<i32: 2, 0>}> : (index, index) -> memref<?x?xmemref<?xi8>>
    %124 = "arith.constant"() <{value = 0 : index}> : () -> index
    %125 = "arith.constant"() <{value = 1 : index}> : () -> index
    "scf.for"(%124, %112, %125) ({
    ^bb0(%arg0: index):
      %199 = "arith.constant"() <{value = 0 : index}> : () -> index
      %200 = "arith.constant"() <{value = 1 : index}> : () -> index
      "scf.for"(%199, %114, %200) ({
      ^bb0(%arg1: index):
        %201 = "func.call"(%121, %119) <{callee = @artsReserveGuidRoute}> : (i32, i32) -> i64
        %202 = "func.call"(%201, %120) <{callee = @artsDbCreateWithGuid}> : (i64, i64) -> memref<?xi8>
        "memref.store"(%201, %122, %arg0, %arg1) <{nontemporal = false}> : (i64, memref<?x?xi64>, index, index) -> ()
        "memref.store"(%202, %123, %arg0, %arg1) <{nontemporal = false}> : (memref<?xi8>, memref<?x?xmemref<?xi8>>, index, index) -> ()
        "scf.yield"() : () -> ()
      }) : (index, index, index) -> ()
      "scf.yield"() : () -> ()
    }) : (index, index, index) -> ()
    %126 = "memref.alloca"(%112, %114) <{operandSegmentSizes = array<i32: 2, 0>}> : (index, index) -> memref<?x?xi32>
    "scf.for"(%9, %112, %2) ({
    ^bb0(%arg0: index):
      "scf.for"(%9, %114, %2) ({
      ^bb0(%arg1: index):
        %199 = "polygeist.subindex"(%123, %arg0) : (memref<?x?xmemref<?xi8>>, index) -> memref<?xmemref<?xi8>>
        %200 = "polygeist.subindex"(%199, %arg1) : (memref<?xmemref<?xi8>>, index) -> memref<memref<?xi8>>
        %201 = "polygeist.memref2pointer"(%200) : (memref<memref<?xi8>>) -> !llvm.ptr
        %202 = "llvm.load"(%201) <{ordering = 0 : i64}> : (!llvm.ptr) -> !llvm.ptr
        "llvm.store"(%11, %202) <{ordering = 0 : i64}> : (i32, !llvm.ptr) -> ()
        "memref.store"(%11, %126, %arg0, %arg1) : (i32, memref<?x?xi32>, index, index) -> ()
        "scf.yield"() : () -> ()
      }) : (index, index, index) -> ()
      "scf.yield"() : () -> ()
    }) : (index, index, index) -> ()
    %127 = "func.call"() <{callee = @artsGetCurrentNode}> : () -> i32
    %128 = "arith.constant"() <{value = 0 : index}> : () -> index
    %129 = "memref.alloca"() <{operandSegmentSizes = array<i32: 0, 0>}> : () -> memref<index>
    "memref.store"(%128, %129) : (index, memref<index>) -> ()
    %130 = "memref.alloca"() <{operandSegmentSizes = array<i32: 0, 0>}> : () -> memref<index>
    "memref.store"(%128, %130) : (index, memref<index>) -> ()
    %131 = "memref.load"(%130) : (memref<index>) -> index
    %132 = "arith.index_cast"(%131) : (index) -> i32
    %133 = "memref.alloca"() <{operandSegmentSizes = array<i32: 0, 0>}> : () -> memref<index>
    %134 = "arith.constant"() <{value = 0 : index}> : () -> index
    "memref.store"(%134, %133) : (index, memref<index>) -> ()
    %135 = "memref.load"(%133) : (memref<index>) -> index
    %136 = "arith.index_cast"(%135) : (index) -> i32
    %137 = "memref.alloca"(%135) <{operandSegmentSizes = array<i32: 1, 0>}> : (index) -> memref<?xi64>
    %138 = "arith.constant"() <{value = 1 : i32}> : () -> i32
    %139 = "polygeist.get_func"() <{name = @__arts_edt_1}> : () -> !llvm.ptr<!llvm.func<void (i32, memref<?xi64>, i32, memref<?x!llvm.struct<(i64, i32, ptr)>>)>>
    %140 = "polygeist.pointer2memref"(%139) : (!llvm.ptr<!llvm.func<void (i32, memref<?xi64>, i32, memref<?x!llvm.struct<(i64, i32, ptr)>>)>>) -> memref<?x!llvm.func<void (i32, memref<?xi64>, i32, memref<?x!llvm.struct<(i64, i32, ptr)>>)>>
    %141 = "func.call"(%140, %127, %136, %137, %138) <{callee = @artsEdtCreate}> : (memref<?x!llvm.func<void (i32, memref<?xi64>, i32, memref<?x!llvm.struct<(i64, i32, ptr)>>)>>, i32, i32, memref<?xi64>, i32) -> i64
    %142 = "arith.constant"() <{value = 0 : i32}> : () -> i32
    %143 = "func.call"(%141, %142) <{callee = @artsInitializeAndStartEpoch}> : (i64, i32) -> i64
    %144 = "func.call"() <{callee = @artsGetCurrentNode}> : () -> i32
    %145 = "arith.constant"() <{value = 0 : index}> : () -> index
    %146 = "memref.alloca"() <{operandSegmentSizes = array<i32: 0, 0>}> : () -> memref<index>
    "memref.store"(%145, %146) : (index, memref<index>) -> ()
    %147 = "memref.alloca"() <{operandSegmentSizes = array<i32: 0, 0>}> : () -> memref<index>
    "memref.store"(%145, %147) : (index, memref<index>) -> ()
    %148 = "memref.load"(%147) : (memref<index>) -> index
    %149 = "arith.constant"() <{value = 1 : index}> : () -> index
    %150 = "memref.load"(%147) : (memref<index>) -> index
    %151 = "arith.addi"(%150, %149) : (index, index) -> index
    "memref.store"(%151, %147) : (index, memref<index>) -> ()
    %152 = "memref.load"(%147) : (memref<index>) -> index
    %153 = "arith.constant"() <{value = 1 : index}> : () -> index
    %154 = "memref.load"(%147) : (memref<index>) -> index
    %155 = "arith.addi"(%154, %153) : (index, index) -> index
    "memref.store"(%155, %147) : (index, memref<index>) -> ()
    %156 = "memref.load"(%147) : (memref<index>) -> index
    %157 = "arith.constant"() <{value = 1 : index}> : () -> index
    %158 = "arith.muli"(%157, %112) : (index, index) -> index
    %159 = "arith.muli"(%158, %114) : (index, index) -> index
    %160 = "memref.load"(%147) : (memref<index>) -> index
    %161 = "arith.addi"(%160, %159) : (index, index) -> index
    "memref.store"(%161, %147) : (index, memref<index>) -> ()
    %162 = "memref.load"(%147) : (memref<index>) -> index
    %163 = "arith.index_cast"(%162) : (index) -> i32
    %164 = "memref.alloca"() <{operandSegmentSizes = array<i32: 0, 0>}> : () -> memref<index>
    %165 = "arith.constant"() <{value = 2 : index}> : () -> index
    "memref.store"(%165, %164) : (index, memref<index>) -> ()
    %166 = "memref.load"(%164) : (memref<index>) -> index
    %167 = "arith.index_cast"(%166) : (index) -> i32
    %168 = "memref.alloca"(%166) <{operandSegmentSizes = array<i32: 1, 0>}> : (index) -> memref<?xi64>
    %169 = "arith.constant"() <{value = 0 : index}> : () -> index
    %170 = "arith.index_cast"(%112) : (index) -> i64
    "memref.store"(%170, %168, %169) <{nontemporal = false}> : (i64, memref<?xi64>, index) -> ()
    %171 = "arith.constant"() <{value = 1 : index}> : () -> index
    %172 = "arith.index_cast"(%114) : (index) -> i64
    "memref.store"(%172, %168, %171) <{nontemporal = false}> : (i64, memref<?xi64>, index) -> ()
    %173 = "polygeist.get_func"() <{name = @__arts_edt_2}> : () -> !llvm.ptr<!llvm.func<void (i32, memref<?xi64>, i32, memref<?x!llvm.struct<(i64, i32, ptr)>>)>>
    %174 = "polygeist.pointer2memref"(%173) : (!llvm.ptr<!llvm.func<void (i32, memref<?xi64>, i32, memref<?x!llvm.struct<(i64, i32, ptr)>>)>>) -> memref<?x!llvm.func<void (i32, memref<?xi64>, i32, memref<?x!llvm.struct<(i64, i32, ptr)>>)>>
    %175 = "func.call"(%174, %144, %167, %168, %163, %143) <{callee = @artsEdtCreateWithEpoch}> : (memref<?x!llvm.func<void (i32, memref<?xi64>, i32, memref<?x!llvm.struct<(i64, i32, ptr)>>)>>, i32, i32, memref<?xi64>, i32, i64) -> i64
    %176 = "memref.load"(%26) <{nontemporal = false}> : (memref<i64>) -> i64
    %177 = "arith.index_cast"(%148) : (index) -> i32
    "func.call"(%176, %175, %177, %33) <{callee = @artsAddDependenceToPersistentEvent}> : (i64, i64, i32, i64) -> ()
    %178 = "memref.load"(%16) <{nontemporal = false}> : (memref<i64>) -> i64
    %179 = "arith.index_cast"(%152) : (index) -> i32
    "func.call"(%178, %175, %179, %23) <{callee = @artsAddDependenceToPersistentEvent}> : (i64, i64, i32, i64) -> ()
    %180 = "memref.alloc"() <{operandSegmentSizes = array<i32: 0, 0>}> : () -> memref<index>
    "memref.store"(%156, %180) : (index, memref<index>) -> ()
    %181 = "arith.addi"(%9, %112) : (index, index) -> index
    %182 = "arith.constant"() <{value = 1 : index}> : () -> index
    "scf.for"(%9, %181, %182) ({
    ^bb0(%arg0: index):
      %199 = "arith.addi"(%9, %114) : (index, index) -> index
      %200 = "arith.constant"() <{value = 1 : index}> : () -> index
      "scf.for"(%9, %199, %200) ({
      ^bb0(%arg1: index):
        %201 = "memref.load"(%116, %arg0, %arg1) <{nontemporal = false}> : (memref<?x?xi64>, index, index) -> i64
        %202 = "memref.load"(%180) : (memref<index>) -> index
        %203 = "memref.load"(%122, %arg0, %arg1) <{nontemporal = false}> : (memref<?x?xi64>, index, index) -> i64
        %204 = "arith.index_cast"(%202) : (index) -> i32
        "func.call"(%201, %175, %204, %203) <{callee = @artsAddDependenceToPersistentEvent}> : (i64, i64, i32, i64) -> ()
        %205 = "arith.constant"() <{value = 1 : index}> : () -> index
        %206 = "arith.addi"(%202, %205) : (index, index) -> index
        "memref.store"(%206, %180) : (index, memref<index>) -> ()
        "scf.yield"() : () -> ()
      }) : (index, index, index) -> ()
      "scf.yield"() : () -> ()
    }) : (index, index, index) -> ()
    %183 = "func.call"(%143) <{callee = @artsWaitOnHandle}> : (i64) -> i1
    %184 = "llvm.mlir.addressof"() <{global_name = @str5}> : () -> !llvm.ptr
    %185 = "llvm.getelementptr"(%184) <{elem_type = !llvm.array<22 x i8>, rawConstantIndices = array<i32: 0, 0>}> : (!llvm.ptr) -> !llvm.ptr
    %186 = "llvm.call"(%185) <{callee = @printf, callee_type = !llvm.func<i32 (ptr, ...)>, fastmathFlags = #llvm.fastmath<none>}> : (!llvm.ptr) -> i32
    %187 = "llvm.mlir.addressof"() <{global_name = @str6}> : () -> !llvm.ptr
    %188 = "llvm.getelementptr"(%187) <{elem_type = !llvm.array<24 x i8>, rawConstantIndices = array<i32: 0, 0>}> : (!llvm.ptr) -> !llvm.ptr
    %189 = "llvm.call"(%188) <{callee = @printf, callee_type = !llvm.func<i32 (ptr, ...)>, fastmathFlags = #llvm.fastmath<none>}> : (!llvm.ptr) -> i32
    %190 = "llvm.mlir.addressof"() <{global_name = @str7}> : () -> !llvm.ptr
    %191 = "llvm.getelementptr"(%190) <{elem_type = !llvm.array<4 x i8>, rawConstantIndices = array<i32: 0, 0>}> : (!llvm.ptr) -> !llvm.ptr
    %192 = "llvm.mlir.addressof"() <{global_name = @str8}> : () -> !llvm.ptr
    %193 = "llvm.getelementptr"(%192) <{elem_type = !llvm.array<2 x i8>, rawConstantIndices = array<i32: 0, 0>}> : (!llvm.ptr) -> !llvm.ptr
    "scf.for"(%9, %112, %2) ({
    ^bb0(%arg0: index):
      "scf.for"(%9, %114, %2) ({
      ^bb0(%arg1: index):
        %200 = "polygeist.subindex"(%123, %arg0) : (memref<?x?xmemref<?xi8>>, index) -> memref<?xmemref<?xi8>>
        %201 = "polygeist.subindex"(%200, %arg1) : (memref<?xmemref<?xi8>>, index) -> memref<memref<?xi8>>
        %202 = "polygeist.memref2pointer"(%201) : (memref<memref<?xi8>>) -> !llvm.ptr
        %203 = "llvm.load"(%202) <{ordering = 0 : i64}> : (!llvm.ptr) -> !llvm.ptr
        %204 = "llvm.load"(%203) <{ordering = 0 : i64}> : (!llvm.ptr) -> i32
        %205 = "llvm.call"(%191, %204) <{callee = @printf, callee_type = !llvm.func<i32 (ptr, ...)>, fastmathFlags = #llvm.fastmath<none>}> : (!llvm.ptr, i32) -> i32
        "scf.yield"() : () -> ()
      }) : (index, index, index) -> ()
      %199 = "llvm.call"(%193) <{callee = @printf, callee_type = !llvm.func<i32 (ptr, ...)>, fastmathFlags = #llvm.fastmath<none>}> : (!llvm.ptr) -> i32
      "scf.yield"() : () -> ()
    }) : (index, index, index) -> ()
    "scf.for"(%2, %112, %2) ({
    ^bb0(%arg0: index):
      %199 = "arith.index_cast"(%arg0) : (index) -> i32
      %200 = "arith.addi"(%199, %13) : (i32, i32) -> i32
      %201 = "arith.index_cast"(%200) : (i32) -> index
      "scf.for"(%2, %114, %2) ({
      ^bb0(%arg1: index):
        %202 = "arith.index_cast"(%arg1) : (index) -> i32
        %203 = "arith.addi"(%202, %13) : (i32, i32) -> i32
        %204 = "arith.index_cast"(%203) : (i32) -> index
        %205 = "memref.load"(%126, %201, %204) : (memref<?x?xi32>, index, index) -> i32
        %206 = "polygeist.subindex"(%34, %201) : (memref<?xi8>, index) -> memref<memref<?xi8>>
        %207 = "polygeist.memref2pointer"(%206) : (memref<memref<?xi8>>) -> !llvm.ptr
        %208 = "llvm.load"(%207) <{ordering = 0 : i64}> : (!llvm.ptr) -> i8
        %209 = "polygeist.subindex"(%24, %204) : (memref<?xi8>, index) -> memref<memref<?xi8>>
        %210 = "polygeist.memref2pointer"(%209) : (memref<memref<?xi8>>) -> !llvm.ptr
        %211 = "llvm.load"(%210) <{ordering = 0 : i64}> : (!llvm.ptr) -> i8
        %212 = "arith.cmpi"(%208, %211) <{predicate = 0 : i64}> : (i8, i8) -> i1
        %213 = "arith.select"(%212, %14, %13) : (i1, i32, i32) -> i32
        %214 = "arith.addi"(%205, %213) : (i32, i32) -> i32
        %215 = "memref.load"(%126, %201, %arg1) : (memref<?x?xi32>, index, index) -> i32
        %216 = "arith.addi"(%215, %12) : (i32, i32) -> i32
        %217 = "memref.load"(%126, %arg0, %204) : (memref<?x?xi32>, index, index) -> i32
        %218 = "arith.addi"(%217, %12) : (i32, i32) -> i32
        %219 = "arith.cmpi"(%214, %216) <{predicate = 4 : i64}> : (i32, i32) -> i1
        %220 = "scf.if"(%219) ({
          %222 = "arith.cmpi"(%214, %218) <{predicate = 4 : i64}> : (i32, i32) -> i1
          %223 = "arith.select"(%222, %214, %218) : (i1, i32, i32) -> i32
          "scf.yield"(%223) : (i32) -> ()
        }, {
          %222 = "arith.cmpi"(%216, %218) <{predicate = 4 : i64}> : (i32, i32) -> i1
          %223 = "arith.select"(%222, %216, %218) : (i1, i32, i32) -> i32
          "scf.yield"(%223) : (i32) -> ()
        }) : (i1) -> i32
        "memref.store"(%220, %126, %arg0, %arg1) : (i32, memref<?x?xi32>, index, index) -> ()
        %221 = "arith.cmpi"(%220, %11) <{predicate = 2 : i64}> : (i32, i32) -> i1
        "scf.if"(%221) ({
          "memref.store"(%11, %126, %arg0, %arg1) : (i32, memref<?x?xi32>, index, index) -> ()
          "scf.yield"() : () -> ()
        }, {
        }) : (i1) -> ()
        "scf.yield"() : () -> ()
      }) : (index, index, index) -> ()
      "scf.yield"() : () -> ()
    }) : (index, index, index) -> ()
    %194 = "llvm.mlir.addressof"() <{global_name = @str9}> : () -> !llvm.ptr
    %195 = "llvm.getelementptr"(%194) <{elem_type = !llvm.array<26 x i8>, rawConstantIndices = array<i32: 0, 0>}> : (!llvm.ptr) -> !llvm.ptr
    %196 = "llvm.call"(%195) <{callee = @printf, callee_type = !llvm.func<i32 (ptr, ...)>, fastmathFlags = #llvm.fastmath<none>}> : (!llvm.ptr) -> i32
    "scf.for"(%9, %112, %2) ({
    ^bb0(%arg0: index):
      "scf.for"(%9, %114, %2) ({
      ^bb0(%arg1: index):
        %200 = "memref.load"(%126, %arg0, %arg1) : (memref<?x?xi32>, index, index) -> i32
        %201 = "llvm.call"(%191, %200) <{callee = @printf, callee_type = !llvm.func<i32 (ptr, ...)>, fastmathFlags = #llvm.fastmath<none>}> : (!llvm.ptr, i32) -> i32
        "scf.yield"() : () -> ()
      }) : (index, index, index) -> ()
      %199 = "llvm.call"(%193) <{callee = @printf, callee_type = !llvm.func<i32 (ptr, ...)>, fastmathFlags = #llvm.fastmath<none>}> : (!llvm.ptr) -> i32
      "scf.yield"() : () -> ()
    }) : (index, index, index) -> ()
    %197 = "scf.for"(%9, %112, %2, %10) ({
    ^bb0(%arg0: index, %arg1: i32):
      %199 = "arith.index_cast"(%arg0) : (index) -> i32
      %200 = "scf.for"(%9, %114, %2, %arg1) ({
      ^bb0(%arg2: index, %arg3: i32):
        %201 = "arith.index_cast"(%arg2) : (index) -> i32
        %202 = "polygeist.subindex"(%123, %arg0) : (memref<?x?xmemref<?xi8>>, index) -> memref<?xmemref<?xi8>>
        %203 = "polygeist.subindex"(%202, %arg2) : (memref<?xmemref<?xi8>>, index) -> memref<memref<?xi8>>
        %204 = "polygeist.memref2pointer"(%203) : (memref<memref<?xi8>>) -> !llvm.ptr
        %205 = "llvm.load"(%204) <{ordering = 0 : i64}> : (!llvm.ptr) -> !llvm.ptr
        %206 = "llvm.load"(%205) <{ordering = 0 : i64}> : (!llvm.ptr) -> i32
        %207 = "memref.load"(%126, %arg0, %arg2) : (memref<?x?xi32>, index, index) -> i32
        %208 = "arith.cmpi"(%206, %207) <{predicate = 1 : i64}> : (i32, i32) -> i1
        %209 = "arith.select"(%208, %11, %arg3) : (i1, i32, i32) -> i32
        "scf.if"(%208) ({
          %210 = "llvm.mlir.addressof"() <{global_name = @str10}> : () -> !llvm.ptr
          %211 = "llvm.getelementptr"(%210) <{elem_type = !llvm.array<50 x i8>, rawConstantIndices = array<i32: 0, 0>}> : (!llvm.ptr) -> !llvm.ptr
          %212 = "llvm.call"(%211, %199, %201, %206, %207) <{callee = @printf, callee_type = !llvm.func<i32 (ptr, ...)>, fastmathFlags = #llvm.fastmath<none>}> : (!llvm.ptr, i32, i32, i32, i32) -> i32
          "scf.yield"() : () -> ()
        }, {
        }) : (i1) -> ()
        "scf.yield"(%209) : (i32) -> ()
      }) : (index, index, index, i32) -> i32
      "scf.yield"(%200) : (i32) -> ()
    }) : (index, index, index, i32) -> i32
    %198 = "arith.cmpi"(%197, %11) <{predicate = 1 : i64}> : (i32, i32) -> i1
    "scf.if"(%198) ({
      %199 = "llvm.mlir.addressof"() <{global_name = @str11}> : () -> !llvm.ptr
      %200 = "llvm.getelementptr"(%199) <{elem_type = !llvm.array<16 x i8>, rawConstantIndices = array<i32: 0, 0>}> : (!llvm.ptr) -> !llvm.ptr
      %201 = "llvm.call"(%200) <{callee = @printf, callee_type = !llvm.func<i32 (ptr, ...)>, fastmathFlags = #llvm.fastmath<none>}> : (!llvm.ptr) -> i32
      "scf.yield"() : () -> ()
    }, {
      %199 = "llvm.mlir.addressof"() <{global_name = @str12}> : () -> !llvm.ptr
      %200 = "llvm.getelementptr"(%199) <{elem_type = !llvm.array<23 x i8>, rawConstantIndices = array<i32: 0, 0>}> : (!llvm.ptr) -> !llvm.ptr
      %201 = "llvm.call"(%200) <{callee = @printf, callee_type = !llvm.func<i32 (ptr, ...)>, fastmathFlags = #llvm.fastmath<none>}> : (!llvm.ptr) -> i32
      "scf.yield"() : () -> ()
    }) : (i1) -> ()
    "func.return"(%11) : (i32) -> ()
  }) {llvm.linkage = #llvm.linkage<external>} : () -> ()
  "func.func"() <{function_type = (!llvm.ptr) -> i64, sym_name = "strlen", sym_visibility = "private"}> ({
  }) : () -> ()
  "func.func"() <{function_type = (i32, memref<?xi64>, i32, memref<?x!llvm.struct<(i64, i32, ptr)>>) -> (), sym_name = "__arts_edt_1", sym_visibility = "private"}> ({
  ^bb0(%arg0: i32, %arg1: memref<?xi64>, %arg2: i32, %arg3: memref<?x!llvm.struct<(i64, i32, ptr)>>):
    "func.return"() : () -> ()
  }) : () -> ()
  "func.func"() <{function_type = (i32, memref<?xi64>, i32, memref<?x!llvm.struct<(i64, i32, ptr)>>) -> (), sym_name = "__arts_edt_2", sym_visibility = "private"}> ({
  ^bb0(%arg0: i32, %arg1: memref<?xi64>, %arg2: i32, %arg3: memref<?x!llvm.struct<(i64, i32, ptr)>>):
    %0 = "func.call"() <{callee = @artsGetCurrentGuid}> : () -> i64
    %1 = "arith.constant"() <{value = -1 : i32}> : () -> i32
    %2 = "arith.constant"() <{value = 4 : index}> : () -> index
    %3 = "arith.constant"() <{value = 2 : i32}> : () -> i32
    %4 = "arith.constant"() <{value = -2 : i32}> : () -> i32
    %5 = "arith.constant"() <{value = 0 : i32}> : () -> i32
    %6 = "arith.constant"() <{value = 1 : index}> : () -> index
    %7 = "arith.constant"() <{value = 0 : index}> : () -> index
    %8 = "memref.load"(%arg1, %7) <{nontemporal = false}> : (memref<?xi64>, index) -> i64
    %9 = "arith.index_cast"(%8) : (i64) -> index
    %10 = "arith.constant"() <{value = 1 : index}> : () -> index
    %11 = "memref.load"(%arg1, %10) <{nontemporal = false}> : (memref<?xi64>, index) -> i64
    %12 = "arith.index_cast"(%11) : (i64) -> index
    %13 = "arith.constant"() <{value = 0 : index}> : () -> index
    %14 = "arith.constant"() <{value = 1 : index}> : () -> index
    %15 = "memref.alloca"() <{operandSegmentSizes = array<i32: 0, 0>}> : () -> memref<index>
    "memref.store"(%13, %15) : (index, memref<index>) -> ()
    %16 = "polygeist.typeSize"() <{source = !llvm.struct<(i64, i32, ptr)>}> : () -> index
    %17 = "polygeist.memref2pointer"(%arg3) : (memref<?x!llvm.struct<(i64, i32, ptr)>>) -> !llvm.ptr
    %18 = "memref.load"(%15) : (memref<index>) -> index
    %19 = "arith.muli"(%18, %16) : (index, index) -> index
    %20 = "arith.index_cast"(%19) : (index) -> i32
    %21 = "llvm.getelementptr"(%17, %20) <{elem_type = i8, rawConstantIndices = array<i32: -2147483648>}> : (!llvm.ptr, i32) -> !llvm.ptr
    %22 = "arith.constant"() <{value = 0 : i32}> : () -> i32
    %23 = "llvm.getelementptr"(%21, %22) <{elem_type = !llvm.struct<(i64, i32, ptr)>, rawConstantIndices = array<i32: -2147483648, 0>}> : (!llvm.ptr, i32) -> !llvm.ptr
    %24 = "llvm.load"(%23) <{ordering = 0 : i64}> : (!llvm.ptr) -> i64
    %25 = "arith.constant"() <{value = 0 : i32}> : () -> i32
    %26 = "arith.constant"() <{value = 2 : i32}> : () -> i32
    %27 = "llvm.getelementptr"(%21, %25) <{elem_type = !llvm.struct<(i64, i32, ptr)>, rawConstantIndices = array<i32: -2147483648, 2>}> : (!llvm.ptr, i32) -> !llvm.ptr
    %28 = "llvm.load"(%27) <{ordering = 0 : i64}> : (!llvm.ptr) -> memref<?xi8>
    %29 = "arith.addi"(%18, %14) : (index, index) -> index
    "memref.store"(%29, %15) : (index, memref<index>) -> ()
    %30 = "memref.load"(%15) : (memref<index>) -> index
    %31 = "arith.muli"(%30, %16) : (index, index) -> index
    %32 = "arith.index_cast"(%31) : (index) -> i32
    %33 = "llvm.getelementptr"(%17, %32) <{elem_type = i8, rawConstantIndices = array<i32: -2147483648>}> : (!llvm.ptr, i32) -> !llvm.ptr
    %34 = "arith.constant"() <{value = 0 : i32}> : () -> i32
    %35 = "llvm.getelementptr"(%33, %34) <{elem_type = !llvm.struct<(i64, i32, ptr)>, rawConstantIndices = array<i32: -2147483648, 0>}> : (!llvm.ptr, i32) -> !llvm.ptr
    %36 = "llvm.load"(%35) <{ordering = 0 : i64}> : (!llvm.ptr) -> i64
    %37 = "arith.constant"() <{value = 0 : i32}> : () -> i32
    %38 = "arith.constant"() <{value = 2 : i32}> : () -> i32
    %39 = "llvm.getelementptr"(%33, %37) <{elem_type = !llvm.struct<(i64, i32, ptr)>, rawConstantIndices = array<i32: -2147483648, 2>}> : (!llvm.ptr, i32) -> !llvm.ptr
    %40 = "llvm.load"(%39) <{ordering = 0 : i64}> : (!llvm.ptr) -> memref<?xi8>
    %41 = "arith.addi"(%30, %14) : (index, index) -> index
    "memref.store"(%41, %15) : (index, memref<index>) -> ()
    %42 = "arith.constant"() <{value = 0 : index}> : () -> index
    %43 = "arith.constant"() <{value = 0 : index}> : () -> index
    %44 = "memref.alloca"(%9, %12) <{operandSegmentSizes = array<i32: 2, 0>}> : (index, index) -> memref<?x?xi64>
    %45 = "memref.alloca"(%9, %12) <{operandSegmentSizes = array<i32: 2, 0>}> : (index, index) -> memref<?x?xmemref<?xi8>>
    %46 = "arith.constant"() <{value = 0 : index}> : () -> index
    "scf.for"(%46, %9, %14) ({
    ^bb0(%arg4: index):
      %59 = "arith.constant"() <{value = 0 : index}> : () -> index
      "scf.for"(%59, %12, %14) ({
      ^bb0(%arg5: index):
        %60 = "memref.load"(%15) : (memref<index>) -> index
        %61 = "arith.muli"(%60, %16) : (index, index) -> index
        %62 = "arith.index_cast"(%61) : (index) -> i32
        %63 = "llvm.getelementptr"(%17, %62) <{elem_type = i8, rawConstantIndices = array<i32: -2147483648>}> : (!llvm.ptr, i32) -> !llvm.ptr
        %64 = "arith.constant"() <{value = 0 : i32}> : () -> i32
        %65 = "llvm.getelementptr"(%63, %64) <{elem_type = !llvm.struct<(i64, i32, ptr)>, rawConstantIndices = array<i32: -2147483648, 0>}> : (!llvm.ptr, i32) -> !llvm.ptr
        %66 = "llvm.load"(%65) <{ordering = 0 : i64}> : (!llvm.ptr) -> i64
        %67 = "arith.constant"() <{value = 0 : i32}> : () -> i32
        %68 = "arith.constant"() <{value = 2 : i32}> : () -> i32
        %69 = "llvm.getelementptr"(%63, %67) <{elem_type = !llvm.struct<(i64, i32, ptr)>, rawConstantIndices = array<i32: -2147483648, 2>}> : (!llvm.ptr, i32) -> !llvm.ptr
        %70 = "llvm.load"(%69) <{ordering = 0 : i64}> : (!llvm.ptr) -> memref<?xi8>
        "memref.store"(%66, %44, %arg4, %arg5) <{nontemporal = false}> : (i64, memref<?x?xi64>, index, index) -> ()
        "memref.store"(%70, %45, %arg4, %arg5) <{nontemporal = false}> : (memref<?xi8>, memref<?x?xmemref<?xi8>>, index, index) -> ()
        %71 = "arith.addi"(%60, %14) : (index, index) -> index
        "memref.store"(%71, %15) : (index, memref<index>) -> ()
        "scf.yield"() : () -> ()
      }) : (index, index, index) -> ()
      "scf.yield"() : () -> ()
    }) : (index, index, index) -> ()
    %47 = "func.call"() <{callee = @artsGetCurrentNode}> : () -> i32
    %48 = "memref.alloca"(%9, %12) <{operandSegmentSizes = array<i32: 2, 0>}> : (index, index) -> memref<?x?xi64>
    %49 = "arith.constant"() <{value = 0 : index}> : () -> index
    %50 = "arith.constant"() <{value = 1 : index}> : () -> index
    "scf.for"(%49, %9, %50) ({
    ^bb0(%arg4: index):
      %59 = "arith.constant"() <{value = 0 : index}> : () -> index
      %60 = "arith.constant"() <{value = 1 : index}> : () -> index
      "scf.for"(%59, %12, %60) ({
      ^bb0(%arg5: index):
        %61 = "arith.constant"() <{value = 0 : i32}> : () -> i32
        %62 = "arith.constant"() <{value = 0 : i64}> : () -> i64
        %63 = "func.call"(%47, %61, %62) <{callee = @artsPersistentEventCreate}> : (i32, i32, i64) -> i64
        "memref.store"(%63, %48, %arg4, %arg5) <{nontemporal = false}> : (i64, memref<?x?xi64>, index, index) -> ()
        "scf.yield"() : () -> ()
      }) : (index, index, index) -> ()
      "scf.yield"() : () -> ()
    }) : (index, index, index) -> ()
    %51 = "polygeist.memref2pointer"(%40) : (memref<?xi8>) -> !llvm.ptr
    %52 = "polygeist.memref2pointer"(%28) : (memref<?xi8>) -> !llvm.ptr
    %53 = "llvm.mlir.addressof"() <{global_name = @str2}> : () -> !llvm.ptr
    %54 = "llvm.getelementptr"(%53) <{elem_type = !llvm.array<10 x i8>, rawConstantIndices = array<i32: 0, 0>}> : (!llvm.ptr) -> !llvm.ptr
    %55 = "llvm.call"(%54, %52) <{callee = @printf, callee_type = !llvm.func<i32 (ptr, ...)>, fastmathFlags = #llvm.fastmath<none>}> : (!llvm.ptr, !llvm.ptr) -> i32
    %56 = "llvm.mlir.addressof"() <{global_name = @str3}> : () -> !llvm.ptr
    %57 = "llvm.getelementptr"(%56) <{elem_type = !llvm.array<10 x i8>, rawConstantIndices = array<i32: 0, 0>}> : (!llvm.ptr) -> !llvm.ptr
    %58 = "llvm.call"(%57, %51) <{callee = @printf, callee_type = !llvm.func<i32 (ptr, ...)>, fastmathFlags = #llvm.fastmath<none>}> : (!llvm.ptr, !llvm.ptr) -> i32
    "scf.for"(%6, %9, %6) ({
    ^bb0(%arg4: index):
      %59 = "arith.index_cast"(%arg4) : (index) -> i32
      "scf.for"(%6, %12, %6) ({
      ^bb0(%arg5: index):
        %60 = "arith.index_cast"(%arg5) : (index) -> i32
        %61 = "arith.addi"(%59, %1) : (i32, i32) -> i32
        %62 = "arith.index_cast"(%61) : (i32) -> index
        %63 = "arith.addi"(%60, %1) : (i32, i32) -> i32
        %64 = "arith.index_cast"(%63) : (i32) -> index
        %65 = "polygeist.subindex"(%28, %62) : (memref<?xi8>, index) -> memref<memref<?xi8>>
        %66 = "polygeist.memref2pointer"(%65) : (memref<memref<?xi8>>) -> !llvm.ptr
        %67 = "llvm.load"(%66) <{ordering = 0 : i64}> : (!llvm.ptr) -> i8
        %68 = "polygeist.subindex"(%40, %64) : (memref<?xi8>, index) -> memref<memref<?xi8>>
        %69 = "polygeist.memref2pointer"(%68) : (memref<memref<?xi8>>) -> !llvm.ptr
        %70 = "llvm.load"(%69) <{ordering = 0 : i64}> : (!llvm.ptr) -> i8
        %71 = "func.call"() <{callee = @artsGetCurrentEpochGuid}> : () -> i64
        %72 = "func.call"() <{callee = @artsGetCurrentNode}> : () -> i32
        %73 = "arith.constant"() <{value = 0 : index}> : () -> index
        %74 = "memref.alloca"() <{operandSegmentSizes = array<i32: 0, 0>}> : () -> memref<index>
        "memref.store"(%73, %74) : (index, memref<index>) -> ()
        %75 = "memref.alloca"() <{operandSegmentSizes = array<i32: 0, 0>}> : () -> memref<index>
        "memref.store"(%73, %75) : (index, memref<index>) -> ()
        %76 = "memref.load"(%75) : (memref<index>) -> index
        %77 = "arith.constant"() <{value = 1 : index}> : () -> index
        %78 = "memref.load"(%75) : (memref<index>) -> index
        %79 = "arith.addi"(%78, %77) : (index, index) -> index
        "memref.store"(%79, %75) : (index, memref<index>) -> ()
        %80 = "memref.load"(%75) : (memref<index>) -> index
        %81 = "arith.constant"() <{value = 1 : index}> : () -> index
        %82 = "memref.load"(%75) : (memref<index>) -> index
        %83 = "arith.addi"(%82, %81) : (index, index) -> index
        "memref.store"(%83, %75) : (index, memref<index>) -> ()
        %84 = "memref.load"(%75) : (memref<index>) -> index
        %85 = "arith.constant"() <{value = 1 : index}> : () -> index
        %86 = "memref.load"(%75) : (memref<index>) -> index
        %87 = "arith.addi"(%86, %85) : (index, index) -> index
        "memref.store"(%87, %75) : (index, memref<index>) -> ()
        %88 = "memref.load"(%75) : (memref<index>) -> index
        %89 = "arith.constant"() <{value = 1 : index}> : () -> index
        %90 = "memref.load"(%75) : (memref<index>) -> index
        %91 = "arith.addi"(%90, %89) : (index, index) -> index
        "memref.store"(%91, %75) : (index, memref<index>) -> ()
        %92 = "memref.load"(%74) : (memref<index>) -> index
        %93 = "arith.addi"(%92, %89) : (index, index) -> index
        "memref.store"(%93, %74) : (index, memref<index>) -> ()
        %94 = "memref.load"(%75) : (memref<index>) -> index
        %95 = "arith.index_cast"(%94) : (index) -> i32
        %96 = "memref.alloca"() <{operandSegmentSizes = array<i32: 0, 0>}> : () -> memref<index>
        %97 = "arith.constant"() <{value = 4 : index}> : () -> index
        "memref.store"(%97, %96) : (index, memref<index>) -> ()
        %98 = "memref.load"(%96) : (memref<index>) -> index
        %99 = "memref.load"(%74) : (memref<index>) -> index
        %100 = "arith.addi"(%98, %99) : (index, index) -> index
        "memref.store"(%100, %96) : (index, memref<index>) -> ()
        %101 = "memref.load"(%96) : (memref<index>) -> index
        %102 = "arith.index_cast"(%101) : (index) -> i32
        %103 = "memref.alloca"(%101) <{operandSegmentSizes = array<i32: 1, 0>}> : (index) -> memref<?xi64>
        %104 = "arith.constant"() <{value = 0 : index}> : () -> index
        %105 = "arith.extsi"(%59) : (i32) -> i64
        "memref.store"(%105, %103, %104) <{nontemporal = false}> : (i64, memref<?xi64>, index) -> ()
        %106 = "arith.constant"() <{value = 1 : index}> : () -> index
        %107 = "arith.extsi"(%60) : (i32) -> i64
        "memref.store"(%107, %103, %106) <{nontemporal = false}> : (i64, memref<?xi64>, index) -> ()
        %108 = "arith.constant"() <{value = 2 : index}> : () -> index
        %109 = "arith.extsi"(%67) : (i8) -> i64
        "memref.store"(%109, %103, %108) <{nontemporal = false}> : (i64, memref<?xi64>, index) -> ()
        %110 = "arith.constant"() <{value = 3 : index}> : () -> index
        %111 = "arith.extsi"(%70) : (i8) -> i64
        "memref.store"(%111, %103, %110) <{nontemporal = false}> : (i64, memref<?xi64>, index) -> ()
        %112 = "memref.alloca"() <{operandSegmentSizes = array<i32: 0, 0>}> : () -> memref<index>
        %113 = "arith.constant"() <{value = 4 : index}> : () -> index
        "memref.store"(%113, %112) : (index, memref<index>) -> ()
        %114 = "memref.load"(%48) <{nontemporal = false}> : (memref<?x?xi64>) -> i64
        %115 = "memref.load"(%112) : (memref<index>) -> index
        "memref.store"(%114, %103, %115) <{nontemporal = false}> : (i64, memref<?xi64>, index) -> ()
        %116 = "arith.constant"() <{value = 1 : index}> : () -> index
        %117 = "arith.addi"(%115, %116) : (index, index) -> index
        "memref.store"(%117, %112) : (index, memref<index>) -> ()
        %118 = "polygeist.get_func"() <{name = @__arts_edt_3}> : () -> !llvm.ptr<!llvm.func<void (i32, memref<?xi64>, i32, memref<?x!llvm.struct<(i64, i32, ptr)>>)>>
        %119 = "polygeist.pointer2memref"(%118) : (!llvm.ptr<!llvm.func<void (i32, memref<?xi64>, i32, memref<?x!llvm.struct<(i64, i32, ptr)>>)>>) -> memref<?x!llvm.func<void (i32, memref<?xi64>, i32, memref<?x!llvm.struct<(i64, i32, ptr)>>)>>
        %120 = "func.call"(%119, %72, %102, %103, %95, %71) <{callee = @artsEdtCreateWithEpoch}> : (memref<?x!llvm.func<void (i32, memref<?xi64>, i32, memref<?x!llvm.struct<(i64, i32, ptr)>>)>>, i32, i32, memref<?xi64>, i32, i64) -> i64
        %121 = "memref.load"(%48, %arg4, %64) <{nontemporal = false}> : (memref<?x?xi64>, index, index) -> i64
        %122 = "memref.load"(%44, %arg4, %64) <{nontemporal = false}> : (memref<?x?xi64>, index, index) -> i64
        %123 = "arith.index_cast"(%76) : (index) -> i32
        "func.call"(%121, %120, %123, %122) <{callee = @artsAddDependenceToPersistentEvent}> : (i64, i64, i32, i64) -> ()
        %124 = "memref.load"(%48, %62, %64) <{nontemporal = false}> : (memref<?x?xi64>, index, index) -> i64
        %125 = "memref.load"(%44, %62, %64) <{nontemporal = false}> : (memref<?x?xi64>, index, index) -> i64
        %126 = "arith.index_cast"(%80) : (index) -> i32
        "func.call"(%124, %120, %126, %125) <{callee = @artsAddDependenceToPersistentEvent}> : (i64, i64, i32, i64) -> ()
        %127 = "memref.load"(%48, %62, %arg5) <{nontemporal = false}> : (memref<?x?xi64>, index, index) -> i64
        %128 = "memref.load"(%44, %62, %arg5) <{nontemporal = false}> : (memref<?x?xi64>, index, index) -> i64
        %129 = "arith.index_cast"(%84) : (index) -> i32
        "func.call"(%127, %120, %129, %128) <{callee = @artsAddDependenceToPersistentEvent}> : (i64, i64, i32, i64) -> ()
        %130 = "memref.load"(%48, %arg4, %arg5) <{nontemporal = false}> : (memref<?x?xi64>, index, index) -> i64
        %131 = "memref.load"(%44, %arg4, %arg5) <{nontemporal = false}> : (memref<?x?xi64>, index, index) -> i64
        %132 = "arith.index_cast"(%88) : (index) -> i32
        "func.call"(%130, %120, %132, %131) <{callee = @artsAddDependenceToPersistentEvent}> : (i64, i64, i32, i64) -> ()
        %133 = "memref.load"(%48, %arg4, %arg5) <{nontemporal = false}> : (memref<?x?xi64>, index, index) -> i64
        %134 = "memref.load"(%44, %arg4, %arg5) <{nontemporal = false}> : (memref<?x?xi64>, index, index) -> i64
        "func.call"(%133, %134) <{callee = @artsPersistentEventIncrementLatch}> : (i64, i64) -> ()
        "scf.yield"() : () -> ()
      }) : (index, index, index) -> ()
      "scf.yield"() : () -> ()
    }) : (index, index, index) -> ()
    "func.return"() : () -> ()
  }) : () -> ()
  "func.func"() <{function_type = (i32, memref<?xi64>, i32, memref<?x!llvm.struct<(i64, i32, ptr)>>) -> (), sym_name = "__arts_edt_3", sym_visibility = "private"}> ({
  ^bb0(%arg0: i32, %arg1: memref<?xi64>, %arg2: i32, %arg3: memref<?x!llvm.struct<(i64, i32, ptr)>>):
    %0 = "func.call"() <{callee = @artsGetCurrentGuid}> : () -> i64
    %1 = "arith.constant"() <{value = 2 : i32}> : () -> i32
    %2 = "arith.constant"() <{value = -1 : i32}> : () -> i32
    %3 = "arith.constant"() <{value = -2 : i32}> : () -> i32
    %4 = "arith.constant"() <{value = 0 : i32}> : () -> i32
    %5 = "arith.constant"() <{value = 0 : index}> : () -> index
    %6 = "memref.load"(%arg1, %5) <{nontemporal = false}> : (memref<?xi64>, index) -> i64
    %7 = "arith.trunci"(%6) : (i64) -> i32
    %8 = "arith.constant"() <{value = 1 : index}> : () -> index
    %9 = "memref.load"(%arg1, %8) <{nontemporal = false}> : (memref<?xi64>, index) -> i64
    %10 = "arith.trunci"(%9) : (i64) -> i32
    %11 = "arith.constant"() <{value = 2 : index}> : () -> index
    %12 = "memref.load"(%arg1, %11) <{nontemporal = false}> : (memref<?xi64>, index) -> i64
    %13 = "arith.trunci"(%12) : (i64) -> i8
    %14 = "arith.constant"() <{value = 3 : index}> : () -> index
    %15 = "memref.load"(%arg1, %14) <{nontemporal = false}> : (memref<?xi64>, index) -> i64
    %16 = "arith.trunci"(%15) : (i64) -> i8
    %17 = "arith.constant"() <{value = 0 : index}> : () -> index
    %18 = "arith.constant"() <{value = 1 : index}> : () -> index
    %19 = "memref.alloca"() <{operandSegmentSizes = array<i32: 0, 0>}> : () -> memref<index>
    "memref.store"(%17, %19) : (index, memref<index>) -> ()
    %20 = "polygeist.typeSize"() <{source = !llvm.struct<(i64, i32, ptr)>}> : () -> index
    %21 = "polygeist.memref2pointer"(%arg3) : (memref<?x!llvm.struct<(i64, i32, ptr)>>) -> !llvm.ptr
    %22 = "memref.load"(%19) : (memref<index>) -> index
    %23 = "arith.muli"(%22, %20) : (index, index) -> index
    %24 = "arith.index_cast"(%23) : (index) -> i32
    %25 = "llvm.getelementptr"(%21, %24) <{elem_type = i8, rawConstantIndices = array<i32: -2147483648>}> : (!llvm.ptr, i32) -> !llvm.ptr
    %26 = "arith.constant"() <{value = 0 : i32}> : () -> i32
    %27 = "llvm.getelementptr"(%25, %26) <{elem_type = !llvm.struct<(i64, i32, ptr)>, rawConstantIndices = array<i32: -2147483648, 0>}> : (!llvm.ptr, i32) -> !llvm.ptr
    %28 = "llvm.load"(%27) <{ordering = 0 : i64}> : (!llvm.ptr) -> i64
    %29 = "arith.constant"() <{value = 0 : i32}> : () -> i32
    %30 = "arith.constant"() <{value = 2 : i32}> : () -> i32
    %31 = "llvm.getelementptr"(%25, %29) <{elem_type = !llvm.struct<(i64, i32, ptr)>, rawConstantIndices = array<i32: -2147483648, 2>}> : (!llvm.ptr, i32) -> !llvm.ptr
    %32 = "llvm.load"(%31) <{ordering = 0 : i64}> : (!llvm.ptr) -> memref<?xi8>
    %33 = "arith.addi"(%22, %18) : (index, index) -> index
    "memref.store"(%33, %19) : (index, memref<index>) -> ()
    %34 = "memref.load"(%19) : (memref<index>) -> index
    %35 = "arith.muli"(%34, %20) : (index, index) -> index
    %36 = "arith.index_cast"(%35) : (index) -> i32
    %37 = "llvm.getelementptr"(%21, %36) <{elem_type = i8, rawConstantIndices = array<i32: -2147483648>}> : (!llvm.ptr, i32) -> !llvm.ptr
    %38 = "arith.constant"() <{value = 0 : i32}> : () -> i32
    %39 = "llvm.getelementptr"(%37, %38) <{elem_type = !llvm.struct<(i64, i32, ptr)>, rawConstantIndices = array<i32: -2147483648, 0>}> : (!llvm.ptr, i32) -> !llvm.ptr
    %40 = "llvm.load"(%39) <{ordering = 0 : i64}> : (!llvm.ptr) -> i64
    %41 = "arith.constant"() <{value = 0 : i32}> : () -> i32
    %42 = "arith.constant"() <{value = 2 : i32}> : () -> i32
    %43 = "llvm.getelementptr"(%37, %41) <{elem_type = !llvm.struct<(i64, i32, ptr)>, rawConstantIndices = array<i32: -2147483648, 2>}> : (!llvm.ptr, i32) -> !llvm.ptr
    %44 = "llvm.load"(%43) <{ordering = 0 : i64}> : (!llvm.ptr) -> memref<?xi8>
    %45 = "arith.addi"(%34, %18) : (index, index) -> index
    "memref.store"(%45, %19) : (index, memref<index>) -> ()
    %46 = "memref.load"(%19) : (memref<index>) -> index
    %47 = "arith.muli"(%46, %20) : (index, index) -> index
    %48 = "arith.index_cast"(%47) : (index) -> i32
    %49 = "llvm.getelementptr"(%21, %48) <{elem_type = i8, rawConstantIndices = array<i32: -2147483648>}> : (!llvm.ptr, i32) -> !llvm.ptr
    %50 = "arith.constant"() <{value = 0 : i32}> : () -> i32
    %51 = "llvm.getelementptr"(%49, %50) <{elem_type = !llvm.struct<(i64, i32, ptr)>, rawConstantIndices = array<i32: -2147483648, 0>}> : (!llvm.ptr, i32) -> !llvm.ptr
    %52 = "llvm.load"(%51) <{ordering = 0 : i64}> : (!llvm.ptr) -> i64
    %53 = "arith.constant"() <{value = 0 : i32}> : () -> i32
    %54 = "arith.constant"() <{value = 2 : i32}> : () -> i32
    %55 = "llvm.getelementptr"(%49, %53) <{elem_type = !llvm.struct<(i64, i32, ptr)>, rawConstantIndices = array<i32: -2147483648, 2>}> : (!llvm.ptr, i32) -> !llvm.ptr
    %56 = "llvm.load"(%55) <{ordering = 0 : i64}> : (!llvm.ptr) -> memref<?xi8>
    %57 = "arith.addi"(%46, %18) : (index, index) -> index
    "memref.store"(%57, %19) : (index, memref<index>) -> ()
    %58 = "memref.load"(%19) : (memref<index>) -> index
    %59 = "arith.muli"(%58, %20) : (index, index) -> index
    %60 = "arith.index_cast"(%59) : (index) -> i32
    %61 = "llvm.getelementptr"(%21, %60) <{elem_type = i8, rawConstantIndices = array<i32: -2147483648>}> : (!llvm.ptr, i32) -> !llvm.ptr
    %62 = "arith.constant"() <{value = 0 : i32}> : () -> i32
    %63 = "llvm.getelementptr"(%61, %62) <{elem_type = !llvm.struct<(i64, i32, ptr)>, rawConstantIndices = array<i32: -2147483648, 0>}> : (!llvm.ptr, i32) -> !llvm.ptr
    %64 = "llvm.load"(%63) <{ordering = 0 : i64}> : (!llvm.ptr) -> i64
    %65 = "arith.constant"() <{value = 0 : i32}> : () -> i32
    %66 = "arith.constant"() <{value = 2 : i32}> : () -> i32
    %67 = "llvm.getelementptr"(%61, %65) <{elem_type = !llvm.struct<(i64, i32, ptr)>, rawConstantIndices = array<i32: -2147483648, 2>}> : (!llvm.ptr, i32) -> !llvm.ptr
    %68 = "llvm.load"(%67) <{ordering = 0 : i64}> : (!llvm.ptr) -> memref<?xi8>
    %69 = "arith.addi"(%58, %18) : (index, index) -> index
    "memref.store"(%69, %19) : (index, memref<index>) -> ()
    %70 = "llvm.mlir.addressof"() <{global_name = @str4}> : () -> !llvm.ptr
    %71 = "llvm.getelementptr"(%70) <{elem_type = !llvm.array<29 x i8>, rawConstantIndices = array<i32: 0, 0>}> : (!llvm.ptr) -> !llvm.ptr
    %72 = "llvm.call"(%71, %7, %10) <{callee = @printf, callee_type = !llvm.func<i32 (ptr, ...)>, fastmathFlags = #llvm.fastmath<none>}> : (!llvm.ptr, i32, i32) -> i32
    %73 = "polygeist.memref2pointer"(%44) : (memref<?xi8>) -> !llvm.ptr
    %74 = "llvm.load"(%73) <{ordering = 0 : i64}> : (!llvm.ptr) -> i32
    %75 = "arith.cmpi"(%13, %16) <{predicate = 0 : i64}> : (i8, i8) -> i1
    %76 = "arith.select"(%75, %1, %2) : (i1, i32, i32) -> i32
    %77 = "arith.addi"(%74, %76) : (i32, i32) -> i32
    %78 = "polygeist.memref2pointer"(%56) : (memref<?xi8>) -> !llvm.ptr
    %79 = "llvm.load"(%78) <{ordering = 0 : i64}> : (!llvm.ptr) -> i32
    %80 = "arith.addi"(%79, %3) : (i32, i32) -> i32
    %81 = "polygeist.memref2pointer"(%32) : (memref<?xi8>) -> !llvm.ptr
    %82 = "llvm.load"(%81) <{ordering = 0 : i64}> : (!llvm.ptr) -> i32
    %83 = "arith.addi"(%82, %3) : (i32, i32) -> i32
    %84 = "arith.cmpi"(%77, %80) <{predicate = 4 : i64}> : (i32, i32) -> i1
    %85 = "scf.if"(%84) ({
      %98 = "arith.cmpi"(%77, %83) <{predicate = 4 : i64}> : (i32, i32) -> i1
      %99 = "arith.select"(%98, %77, %83) : (i1, i32, i32) -> i32
      "scf.yield"(%99) : (i32) -> ()
    }, {
      %98 = "arith.cmpi"(%80, %83) <{predicate = 4 : i64}> : (i32, i32) -> i1
      %99 = "arith.select"(%98, %80, %83) : (i1, i32, i32) -> i32
      "scf.yield"(%99) : (i32) -> ()
    }) : (i1) -> i32
    %86 = "polygeist.memref2pointer"(%68) : (memref<?xi8>) -> !llvm.ptr
    "llvm.store"(%85, %86) <{ordering = 0 : i64}> : (i32, !llvm.ptr) -> ()
    %87 = "polygeist.memref2pointer"(%68) : (memref<?xi8>) -> !llvm.ptr
    %88 = "llvm.load"(%87) <{ordering = 0 : i64}> : (!llvm.ptr) -> i32
    %89 = "arith.cmpi"(%88, %4) <{predicate = 2 : i64}> : (i32, i32) -> i1
    "scf.if"(%89) ({
      %98 = "polygeist.memref2pointer"(%68) : (memref<?xi8>) -> !llvm.ptr
      "llvm.store"(%4, %98) <{ordering = 0 : i64}> : (i32, !llvm.ptr) -> ()
      "scf.yield"() : () -> ()
    }, {
    }) : (i1) -> ()
    %90 = "memref.alloca"() <{operandSegmentSizes = array<i32: 0, 0>}> : () -> memref<index>
    %91 = "arith.constant"() <{value = 4 : index}> : () -> index
    "memref.store"(%91, %90) : (index, memref<index>) -> ()
    %92 = "polygeist.memref2pointer"(%arg1) : (memref<?xi64>) -> !llvm.ptr
    %93 = "memref.load"(%90) : (memref<index>) -> index
    %94 = "polygeist.subindex"(%arg1, %93) : (memref<?xi64>, index) -> memref<i64>
    %95 = "memref.load"(%94) : (memref<i64>) -> i64
    "func.call"(%95, %64) <{callee = @artsPersistentEventDecrementLatch}> : (i64, i64) -> ()
    %96 = "arith.constant"() <{value = 1 : index}> : () -> index
    %97 = "arith.addi"(%93, %96) : (index, index) -> index
    "memref.store"(%97, %90) : (index, memref<index>) -> ()
    "func.return"() : () -> ()
  }) : () -> ()
  "func.func"() <{function_type = (i32, memref<?xmemref<?xi8>>) -> (), sym_name = "artsMain"}> ({
  ^bb0(%arg0: i32, %arg1: memref<?xmemref<?xi8>>):
    %0 = "func.call"() <{callee = @mainBody}> : () -> i32
    "func.call"() <{callee = @artsShutdown}> : () -> ()
    "func.return"() : () -> ()
  }) : () -> ()
  "func.func"() <{function_type = (i32, memref<?xmemref<?xi8>>) -> i32, sym_name = "main"}> ({
  ^bb0(%arg0: i32, %arg1: memref<?xmemref<?xi8>>):
    %0 = "func.call"(%arg0, %arg1) <{callee = @artsRT}> : (i32, memref<?xmemref<?xi8>>) -> i32
    %1 = "arith.constant"() <{value = 0 : i32}> : () -> i32
    "func.return"(%1) : (i32) -> ()
  }) : () -> ()
}) {dlti.dl_spec = #dlti.dl_spec<#dlti.dl_entry<i8, dense<8> : vector<2xi32>>, #dlti.dl_entry<i16, dense<16> : vector<2xi32>>, #dlti.dl_entry<f16, dense<16> : vector<2xi32>>, #dlti.dl_entry<i32, dense<32> : vector<2xi32>>, #dlti.dl_entry<f128, dense<128> : vector<2xi32>>, #dlti.dl_entry<!llvm.ptr<270>, dense<32> : vector<4xi32>>, #dlti.dl_entry<f64, dense<64> : vector<2xi32>>, #dlti.dl_entry<!llvm.ptr<272>, dense<64> : vector<4xi32>>, #dlti.dl_entry<!llvm.ptr<271>, dense<32> : vector<4xi32>>, #dlti.dl_entry<i64, dense<64> : vector<2xi32>>, #dlti.dl_entry<f80, dense<128> : vector<2xi32>>, #dlti.dl_entry<i1, dense<8> : vector<2xi32>>, #dlti.dl_entry<!llvm.ptr, dense<64> : vector<4xi32>>, #dlti.dl_entry<"dlti.endianness", "little">, #dlti.dl_entry<"dlti.stack_alignment", 128 : i32>>, llvm.data_layout = "e-m:e-p270:32:32-p271:32:32-p272:64:64-i64:64-f80:128-n8:16:32:64-S128", llvm.target_triple = "x86_64-unknown-linux-gnu", "polygeist.target-cpu" = "x86-64", "polygeist.target-features" = "+cmov,+cx8,+fxsr,+mmx,+sse,+sse2,+x87", "polygeist.tune-cpu" = "generic"} : () -> ()
Failed to emit LLVM IR
make: *** [Makefile:19: smith-waterman.ll] Error 255
rm smith-waterman.mlir
