#loc5 = loc("/home/raherrer/projects/carts/external/carts-benchmarks/polybench/2mm/2mm.c":98:5)
#loc26 = loc("/home/raherrer/projects/carts/external/carts-benchmarks/polybench/2mm/2mm.c":119:21)
#loc33 = loc("/home/raherrer/projects/carts/external/carts-benchmarks/polybench/2mm/2mm.c":124:21)
#loc36 = loc("/home/raherrer/projects/carts/external/carts-benchmarks/polybench/2mm/2mm.c":127:21)
#loc55 = loc("/home/raherrer/projects/carts/external/carts-benchmarks/polybench/2mm/2mm.c":144:21)
#loc77 = loc("/home/raherrer/projects/carts/external/carts-benchmarks/polybench/2mm/2mm.c":35:13)
#loc83 = loc("/home/raherrer/projects/carts/external/carts-benchmarks/polybench/2mm/2mm.c":42:17)
#loc84 = loc("/home/raherrer/projects/carts/external/carts-benchmarks/polybench/2mm/2mm.c":43:19)
#loc92 = loc("/home/raherrer/projects/carts/external/carts-benchmarks/polybench/2mm/2mm.c":45:17)
#loc93 = loc("/home/raherrer/projects/carts/external/carts-benchmarks/polybench/2mm/2mm.c":46:19)
#loc102 = loc("/home/raherrer/projects/carts/external/carts-benchmarks/polybench/2mm/2mm.c":48:17)
#loc103 = loc("/home/raherrer/projects/carts/external/carts-benchmarks/polybench/2mm/2mm.c":49:19)
#loc112 = loc("/home/raherrer/projects/carts/external/carts-benchmarks/polybench/2mm/2mm.c":51:17)
#loc113 = loc("/home/raherrer/projects/carts/external/carts-benchmarks/polybench/2mm/2mm.c":52:19)
#loc124 = loc("/home/raherrer/projects/carts/external/carts-benchmarks/polybench/2mm/2mm.c":72:13)
#loc126 = loc("/home/raherrer/projects/carts/external/carts-benchmarks/polybench/2mm/2mm.c":81:5)
#loc127 = loc("/home/raherrer/projects/carts/external/carts-benchmarks/polybench/2mm/2mm.c":82:7)
#loc130 = loc("/home/raherrer/projects/carts/external/carts-benchmarks/polybench/2mm/2mm.c":84:9)
#loc137 = loc("/home/raherrer/projects/carts/external/carts-benchmarks/polybench/2mm/2mm.c":88:5)
#loc138 = loc("/home/raherrer/projects/carts/external/carts-benchmarks/polybench/2mm/2mm.c":89:7)
#loc141 = loc("/home/raherrer/projects/carts/external/carts-benchmarks/polybench/2mm/2mm.c":91:9)
#loc150 = loc("/home/raherrer/projects/carts/external/carts-benchmarks/polybench/2mm/2mm.c":24:13)
#loc152 = loc("/home/raherrer/projects/carts/external/carts-benchmarks/polybench/2mm/2mm.c":28:21)
module attributes {dlti.dl_spec = #dlti.dl_spec<!llvm.ptr<270> = dense<32> : vector<4xi64>, !llvm.ptr<271> = dense<32> : vector<4xi64>, !llvm.ptr<272> = dense<64> : vector<4xi64>, i64 = dense<64> : vector<2xi64>, i128 = dense<128> : vector<2xi64>, f80 = dense<128> : vector<2xi64>, !llvm.ptr = dense<64> : vector<4xi64>, i1 = dense<8> : vector<2xi64>, i8 = dense<8> : vector<2xi64>, i16 = dense<16> : vector<2xi64>, i32 = dense<32> : vector<2xi64>, f16 = dense<16> : vector<2xi64>, f64 = dense<64> : vector<2xi64>, f128 = dense<128> : vector<2xi64>, "dlti.endianness" = "little", "dlti.mangling_mode" = "e", "dlti.legal_int_widths" = array<i32: 8, 16, 32, 64>, "dlti.stack_alignment" = 128 : i64>, llvm.data_layout = "e-m:e-p270:32:32-p271:32:32-p272:64:64-i64:64-i128:128-f80:128-n8:16:32:64-S128", llvm.target_triple = "x86_64-unknown-linux-gnu", "polygeist.target-cpu" = "x86-64", "polygeist.target-features" = "+cmov,+cx8,+fxsr,+mmx,+sse,+sse2,+x87", "polygeist.tune-cpu" = "generic"} {
  llvm.mlir.global internal constant @str3("cleanup\00") {addr_space = 0 : i32} loc(#loc1)
  llvm.mlir.global internal constant @str2("verification\00") {addr_space = 0 : i32} loc(#loc2)
  llvm.mlir.global internal constant @str1("startup\00") {addr_space = 0 : i32} loc(#loc3)
  llvm.mlir.global internal constant @str0("2mm\00") {addr_space = 0 : i32} loc(#loc4)
  func.func @main(%arg0: i32 loc("/home/raherrer/projects/carts/external/carts-benchmarks/polybench/2mm/2mm.c":98:5), %arg1: memref<?xmemref<?xi8>> loc("/home/raherrer/projects/carts/external/carts-benchmarks/polybench/2mm/2mm.c":98:5)) -> i32 attributes {llvm.linkage = #llvm.linkage<external>} {
    %c256_i64 = arith.constant 256 : i64 loc(#loc)
    %0 = llvm.mlir.undef : f64 loc(#loc6)
    %1 = llvm.mlir.addressof @str3 : !llvm.ptr loc(#loc)
    %cst = arith.constant 0.000000e+00 : f64 loc(#loc)
    %2 = llvm.mlir.addressof @str2 : !llvm.ptr loc(#loc)
    %c256_i32 = arith.constant 256 : i32 loc(#loc)
    %3 = llvm.mlir.addressof @str1 : !llvm.ptr loc(#loc)
    %c0_i32 = arith.constant 0 : i32 loc(#loc)
    %4 = llvm.mlir.addressof @str0 : !llvm.ptr loc(#loc)
    %alloca = memref.alloca() : memref<memref<?xmemref<?xf64>>> loc(#loc7)
    %alloca_0 = memref.alloca() : memref<memref<?xmemref<?xf64>>> loc(#loc7)
    %alloca_1 = memref.alloca() : memref<memref<?xmemref<?xf64>>> loc(#loc7)
    %alloca_2 = memref.alloca() : memref<memref<?xmemref<?xf64>>> loc(#loc7)
    %alloca_3 = memref.alloca() : memref<memref<?xmemref<?xf64>>> loc(#loc7)
    %alloca_4 = memref.alloca() : memref<1xf64> loc(#loc7)
    affine.store %0, %alloca_4[0] : memref<1xf64> loc(#loc7)
    %alloca_5 = memref.alloca() : memref<1xf64> loc(#loc7)
    affine.store %0, %alloca_5[0] : memref<1xf64> loc(#loc7)
    call @carts_benchmarks_start() : () -> () loc(#loc8)
    %5 = polygeist.pointer2memref %4 : !llvm.ptr to memref<?xi8> loc(#loc9)
    call @carts_e2e_timer_start(%5) : (memref<?xi8>) -> () loc(#loc9)
    %6 = polygeist.pointer2memref %3 : !llvm.ptr to memref<?xi8> loc(#loc10)
    %7 = polygeist.pointer2memref %4 : !llvm.ptr to memref<?xi8> loc(#loc10)
    call @carts_phase_timer_start(%6, %7) : (memref<?xi8>, memref<?xi8>) -> () loc(#loc10)
    %8 = polygeist.typeSize memref<?xf64> : index loc(#loc11)
    %9 = arith.index_cast %8 : index to i64 loc(#loc12)
    %10 = arith.muli %9, %c256_i64 : i64 loc(#loc13)
    %11 = arith.index_cast %10 : i64 to index loc(#loc11)
    %12 = arith.divui %11, %8 : index loc(#loc11)
    %alloc = memref.alloc(%12) : memref<?xmemref<?xf64>> loc(#loc11)
    affine.store %alloc, %alloca_3[] : memref<memref<?xmemref<?xf64>>> loc(#loc7)
    %13 = polygeist.typeSize memref<?xf64> : index loc(#loc14)
    %14 = arith.index_cast %13 : index to i64 loc(#loc15)
    %15 = arith.muli %14, %c256_i64 : i64 loc(#loc16)
    %16 = arith.index_cast %15 : i64 to index loc(#loc14)
    %17 = arith.divui %16, %13 : index loc(#loc14)
    %alloc_6 = memref.alloc(%17) : memref<?xmemref<?xf64>> loc(#loc14)
    affine.store %alloc_6, %alloca_2[] : memref<memref<?xmemref<?xf64>>> loc(#loc7)
    %18 = polygeist.typeSize memref<?xf64> : index loc(#loc17)
    %19 = arith.index_cast %18 : index to i64 loc(#loc18)
    %20 = arith.muli %19, %c256_i64 : i64 loc(#loc19)
    %21 = arith.index_cast %20 : i64 to index loc(#loc17)
    %22 = arith.divui %21, %18 : index loc(#loc17)
    %alloc_7 = memref.alloc(%22) : memref<?xmemref<?xf64>> loc(#loc17)
    affine.store %alloc_7, %alloca_1[] : memref<memref<?xmemref<?xf64>>> loc(#loc7)
    %23 = polygeist.typeSize memref<?xf64> : index loc(#loc20)
    %24 = arith.index_cast %23 : index to i64 loc(#loc21)
    %25 = arith.muli %24, %c256_i64 : i64 loc(#loc22)
    %26 = arith.index_cast %25 : i64 to index loc(#loc20)
    %27 = arith.divui %26, %23 : index loc(#loc20)
    %alloc_8 = memref.alloc(%27) : memref<?xmemref<?xf64>> loc(#loc20)
    affine.store %alloc_8, %alloca_0[] : memref<memref<?xmemref<?xf64>>> loc(#loc7)
    %28 = polygeist.typeSize memref<?xf64> : index loc(#loc23)
    %29 = arith.index_cast %28 : index to i64 loc(#loc24)
    %30 = arith.muli %29, %c256_i64 : i64 loc(#loc25)
    %31 = arith.index_cast %30 : i64 to index loc(#loc23)
    %32 = arith.divui %31, %28 : index loc(#loc23)
    %alloc_9 = memref.alloc(%32) : memref<?xmemref<?xf64>> loc(#loc23)
    affine.store %alloc_9, %alloca[] : memref<memref<?xmemref<?xf64>>> loc(#loc7)
    affine.for %arg2 loc("/home/raherrer/projects/carts/external/carts-benchmarks/polybench/2mm/2mm.c":119:21) = 0 to 256 {
      %alloc_11 = memref.alloc() : memref<256xf64> loc(#loc27)
      %cast_12 = memref.cast %alloc_11 : memref<256xf64> to memref<?xf64> loc(#loc27)
      affine.store %cast_12, %alloc[%arg2] : memref<?xmemref<?xf64>> loc(#loc28)
      %alloc_13 = memref.alloc() : memref<256xf64> loc(#loc29)
      %cast_14 = memref.cast %alloc_13 : memref<256xf64> to memref<?xf64> loc(#loc29)
      affine.store %cast_14, %alloc_6[%arg2] : memref<?xmemref<?xf64>> loc(#loc30)
      %alloc_15 = memref.alloc() : memref<256xf64> loc(#loc31)
      %cast_16 = memref.cast %alloc_15 : memref<256xf64> to memref<?xf64> loc(#loc31)
      affine.store %cast_16, %alloc_9[%arg2] : memref<?xmemref<?xf64>> loc(#loc32)
    } loc(#loc26)
    affine.for %arg2 loc("/home/raherrer/projects/carts/external/carts-benchmarks/polybench/2mm/2mm.c":124:21) = 0 to 256 {
      %alloc_11 = memref.alloc() : memref<256xf64> loc(#loc34)
      %cast_12 = memref.cast %alloc_11 : memref<256xf64> to memref<?xf64> loc(#loc34)
      affine.store %cast_12, %alloc_7[%arg2] : memref<?xmemref<?xf64>> loc(#loc35)
    } loc(#loc33)
    affine.for %arg2 loc("/home/raherrer/projects/carts/external/carts-benchmarks/polybench/2mm/2mm.c":127:21) = 0 to 256 {
      %alloc_11 = memref.alloc() : memref<256xf64> loc(#loc37)
      %cast_12 = memref.cast %alloc_11 : memref<256xf64> to memref<?xf64> loc(#loc37)
      affine.store %cast_12, %alloc_8[%arg2] : memref<?xmemref<?xf64>> loc(#loc38)
    } loc(#loc36)
    %cast = memref.cast %alloca_5 : memref<1xf64> to memref<?xf64> loc(#loc39)
    %cast_10 = memref.cast %alloca_4 : memref<1xf64> to memref<?xf64> loc(#loc40)
    call @init_array(%c256_i32, %c256_i32, %c256_i32, %c256_i32, %cast, %cast_10, %alloc_6, %alloc_7, %alloc_8, %alloc_9) : (i32, i32, i32, i32, memref<?xf64>, memref<?xf64>, memref<?xmemref<?xf64>>, memref<?xmemref<?xf64>>, memref<?xmemref<?xf64>>, memref<?xmemref<?xf64>>) -> () loc(#loc41)
    %33 = polygeist.pointer2memref %3 : !llvm.ptr to memref<?xi8> loc(#loc42)
    call @carts_phase_timer_stop(%33) : (memref<?xi8>) -> () loc(#loc42)
    %34 = polygeist.pointer2memref %4 : !llvm.ptr to memref<?xi8> loc(#loc43)
    call @carts_kernel_timer_start(%34) : (memref<?xi8>) -> () loc(#loc43)
    %35 = affine.load %alloca_5[0] : memref<1xf64> loc(#loc44)
    %36 = affine.load %alloca_4[0] : memref<1xf64> loc(#loc45)
    %37 = affine.load %alloca_3[] : memref<memref<?xmemref<?xf64>>> loc(#loc46)
    %38 = affine.load %alloca_2[] : memref<memref<?xmemref<?xf64>>> loc(#loc47)
    %39 = affine.load %alloca_1[] : memref<memref<?xmemref<?xf64>>> loc(#loc48)
    %40 = affine.load %alloca_0[] : memref<memref<?xmemref<?xf64>>> loc(#loc49)
    %41 = affine.load %alloca[] : memref<memref<?xmemref<?xf64>>> loc(#loc50)
    call @kernel_2mm(%c256_i32, %c256_i32, %c256_i32, %c256_i32, %35, %36, %37, %38, %39, %40, %41) : (i32, i32, i32, i32, f64, f64, memref<?xmemref<?xf64>>, memref<?xmemref<?xf64>>, memref<?xmemref<?xf64>>, memref<?xmemref<?xf64>>, memref<?xmemref<?xf64>>) -> () loc(#loc51)
    %42 = polygeist.pointer2memref %4 : !llvm.ptr to memref<?xi8> loc(#loc52)
    call @carts_kernel_timer_stop(%42) : (memref<?xi8>) -> () loc(#loc52)
    %43 = polygeist.pointer2memref %2 : !llvm.ptr to memref<?xi8> loc(#loc53)
    %44 = polygeist.pointer2memref %4 : !llvm.ptr to memref<?xi8> loc(#loc53)
    call @carts_phase_timer_start(%43, %44) : (memref<?xi8>, memref<?xi8>) -> () loc(#loc53)
    %45 = affine.load %alloca[] : memref<memref<?xmemref<?xf64>>> loc(#loc54)
    %46 = affine.for %arg2 loc("/home/raherrer/projects/carts/external/carts-benchmarks/polybench/2mm/2mm.c":144:21) = 0 to 256 iter_args(%arg3 = %cst) -> (f64) {
      %56 = affine.load %45[%arg2] : memref<?xmemref<?xf64>> loc(#loc54)
      %57 = affine.load %56[%arg2] : memref<?xf64> loc(#loc54)
      %58 = arith.addf %arg3, %57 : f64 loc(#loc56)
      affine.yield %58 : f64 loc(#loc57)
    } loc(#loc55)
    call @carts_bench_checksum_d(%46) : (f64) -> () loc(#loc58)
    %47 = polygeist.pointer2memref %2 : !llvm.ptr to memref<?xi8> loc(#loc59)
    call @carts_phase_timer_stop(%47) : (memref<?xi8>) -> () loc(#loc59)
    %48 = polygeist.pointer2memref %1 : !llvm.ptr to memref<?xi8> loc(#loc60)
    %49 = polygeist.pointer2memref %4 : !llvm.ptr to memref<?xi8> loc(#loc60)
    call @carts_phase_timer_start(%48, %49) : (memref<?xi8>, memref<?xi8>) -> () loc(#loc60)
    %50 = affine.load %alloca_3[] : memref<memref<?xmemref<?xf64>>> loc(#loc61)
    call @free_matrix(%50, %c256_i32) : (memref<?xmemref<?xf64>>, i32) -> () loc(#loc62)
    %51 = affine.load %alloca_2[] : memref<memref<?xmemref<?xf64>>> loc(#loc63)
    call @free_matrix(%51, %c256_i32) : (memref<?xmemref<?xf64>>, i32) -> () loc(#loc64)
    %52 = affine.load %alloca_1[] : memref<memref<?xmemref<?xf64>>> loc(#loc65)
    call @free_matrix(%52, %c256_i32) : (memref<?xmemref<?xf64>>, i32) -> () loc(#loc66)
    %53 = affine.load %alloca_0[] : memref<memref<?xmemref<?xf64>>> loc(#loc67)
    call @free_matrix(%53, %c256_i32) : (memref<?xmemref<?xf64>>, i32) -> () loc(#loc68)
    %54 = affine.load %alloca[] : memref<memref<?xmemref<?xf64>>> loc(#loc69)
    call @free_matrix(%54, %c256_i32) : (memref<?xmemref<?xf64>>, i32) -> () loc(#loc70)
    %55 = polygeist.pointer2memref %1 : !llvm.ptr to memref<?xi8> loc(#loc71)
    call @carts_phase_timer_stop(%55) : (memref<?xi8>) -> () loc(#loc71)
    call @carts_e2e_timer_stop() : () -> () loc(#loc72)
    return %c0_i32 : i32 loc(#loc73)
  } loc(#loc5)
  func.func private @carts_benchmarks_start() attributes {llvm.linkage = #llvm.linkage<external>} loc(#loc74)
  func.func private @carts_e2e_timer_start(memref<?xi8>) attributes {llvm.linkage = #llvm.linkage<external>} loc(#loc75)
  func.func private @carts_phase_timer_start(memref<?xi8>, memref<?xi8>) attributes {llvm.linkage = #llvm.linkage<external>} loc(#loc76)
  func.func private @init_array(%arg0: i32 loc("/home/raherrer/projects/carts/external/carts-benchmarks/polybench/2mm/2mm.c":35:13), %arg1: i32 loc("/home/raherrer/projects/carts/external/carts-benchmarks/polybench/2mm/2mm.c":35:13), %arg2: i32 loc("/home/raherrer/projects/carts/external/carts-benchmarks/polybench/2mm/2mm.c":35:13), %arg3: i32 loc("/home/raherrer/projects/carts/external/carts-benchmarks/polybench/2mm/2mm.c":35:13), %arg4: memref<?xf64> loc("/home/raherrer/projects/carts/external/carts-benchmarks/polybench/2mm/2mm.c":35:13), %arg5: memref<?xf64> loc("/home/raherrer/projects/carts/external/carts-benchmarks/polybench/2mm/2mm.c":35:13), %arg6: memref<?xmemref<?xf64>> loc("/home/raherrer/projects/carts/external/carts-benchmarks/polybench/2mm/2mm.c":35:13), %arg7: memref<?xmemref<?xf64>> loc("/home/raherrer/projects/carts/external/carts-benchmarks/polybench/2mm/2mm.c":35:13), %arg8: memref<?xmemref<?xf64>> loc("/home/raherrer/projects/carts/external/carts-benchmarks/polybench/2mm/2mm.c":35:13), %arg9: memref<?xmemref<?xf64>> loc("/home/raherrer/projects/carts/external/carts-benchmarks/polybench/2mm/2mm.c":35:13)) attributes {llvm.linkage = #llvm.linkage<internal>} {
    %cst = arith.constant 2.123000e+03 : f64 loc(#loc78)
    %cst_0 = arith.constant 3.241200e+04 : f64 loc(#loc79)
    %c2_i32 = arith.constant 2 : i32 loc(#loc)
    %c3_i32 = arith.constant 3 : i32 loc(#loc)
    %c1_i32 = arith.constant 1 : i32 loc(#loc)
    affine.store %cst_0, %arg4[0] : memref<?xf64> loc(#loc80)
    affine.store %cst, %arg5[0] : memref<?xf64> loc(#loc81)
    %0 = arith.sitofp %arg0 : i32 to f64 loc(#loc82)
    %1 = arith.index_cast %arg0 : i32 to index loc(#loc83)
    %2 = arith.index_cast %arg2 : i32 to index loc(#loc84)
    affine.for %arg10 loc("/home/raherrer/projects/carts/external/carts-benchmarks/polybench/2mm/2mm.c":42:17) = 0 to %1 {
      %12 = arith.index_cast %arg10 : index to i32 loc(#loc83)
      %13 = arith.sitofp %12 : i32 to f64 loc(#loc85)
      affine.for %arg11 loc("/home/raherrer/projects/carts/external/carts-benchmarks/polybench/2mm/2mm.c":43:19) = 0 to %2 {
        %14 = arith.index_cast %arg11 : index to i32 loc(#loc84)
        %15 = affine.load %arg6[%arg10] : memref<?xmemref<?xf64>> loc(#loc86)
        %16 = arith.sitofp %14 : i32 to f64 loc(#loc87)
        %17 = arith.mulf %13, %16 : f64 loc(#loc88)
        %18 = arith.divf %17, %0 : f64 loc(#loc89)
        affine.store %18, %15[%arg11] : memref<?xf64> loc(#loc90)
      } loc(#loc84)
    } loc(#loc83)
    %3 = arith.sitofp %arg1 : i32 to f64 loc(#loc91)
    %4 = arith.index_cast %arg2 : i32 to index loc(#loc92)
    %5 = arith.index_cast %arg1 : i32 to index loc(#loc93)
    affine.for %arg10 loc("/home/raherrer/projects/carts/external/carts-benchmarks/polybench/2mm/2mm.c":45:17) = 0 to %4 {
      %12 = arith.index_cast %arg10 : index to i32 loc(#loc92)
      %13 = arith.sitofp %12 : i32 to f64 loc(#loc94)
      affine.for %arg11 loc("/home/raherrer/projects/carts/external/carts-benchmarks/polybench/2mm/2mm.c":46:19) = 0 to %5 {
        %14 = arith.index_cast %arg11 : index to i32 loc(#loc93)
        %15 = affine.load %arg7[%arg10] : memref<?xmemref<?xf64>> loc(#loc95)
        %16 = arith.addi %14, %c1_i32 : i32 loc(#loc96)
        %17 = arith.sitofp %16 : i32 to f64 loc(#loc97)
        %18 = arith.mulf %13, %17 : f64 loc(#loc98)
        %19 = arith.divf %18, %3 : f64 loc(#loc99)
        affine.store %19, %15[%arg11] : memref<?xf64> loc(#loc100)
      } loc(#loc93)
    } loc(#loc92)
    %6 = arith.sitofp %arg3 : i32 to f64 loc(#loc101)
    %7 = arith.index_cast %arg3 : i32 to index loc(#loc102)
    %8 = arith.index_cast %arg1 : i32 to index loc(#loc103)
    affine.for %arg10 loc("/home/raherrer/projects/carts/external/carts-benchmarks/polybench/2mm/2mm.c":48:17) = 0 to %7 {
      %12 = arith.index_cast %arg10 : index to i32 loc(#loc102)
      %13 = arith.sitofp %12 : i32 to f64 loc(#loc104)
      affine.for %arg11 loc("/home/raherrer/projects/carts/external/carts-benchmarks/polybench/2mm/2mm.c":49:19) = 0 to %8 {
        %14 = arith.index_cast %arg11 : index to i32 loc(#loc103)
        %15 = affine.load %arg8[%arg10] : memref<?xmemref<?xf64>> loc(#loc105)
        %16 = arith.addi %14, %c3_i32 : i32 loc(#loc106)
        %17 = arith.sitofp %16 : i32 to f64 loc(#loc107)
        %18 = arith.mulf %13, %17 : f64 loc(#loc108)
        %19 = arith.divf %18, %6 : f64 loc(#loc109)
        affine.store %19, %15[%arg11] : memref<?xf64> loc(#loc110)
      } loc(#loc103)
    } loc(#loc102)
    %9 = arith.sitofp %arg2 : i32 to f64 loc(#loc111)
    %10 = arith.index_cast %arg0 : i32 to index loc(#loc112)
    %11 = arith.index_cast %arg3 : i32 to index loc(#loc113)
    affine.for %arg10 loc("/home/raherrer/projects/carts/external/carts-benchmarks/polybench/2mm/2mm.c":51:17) = 0 to %10 {
      %12 = arith.index_cast %arg10 : index to i32 loc(#loc112)
      %13 = arith.sitofp %12 : i32 to f64 loc(#loc114)
      affine.for %arg11 loc("/home/raherrer/projects/carts/external/carts-benchmarks/polybench/2mm/2mm.c":52:19) = 0 to %11 {
        %14 = arith.index_cast %arg11 : index to i32 loc(#loc113)
        %15 = affine.load %arg9[%arg10] : memref<?xmemref<?xf64>> loc(#loc115)
        %16 = arith.addi %14, %c2_i32 : i32 loc(#loc116)
        %17 = arith.sitofp %16 : i32 to f64 loc(#loc117)
        %18 = arith.mulf %13, %17 : f64 loc(#loc118)
        %19 = arith.divf %18, %9 : f64 loc(#loc119)
        affine.store %19, %15[%arg11] : memref<?xf64> loc(#loc120)
      } loc(#loc113)
    } loc(#loc112)
    return loc(#loc121)
  } loc(#loc77)
  func.func private @carts_phase_timer_stop(memref<?xi8>) attributes {llvm.linkage = #llvm.linkage<external>} loc(#loc122)
  func.func private @carts_kernel_timer_start(memref<?xi8>) attributes {llvm.linkage = #llvm.linkage<external>} loc(#loc123)
  func.func private @kernel_2mm(%arg0: i32 loc("/home/raherrer/projects/carts/external/carts-benchmarks/polybench/2mm/2mm.c":72:13), %arg1: i32 loc("/home/raherrer/projects/carts/external/carts-benchmarks/polybench/2mm/2mm.c":72:13), %arg2: i32 loc("/home/raherrer/projects/carts/external/carts-benchmarks/polybench/2mm/2mm.c":72:13), %arg3: i32 loc("/home/raherrer/projects/carts/external/carts-benchmarks/polybench/2mm/2mm.c":72:13), %arg4: f64 loc("/home/raherrer/projects/carts/external/carts-benchmarks/polybench/2mm/2mm.c":72:13), %arg5: f64 loc("/home/raherrer/projects/carts/external/carts-benchmarks/polybench/2mm/2mm.c":72:13), %arg6: memref<?xmemref<?xf64>> loc("/home/raherrer/projects/carts/external/carts-benchmarks/polybench/2mm/2mm.c":72:13), %arg7: memref<?xmemref<?xf64>> loc("/home/raherrer/projects/carts/external/carts-benchmarks/polybench/2mm/2mm.c":72:13), %arg8: memref<?xmemref<?xf64>> loc("/home/raherrer/projects/carts/external/carts-benchmarks/polybench/2mm/2mm.c":72:13), %arg9: memref<?xmemref<?xf64>> loc("/home/raherrer/projects/carts/external/carts-benchmarks/polybench/2mm/2mm.c":72:13), %arg10: memref<?xmemref<?xf64>> loc("/home/raherrer/projects/carts/external/carts-benchmarks/polybench/2mm/2mm.c":72:13)) attributes {llvm.linkage = #llvm.linkage<internal>} {
    %cst = arith.constant 0.000000e+00 : f64 loc(#loc)
    %0 = arith.index_cast %arg2 : i32 to index loc(#loc124)
    %1 = arith.index_cast %arg3 : i32 to index loc(#loc124)
    %2 = arith.index_cast %arg1 : i32 to index loc(#loc124)
    %3 = arith.index_cast %arg0 : i32 to index loc(#loc125)
    affine.for %arg11 loc("/home/raherrer/projects/carts/external/carts-benchmarks/polybench/2mm/2mm.c":81:5) = 0 to %3 {
      affine.for %arg12 loc("/home/raherrer/projects/carts/external/carts-benchmarks/polybench/2mm/2mm.c":82:7) = 0 to %2 {
        %4 = affine.load %arg6[%arg11] : memref<?xmemref<?xf64>> loc(#loc128)
        affine.store %cst, %4[%arg12] : memref<?xf64> loc(#loc129)
        affine.for %arg13 loc("/home/raherrer/projects/carts/external/carts-benchmarks/polybench/2mm/2mm.c":84:9) = 0 to %0 {
          %5 = affine.load %arg6[%arg11] : memref<?xmemref<?xf64>> loc(#loc131)
          %6 = affine.load %arg7[%arg11] : memref<?xmemref<?xf64>> loc(#loc132)
          %7 = affine.load %6[%arg13] : memref<?xf64> loc(#loc132)
          %8 = arith.mulf %arg4, %7 : f64 loc(#loc133)
          %9 = affine.load %arg8[%arg13] : memref<?xmemref<?xf64>> loc(#loc134)
          %10 = affine.load %9[%arg12] : memref<?xf64> loc(#loc134)
          %11 = arith.mulf %8, %10 : f64 loc(#loc135)
          %12 = affine.load %5[%arg12] : memref<?xf64> loc(#loc136)
          %13 = arith.addf %12, %11 : f64 loc(#loc136)
          affine.store %13, %5[%arg12] : memref<?xf64> loc(#loc136)
        } loc(#loc130)
      } loc(#loc127)
    } loc(#loc126)
    affine.for %arg11 loc("/home/raherrer/projects/carts/external/carts-benchmarks/polybench/2mm/2mm.c":88:5) = 0 to %3 {
      affine.for %arg12 loc("/home/raherrer/projects/carts/external/carts-benchmarks/polybench/2mm/2mm.c":89:7) = 0 to %1 {
        %4 = affine.load %arg10[%arg11] : memref<?xmemref<?xf64>> loc(#loc139)
        %5 = affine.load %4[%arg12] : memref<?xf64> loc(#loc140)
        %6 = arith.mulf %5, %arg5 : f64 loc(#loc140)
        affine.store %6, %4[%arg12] : memref<?xf64> loc(#loc140)
        affine.for %arg13 loc("/home/raherrer/projects/carts/external/carts-benchmarks/polybench/2mm/2mm.c":91:9) = 0 to %2 {
          %7 = affine.load %arg10[%arg11] : memref<?xmemref<?xf64>> loc(#loc142)
          %8 = affine.load %arg6[%arg11] : memref<?xmemref<?xf64>> loc(#loc143)
          %9 = affine.load %8[%arg13] : memref<?xf64> loc(#loc143)
          %10 = affine.load %arg9[%arg13] : memref<?xmemref<?xf64>> loc(#loc144)
          %11 = affine.load %10[%arg12] : memref<?xf64> loc(#loc144)
          %12 = arith.mulf %9, %11 : f64 loc(#loc145)
          %13 = affine.load %7[%arg12] : memref<?xf64> loc(#loc146)
          %14 = arith.addf %13, %12 : f64 loc(#loc146)
          affine.store %14, %7[%arg12] : memref<?xf64> loc(#loc146)
        } loc(#loc141)
      } loc(#loc138)
    } loc(#loc137)
    return loc(#loc147)
  } loc(#loc124)
  func.func private @carts_kernel_timer_stop(memref<?xi8>) attributes {llvm.linkage = #llvm.linkage<external>} loc(#loc148)
  func.func private @carts_bench_checksum_d(f64) attributes {llvm.linkage = #llvm.linkage<external>} loc(#loc149)
  func.func private @free_matrix(%arg0: memref<?xmemref<?xf64>> loc("/home/raherrer/projects/carts/external/carts-benchmarks/polybench/2mm/2mm.c":24:13), %arg1: i32 loc("/home/raherrer/projects/carts/external/carts-benchmarks/polybench/2mm/2mm.c":24:13)) attributes {llvm.linkage = #llvm.linkage<internal>} {
    %0 = llvm.mlir.zero : !llvm.ptr loc(#loc)
    %true = arith.constant true loc(#loc)
    %1 = arith.index_cast %arg1 : i32 to index loc(#loc150)
    %2 = polygeist.memref2pointer %arg0 : memref<?xmemref<?xf64>> to !llvm.ptr loc(#loc151)
    %3 = llvm.icmp "eq" %2, %0 : !llvm.ptr loc(#loc151)
    %4 = arith.xori %3, %true : i1 loc(#loc)
    scf.if %4 {
      affine.for %arg2 loc("/home/raherrer/projects/carts/external/carts-benchmarks/polybench/2mm/2mm.c":28:21) = 0 to %1 {
        %5 = affine.load %arg0[%arg2] : memref<?xmemref<?xf64>> loc(#loc153)
        memref.dealloc %5 : memref<?xf64> loc(#loc153)
      } loc(#loc152)
      memref.dealloc %arg0 : memref<?xmemref<?xf64>> loc(#loc154)
    } loc(#loc)
    return loc(#loc155)
  } loc(#loc150)
  func.func private @carts_e2e_timer_stop() attributes {llvm.linkage = #llvm.linkage<external>} loc(#loc156)
} loc(#loc)
#loc = loc(unknown)
#loc1 = loc("/home/raherrer/projects/carts/.install/carts/include/arts/utils/benchmarks/CartsBenchmarks.h":100:65)
#loc2 = loc("/home/raherrer/projects/carts/.install/carts/include/arts/utils/benchmarks/CartsBenchmarks.h":98:27)
#loc3 = loc("/home/raherrer/projects/carts/.install/carts/include/arts/utils/benchmarks/CartsBenchmarks.h":95:65)
#loc4 = loc("/home/raherrer/projects/carts/external/carts-benchmarks/polybench/2mm/2mm.c":101:25)
#loc6 = loc("/home/raherrer/projects/carts/external/carts-benchmarks/polybench/2mm/2mm.c":142:3)
#loc7 = loc("/home/raherrer/projects/carts/external/carts-benchmarks/polybench/2mm/2mm.h":61:21)
#loc8 = loc("/home/raherrer/projects/carts/.install/carts/include/arts/utils/benchmarks/CartsBenchmarks.h":54:34)
#loc9 = loc("/home/raherrer/projects/carts/.install/carts/include/arts/utils/benchmarks/CartsBenchmarks.h":79:37)
#loc10 = loc("/home/raherrer/projects/carts/.install/carts/include/arts/utils/benchmarks/CartsBenchmarks.h":95:41)
#loc11 = loc("/home/raherrer/projects/carts/external/carts-benchmarks/polybench/2mm/2mm.c":113:21)
#loc12 = loc("/home/raherrer/projects/carts/external/carts-benchmarks/polybench/2mm/2mm.c":113:47)
#loc13 = loc("/home/raherrer/projects/carts/external/carts-benchmarks/polybench/2mm/2mm.c":113:45)
#loc14 = loc("/home/raherrer/projects/carts/external/carts-benchmarks/polybench/2mm/2mm.c":114:19)
#loc15 = loc("/home/raherrer/projects/carts/external/carts-benchmarks/polybench/2mm/2mm.c":114:45)
#loc16 = loc("/home/raherrer/projects/carts/external/carts-benchmarks/polybench/2mm/2mm.c":114:43)
#loc17 = loc("/home/raherrer/projects/carts/external/carts-benchmarks/polybench/2mm/2mm.c":115:19)
#loc18 = loc("/home/raherrer/projects/carts/external/carts-benchmarks/polybench/2mm/2mm.c":115:45)
#loc19 = loc("/home/raherrer/projects/carts/external/carts-benchmarks/polybench/2mm/2mm.c":115:43)
#loc20 = loc("/home/raherrer/projects/carts/external/carts-benchmarks/polybench/2mm/2mm.c":116:19)
#loc21 = loc("/home/raherrer/projects/carts/external/carts-benchmarks/polybench/2mm/2mm.c":116:45)
#loc22 = loc("/home/raherrer/projects/carts/external/carts-benchmarks/polybench/2mm/2mm.c":116:43)
#loc23 = loc("/home/raherrer/projects/carts/external/carts-benchmarks/polybench/2mm/2mm.c":117:19)
#loc24 = loc("/home/raherrer/projects/carts/external/carts-benchmarks/polybench/2mm/2mm.c":117:45)
#loc25 = loc("/home/raherrer/projects/carts/external/carts-benchmarks/polybench/2mm/2mm.c":117:43)
#loc27 = loc("/home/raherrer/projects/carts/external/carts-benchmarks/polybench/2mm/2mm.c":120:14)
#loc28 = loc("/home/raherrer/projects/carts/external/carts-benchmarks/polybench/2mm/2mm.c":120:12)
#loc29 = loc("/home/raherrer/projects/carts/external/carts-benchmarks/polybench/2mm/2mm.c":121:12)
#loc30 = loc("/home/raherrer/projects/carts/external/carts-benchmarks/polybench/2mm/2mm.c":121:10)
#loc31 = loc("/home/raherrer/projects/carts/external/carts-benchmarks/polybench/2mm/2mm.c":122:12)
#loc32 = loc("/home/raherrer/projects/carts/external/carts-benchmarks/polybench/2mm/2mm.c":122:10)
#loc34 = loc("/home/raherrer/projects/carts/external/carts-benchmarks/polybench/2mm/2mm.c":125:12)
#loc35 = loc("/home/raherrer/projects/carts/external/carts-benchmarks/polybench/2mm/2mm.c":125:10)
#loc37 = loc("/home/raherrer/projects/carts/external/carts-benchmarks/polybench/2mm/2mm.c":128:12)
#loc38 = loc("/home/raherrer/projects/carts/external/carts-benchmarks/polybench/2mm/2mm.c":128:10)
#loc39 = loc("/home/raherrer/projects/carts/external/carts-benchmarks/polybench/2mm/2mm.c":132:30)
#loc40 = loc("/home/raherrer/projects/carts/external/carts-benchmarks/polybench/2mm/2mm.c":132:38)
#loc41 = loc("/home/raherrer/projects/carts/external/carts-benchmarks/polybench/2mm/2mm.c":132:3)
#loc42 = loc("/home/raherrer/projects/carts/.install/carts/include/arts/utils/benchmarks/CartsBenchmarks.h":96:36)
#loc43 = loc("/home/raherrer/projects/carts/.install/carts/include/arts/utils/benchmarks/CartsBenchmarks.h":139:40)
#loc44 = loc("/home/raherrer/projects/carts/external/carts-benchmarks/polybench/2mm/2mm.c":137:30)
#loc45 = loc("/home/raherrer/projects/carts/external/carts-benchmarks/polybench/2mm/2mm.c":137:37)
#loc46 = loc("/home/raherrer/projects/carts/external/carts-benchmarks/polybench/2mm/2mm.c":137:43)
#loc47 = loc("/home/raherrer/projects/carts/external/carts-benchmarks/polybench/2mm/2mm.c":137:48)
#loc48 = loc("/home/raherrer/projects/carts/external/carts-benchmarks/polybench/2mm/2mm.c":137:51)
#loc49 = loc("/home/raherrer/projects/carts/external/carts-benchmarks/polybench/2mm/2mm.c":137:54)
#loc50 = loc("/home/raherrer/projects/carts/external/carts-benchmarks/polybench/2mm/2mm.c":137:57)
#loc51 = loc("/home/raherrer/projects/carts/external/carts-benchmarks/polybench/2mm/2mm.c":137:3)
#loc52 = loc("/home/raherrer/projects/carts/.install/carts/include/arts/utils/benchmarks/CartsBenchmarks.h":140:39)
#loc53 = loc("/home/raherrer/projects/carts/.install/carts/include/arts/utils/benchmarks/CartsBenchmarks.h":98:3)
#loc54 = loc("/home/raherrer/projects/carts/external/carts-benchmarks/polybench/2mm/2mm.c":145:17)
#loc56 = loc("/home/raherrer/projects/carts/external/carts-benchmarks/polybench/2mm/2mm.c":145:14)
#loc57 = loc("/home/raherrer/projects/carts/external/carts-benchmarks/polybench/2mm/2mm.c":144:3)
#loc58 = loc("/home/raherrer/projects/carts/.install/carts/include/arts/utils/benchmarks/CartsBenchmarks.h":251:3)
#loc59 = loc("/home/raherrer/projects/carts/.install/carts/include/arts/utils/benchmarks/CartsBenchmarks.h":99:41)
#loc60 = loc("/home/raherrer/projects/carts/.install/carts/include/arts/utils/benchmarks/CartsBenchmarks.h":100:41)
#loc61 = loc("/home/raherrer/projects/carts/external/carts-benchmarks/polybench/2mm/2mm.c":152:15)
#loc62 = loc("/home/raherrer/projects/carts/external/carts-benchmarks/polybench/2mm/2mm.c":152:3)
#loc63 = loc("/home/raherrer/projects/carts/external/carts-benchmarks/polybench/2mm/2mm.c":153:15)
#loc64 = loc("/home/raherrer/projects/carts/external/carts-benchmarks/polybench/2mm/2mm.c":153:3)
#loc65 = loc("/home/raherrer/projects/carts/external/carts-benchmarks/polybench/2mm/2mm.c":154:15)
#loc66 = loc("/home/raherrer/projects/carts/external/carts-benchmarks/polybench/2mm/2mm.c":154:3)
#loc67 = loc("/home/raherrer/projects/carts/external/carts-benchmarks/polybench/2mm/2mm.c":155:15)
#loc68 = loc("/home/raherrer/projects/carts/external/carts-benchmarks/polybench/2mm/2mm.c":155:3)
#loc69 = loc("/home/raherrer/projects/carts/external/carts-benchmarks/polybench/2mm/2mm.c":156:15)
#loc70 = loc("/home/raherrer/projects/carts/external/carts-benchmarks/polybench/2mm/2mm.c":156:3)
#loc71 = loc("/home/raherrer/projects/carts/.install/carts/include/arts/utils/benchmarks/CartsBenchmarks.h":101:36)
#loc72 = loc("/home/raherrer/projects/carts/.install/carts/include/arts/utils/benchmarks/CartsBenchmarks.h":80:32)
#loc73 = loc("/home/raherrer/projects/carts/external/carts-benchmarks/polybench/2mm/2mm.c":162:1)
#loc74 = loc("/home/raherrer/projects/carts/.install/carts/include/arts/utils/benchmarks/CartsBenchmarks.h":50:6)
#loc75 = loc("/home/raherrer/projects/carts/.install/carts/include/arts/utils/benchmarks/CartsBenchmarks.h":74:6)
#loc76 = loc("/home/raherrer/projects/carts/.install/carts/include/arts/utils/benchmarks/CartsBenchmarks.h":90:6)
#loc78 = loc("/home/raherrer/projects/carts/external/carts-benchmarks/polybench/2mm/2mm.c":41:11)
#loc79 = loc("/home/raherrer/projects/carts/external/carts-benchmarks/polybench/2mm/2mm.c":40:12)
#loc80 = loc("/home/raherrer/projects/carts/external/carts-benchmarks/polybench/2mm/2mm.c":40:10)
#loc81 = loc("/home/raherrer/projects/carts/external/carts-benchmarks/polybench/2mm/2mm.c":41:9)
#loc82 = loc("/home/raherrer/projects/carts/external/carts-benchmarks/polybench/2mm/2mm.c":44:38)
#loc85 = loc("/home/raherrer/projects/carts/external/carts-benchmarks/polybench/2mm/2mm.c":44:18)
#loc86 = loc("/home/raherrer/projects/carts/external/carts-benchmarks/polybench/2mm/2mm.c":44:7)
#loc87 = loc("/home/raherrer/projects/carts/external/carts-benchmarks/polybench/2mm/2mm.c":44:33)
#loc88 = loc("/home/raherrer/projects/carts/external/carts-benchmarks/polybench/2mm/2mm.c":44:31)
#loc89 = loc("/home/raherrer/projects/carts/external/carts-benchmarks/polybench/2mm/2mm.c":44:36)
#loc90 = loc("/home/raherrer/projects/carts/external/carts-benchmarks/polybench/2mm/2mm.c":44:15)
#loc91 = loc("/home/raherrer/projects/carts/external/carts-benchmarks/polybench/2mm/2mm.c":47:44)
#loc94 = loc("/home/raherrer/projects/carts/external/carts-benchmarks/polybench/2mm/2mm.c":47:18)
#loc95 = loc("/home/raherrer/projects/carts/external/carts-benchmarks/polybench/2mm/2mm.c":47:7)
#loc96 = loc("/home/raherrer/projects/carts/external/carts-benchmarks/polybench/2mm/2mm.c":47:36)
#loc97 = loc("/home/raherrer/projects/carts/external/carts-benchmarks/polybench/2mm/2mm.c":47:33)
#loc98 = loc("/home/raherrer/projects/carts/external/carts-benchmarks/polybench/2mm/2mm.c":47:31)
#loc99 = loc("/home/raherrer/projects/carts/external/carts-benchmarks/polybench/2mm/2mm.c":47:42)
#loc100 = loc("/home/raherrer/projects/carts/external/carts-benchmarks/polybench/2mm/2mm.c":47:15)
#loc101 = loc("/home/raherrer/projects/carts/external/carts-benchmarks/polybench/2mm/2mm.c":50:44)
#loc104 = loc("/home/raherrer/projects/carts/external/carts-benchmarks/polybench/2mm/2mm.c":50:18)
#loc105 = loc("/home/raherrer/projects/carts/external/carts-benchmarks/polybench/2mm/2mm.c":50:7)
#loc106 = loc("/home/raherrer/projects/carts/external/carts-benchmarks/polybench/2mm/2mm.c":50:36)
#loc107 = loc("/home/raherrer/projects/carts/external/carts-benchmarks/polybench/2mm/2mm.c":50:33)
#loc108 = loc("/home/raherrer/projects/carts/external/carts-benchmarks/polybench/2mm/2mm.c":50:31)
#loc109 = loc("/home/raherrer/projects/carts/external/carts-benchmarks/polybench/2mm/2mm.c":50:42)
#loc110 = loc("/home/raherrer/projects/carts/external/carts-benchmarks/polybench/2mm/2mm.c":50:15)
#loc111 = loc("/home/raherrer/projects/carts/external/carts-benchmarks/polybench/2mm/2mm.c":53:44)
#loc114 = loc("/home/raherrer/projects/carts/external/carts-benchmarks/polybench/2mm/2mm.c":53:18)
#loc115 = loc("/home/raherrer/projects/carts/external/carts-benchmarks/polybench/2mm/2mm.c":53:7)
#loc116 = loc("/home/raherrer/projects/carts/external/carts-benchmarks/polybench/2mm/2mm.c":53:36)
#loc117 = loc("/home/raherrer/projects/carts/external/carts-benchmarks/polybench/2mm/2mm.c":53:33)
#loc118 = loc("/home/raherrer/projects/carts/external/carts-benchmarks/polybench/2mm/2mm.c":53:31)
#loc119 = loc("/home/raherrer/projects/carts/external/carts-benchmarks/polybench/2mm/2mm.c":53:42)
#loc120 = loc("/home/raherrer/projects/carts/external/carts-benchmarks/polybench/2mm/2mm.c":53:15)
#loc121 = loc("/home/raherrer/projects/carts/external/carts-benchmarks/polybench/2mm/2mm.c":54:1)
#loc122 = loc("/home/raherrer/projects/carts/.install/carts/include/arts/utils/benchmarks/CartsBenchmarks.h":93:6)
#loc123 = loc("/home/raherrer/projects/carts/.install/carts/include/arts/utils/benchmarks/CartsBenchmarks.h":128:6)
#loc125 = loc("/home/raherrer/projects/carts/external/carts-benchmarks/polybench/2mm/2mm.c":81:19)
#loc128 = loc("/home/raherrer/projects/carts/external/carts-benchmarks/polybench/2mm/2mm.c":83:9)
#loc129 = loc("/home/raherrer/projects/carts/external/carts-benchmarks/polybench/2mm/2mm.c":83:19)
#loc131 = loc("/home/raherrer/projects/carts/external/carts-benchmarks/polybench/2mm/2mm.c":85:11)
#loc132 = loc("/home/raherrer/projects/carts/external/carts-benchmarks/polybench/2mm/2mm.c":85:32)
#loc133 = loc("/home/raherrer/projects/carts/external/carts-benchmarks/polybench/2mm/2mm.c":85:30)
#loc134 = loc("/home/raherrer/projects/carts/external/carts-benchmarks/polybench/2mm/2mm.c":85:42)
#loc135 = loc("/home/raherrer/projects/carts/external/carts-benchmarks/polybench/2mm/2mm.c":85:40)
#loc136 = loc("/home/raherrer/projects/carts/external/carts-benchmarks/polybench/2mm/2mm.c":85:21)
#loc139 = loc("/home/raherrer/projects/carts/external/carts-benchmarks/polybench/2mm/2mm.c":90:9)
#loc140 = loc("/home/raherrer/projects/carts/external/carts-benchmarks/polybench/2mm/2mm.c":90:17)
#loc142 = loc("/home/raherrer/projects/carts/external/carts-benchmarks/polybench/2mm/2mm.c":92:11)
#loc143 = loc("/home/raherrer/projects/carts/external/carts-benchmarks/polybench/2mm/2mm.c":92:22)
#loc144 = loc("/home/raherrer/projects/carts/external/carts-benchmarks/polybench/2mm/2mm.c":92:34)
#loc145 = loc("/home/raherrer/projects/carts/external/carts-benchmarks/polybench/2mm/2mm.c":92:32)
#loc146 = loc("/home/raherrer/projects/carts/external/carts-benchmarks/polybench/2mm/2mm.c":92:19)
#loc147 = loc("/home/raherrer/projects/carts/external/carts-benchmarks/polybench/2mm/2mm.c":96:1)
#loc148 = loc("/home/raherrer/projects/carts/.install/carts/include/arts/utils/benchmarks/CartsBenchmarks.h":131:6)
#loc149 = loc("/home/raherrer/projects/carts/.install/carts/include/arts/utils/benchmarks/CartsBenchmarks.h":207:6)
#loc151 = loc("/home/raherrer/projects/carts/external/carts-benchmarks/polybench/2mm/2mm.c":25:7)
#loc153 = loc("/home/raherrer/projects/carts/external/carts-benchmarks/polybench/2mm/2mm.c":29:5)
#loc154 = loc("/home/raherrer/projects/carts/external/carts-benchmarks/polybench/2mm/2mm.c":31:3)
#loc155 = loc("/home/raherrer/projects/carts/external/carts-benchmarks/polybench/2mm/2mm.c":32:1)
#loc156 = loc("/home/raherrer/projects/carts/.install/carts/include/arts/utils/benchmarks/CartsBenchmarks.h":77:6)
